results/MyEnv/MyEnv/mappo/check/run15/models/actor_agent1.pt (torch, 46348 bytes, 17 tensors)

base.feature_norm.weight f4 [14]
1.0101119 0.9943224 0.98419577 1.0152558 0.9924875 0.99197525 0.9747116 0.9983143
1.0011327 0.97346765 1.0116881 1.0121993 1.0174677 0.9987644
00000000: 594b 813f ea8b 7e3f 41f4 7b3f e7f3 813f
00000010: a913 7e3f 17f2 7d3f b386 793f 8791 7f3f
00000020: 1e25 803f 2d35 793f ff7e 813f bf8f 813f
00000030: 623c 823f 06af 7f3f

base.feature_norm.bias f4 [14]
-0.0025976948 0.011809471 -0.02531849 0.0017140332 0.009192883 0.010500622 -0.0024944902 0.014406638
-0.023701612 -0.018195085 0.009929922 -0.002452872 -0.017852832 0.0031516608
00000000: 163e 2abb 837c 413c b968 cfbc 69a9 e03a
00000010: bf9d 163c cd0a 2c3c 9a7a 23bb d209 6c3c
00000020: e229 c2bc dc0d 95bc 1db1 223c 5dc0 20bb
00000030: 1a40 92bc 188c 4e3b

base.mlp.fc1.0.weight f4 [64, 14]
-0.02650297 0.40909716 0.13074565 0.090298034 0.26899752 -0.18328609 0.18376055 -0.2082809
0.07707157 0.076153256 -0.112931944 0.12134917 -0.1373862 0.19380201 -0.05816132 -0.07456044
-0.29699105 0.0314131 -0.008228367 -0.05050909 0.18075363 -0.26581925 -0.28187326 0.07552358
0.06251679 0.16699365 -0.26414248 -0.20030072 -0.020831592 0.11930167 -0.1986683 0.19541742
0.09273925 -0.05935212 0.17311311 -0.02741604 0.11111539 -0.32050884 -0.25979367 -0.019050697
0.015718743 -0.25095466 0.11609313 0.08385366 -0.46790227 -0.196662 -0.08670417 0.04871024
-0.13318844 -0.11378282 0.10117951 0.027470699 0.23354968 0.1437168 -0.020572336 0.026785314
-0.028589863 0.0044519203 0.023778642 -0.038608804 -0.08474767 -0.005775825 0.33741802 0.13274622
-0.19928227 0.208089 0.16416793 -0.14654501 0.023969118 0.0142212175 0.29865924 -0.15840735
-0.3593303 -0.24763004 0.27684078 -0.29515567 -0.13928983 -0.04079926 0.07804187 0.1768008
0.02004145 -0.12783706 -0.071796685 -0.009830411 -0.08961407 0.052097503 0.15383278 -0.21895503
-0.14794904 -0.24826613 0.14356826 -0.24040018 0.027112523 0.2702313 -0.026020918 -0.22458424
-0.087189175 -0.0054170466 0.08490647 0.14629038 0.1003475 -0.0680894 0.0671704 -0.008083274
-0.103421316 0.23892824 -0.036933113 -0.0741776 -0.24946974 -0.14560156 0.08133571 0.24194898
-0.26793858 0.0071290242 -0.24503213 -0.21769819 -0.07369011 -0.073594026 -0.15059572 -0.10017983
0.19640426 -0.19844514 0.091469385 -0.32897153 0.16129868 0.06873938 -0.16826561 0.084466055
0.0029085486 0.075200975 -0.11044712 -0.042259898 -0.39743337 0.13935521 0.039279863 0.027966311
0.12938976 -0.09076288 0.08600736 -0.002500137 -0.120952845 -0.15850343 -0.06384498 -0.033141743
-0.15558222 -0.4946548 0.19402687 0.041283976 0.13871036 0.06256572 0.18701136 0.0027333898
0.3772796 0.038288478 -0.33426586 -0.01581168 0.0064608464 -0.26762247 0.04355509 -0.10046922
-0.15260209 -0.11525536 0.15692455 0.27944013 0.07897003 0.18968573 -0.1469192 0.052057277
-0.06187984 -0.07265146 0.00517617 -0.009770882 0.14034246 0.009920869 -0.038621966 0.20005684
-0.19551119 -0.09790783 0.2680281 -0.518045 0.084075116 0.084976144 0.062779084 -0.004438333
0.4069794 0.12749268 -0.06530557 -0.1533914 -0.0025008859 0.33722362 -0.14968713 -0.051214132
0.22806798 0.20291173 0.3512159 -0.23094808 -0.06071579 -0.28378198 0.1029872 0.021565888
-0.032721706 -0.47222343 -0.1159259 -0.07079611 0.055377405 -0.02422139 -0.14787298 -0.20117892
-0.062215008 -0.056646466 -0.2052411 0.15998246 0.0116986185 -0.43918017 -0.3570086 0.004100113
0.31425875 -0.04855201 -0.17431669 -0.20148243 -0.077546455 0.32192796 0.08753868 -0.094739795
0.033461265 0.4156635 -0.011469572 -0.026322694 0.34705445 0.1169406 0.31583726 -0.17601627
-0.022206971 0.28915164 -0.20824239 -0.4321947 0.030443823 -0.15690923 0.45677125 0.16420521
-0.1429545 -0.21183805 -0.080969 0.11813712 -0.2297618 -0.14198118 -0.05402768 -0.06154146
-0.18360761 -0.012940767 0.06908786 -0.17478749 -0.21808341 -0.1939343 0.22346504 0.18309557
00000000: c21c d9bc 2f75 d13e 30e2 053e 2dee b83d
00000010: 0bba 893e 59af 3bbe ba2b 3c3e 9747 55be
00000020: b3d7 9d3d 3df6 9b3d dd48 e7bd ea85 f83d
00000030: f8ae 0cbe 0974 463e 903a 6ebd 25b3 98bd
00000040: 360f 98be 06ab 003d 46d0 06bc 9fe2 4ebd
00000050: 7b17 393e 7619 88be b151 90be 1bac 9a3d
00000060: ce08 803d 6200 2b3e af3d 87be a21b 4dbe
00000070: 04a7 aabc 6f54 f43d b46f 4bbe 811b 483e
00000080: 13ee bd3d 351b 73bd 9044 313e 9a97 e0bc
00000090: 7790 e33d bc19 a4be ad03 85be 3510 9cbc
000000a0: 98c4 803c 217d 80be 3cc2 ed3d 78bb ab3d
000000b0: e390 efbe c361 49be f591 b1bd 6384 473d
000000c0: 8d62 08be f806 e9bd 3437 cf3d 3b0a e13c
000000d0: a627 6f3e 7f2a 133e 5187 a8bc e06c db3c
000000e0: 4a35 eabc 6ae1 913b 6dcb c23c 4424 1ebd
000000f0: 3090 adbd 2243 bdbb 0ec2 ac3e a0ee 073e
00000100: a710 4cbe 4815 553e a31b 283e e50f 16be
00000110: e25a c43c 1c00 693c dde9 983e 8935 22be
00000120: 24fa b7be bb92 7dbe 13be 8d3e a51e 97be
00000130: fea1 0ebe 201d 27bd 6ad4 9f3d 450b 353e
00000140: f82d a43c b8e7 02be 240a 93bd bb0f 21bc
00000150: 9587 b7bd 3164 553d 5786 1d3e bf35 60be
00000160: f47f 17be 7a39 7ebe 8f03 133e 772b 76be
00000170: 151b de3c c25b 8a3e d229 d5bc 69f9 65be
00000180: 3d90 b2bd 7b81 b1bb 71e3 ad3d 25cd 153e
00000190: fd82 cd3d 7572 8bbd a290 893d b56f 04bc
000001a0: 8ece d3bd 9ba9 743e 2d47 17bd 6dea 97bd
000001b0: ff74 7fbe 9318 15be 5693 a63d 79c1 773e
000001c0: 3f2f 89be 979a e93b b4e9 7abe 46ec 5ebe
000001d0: d7ea 96bd 77b8 96bd c435 1abe 152b cdbd
000001e0: 331e 493e 3435 4bbe 4d54 bb3d f56e a8be
000001f0: 7b2b 253e 3bc7 8c3d d24d 2cbe 8afc ac3d
00000200: 599d 3e3b f802 9a3d 1a32 e2bd b718 2dbd
00000210: 637c cbbe 22b3 0e3e ece3 203d 9b19 e53c
00000220: c07e 043e e4e1 b9bd a024 b03d 57d9 23bb
00000230: 20b6 f7bd b94e 22be 28c1 82bd a3bf 07bd
00000240: f250 1fbe 6543 fdbe fbae 463e 6319 293d
00000250: 170a 0e3e 7522 803d e87f 3f3e ac22 333b
00000260: cb2a c13e 61d4 1c3d e524 abbe 7f87 81bc
00000270: 82b5 d33b d005 89be d266 323d cec2 cdbd
00000280: b943 1cbe 010b ecbd d4b0 203e c712 8f3e
00000290: 0abb a13d fa3c 423e fd71 16be 033a 553d
000002a0: b775 7dbd 4aca 94bd dc9c a93b 0d16 20bc
000002b0: efb5 0f3e 248b 223c 1132 1ebd b3db 4c3e
000002c0: 1634 48be e683 c8bd fb3a 893e 999e 04bf
000002d0: 932f ac3d f907 ae3d 5292 803d 706f 91bb
000002e0: 9b5f d03e 718d 023e edbe 85bd a312 1dbe
000002f0: e7e5 23bb 93a8 ac3e 9547 19be e9c5 51bd
00000300: a78a 693e 18c8 4f3e 92d2 b33e a77d 6cbe
00000310: 1fb1 78bd df4b 91be f4ea d23d f2aa b03c
00000320: 3207 06bd 45c7 f1be 8f6a edbd 8dfd 90bd
00000330: 6bd3 623d f06b c6bc 046c 17be d901 4ebe
00000340: 2ad5 7ebd 2006 68bd b92a 52be 71d2 233e
00000350: 90ab 3f3c 39dc e0be d5c9 b6be 3e5a 863b
00000360: 86e6 a03e 79de 46bd 1380 32be 6951 4ebe
00000370: add0 9ebd bed3 a43e 7b47 b33d f006 c2bd
00000380: ae0e 093d d9d1 d43e dfea 3bbc b1a2 d7bc
00000390: 1fb1 b13e 8e7e ef3d 6cb5 a13e 9c3d 34be
000003a0: 65eb b5bc af0b 943e 7e3d 55be a048 ddbe
000003b0: 5365 f93c d0ac 20be ecdd e93e 6925 283e
000003c0: aa62 12be 13ec 58be 13d3 a5bd e0f1 f13d
000003d0: ad46 6bbe 8463 11be 214c 5dbd e612 7cbd
000003e0: a203 3cbe 8305 54bc f07d 8d3d 7efb 32be
000003f0: 4251 5fbe b796 46be 05d4 643e 687d 3b3e

base.mlp.fc1.0.bias f4 [64]
-0.0076175183 0.012710691 -0.017067041 -0.0014184326 -0.018160138 -0.013027262 -0.018144425 0.020665398
0.0032061834 0.0068637347 0.006763811 0.01131459 0.013134958 -0.012371132 -0.003950354 0.0071503273
-0.01108015 -0.0028514168 0.0129430415 -0.005208769 0.018274067 -0.011800593 -0.005378022 -0.019465562
-0.002927013 0.024615502 -0.009200549 0.026385149 -0.01290511 -0.001139872 -0.02035258 0.01137641
0.007198293 0.012715104 0.0013483429 -0.011226816 0.0074207815 -0.014770391 -0.012749415 0.0059737144
0.02981874 -0.019831993 0.019770311 -0.01521618 -0.0125051495 -0.008567551 -0.009261543 0.004224554
-0.00750893 0.020171048 0.01540516 0.01122194 -0.0019324463 0.00032657504 -0.006120602 -0.0011257196
0.0048663598 -0.013104497 0.0047692023 -0.0028833095 0.011510322 0.0008771702 -0.00572897 -0.004040267
00000000: 609c f9bb 8140 503c 2ed0 8bbc b3ea b9ba
00000010: 92c4 94bc 4c70 55bc 9ea3 94bc 7b4a a93c
00000020: d51e 523b 2ee9 e03b f6a2 dd3b d560 393c
00000030: 0234 573c 4ab0 4abc f971 81bb 4b4d ea3b
00000040: 8489 35bc d6de 3abb 0d0f 543c 52ae aabb
00000050: 7fb3 953c 4657 41bc 1e3a b0bb 3e76 9fbc
00000060: 21d3 3fbb 73a6 c93c e6bd 16bc ab25 d83c
00000070: f46f 53bc c267 95ba 74ba a6bc 1f64 3a3c
00000080: a9df eb3b 0353 503c e1ba b03a aef0 37bc
00000090: 072a f33b 83ff 71bc ece2 50bc 26bf c33b
000000a0: 6e46 f43c b476 a2bc 59f5 a13c 494d 79bc
000000b0: 66e2 4cbc ea5e 0cbc babd 17bc 216e 8a3b
000000c0: 780d f6bb c13d a53c ed65 7c3c 3adc 373c
000000d0: 234a fdba 2938 ab39 558f c8bb e28c 93ba
000000e0: fc75 9f3b 3fb4 56bc f846 9c3b e8f5 3cbb
000000f0: ca95 3c3c e5f1 653a 15ba bbbb 3764 84bb

base.mlp.fc1.2.weight f4 [64]
1.0036613 1.0323622 0.9831558 0.99687755 0.9926619 0.99895716 0.9841933 1.0245452
1.0266671 0.97729707 0.99331504 1.0118053 0.9882984 0.9815593 0.9770354 0.9753326
0.973387 1.0009893 1.0144274 0.9907152 0.9955783 1.0097287 0.98786074 0.9945965
1.0008445 1.0097055 1.0270405 1.0189607 0.9924974 0.96961474 0.9903441 0.9815968
1.0060459 0.99778295 1.0191725 0.9928443 1.0007427 1.0038445 0.9742755 1.00433
1.0210487 0.9910936 1.0035422 1.006948 0.99687475 1.0068345 0.9998293 1.0074571
1.0138601 1.0108969 1.0130353 1.0277553 0.9824206 1.010607 0.97615945 1.0103434
1.0172483 0.99948066 0.9855565 0.99243414 1.009379 0.98423177 0.99503386 0.9992586
00000000: f977 803f 7224 843f 19b0 7b3f 5e33 7f3f
00000010: 171f 7e3f a8bb 7f3f 18f4 7b3f 4c24 833f
00000020: d469 833f 2430 7a3f e549 7e3f d682 813f
00000030: 2001 7d3f 7847 7b3f fe1e 7a3f 66af 793f
00000040: e42f 793f 6b20 803f c2d8 813f 839f 7d3f
00000050: 38de 7e3f ca3e 813f 71e4 7c3f e09d 7e3f
00000060: ac1b 803f 083e 813f 1076 833f 4e6d 823f
00000070: 4f14 7e3f ac38 783f 3187 7d3f ee49 7b3f
00000080: 1dc6 803f b46e 7f3f 3f74 823f 0b2b 7e3f
00000090: 5618 803f fa7d 803f 1f6a 793f e38d 803f
000000a0: b9b1 823f 4fb8 7d3f 1274 803f ace3 803f
000000b0: 2f33 7f3f f4df 803f d0f4 7f3f 5bf4 803f
000000c0: 2bc6 813f 1265 813f 24ab 813f 7c8d 833f
000000d0: eb7f 7b3f 925b 813f 96e5 793f ef52 813f
000000e0: 3135 823f f7dd 7f3f 6e4d 7c3f 2a10 7e3f
000000f0: 5533 813f 9df6 7b3f 8aba 7e3f 69cf 7f3f

base.mlp.fc1.2.bias f4 [64]
-0.01170174 -0.024876269 0.0038853255 -0.0056777727 -0.008698048 -0.0064895144 0.0018732209 0.015560916
0.0035743427 0.012796981 0.008819656 -0.0006610754 -0.0024676556 -0.019417731 0.004430038 0.018100804
0.0046910867 -0.0012686246 0.005715172 0.0105636865 0.025509007 -0.0141294375 0.016233774 -0.0008710619
-0.011212841 0.009375496 -0.017435942 0.012018662 0.0026055137 -0.0044290354 -0.0253882 0.013340393
0.003846308 -0.00055067556 -0.0063189478 -0.002930274 -0.020699525 0.0012118589 -0.0153945405 0.0060251015
0.023617633 -0.02838953 0.008232532 -0.0053452407 0.0017230574 0.0016823765 -0.01322626 -0.0012403292
-0.024246955 0.022686591 0.024349552 0.0025853817 0.012974658 -0.012569929 0.02985794 -0.015350322
-0.023234125 -0.014264311 -0.0036959355 0.002234011 -0.004661308 0.0033775333 0.008846382 -0.007081051
00000000: a8b8 3fbc 51c9 cbbc f2a0 7e3b 9c0c babb
00000010: 4282 0ebc fea5 d4bb dd86 f53a 36f3 7e3c
00000020: 853f 6a3b 6eaa 513c 5280 103c 054c 2dba
00000030: 64b8 21bb ef11 9fbc da29 913b 2348 943c
00000040: b0b7 993b fa47 a6ba 5646 bb3b 5013 2d3c
00000050: 44f8 d03c 287f 67bc b1fc 843c f957 64ba
00000060: 10b6 37bc ae9b 193c d2d5 8ebc ece9 443c
00000070: 44c1 2a3b 7121 91bb eafa cfbc aa91 5a3c
00000080: 5712 7c3b 365b 10ba 2d0f cfbb d709 40bb
00000090: 0d92 a9bc 3dd7 9e3a 6239 7cbc 376e c53b
000000a0: c479 c13c 2991 e8bc bee1 063c 2127 afbb
000000b0: 36d8 e13a 3083 dc3a f5b2 58bc 8b92 a2ba
000000c0: 8da1 c6bc 3bd9 b93c b678 c73c 826f 293b
000000d0: a993 543c 1af2 4dbc a398 f43c eb7f 7bbc
000000e0: 7e55 bebc dbb4 69bc 8237 72bb 7c68 123b
000000f0: e3bd 98bb 9b59 5d3b 6af0 103c 2908 e8bb

base.mlp.fc_h.0.weight f4 [64, 64]
0.08126014 0.07937433 -0.109151356 0.20474134 -0.008311701 -0.20476338 0.062016707 -0.037206057
-0.049799915 0.1480502 -0.13172488 -0.024831828 0.06840743 -0.24548064 0.15268116 0.031245124
-0.21750888 0.05544177 -0.09489297 -0.11303751 0.17387187 -0.0163253 0.2024798 -0.099519044
-0.2198039 0.1578072 0.0758841 -0.06408353 0.09602678 0.492068 0.22457457 -0.008059308
-0.43330774 0.11170516 -0.09526408 -0.18045196 0.09721761 0.010573119 0.1377095 0.1492512
-0.06934953 0.10938845 0.016481146 0.13725287 -0.3234774 0.12447014 -0.31106514 -0.42752528
-0.26587102 0.1928262 -0.07644677 0.10017379 0.0034938739 0.10864302 -0.2903468 0.047458183
0.08639021 0.09234658 0.16515714 0.30457184 -0.12765808 -0.050607137 -0.064505786 0.32641098
-0.21912143 -0.11524331 -0.15378524 -0.1080955 -0.44440234 -0.26762342 0.05372781 -0.23615795
-0.034117267 0.20380728 -0.01840788 0.022807308 -0.24029802 -0.06051672 -0.17591088 -0.26364994
0.16855061 -0.28686342 -0.3773091 0.049732316 0.16043283 -0.14790128 0.21746688 0.0017139622
0.069471955 -0.11436528 0.0052017258 -0.1936361 0.09048361 0.2501201 -0.011037258 0.14970118
-0.050720602 0.16715829 0.15560211 0.15761723 0.022915361 0.07236095 -0.12726036 -0.11208907
-0.036412083 -0.03637067 0.028800061 -0.08467083 0.25182363 0.28618982 0.18622932 -6.5870256e-05
0.017466411 -0.13825531 0.016500985 -0.24687807 -0.05578971 -0.35836288 0.04941564 0.14920476
-0.12035213 0.43676364 -0.06994047 -0.06481932 -0.30469227 -0.08329507 0.09971802 0.07311181
0.2628773 0.04480593 0.17427132 0.09664283 -0.17308551 -0.03385809 -0.10682488 -0.0053759976
0.4390351 -0.21689528 0.1471426 0.0016710485 -0.3171714 -0.04648127 0.044533383 -0.056054935
-0.2725969 -0.08801616 0.14267492 -0.1561703 -0.18584 0.18913707 0.043303642 0.1677699
0.07246021 0.063746355 -0.09828019 0.06542287 0.3156688 -0.16084704 0.20383513 0.06805059
-0.0031920073 0.12030426 -0.0637235 0.2575405 0.22994845 0.03892522 0.11298417 0.03902032
-0.09665627 -0.104463406 -0.12416451 0.0063568326 0.28387487 0.3797327 0.08209671 -0.22057028
-0.29447654 0.10806337 -0.15619479 0.2485639 -0.3514046 0.0007562646 0.28516898 0.080867134
0.1718822 -0.26495808 -0.09551156 -0.060356315 -0.1896248 0.08336713 0.18557875 -0.00012593478
-0.27444264 -0.051009476 0.06319845 0.14117171 -0.4577214 0.11023329 -0.31195623 -0.08443225
0.12848893 0.07027045 -0.21812433 -0.13299839 -0.0024910131 0.21202016 0.22955394 -0.32995415
0.0029972969 0.003635055 0.22145012 0.23185925 -0.43061784 -0.2468615 0.097762205 0.3146802
-0.18772964 -0.0376276 -0.009227576 -0.032859463 -0.17489403 0.13975394 0.1477309 0.115655586
-0.07468268 -0.16481912 0.2376852 -0.12376173 0.08071802 0.07724201 0.12169627 0.2602357
0.4068278 0.077428825 0.21429309 0.057664327 -0.19201349 -0.067229286 -0.020271374 0.07881613
0.06523194 0.13488266 0.029975608 0.060733676 -0.0074389437 0.11986669 0.13651158 0.25721678
0.05777468 -0.08707636 0.09848182 -0.041540556 -0.07289528 -0.06413251 -0.13263431 -0.23226096
00000000: b76b a63d 028f a23d bf8a dfbd b7a7 513e
00000010: cd2d 08bc 7ead 51be 3b05 7e3d 6165 18bd
00000020: fffa 4bbd 799a 173e e3e2 06be 1e6c cbbc
00000030: 3219 8c3d 475f 7bbe 7358 1c3e c6f5 ff3c
00000040: a6ba 5ebe e916 633d 3f57 c2bd 3680 e7bd
00000050: 780b 323e a3bc 85bc dd56 4f3e a4d0 cbbd
00000060: 4614 61be 3698 213e 1f69 9b3d 3a3e 83bd
00000070: b0a9 c43d 56f0 fb3e e0f6 653e 300b 04bc
00000080: 83da ddbe adc5 e43d d019 c3bd 66c8 38be
00000090: 071a c73d e03a 2d3c b803 0d3e 4ed5 183e
000000a0: 2007 8ebd 0d07 e03d 7803 873c 048c 0c3e
000000b0: d49e a5be 33ea fe3d ee43 9fbe 98e4 dabe
000000c0: 3f20 88be 3b74 453e 2090 9cbd ea27 cd3d
000000d0: 7af9 643b 3b80 de3d 56a8 94be 8363 423d
000000e0: 5aed b03d 3420 bd3d f41e 293e d7f0 9b3e
000000f0: cdb8 02be 6e49 4fbd 9c1b 84bd 571f a73e
00000100: 5e61 60be af04 ecbd e179 1dbe 2c61 ddbd
00000110: b488 e3be f005 89be b111 5c3d 64d3 71be
00000120: 8cbe 0bbd dbb2 503e 1fcc 96bc 64d6 ba3c
00000130: af10 76be 61e0 77bd fb21 34be 20fd 86be
00000140: 8898 2c3e c3df 92be a92e c1be 1db4 4b3d
00000150: 8148 243e 6f73 17be a3af 5e3e 07a7 e03a
00000160: 5047 8e3d 5838 eabd 3d73 aa3b 8b48 46be
00000170: 794f b93d be0f 803e 9ed5 34bc 444b 193e
00000180: 68c0 4fbd 8b2b 2b3e 2956 1f3e 6966 213e
00000190: ffb8 bb3c fa31 943d 8a50 02be f48e e5bd
000001a0: d624 15bd 69f9 14bd 1bee eb3c e667 adbd
000001b0: 07ef 803e 7987 923e e6b2 3e3e d323 8ab8
000001c0: b815 8f3c cd92 0dbe 132d 873c 9bcd 7cbe
000001d0: c083 64bd 577b b7be 0e68 4a3d 22c9 183e
000001e0: 2d7b f6bd 7c9f df3e f33c 8fbd febf 84bd
000001f0: a000 9cbe 9b96 aabd f638 cc3d a5bb 953d
00000200: da97 863e 6c86 373d 2e74 323e adec c53d
00000210: 543d 31be c8ae 0abd 01c7 dabd 2329 b0bb
00000220: 35c9 e03e cc19 5ebe 8dac 163e 1507 db3a
00000230: 4a64 a2be 2563 3ebd a368 363d dc99 65bd
00000240: d291 8bbe d141 b4bd 6019 123e 1beb 1fbe
00000250: d74c 3ebe 26ad 413e 295f 313d dfcb 2b3e
00000260: 0566 943d 738d 823d 2047 c9bd 6dfc 853d
00000270: 579f a13e 16b5 24be 28ba 503e 1c5e 8b3d
00000280: ff30 51bb 1462 f63d 7781 82bd 59dc 833e
00000290: 9b77 6b3e 0d70 1f3d 3f64 e73d c5d3 1f3d
000002a0: b9f3 c5bd e9f0 d5bd f649 febd fa4c d03b
000002b0: 0c58 913e 536c c23e 5222 a83d 2ddd 61be
000002c0: a1c5 96be 5450 dd3d 87f1 1fbe 8987 7e3e
000002d0: 4eeb b3be 0f40 463a ab01 923e ab9d a53d
000002e0: e301 303e 96a8 87be 919b c3bd 2f38 77bd
000002f0: 012d 42be 63bc aa3d 5b08 3e3e 5c0d 04b9
00000300: bf83 8cbe 50ef 50bd 306e 813d 518f 103e
00000310: 765a eabe fec1 e13d bab8 9fbe d1ea acbd
00000320: 9a92 033e f4e9 8f3d fc5b 5fbe bb30 08be
00000330: 4440 23bb d01b 593e 3010 6b3e c0ef a8be
00000340: 4c6e 443b 1a3a 6e3b d2c3 623e 836c 6d3e
00000350: f179 dcbe 43c9 7cbe 8d37 c83d c31d a13e
00000360: 333c 40be 661f 1abd 422f 17bc a597 06bd
00000370: 6c17 33be a81b 0f3e c546 173e d6dc ec3d
00000380: 3cf3 98bd 58c6 28be c063 733e ca76 fdbd
00000390: 7d4f a53d 0f31 9e3d e53b f93d 9d3d 853e
000003a0: bc4b d03e 0193 9e3d a66f 5b3e 6e31 6c3d
000003b0: 2f9f 44be 82af 89bd 2710 a6bc 5a6a a13d
000003c0: 5398 853d ae1e 0a3e 688f f53c e0c3 783d
000003d0: 62c2 f3bb ab7c f53d b1c9 0b3e ebb1 833e
000003e0: 25a5 6c3d 1755 b2bd d6b0 c93d 6e26 2abd
000003f0: 1f4a 95bd e857 83bd 4ad1 07be d1d5 6dbe

base.mlp.fc_h.0.bias f4 [64]
0.0 0.0 0.0 0.0 0.0 0.0 0.0 0.0
0.0 0.0 0.0 0.0 0.0 0.0 0.0 0.0
0.0 0.0 0.0 0.0 0.0 0.0 0.0 0.0
0.0 0.0 0.0 0.0 0.0 0.0 0.0 0.0
0.0 0.0 0.0 0.0 0.0 0.0 0.0 0.0
0.0 0.0 0.0 0.0 0.0 0.0 0.0 0.0
0.0 0.0 0.0 0.0 0.0 0.0 0.0 0.0
0.0 0.0 0.0 0.0 0.0 0.0 0.0 0.0
00000000: 0000 0000 0000 0000 0000 0000 0000 0000
00000010: 0000 0000 0000 0000 0000 0000 0000 0000
00000020: 0000 0000 0000 0000 0000 0000 0000 0000
00000030: 0000 0000 0000 0000 0000 0000 0000 0000
00000040: 0000 0000 0000 0000 0000 0000 0000 0000
00000050: 0000 0000 0000 0000 0000 0000 0000 0000
00000060: 0000 0000 0000 0000 0000 0000 0000 0000
00000070: 0000 0000 0000 0000 0000 0000 0000 0000
00000080: 0000 0000 0000 0000 0000 0000 0000 0000
00000090: 0000 0000 0000 0000 0000 0000 0000 0000
000000a0: 0000 0000 0000 0000 0000 0000 0000 0000
000000b0: 0000 0000 0000 0000 0000 0000 0000 0000
000000c0: 0000 0000 0000 0000 0000 0000 0000 0000
000000d0: 0000 0000 0000 0000 0000 0000 0000 0000
000000e0: 0000 0000 0000 0000 0000 0000 0000 0000
000000f0: 0000 0000 0000 0000 0000 0000 0000 0000

base.mlp.fc_h.2.weight f4 [64]
1.0 1.0 1.0 1.0 1.0 1.0 1.0 1.0
1.0 1.0 1.0 1.0 1.0 1.0 1.0 1.0
1.0 1.0 1.0 1.0 1.0 1.0 1.0 1.0
1.0 1.0 1.0 1.0 1.0 1.0 1.0 1.0
1.0 1.0 1.0 1.0 1.0 1.0 1.0 1.0
1.0 1.0 1.0 1.0 1.0 1.0 1.0 1.0
1.0 1.0 1.0 1.0 1.0 1.0 1.0 1.0
1.0 1.0 1.0 1.0 1.0 1.0 1.0 1.0
00000000: 0000 803f 0000 803f 0000 803f 0000 803f
00000010: 0000 803f 0000 803f 0000 803f 0000 803f
00000020: 0000 803f 0000 803f 0000 803f 0000 803f
00000030: 0000 803f 0000 803f 0000 803f 0000 803f
00000040: 0000 803f 0000 803f 0000 803f 0000 803f
00000050: 0000 803f 0000 803f 0000 803f 0000 803f
00000060: 0000 803f 0000 803f 0000 803f 0000 803f
00000070: 0000 803f 0000 803f 0000 803f 0000 803f
00000080: 0000 803f 0000 803f 0000 803f 0000 803f
00000090: 0000 803f 0000 803f 0000 803f 0000 803f
000000a0: 0000 803f 0000 803f 0000 803f 0000 803f
000000b0: 0000 803f 0000 803f 0000 803f 0000 803f
000000c0: 0000 803f 0000 803f 0000 803f 0000 803f
000000d0: 0000 803f 0000 803f 0000 803f 0000 803f
000000e0: 0000 803f 0000 803f 0000 803f 0000 803f
000000f0: 0000 803f 0000 803f 0000 803f 0000 803f

base.mlp.fc_h.2.bias f4 [64]
0.0 0.0 0.0 0.0 0.0 0.0 0.0 0.0
0.0 0.0 0.0 0.0 0.0 0.0 0.0 0.0
0.0 0.0 0.0 0.0 0.0 0.0 0.0 0.0
0.0 0.0 0.0 0.0 0.0 0.0 0.0 0.0
0.0 0.0 0.0 0.0 0.0 0.0 0.0 0.0
0.0 0.0 0.0 0.0 0.0 0.0 0.0 0.0
0.0 0.0 0.0 0.0 0.0 0.0 0.0 0.0
0.0 0.0 0.0 0.0 0.0 0.0 0.0 0.0
00000000: 0000 0000 0000 0000 0000 0000 0000 0000
00000010: 0000 0000 0000 0000 0000 0000 0000 0000
00000020: 0000 0000 0000 0000 0000 0000 0000 0000
00000030: 0000 0000 0000 0000 0000 0000 0000 0000
00000040: 0000 0000 0000 0000 0000 0000 0000 0000
00000050: 0000 0000 0000 0000 0000 0000 0000 0000
00000060: 0000 0000 0000 0000 0000 0000 0000 0000
00000070: 0000 0000 0000 0000 0000 0000 0000 0000
00000080: 0000 0000 0000 0000 0000 0000 0000 0000
00000090: 0000 0000 0000 0000 0000 0000 0000 0000
000000a0: 0000 0000 0000 0000 0000 0000 0000 0000
000000b0: 0000 0000 0000 0000 0000 0000 0000 0000
000000c0: 0000 0000 0000 0000 0000 0000 0000 0000
000000d0: 0000 0000 0000 0000 0000 0000 0000 0000
000000e0: 0000 0000 0000 0000 0000 0000 0000 0000
000000f0: 0000 0000 0000 0000 0000 0000 0000 0000

base.mlp.fc2.0.0.weight f4 [64, 64]
0.091835916 0.08036777 -0.105464265 0.18473467 -0.0010391314 -0.23179707 0.06662859 -0.033917196
-0.05584985 0.12444375 -0.12928449 -0.026433138 0.079650186 -0.2529926 0.15752748 0.034708783
-0.20939554 0.043331854 -0.1088763 -0.1106095 0.18897179 -0.01541696 0.20831792 -0.10192539
-0.2329401 0.17426905 0.07009282 -0.04263629 0.07497319 0.5147814 0.23259126 -0.011821058
-0.43105313 0.098867364 -0.08561139 -0.17153926 0.10431218 0.0148384655 0.12463421 0.13701081
-0.09120635 0.108541705 -0.016834553 0.14314194 -0.33199447 0.15244882 -0.29695407 -0.42096013
-0.26027608 0.17357016 -0.06583287 0.10421736 0.0081737805 0.13226494 -0.2769908 0.039453335
0.08721236 0.083643734 0.16955158 0.31781232 -0.10228173 -0.058167685 -0.061112527 0.33168006
-0.21708576 -0.10851037 -0.15590338 -0.108581506 -0.45457137 -0.27615282 0.04808233 -0.23473583
-0.046281673 0.19077286 -0.023045667 -0.000166312 -0.25322282 -0.06308002 -0.17950702 -0.24449837
0.16161768 -0.28279355 -0.3794781 0.056732565 0.16756828 -0.13696724 0.21645942 -0.0027974
0.08626039 -0.120569326 0.01214608 -0.19018075 0.09575337 0.26323265 -0.010367133 0.14996913
-0.04633968 0.16700149 0.14033684 0.15792155 0.05360472 0.08583477 -0.104220785 -0.09492177
-0.037665736 -0.055795208 0.036739994 -0.09804745 0.24280795 0.28126517 0.16740786 -0.01661482
0.013039148 -0.13821386 0.019577604 -0.25921977 -0.04498972 -0.36385798 0.049281158 0.16523479
-0.111263536 0.4348311 -0.07810102 -0.04919474 -0.31450757 -0.07960445 0.087567255 0.0760188
0.2558909 0.052570824 0.18147375 0.09870487 -0.1499068 -0.020301115 -0.098950684 -0.0010693622
0.43341064 -0.23185636 0.14570631 -0.021048503 -0.32426605 -0.054433797 0.042468596 -0.0558504
-0.26577765 -0.07033913 0.12473386 -0.1623562 -0.18468554 0.20219573 0.0292117 0.17060103
0.05728901 0.053328432 -0.08264345 0.079427935 0.3214999 -0.15135711 0.19430812 0.0625082
-0.0032213964 0.12315187 -0.063205935 0.23861043 0.21874443 0.060275313 0.1170954 0.049103126
-0.095823035 -0.13332857 -0.11593855 0.009111267 0.26720813 0.37677848 0.08960963 -0.2386872
-0.30927676 0.11561382 -0.1717198 0.2503729 -0.34389326 -0.017467039 0.28543743 0.086865164
0.18433379 -0.26047873 -0.08027955 -0.03504026 -0.20690243 0.09527581 0.20545495 0.0021776103
-0.2630638 -0.052090503 0.055615883 0.16615869 -0.45622262 0.124032766 -0.30831817 -0.07414052
0.14088327 0.09407057 -0.2261871 -0.1447648 -0.005646603 0.21917464 0.22199415 -0.3561947
0.01167766 0.016034616 0.20705107 0.22683597 -0.43265888 -0.27040273 0.06824851 0.28832754
-0.1835009 -0.04706273 -0.019662421 -0.06267191 -0.14889172 0.115782596 0.11616969 0.11384618
-0.087102555 -0.15962327 0.21786046 -0.12800506 0.05121046 0.086831905 0.13506132 0.24759868
0.42063352 0.10559852 0.21238507 0.0477824 -0.19151847 -0.070247106 -0.017858444 0.06157253
0.07560858 0.15473388 0.03847287 0.039492004 -0.002587133 0.08998267 0.13865423 0.26321587
0.06028949 -0.062209133 0.12421229 -0.039641157 -0.100865364 -0.062013883 -0.10940375 -0.2401304
00000000: 7814 bc3d db97 a43d a6fd d7bd 162b 3d3e
00000010: 7733 88ba 365c 6dbe 9274 883d c2ec 0abd
00000020: d0c2 64bd 5ddc fe3d 2763 04be 4f8a d8bc
00000030: a31f a33d 3f88 81be e24e 213e cc2a 0e3d
00000040: c96b 56be be7c 313d 8afa debd 3c87 e2bd
00000050: d281 413e 6b97 7cbc 4b51 553e 42be d0bd
00000060: d987 6ebe 9673 323e d38c 8f3d 64a3 2ebd
00000070: 8b8b 993d b7c8 033f 672c 6e3e 1cad 41bc
00000080: ffb2 dcbe f97a ca3d 0655 afbd fda7 2fbe
00000090: a0a1 d53d 091d 733c 3840 ff3d 904c 0c3e
000000a0: 65ca babd 1d4b de3d 9ee8 89bc cd93 123e
000000b0: 2efb a9be 8b1b 1c3e 5d0a 98be 1688 d7be
000000c0: e842 85be 60bc 313e 62d3 86bd e96f d53d
000000d0: 52eb 053c 7670 073e bdd1 8dbe d299 213d
000000e0: 659c b23d 684d ab3d ee9e 2d3e 4cb8 a23e
000000f0: 1579 d1bd 3d41 6ebd 2151 7abd f8d1 a93e
00000100: bb4b 5ebe af3a debd 23a5 1fbe fb5f debd
00000110: 94bd e8be e763 8dbe faf1 443d 975e 70be
00000120: da91 3dbd f659 433e 44ca bcbc 0a64 2eb9
00000130: 6ca6 81be 1930 81bd b0d0 37be c85d 7abe
00000140: 1b7f 253e 51ca 90be f44a c2be 6860 683d
00000150: 0597 2b3e 2441 0cbe 8aa7 5d3e 9654 37bb
00000160: 4aa9 b03d 0ded f6bd 5a00 473c bebe 42be
00000170: 581a c43d 6ec6 863e e8da 29bc 8291 193e
00000180: adce 3dbd 7002 2b3e 76b4 0f3e 30b6 213e
00000190: 9f90 5b3d 24ca af3d b571 d5bd 5866 c2bd
000001a0: 6347 1abd 8489 64bd ad7c 163d 1acd c8bd
000001b0: a6a2 783e fd01 903e f76c 2b3e ce1b 88bc
000001c0: 27a2 553c ef87 0dbe 3661 a03c 74b8 84be
000001d0: 2447 38bd 984b babe 0adb 493d 4f33 293e
000001e0: 23de e3bd 2fa2 de3e 6df3 9fbd 6c80 49bd
000001f0: 2307 a1be a807 a3bd 7656 b33d bfaf 9b3d
00000200: 2204 833e 8154 573d 41d4 393e c725 ca3d
00000210: 2b81 19be 864e a6bc a8a6 cabd d729 8cba
00000220: 00e8 dd3e c16b 6dbe 0934 153e e96d acbc
00000230: 3306 a6be f9f5 5ebd 8df3 2d3d 64c3 64bd
00000240: 0214 88be f60d 90bd 7774 ff3d b440 26be
00000250: 351e 3dbe 660c 4f3e 604d ef3c 09b2 2e3e
00000260: e2a7 6a3d ea6e 5a3d f840 a9bd 1dab a23d
00000270: a39b a43e 5cfd 1abe b5f8 463e 4d04 803d
00000280: 101e 53bb 0c37 fc3d 1d72 81bd 4b56 743e
00000290: 8afe 5f3e 3fe3 763d b7cf ef3d 5c20 493d
000002a0: de3e c4bd 4987 08be 3171 edbd 6c47 153c
000002b0: 81cf 883e 1ce9 c03e 4185 b73d 6b6a 74be
000002c0: 8659 9ebe f0c6 ec3d 51d7 2fbe e030 803e
000002d0: c712 b0be 0917 8fbc db24 923e 5de6 b13d
000002e0: ffc1 3c3e 785d 85be 9b69 a4bd 6086 0fbd
000002f0: 3bde 53be f71f c33d c862 523e 3db6 0e3b
00000300: 4cb0 86be da5c 55bd 7bcd 633d 8125 2a3e
00000310: 0396 e9be e404 fe3d e1db 9dbe fcd6 97bd
00000320: b443 103e 12a8 c03d 979d 67be 393d 14be
00000330: 2407 b9bb 516f 603e 6f52 633e 275f b6be
00000340: a853 3f3c 075b 833c 3205 543e b047 683e
00000350: 7785 ddbe 3a72 8abe e0c5 8b3d ab9f 933e
00000360: a9e7 3bbe d9c4 40bd 1613 a1bc 215a 80bd
00000370: 1277 18be 6d1f ed3d 60ea ed3d 3028 e93d
00000380: d362 b2bd 4874 23be d016 5f3e c213 03be
00000390: 0fc2 513d edd4 b13d 844d 0a3e 828a 7d3e
000003a0: 475d d73e 0944 d83d 797b 593e 7ab7 433d
000003b0: 6b1d 44be b7dd 8fbd df4b 92bc 7a33 7c3d
000003c0: acd8 9a3d 8f72 1e3e ba95 1d3d 5ec2 213d
000003d0: e48c 29bb d648 b83d 60fb 0d3e 3bc4 863e
000003e0: 1df2 763d 01cf 7ebd 0363 fe3d c45e 22bd
000003f0: 8092 cebd 4502 7ebd 130f e0bd bee4 75be

base.mlp.fc2.0.0.bias f4 [64]
-0.003208523 0.00068062294 -0.015437057 0.01140384 -0.00027601296 -0.0062706503 0.008018873 -0.0045274254
-0.008616486 -0.0116088865 -0.0026999335 -0.001630128 0.013185324 0.017589698 0.0068501034 -0.0069054523
-0.0044479715 -0.008018076 -0.006436503 -0.020109167 0.009012554 0.009953659 0.002242573 0.009504112
0.01892013 -0.015649615 0.01615789 0.0008744146 -0.029682102 -0.008155366 -0.006196395 -0.011204385
0.011020992 0.02169624 0.0042900373 -0.015455203 0.0025841247 0.005007934 -0.02140635 0.006490817
0.010035712 -0.016600266 -0.0028326253 -0.008152912 -0.013339763 -0.010785083 0.0026503357 0.021766786
-0.000956451 -0.025343942 0.014507864 -0.00620174 -0.012715092 0.0107750315 -0.0026806714 -0.0016104291
-0.007677494 0.0078646755 -0.012168374 -0.00098247 -0.026165444 -0.002654407 0.005034891 0.0062291566
00000000: 1546 52bb d56b 323a b6eb 7cbc 2cd7 3a3c
00000010: d5b5 90b9 077a cdbb 9761 033c cc5a 94bb
00000020: 292c 0dbc 3333 3ebc 5ef1 30bb 05aa d5ba
00000030: 4207 583c 4518 903c d576 e03b 2247 e2bb
00000040: 4ac0 91bb 405e 03bc 4de9 d2bb fbbb a4bc
00000050: 64a9 133c ac14 233c 22f8 123b 23b7 1b3c
00000060: 63fe 9a3c 9f33 80bc 8d5d 843c f838 653a
00000070: e127 f3bc 169e 05bc 210b cbbb 9992 37bc
00000080: 6491 343c 50bc b13c 7193 8c3b d237 7dbc
00000090: 6b5a 293b 9819 a43b 5f5c afbc ebb0 d43b
000000a0: d46c 243c 48fd 87bc 91a3 39bb cb93 05bc
000000b0: 058f 5abc ebb3 30bc 41b1 2d3b 4250 b23c
000000c0: 57ba 7aba 199e cfbc 64b2 6d3c f737 cbbb
000000d0: f652 50bc c289 303c 34ae 2fbb 0915 d3ba
000000e0: 7d93 fbbb d7da 003c dc5d 47bc 39c6 80ba
000000f0: ea58 d6bc 8ff5 2dbb bafb a43b f41d cc3b

base.mlp.fc2.0.2.weight f4 [64]
1.0122595 1.0246899 0.9942012 1.0192854 1.0203522 1.0305841 1.010908 1.0236346
0.9980883 1.0208061 1.0328139 1.0228789 1.0044122 1.0157026 1.0162787 1.0018893
1.0033646 1.0160569 0.9978202 1.0202487 1.0307643 1.0305436 1.0058484 1.0058404
1.0154561 1.0194329 1.0228221 1.0235142 1.0020713 1.0145408 1.0110319 1.0071353
1.0289682 1.0239594 1.0194436 0.99472946 1.0037997 1.0237343 1.0239927 0.9984399
1.0147272 0.99888694 1.0199461 1.0263934 1.0179186 1.000338 1.0075998 1.0310719
1.0068201 0.9999521 1.0170656 1.0129067 1.0153853 1.0084898 1.0132066 1.0270951
1.0217959 1.0154134 1.0118896 1.0123496 0.9892833 0.9973118 1.0029927 1.0193112
00000000: b891 813f 0a29 833f f883 7e3f f277 823f
00000010: e79a 823f 2eea 833f 6f65 813f 7506 833f
00000020: b782 7f3f c6a9 823f 3f33 843f b2ed 823f
00000030: 9490 803f 8b02 823f 6c15 823f e93d 803f
00000040: 406e 803f 270e 823f 2571 7f3f 8297 823f
00000050: 16f0 833f dae8 833f a4bf 803f 61bf 803f
00000060: 77fa 813f c77c 823f d6eb 823f 8302 833f
00000070: df43 803f 79dc 813f 7e69 813f cfe9 803f
00000080: 3bb5 833f 1a11 833f 217d 823f 97a6 7e3f
00000090: 827c 803f ba09 833f 3112 833f c299 7f3f
000000a0: 95e2 813f 0eb7 7f3f 988d 823f dc60 833f
000000b0: 284b 823f 130b 803f 08f9 803f 2afa 833f
000000c0: 7bdf 803f dcfc 7f3f 352f 823f eda6 813f
000000d0: 25f8 813f 3216 813f c1b0 813f da77 833f
000000e0: 35ca 823f 11f9 813f 9985 813f ac94 813f
000000f0: ac41 7d3f d34f 7f3f 1162 803f ca78 823f

base.mlp.fc2.0.2.bias f4 [64]
-0.006565911 -0.0048142257 0.0038140197 -0.023479765 0.002971107 -0.0047048195 0.0058709066 -0.024232805
0.015671449 -0.0070537366 -0.002991269 0.0025411637 0.004143064 0.0048330324 -0.0009467106 0.00428772
0.020929573 0.009678322 -0.006620239 -0.01586093 -0.009554688 0.01629067 0.011446284 0.004336448
0.011326489 -0.0039957063 -0.02362596 0.0022703456 -0.015391709 0.008397727 -0.0014705153 0.0027071224
-0.017827101 0.0089713875 0.013166287 0.009860263 -0.00039390824 0.0003596159 -0.027743518 0.004896947
-0.00402704 -0.0066712024 -0.0011060175 -0.009816255 0.0063009774 0.0022939034 0.013237713 -0.0039565717
-0.007937406 -0.015062686 -0.0011100982 -0.007506811 -0.0013449132 0.013661523 0.002353516 -0.0051485444
0.003963308 0.0041529643 -0.003902819 0.0055089663 -0.022398613 0.000798149 -0.00020756901 0.012479918
00000000: db26 d7bb a7c0 9dbb a2f4 793b a358 c0bc
00000010: e7b6 423b e32a 9abb bc60 c03b e083 c6bc
00000020: 6961 803c 0823 e7bb 2b09 44bb a789 263b
00000030: 8ac2 873b 6a5e 9e3b ac2c 78ba 0180 8c3b
00000040: 7f74 ab3c d391 1e3c 97ee d8bb c8ee 81bc
00000050: 448b 1cbc 0374 853c 3289 3b3c c318 8e3b
00000060: bd92 393c 6aee 82bb 3b8b c1bc 14ca 143b
00000070: 822d 7cbc 9f96 093c 4ebe c0ba fa69 313b
00000080: 240a 92bc bafc 123c 69b7 573c f18c 213c
00000090: 7885 ceb9 d48a bc39 6046 e3bc 9276 a03b
000000a0: 43f5 83bb 1a9a dabb caf7 90ba 5cd4 20bc
000000b0: 6e78 ce3b 5055 163b fee2 583c 21a6 81bb
000000c0: e50b 02bc 7cc9 76bc b780 91ba b2fb f5bb
000000d0: cc47 b0ba 95d4 5f3c 723d 1a3b 1fb5 a8bb
000000e0: a3de 813b 9715 883b 70c6 7fbb 8f84 b43b
000000f0: 4c7d b7bc df3a 513a e2a6 59b9 9278 4c3c

act.action_out.fc_mean.weight f4 [5, 64]
-0.008980369 -0.02130416 -0.0013136728 -0.018655855 0.0036408429 -0.02229695 -0.00066230184 -0.012634675
0.01496551 0.023891456 -0.020794496 0.022141246 0.0012789342 -0.014866546 -0.0042257686 -0.006601301
0.012696648 -6.814799e-05 -0.0030687917 -0.007467699 -0.014512284 -0.016773712 -0.002376356 0.009689474
0.0048747533 0.01715195 0.018246949 0.019546961 -0.0071095726 0.0146756135 0.017740197 0.00056444417
-0.019447597 0.01019225 -0.013580414 -0.0024219565 0.010168677 -0.013508449 0.010583397 0.0025032551
-0.01584676 -0.003582357 0.016463708 -0.008013865 0.015562861 0.0069099874 0.011415167 -0.02770962
-0.004701802 -0.011787506 0.01354992 0.020541262 -0.017699413 0.021095615 -0.014068812 0.023645386
-0.00032957323 0.0064939945 0.0067030983 -0.009568659 -0.004086802 -0.009322666 0.004710361 0.0118450485
0.007151661 -0.0057712 0.013676877 -0.017126229 0.011854204 -0.011595873 -0.011551905 0.02604397
-0.00016968804 -0.009209243 0.0063699125 0.0006164544 0.008668629 -0.02631361 -0.0054340963 -0.013652104
0.0057087336 -0.008510485 -0.0042781373 0.014808883 0.025980858 0.0045871194 -0.0075546186 0.009937075
-0.027876226 -0.003392919 0.024053454 0.0041214265 0.0019983132 -0.015795957 0.007933199 -0.008887748
-0.014067858 -0.01668392 -0.0034923258 0.0044999607 0.0101398565 0.0055127023 0.012273106 -0.001023912
0.0062664757 -0.0059360135 -0.016721983 0.017197479 -0.008046943 0.00153049 0.005908402 0.022968384
0.017685508 -0.006413804 0.008481816 0.014510579 -0.0030160043 -0.0032557056 0.012262886 0.0036723784
-0.020054502 0.015626024 0.017513184 -0.008308223 0.0032395383 -0.002311483 -0.005041031 -0.012566015
-0.019585505 -0.024225827 -0.0028053946 -0.0050453017 -0.009187197 -0.01775313 -0.015110788 0.020288127
-0.0028012001 -0.015547451 -0.027269313 -0.013852215 0.0038369233 0.012916909 -0.021231847 -0.0018285704
-0.0070870304 -0.020266948 -0.0052072187 0.0065661757 0.030933922 -0.02441939 -0.006001892 0.0047742394
-0.012571915 -0.0016498691 0.0073200045 0.024110489 0.0019793143 0.017218836 -0.019777574 -0.014912398
0.0076150545 -0.009478856 -0.007902961 -0.00048385837 -0.01163172 0.0010540875 0.02134953 -0.018103937
0.011761096 0.010498736 -0.0046760403 -0.0043201214 0.021708174 0.017989608 0.021929389 0.012925965
0.009237011 0.005471217 -0.008407289 0.0006285352 0.010667453 0.007098422 0.011496832 -0.006178411
0.015535407 0.014788057 -0.012894709 -0.020944988 0.00035963565 0.006128218 -0.004697459 0.018889142
0.008208223 -0.016402738 -0.0037674643 0.0062258733 -0.023566118 0.011031942 0.020259965 0.012881154
0.01516308 0.007791528 -0.011244128 -0.004291787 -0.007658191 0.0077419435 -0.01861412 -0.004914378
-0.019733738 0.019564046 0.016349202 0.012676773 0.012841938 -0.003149956 -0.009929361 -0.022088602
0.00019840461 -0.010200092 0.015665153 0.018754583 -0.009323602 -0.0003081401 -0.012822437 0.0107619865
0.016919555 -0.0049767285 0.00042003032 -0.014674879 0.016373321 -0.02225124 0.021047706 -0.007043197
-0.019032951 0.01435764 0.017703513 0.014164715 0.00789339 0.0084682545 -0.008142173 0.016061282
0.0031275367 0.014990783 -0.008088077 0.0043743732 -0.008919473 -0.012173252 0.012045846 -0.012965257
-0.013340842 -0.010938349 0.012764042 0.010627531 0.007946047 -0.007835192 0.02327201 -0.009837891
00000000: 6622 13bc 1086 aebc 8b2f acba 2ad4 98bc
00000010: 359b 6e3b 18a8 b6bc 539e 2dba ab01 4fbc
00000020: e631 753c 04b8 c33c 3859 aabc 8f61 b53c
00000030: e9a1 a73a d092 73bc 5178 8abb ba4f d8bb
00000040: 9a05 503c acea 8eb8 c81d 49bb 99b3 f4bb
00000050: eec4 6dbc 0669 89bc a3bc 1bbb 99c0 1e3c
00000060: 65bc 9f3b 3f82 8c3c a07a 953c f320 a03c
00000070: 6bf7 e8bb fc71 703c e453 913c 35f7 133a
00000080: 9150 9fbc 65fd 263c 6280 5ebc b0b9 1ebb
00000090: 869a 263c 8b52 5dbc fc65 2d3c a70d 243b
000000a0: 10d1 81bc fac5 6abb e6de 863c 964c 03bc
000000b0: 5ffb 7e3c 2d6d e23b ae06 3b3c 49ff e2bc
000000c0: 9311 9abb 6220 41bc 7c00 5e3c 2646 a83c
000000d0: 5cfe 90bc b6d0 ac3c e080 66bc f8b3 c13c
000000e0: 92ca acb9 93cb d43b aaa5 db3b ddc5 1cbc
000000f0: 94ea 85bb 18be 18bc 5f59 9a3b bc11 423c
00000100: 7b58 ea3b 561c bdbb fb14 603c 4e4c 8cbc
00000110: 2338 423c 9efc 3dbc 3444 3dbc 2a5a d53c
00000120: 49ee 31b9 5de2 16bc b3ba d03b 8e99 213a
00000130: de06 0e3c a48f d7bc 8110 b2bb 13ad 5fbc
00000140: 5410 bb3b 906f 0bbc 9e2f 8cbb f5a0 723c
00000150: cfd5 d43c 8c4f 963b bc8c f7bb 1dcf 223c
00000160: af5c e4bc bc5b 5ebb c00b c53c 080d 873b
00000170: 22f6 023b 8666 81bc 40fa 013c eb9d 11bc
00000180: e07c 66bc b7ac 88bc 81df 64bb 6874 933b
00000190: a421 263c e6a3 b43b 2315 493c c934 86ba
000001a0: 0257 cd3b e482 c2bb 8afc 88bc bae1 8c3c
000001b0: 53d7 03bc b99a c83a 459b c13b 3128 bc3c
000001c0: 33e1 903c e32a d2bb 51f7 0a3c c8bd 6d3c
000001d0: 28a8 45bb ad5d 55bb 46ea 483c 49ac 703b
000001e0: 5749 a4bc 2602 803c cf77 8f3c 371f 08bc
000001f0: 6f4e 543b 407c 17bb 3c2f a5bb b0e1 4dbc
00000200: c871 a0bc 3e75 c6bc b6da 37bb 0f53 a5bb
00000210: e685 16bc 036f 91bc 3d93 77bc 4933 a63c
00000220: 5794 37bb bcba 7ebc e563 dfbc 67f4 62bc
00000230: e474 7b3b 71a1 533c 69ee adbc a4ac efba
00000240: 523a e8bb df06 a6bc 51a1 aabb 1329 d73b
00000250: 2369 fd3c 2c0b c8bc 85ab c4bb 3971 9c3b
00000260: 6ffa 4dbc 6c40 d8ba a6dc ef3b 5c83 c53c
00000270: 62b7 013b 840e 8d3c 9404 a2bc 2153 74bc
00000280: b587 f93b 344d 1bbc 6c7b 01bc 5fae fdb9
00000290: f892 3ebc 4f29 8a3a 36e5 ae3c b54e 94bc
000002a0: 9db1 403c e402 2c3c 7839 99bb ce8f 8dbb
000002b0: 57d5 b13c f15e 933c 43a5 b33c 6dc7 533c
000002c0: d556 173c e547 b33b babe 09bc 49c4 243a
000002d0: 8ac6 2e3c e199 e83b 355d 3c3c 4574 cabb
000002e0: 3888 7e3c 9b49 723c 5444 53bc d394 abbc
000002f0: 7b8d bc39 38cf c83b 24ed 99bb 67bd 9a3c
00000300: c87b 063c 095f 86bc 90e7 76bb 6902 cc3b
00000310: bb0d c1bc 52bf 343c 3af8 a53c 7a0b 533c
00000320: 916e 783c 1350 ff3b 4b39 38bc 1ea2 8cbb
00000330: 90f1 fabb 21b0 fd3b a47c 98bc ca08 a1bb
00000340: a6a8 a1bc c744 a03c c3ee 853c 3db2 4f3c
00000350: fe66 523c 7e6f 4ebb c2ae 22bc 28f3 b4bc
00000360: d50a 5039 491e 27bc 3554 803c 36a3 993c
00000370: 05c2 18bc dd8d a1b9 3315 52bc 0b53 303c
00000380: e19a 8a3c d313 a3bb 8437 dc39 e76e 70bc
00000390: 5821 863c 3c48 b6bc 3d6c ac3c 9eca e6bb
000003a0: feea 9bbc 4f3c 6b3c f506 913c 1f13 683c
000003b0: 4753 013c 6fbe 0a3c c066 05bc f392 833c
000003c0: 5cf7 4c3b e79b 753c db83 04bc e756 8f3b
000003d0: fb22 12bc 5272 47bc f15b 453c 3b6c 54bc
000003e0: 8c93 5abc c336 33bc 4620 513c 191f 2e3c
000003f0: 2330 023c 2d5f 00bc f1a4 be3c 1b2f 21bc

act.action_out.fc_mean.bias f4 [5]
-0.0011044787 -0.015084633 0.00097267015 -0.02026952 0.012330892
00000000: 28c4 90ba 8925 77bc cafa 7e3a 440c a6bc
00000010: 8207 4a3c

act.action_out.logstd._bias f4 [5, 1]
-0.024970504 0.003611879 0.0037491673 0.0095114475 -0.014134841
00000000: f18e ccbc 46b5 6c3b 97b4 753b e7d5 1b3c
00000010: d295 67bc
