results/MyEnv/MyEnv/mappo/check/run15/models/actor_agent0.pt (torch, 46348 bytes, 17 tensors)

base.feature_norm.weight f4 [14]
00000000: 5813 7e3f 0f93 803f 0382 7c3f ea70 803f
00000010: 9621 803f e7e3 813f 8361 793f e76e 7f3f
00000020: 238e 7d3f 5cf3 7d3f a678 823f 85be 813f
00000030: 554a 7f3f 8600 813f
0.99248266 1.0044879 0.9863588 1.0034459 1.001025 1.0147675 0.97414416 0.997786
0.9904501 0.9919946 1.0193069 1.0136267 0.99722797 1.0078285

base.feature_norm.bias f4 [14]
00000000: 2a1a 01bd 1c6e 593c 5e7d 45b9 f149 ca3c
00000010: dfae 843c d8fe a3bc bda2 523c 55fa 473c
00000020: 0a37 c03c 5d2e ccbc 6c9f a73a a08e 953c
00000030: 9b02 7dbc 6c04 0abc
-0.031519093 0.013270881 -0.00018834087 0.024693461 0.016196666 -0.02001898 0.012856183 0.01220568
0.023463745 -0.024924451 0.00127886 0.018256485 -0.015442516 -0.008423906

base.mlp.fc1.0.weight f4 [64, 14]
00000000: 74bc 523e 1b64 29bd 01bc 643d d62c 8fbd
00000010: df2d cabb d746 7abe ee21 7abe ee60 473e
00000020: 2b45 28be 6513 64bc 8837 98bc 13f3 633d
00000030: c0e5 be3e 4818 943e 0e5f 393e c99b 303d
00000040: 4fdb 1f3e b919 f6bd 7fca dbbd 5031 843e
00000050: 9f28 c83d aaee 433d 3d2b 14be 0dde 363e
00000060: 69d8 253e 0c5d 143d fb6c c33e 354e 40be
00000070: a21f 523d ee0f 8d3e f4be 95bd b8b3 a4bd
00000080: 3617 60be ae47 27bd d7ce 793d 7bc0 5ebd
00000090: 6a67 46be 02ad 14bd bb4e 49bd 5044 70bd
000000a0: b7f0 653e 8ef6 d33c b2e8 ca3d acd2 f43e
000000b0: 059e 303d 9dfe 053c 7df7 5bbd dca1 133e
000000c0: fc7c ccbc 1b3e 8bbc 2198 a8be 023e ac3e
000000d0: 7e87 a33e 7f68 5abe 48b8 2bbd b519 683d
000000e0: 4bce 36be 7ba5 213d 40aa b2bd 7850 a83e
000000f0: 63a3 9ebd 73ba 2d3d 449b 413e 3970 203e
00000100: 51b5 4c3e f83e 1fbe cd96 813d 1c5f 3bbe
00000110: 92f6 8f3d 4338 61bd c13a 2e3d 1ea3 11be
00000120: 5b69 36be a4e3 0dbe 0667 85be b678 de3d
00000130: c58d 883c 2b74 11be 6aa5 803e 9a8c 623d
00000140: 700c ffbd 7b33 d9be 0a9f 143c 5f20 943e
00000150: 2b32 9b3e 0a6a a0be 04d9 1a3c a0c5 97be
00000160: 63ea 243d f9ff 803d d2b9 8f3c 334f 4e3e
00000170: 6cbe 97bd 5aa6 02bd 479f 8fbe fca9 133d
00000180: 3c3f 183e 67ca 4cbe d5c7 8fbd 6f56 5d3e
00000190: a1b0 993e 5eab 3bbe 3fd4 d43d 8783 433e
000001a0: e921 103d dbc4 c13c 288d ddbc b0c0 273e
000001b0: 01a5 e6bd 0b2b a73d 6f85 1f3d 4c3f f8bd
000001c0: da8c 003e 4e23 0bbe a26f 903d d13a 813c
000001d0: 5d88 3c3e 2211 e2be dd69 ef3d ad46 723e
000001e0: ff00 30be e7ad adbd d58c 093e 075c 09be
000001f0: d105 63be 5e41 88bd 68ab bd3d 0e44 d23d
00000200: 018b 1a3e f431 a5be 5a73 1abe 986d 8abe
00000210: 36af a8bc 06bc 85bd 919b 5a3e 4283 3cbe
00000220: bc3e 0f3e 246c c53d dbc4 993d aa35 ce3d
00000230: 6e3f e3bd 5676 c4bd f7f1 803e c250 823d
00000240: 47dd cb3d bf41 8abe 8b18 a0be 7ace c23e
00000250: 084b 6c3d 0f5d 443e 416f 8cbc f78e 2cbd
00000260: 5f95 c1bc 85a1 10be e707 82bc 733a 93bc
00000270: aa04 bf3e 69ca ac3d b2cb 7a3d c883 d3bd
00000280: 9ad9 fb3d 7413 40be 938e 593d a333 033e
00000290: f03d 733e 0df5 b93d cfb5 273e 5a5c 30be
000002a0: bb41 9d3e d5a9 92be f69d 93be 7cb7 7ebe
000002b0: 7c30 6cbd 2535 34bd bdba 8e3d 2c65 053e
000002c0: bf5c a6be b409 aabd ddfe 233e f0f0 f5bd
000002d0: 0575 0bbe 1074 9e3e 192d ce3e c677 2cbe
000002e0: fcb8 18be 8d02 153e b48c 8b3d 04ff 9d3e
000002f0: 4df5 cebd 312c 9a3e dd1b e43e 4a7b b4bd
00000300: 3261 ed3d 5734 923d e97e 453e 2a43 0a3c
00000310: 8607 37be e032 1f3e a10c 0a3d 89ad 63bd
00000320: d0f4 ee3d 627a 23be 96a7 25bd 9419 d43d
00000330: 4a42 c03e 4d8c de3c 512e 083e 92ed d8bd
00000340: f087 d4bd 652f 2b3e 24d1 2ebe 2738 e93c
00000350: 6ebe 993e 26fd 693e 951c 2fbd cc77 ecbb
00000360: 17de 01be e96c 1bbd 7805 133d 7efc 79bc
00000370: de69 c23c 0422 f1bc e8b3 57be 2675 6dbd
00000380: ce96 86be 795c 7ebd 96ac 9dbe 7b03 323e
00000390: 294f 543d e91f 0fbd 3061 5ebe 5095 d4bd
000003a0: e7fa 5f3d 67d8 d63e 9b85 85be bfaa 81bd
000003b0: 0858 49be f5ec cbbc 4988 6e3e d362 82be
000003c0: abae 4f3e bb64 db3e 2ea4 a53d 069e 93bd
000003d0: 77fd 623d 697d b93c cd4d bebc 8133 92bd
000003e0: e3c0 c03e e2b8 df3d af6c 85be d3c8 26bd
000003f0: 01ae 0f3e d27f c33b 5487 15be f2ac 6abe
0.20579702 -0.041355234 0.055843357 -0.06990974 -0.006170019 -0.24441086 -0.24427006 0.1947057
-0.16432635 -0.01392064 -0.018581167 0.055651736 0.3728466 0.28924775 0.18102667 0.04311732
0.15611003 -0.12016625 -0.107319824 0.25818872 0.09773373 0.04783503 -0.14469619 0.17858143
0.16195835 0.03622155 0.38169083 -0.18779834 0.0512997 0.27551216 -0.07311812 -0.08042091
-0.21883854 -0.040839843 0.060988273 -0.054382782 -0.19375387 -0.036297806 -0.04914735 -0.058658898
0.22455107 0.025874402 0.09907664 0.4781698 0.04311945 0.00817838 -0.05370282 0.14417213
-0.024961941 -0.016997388 -0.32928565 0.33641058 0.3193931 -0.21328925 -0.04192379 0.05666514
-0.17852132 0.039464455 -0.08723879 0.32873893 -0.07746007 0.04241414 0.18906885 0.1566781
0.19991042 -0.15551364 0.06327591 -0.18298 0.070294514 -0.054985296 0.0425365 -0.1422238
-0.17813627 -0.1385637 -0.26055163 0.108628675 0.016669163 -0.14204471 0.251262 0.05530987
-0.12453544 -0.4242209 0.009071121 0.28930947 0.30311713 -0.313309 0.009451155 -0.29642963
0.04026259 0.06298823 0.01754466 0.201474 -0.07409367 -0.031896926 -0.28051206 0.03605078
0.14867872 -0.19999085 -0.07020537 0.21615003 0.3001757 -0.1832709 0.10392045 0.19093142
0.03518859 0.023653438 -0.027044848 0.16382098 -0.11261941 0.08162507 0.03894561 -0.12121448
0.1255373 -0.13587686 0.07052542 0.015775116 0.18411393 -0.44153696 0.11690114 0.23659773
-0.1718788 -0.08480435 0.1343263 -0.13414012 -0.22170188 -0.06653093 0.09261209 0.10266887
0.15092088 -0.32264674 -0.15083066 -0.27036738 -0.02059136 -0.06530003 0.21348406 -0.18409446
0.13988775 0.09639767 0.0750825 0.10068829 -0.11096083 -0.09592883 0.25184605 0.063630596
0.09954315 -0.27003285 -0.31268725 0.38048154 0.057688743 0.19176124 -0.017142894 -0.04212853
-0.023630796 -0.14124115 -0.015872909 -0.017972207 0.37308246 0.08437044 0.061229415 -0.1032787
0.122973636 -0.18757421 0.053114485 0.12812667 0.23754096 0.09079943 0.16377948 -0.1722273
0.3071421 -0.28645197 -0.28831452 -0.24874681 -0.057663426 -0.043995995 0.06969211 0.13026875
-0.32492635 -0.08302632 0.16015191 -0.12008846 -0.13618858 0.30947924 0.40268782 -0.16842565
-0.14914316 0.14551754 0.06813946 0.30858624 -0.10105381 0.3011184 0.44552508 -0.08812578
0.11590804 0.07138889 0.19286694 0.008438865 -0.17873964 0.15546751 0.03370345 -0.055585418
0.11667788 -0.15964654 -0.040443026 0.10356441 0.37550575 0.02716651 0.13298918 -0.10592188
-0.103774905 0.16717298 -0.17071968 0.028469158 0.300281 0.22850475 -0.042751867 -0.0072164293
-0.12682377 -0.03794566 0.035893887 -0.015257953 0.023732122 -0.029435165 -0.21064723 -0.05797305
-0.2628693 -0.062099908 -0.30795735 0.1738414 0.051833306 -0.03494254 -0.21716762 -0.103800416
0.05468264 0.41961977 -0.26078495 -0.06331395 -0.19662488 -0.024893263 0.23294176 -0.25466022
0.20281474 0.4285029 0.080879554 -0.07207875 0.055417504 0.022642808 -0.023230458 -0.0713873
0.3764716 0.109239355 -0.26059482 -0.040718865 0.14031221 0.005966165 -0.14602405 -0.22917536

base.mlp.fc1.0.bias f4 [64]
00000000: d2b8 8dbc 88ea 9abc ef37 17bc 6a3d 07bd
00000010: c758 be3c 3bec 9cbc fe83 a0bc 6a3a 013d
00000020: 8411 c73c e4ea 763c 5d13 1f3a 9bb4 10bc
00000030: a405 61bc e46f e73b 4bc2 033c 26e7 9e3c
00000040: b0e6 b23c ccfc d23c 7824 d0bb ed96 08bd
00000050: 14b2 bf3b f40f b039 3881 893c 2217 42bc
00000060: 01e2 19bb d2e9 94bc 003d b0bb 245d 3fbb
00000070: 5ae5 f63b 526d e23a bd3d 91bb 46c1 9a3c
00000080: ba64 af3c a9c6 0bbd 63e8 433a e544 a73b
00000090: 85dd 3b3c 5696 8a3b 8e66 07bc f017 a1bb
000000a0: 95db bd3b 2b97 8f3c 444c c93c 1bcf f9bc
000000b0: ea3f 493c a3e5 0bbc 18ff 3cbb 6187 80bc
000000c0: 2672 193c ea56 9bbb 089f a5bc 4083 5c3c
000000d0: f39e 963b ca6e 79bc de7d 673c 6701 113c
000000e0: 84a4 c83b 152d d13b d9fb a93c 2bd2 cfbc
000000f0: 3790 4cbc 242b 283c cf26 d93c f324 833c
-0.017300043 -0.018910661 -0.009229644 -0.033017553 0.023235692 -0.019155612 -0.019594189 0.03154985
0.024300344 0.015070651 0.0006068254 -0.008832122 -0.013734255 0.007062899 0.0080419285 0.01939733
0.021838516 0.025755309 -0.0063520037 -0.03334706 0.005850086 0.00033581222 0.01678525 -0.011846336
-0.0023480656 -0.0181779 -0.0053783655 -0.0029199803 0.007534665 0.0017275012 -0.0044324086 0.018890988
0.021410335 -0.034125004 0.0007473288 0.0051046484 0.011466389 0.004229347 -0.008264197 -0.0049161837
0.0057939985 0.017528137 0.0245725 -0.030494263 0.012283305 -0.008538636 -0.002883857 -0.015689554
0.009365594 -0.0047405856 -0.020217434 0.013459027 0.004596585 -0.015224168 0.01412913 0.008850432
0.0061231274 0.006383548 0.020749973 -0.02536877 -0.012485555 0.010264192 0.026507763 0.01600883

base.mlp.fc1.2.weight f4 [64]
00000000: 362f 7a3f 5717 7e3f f8b4 7d3f 5b9d 7d3f
00000010: 1682 7d3f 6947 823f 9e14 803f e400 813f
00000020: 35cd 823f b64a 7d3f 02fa 813f 01a6 7d3f
00000030: 3f5b 7e3f c529 803f 7872 813f 9513 843f
00000040: 8e88 803f e4e7 7e3f 8ac3 7d3f 14b5 7c3f
00000050: b4b7 7f3f 3654 7f3f be5c 833f 31ec 803f
00000060: ca7b 803f 32f9 783f 5ca8 803f b167 7a3f
00000070: d73d 7b3f fa2f 803f c508 7d3f d07a 783f
00000080: 5397 833f d484 7e3f 75d7 7e3f 955d 803f
00000090: 556f 813f c4f7 803f 97cd 7a3f fd05 7f3f
000000a0: bbc2 7e3f 9cd7 823f c925 813f 4039 793f
000000b0: 086b 7e3f 5b91 7f3f 63f5 793f c7fe 7e3f
000000c0: f02b 803f ed5e 833f aad5 7f3f 499e 823f
000000d0: 3966 813f 9e10 793f 26d6 823f bca7 813f
000000e0: 94b8 7e3f ff6f 803f 40c8 7f3f 81f2 813f
000000f0: 176c 7b3f be39 7f3f 256c 803f e753 803f
0.9772829 0.99254364 0.9910426 0.9906823 0.9902662 1.0178043 1.0006292 1.0078397
1.0218874 0.98942125 1.0154421 0.99081427 0.9935798 1.0012747 1.0113058 1.0318476
1.0041673 0.99572587 0.99126494 0.98713803 0.99889684 0.9973787 1.0262678 1.007208
1.0037777 0.9725524 1.0051379 0.9781447 0.98141235 1.0014641 0.98841506 0.97062397
1.0280555 0.9942143 0.9954751 1.0028559 1.0112101 1.0075612 0.97969955 0.9961851
0.99515885 1.0222049 1.0089656 0.9735298 0.99382067 0.9983117 0.97640055 0.9960751
1.0013409 1.0263344 0.999354 1.0204555 1.0109321 0.9729098 1.0221603 1.0129313
0.99500394 1.0034178 0.9991493 1.0152131 0.98211807 0.9969748 1.0033003 1.0025605

base.mlp.fc1.2.bias f4 [64]
00000000: 734f 193c ffdf 7abc 40c5 a2bc 10f7 f8bc
00000010: e19b 153c 95a7 1bbc 92c1 a3bc 5e05 de3c
00000020: 64e1 2f3c aaf7 143c a2da b23a 152c 943c
00000030: 1aff c3ba dea2 4b3b b812 35bc bd52 6e3c
00000040: 429d 613c 12d4 0d3c ae15 78bc 9642 ecbc
00000050: fd0b a13c db23 42bc 3c9d a8bb d078 1bbc
00000060: 965c 163c eb45 343c 18e5 cdbb 9870 c8bb
00000070: 4557 823c daf9 03bb bb5a 343a e5e9 f63c
00000080: 364b 84b9 b4aa 06bd d5d4 b9bb aa5a aa3b
00000090: b4d7 a03b b1fe f7bb 85f2 583c a647 f33b
000000a0: 0ba9 3b3c 3c81 083c 100f 76bc 5398 95bc
000000b0: 16bc b43c a203 40bc c901 cdbb 9719 40bc
000000c0: 08fc 933c 07ed 06bc a346 1ebc 4011 07bc
000000d0: afaf 61bc bf9c 98bc d78e 02bb 09c6 96bb
000000e0: 984a a13a 751e 06bc b8ff a93c 5ba7 b0bc
000000f0: 8b55 14bc 18e9 f6ba dac6 be3c ec16 123c
0.009357321 -0.015312194 -0.019869447 -0.030391246 0.009131403 -0.009500404 -0.019989762 0.027102169
0.01073489 0.009092251 0.001364548 0.018087426 -0.0014953346 0.0031072418 -0.011051826 0.0145460935
0.013770403 0.0086565185 -0.015141888 -0.028840344 0.019659037 -0.011849369 -0.005145697 -0.009489253
0.009177348 0.011002998 -0.0062834136 -0.006116938 0.015910754 -0.0020137937 0.0006879975 0.030140826
-0.00025233038 -0.03287764 -0.0056711235 0.0051987963 0.0049085263 -0.0075682034 0.013241415 0.0074243126
0.011453877 0.008331593 -0.01501824 -0.01826111 0.022062343 -0.011719616 -0.0062563163 -0.011724851
0.018064514 -0.008235223 -0.009660396 -0.008243859 -0.013774796 -0.01862943 -0.0019921565 -0.0046012443
0.0012305556 -0.008185972 0.020751819 -0.021564176 -0.009053598 -0.0018837778 0.02328818 0.008916598

base.mlp.fc_h.0.weight f4 [64, 64]
00000000: 2de0 39be 5642 20be 717f e63b da3e 2d3e
00000010: a57a 00be 7fdd 27be dc6b 80be 248f b63d
00000020: 94cc 9d3e 8ed2 efbd 8979 893e e1f7 24be
00000030: 1fd1 263e 00ed 3cbe ef11 6dbe f6df 033e
00000040: f19e d3bc 7acc 2ebe 87fc 7d3d 4b1a ea3d
00000050: 00d5 4a3e 2c0a b73d ccf8 3abe aabe 63bd
00000060: 6b09 0e3d d65d b93e 88e6 873d 18cc b53a
00000070: 416b 5fbe 6146 e23d 45ed d83e de83 e4bd
00000080: 6b88 1cbe e6d5 803d 1c0d 81be 699e d73d
00000090: 0d37 733e e927 1cbe 2d96 8ebc 6dae 0b3d
000000a0: 0caa 1c3d 8a80 a83d 4db6 01be cb57 d4bd
000000b0: cfe8 02be 37b8 9e3c 3113 d93e 1b27 1bbe
000000c0: 2e90 10bd b70b fbbd 82cc 60be 8e2d 51be
000000d0: 76f4 13be 24b9 1cbe f2f6 3a3d cbf5 a7be
000000e0: 0811 0abd e216 a4bc 5555 2c3e 96fa 71be
000000f0: 581e ebbd fe48 0abe 8e46 833e 9202 81be
00000100: 4a0c 2ebe cdfe b9bd a5e6 603e c72b 15be
00000110: 3bcc 483d 2fbe 80be e25a 3e3c bd0b 373c
00000120: 5635 073e d8a6 17be 6405 c2bd af51 e53c
00000130: 3f29 bf3e 2091 3a3e 1a9e c7bd 40c7 a4bd
00000140: 18a2 cbbe cf0f af3a acb3 76bc 6325 71be
00000150: ae83 2bbe 189e 703d df1f 8ebe 4835 0dbd
00000160: e476 af3c a5e1 37be 8734 82be e847 423e
00000170: a849 34be 66f8 063d 0388 473d 1623 8e3d
00000180: a2c7 ecbd 65b3 b6bd 5549 123e 2c21 47be
00000190: 1d3f 083d 12cc a13e 7d82 803e 36d4 54be
000001a0: 53b5 4a3e 2fb3 943e 76ec 33be f9c1 92be
000001b0: 3e7b 503d 411b eebd f7a3 edbc 3d97 32be
000001c0: 1517 2a3e 0ca0 483e 94c4 2f3e 7158 34be
000001d0: 04ac 873e 92c9 e2bd 9e98 ef3c 279c a93e
000001e0: b1e3 42be c6cf 083d 189d 393e 7991 393e
000001f0: ae60 6bbe bc5c 043e a59d 173e 2ced c0bd
00000200: be29 0e3e 9593 853e 72f2 a53d 07bf 9f3e
00000210: 8cb9 29be 64a3 6a3e 0f10 2cbe 54d0 94bd
00000220: b2dc 91be 7512 a0be 02da 8dbe b1f4 5d3d
00000230: c7d0 a7bd 45f4 8a3d a68c 39be 0ee1 9e3e
00000240: a683 1abd bc3e fc3d 6f79 283e e1b0 2abe
00000250: 35d2 d53d a870 ccbe fd3e b5bc a435 8ebe
00000260: 8443 1abe 66a1 5ebd ccab 0cbc ae13 88be
00000270: a614 ea3b 1304 323d d6d5 2f3e 1559 8cbe
00000280: 6aa1 1cbd 3373 9ebd b441 153e b56e c7be
00000290: a13f 683e 25db 80bd e332 9f3e f8d2 93be
000002a0: e378 cabd 61c5 953d 8d5b 1b3d 5a21 ffbc
000002b0: ca43 833d f4eb c9bd 8752 f2bc 7570 18be
000002c0: 733f 313e f43d 5bbe 611a 333e 584e 603e
000002d0: d3b2 55be 1da9 1b3d 7950 27bc db87 cfbd
000002e0: 0abe 38bb 94c6 3c3c 8ee4 3abe b92d 57bd
000002f0: 2e8e 113d 1e4c f03c 36f5 643e 707c 98bd
00000300: 2104 ed3d 15b5 7ebc 7f6d 893c 21d0 293e
00000310: e3a7 1dbe 3e04 213e ec3b 0d3e 3d24 113e
00000320: 86fb 7c3d 3be9 1bbe e918 623d 3207 1fbe
00000330: d743 4e3c 25c7 923e 39f4 f1bd c3cb 42be
00000340: a031 2a3e 3fe2 31be 0d72 63be b517 f6bd
00000350: cb9c 2d3e 9980 033e 8c89 1a3e 6665 473e
00000360: 9c19 00be c5ef 35bd 31dc 29bd 56e0 c9bd
00000370: b02c a13e df88 9abd 7d98 e83e 1aa2 14be
00000380: 8103 62bd d169 843d e544 0a3e d25f 3fbd
00000390: 3099 b43d 1999 293e 0607 4fbc 29a0 353c
000003a0: 7a07 823e 108d 383e be5d 3dbe ca52 2fbd
000003b0: 1315 e23e 88c9 8136 9a6b 5fbe f814 843e
000003c0: af9a a9be 2122 913e 1c08 253e 2a7f f9bb
000003d0: b607 f4bc 926a 7a3e 7f98 d7bd 5b41 2abe
000003e0: 43c1 2bbd 7722 9abe 3d25 9e3e 9fe4 e3bd
000003f0: 8994 233e 83cf 85bd c8e3 08be c41d 28be
-0.18151923 -0.15650305 0.007034235 0.16918507 -0.12546785 -0.16393088 -0.2508229 0.08914021
0.30820143 -0.11710082 0.26850536 -0.16110183 0.16290711 -0.18449783 -0.23151372 0.12878403
-0.025832625 -0.17070189 0.062008407 0.11430796 0.19807816 0.08937487 -0.18258971 -0.055601753
0.03467695 0.36204404 0.06635767 0.0013870029 -0.21818258 0.1104858 0.42368522 -0.11157964
-0.15286414 0.06290798 -0.25205314 0.10528261 0.23751469 -0.152496 -0.017405594 0.034101892
0.038248107 0.08227642 -0.12667198 -0.10368308 -0.12784122 0.01937495 0.42397454 -0.15151636
-0.03529375 -0.12258094 -0.21953014 -0.20427534 -0.14448723 -0.15305 0.04564566 -0.32804713
-0.03370765 -0.020030443 0.16829427 -0.23630747 -0.11480397 -0.13504407 0.25639766 -0.25197273
-0.16996875 -0.090818025 0.21962984 -0.14567481 0.049022894 -0.251451 0.011618348 0.011172232
0.1320394 -0.1480974 -0.094736844 0.027993051 0.37336156 0.18219423 -0.09746952 -0.080458164
-0.39772105 0.0013356152 -0.015057486 -0.23549418 -0.1674945 0.05874452 -0.2775869 -0.03447464
0.021418996 -0.1795717 -0.254307 0.18972743 -0.17606223 0.032951735 0.048713695 0.06940286
-0.115615144 -0.089209355 0.14285786 -0.19446248 0.033263315 0.31601006 0.25099555 -0.20784077
0.19795732 0.29042956 -0.17570671 -0.28663614 0.050898783 -0.11626292 -0.029008849 -0.17440505
0.16610368 0.19592303 0.17164832 -0.17611863 0.26498425 -0.11073603 0.029247578 0.33126947
-0.1903217 0.033401273 0.18126333 0.181219 -0.22986099 0.12926 0.1480623 -0.09420237
0.13883111 0.2608916 0.081028834 0.3120043 -0.16574687 0.22913891 -0.16803001 -0.07266298
-0.2848869 -0.31264082 -0.2770539 0.054188434 -0.08194118 0.06784872 -0.1812006 0.31031078
-0.037723206 0.12316653 0.16452573 -0.16669036 0.104404844 -0.399297 -0.022124762 -0.277753
-0.15064818 -0.05435314 -0.008585881 -0.26577514 0.0071435748 0.043460917 0.17171416 -0.27411714
-0.038239874 -0.07736816 0.14575845 -0.3895165 0.22680523 -0.062917985 0.3109351 -0.28871894
-0.098863386 0.07313038 0.037929107 -0.031143833 0.06409414 -0.098594576 -0.029580368 -0.14886649
0.1730936 -0.21410352 0.17490532 0.21904886 -0.20868997 0.038003076 -0.010212057 -0.10133334
-0.0028189444 0.011521954 -0.18251249 -0.05253384 0.035535984 0.02933317 0.22359166 -0.074456096
0.11573053 -0.015546103 0.016775845 0.16583301 -0.15396075 0.15724275 0.1379239 0.1417398
0.06176331 -0.15225689 0.055199537 -0.15530089 0.0125894165 0.2866756 -0.1181416 -0.19023041
0.16620493 -0.17371462 -0.22211476 -0.120162405 0.16954343 0.12842025 0.15091532 0.19472274
-0.12509769 -0.044418115 -0.041469757 -0.09857242 0.31479406 -0.07545637 0.4542884 -0.14514962
-0.055179123 0.064654954 0.13502844 -0.04672224 0.08818281 0.16562308 -0.012635952 0.011085548
0.2539633 0.18022561 -0.18492791 -0.042803563 0.44156703 3.867961e-06 -0.2181839 0.25797248
-0.33125827 0.2834635 0.16116375 -0.007614036 -0.029788833 0.24454716 -0.10527133 -0.16626494
-0.041932356 -0.3010442 0.30887786 -0.111275904 0.1597463 -0.0653372 -0.13368142 -0.16417605

base.mlp.fc_h.0.bias f4 [64]
00000000: 0000 0000 0000 0000 0000 0000 0000 0000
00000010: 0000 0000 0000 0000 0000 0000 0000 0000
00000020: 0000 0000 0000 0000 0000 0000 0000 0000
00000030: 0000 0000 0000 0000 0000 0000 0000 0000
00000040: 0000 0000 0000 0000 0000 0000 0000 0000
00000050: 0000 0000 0000 0000 0000 0000 0000 0000
00000060: 0000 0000 0000 0000 0000 0000 0000 0000
00000070: 0000 0000 0000 0000 0000 0000 0000 0000
00000080: 0000 0000 0000 0000 0000 0000 0000 0000
00000090: 0000 0000 0000 0000 0000 0000 0000 0000
000000a0: 0000 0000 0000 0000 0000 0000 0000 0000
000000b0: 0000 0000 0000 0000 0000 0000 0000 0000
000000c0: 0000 0000 0000 0000 0000 0000 0000 0000
000000d0: 0000 0000 0000 0000 0000 0000 0000 0000
000000e0: 0000 0000 0000 0000 0000 0000 0000 0000
000000f0: 0000 0000 0000 0000 0000 0000 0000 0000
0.0 0.0 0.0 0.0 0.0 0.0 0.0 0.0
0.0 0.0 0.0 0.0 0.0 0.0 0.0 0.0
0.0 0.0 0.0 0.0 0.0 0.0 0.0 0.0
0.0 0.0 0.0 0.0 0.0 0.0 0.0 0.0
0.0 0.0 0.0 0.0 0.0 0.0 0.0 0.0
0.0 0.0 0.0 0.0 0.0 0.0 0.0 0.0
0.0 0.0 0.0 0.0 0.0 0.0 0.0 0.0
0.0 0.0 0.0 0.0 0.0 0.0 0.0 0.0

base.mlp.fc_h.2.weight f4 [64]
00000000: 0000 803f 0000 803f 0000 803f 0000 803f
00000010: 0000 803f 0000 803f 0000 803f 0000 803f
00000020: 0000 803f 0000 803f 0000 803f 0000 803f
00000030: 0000 803f 0000 803f 0000 803f 0000 803f
00000040: 0000 803f 0000 803f 0000 803f 0000 803f
00000050: 0000 803f 0000 803f 0000 803f 0000 803f
00000060: 0000 803f 0000 803f 0000 803f 0000 803f
00000070: 0000 803f 0000 803f 0000 803f 0000 803f
00000080: 0000 803f 0000 803f 0000 803f 0000 803f
00000090: 0000 803f 0000 803f 0000 803f 0000 803f
000000a0: 0000 803f 0000 803f 0000 803f 0000 803f
000000b0: 0000 803f 0000 803f 0000 803f 0000 803f
000000c0: 0000 803f 0000 803f 0000 803f 0000 803f
000000d0: 0000 803f 0000 803f 0000 803f 0000 803f
000000e0: 0000 803f 0000 803f 0000 803f 0000 803f
000000f0: 0000 803f 0000 803f 0000 803f 0000 803f
1.0 1.0 1.0 1.0 1.0 1.0 1.0 1.0
1.0 1.0 1.0 1.0 1.0 1.0 1.0 1.0
1.0 1.0 1.0 1.0 1.0 1.0 1.0 1.0
1.0 1.0 1.0 1.0 1.0 1.0 1.0 1.0
1.0 1.0 1.0 1.0 1.0 1.0 1.0 1.0
1.0 1.0 1.0 1.0 1.0 1.0 1.0 1.0
1.0 1.0 1.0 1.0 1.0 1.0 1.0 1.0
1.0 1.0 1.0 1.0 1.0 1.0 1.0 1.0

base.mlp.fc_h.2.bias f4 [64]
00000000: 0000 0000 0000 0000 0000 0000 0000 0000
00000010: 0000 0000 0000 0000 0000 0000 0000 0000
00000020: 0000 0000 0000 0000 0000 0000 0000 0000
00000030: 0000 0000 0000 0000 0000 0000 0000 0000
00000040: 0000 0000 0000 0000 0000 0000 0000 0000
00000050: 0000 0000 0000 0000 0000 0000 0000 0000
00000060: 0000 0000 0000 0000 0000 0000 0000 0000
00000070: 0000 0000 0000 0000 0000 0000 0000 0000
00000080: 0000 0000 0000 0000 0000 0000 0000 0000
00000090: 0000 0000 0000 0000 0000 0000 0000 0000
000000a0: 0000 0000 0000 0000 0000 0000 0000 0000
000000b0: 0000 0000 0000 0000 0000 0000 0000 0000
000000c0: 0000 0000 0000 0000 0000 0000 0000 0000
000000d0: 0000 0000 0000 0000 0000 0000 0000 0000
000000e0: 0000 0000 0000 0000 0000 0000 0000 0000
000000f0: 0000 0000 0000 0000 0000 0000 0000 0000
0.0 0.0 0.0 0.0 0.0 0.0 0.0 0.0
0.0 0.0 0.0 0.0 0.0 0.0 0.0 0.0
0.0 0.0 0.0 0.0 0.0 0.0 0.0 0.0
0.0 0.0 0.0 0.0 0.0 0.0 0.0 0.0
0.0 0.0 0.0 0.0 0.0 0.0 0.0 0.0
0.0 0.0 0.0 0.0 0.0 0.0 0.0 0.0
0.0 0.0 0.0 0.0 0.0 0.0 0.0 0.0
0.0 0.0 0.0 0.0 0.0 0.0 0.0 0.0

base.mlp.fc2.0.0.weight f4 [64, 64]
00000000: c2dc 47be df1c 1fbe 704b 3fbc 24c9 443e
00000010: 38ac d7bd d021 49be 5000 86be bfea c03d
00000020: 07e6 a23e 311c 05be ef23 803e dfdd 14be
00000030: 916c 323e 62e3 3fbe c17c 81be 739f f93d
00000040: a339 c1bc ef83 27be 00e2 a03d 01bf b53d
00000050: 4264 653e 095d 953d f890 54be 1c5d 68bd
00000060: 6a4c 463d 5f53 b93e f899 833d bf28 ac3b
00000070: a470 55be 2050 ec3d 73f1 d73e a78f 06be
00000080: dda7 2fbe f3e7 923d 0c6e 82be 87f5 ec3d
00000090: b6f9 813e ea6a 32be 5748 00bd 08de e73c
000000a0: 5026 0d3d 8336 b83d 3d54 16be c33f c3bd
000000b0: 263b dfbd 53e8 423d 9e0d cf3e cbbe 22be
000000c0: 88ac bcbc 2d4e e5bd ae19 77be 9eef 3fbe
000000d0: 45b3 12be ea0e 23be 28cb 0c3d a01b a8be
000000e0: 4f6d 36bd acdc f5bc ba02 413e c481 6cbe
000000f0: b2b6 c9bd 34d8 27be 369f 883e 5336 76be
00000100: 44d8 35be bda7 a0bd 5700 433e 0cbf 1bbe
00000110: 029c 443d 4b95 89be 35e9 323c 5f98 633c
00000120: 4f16 fe3d e62b 12be 46cf b9bd 3966 533d
00000130: 535b b63e eb46 3a3e 20de c7bd a339 6fbd
00000140: a6b8 cebe b0b6 f23c fa3c 12bd b9e5 7abe
00000150: c94a 36be e00d 403d 2b4a 97be 52ba b7bc
00000160: a6b3 823c e45c 2dbe ac18 85be 9dd9 4c3e
00000170: 2cf5 2ebe d673 a93c 9138 683d 4471 3c3d
00000180: 4278 d7bd be87 d6bd 3fb1 fa3d e8b6 36be
00000190: 39d4 003d e613 a93e 0ed0 773e 23fd 4cbe
000001a0: ad02 313e 3211 a13e ffcb 22be 1390 9cbe
000001b0: 842d 6a3d 0781 0cbe 75ae fbbc 9465 3ebe
000001c0: ee77 2f3e 00f5 553e 566c 203e a682 44be
000001d0: 8581 883e 3012 bfbd ddb7 f03c 5ba2 b03e
000001e0: 9b37 3abe 82df 2a3d 4dfe 403e c658 333e
000001f0: d2cf 5ebe cd14 213e 22f0 1f3e fd61 f1bd
00000200: 7d00 123e b1fa 8f3e 8c45 8f3d 5e88 9f3e
00000210: 2e0e 2fbe f09f 793e 920d 2cbe 034f b7bd
00000220: ef91 9bbe ccc3 9bbe 6222 8dbe 7960 7d3d
00000230: 2773 90bd 69ab 933d fc21 32be 995b 9d3e
00000240: 4401 20bd d7a5 023e 012b 153e 836c 2bbe
00000250: aa99 f33d e76d c9be 90d7 08bd 54b8 93be
00000260: 1e53 f2bd 9ce4 dabc 5af9 203b d7c4 74be
00000270: deee 973c 6ab1 193d f968 3d3e 641a 98be
00000280: 0edd 6dbd 898e b5bd c1c1 0a3e f5dc d0be
00000290: 9e33 7e3e f2a1 8abd 24ad a03e 6082 85be
000002a0: a00c d7bd e426 b53d 3912 133d 9412 53bd
000002b0: d7d2 883d 5967 d6bd 4b0e 36bd 07e6 11be
000002c0: 92db 493e 65ac 51be c639 3e3e 63d3 6a3e
000002d0: f8df 44be 456a 4e3d 0c1d 9dbc 262a f5bd
000002e0: 44cf a7bc fa2d d43a 5038 3ebe cebd 84bd
000002f0: ab22 423d b009 da3c b3c9 5b3e 71bc a6bd
00000300: a295 023e 6297 43bc 2b69 ac3c bcb7 223e
00000310: 8d8a 1cbe 4d09 133e 4f73 1f3e e0e5 063e
00000320: 896e 653d d8dc 10be a9c1 793d 13ec 29be
00000330: 5393 2e3c e7bb 9d3e 9a0f eebd c3b0 5cbe
00000340: 00ce 133e a5fa 38be 7242 6cbe 3cdd 07be
00000350: b767 243e 54e4 f33d 63d8 293e c237 4a3e
00000360: 50b3 ebbd 6ce7 2cbd 9ed8 82bd 3f13 a9bd
00000370: a59a a23e dbfc 91bd 1be9 e03e ec49 20be
00000380: 4613 79bd 76e4 863d c90a 093e 213b 23bd
00000390: 5c49 b53d 6f4a 243e d6cb f9bb 8b75 b7bb
000003a0: 8144 723e 3582 3d3e 2842 32be 736d 60bd
000003b0: 4609 ea3e d8e3 3b3c eebb 5cbe 9c64 863e
000003c0: 60f6 b2be c365 923e 5584 283e 2757 77bb
000003d0: 99b3 e4bc 9aa9 6a3e cdca ddbd 1007 28be
000003e0: 77b2 84bc 080f 8fbe 5948 993e a606 e3bd
000003f0: cb9f 243e 0b57 69bd bc82 11be 473b 1dbe
-0.19517806 -0.15538357 -0.011675701 0.19217354 -0.10530895 -0.19641805 -0.26172113 0.09419774
0.31816122 -0.12999035 0.25027415 -0.14537762 0.17424227 -0.18739083 -0.25290492 0.12188616
-0.023587054 -0.16358922 0.07855606 0.08874322 0.22401527 0.07293136 -0.20758426 -0.05672942
0.048412718 0.3619642 0.064258516 0.0052538808 -0.2084375 0.1153872 0.421764 -0.13140737
-0.17153879 0.07173147 -0.25474584 0.11570268 0.25385827 -0.17423597 -0.03131899 0.028304115
0.034460366 0.08994772 -0.14680572 -0.09533646 -0.108999535 0.047584843 0.40440077 -0.15893094
-0.023031488 -0.111965515 -0.2413089 -0.1874375 -0.14326198 -0.15923658 0.034373432 -0.32833576
-0.04453784 -0.030012451 0.18848696 -0.23096377 -0.098492995 -0.16391069 0.26683968 -0.2404416
-0.1775828 -0.078444935 0.19043098 -0.15209597 0.048000343 -0.26871714 0.010919859 0.013891309
0.12406599 -0.14274558 -0.090727374 0.05161116 0.3561655 0.18191116 -0.09759164 -0.058404576
-0.4037525 0.029628128 -0.035702683 -0.24501695 -0.17801966 0.046888232 -0.29548773 -0.022427712
0.015954804 -0.16929966 -0.25995386 0.20004888 -0.17085713 0.020685118 0.05669457 0.046006456
-0.10520984 -0.104751095 0.12240838 -0.1784321 0.03145239 0.33022994 0.2420046 -0.20018439
0.17286177 0.3145843 -0.15898131 -0.3057867 0.057172313 -0.13721095 -0.030722836 -0.18593436
0.17135593 0.20894241 0.15666327 -0.19190463 0.26661316 -0.09329641 0.029384548 0.34498867
-0.18185274 0.04171706 0.18847008 0.17514333 -0.21758965 0.15730591 0.15618947 -0.11786268
0.14257999 0.2812095 0.06995687 0.31158727 -0.17095253 0.24377418 -0.16802052 -0.08950617
-0.30384776 -0.3042282 -0.27565295 0.06185958 -0.070532136 0.07210428 -0.17395777 0.30733946
-0.039063707 0.12758575 0.14567186 -0.16740613 0.118945435 -0.3934166 -0.0334087 -0.2885157
-0.118322596 -0.026720338 0.0024562688 -0.23903213 0.018546518 0.03752271 0.18497075 -0.29707634
-0.058072142 -0.08865077 0.13550474 -0.40793577 0.24824378 -0.0676917 0.31382096 -0.2607603
-0.10500455 0.088453084 0.03590605 -0.05153139 0.066808395 -0.10468931 -0.044447225 -0.14247905
0.19712666 -0.2047592 0.18576726 0.229322 -0.19226062 0.050394315 -0.01917889 -0.1197093
-0.020484574 0.0016188018 -0.18576169 -0.06481515 0.047396343 0.026615947 0.21463661 -0.08141411
0.12752393 -0.011937948 0.021046242 0.15890402 -0.15287228 0.14359017 0.1557133 0.13173628
0.056013618 -0.14146745 0.060975704 -0.16593961 0.010655242 0.3080742 -0.116240695 -0.21551804
0.14434052 -0.18064363 -0.23072222 -0.13267988 0.16055189 0.119087845 0.16586451 0.19747832
-0.115088105 -0.04221289 -0.06388973 -0.08255624 0.3175861 -0.071283065 0.43927845 -0.15653199
-0.060809396 0.06586544 0.1338302 -0.03985131 0.08851883 0.16044019 -0.007623176 -0.005598729
0.23658945 0.18506701 -0.17408049 -0.05479188 0.457102 0.011467896 -0.21556064 0.26248634
-0.34953594 0.28593263 0.1645673 -0.0037741156 -0.02791767 0.2291626 -0.10829697 -0.16408944
-0.01619838 -0.27941155 0.2993801 -0.110852525 0.16076581 -0.056967776 -0.14210027 -0.15354644

base.mlp.fc2.0.0.bias f4 [64]
00000000: ba0f db3c ad12 633c 0acd edbb 18bd b2bb
00000010: 9b49 153c 89cc 3dbc c6ba 8dbb a982 6dbb
00000020: ee2c f9bb 5afe 983c 9ce2 b9bc 621a 593b
00000030: 27e3 39bc 37f1 bf3c 0f83 993b 435c b53c
00000040: 4184 3fbc ed21 1cbb cbea 623c 60df 5abb
00000050: 7870 e2bc e343 e2bb b51a b8bc 8587 603c
00000060: 7b18 d7bc ff89 b5bb 6593 3bbc d53a 81bc
00000070: 152d 8cbc 6c44 49bb 4857 353a 1e08 d8bc
00000080: b097 8e3c 611e 593c e07f 973b 437e 6cbc
00000090: f7bc 3a3c 4d74 c8bc 67b7 aabc b5a7 483c
000000a0: 0e16 70bc 7807 603c f858 bc3b 0d54 313c
000000b0: 1c9f 4f3b 22e7 00bd 8769 babc fc7f dcbb
000000c0: f9cc 833b a3c4 023c 32cd f1bc 3788 89bc
000000d0: e8f2 8b3c d136 83bc 8016 70bc f133 bfbc
000000e0: ef57 8ebc 5cde 8dbb a470 44bc 6618 353c
000000f0: 54f8 833c 27a9 dabc 47e4 37bc e727 84bc
0.026740897 0.013859433 -0.0072571086 -0.0054546706 0.009111787 -0.0115844095 -0.0043252436 -0.003624121
-0.007604233 0.018675972 -0.022691064 0.0033127298 -0.011345661 0.02343045 0.004684813 0.02213872
-0.011689247 -0.0023823932 0.013849924 -0.0033397302 -0.02764152 -0.0069050654 -0.022473672 0.013704185
-0.02625679 -0.005540132 -0.011448716 -0.015775124 -0.01711134 -0.0030710949 0.0006917608 -0.026371058
0.017406315 0.013251872 0.004623398 -0.0144344 0.011397592 -0.024469519 -0.020839406 0.012247016
-0.014653696 0.013673656 0.0057479106 0.010823262 0.003168053 -0.031470425 -0.022755397 -0.006729124
0.0040222374 0.007981452 -0.02951679 -0.016788585 0.0170836 -0.01601735 -0.014653802 -0.023340197
-0.017375914 -0.004329486 -0.011989746 0.01105318 0.016109623 -0.026691986 -0.011223859 -0.016132308

base.mlp.fc2.0.2.weight f4 [64]
00000000: 1ce2 833f 9daa 803f 299a 833f 952f 803f
00000010: 56a9 7f3f aa75 803f 291a 843f f319 7f3f
00000020: 4897 813f 1923 803f 5783 803f 059b 813f
00000030: 0ac9 813f f607 833f 9103 833f beb6 833f
00000040: d554 823f f908 843f 5ebd 803f 62e3 7f3f
00000050: 5d24 823f c37e 813f 683a 7f3f 43d0 813f
00000060: 2ee9 823f 6e2f 7f3f 9cb3 803f fad7 803f
00000070: 6bfd 803f a8d0 823f 677c 7f3f acb5 7e3f
00000080: dc24 833f c7a1 803f 1c79 833f 1e3a 823f
00000090: 9eef 813f 9f58 813f d5eb 813f 36c9 813f
000000a0: d517 803f 6d40 803f d74f 803f 0285 823f
000000b0: 5df3 833f 742d 813f f1fc 7f3f f5ff 803f
000000c0: b43f 813f d9a3 823f 7ae4 823f 1916 833f
000000d0: 2aeb 823f ceb2 7e3f 989d 803f d67c 7e3f
000000e0: c19e 823f 9bb0 803f 2a7d 833f 1720 833f
000000f0: ed26 7f3f e2f2 7d3f 6715 823f df8c 813f
1.0303378 1.0052067 1.0281421 1.0014521 0.9986776 1.0035908 1.0320483 0.9964897
1.0124292 1.0010711 1.0040082 1.0125433 1.0139477 1.0236804 1.0235463 1.0290143
1.0182139 1.0315238 1.005779 0.99956334 1.0167347 1.011681 0.99698496 1.0141681
1.0227411 0.99681747 1.0054812 1.0065911 1.0077337 1.0219927 0.997992 0.9949596
1.0245624 1.004937 1.0271335 1.0173986 1.015125 1.010517 1.0150095 1.013953
1.0007273 1.0019661 1.0024365 1.0196841 1.0308644 1.0091996 0.9999533 1.0078112
1.0097566 1.0206252 1.0225976 1.0241119 1.0228016 0.99491584 1.0048094 0.99409235
1.0204698 1.0053896 1.0272572 1.0244168 0.9966877 0.99198735 1.0162781 1.0121115

base.mlp.fc2.0.2.bias f4 [64]
00000000: 7c16 a4ba 2790 e83c d154 3c3c c5aa 323c
00000010: 85aa aa3c 5781 5abc 6828 a8bc 5434 e83c
00000020: 5ff9 b53c 017b b93c fd5c 883b f4ac b53c
00000030: 0bea 99bc dfd8 df3c 7161 3e3b d5ad b83c
00000040: 6ace 89bc 2f20 cdbc 93cc 6d3c 3761 e73c
00000050: 5bc6 dabc 98f9 6dbc bd44 bfbc fce8 3abb
00000060: 18fb 92bc 0f56 4d3c 23dc 6fbc 8158 90bc
00000070: 4dce acbc cc6f a6bc 06ab b23b 11cc b0bc
00000080: a365 fa3c 9dda a63c 5e7a e73b 750f 59ba
00000090: 0fcd 863c a159 7dbc bff2 76bb a3f5 3c3c
000000a0: cb67 9fbc de76 e23c affa 5e3c 61b6 833c
000000b0: 103a 143c 067a e9bc 2bb8 bebc cf2d 733c
000000c0: ccc1 f7ba f1b1 85bb 32d8 8dbc a4d5 aabc
000000d0: bb85 a43c 6e95 fabb 86fb 10bc a738 72bc
000000e0: fb8a f6bb c78e 483c 18dc a7bc f243 0d3c
000000f0: 7b6d b83c 361c b6bc 0e2f 8e3c b99b 8bbc
-0.0012518908 0.02838905 0.011494831 0.010904972 0.020833263 -0.013336501 -0.02052708 0.028345264
0.022213636 0.02264166 0.0041614757 0.022177197 -0.018788358 0.027325092 0.0029049779 0.022543827
-0.016822059 -0.02503976 0.014514106 0.028244598 -0.026705911 -0.01452484 -0.023348207 -0.0028520217
-0.017941996 0.012532725 -0.014639887 -0.017620327 -0.021094466 -0.02031698 0.0054525165 -0.021581681
0.030566042 0.020367915 0.007064148 -0.00082801963 0.016455201 -0.015463264 -0.003768131 0.011533174
-0.019458672 0.02764457 0.013609572 0.016078176 0.009047046 -0.028500568 -0.023281178 0.014842465
-0.001890236 -0.00408005 -0.017315004 -0.020853825 0.020083299 -0.007647208 -0.00884903 -0.014784015
-0.007523892 0.012241072 -0.020490691 0.008622156 0.022513142 -0.022230249 0.017356422 -0.017042028

act.action_out.fc_mean.weight f4 [5, 64]
00000000: 3eb5 693c adb6 9a3b 65c1 1d3c d64f 61bc
00000010: 918a 28bc df77 8c3c b1de c5bc 1e45 9dbb
00000020: 9a82 9bbb ea17 27bc 61bd f23b 7db7 bb3b
00000030: aa45 58bc 9427 dcbb 8ffc c0bc 8696 9f3c
00000040: 153d 2e3c 4a56 9f3c 2f98 2d3b c9b8 dd3b
00000050: f0f2 9bbc 4bf7 f83b 75b7 493c 951e a0bc
00000060: 8ac9 1f3b 798d ba3b f6b9 0cbc 59c8 8a3c
00000070: c691 bb3a b0a9 5abc d1aa 963b 0a7c 44bb
00000080: 1378 92bb 5620 623b 37f7 363c d37e a03c
00000090: b3e2 943c 64ba 5bbc 5eaf 21bc 4c1d 953a
000000a0: 3425 a1bc d7d0 0e3c 9d99 c7bb b0a8 4e3c
000000b0: 318b 2b3c 0aaf 39bc 2b27 03bc e267 25bc
000000c0: 8de9 01bc 5520 ae3c b093 9abc 54b3 173b
000000d0: 5e17 d63c ce2e 033b 2a96 50b9 b431 bebb
000000e0: 8e1f 39bb 127b 31bc 8275 95bc ceb6 553c
000000f0: 736f 083b 15d8 df3a 2f3f 993b 528c 4b3c
00000100: 7ff9 8fbc dd4a 3abb 31d5 c2bc 9160 0bbb
00000110: 3bfb 963b 7fd5 f6bb 799a c5bc c236 363c
00000120: 6e84 8e3c ada0 9bbb cf98 683c 50ce a13c
00000130: c61b 11bb 563e cd3c 7e70 afbb a29e e1bb
00000140: 35db 69bc 4876 8fbc 9f1d 923c de94 693c
00000150: 7631 a4bc 6995 5dbc b3d4 1f3b 95fa 0a3c
00000160: c3e0 9f3b 8983 eeba efcf 83bc 16b2 97bb
00000170: eca9 60bc e0c4 88bc 5035 ef3b 452d fbbb
00000180: b324 f13c a7ef 303a 0f17 b73c a6fc a3bb
00000190: 6d03 423c d413 bf3b 1596 9f3c 7d8c 5b3c
000001a0: f8fa 44bb 06e5 563c 23da 81ba fb1f 963c
000001b0: 6cd8 d83c 2909 86bb 0fe4 b2bb 1eeb 473c
000001c0: 8c1b 65b9 f1ae bcbc 4e7e 83bc 2a20 f1bc
000001d0: 34da 19bb 35bf 96bb ccb8 873c 8ecd ce3b
000001e0: a692 383c e604 233c 8f94 bfbc fe38 1bbc
000001f0: 85c6 283b d7e0 103b db30 a03c f60a c4bb
00000200: e5f9 96bc 92b5 00bb e3f0 01bc 67a1 08bb
00000210: 0a87 dd3b 9010 123b 1b99 f83b 5a1c 8bbc
00000220: a8b2 9dbc e7d9 b8ba d8a5 f73b e232 74bb
00000230: ce9c 8e3c 2ab1 b63b f45e 38ba 3af6 c33b
00000240: effe 093c f7aa 053d 6f0c c03c a043 593b
00000250: 7609 913b 1e3b ba3b 102a 043c 70cc 533c
00000260: 1cd7 d03c 90c8 9ebc f363 10bc 684a 32bc
00000270: 4706 94bc c204 2e3b 2b18 a93b 1074 98bb
00000280: fcca f7ba e460 0f3c ea21 2ebc 47f4 2a3b
00000290: e7af 6bbc eea5 063c 5b53 843c 38c4 5dbb
000002a0: 8142 4c3b aaa3 f036 ccd7 94bc e38d b23c
000002b0: a51d 2e3c cae9 713c 61ad d1bb c6d2 e5ba
000002c0: 9714 81bc 6a39 95bc ab72 8fbc e1c4 0e3b
000002d0: 66c7 9fbc 6cb2 4abb 648e 09bb b055 e73b
000002e0: e2f8 df3c db7c 273c cb05 b6ba 4744 e6bc
000002f0: 2a5a 5abc 16b2 19bb b791 903c bb79 483c
00000300: eaf1 2ebc 341f d83b 7166 3dbc 163d 7ebc
00000310: 8699 92bc f49e 903c 32e5 103a fcc5 9cba
00000320: 8a90 8f3b c00e c83a 2be4 1bbc da72 93bb
00000330: 167d 24bc 604f d4b9 f958 8b3b 4f9d 99bc
00000340: 1e8e 323c e460 5bbc f8d9 b33b 7362 da3a
00000350: a9ed b83b dccf 273c 1f66 b8bb 7333 503c
00000360: 6e4e 38bc 6ccb e7ba 003e 06bc f89b 943b
00000370: 5b90 40bc 537f 313c 4b47 813b ac6b a3ba
00000380: 5c6d ed3b 7c9e 663c 6527 2a39 e4bc 913c
00000390: 957b 80bc 4e60 e03b ccf3 233b 4786 9ebc
000003a0: b569 e93a c6f1 4e3b 9ecb dc3b 7d03 90bc
000003b0: 805f 633c 981c 80bc 58ac 803c 3efb 663c
000003c0: d261 26bc c846 5bbb e744 b03b 48e7 2ebc
000003d0: 39ed 7a3c f874 093a ecc4 a43c c960 a0ba
000003e0: 4442 4f3c 53fc a8bc 6e7e 4cbc 849a 613c
000003f0: a017 1cbc 31cf 46bb 235c 773b 9317 64bb
0.014264403 0.0047214837 0.009628628 -0.0137519445 -0.010286943 0.017147003 -0.02415404 -0.004799499
-0.0047457935 -0.010198573 0.0074078296 0.0057286606 -0.013200203 -0.0067185853 -0.02355793 0.019480955
0.01063468 0.019450326 0.0026488414 0.006766413 -0.01903674 0.007597839 0.012311806 -0.019545833
0.0024381601 0.0056931344 -0.008589258 0.016941236 0.0014310412 -0.013346121 0.0045979996 -0.002998116
-0.0044698804 0.0034504137 0.011167339 0.019591725 0.018174505 -0.013411138 -0.009868471 0.0011376529
-0.01967106 0.0087167835 -0.00609131 0.01261346 0.010470198 -0.0113332365 -0.008004944 -0.010095568
-0.007929218 0.021255651 -0.018869251 0.002314766 0.02613419 0.0020016911 -0.00019892366 -0.005804265
-0.0028247568 -0.010832565 -0.018244509 0.013044072 0.0020818382 0.0017077947 0.0046767215 0.012423592
-0.017575024 -0.002842597 -0.023783298 -0.0021267275 0.0046075857 -0.007532775 -0.02412151 0.011121454
0.017397132 -0.0047493787 0.014196589 0.019751698 -0.0022141798 0.025054138 -0.0053539863 -0.0068853656
-0.014273454 -0.017512456 0.01783639 0.014256684 -0.020043116 -0.013524392 0.0024388253 0.008482595
0.0048790886 -0.001819716 -0.016090361 -0.004629384 -0.0137123875 -0.01669544 0.0073000565 -0.0076653087
0.029436445 0.0006749578 0.022349862 -0.0050044833 0.011841637 0.005831221 0.019480744 0.013400194
-0.0030056816 0.013116127 -0.0009906929 0.018325796 0.026470385 -0.0040904474 -0.0054593156 0.012202052
-0.00021849404 -0.023032637 -0.016051438 -0.029434282 -0.0023476006 -0.0046004304 0.01656761 0.006311125
0.011265432 0.009949898 -0.023386268 -0.009474037 0.0025753092 0.0022106671 0.019554546 -0.005982752
-0.018429706 -0.0019639474 -0.007930967 -0.0020848156 0.0067604827 0.0022287704 0.007586611 -0.016981293
-0.019250229 -0.0014103026 0.007557612 -0.0037261774 0.017408755 0.005575319 -0.0007033192 0.00598028
0.008422597 0.032633748 0.023443429 0.003315188 0.0044261767 0.005683317 0.008066669 0.01292716
0.025493197 -0.019382745 -0.008812892 -0.010881998 -0.0180694 0.002655313 0.0051603517 -0.0046525076
-0.0018905099 0.008751128 -0.010628203 0.0026085542 -0.0143852 0.008218272 0.016153028 -0.003383888
0.003116757 7.1716104e-06 -0.018169306 0.021796172 0.010627185 0.014765212 -0.006398842 -0.0017534129
-0.015756888 -0.018215854 -0.017510733 0.002178483 -0.01950426 -0.0030929102 -0.0020989412 0.0070597753
0.027340356 0.010222639 -0.0013887224 -0.028108729 -0.013327161 -0.0023452095 0.017647607 0.012236054
-0.010677794 0.0065955166 -0.0115600685 -0.015517494 -0.017895471 0.01765392 0.0005527317 -0.0011960859
0.004381244 0.0015263185 -0.009514849 -0.0044997754 -0.010039588 -0.0004049493 0.0042525497 -0.018751768
0.010898141 -0.0133898 0.0054886304 0.001666142 0.0056435657 0.010242429 -0.005627408 0.012707579
-0.011249168 -0.0017684526 -0.008193493 0.0045351945 -0.011753167 0.010833579 0.0039452664 -0.0012468002
0.0072457027 0.014075872 0.00016227139 0.017790265 -0.015683929 0.006847418 0.002501714 -0.019351138
0.0017807992 0.0031577214 0.0067381402 -0.017579788 0.013877749 -0.015638635 0.01570718 0.014097987
-0.010155158 -0.0033458937 0.0053793075 -0.010675259 0.015315347 0.0005243565 0.02011343 -0.0012235875
0.012650076 -0.02062813 -0.012481315 0.01376975 -0.009527117 -0.0030335898 0.0037744127 -0.003480409

act.action_out.fc_mean.bias f4 [5]
00000000: 722d a73c 377d a43c a89a 02bc c315 d23b
00000010: 601b 2e3c
0.020407412 0.020079238 -0.007971443 0.0064112856 0.010626644

act.action_out.logstd._bias f4 [5, 1]
00000000: cc31 98bc 4d2e 013c 308e 35bc 74fd 82bc
00000010: b81a 17bc
-0.018578433 0.007884574 -0.011081263 -0.015989996 -0.009222679
