results/MyEnv/MyEnv/mappo/check/run15/models/critic_agent0.pt (torch, 48670 bytes, 15 tensors)

base.feature_norm.weight f4 [28]
0	0x3f820693	1.0158256
1	0x3f7ff33e	0.99980533
2	0x3f8227ce	1.0168397
3	0x3f7be0be	0.98389804
4	0x3f7d3592	0.98909867
5	0x3f7e214e	0.9926957
6	0x3f7cae88	0.98703814
7	0x3f7e47d0	0.9932833
8	0x3f823587	1.0172585
9	0x3f8193dc	1.0123248
10	0x3f804e94	1.002398
11	0x3f7b0554	0.98055005
12	0x3f7c5de2	0.98580754
13	0x3f7b0a0d	0.9806221
14	0x3f824e81	1.0180207
15	0x3f7cc1d9	0.9873329
16	0x3f7b3f5b	0.9814355
17	0x3f7c502b	0.98559827
18	0x3f82f7a2	1.0231822
19	0x3f825dfc	1.0184932
20	0x3f7b2679	0.9810558
21	0x3f80bd1f	1.0057715
22	0x3f808755	1.00413
23	0x3f7fc111	0.9990397
24	0x3f7bd617	0.9837355
25	0x3f8190e5	1.0122343
26	0x3f7b0086	0.98047674
27	0x3f808421	1.0040323

base.feature_norm.bias f4 [28]
0	0xbb1031a7	-0.0022002251
1	0x3c63400a	0.013870249
2	0xbcba260d	-0.022723222
3	0x3c3a3a77	0.011366478
4	0x3c19db6b	0.009390692
5	0x3bcdddf3	0.006282562
6	0xbc93981a	-0.018016864
7	0xbc0756f2	-0.0082604755
8	0xbbf80b30	-0.007569693
9	0x3b84b009	0.0040493053
10	0xbc9c9b99	-0.019117163
11	0x3ca4183a	0.020031083
12	0xbc030989	-0.007997879
13	0xbc57c380	-0.013169169
14	0xbc9073b3	-0.017633295
15	0x3c9a00e5	0.018799255
16	0xbc24e927	-0.0100653535
17	0x3c17739b	0.009243871
18	0x3c34ca71	0.011034594
19	0x3bac7a02	0.005263568
20	0x3c9a9359	0.018869089
21	0xbc475018	-0.012165092
22	0x3cadf9c5	0.021237263
23	0xbc10db58	-0.008841358
24	0xbbf5b271	-0.0074980785
25	0xbc9c18ec	-0.019054852
26	0xbca79777	-0.020457966
27	0x3c58ff38	0.013244443

base.mlp.fc1.0.weight f4 [64, 28]
0	0x3e31a3e3	0.17347674
1	0x3d97e8fe	0.074174866
2	0x3cf1d3d4	0.029519953
3	0xbd38723a	-0.04503081
4	0x3e3a31af	0.18183015
5	0x3e0bbb42	0.13645652
6	0xbe4e71cf	-0.20160602
7	0xbd1bbd82	-0.038022526
8	0x3d4ea394	0.05044897
9	0x3d797094	0.06089838
10	0xbd94b086	-0.07260232
11	0x3eacf7ae	0.33782715
12	0xbd42a8fc	-0.047524437
13	0xbe83e6e7	-0.25762102
14	0x3e1101bc	0.14160818
15	0x3e71df8f	0.23620437
16	0xbd917304	-0.071020156
17	0x3ea0d49d	0.3141221
18	0x3d5f876c	0.054572508
19	0xbdb065cb	-0.086131655
20	0xbe47351a	-0.1945385
21	0xbd200baf	-0.039073642
22	0xbea9cc50	-0.3316369
23	0xbd92c433	-0.07166328
24	0x3d31b0f2	0.04338164
25	0x3e8f93b7	0.28042385
26	0xbe042450	-0.12904477
27	0x3e18fdcc	0.14940566
28	0x3e35af5d	0.17742677
29	0xbcc84aff	-0.024449823
30	0xbc1c232c	-0.00952987
31	0xbdfb0b5b	-0.12258025
32	0x3ecd5b5c	0.40108764
33	0x3e3f75fa	0.18697348
34	0x3ec952bc	0.39320934
35	0x3ebcdc3c	0.36886775
36	0x3c208551	0.00979741
37	0xbe6ed8cf	-0.23324893
38	0xbc95b7e6	-0.018276166
39	0xbd6f080d	-0.058357287
40	0xbdc97da5	-0.09838418
41	0x3df73542	0.12070705
42	0x3e3ab73f	0.18233965
43	0xbdc55102	-0.09634592
44	0xbe48349d	-0.1955132
45	0xbe63d5e1	-0.22249557
46	0xbed5ef1b	-0.41783985
47	0xbdac37c7	-0.08409076
48	0xbea02304	-0.31276715
49	0xbe8a8357	-0.2705333
50	0xbdb3ba59	-0.08775777
51	0x3e8438e1	0.25824645
52	0x3e3c6423	0.18397574
53	0xbdd8e637	-0.10590785
54	0xbe515654	-0.20443088
55	0xbea35839	-0.31903246
56	0x3e14b49f	0.14522026
57	0x3e37753b	0.17915814
58	0x3c3319ea	0.010931471
59	0x3bc28eac	0.005937418
60	0xbd3f9cb3	-0.0467803
61	0xbd1daa03	-0.038492214
62	0x3d38ee35	0.045149047
63	0x3d6e0a46	0.058115266
64	0x3dbea292	0.093083516
65	0x3de0ab2b	0.10970148
66	0xbe0ff66f	-0.1405885
67	0x3d1dcc20	0.038524747
68	0x3ec48af9	0.38387278
69	0x3ec90720	0.39263248
70	0xbddd7f2b	-0.10815271
71	0x3e2a6598	0.16640317
72	0x3dd9e586	0.10639481
73	0xbdabfe29	-0.083980866
74	0x3e6763f8	0.22596729
75	0xbe7cf2a2	-0.24701932
76	0x3b1a0515	0.0023501564
77	0xbe28284f	-0.16421627
78	0xbe1f28b5	-0.15542872
79	0x3e17f40e	0.14839193
80	0xbd84e6e5	-0.06489352
81	0xbac29064	-0.0014844057
82	0x3c6cd948	0.014456101
83	0xbc360a57	-0.011110864
84	0x3ea51cdd	0.32248583
85	0xbd482a4f	-0.048868474
86	0xbda99df7	-0.082820825
87	0xbedb9119	-0.42884138
88	0xbe3cefc1	-0.18450834
89	0xbd4bb232	-0.049730487
90	0xbdfbed01	-0.12301064
91	0x3dc3a834	0.095535666
92	0xbe536c92	-0.20646885
93	0xbe67b5df	-0.22627972
94	0x3d52bcde	0.05144965
95	0x3d7a8222	0.06115926
96	0xbe2f6c81	-0.17131235
97	0x3e32b93b	0.17453472
98	0xbdc8d0bf	-0.0980544
99	0x3d87824f	0.06616651
100	0x3d290052	0.04126007
101	0xbd8324ef	-0.06403529
102	0x3e617f7a	0.22021285
103	0x3e5240c1	0.20532514
104	0x3e0ce690	0.13759828
105	0xbe1526e0	-0.14565611
106	0x3cf930eb	0.030418834
107	0x3d208c54	0.039196327
108	0x3e5e420d	0.21704884
109	0xbb978ccd	-0.004624939
110	0x3c111c47	0.0088568395
111	0x3ed4a222	0.41529948
112	0xbd95fdf9	-0.07323832
113	0xbd2f9379	-0.04286525
114	0xbe485817	-0.19564854
115	0xbdd8264f	-0.10554182
116	0xbddb8ea1	-0.10720564
117	0xbe3d6fbf	-0.18499659
118	0x3e54a7ac	0.20767087
119	0xbef7465e	-0.48295873
120	0xbd638178	-0.055543393
121	0x3e08bc9d	0.133532
122	0x3d9ce4e2	0.076608434
123	0xbe03536c	-0.12824792
124	0xbeadf954	-0.33979285
125	0xbd853fea	-0.06506331
126	0x3dad8bb3	0.08473911
127	0x3e940697	0.28911278
128	0xbc3e46eb	-0.011613588
129	0xbdc6bb0e	-0.097036466
130	0x3cb47786	0.02202965
131	0xbdba3058	-0.09091252
132	0xbe75e592	-0.24013355
133	0x3ac95f86	0.0015363551
134	0xbd81030c	-0.06299409
135	0xbe56b6fe	-0.20968243
136	0x3e32a73d	0.17446609
137	0xbd886d13	-0.06661429
138	0xbe01b5cd	-0.12667008
139	0x3d276950	0.04087192
140	0x3db7190a	0.08940323
141	0xbdb34c90	-0.087548375
142	0xbdf52daf	-0.11971604
143	0x3c8c585e	0.01713198
144	0x3d9edddf	0.07757162
145	0xbd47cb82	-0.048778065
146	0x3d909c86	0.070611045
147	0xbdd03769	-0.10166819
148	0x3e391447	0.18074141
149	0xbe8c0cbf	-0.27353474
150	0x3e4206a0	0.1894784
151	0x3d4a44e4	0.049382105
152	0x3c9fcf55	0.019508043
153	0xbe2b4c8d	-0.1672842
154	0xbdcf0ea9	-0.10110218
155	0x3e270fb5	0.16314586
156	0xbc2cfb97	-0.010558031
157	0xbea14952	-0.3150125
158	0x3d85d58f	0.06534874
159	0xbea75e05	-0.3268892
160	0x3ed42755	0.41436258
161	0xbdaa1cb8	-0.08306259
162	0x3da430dc	0.08017132
163	0x3e0f88c7	0.1401702
164	0xbd307d4d	-0.043088246
165	0xbe686fa8	-0.22698843
166	0x3cbe3ae5	0.023221442
167	0xbd665eb9	-0.05624268
168	0xbe144aa2	-0.14481595
169	0x3e4809e9	0.1953503
170	0xbddc19d1	-0.107471116
171	0x3dfc9514	0.12333122
172	0x3ca812a3	0.0205167
173	0xbd076dac	-0.033063576
174	0x3c88afe5	0.016685436
175	0xbda155d2	-0.07877697
176	0x3e190015	0.14941438
177	0x3d031b57	0.032008495
178	0xbd805504	-0.062662154
179	0xbe237bfe	-0.15965268
180	0x3d83368e	0.0640689
181	0xbd3f5762	-0.046714194
182	0x3e110592	0.14162281
183	0xbe9e6efb	-0.30944046
184	0x3d827c39	0.0637135
185	0xbdbb2d7c	-0.09139535
186	0x3c717ae1	0.014738769
187	0x3d8d0f91	0.06887735
188	0xbe96978e	-0.29412502
189	0xbd4bb94e	-0.049737267
190	0xbdb3c8d0	-0.08778536
191	0xbe73190e	-0.23740026
192	0x3e5dc50e	0.21657202
193	0x3de341f4	0.11096564
194	0xbe6c4d5b	-0.23076384
195	0x3d0e8fe7	0.034805205
196	0x3e8dcb16	0.27694005
197	0xbd9fc2dc	-0.07800838
198	0xbd429f4d	-0.047515202
199	0x3ec3c21f	0.3823404
200	0xbdde6e0d	-0.10860834
201	0xbe19e546	-0.15028867
202	0xbddb57bf	-0.107100956
203	0xbcfac717	-0.030612512
204	0x3dbb4dcb	0.09145697
205	0xbe8b7cc7	-0.27243635
206	0xbe4a1569	-0.1973473
207	0xbc93fc9e	-0.018064793
208	0x3e760268	0.24024355
209	0xbe211544	-0.15730768
210	0xbde08962	-0.10963704
211	0x3e0802af	0.13282274
212	0xbdfa5058	-0.122223556
213	0xbe496fca	-0.1967155
214	0xbe9d6ac4	-0.30745518
215	0x3e20b3cd	0.15693589
216	0x3c85535d	0.016275102
217	0x3d81d370	0.06339157
218	0x3e151e31	0.14562298
219	0xbe2f89e7	-0.1714245
220	0x3df5a899	0.11995048
221	0x3f0211c6	0.5080837
222	0xbb521608	-0.0032056589
223	0xbcf7c757	-0.03024642
224	0xbe3b072d	-0.18264456
225	0x3ea8a93f	0.32941625
226	0xbdb96656	-0.09052722
227	0x3e01333d	0.12617202
228	0x3d69cf08	0.057082206
229	0x3ddeb3ae	0.10874115
230	0xbe2388d7	-0.15970169
231	0x3d871175	0.065951265
232	0xbed1debc	-0.40990245
233	0xbde3ac7b	-0.111168824
234	0x3d96919a	0.0735199
235	0x3e92a392	0.2864042
236	0x3e459c67	0.19297944
237	0xbc5d0ead	-0.0134922685
238	0x3d1b3056	0.037887894
239	0xbe36a209	-0.17835249
240	0xbd378eb6	-0.044813834
241	0x3dd1f9ce	0.102527246
242	0xbe433f19	-0.19067039
243	0x3e392fbc	0.18084615
244	0x3de70a80	0.112812996
245	0xbe88e69e	-0.26738447
246	0xbec7ff2b	-0.39061865
247	0x3e027ae8	0.12742198
248	0xbea3bcb8	-0.31979918
249	0x3e265582	0.16243556
250	0xbc5f4c0b	-0.01362897
251	0x3d2179c3	0.03942276
252	0xbea7b24c	-0.32753217
253	0x3e8d8fcc	0.2764877
254	0x3dcd52b9	0.10025544
255	0x3de3959e	0.111125216

base.mlp.fc1.0.bias f4 [64]
0	0xbc904d7f	-0.017615078
1	0xbc82a637	-0.015948398
2	0x3ae47a27	0.0017431424
3	0x3caeefb2	0.02135453
4	0xbc7be69d	-0.015374807
5	0x3c64d7f6	0.013967505
6	0xbc6ea586	-0.014565831
7	0x3c9eab6a	0.019368846
8	0x3c040d82	0.008059861
9	0x3cc7ba8d	0.024380947
10	0xbb521ae5	-0.0032059487
11	0xbc120b47	-0.008913822
12	0xbb9b4eaf	-0.0047396044
13	0xbc988648	-0.018618718
14	0xbc02da8a	-0.007986674
15	0xbca94b98	-0.020665929
16	0xbc5b952e	-0.013402266
17	0x3c7dbe91	0.015487329
18	0x3c9b8051	0.018982084
19	0xbc0c86eb	-0.008577089
20	0xbc482a66	-0.01221714
21	0x3bdce314	0.006740937
22	0x3c899993	0.016796863
23	0x3c31c026	0.010849034
24	0xbca49e43	-0.020094996
25	0x3c7231b3	0.014782357
26	0x3c3ec3de	0.011643378
27	0xbc1d3f7e	-0.009597657
28	0x3b41de04	0.0029581795
29	0xbbdd32cb	-0.0067504398
30	0xbc0c9688	-0.008580811
31	0xbca52120	-0.020157397
32	0xbc99d0ed	-0.018776381
33	0x3c74800a	0.014923105
34	0xbcb52959	-0.022114443
35	0x3cad3c76	0.021146994
36	0x3c17d333	0.009266662
37	0xbc2dc614	-0.010606308
38	0xbbe37295	-0.0069411495
39	0x3c98f3d5	0.018670956
40	0x3c7eedc4	0.015559617
41	0x3cb00194	0.021485128
42	0x3c2a9d91	0.010413543
43	0x3c606822	0.013696702
44	0x3b829144	0.003984602
45	0x3c3b3a6f	0.011427506
46	0x3c5fce2e	0.013659997
47	0x3c021b7f	0.007941126
48	0xbc9c8f90	-0.019111425
49	0xbc5e0615	-0.013551255
50	0x3ca4aaef	0.020101039
51	0x3bf83fab	0.007575949
52	0xbcadbf25	-0.021209309
53	0x381feb85	3.81279e-05
54	0xbc923804	-0.017848976
55	0x3c558a5f	0.0130334785
56	0x3c800953	0.015629446
57	0xbc97569e	-0.01847392
58	0x3ca58cf0	0.020208806
59	0xbc0741e3	-0.008255455
60	0xbc868a62	-0.016423408
61	0x3c2a6472	0.010399925
62	0x3c3513e3	0.011052105
63	0x3caab61d	0.020838792

base.mlp.fc1.2.weight f4 [64]
0	0x3f7ea72a	0.9947382
1	0x3f7e4033	0.9931671
2	0x3f82dd08	1.0223703
3	0x3f8095ae	1.0045679
4	0x3f7b4757	0.9815573
5	0x3f80e451	1.0069677
6	0x3f812e6a	1.009229
7	0x3f80eb64	1.0071836
8	0x3f7b1a48	0.98086977
9	0x3f81b4d1	1.0133306
10	0x3f7eaaab	0.9947917
11	0x3f822f33	1.0170654
12	0x3f82d0c3	1.0219959
13	0x3f7fccea	0.9992205
14	0x3f8208b0	1.0158901
15	0x3f8215dc	1.0162921
16	0x3f7ade1a	0.9799515
17	0x3f80c74c	1.006082
18	0x3f825cb0	1.0184536
19	0x3f819cbd	1.0125958
20	0x3f812954	1.0090737
21	0x3f7c1c80	0.9848099
22	0x3f80fa9a	1.0076478
23	0x3f80bdf3	1.0057968
24	0x3f7e3837	0.9930453
25	0x3f7e17c4	0.99255013
26	0x3f7b79d2	0.9823276
27	0x3f830ab5	1.0237643
28	0x3f82670a	1.0187695
29	0x3f8244a3	1.0177196
30	0x3f8272c2	1.0191271
31	0x3f803f49	1.0019313
32	0x3f7d0971	0.9884253
33	0x3f7cfb0b	0.9882056
34	0x3f7c466f	0.98544973
35	0x3f829d80	1.0204315
36	0x3f7b9ca0	0.98285866
37	0x3f81c5ab	1.0138448
38	0x3f7cf947	0.9881787
39	0x3f7f3020	0.9968281
40	0x3f825f7b	1.0185388
41	0x3f824cc5	1.0179678
42	0x3f7affcc	0.98046565
43	0x3f82c935	1.0217654
44	0x3f7df485	0.9920123
45	0x3f80e425	1.0069624
46	0x3f7fb433	0.9988434
47	0x3f803dc1	1.0018846
48	0x3f7d4894	0.9893887
49	0x3f80f09b	1.0073427
50	0x3f81c49a	1.0138123
51	0x3f79ef4c	0.97630763
52	0x3f7a5343	0.977833
53	0x3f824643	1.0177692
54	0x3f7ebeab	0.99509686
55	0x3f7b7bc7	0.98235744
56	0x3f7c2055	0.98486835
57	0x3f7b9ac9	0.9828306
58	0x3f7cb87d	0.98719007
59	0x3f8007e5	1.0002409
60	0x3f81be4e	1.0136201
61	0x3f801d0a	1.0008862
62	0x3f8297fe	1.0202634
63	0x3f7cb692	0.9871608

base.mlp.fc1.2.bias f4 [64]
0	0xbc34bdba	-0.011031562
1	0xbc748a5d	-0.0149255665
2	0x3c05534a	0.008137533
3	0x3cb34220	0.021882117
4	0xbc1c477b	-0.009538527
5	0x3c81c7ce	0.015842345
6	0xbc49c26f	-0.012314423
7	0x3c98a516	0.018633407
8	0x3c42f5cd	0.011899424
9	0x3c9b2a44	0.018941052
10	0x3c0ddd3b	0.0086587025
11	0xbc90f83a	-0.017696489
12	0xbbb392fd	-0.005480169
13	0xbca348ea	-0.01993223
14	0xbca4d533	-0.020121193
15	0xbca08180	-0.019593
16	0xbb370c68	-0.0027930979
17	0x3ca8432c	0.020539843
18	0x3c33703e	0.010952054
19	0xbc0dee14	-0.008662719
20	0xbbaffb1b	-0.0053705103
21	0x3bfa1167	0.007631469
22	0x3cab090c	0.020878337
23	0x3c23aabb	0.009989436
24	0xbc9dfa9c	-0.019284539
25	0x3c4ce0a3	0.012504729
26	0x3c355263	0.011067006
27	0xbc9acf71	-0.018897744
28	0x3a254d8a	0.0006305805
29	0xbc1373c8	-0.008999772
30	0xbc2b72ba	-0.010464365
31	0xbb8f8ec6	-0.0043810336
32	0xbc9d1056	-0.019172829
33	0x3c83a96e	0.016072001
34	0xbcae3bcf	-0.021268753
35	0x3c236860	0.009973615
36	0x3c78aa98	0.0151773915
37	0xbc7805ac	-0.015138071
38	0xbbed0c86	-0.007234159
39	0x3c9f5e11	0.019454034
40	0x3c3d1113	0.011539715
41	0x3c65701d	0.014003781
42	0x3c70b868	0.014692403
43	0xbc3a94fc	-0.01138806
44	0x3cbd9699	0.0231431
45	0x3c3fcc94	0.01170649
46	0x3c8820c5	0.016617188
47	0x3bcbd2a9	0.006220181
48	0xbca87547	-0.020563735
49	0xbc446323	-0.011986527
50	0x3ca5bf44	0.020232804
51	0x3c4570fe	0.012050865
52	0xbc8b8943	-0.017033225
53	0xbc26c57c	-0.01017892
54	0xbc67721f	-0.01412633
55	0x3ca38196	0.019959252
56	0x3ca56f29	0.020194607
57	0xbc2b7103	-0.010463956
58	0x3c9ba37e	0.018998858
59	0xbc39ca1b	-0.01133969
60	0xbcb28045	-0.02178968
61	0x3c335ff4	0.01094817
62	0x3c32d136	0.010914138
63	0x3ca18890	0.019718438

base.mlp.fc_h.0.weight f4 [64, 64]
0	0x3d034de9	0.032056723
1	0x3c00182a	0.007818261
2	0x3d8644ef	0.06556117
3	0x3ed4ed94	0.41587508
4	0x3d845a3a	0.06462522
5	0xbec30551	-0.38089994
6	0x3de9a977	0.11409276
7	0x3db33e7a	0.08752151
8	0x3d54d0ee	0.051957063
9	0x3d9d4270	0.076786876
10	0x3e01d00c	0.1267702
11	0xbe5c3279	-0.21503629
12	0x3d8a5747	0.06754928
13	0x3e58e54e	0.21181223
14	0x3e90a22a	0.2824872
15	0xbea98979	-0.33112696
16	0xbe5a4d07	-0.21318446
17	0x3ca97494	0.020685472
18	0xbd7520df	-0.0598458
19	0x3da28b46	0.079367206
20	0xbd52ea56	-0.05149301
21	0x3e863b56	0.26217145
22	0xbda1b363	-0.078955434
23	0xbee39092	-0.44446236
24	0x3e53b4eb	0.20674483
25	0xbe8e13ef	-0.27749583
26	0x3e1d51c2	0.1536322
27	0xbe68ea20	-0.22745562
28	0x3ebcd292	0.36879402
29	0x3ce386ea	0.027774293
30	0xbe2d9d4e	-0.16954538
31	0xbd9f1c98	-0.07769126
32	0xbdcdc863	-0.10047986
33	0xbddf11ca	-0.10892065
34	0x3e8f8e8e	0.28038448
35	0xbddb5681	-0.10709859
36	0x3d83038e	0.063971624
37	0x3cfa92bb	0.030587545
38	0x3dd1a0c8	0.10235745
39	0x3b8876b2	0.00416454
40	0xbd948c42	-0.072533146
41	0xbd932aba	-0.07185884
42	0x3d835fa9	0.0641473
43	0xbcbaab61	-0.022786798
44	0xbde8cbea	-0.113670185
45	0x3e449760	0.1919837
46	0x3d07039e	0.032962434
47	0x3d8d4f78	0.06899923
48	0xbe2ddd78	-0.16979015
49	0xbddb506d	-0.107086994
50	0x3cd3220c	0.02577307
51	0x3b7099ca	0.003671276
52	0x3e1629a1	0.14664318
53	0x3e918d8f	0.28428313
54	0x3e7a7ab1	0.24460866
55	0xbe332c81	-0.17497446
56	0xbd98ec60	-0.0746696
57	0x3aceb08d	0.0015769169
58	0xbd2d498d	-0.04230647
59	0xbdc0f7ec	-0.09422287
60	0x3bf80da0	0.0075699836
61	0xbdc21446	-0.09476523
62	0x3edc8bda	0.43075448
63	0xbd20e7ae	-0.039283447
64	0xbe465eb1	-0.1937206
65	0x3d97d4dd	0.07413647
66	0x3e8b73d1	0.27236798
67	0xbe7c3e8b	-0.24633233
68	0xbc9a4ea5	-0.018836329
69	0xbe9dbd8a	-0.3080867
70	0xbe86a2ff	-0.2629623
71	0xbe7bde93	-0.24596624
72	0x3cabb305	0.020959387
73	0x3db2f3e2	0.08737923
74	0x3e97644c	0.29568708
75	0xbde66d17	-0.11251276
76	0xbd99388d	-0.07481489
77	0xbea1d547	-0.3160803
78	0x3dc7735b	0.09738799
79	0x3df57031	0.119842894
80	0x3df1365d	0.11777947
81	0x3e937d18	0.28806376
82	0x3e441fd3	0.19152765
83	0xbb99b9ae	-0.004691324
84	0x3ea980aa	0.33105975
85	0xbbd439d7	-0.0064766216
86	0xbce7db65	-0.028302858
87	0xbddaf98c	-0.106921285
88	0xbe9dd418	-0.30825877
89	0xbdf4010a	-0.11914261
90	0x3cab36bf	0.020900128
91	0x3cd75542	0.026285771
92	0x3d8206ba	0.06348939
93	0xbc0574aa	-0.008145491
94	0xbe1afd8e	-0.15135786
95	0xbea085b5	-0.3135201
96	0x3da42169	0.08014185
97	0x3e28d218	0.16486394
98	0x3dba2c9d	0.090905406
99	0x3e72ee27	0.2372366
100	0xbe4c5aa4	-0.19956452
101	0xbcf5d0da	-0.030006815
102	0xbdd0e8c3	-0.10200646
103	0x3e68fb16	0.22752032
104	0xbd729a30	-0.059229076
105	0xbe8a8f6e	-0.27062553
106	0xbc782db7	-0.015147618
107	0xbcd854ff	-0.026407717
108	0xbe8e7e4a	-0.27830726
109	0x3d45fc4e	0.04833632
110	0x3da40feb	0.080108486
111	0x3ea6a32a	0.3254636
112	0x3e1f67be	0.15566918
113	0xbe27adcf	-0.16374896
114	0x3d09e3a9	0.03366438
115	0xbd511856	-0.0510486
116	0xbaa738e8	-0.0012758048
117	0xbe003755	-0.12521107
118	0x3ea1eff6	0.31628388
119	0x3df743ca	0.120734766
120	0xbe251213	-0.16120176
121	0x3d00bcf0	0.031430185
122	0x3c7a9f79	0.01529681
123	0xbe542075	-0.20715506
124	0xbea519f3	-0.3224636
125	0x3dd2782a	0.10276826
126	0xbe2a2134	-0.16614228
127	0xbca302c2	-0.019898776
128	0xbd0dc36a	-0.03461019
129	0xbbbd998f	-0.005786128
130	0xbd1ea6cc	-0.03873329
131	0x3df42a3a	0.119221166
132	0x3ddbd87d	0.10734651
133	0xbd5357a6	-0.05159726
134	0xbea95c86	-0.33078402
135	0xbe61155a	-0.21980801
136	0x3d85e0e5	0.06537036
137	0x3f019ee6	0.50633085
138	0xbc8b18c6	-0.016979586
139	0x3d007926	0.031365536
140	0xbe3c5a8d	-0.18393917
141	0xbe558872	-0.20852831
142	0xbdc03209	-0.093845434
143	0x3e5fb5ac	0.21846646
144	0xbd817dda	-0.063228324
145	0x3e32cbfb	0.17460625
146	0xbdc7bb69	-0.097525425
147	0xbe92bd9c	-0.28660285
148	0x3d865103	0.065584205
149	0x3e14e727	0.14541303
150	0xbe0f15a6	-0.13973102
151	0x3e494df2	0.1965864
152	0x3e3ecdfe	0.18633267
153	0xbd05974a	-0.032614984
154	0x3e0b36b0	0.1359508
155	0xbe703979	-0.23459424
156	0x3e23eef5	0.16009124
157	0x3e5b2618	0.2140125
158	0x3df1cb59	0.118063636
159	0xbe1dccba	-0.15410128
160	0xbe3b1a27	-0.18271695
161	0xbe884493	-0.26614818
162	0xbcbc5fa9	-0.022994833
163	0xbe90eb70	-0.28304625
164	0x3e34f371	0.1767099
165	0x3e1c7493	0.15278845
166	0xbce33ba8	-0.027738407
167	0xbd855006	-0.06509404
168	0xbe613dcd	-0.21996231
169	0x3e33c6ec	0.17556351
170	0x3dfd9a4d	0.12382946
171	0x3e3ad9b8	0.18247116
172	0x3e29ffc0	0.16601467
173	0xbe47b9f2	-0.19504526
174	0x3bc0c23c	0.0058825295
175	0x3c874ab8	0.01651512
176	0xbe82e658	-0.25566363
177	0x3d9eeb3f	0.077597134
178	0xbe9a667a	-0.30156308
179	0xbe58920f	-0.21149467
180	0xbe4a49ea	-0.19754758
181	0xbe872645	-0.26396385
182	0xbdfdfced	-0.124017574
183	0xbe91abbc	-0.28451335
184	0x3d2c1d54	0.042020157
185	0x3e5d81a6	0.21631488
186	0x3d88379d	0.066512324
187	0xbc83f1c2	-0.01610649
188	0xbe927c2c	-0.2861036
189	0xbd027324	-0.031848088
190	0xbc7e5286	-0.015522605
191	0xbcc35dec	-0.023848496
192	0x3d4e227a	0.05032585
193	0x3ebf2684	0.37334073
194	0x3cfe1beb	0.031019172
195	0x3e8d8925	0.27643695
196	0xbc4769df	-0.012171238
197	0x3e798327	0.24366437
198	0xbeb4fcdd	-0.3534917
199	0xbde05c6a	-0.109551266
200	0x3d190be7	0.037364867
201	0xbe283722	-0.16427281
202	0x3d1d5f19	0.03842077
203	0xbe9cbe83	-0.306141
204	0x3d07a258	0.033113807
205	0x3e8daefe	0.2767257
206	0xbd9788e2	-0.07399155
207	0x3e65ba0f	0.22434257
208	0x3e8295e6	0.25504988
209	0x3e338092	0.17529514
210	0x3dfe129c	0.12405893
211	0x3e892e6a	0.26793224
212	0x3e141da5	0.14464433
213	0xbec370e0	-0.38172054
214	0xbc306856	-0.010767063
215	0xbe2afeb5	-0.16698726
216	0xbd86b34a	-0.065771654
217	0xbe60cb1a	-0.21952477
218	0x3d74c5c1	0.059758905
219	0x3b4a0844	0.003082768
220	0xbda2cb37	-0.079489164
221	0x3c68aa0a	0.014200697
222	0x3e09f4ca	0.13472286
223	0x3d9ab0ea	0.07553275
224	0xbd8bbd67	-0.06823235
225	0xbe116147	-0.14197265
226	0xbd00ad38	-0.031415194
227	0xbec550ea	-0.38538295
228	0xbddfca2d	-0.10927234
229	0xbc8f294b	-0.017475745
230	0xbdb52c73	-0.08846369
231	0xbe07954c	-0.13240546
232	0x3ca4ee0d	0.020133043
233	0x3e3f89c4	0.18704897
234	0x3e0d4763	0.13796763
235	0x3ed4254f	0.41434714
236	0x3dfe8527	0.124277405
237	0x3ddd6a2d	0.10811267
238	0xbded90c6	-0.11599879
239	0xbe2cffd8	-0.16894472
240	0xbd8953d5	-0.06705443
241	0xbea4c547	-0.3218176
242	0x3d9b4859	0.075821586
243	0x3d8bbfa4	0.06823662
244	0xbe12926c	-0.14313668
245	0x3e6ada11	0.22934748
246	0x3de59bd9	0.11211366
247	0x3dff834e	0.12476216
248	0xbe0a4b51	-0.13505293
249	0xbe2de7e8	-0.16982996
250	0x3db0fc3c	0.0864186
251	0xbe66db29	-0.2254454
252	0x3cde68f7	0.02714966
253	0x3c955427	0.018228604
254	0xbe1e270a	-0.1544458
255	0x3d9df900	0.077135086

base.mlp.fc_h.0.bias f4 [64]
0	0x00000000	0.0
1	0x00000000	0.0
2	0x00000000	0.0
3	0x00000000	0.0
4	0x00000000	0.0
5	0x00000000	0.0
6	0x00000000	0.0
7	0x00000000	0.0
8	0x00000000	0.0
9	0x00000000	0.0
10	0x00000000	0.0
11	0x00000000	0.0
12	0x00000000	0.0
13	0x00000000	0.0
14	0x00000000	0.0
15	0x00000000	0.0
16	0x00000000	0.0
17	0x00000000	0.0
18	0x00000000	0.0
19	0x00000000	0.0
20	0x00000000	0.0
21	0x00000000	0.0
22	0x00000000	0.0
23	0x00000000	0.0
24	0x00000000	0.0
25	0x00000000	0.0
26	0x00000000	0.0
27	0x00000000	0.0
28	0x00000000	0.0
29	0x00000000	0.0
30	0x00000000	0.0
31	0x00000000	0.0
32	0x00000000	0.0
33	0x00000000	0.0
34	0x00000000	0.0
35	0x00000000	0.0
36	0x00000000	0.0
37	0x00000000	0.0
38	0x00000000	0.0
39	0x00000000	0.0
40	0x00000000	0.0
41	0x00000000	0.0
42	0x00000000	0.0
43	0x00000000	0.0
44	0x00000000	0.0
45	0x00000000	0.0
46	0x00000000	0.0
47	0x00000000	0.0
48	0x00000000	0.0
49	0x00000000	0.0
50	0x00000000	0.0
51	0x00000000	0.0
52	0x00000000	0.0
53	0x00000000	0.0
54	0x00000000	0.0
55	0x00000000	0.0
56	0x00000000	0.0
57	0x00000000	0.0
58	0x00000000	0.0
59	0x00000000	0.0
60	0x00000000	0.0
61	0x00000000	0.0
62	0x00000000	0.0
63	0x00000000	0.0

base.mlp.fc_h.2.weight f4 [64]
0	0x3f800000	1.0
1	0x3f800000	1.0
2	0x3f800000	1.0
3	0x3f800000	1.0
4	0x3f800000	1.0
5	0x3f800000	1.0
6	0x3f800000	1.0
7	0x3f800000	1.0
8	0x3f800000	1.0
9	0x3f800000	1.0
10	0x3f800000	1.0
11	0x3f800000	1.0
12	0x3f800000	1.0
13	0x3f800000	1.0
14	0x3f800000	1.0
15	0x3f800000	1.0
16	0x3f800000	1.0
17	0x3f800000	1.0
18	0x3f800000	1.0
19	0x3f800000	1.0
20	0x3f800000	1.0
21	0x3f800000	1.0
22	0x3f800000	1.0
23	0x3f800000	1.0
24	0x3f800000	1.0
25	0x3f800000	1.0
26	0x3f800000	1.0
27	0x3f800000	1.0
28	0x3f800000	1.0
29	0x3f800000	1.0
30	0x3f800000	1.0
31	0x3f800000	1.0
32	0x3f800000	1.0
33	0x3f800000	1.0
34	0x3f800000	1.0
35	0x3f800000	1.0
36	0x3f800000	1.0
37	0x3f800000	1.0
38	0x3f800000	1.0
39	0x3f800000	1.0
40	0x3f800000	1.0
41	0x3f800000	1.0
42	0x3f800000	1.0
43	0x3f800000	1.0
44	0x3f800000	1.0
45	0x3f800000	1.0
46	0x3f800000	1.0
47	0x3f800000	1.0
48	0x3f800000	1.0
49	0x3f800000	1.0
50	0x3f800000	1.0
51	0x3f800000	1.0
52	0x3f800000	1.0
53	0x3f800000	1.0
54	0x3f800000	1.0
55	0x3f800000	1.0
56	0x3f800000	1.0
57	0x3f800000	1.0
58	0x3f800000	1.0
59	0x3f800000	1.0
60	0x3f800000	1.0
61	0x3f800000	1.0
62	0x3f800000	1.0
63	0x3f800000	1.0

base.mlp.fc_h.2.bias f4 [64]
0	0x00000000	0.0
1	0x00000000	0.0
2	0x00000000	0.0
3	0x00000000	0.0
4	0x00000000	0.0
5	0x00000000	0.0
6	0x00000000	0.0
7	0x00000000	0.0
8	0x00000000	0.0
9	0x00000000	0.0
10	0x00000000	0.0
11	0x00000000	0.0
12	0x00000000	0.0
13	0x00000000	0.0
14	0x00000000	0.0
15	0x00000000	0.0
16	0x00000000	0.0
17	0x00000000	0.0
18	0x00000000	0.0
19	0x00000000	0.0
20	0x00000000	0.0
21	0x00000000	0.0
22	0x00000000	0.0
23	0x00000000	0.0
24	0x00000000	0.0
25	0x00000000	0.0
26	0x00000000	0.0
27	0x00000000	0.0
28	0x00000000	0.0
29	0x00000000	0.0
30	0x00000000	0.0
31	0x00000000	0.0
32	0x00000000	0.0
33	0x00000000	0.0
34	0x00000000	0.0
35	0x00000000	0.0
36	0x00000000	0.0
37	0x00000000	0.0
38	0x00000000	0.0
39	0x00000000	0.0
40	0x00000000	0.0
41	0x00000000	0.0
42	0x00000000	0.0
43	0x00000000	0.0
44	0x00000000	0.0
45	0x00000000	0.0
46	0x00000000	0.0
47	0x00000000	0.0
48	0x00000000	0.0
49	0x00000000	0.0
50	0x00000000	0.0
51	0x00000000	0.0
52	0x00000000	0.0
53	0x00000000	0.0
54	0x00000000	0.0
55	0x00000000	0.0
56	0x00000000	0.0
57	0x00000000	0.0
58	0x00000000	0.0
59	0x00000000	0.0
60	0x00000000	0.0
61	0x00000000	0.0
62	0x00000000	0.0
63	0x00000000	0.0

base.mlp.fc2.0.0.weight f4 [64, 64]
0	0x3c8f581e	0.017498072
1	0x3ca093a8	0.019601658
2	0x3d750062	0.05981482
3	0x3ede2b6f	0.43392512
4	0x3da0eed2	0.07858051
5	0xbecd7f3e	-0.4013614
6	0x3dc69e4f	0.09698164
7	0x3da65a92	0.08122744
8	0x3d53ec98	0.051739305
9	0x3dc0d6d1	0.09415973
10	0x3e15f1df	0.14643048
11	0xbe6c6976	-0.23087105
12	0x3da18a2e	0.07887684
13	0x3e6ffc8f	0.23436187
14	0x3e8ab6ca	0.27092582
15	0xbeab7ce1	-0.33493713
16	0xbe62b221	-0.22138263
17	0x3c8fdc30	0.017561048
18	0xbda4f298	-0.080540836
19	0x3dc2d502	0.09513284
20	0xbd206616	-0.039159857
21	0x3e7a53a6	0.24445972
22	0xbdb38985	-0.08766464
23	0xbee9e15f	-0.45679757
24	0x3e66f4b8	0.2255429
25	0xbe95b49c	-0.29239357
26	0x3e197dcd	0.14989395
27	0xbe63b0b0	-0.2223537
28	0x3ec54457	0.38528702
29	0x3cd42378	0.025895819
30	0xbe34adf0	-0.17644477
31	0xbdaa3671	-0.08311165
32	0xbdca800d	-0.09887705
33	0xbdd0f9d4	-0.10203901
34	0x3e850bc1	0.2598553
35	0xbddd221d	-0.10797522
36	0x3d5d49ec	0.054025576
37	0x3cd5b32e	0.026086416
38	0x3debf7e5	0.115218915
39	0x3ad5d379	0.0016313634
40	0xbdad1746	-0.08451705
41	0xbd79afda	-0.06095872
42	0x3d40f012	0.04710395
43	0xbd08f01a	-0.033432104
44	0xbdf282fa	-0.11841388
45	0x3e3d85a7	0.18508016
46	0x3d076b8b	0.033061545
47	0x3db83486	0.08994393
48	0xbe398d57	-0.18120323
49	0xbde02d06	-0.109460875
50	0x3c73f95a	0.014890993
51	0x3bd19f8e	0.006397194
52	0x3e29a86e	0.16568157
53	0x3e9c56c3	0.30534944
54	0x3e855d23	0.2604762
55	0xbe413004	-0.18865973
56	0xbdb683a4	-0.08911827
57	0x3bdb0bfe	0.006684779
58	0xbd5ab904	-0.0533991
59	0xbde44257	-0.11145466
60	0xbc514d84	-0.012774829
61	0xbde8b16a	-0.11361964
62	0x3ee573de	0.44814962
63	0xbd0331c9	-0.0320299
64	0xbe337d77	-0.1752833
65	0x3d6f6fb7	0.05845615
66	0x3e8f13cb	0.27944788
67	0xbe7f2757	-0.2491735
68	0xbc84dd9b	-0.016218951
69	0xbea6b26b	-0.32557997
70	0xbe817b2b	-0.25289282
71	0xbe705312	-0.23469189
72	0x3ce24a83	0.02762342
73	0x3da4f38c	0.080542654
74	0x3e8bf973	0.27338752
75	0xbdc3392d	-0.0953239
76	0xbda57916	-0.08079736
77	0xbe9cfb0f	-0.30660293
78	0x3dc473ec	0.09592423
79	0x3dca6efc	0.0988445
80	0x3de5f833	0.11228981
81	0x3e8ab816	0.2709357
82	0x3e419a22	0.18906453
83	0xbb96c71b	-0.004601372
84	0x3e9ee76f	0.31035945
85	0x3c1d1903	0.009588483
86	0xbd532820	-0.051551938
87	0xbdd057f2	-0.10173024
88	0xbe9c0a33	-0.3047653
89	0xbdfa4315	-0.12219826
90	0x3d3f29b5	0.046670634
91	0x3ccd4135	0.025055507
92	0x3d62f76e	0.05541175
93	0x3aad2d44	0.0013212343
94	0xbe13ef56	-0.14446768
95	0xbe9e5377	-0.30923054
96	0x3d9081c3	0.07056
97	0x3e1be098	0.15222394
98	0x3dc662e7	0.09686833
99	0x3e6f1898	0.23349226
100	0xbe37b0f9	-0.17938603
101	0xbd0ff8db	-0.035149436
102	0xbdf2b074	-0.11850062
103	0x3e650005	0.22363289
104	0xbd2e28f3	-0.04251952
105	0xbe8b6003	-0.2722169
106	0x3bbc6ccd	0.0057502748
107	0xbc2de40c	-0.010613453
108	0xbe8b1013	-0.271607
109	0x3d612b29	0.0549728
110	0x3d9ead4b	0.07747897
111	0x3ea2cefb	0.3179854
112	0x3e0cbf84	0.13744932
113	0xbe350200	-0.17676544
114	0x3ce459aa	0.027874786
115	0xbd0c8ce4	-0.03431405
116	0xbab2d3ab	-0.0013643404
117	0xbe1068f1	-0.14102532
118	0x3e9ca283	0.30592737
119	0x3df9f65b	0.12205192
120	0xbe139dcd	-0.14415665
121	0x3d18ee03	0.03733636
122	0x3c9f02f4	0.019410588
123	0xbe4eebee	-0.20207188
124	0xbea177a8	-0.31536603
125	0x3ddc6753	0.10761895
126	0xbe3779dc	-0.1791758
127	0xbc51ecc0	-0.012812793
128	0xbd4c48b9	-0.04987404
129	0x3c484421	0.012223274
130	0xbd48af0a	-0.048995055
131	0x3e091e85	0.13390549
132	0x3dfe0027	0.12402373
133	0xbd374c39	-0.044750426
134	0xbead3b39	-0.33834246
135	0xbe74bda7	-0.23900472
136	0x3d67279c	0.05643426
137	0x3f067956	0.52528894
138	0xbc22cf59	-0.009937131
139	0x3c812ad6	0.015767496
140	0xbe431b02	-0.19053271
141	0xbe4df6da	-0.20113698
142	0xbde18b57	-0.11012905
143	0x3e72c539	0.23708047
144	0xbd877ab5	-0.066152014
145	0x3e438616	0.19094118
146	0xbdeee2db	-0.11664363
147	0xbe8f7459	-0.28018454
148	0x3dacc28a	0.08435543
149	0x3e000b9a	0.12504426
150	0xbe01fc1f	-0.12693833
151	0x3e5747bd	0.2102346
152	0x3e4ba95f	0.19888829
153	0xbc474de2	-0.012164565
154	0x3e0c03d3	0.13673334
155	0xbe7c8858	-0.24661386
156	0x3e30c559	0.17262782
157	0x3e7518d5	0.23935254
158	0x3dd9b33c	0.10629889
159	0xbe2c9cb1	-0.16856648
160	0xbe3885cb	-0.18019788
161	0xbe8aff58	-0.27147937
162	0xbcfe02f4	-0.031007268
163	0xbe990c12	-0.2989202
164	0x3e33a65d	0.17543931
165	0x3e31a75f	0.17349003
166	0xbd10353a	-0.03520701
167	0xbd9b8c2c	-0.07595095
168	0xbe6d5bcf	-0.23179553
169	0x3e44df8b	0.192259
170	0x3dde54c1	0.10856009
171	0x3e42e09a	0.19030991
172	0x3e414d4e	0.18877146
173	0xbe5ca09f	-0.21545647
174	0x3c2a7018	0.010402702
175	0x3ced9c8c	0.029005311
176	0xbe890e98	-0.26768947
177	0x3dba5dba	0.09099908
178	0xbea3fda5	-0.32029453
179	0xbe4c62d8	-0.19959581
180	0xbe58d762	-0.21175912
181	0xbe7c2db3	-0.24626808
182	0xbddc1132	-0.10745467
183	0xbe9d33de	-0.30703634
184	0x3d2bb91f	0.041924592
185	0x3e6ed946	0.2332507
186	0x3d8b316b	0.06796535
187	0xbcb1a86f	-0.02168676
188	0xbe96f612	-0.29484612
189	0xbd3352de	-0.0437802
190	0xbaa1e1fd	-0.0012350675
191	0xbc35c300	-0.011093855
192	0x3d1cdd96	0.03829726
193	0x3ec879de	0.39155477
194	0x3cc4b41a	0.02401166
195	0x3e8f4c91	0.27988103
196	0xbbf740ad	-0.0075455518
197	0x3e7d5c0e	0.24742147
198	0xbeb8a7ad	-0.36065426
199	0xbdf3e7ee	-0.119094715
200	0x3cf23d17	0.029570146
201	0xbe1afb47	-0.15134917
202	0x3ccb37fb	0.024806967
203	0xbea64717	-0.32476112
204	0x3ce66388	0.028123632
205	0x3e9833e6	0.29727095
206	0xbdaf347f	-0.08554935
207	0x3e77a67f	0.24184607
208	0x3e83447a	0.2563818
209	0x3e475979	0.19467725
210	0x3e00a072	0.12561205
211	0x3e92776d	0.2860674
212	0x3e234e16	0.15947756
213	0xbecc1b02	-0.39864355
214	0xbc174bed	-0.009234411
215	0xbe3151e8	-0.17316401
216	0xbd2fc9ae	-0.042916946
217	0xbe6ebd82	-0.23314479
218	0x3d3dab7c	0.04630612
219	0xb83eab0f	-4.545884e-05
220	0xbdac8901	-0.08424569
221	0x3cedba6c	0.029019557
222	0x3e0f9ac4	0.14023882
223	0x3db6203e	0.088928685
224	0xbd5bef63	-0.053695094
225	0xbe02324e	-0.12714502
226	0xbd24663a	-0.040136553
227	0xbed13986	-0.408642
228	0xbe008b50	-0.12553144
229	0xb9e6fa8c	-0.0004405569
230	0xbd9f3dd2	-0.07775463
231	0xbe170b9e	-0.14750525
232	0x3c34cc2f	0.011035009
233	0x3e4e68be	0.20157143
234	0x3df04ddd	0.11733601
235	0x3ed4aa8c	0.41536367
236	0x3e0e2d01	0.13884355
237	0x3dddd7aa	0.1083215
238	0xbdf079d7	-0.11741989
239	0xbe2bc9b6	-0.16776165
240	0xbd80c939	-0.0628838
241	0xbea96155	-0.3308207
242	0x3d7352f3	0.05940528
243	0x3da04d50	0.07827246
244	0xbe1345b1	-0.14382054
245	0x3e73d43b	0.23811428
246	0x3e056e23	0.13030295
247	0x3de3a878	0.11116117
248	0xbe13e81f	-0.14444016
249	0xbe32f2a4	-0.17475373
250	0x3db2d073	0.08731165
251	0xbe7b6a67	-0.24552308
252	0x3c27252c	0.010201734
253	0x3c178af6	0.009249439
254	0xbe2f1a2c	-0.17099828
255	0x3db741d6	0.08948104

base.mlp.fc2.0.0.bias f4 [64]
0	0x3ca13b13	0.01968149
1	0xbc0da75d	-0.00864586
2	0x3c8bd48d	0.017069126
3	0x3ca876f6	0.020564537
4	0x3cb0fdd4	0.02160541
5	0xbca89d59	-0.020582842
6	0xbc6f9b6a	-0.014624456
7	0x3c22783b	0.0099163605
8	0xbc76c34b	-0.01506121
9	0xbc5d091d	-0.013490942
10	0xbc9e33f8	-0.01931189
11	0xbc336e7e	-0.010951636
12	0xbc9d860c	-0.019228958
13	0x3ca8fe82	0.020629171
14	0x3c2d060d	0.010560525
15	0xbc5cee66	-0.013484573
16	0x3c800e9f	0.015631972
17	0xbc967e85	-0.018370876
18	0xbc1d099e	-0.009584812
19	0x3c98ec82	0.018667463
20	0x3ca9d220	0.020730078
21	0xbc028782	-0.007966878
22	0xbbed8cd9	-0.0072494564
23	0x3c56c9f9	0.0131096775
24	0xbc3215cd	-0.0108694555
25	0x3c9a2c92	0.01882008
26	0x3c9faabd	0.019490594
27	0xbc03af18	-0.008037351
28	0x3c9bb5db	0.019007614
29	0x3c677f0e	0.014129413
30	0x3c7ff54c	0.015622448
31	0xbca0ad1a	-0.019613791
32	0x3c7b2188	0.015327819
33	0x3c4dfa5c	0.012571897
34	0x3cade621	0.021227898
35	0xbca0ac96	-0.019613545
36	0x3c277fea	0.010223368
37	0x3b7b56d8	0.0038351323
38	0x3cad19d8	0.021130487
39	0xbc82fa0e	-0.015988376
40	0xbca29517	-0.019846482
41	0x3c0fefe4	0.008785222
42	0xbc15a64a	-0.009133885
43	0x3c88acf6	0.016684037
44	0x3c32bce6	0.010909295
45	0xbc9c3295	-0.019067088
46	0x3cad2ee0	0.021140516
47	0x3ca29ece	0.019851115
48	0x3c9f16fe	0.019420143
49	0x3caf9f97	0.021438403
50	0xbc146b02	-0.009058716
51	0x3cac24e3	0.021013683
52	0xbc9c9801	-0.01911545
53	0x3c98f00d	0.018669153
54	0xbc269f5a	-0.010169828
55	0xbc2d429e	-0.010574965
56	0xbc22b90f	-0.009931817
57	0x3ca45716	0.020061057
58	0x3ca5f693	0.020259177
59	0x3ca150da	0.019691873
60	0x3c2c07f0	0.010499939
61	0x3c9b245e	0.01893824
62	0x3cab6335	0.020921329
63	0x3ca02e57	0.019553347

base.mlp.fc2.0.2.weight f4 [64]
0	0x3f7c19cb	0.98476857
1	0x3f7df1dc	0.99197173
2	0x3f7fa388	0.99858904
3	0x3f81194c	1.0085845
4	0x3f823b75	1.0174395
5	0x3f7c88b4	0.9864609
6	0x3f7b886e	0.9825505
7	0x3f7b3b79	0.98137623
8	0x3f7dd072	0.9914619
9	0x3f7b4fc5	0.98168594
10	0x3f80f38b	1.0074323
11	0x3f826461	1.0186883
12	0x3f7c1fbf	0.9848594
13	0x3f7dc9e4	0.99136186
14	0x3f7d549a	0.98957217
15	0x3f80c166	1.005902
16	0x3f7bbbb6	0.983333
17	0x3f7d5586	0.98958623
18	0x3f824b5f	1.0179251
19	0x3f80318d	1.0015122
20	0x3f7dbe8e	0.9911889
21	0x3f7b7d99	0.9823852
22	0x3f7d7761	0.9901028
23	0x3f7ccc54	0.9874928
24	0x3f7e7218	0.99392843
25	0x3f7daf1e	0.9909533
26	0x3f7c0934	0.9845154
27	0x3f80b8b2	1.0056365
28	0x3f800a31	1.000311
29	0x3f7ae097	0.97998947
30	0x3f7bef73	0.98412246
31	0x3f7ca788	0.9869313
32	0x3f80d5ec	1.0065284
33	0x3f7fccf0	0.99922085
34	0x3f824294	1.0176568
35	0x3f7d6ab1	0.98990923
36	0x3f7e4451	0.9932299
37	0x3f7d455b	0.98933953
38	0x3f7e30ae	0.9929303
39	0x3f8069ca	1.0032284
40	0x3f80362e	1.0016534
41	0x3f7b42b5	0.9814866
42	0x3f80c80a	1.0061047
43	0x3f7d4982	0.9894029
44	0x3f7bc672	0.9834968
45	0x3f7fd895	0.9993985
46	0x3f814dc9	1.0101863
47	0x3f7c9d89	0.9867788
48	0x3f80bcec	1.0057654
49	0x3f8079a8	1.0037127
50	0x3f81ea75	1.0149676
51	0x3f82f627	1.023137
52	0x3f809b62	1.0047419
53	0x3f7e5960	0.99355125
54	0x3f7e2272	0.9927131
55	0x3f7fa506	0.9986118
56	0x3f7de517	0.9917769
57	0x3f7e4635	0.9932588
58	0x3f80e83f	1.0070876
59	0x3f81afc5	1.0131766
60	0x3f7c170f	0.98472685
61	0x3f8007dd	1.00024
62	0x3f804140	1.0019913
63	0x3f807da1	1.0038339

base.mlp.fc2.0.2.bias f4 [64]
0	0x3c4bda5f	0.0124422
1	0xbc578b00	-0.013155699
2	0x3c5a865d	0.013337699
3	0x3c605b24	0.013693605
4	0x3c7f1152	0.015568094
5	0xbc59506b	-0.013263802
6	0xbc57e127	-0.013176239
7	0x3c57043e	0.01312357
8	0xbc586d23	-0.013209614
9	0xbc57e2fb	-0.013176675
10	0xbc5cfb3b	-0.013487632
11	0xbc70e6be	-0.014703451
12	0xbc590c51	-0.013247565
13	0x3c8d4d79	0.017248856
14	0x3c5b01d1	0.013367132
15	0xbc61b25a	-0.0137754325
16	0x3c514800	0.012773514
17	0xbc59d217	-0.013294718
18	0xbc602947	-0.013681716
19	0x3c5b92ea	0.013401726
20	0x3c54787c	0.012968179
21	0xbc4e1795	-0.012578865
22	0xbc541150	-0.012943581
23	0x3c5882f1	0.013214813
24	0xbc5767cf	-0.0131473085
25	0x3c566b55	0.013087113
26	0x3c4b1511	0.012395159
27	0xbc5d01c8	-0.013489194
28	0x3ca5521d	0.020180756
29	0x3c5786ce	0.013154699
30	0x3c58c354	0.013230164
31	0xbc59c7ce	-0.013292266
32	0x3c5d4ea8	0.013507523
33	0x3c5cbbb4	0.013472486
34	0x3c84799b	0.016171267
35	0xbc564bb2	-0.013079571
36	0x3c5add95	0.013358493
37	0xbc0c3c9f	-0.008559375
38	0x3c56516d	0.013080937
39	0xbc5b4350	-0.013382748
40	0xbc5c22d1	-0.013436035
41	0x3c576a9a	0.013147974
42	0xbc5c8fe6	-0.013462042
43	0x3c57a806	0.0131626185
44	0x3c56c463	0.013108346
45	0xbc5d2724	-0.013498101
46	0x3cac0797	0.020999713
47	0x3c51ad13	0.012797612
48	0x3ca71080	0.02039361
49	0x3c5f4502	0.013627293
50	0xbc60ce2f	-0.013721033
51	0x3c87e0e5	0.01658673
52	0xbc5e1e24	-0.013556991
53	0x3c582296	0.01319184
54	0xbc55e4b5	-0.013055016
55	0xbc59723b	-0.013271864
56	0xbc58f419	-0.013241791
57	0x3c5a25d0	0.013314679
58	0x3ca4488e	0.020054128
59	0x3c8d8b59	0.01727836
60	0x3c5950e8	0.013263918
61	0x3c5cb0c9	0.013469883
62	0x3c5b9870	0.013403043
63	0x3c5f888e	0.013643397

v_out.weight f4 [1, 64]
0	0x3cb7d41d	0.02244001
1	0xbd14cb3f	-0.036326643
2	0x3dde7959	0.10862989
3	0x3dcba20c	0.09943017
4	0x3cb672f6	0.022271615
5	0xbe6b366f	-0.22969984
6	0xbe253ab6	-0.16135678
7	0x3e013982	0.12619594
8	0xbe1274c0	-0.14302349
9	0xbe241749	-0.16024508
10	0xbe81c1f1	-0.25343278
11	0xbd1eb021	-0.03874219
12	0xbe6bf0f3	-0.23041134
13	0x3b5dde90	0.0033854581
14	0x3e223f61	0.1584449
15	0xbd88bacd	-0.066762544
16	0x3d586d73	0.052838754
17	0xbe62820c	-0.22119921
18	0xbdd36c23	-0.1032336
19	0x3d6efeda	0.058348514
20	0x3d892898	0.06697196
21	0xbd11d840	-0.035606623
22	0xbd2e4e78	-0.042555302
23	0x3e25d3c7	0.16194068
24	0xbdc60459	-0.09668798
25	0x3dade66d	0.08491216
26	0x3cc955cf	0.02457705
27	0xbd1ff357	-0.039050426
28	0x3c0f2f30	0.008739278
29	0x3e220b3e	0.15824601
30	0x3e2cc88f	0.16873382
31	0xbe63f9d2	-0.22263268
32	0x3d8ece41	0.069729336
33	0x3e057785	0.13033874
34	0x3cd275aa	0.025690872
35	0xbd8a9cba	-0.067681745
36	0x3e280468	0.16407931
37	0x3aad998f	0.0013244617
38	0x3cc9d4ab	0.02463754
39	0xbdd30773	-0.10304155
40	0xbe8bc1d1	-0.27296308
41	0x3e19f277	0.15033899
42	0xbdc6e0d2	-0.0971085
43	0x3dbc716b	0.0920132
44	0x3dde57b1	0.108565696
45	0xbde4abaa	-0.11165555
46	0x3c72d3eb	0.014821033
47	0x3d3e4e87	0.04646161
48	0x3c3623b7	0.0111169135
49	0x3db9046b	0.09034046
50	0xbdbf607b	-0.09344574
51	0x3cac0757	0.020999594
52	0xbdef3338	-0.11679691
53	0x3d79f153	0.06102116
54	0xbd26ea3a	-0.04075072
55	0xbe0142c0	-0.1262312
56	0xbd95660c	-0.072948545
57	0x3df152a4	0.117833406
58	0x3c652c95	0.01398768
59	0x3c6baf52	0.014385061
60	0x3e8ab33f	0.2708988
61	0x3e102541	0.14076711
62	0x3d72543f	0.059162375
63	0x3dc33662	0.09531857
