results/MyEnv/MyEnv/mappo/check/run20/models/critic_agent1.pt (torch, 89374 bytes, 15 tensors)

base.feature_norm.weight f4 [182]
000000 aa 4c 80 3f 32 4f 7f 3f 11 f4 7f 3f cd 6e 7f 3f
       1.0023396 0.9973022 0.9998179 0.99778444
000010 d3 32 80 3f 3f 04 80 3f 4d 13 80 3f da 04 80 3f
       1.001551 1.0001296 1.000589 1.000148
000020 30 f3 7f 3f f1 e4 7f 3f b1 11 80 3f 8a d8 7f 3f
       0.9998045 0.9995871 1.0005399 0.9993979
000030 71 22 80 3f bc 01 80 3f fd 27 80 3f 1b 07 80 3f
       1.0010511 1.0000529 1.0012203 1.0002168
000040 df 02 80 3f 18 09 80 3f 41 f3 7f 3f fa 11 80 3f
       1.0000876 1.0002775 0.9998055 1.0005486
000050 69 be 7f 3f 7f 80 80 3f d9 ad 7e 3f cf 02 80 3f
       0.9989992 1.0039214 0.9948402 1.0000857
000060 0b cf 7f 3f 29 98 7f 3f c9 fa 7f 3f 12 b0 7f 3f
       0.999253 0.9984155 0.9999204 0.99878037
000070 d8 3e 80 3f 75 16 80 3f 6e bb 7f 3f 03 ea 7f 3f
       1.0019178 1.0006853 0.9989537 0.9996645
000080 b8 00 80 3f ad 43 80 3f 53 0d 80 3f 8d 3a 80 3f
       1.0000219 1.0020653 1.0004066 1.0017868
000090 af 16 80 3f c4 01 80 3f 08 e2 7f 3f fa e3 7f 3f
       1.0006922 1.0000539 0.9995427 0.9995724
0000a0 10 04 80 3f a9 be 7f 3f 8e af 80 3f ef ea 7f 3f
       1.000124 0.999003 1.0053575 0.99967855
0000b0 7f 83 7f 3f 1c ed 7f 3f 70 b2 7f 3f 1e 02 80 3f
       0.9981002 0.99971175 0.9988165 1.0000646
0000c0 a1 f6 7f 3f 69 22 80 3f a2 e2 7e 3f 71 d0 7f 3f
       0.999857 1.0010501 0.99564564 0.9992743
0000d0 8d 06 80 3f 79 5e 7f 3f 87 ce 7f 3f ad 00 80 3f
       1.0001999 0.9975353 0.9992451 1.0000206
0000e0 11 00 80 3f a5 bc 7f 3f 0a 08 80 3f 77 e3 7f 3f
       1.000002 0.99897224 1.0002453 0.9995646
0000f0 97 f5 7f 3f 70 06 80 3f cd 2f 80 3f b1 01 80 3f
       0.99984115 1.0001965 1.0014588 1.0000516
000100 e5 ef 7f 3f cf e8 7f 3f f1 15 80 3f f6 ee 7f 3f
       0.99975425 0.9996461 1.0006696 0.99974
000110 79 03 80 3f 3e de 7f 3f 4a 1e 80 3f 41 0d 80 3f
       1.000106 0.9994849 1.0009243 1.0004045
000120 bb 00 80 3f b7 13 80 3f 30 5c 7f 3f b4 2b 80 3f
       1.0000223 1.0006016 0.9975004 1.0013337
000130 4f ef 7f 3f 00 01 80 3f b0 7d 7f 3f b8 0d 80 3f
       0.9997453 1.0000305 0.9980116 1.0004187
000140 11 e7 7f 3f 06 f9 7f 3f 36 d1 7f 3f f7 07 80 3f
       0.99961954 0.99989355 0.99928606 1.0002431
000150 a0 06 80 3f 67 88 80 3f cf 4f 80 3f c5 ec 7f 3f
       1.0002022 1.0041627 1.0024356 0.99970657
000160 ab f6 7f 3f 12 fa 7f 3f f4 73 7f 3f 74 06 80 3f
       0.9998576 0.9999095 0.99786305 1.0001969
000170 16 0f 80 3f 55 fc 7f 3f 6a ee 7f 3f 3c fa 7f 3f
       1.0004604 0.99994403 0.99973166 0.999912
000180 b9 f4 7f 3f 72 1e 80 3f 66 a8 80 3f bc f5 7f 3f
       0.9998279 1.0009291 1.0051391 0.99984336
000190 e3 5b 80 3f af 29 7f 3f bc 05 80 3f 6c 0f 80 3f
       1.0028042 0.9967298 1.000175 1.0004706
0001a0 0f 13 80 3f 98 23 80 3f 69 8e 7f 3f 32 96 80 3f
       1.0005816 1.0010862 0.99826676 1.0045836
0001b0 ae 18 80 3f cf e1 7f 3f 32 07 80 3f 1f e9 7f 3f
       1.0007532 0.9995393 1.0002196 0.9996509
0001c0 9f 1d 80 3f 85 ec 7f 3f 0f f5 7f 3f f1 3c 80 3f
       1.000904 0.99970275 0.99983305 1.0018598
0001d0 f8 da 7f 3f c0 20 80 3f 6e 06 7f 3f f6 b6 7f 3f
       0.99943495 1.0009995 0.99619186 0.9988855
0001e0 5f 09 80 3f 8f f9 7f 3f aa 10 80 3f 9e e4 7f 3f
       1.000286 0.9999017 1.0005085 0.9995822
0001f0 44 19 80 3f 8c e1 7f 3f 60 e2 7f 3f 6c 0e 80 3f
       1.000771 0.9995353 0.99954796 1.0004401
000200 b7 ff 7f 3f 8d 02 80 3f 84 02 80 3f 3f ce 7f 3f
       0.99999565 1.0000778 1.0000768 0.9992408
000210 6d de 7f 3f 4c fa 7f 3f d2 88 7f 3f 38 e5 7f 3f
       0.9994877 0.999913 0.99818146 0.99959135
000220 53 47 80 3f 53 03 80 3f 63 91 7f 3f 53 95 7f 3f
       1.0021766 1.0001014 0.9983122 0.99837226
000230 0b 02 80 3f 0f eb 7f 3f 29 df 7f 3f 3b 16 80 3f
       1.0000623 0.99968046 0.9994989 1.0006784
000240 d9 ba 7f 3f 92 e2 7f 3f 02 ce 7f 3f 8a 11 80 3f
       0.9989448 0.99955094 0.9992372 1.0005352
000250 5f fc 7e 3f 42 ca 7e 3f e3 05 80 3f b3 fe 7f 3f
       0.9960384 0.9952737 1.0001796 0.99998015
000260 11 1d 80 3f 64 1e 80 3f a4 d5 7f 3f 43 db 7f 3f
       1.000887 1.0009274 0.99935365 0.9994394
000270 04 1a 7f 3f 6c 16 80 3f a5 f0 7f 3f 08 dc 7f 3f
       0.9964907 1.0006843 0.9997657 0.99945116
000280 26 29 80 3f dc f6 7e 3f 19 53 80 3f fe f2 7f 3f
       1.0012558 0.9959543 1.0025359 0.9998015
000290 ee 0b 80 3f c3 10 80 3f 2a e3 7f 3f af e4 7f 3f
       1.0003641 1.0005115 0.99956 0.9995832
0002a0 ab 0f 80 3f 23 00 80 3f 18 04 80 3f 36 0a 80 3f
       1.0004781 1.0000042 1.0001249 1.0003116
0002b0 57 e7 7f 3f 25 f5 7f 3f a0 ff 7f 3f 61 ed 7f 3f
       0.9996237 0.99983436 0.9999943 0.99971586
0002c0 98 b4 7f 3f ff 16 80 3f a1 fa 7f 3f ed ff 7f 3f
       0.9988494 1.0007018 0.99991804 0.99999887
0002d0 62 05 80 3f a0 69 7f 3f
       1.0001643 0.99770546

base.feature_norm.bias f4 [182]
000000 83 80 53 b9 8a ce 31 3b 57 98 25 39 3a 14 17 3b
       -0.00020170402 0.0027131164 0.00015792377 0.0023052827
000010 7c 03 35 bb cb f8 8f b8 f9 72 0b ba 49 38 39 b9
       -0.0027620485 -6.865113e-05 -0.00053195615 -0.00017663943
000020 4c 18 19 39 b8 78 c8 3a 1b 64 27 ba 70 3e 0e 3a
       0.00014600268 0.0015294766 -0.00063854613 0.0005426174
000030 bd 5a af ba 50 97 5e b6 7f 1b 95 3a c9 45 19 b9
       -0.0013378483 -3.3168653e-06 0.0011375992 -0.00014617214
000040 c5 83 00 b9 cf 85 9a b9 ad a3 68 39 43 0b 19 3a
       -0.00012256119 -0.00029472864 0.00022186218 0.0005838165
000050 72 30 03 3a cb c2 e6 37 2f 49 68 b9 56 0e 27 39
       0.00050044723 2.7508844e-05 -0.00022152507 0.00015931702
000060 7f d1 37 ba 17 f1 d6 ba 09 21 0d b9 47 52 9c ba
       -0.00070121133 -0.0016398755 -0.00013459114 -0.0011926376
000070 00 70 05 3b 20 bb 22 3a a7 eb 82 ba d6 75 d5 b9
       0.0020360947 0.00062076934 -0.0009988443 -0.0004071432
000080 6e 9f 8b 38 a9 9e 0d 3b bf 2e ab 39 e1 5b e5 3a
       6.6577326e-05 0.0021609461 0.0003265049 0.0017498696
000090 4e 01 29 3a 4c 21 fc b6 c6 ca cf b9 b2 d4 b7 b9
       0.0006447033 -7.5140615e-06 -0.00039633195 -0.0003506295
0000a0 1d d6 b1 38 a4 c4 79 ba 9d b6 b0 3b a5 36 9d b9
       8.4798994e-05 -0.0009527898 0.005392863 -0.00029986087
0000b0 c5 15 f8 ba 0a 4d 82 b9 1a 27 92 ba a6 42 e1 38
       -0.0018927386 -0.0002485293 -0.0011150569 0.0001074125
0000c0 60 0c c4 b8 8c 25 83 3a 45 18 8e bb 1b 07 30 ba
       -9.348313e-05 0.0010005697 -0.0043363892 -0.0006714926
0000d0 81 ce 83 39 9a d9 2b bb 42 28 33 ba 2b 5e 13 38
       0.00025140124 -0.002622223 -0.0006834307 3.5135232e-05
0000e0 3b 9c ad b6 57 ac 7d ba 4f ae 92 39 29 04 d3 b9
       -5.1739894e-06 -0.0009676865 0.0002797716 -0.00040248156
0000f0 b7 74 20 b9 39 59 48 39 c1 ea b4 3a 13 ce 46 36
       -0.00015302269 0.00019106724 0.0013802872 2.962425e-06
000100 e7 44 54 b9 fc 71 ae b9 33 e9 16 3a 68 ad a6 b9
       -0.00020243564 -0.0003327279 0.0005756795 -0.00031791185
000110 9c 35 8e 38 cb 2f fe b9 10 b4 6b 3a 8d d2 bb 39
       6.781073e-05 -0.00048482264 0.000899137 0.00035824292
000120 6f 09 a0 b6 5e 9e 26 3a bf e6 20 bb b6 67 a5 3a
       -4.76947e-06 0.0006355996 -0.0024551598 0.0012619409
000130 f6 b8 94 b9 97 db 6e 38 84 d1 fe ba 64 3c 0c 3a
       -0.00028366566 5.694813e-05 -0.0019441103 0.0005349575
000140 f1 d8 ed b9 69 e0 06 b9 f6 bb 3b ba 93 1f 46 39
       -0.00045365797 -0.00012862835 -0.0007161492 0.00018894514
000150 e2 4f 40 39 5a 8b 85 3b 70 de 1a 3b 76 90 7d b9
       0.00018340306 0.00407545 0.0023631118 -0.00024181776
000160 ee a1 24 b9 e8 b6 78 b8 c6 77 08 bb 3a 4d 19 ba
       -0.00015700582 -5.9298152e-05 -0.0020823344 -0.00058479945
000170 ac ba d2 b9 10 34 33 37 67 fc c3 39 7b da 07 39
       -0.00040193403 1.0681353e-05 0.00037381353 0.00012955994
000180 fc 32 27 37 fd 7d 11 ba b9 4a aa bb 33 25 16 39
       9.965846e-06 -0.0005550085 -0.005196896 0.00014318973
000190 19 3a ff b9 71 66 57 3b d3 5e 05 b9 73 fe 0c ba
       -0.00048680676 0.0032867456 -0.00012719193 -0.0005378492
0001a0 20 3a 1d ba c6 43 a5 3a 2f 7d f2 3a cb 17 96 bb
       -0.0005997736 0.0012608699 0.0018500442 -0.004580473
0001b0 33 72 52 ba 5c be fe 39 0e 78 7a 39 76 6b a4 b9
       -0.0008027881 0.00048588484 0.00023886582 -0.00031360582
0001c0 64 c2 63 3a e9 2e d4 b9 db e2 49 b9 09 12 e4 3a
       0.0008688329 -0.00040470742 -0.00019253364 0.0017400394
0001d0 0c 01 1e ba 6e c3 76 3a 17 bb 78 bb ba 37 8a ba
       -0.00060273777 0.00094132766 -0.003795331 -0.0010545172
0001e0 7d 8e 6e 39 52 c3 07 b9 6a 3c f0 39 ad fc c2 b9
       0.0002275053 -0.00012947366 0.0004582138 -0.00037190822
0001f0 53 d2 44 3a 6b 43 fe b9 84 8e d7 b9 7e df dc 39
       0.00075081474 -0.00048496886 -0.00041114178 0.00042128185
000200 ba 72 43 b7 04 da c3 37 cf 14 32 38 3c 3b 5a ba
       -1.1649618e-05 2.3347333e-05 4.2457887e-05 -0.00083248666
000210 71 bf f4 b9 39 8d 18 38 0e 13 de ba 73 29 bd b9
       -0.00046681942 3.6371148e-05 -0.0016942935 -0.0003607977
000220 1c 95 0f 3b 92 ca 2c 39 e6 cd df ba 68 7b e1 ba
       0.0021908944 0.00016478662 -0.0017074912 -0.0017202916
000230 12 38 d7 37 2b 78 bd b9 5e 53 ed b9 f2 48 2b 3a
       2.5656107e-05 -0.0003613842 -0.00045266276 0.0006534002
000240 3b 81 83 ba b6 51 d3 b9 be 69 3c ba 96 5c ed b9
       -0.001003302 -0.00040305936 -0.00071873877 -0.00045273144
000250 42 6b 31 bb db ce a4 b9 35 77 1e 39 58 49 c0 36
       -0.0027071987 -0.00031434637 0.00015112462 5.7305842e-06
000260 74 db 66 3a 7f 4f 8b 3a 6d f0 1d ba 67 73 04 ba
       0.0008806505 0.001062855 -0.0006024901 -0.00050525967
000270 56 2b 65 bb a9 80 2d 3a 10 16 65 b9 ac c9 14 ba
       -0.0034968457 0.0006618598 -0.00021847361 -0.00056758034
000280 2e af 9c 3a b3 2d 83 bb ef 8d 23 3b 3a c0 28 b9
       0.0011954063 -0.0040032505 0.0024956425 -0.00016093338
000290 d9 a3 fb 39 f9 77 0a 3a 80 02 09 ba a1 f6 c9 b9
       0.00047996527 0.00052821595 -0.0005226508 -0.0003852146
0002a0 ae 5a c8 39 3c 48 b0 b7 80 70 6e 38 d2 3e 78 39
       0.00038214534 -2.1014472e-05 5.6848396e-05 0.00023674525
0002b0 ef 04 f3 b9 74 5b 03 b9 1e 3d 87 37 fb 41 61 b9
       -0.00046352248 -0.00012527202 1.6121714e-05 -0.00021482252
0002c0 c5 1b 8c ba c2 7f 2d 3a f1 2c e9 b8 3c 29 64 b7
       -0.0010689428 0.00066184637 -0.00011118677 -1.359946e-05
0002d0 56 47 fc 38 38 c9 13 bb
       0.00012029584 -0.0022550356

base.mlp.fc1.0.weight f4 [64, 182]
000000 7c ba 12 be ae d7 ad bd 7b 14 85 bd da 9b 92 3d
       -0.1432895 -0.08488403 -0.06498047 0.071586326
000010 73 f5 b1 bc d9 55 f7 bd 0c c6 7f 3e c1 2e 23 3e
       -0.021723485 -0.12076921 0.24977893 0.15935804
000020 e2 d4 e4 bc 58 cc 3e bd 46 b8 13 3e 2f 22 86 3d
       -0.027933542 -0.046581596 0.14425763 0.06549489
000030 f5 23 43 bd f9 7d 6b bd fe 05 87 3e cf 85 a6 3d
       -0.047641713 -0.057493184 0.2637176 0.08130991
000040 a3 b4 dc 3d 8a f8 24 be c8 c8 29 3d ac e7 ab 3d
       0.10776641 -0.16110435 0.041451246 0.08393797
000050 37 b1 f7 bd fa 47 3a 3d 5c f3 c4 3d e2 f7 02 3d
       -0.12094348 0.0454788 0.096167296 0.03197468
000060 0b 61 48 3d 8f bd fd 3d 78 31 75 be 95 9a a3 3d
       0.048920672 0.12389671 -0.23944652 0.079884686
000070 98 08 7e 3b e6 ca 2a 3e 62 1a 57 bd e6 69 4a 3e
       0.0038762446 0.16678962 -0.052515395 0.1976696
000080 9d 3b 8b 3d a3 8a 07 3e 4f 08 d0 3b e1 60 1e 3c
       0.0679848 0.1323648 0.0063486467 0.009666652
000090 c6 6a 15 bd 0c a7 ed 3d 1a d1 a0 3c 48 1a 3b 3e
       -0.03647878 0.11604127 0.019630957 0.18271744
0000a0 49 6b c1 bd e8 72 98 bc 72 2a eb bd 27 3b 16 3d
       -0.09444291 -0.01860948 -0.11482705 0.036677506
0000b0 18 dd cc bd 27 6b c3 bd e5 58 3d 3d 1e 4c da 3c
       -0.10003108 -0.09541922 0.046227355 0.026647624
0000c0 d0 98 c5 3d e5 33 1d bc 65 83 46 3e e8 0e 4e 3e
       0.09648287 -0.009594892 0.1938606 0.20122874
0000d0 21 51 b5 bd c4 e8 f9 bd c6 ba d5 bd d5 f9 3e 3e
       -0.08853365 -0.122026 -0.10436015 0.18649991
0000e0 17 c4 e0 bb e2 09 39 be 6a 14 39 be c8 59 a5 3d
       -0.006859313 -0.18070176 -0.18074194 0.08073765
0000f0 6f c8 85 3d 3d 0f 43 3d 4f 59 53 bd d5 cc 46 3d
       0.0653237 0.047621954 -0.051598843 0.048535187
000100 ed 43 76 bd 5f 79 5b 3c 89 43 85 bd 5d 80 e6 b9
       -0.060123373 0.013395636 -0.06507022 -0.00043964657
000110 55 f0 cc bd 66 63 e5 bd 09 4e a5 b9 ee 35 ba bd
       -0.10006777 -0.11200599 -0.00031529393 -0.090923175
000120 44 38 39 bd fb a6 9d 3c 61 35 9e 3b b8 7b c5 3d
       -0.045219675 0.019244662 0.0048281406 0.09642738
000130 54 94 65 be be 6a ce 3c 2b ed 75 bc b8 eb 2e 3e
       -0.22419864 0.025197383 -0.0150101585 0.17082107
000140 89 05 9c 3d c8 a3 72 3e 34 af 83 bd c6 02 c8 bc
       0.07618243 0.2369529 -0.06429902 -0.024415385
000150 54 b7 9e 3c 28 3b 39 be da 83 b2 3d 50 cd 6a bd
       0.019374527 -0.18088973 0.08716555 -0.057324708
000160 f5 b8 8e bd fb 49 cd 3c 4a 64 2b bd 2c 28 4e bd
       -0.069688715 0.02505969 -0.04184369 -0.05033128
000170 4b 4b 69 3e d9 38 e9 bc e0 98 39 3d 82 cb 09 3e
       0.22782628 -0.02846949 0.04531181 0.13456538
000180 ff f6 96 bd be 77 7e bd 73 0e ed bd 7d b5 6f 3b
       -0.073713295 -0.062125914 -0.115750216 0.0036576681
000190 b4 1b 15 be 0a d0 40 3d 64 36 8c bd c4 e7 e0 bb
       -0.14561349 0.0470734 -0.06846312 -0.006863566
0001a0 01 02 c8 bd 10 4f 28 3d d7 d9 e1 3d b9 9d 89 bb
       -0.09766007 0.041091025 0.11027878 -0.00419971
0001b0 0f a5 89 3c ef 5c 25 3e 9d 89 19 3e be fb 38 bd
       0.016802339 0.16148733 0.14993902 -0.045161955
0001c0 97 e2 7d 3e 25 89 38 3c 6d 05 f8 3d ff cf 60 bd
       0.24793468 0.011263167 0.1211041 -0.05488586
0001d0 ae 8d 55 bd f4 af 21 3e 8e a0 3c 3e 3f 72 19 3e
       -0.05213707 0.15789777 0.18420622 0.14984988
0001e0 56 e1 39 3d fe 2b 41 3d 14 73 83 3c 64 14 2a bd
       0.045380913 0.047161095 0.016046084 -0.041523352
0001f0 aa 44 e5 bd 16 b1 46 3d 20 d2 8f 3b 8c cb 89 3d
       -0.11194737 0.048508726 0.0043890625 0.067282766
000200 06 f9 3d 3d f4 01 46 be 61 84 3e 3e ec c7 de 3d
       0.046380065 -0.19336683 0.18605186 0.10877976
000210 37 6d 61 bc 5e 1f 14 bd b5 1f 42 be 12 f2 83 3d
       -0.013758949 -0.036162727 -0.18957408 0.064426556
000220 d8 2d 34 bd d7 ba 32 3d 0a 0c 2e be 98 64 f7 3d
       -0.043989033 0.043635216 -0.1699678 0.120797336
000230 2b 16 e3 3d a6 a7 ad 3d 20 00 a0 3c 5b da d8 3d
       0.110882126 0.08479242 0.01953131 0.10588523
000240 b2 fc fc 3d ac 9e 10 3d 51 af 5d 3e 2d bb aa bd
       0.12352885 0.03530757 0.21648909 -0.08336482
000250 70 40 fa bd a2 59 0f be 49 f0 cd 3c 2f ab 27 3c
       -0.12219322 -0.13999036 0.025138991 0.010233684
000260 20 d7 35 3c 05 ec 4c bd 89 01 1b bd 7d 3d c0 bd
       0.011098653 -0.050029773 -0.03784326 -0.09386728
000270 1c 01 6f bd 58 48 d1 3d fe a8 9a bd 1d d6 dc 3b
       -0.058350667 0.102188766 -0.07551764 0.0067393915
000280 0d 4b bd 3d d6 af 56 3e 1c 69 72 ba 8c c9 80 3c
       0.092428304 0.20965514 -0.000924723 0.015721105
000290 09 52 4a bd b6 7a 9d bd d0 ae e4 3b ed 10 da 3b
       -0.04939464 -0.07689421 0.006978847 0.0066548497
0002a0 cf c3 71 bd 4f d8 0d bd 8a e3 26 be 39 a9 dc bb
       -0.05902463 -0.034630116 -0.16297737 -0.00673404
0002b0 57 6f fe 3d 53 98 81 bd d1 dd 62 bc 90 79 97 bd
       0.1242358 -0.06327882 -0.01384683 -0.07396233
0002c0 60 f8 2c bd 52 65 ec bd 5e 96 58 be 62 25 bd 3d
       -0.042229056 -0.11542763 -0.2115111 0.09235646
0002d0 3e 09 b8 bc 64 29 08 bd ee e3 58 be c5 58 0f 3d
       -0.022465345 -0.0332426 -0.21180698 0.034996767
0002e0 81 7d 65 bc db 7d 77 3d a6 2d c1 bc b0 0c bf bd
       -0.014006973 0.06042276 -0.023581337 -0.09328592
0002f0 e0 09 71 be eb 83 7d 3d e0 a0 d2 3d f7 2f 0b be
       -0.23538923 0.061893385 0.10284591 -0.13592516
000300 b8 cc 2f be 22 6e 67 3e 9a 56 08 bd 9c b9 79 3d
       -0.17167938 0.22600606 -0.033285715 0.060968027
000310 bf 31 c0 bd 8f 45 b4 bc 4b b3 de bd 68 ff 9f bc
       -0.09384488 -0.022005824 -0.10874041 -0.019530967
000320 cb 8f be bb 1d 2b 96 3d e2 14 bd ba 7c c3 1a bd
       -0.0058154813 0.07332442 -0.0014425779 -0.037784085
000330 34 5e bd 3d b5 31 26 bd 8e c0 48 3e ad 63 aa 3d
       0.092464834 -0.040574748 0.19604704 0.08319793
000340 bb 2b 34 be de 29 b2 bc 9c 43 89 3d 0b 30 f6 3d
       -0.17594807 -0.02174848 0.067023486 0.12020882
000350 3e c9 d9 3d 83 63 1f bd b9 08 c3 3d bf 8a d9 3d
       0.10634087 -0.03891326 0.09523148 0.10622167
000360 ff 3e ac 3d f2 60 a6 bc 74 0c 8c 3d b6 16 28 3c
       0.08410453 -0.020309899 0.06838313 0.010259321
000370 89 e6 da bc 76 2b c9 3d ab 55 da 3c 94 65 ca bb
       -0.026721256 0.09822743 0.026652178 -0.00617666
000380 f2 f7 f5 3d 5e bc 40 3d fb 7b 19 3d 18 f6 ea bd
       0.120101824 0.04705464 0.037471753 -0.1147272
000390 60 02 dd bb 24 ac 99 3d 92 21 c6 bd 84 44 c0 bd
       -0.006744668 0.07503536 -0.09674372 -0.09388068
0003a0 b8 8b 95 bd 05 87 68 3d 60 e5 5a bd 67 b2 34 bd
       -0.0730204 0.05676939 -0.053441405 -0.04411545
0003b0 3e 8e c0 ba a7 d9 86 bd a5 7a 1f bc a6 1e b6 bd
       -0.0014690829 -0.06584483 -0.009733831 -0.088925645
0003c0 5f e2 2e 3e 4b 72 27 3e f9 64 41 3e 73 4d 84 bd
       0.17078541 0.16352193 0.18886174 -0.06460085
0003d0 74 56 a4 3c 62 c7 80 3d 37 b2 c3 bd 1f 09 3a bd
       0.020060755 0.06288029 -0.09555476 -0.045418855
0003e0 a0 75 1b bd 17 9c 82 be 14 13 e0 bd 4f 33 d2 3d
       -0.037953973 -0.25509712 -0.10941139 0.102636926
0003f0 a8 37 df 3c 2f 28 82 3c 4d 4f 2d 3d b2 14 f2 bc
       0.027248219 0.015888302 0.042311955 -0.029550884

base.mlp.fc1.0.bias f4 [64]
000000 00 00 00 00 a3 bd 70 3a 00 00 00 00 00 00 00 00
       0.0 0.00091835315 0.0 0.0
000010 10 0a 53 39 35 0f 19 b9 00 00 00 00 18 80 df b7
       0.00020126277 -0.00014596882 0.0 -2.664332e-05
000020 72 29 eb 39 00 00 00 00 05 3d 16 3a c6 cb 1f bb
       0.00044853572 0.0 0.00057311385 -0.0024382933
000030 7a 38 dc 38 00 00 00 00 52 3c 33 ba 36 37 f2 b9
       0.00010500937 0.0 -0.00068372965 -0.00046198972
000040 9a e4 0d 39 2f c6 64 b7 00 00 00 00 d6 a8 5a b9
       0.00013531969 -1.3636002e-05 0.0 -0.00020852996
000050 9c d8 57 b9 a2 40 c9 b9 6d 41 83 3a 64 9b 44 b9
       -0.00020584691 -0.00038385863 0.0010014005 -0.00018749904
000060 00 00 00 00 37 2d 86 b9 71 e5 b6 3a 00 00 00 00
       0.0 -0.0002559216 0.0013953877 0.0
000070 4e f2 1e 39 e2 6c 0e ba 00 00 00 00 cb a2 8e 3a
       0.0001515832 -0.0005433095 0.0 0.0010882256
000080 93 c1 7e bb b8 d4 a8 b7 e6 b2 f1 ba 86 1c a5 b9
       -0.0038872703 -2.0126216e-05 -0.0018440157 -0.00031492504
000090 4d 19 44 3a 70 4e 24 3a ae ff bf 3a 00 00 00 00
       0.0007480577 0.00062677916 0.0014648342 0.0
0000a0 00 00 00 00 ea 03 68 b8 b7 df b0 39 45 6c b5 39
       0.0 -5.5316756e-05 0.00033736016 0.00034603677
0000b0 e2 00 f7 39 00 00 00 00 0e 10 5c b8 c2 27 b1 39
       0.0004711217 0.0 -5.246704e-05 0.00033789693
0000c0 00 00 00 00 00 00 00 00 a3 9f 9d 3a 00 00 00 00
       0.0 0.0 0.0012025725 0.0
0000d0 c7 a4 89 39 00 00 00 00 00 00 00 00 f6 5b 0a 39
       0.00026253445 0.0 0.0 0.00013194964
0000e0 00 00 00 00 be 4c fa 3a 92 ca 43 3a 00 00 00 00
       0.0 0.0019096357 0.0007468845 0.0
0000f0 00 00 00 00 f3 bf 38 ba d9 60 9a b9 5b 5b dc b9
       0.0 -0.00070476456 -0.00029445326 -0.00042029735

base.mlp.fc1.2.weight f4 [64]
000000 4d 0a 80 3f fd 24 80 3f 72 f2 7f 3f 6c c8 7f 3f
       1.0003144 1.0011288 0.9997932 0.99915195
000010 46 05 80 3f 1f f4 7f 3f fd 0c 80 3f 4d fc 7f 3f
       1.0001609 0.99981874 1.0003964 0.99994355
000020 06 e0 7f 3f e4 d4 7f 3f 16 0d 80 3f 93 03 80 3f
       0.9995121 0.9993422 1.0003994 1.0001091
000030 2d 09 80 3f 31 dc 7f 3f 18 13 7f 3f 44 79 80 3f
       1.00028 0.9994536 0.9963851 1.0037007
000040 49 b4 7f 3f c1 ef 7f 3f 34 1e 80 3f cd ea 7f 3f
       0.9988447 0.9997521 1.0009217 0.9996765
000050 44 c3 7f 3f 0e db 7f 3f 67 8e 80 3f 86 fd 7f 3f
       0.99907327 0.99943626 1.0043458 0.9999622
000060 69 05 80 3f bf 83 7f 3f 6d 22 80 3f 45 45 80 3f
       1.0001651 0.99810404 1.0010506 1.0021139
000070 1c f1 7f 3f 7b 05 80 3f b0 ee 7f 3f 72 05 80 3f
       0.9997728 1.0001673 0.99973583 1.0001662
000080 5f ac 7f 3f 2d ca 7f 3f 74 21 80 3f af 1a 7f 3f
       0.9987239 0.9991787 1.0010209 0.9965009
000090 97 24 80 3f 50 07 80 3f a4 4b 80 3f 9f 1a 80 3f
       1.0011166 1.0002232 1.0023084 1.0008124
0000a0 ce 02 80 3f 72 a4 7f 3f ae 01 80 3f 3f b2 7f 3f
       1.0000856 0.998603 1.0000513 0.99881357
0000b0 64 aa 80 3f 15 e1 7f 3f 13 da 7f 3f 79 0e 80 3f
       1.0051999 0.9995282 0.9994213 1.0004417
0000c0 f6 e5 7f 3f 43 cb 7f 3f 11 48 80 3f f8 d9 7f 3f
       0.9996027 0.9991953 1.0021993 0.9994197
0000d0 eb c6 7f 3f 91 16 80 3f 80 eb 7f 3f df f9 7f 3f
       0.999129 1.0006887 0.9996872 0.9999065
0000e0 74 4c 80 3f bf 26 80 3f 13 e7 7f 3f 01 11 80 3f
       1.0023332 1.0011824 0.99961966 1.0005189
0000f0 07 b5 7f 3f 8b 1d 80 3f b3 19 80 3f 44 0c 80 3f
       0.998856 1.0009016 1.0007843 1.0003743

base.mlp.fc1.2.bias f4 [64]
000000 16 00 98 b9 39 ea 9f 3a 55 a2 65 39 47 c2 53 3a
       -0.00028991763 0.0012200541 0.00021899615 0.0008077961
000010 47 be c3 39 03 29 3d b8 28 ff d9 b9 bc d9 16 39
       0.00037335066 -4.5099307e-05 -0.00041579572 0.00014386227
000020 9c 31 da 39 b9 9d 1f 3a 2f 43 fa b9 5a d7 db b8
       0.00041617162 0.0006088871 -0.00047733771 -0.00010482846
000030 da e7 91 39 07 86 04 3a ea fa 68 b9 85 94 be b9
       0.00027829298 0.0005055372 -0.00022218717 -0.0003635028
000040 5b 95 95 39 be 4d 0c 39 0a ef 65 ba 44 49 60 b6
       0.00028530773 0.00013380402 -0.00087712763 -3.3421247e-06
000050 f2 65 f0 b8 1d 42 ef b7 0d b8 36 3b dc 8d 91 b7
       -0.000114630806 -2.8521807e-05 0.00278807 -1.7351405e-05
000060 85 91 39 b9 29 1e 16 b9 41 74 af 3a a2 9b 06 bb
       -0.00017697185 -0.0001431635 0.0013386087 -0.0020539542
000070 c2 64 7c 39 3a c3 f1 b9 f3 d9 91 39 61 bc b9 39
       0.00024070128 -0.00046112557 0.0002781894 0.00035426303
000080 dc d6 87 3a 03 c4 6f 38 2c 9b 58 ba 2c 14 ef b8
       0.0010363716 5.716459e-05 -0.00082628685 -0.000114001654
000090 6c 46 51 3a 42 58 74 b9 d5 8b 13 3b a1 f6 5c ba
       0.0007983211 -0.00023302532 0.0022513766 -0.00084290846
0000a0 79 3f b3 b8 ca db 0c 38 3a fc 00 3a d4 bf f3 39
       -8.547208e-05 3.3583296e-05 0.0004920397 0.00046491495
0000b0 01 2c 03 3a 5a 01 09 3a 07 b5 c2 37 f5 be dd 39
       0.00050038105 0.00052263367 2.32109e-05 0.0004229468
0000c0 f8 e7 cd 39 5c 1b 4f 3a 03 e2 96 3a aa 79 12 3a
       0.00039273477 0.00079005 0.0011511449 0.00055875874
0000d0 bc 9d bc 39 ec 9b 33 ba 83 97 a6 39 2b 2b 52 39
       0.00035975676 -0.0006851542 0.00031774872 0.00020043242
0000e0 7e ce 15 bb 7d cf e3 3a 83 f1 a5 3a 81 9e 07 ba
       -0.0022858675 0.0017380562 0.0012660477 -0.000517346
0000f0 93 54 94 3a 44 99 e6 b9 9b 56 4c b9 0c 79 40 38
       0.0011316709 -0.0004398321 -0.00019487219 4.58891e-05

base.mlp.fc_h.0.weight f4 [64, 64]
000000 62 5d 74 bd 56 08 da 3d c4 cf 19 be ff 71 3c be
       -0.05965937 0.10646121 -0.15020663 -0.18402861
000010 07 6a ab bd 23 f2 30 3e 00 03 8b bd f4 a0 0b 3b
       -0.083698325 0.17279868 -0.067876816 0.0021305652
000020 4d 37 22 3d d5 14 4d 3d ef c7 6a 3d 65 a0 9e 3e
       0.03960352 0.050068695 0.057319578 0.30981746
000030 d1 e1 e4 bd 7b 5e 1d be 05 9b c4 bc 0e 8d 17 3e
       -0.111758836 -0.15368073 -0.0239997 0.14799902
000040 97 8f a1 bd 28 a6 33 3d 22 32 5c 3e 50 30 6a be
       -0.07888716 0.04385963 0.21503499 -0.22869992
000050 f4 b2 3d be 9a 31 4f be 19 59 a4 3d 12 00 82 be
       -0.18525296 -0.20233765 0.080248065 -0.2539068
000060 4b d0 00 3f eb a3 0e be b3 14 a5 bd 71 95 5f 3e
       0.5031783 -0.13929717 -0.08060589 0.21834351
000070 dc db 94 3e 57 f2 25 bd 6e 8d 22 bd 22 ce 27 be
       0.2907399 -0.040514316 -0.03968566 -0.16387227
000080 53 26 25 3d 95 ac 02 3e 86 15 48 3e d5 b3 96 bd
       0.040319752 0.12761147 0.1953946 -0.07358519
000090 54 a1 6e 3e 16 63 66 3e 55 5f d8 bd 51 f0 19 bf
       0.2330373 0.22498736 -0.10565058 -0.6013232
0000a0 f0 7f 69 bd 63 d9 3e bd 0f 27 55 3c 75 35 2e 3d
       -0.057006776 -0.046594035 0.013009801 0.04253145
0000b0 f8 8a 50 3d 3f 80 08 bb 32 01 a6 bd 3e 50 91 be
       0.05091378 -0.0020828394 -0.08105697 -0.28381532
0000c0 e1 6d 37 3d 7d 8a be 3d 82 0b f1 bc aa 54 5c 3c
       0.044782523 0.09303758 -0.029424433 0.01344792
0000d0 91 b9 89 be 12 0d 3b 3d ac a5 90 3d e8 20 67 be
       -0.26899388 0.04566676 0.070628494 -0.22571146
0000e0 2a eb 38 be da cf 4a be d8 dd 92 3e a4 9a 1b be
       -0.18058458 -0.19805852 0.28684878 -0.1519571
0000f0 b7 1a 84 3e 8b 3d b1 bd b1 0d 5a 3c e1 7a 0e bd
       0.25801632 -0.086543165 0.013308928 -0.034785155
000100 ab 5c d6 3c 3c f3 15 bd 4e a8 b9 bd 75 af 3a bd
       0.026167234 -0.03660892 -0.09065305 -0.045577485
000110 c9 36 8a bd 00 43 24 3e f5 bb 2c 3e ee 51 cb 3c
       -0.06748731 0.16041183 0.16868575 0.02481934
000120 1d a2 97 bb 42 29 03 3b 54 f4 2e 3e 09 1f 4f 3d
       -0.0046274797 0.0020013605 0.17085391 0.050566707
000130 ed 76 df bb 1c e6 9c bd 71 d7 31 be 48 16 4f bc
       -0.006819597 -0.076610774 -0.1736734 -0.01263959
000140 5f e5 c4 3d 55 3e 8e bd 48 8b 6d be 8d 1e 28 3d
       0.096140616 -0.06945483 -0.23197663 0.04104476
000150 63 54 34 3e e3 48 db be 5d e5 d1 3d 23 35 04 be
       0.17610316 -0.42829046 0.10248826 -0.12910895
000160 99 d0 12 be 61 58 44 3e ba a4 83 bd 16 b6 74 3e
       -0.14337386 0.19174339 -0.064279035 0.23897585
000170 bf 8c 70 bc 3e f9 08 be e7 22 cc be 4f d9 1c 3e
       -0.014681994 -0.13376328 -0.39870378 0.15317272
000180 2b 9f 32 3e 2f 4e 2f 3e b7 b2 23 3e a9 6d 02 3d
       0.1744353 0.17119668 0.15986143 0.03184286
000190 29 d4 9c be 26 2a 2f 3d a3 74 ed 3e 1e 67 5e be
       -0.30630615 0.042764805 0.4637805 -0.21719024
0001a0 bc 4f 3a be 99 a1 3e 3d ed 22 37 bc 0d b3 70 3b
       -0.18194479 0.04654083 -0.011177761 0.0036727816
0001b0 b1 cc a1 3e 05 00 a7 3e 82 fa 04 be 1e fe 98 3e
       0.3160148 0.32617202 -0.12986186 0.29881376
0001c0 e1 7a 32 be 29 4d ef 3d f4 ee 83 3e 8b 38 b1 3d
       -0.17429687 0.11684639 0.25768244 0.08653363
0001d0 da 2a 13 3e b1 be 19 3d d1 be fb 3d 02 51 89 bd
       0.14371815 0.037535373 0.12292255 -0.06704904
0001e0 6a 47 91 3d 28 ae 6a bd 7c 65 9d be 9c 40 50 bd
       0.07093699 -0.057294995 -0.3074149 -0.050842866
0001f0 e0 bb 3c 3e bf 91 63 3e 4a 6d fe bd 2d 79 8b 3e
       0.18431044 0.22223566 -0.12423189 0.27240887
000200 a7 28 6f be 15 c1 7c bd e5 f4 fa bb 32 21 35 3e
       -0.23355351 -0.061707575 -0.0076585882 0.17688444
000210 f5 67 d7 3d 05 ac 71 bc 8e ee 5b 3e e4 bb e0 bd
       0.10517875 -0.014750485 0.2147772 -0.10973337
000220 3e eb d9 bd af 04 24 3e 85 3e 73 be 0d 0d 03 be
       -0.10640572 0.16017412 -0.23754318 -0.12797947
000230 16 cc 52 3c 08 ee 28 3c 87 b3 3b be 34 d6 8a 3e
       0.012866041 0.010310657 -0.18330203 0.2711655
000240 fe 67 52 be 26 72 b9 3e 68 84 b4 3d 38 be ab 3e
       -0.20547482 0.362199 0.08814317 0.33543563
000250 2b f8 74 be 17 3f 3b be 18 c5 84 3e 05 c4 02 3e
       -0.23922794 -0.18285786 0.2593162 0.12770088
000260 bc 42 8e 3e fe b2 d1 bd cd 4e 28 3e c6 85 d7 3d
       0.2778529 -0.10239218 0.1643631 0.10523562
000270 f7 b9 b5 be 70 9e 03 be bc 43 49 3c 2b 70 85 3d
       -0.35493442 -0.12853408 0.012284216 0.06515535
000280 c5 28 8e 3e d4 c0 dc 3e df 70 57 3c ab 80 e4 3b
       0.2776548 0.43115866 0.013149469 0.006973346
000290 81 ef ad 3c 35 48 b5 3d 33 9e 21 bd 9c ea a3 3d
       0.021232368 0.08851663 -0.03945751 0.080037326
0002a0 f2 7a 0f 3d 29 e1 bd 3e 7f 6d d8 bd 18 5a fc 3a
       0.03502936 0.37085846 -0.1056776 0.0019252924
0002b0 78 36 48 bd 52 ab a8 3c 1c 61 1c 3e 06 94 13 3e
       -0.04888007 0.020589504 0.1527142 0.14411935
0002c0 78 3d cf 3d 8e d6 8b bd ad 97 0d be 2f ed 4e be
       0.10119146 -0.068280324 -0.13827391 -0.20207666
0002d0 dd 91 b9 bd 53 fc 26 be da 7a 68 3e 69 2c 65 3e
       -0.09061024 -0.16307192 0.22703114 0.22380222
0002e0 1e 9c 55 3e 9b 92 cd bd 6c c9 27 3e 98 6d 0c be
       0.20860335 -0.100377284 0.1638543 -0.13713682
0002f0 b2 48 07 be 28 1e a4 3d 8c 6b 3d 3e 83 00 48 3e
       -0.13211325 0.08013564 0.18498057 0.19531445
000300 63 c8 e2 3c c4 60 93 3d 9b 21 62 3e 0a cc f1 bd
       0.027683442 0.07196191 0.22083132 -0.118064955
000310 ae 60 ed 3d 84 82 dd 3d af 64 01 3c e1 b3 1d 3d
       0.11590706 0.108159095 0.00789754 0.038501624
000320 38 48 c4 3e b7 eb c3 3d eb c2 59 3e 9c 9e ed bd
       0.3833635 0.095664434 0.21265762 -0.11602518
000330 42 2c d1 bd c7 b4 71 3e f9 44 e7 3d 1a a2 2d bd
       -0.1021352 0.23604117 0.11292452 -0.04239092
000340 0a 31 8c 3e a8 6c f3 3b d6 93 ac be ed 59 07 be
       0.27381164 0.0074287243 -0.3370654 -0.13217898
000350 ee 7e af bd ea ae a3 be 1c 89 c2 bd af 37 61 be
       -0.08569132 -0.31969386 -0.09498808 -0.21993898
000360 51 f4 9b 3e fa 6f 59 ba 7b 97 5c be d1 3c c3 3d
       0.30459836 -0.0008294579 -0.2154216 0.09533084
000370 52 e2 94 be 94 74 44 bd 06 b5 97 3e 36 65 78 3e
       -0.2907892 -0.04796274 0.29630297 0.24257359
000380 a9 5c a2 bd 23 2b 79 3e fd 89 8c bd 7c 43 e6 3e
       -0.0792783 0.24332862 -0.06862257 0.44973361
000390 bc d2 28 3e 2a c7 00 be 54 2a a8 be f6 b1 6b bd
       0.16486639 -0.12575975 -0.32844794 -0.057542764
0003a0 a3 a8 03 bd 19 16 26 3d be 33 99 bd 61 b6 f4 bd
       -0.032143246 0.040548418 -0.07480572 -0.119488485
0003b0 87 5e 10 ba a4 04 06 3e 97 7e ad 3d 0d e4 34 3d
       -0.000550725 0.13087708 0.08471411 0.0441628
0003c0 5c 08 15 be 69 dc 7c bc 88 05 2b be c3 bd 94 be
       -0.1455397 -0.015433409 -0.16701329 -0.29051027
0003d0 63 8f 37 3e 08 68 6f 3e e8 b4 c5 bd 5c 71 11 3e
       0.17925791 0.23379529 -0.09653646 0.142034
0003e0 64 f9 67 bd 6d 76 02 3e 5f 01 5e be 94 0b eb bc
       -0.05663432 0.12740488 -0.2168021 -0.028692044
0003f0 f9 5c 8a 3d 4e a8 cf bd 76 97 26 bd e4 87 59 be
       0.067560144 -0.101395234 -0.04067179 -0.21243244

base.mlp.fc_h.0.bias f4 [64]
000000 00 00 00 00 00 00 00 00 00 00 00 00 00 00 00 00
       0.0 0.0 0.0 0.0
000010 00 00 00 00 00 00 00 00 00 00 00 00 00 00 00 00
       0.0 0.0 0.0 0.0
000020 00 00 00 00 00 00 00 00 00 00 00 00 00 00 00 00
       0.0 0.0 0.0 0.0
000030 00 00 00 00 00 00 00 00 00 00 00 00 00 00 00 00
       0.0 0.0 0.0 0.0
000040 00 00 00 00 00 00 00 00 00 00 00 00 00 00 00 00
       0.0 0.0 0.0 0.0
000050 00 00 00 00 00 00 00 00 00 00 00 00 00 00 00 00
       0.0 0.0 0.0 0.0
000060 00 00 00 00 00 00 00 00 00 00 00 00 00 00 00 00
       0.0 0.0 0.0 0.0
000070 00 00 00 00 00 00 00 00 00 00 00 00 00 00 00 00
       0.0 0.0 0.0 0.0
000080 00 00 00 00 00 00 00 00 00 00 00 00 00 00 00 00
       0.0 0.0 0.0 0.0
000090 00 00 00 00 00 00 00 00 00 00 00 00 00 00 00 00
       0.0 0.0 0.0 0.0
0000a0 00 00 00 00 00 00 00 00 00 00 00 00 00 00 00 00
       0.0 0.0 0.0 0.0
0000b0 00 00 00 00 00 00 00 00 00 00 00 00 00 00 00 00
       0.0 0.0 0.0 0.0
0000c0 00 00 00 00 00 00 00 00 00 00 00 00 00 00 00 00
       0.0 0.0 0.0 0.0
0000d0 00 00 00 00 00 00 00 00 00 00 00 00 00 00 00 00
       0.0 0.0 0.0 0.0
0000e0 00 00 00 00 00 00 00 00 00 00 00 00 00 00 00 00
       0.0 0.0 0.0 0.0
0000f0 00 00 00 00 00 00 00 00 00 00 00 00 00 00 00 00
       0.0 0.0 0.0 0.0

base.mlp.fc_h.2.weight f4 [64]
000000 00 00 80 3f 00 00 80 3f 00 00 80 3f 00 00 80 3f
       1.0 1.0 1.0 1.0
000010 00 00 80 3f 00 00 80 3f 00 00 80 3f 00 00 80 3f
       1.0 1.0 1.0 1.0
000020 00 00 80 3f 00 00 80 3f 00 00 80 3f 00 00 80 3f
       1.0 1.0 1.0 1.0
000030 00 00 80 3f 00 00 80 3f 00 00 80 3f 00 00 80 3f
       1.0 1.0 1.0 1.0
000040 00 00 80 3f 00 00 80 3f 00 00 80 3f 00 00 80 3f
       1.0 1.0 1.0 1.0
000050 00 00 80 3f 00 00 80 3f 00 00 80 3f 00 00 80 3f
       1.0 1.0 1.0 1.0
000060 00 00 80 3f 00 00 80 3f 00 00 80 3f 00 00 80 3f
       1.0 1.0 1.0 1.0
000070 00 00 80 3f 00 00 80 3f 00 00 80 3f 00 00 80 3f
       1.0 1.0 1.0 1.0
000080 00 00 80 3f 00 00 80 3f 00 00 80 3f 00 00 80 3f
       1.0 1.0 1.0 1.0
000090 00 00 80 3f 00 00 80 3f 00 00 80 3f 00 00 80 3f
       1.0 1.0 1.0 1.0
0000a0 00 00 80 3f 00 00 80 3f 00 00 80 3f 00 00 80 3f
       1.0 1.0 1.0 1.0
0000b0 00 00 80 3f 00 00 80 3f 00 00 80 3f 00 00 80 3f
       1.0 1.0 1.0 1.0
0000c0 00 00 80 3f 00 00 80 3f 00 00 80 3f 00 00 80 3f
       1.0 1.0 1.0 1.0
0000d0 00 00 80 3f 00 00 80 3f 00 00 80 3f 00 00 80 3f
       1.0 1.0 1.0 1.0
0000e0 00 00 80 3f 00 00 80 3f 00 00 80 3f 00 00 80 3f
       1.0 1.0 1.0 1.0
0000f0 00 00 80 3f 00 00 80 3f 00 00 80 3f 00 00 80 3f
       1.0 1.0 1.0 1.0

base.mlp.fc_h.2.bias f4 [64]
000000 00 00 00 00 00 00 00 00 00 00 00 00 00 00 00 00
       0.0 0.0 0.0 0.0
000010 00 00 00 00 00 00 00 00 00 00 00 00 00 00 00 00
       0.0 0.0 0.0 0.0
000020 00 00 00 00 00 00 00 00 00 00 00 00 00 00 00 00
       0.0 0.0 0.0 0.0
000030 00 00 00 00 00 00 00 00 00 00 00 00 00 00 00 00
       0.0 0.0 0.0 0.0
000040 00 00 00 00 00 00 00 00 00 00 00 00 00 00 00 00
       0.0 0.0 0.0 0.0
000050 00 00 00 00 00 00 00 00 00 00 00 00 00 00 00 00
       0.0 0.0 0.0 0.0
000060 00 00 00 00 00 00 00 00 00 00 00 00 00 00 00 00
       0.0 0.0 0.0 0.0
000070 00 00 00 00 00 00 00 00 00 00 00 00 00 00 00 00
       0.0 0.0 0.0 0.0
000080 00 00 00 00 00 00 00 00 00 00 00 00 00 00 00 00
       0.0 0.0 0.0 0.0
000090 00 00 00 00 00 00 00 00 00 00 00 00 00 00 00 00
       0.0 0.0 0.0 0.0
0000a0 00 00 00 00 00 00 00 00 00 00 00 00 00 00 00 00
       0.0 0.0 0.0 0.0
0000b0 00 00 00 00 00 00 00 00 00 00 00 00 00 00 00 00
       0.0 0.0 0.0 0.0
0000c0 00 00 00 00 00 00 00 00 00 00 00 00 00 00 00 00
       0.0 0.0 0.0 0.0
0000d0 00 00 00 00 00 00 00 00 00 00 00 00 00 00 00 00
       0.0 0.0 0.0 0.0
0000e0 00 00 00 00 00 00 00 00 00 00 00 00 00 00 00 00
       0.0 0.0 0.0 0.0
0000f0 00 00 00 00 00 00 00 00 00 00 00 00 00 00 00 00
       0.0 0.0 0.0 0.0

base.mlp.fc2.0.0.weight f4 [64, 64]
000000 62 5d 74 bd 56 08 da 3d c4 cf 19 be ff 71 3c be
       -0.05965937 0.10646121 -0.15020663 -0.18402861
000010 07 6a ab bd 23 f2 30 3e 00 03 8b bd f4 a0 0b 3b
       -0.083698325 0.17279868 -0.067876816 0.0021305652
000020 4d 37 22 3d d5 14 4d 3d ef c7 6a 3d 65 a0 9e 3e
       0.03960352 0.050068695 0.057319578 0.30981746
000030 d1 e1 e4 bd 7b 5e 1d be 05 9b c4 bc 0e 8d 17 3e
       -0.111758836 -0.15368073 -0.0239997 0.14799902
000040 97 8f a1 bd 28 a6 33 3d 22 32 5c 3e 50 30 6a be
       -0.07888716 0.04385963 0.21503499 -0.22869992
000050 f4 b2 3d be 9a 31 4f be 19 59 a4 3d 12 00 82 be
       -0.18525296 -0.20233765 0.080248065 -0.2539068
000060 4b d0 00 3f eb a3 0e be b3 14 a5 bd 71 95 5f 3e
       0.5031783 -0.13929717 -0.08060589 0.21834351
000070 dc db 94 3e 57 f2 25 bd 6e 8d 22 bd 22 ce 27 be
       0.2907399 -0.040514316 -0.03968566 -0.16387227
000080 53 26 25 3d 95 ac 02 3e 86 15 48 3e d5 b3 96 bd
       0.040319752 0.12761147 0.1953946 -0.07358519
000090 54 a1 6e 3e 16 63 66 3e 55 5f d8 bd 51 f0 19 bf
       0.2330373 0.22498736 -0.10565058 -0.6013232
0000a0 f0 7f 69 bd 63 d9 3e bd 0f 27 55 3c 75 35 2e 3d
       -0.057006776 -0.046594035 0.013009801 0.04253145
0000b0 f8 8a 50 3d 3f 80 08 bb 32 01 a6 bd 3e 50 91 be
       0.05091378 -0.0020828394 -0.08105697 -0.28381532
0000c0 e1 6d 37 3d 7d 8a be 3d 82 0b f1 bc aa 54 5c 3c
       0.044782523 0.09303758 -0.029424433 0.01344792
0000d0 91 b9 89 be 12 0d 3b 3d ac a5 90 3d e8 20 67 be
       -0.26899388 0.04566676 0.070628494 -0.22571146
0000e0 2a eb 38 be da cf 4a be d8 dd 92 3e a4 9a 1b be
       -0.18058458 -0.19805852 0.28684878 -0.1519571
0000f0 b7 1a 84 3e 8b 3d b1 bd b1 0d 5a 3c e1 7a 0e bd
       0.25801632 -0.086543165 0.013308928 -0.034785155
000100 f9 0b d1 3c 08 d6 12 bd 7a fc ba bd 43 5d 3d bd
       0.025518404 -0.035848647 -0.09130187 -0.04623152
000110 45 50 89 bd 09 ec 24 3e 6d 10 2c 3e b8 77 c0 3c
       -0.06704763 0.16105665 0.16803141 0.023494586
000120 dc 8e af bb db 30 b1 3a a1 3f 2e 3e 76 79 4c 3d
       -0.0053576063 0.0013518588 0.1701646 0.04992052
000130 ad 97 f6 bb 42 3d 9e bd 7e fa 30 be f9 2e 86 bc
       -0.0075254054 -0.07726528 -0.17283055 -0.01637982
000140 43 61 c5 3d d9 62 8c bd 53 35 6e be 7d 6b 2a 3d
       0.09637692 -0.06854791 -0.23262529 0.041606415
000150 74 0f 34 3e 80 34 db be 81 97 d6 3d cf 7c 03 be
       0.1758402 -0.42813492 0.10478116 -0.1284058
000160 2a 7c 13 be 05 18 43 3e a9 77 84 bd df 0b 74 3e
       -0.14402834 0.19052131 -0.06468136 0.23832653
000170 48 d9 6d bc b0 57 09 be a4 78 cc be 2e c6 1b 3e
       -0.014517136 -0.13412356 -0.39935791 0.15212318
000180 77 93 32 3e 59 ce 30 3e 9a e5 23 3e 6f d3 ea 3c
       0.17439066 0.17266215 0.16005555 0.028665273
000190 3f e8 9c be 60 b2 2c 3d dc bb ed 3e bc 12 5f be
       -0.3064594 0.0421623 0.46432388 -0.2178449
0001a0 e3 f9 3a be c5 c4 46 3d c6 c7 1d bc 63 24 c2 3b
       -0.18259387 0.048527498 -0.009630149 0.005924748
0001b0 15 5d a4 3e f9 aa a6 3e b7 3b 05 be 77 59 99 3e
       0.32102266 0.32552317 -0.1301106 0.2995107
0001c0 66 26 33 be eb f5 ed 3d ab 50 84 3e 7e e1 af 3d
       -0.17495117 0.11619171 0.25842795 0.08587931
0001d0 a1 f5 11 3e f3 15 17 3d c6 67 fa 3d 7e 83 8a bd
       0.14253856 0.036886167 0.122268245 -0.067633614
0001e0 bb f1 8f 3d 89 78 69 bd 62 61 9c be c4 ee 52 bd
       0.07028528 -0.056999717 -0.30543047 -0.051497236
0001f0 5d 10 3c 3e 3e 75 64 3e fd 2a 00 be c1 bd 8b 3e
       0.18365617 0.2231035 -0.12516399 0.27293208
000200 44 41 6f be ee bf 7c bd 62 08 fe bb e6 09 35 3e
       -0.2336474 -0.061706476 -0.007752464 0.17679557
000210 84 f4 d7 3d c8 99 6f bc 52 d7 5b 3e 35 ea df bd
       0.105446845 -0.014624067 0.21468857 -0.10933343
000220 7c ef d9 bd 40 ec 23 3e 97 3e 73 be 51 26 03 be
       -0.10641381 0.16008091 -0.23754345 -0.12807585
000230 e4 5e 54 3c 32 7b 27 3c 2c 04 3d be 92 85 8c 3e
       0.012962077 0.010222243 -0.18458623 0.27445656
000240 47 49 53 be 77 59 b9 3e 16 53 b4 3d e5 c8 ab 3e
       -0.20633422 0.3620107 0.0880491 0.33551708
000250 f4 ff 73 be 18 bf 3a be 7b 06 84 3e 6d ca 02 3e
       -0.23828107 -0.18236959 0.25786194 0.12772532
000260 24 37 8e 3e 77 20 ce bd a9 5d 29 3e d0 54 d7 3d
       0.27776444 -0.10064786 0.16539635 0.105142236
000270 d0 6a b5 be 24 57 04 be 6f cf 47 3c a1 dc 85 3d
       -0.35433054 -0.12923867 0.012195452 0.06536222
000280 3d d6 8d 3e 08 61 dc 3e 68 6a 5a 3c 12 fa 29 3c
       0.27702513 0.4304278 0.013331033 0.010374563
000290 4c c6 a9 3c 3b f0 b4 3d d1 cb 20 bd 56 bc a3 3d
       0.020724438 0.08834883 -0.039256874 0.079949066
0002a0 c6 18 0f 3d d4 35 bd 3e 9d 4b da bd 55 1b dd 39
       0.034935735 0.3695513 -0.10658953 0.0004217277
0002b0 72 77 5d bd 98 e6 a7 3c ca 26 1d 3e d2 a7 13 3e
       -0.05406899 0.020495698 0.15346828 0.14419487
0002c0 fc 0e cf 3d ce 04 8c bd bf 79 0d be 68 04 4f be
       0.1011028 -0.06836854 -0.13815974 -0.20216525
0002d0 4b a3 b8 bd d6 14 27 be a0 63 68 3e 02 25 65 3e
       -0.09015521 -0.16316542 0.22694254 0.22377399
0002e0 41 84 55 3e 6e c9 cc bd 92 88 26 3e cf 84 0c be
       0.20851232 -0.09999357 0.16263035 -0.13722537
0002f0 f1 5f 07 be d0 6c a1 3d f7 80 3d 3e 62 36 48 3e
       -0.13220192 0.078820825 0.18506227 0.19551995
000300 63 c8 e2 3c c4 60 93 3d 9b 21 62 3e 0a cc f1 bd
       0.027683442 0.07196191 0.22083132 -0.118064955
000310 ae 60 ed 3d 84 82 dd 3d af 64 01 3c e1 b3 1d 3d
       0.11590706 0.108159095 0.00789754 0.038501624
000320 38 48 c4 3e b7 eb c3 3d eb c2 59 3e 9c 9e ed bd
       0.3833635 0.095664434 0.21265762 -0.11602518
000330 42 2c d1 bd c7 b4 71 3e f9 44 e7 3d 1a a2 2d bd
       -0.1021352 0.23604117 0.11292452 -0.04239092
000340 0a 31 8c 3e a8 6c f3 3b d6 93 ac be ed 59 07 be
       0.27381164 0.0074287243 -0.3370654 -0.13217898
000350 ee 7e af bd ea ae a3 be 1c 89 c2 bd af 37 61 be
       -0.08569132 -0.31969386 -0.09498808 -0.21993898
000360 51 f4 9b 3e fa 6f 59 ba 7b 97 5c be d1 3c c3 3d
       0.30459836 -0.0008294579 -0.2154216 0.09533084
000370 52 e2 94 be 94 74 44 bd 06 b5 97 3e 36 65 78 3e
       -0.2907892 -0.04796274 0.29630297 0.24257359
000380 a9 5c a2 bd 23 2b 79 3e fd 89 8c bd 7c 43 e6 3e
       -0.0792783 0.24332862 -0.06862257 0.44973361
000390 bc d2 28 3e 2a c7 00 be 54 2a a8 be f6 b1 6b bd
       0.16486639 -0.12575975 -0.32844794 -0.057542764
0003a0 a3 a8 03 bd 19 16 26 3d be 33 99 bd 61 b6 f4 bd
       -0.032143246 0.040548418 -0.07480572 -0.119488485
0003b0 87 5e 10 ba a4 04 06 3e 97 7e ad 3d 0d e4 34 3d
       -0.000550725 0.13087708 0.08471411 0.0441628
0003c0 5c 08 15 be 69 dc 7c bc 88 05 2b be c3 bd 94 be
       -0.1455397 -0.015433409 -0.16701329 -0.29051027
0003d0 63 8f 37 3e 08 68 6f 3e e8 b4 c5 bd 5c 71 11 3e
       0.17925791 0.23379529 -0.09653646 0.142034
0003e0 64 f9 67 bd 6d 76 02 3e 5f 01 5e be 94 0b eb bc
       -0.05663432 0.12740488 -0.2168021 -0.028692044
0003f0 f9 5c 8a 3d 4e a8 cf bd 76 97 26 bd e4 87 59 be
       0.067560144 -0.101395234 -0.04067179 -0.21243244

base.mlp.fc2.0.0.bias f4 [64]
000000 00 00 00 00 d0 5c 2a 3a e2 9e cf 38 00 00 00 00
       0.0 0.00064988155 9.9001234e-05 0.0
000010 00 00 00 00 a1 38 25 3b 6e 53 c0 b9 d0 d7 4a 38
       0.0 0.0025210755 -0.00036683254 4.8361544e-05
000020 6d 01 19 b8 9e ba 3e ba 44 c2 d8 b9 48 12 ae 38
       -3.647937e-05 -0.0007275733 -0.0004134347 8.300372e-05
000030 00 00 00 00 c3 62 a2 3a 00 00 00 00 84 6f 3f ba
       0.0 0.0012389052 0.0 -0.0007302689
000040 81 bb 38 bb 00 00 00 00 34 fc 84 38 00 00 00 00
       -0.0028187933 0.0 6.341227e-05 0.0
000050 2d 33 9f bb 07 5d 14 38 00 00 00 00 5b a3 37 38
       -0.0048583956 3.5372588e-05 0.0 4.3782737e-05
000060 00 00 00 00 8f 1e 50 39 d3 6e 23 3b 00 00 00 00
       0.0 0.0001984781 0.0024937883 0.0
000070 ad 45 2d 39 23 e9 8f 39 ea 97 56 ba 04 75 78 38
       0.00016524522 0.00027448786 -0.0008186089 5.9236787e-05
000080 8b 35 4d 3a 72 12 1a 3b 58 bb 6e 3b e2 ec 77 39
       0.0007828108 0.002350953 0.0036427584 0.00023644001
000090 f1 dd 17 3b 2b 30 d2 39 00 00 00 00 ed 86 7d bb
       0.002317306 0.0004009021 0.0 -0.0038685158
0000a0 00 00 00 00 e4 04 b9 38 3f d1 01 3b 74 f8 38 ba
       0.0 8.8223984e-05 0.0019808558 -0.00070560654
0000b0 00 00 00 00 3f 86 05 39 00 00 00 00 00 00 00 00
       0.0 0.00012733879 0.0 0.0
0000c0 41 e5 40 3a 82 17 cc 39 4b bc 8f 39 00 00 00 00
       0.000735838 0.00038927427 0.00027415375 0.0
0000d0 00 00 00 00 00 00 00 00 c0 b4 01 3a 06 37 d1 37
       0.0 0.0 0.00049478933 2.4940364e-05
0000e0 a3 1f 87 ba 56 8e 55 3a 00 00 00 00 51 df 55 bb
       -0.0010309111 0.0008146515 0.0 -0.0032634328
0000f0 00 00 00 00 d6 e2 bf 37 3d bf 64 bb f1 25 49 bb
       0.0 2.2874603e-05 -0.0034904026 -0.003069278

base.mlp.fc2.0.2.weight f4 [64]
000000 fc ff 7f 3f 3b f7 7f 3f 06 ca 7e 3f 87 fe 7f 3f
       0.99999976 0.9998662 0.99527013 0.9999775
000010 ec fc 7f 3f 13 fd 7f 3f 36 ab 7f 3f 04 d2 7f 3f
       0.99995303 0.99995536 0.9987062 0.99929833
000020 a8 ee 7f 3f 05 fd 7f 3f 1a 0a 80 3f cf 00 80 3f
       0.99973536 0.9999545 1.0003083 1.0000247
000030 6f ff 7f 3f 06 d5 7f 3f 20 fd 7f 3f e2 e4 7f 3f
       0.99999136 0.9993442 0.99995613 0.9995862
000040 0a fb 7f 3f 99 f1 7f 3f 8b 09 7f 3f 93 fe 7f 3f
       0.9999243 0.99978024 0.99623936 0.99997824
000050 ee fd 7f 3f e6 ec 7f 3f 04 00 80 3f 2b f8 7f 3f
       0.9999684 0.99970853 1.0000005 0.9998805
000060 bd fc 7f 3f 8c 0e 80 3f 8a c5 7e 3f ea ff 7f 3f
       0.99995023 1.0004439 0.9952017 0.9999987
000070 46 c1 7f 3f a6 b2 7f 3f 3d 00 7f 3f 2b 24 80 3f
       0.99904287 0.9988197 0.9960974 1.0011038
000080 d2 de 7f 3f b5 0b 80 3f b2 02 80 3f 49 da 7f 3f
       0.9994937 1.0003573 1.0000823 0.9994245
000090 ca fe 7f 3f dd 09 80 3f b1 ff 7f 3f c5 e1 7f 3f
       0.9999815 1.000301 0.9999953 0.9995387
0000a0 04 00 80 3f b5 13 80 3f e4 02 80 3f 61 12 7f 3f
       1.0000005 1.0006014 1.0000882 0.9963742
0000b0 11 fd 7f 3f b7 e6 7f 3f 34 ff 7f 3f de fe 7f 3f
       0.99995524 0.9996142 0.99998784 0.9999827
0000c0 cb 08 80 3f 1c 01 80 3f 37 ec 7f 3f 08 f7 7f 3f
       1.0002683 1.0000339 0.9996981 0.99986315
0000d0 0f ff 7f 3f 28 ff 7f 3f ba e4 7f 3f 38 47 80 3f
       0.99998564 0.9999871 0.99958384 1.0021734
0000e0 7f 01 80 3f bc e1 7f 3f 2b fe 7f 3f 59 f4 7f 3f
       1.0000457 0.9995382 0.99997205 0.9998222
0000f0 ff fe 7f 3f 96 4a 80 3f 19 fe 7f 3f 6f f5 7f 3f
       0.9999847 1.0022762 0.999971 0.99983877

base.mlp.fc2.0.2.bias f4 [64]
000000 58 3e f5 37 85 9c 3c b8 73 b8 8f 37 24 95 57 38
       2.9235307e-05 -4.4968463e-05 1.713282e-05 5.1398893e-05
000010 06 a0 97 37 6c c1 1e b7 93 1d db 37 e7 37 f2 b7
       1.807512e-05 -9.462568e-06 2.6120606e-05 -2.887468e-05
000020 3e ca 06 38 cb 5a f5 b6 ed 38 0e 38 bf 03 39 b8
       3.2136442e-05 -7.3121387e-06 3.3908454e-05 -4.4110926e-05
000030 1b ed a9 b7 0d fe 10 b9 56 6b 7a 37 7e ff 25 38
       -2.025678e-05 -0.00013827551 1.4926152e-05 3.957701e-05
000040 5c 2a 16 38 4c 2a 82 39 16 d1 ab 37 a7 ab ec b6
       3.5802237e-05 0.00024827046 2.0482152e-05 -7.053331e-06
000050 ab e4 80 b7 ae 9c 3f 38 e5 4b ed 37 44 a7 f5 b7
       -1.536527e-05 4.5683868e-05 2.8287943e-05 -2.9284165e-05
000060 06 31 af 37 d7 2c 7c 37 06 cc a9 bb 87 93 fb 37
       2.0884454e-05 1.5030811e-05 -0.005181792 2.999023e-05
000070 b4 79 6b 37 93 10 60 37 84 54 8a b7 86 d8 33 b8
       1.4035428e-05 1.3355299e-05 -1.6490238e-05 -4.287858e-05
000080 14 a0 63 b8 8a 67 4b b7 79 48 18 38 f3 36 61 37
       -5.4270102e-05 -1.212385e-05 3.630712e-05 1.3423839e-05
000090 0d c1 55 b6 d9 a4 70 38 7d df 0b 38 f7 7e 2f 38
       -3.1851844e-06 5.7373985e-05 3.3348322e-05 4.1841497e-05
0000a0 21 12 ed 37 ca 48 7d 37 0c 9f 0d 38 82 d6 ae b7
       2.8261044e-05 1.5096923e-05 3.3765144e-05 -2.0842304e-05
0000b0 5d 30 85 37 4e a7 ea b7 1f 54 8b b7 21 37 40 38
       1.5877356e-05 -2.7972881e-05 -1.6609263e-05 4.582771e-05
0000c0 48 23 8c b7 37 06 7e b7 37 89 4d 37 1f fb e2 38
       -1.670573e-05 -1.5141027e-05 1.22509e-05 0.00010823295
0000d0 3e ae 35 38 b1 a4 2e 38 d4 ae 8f b8 68 ad 50 b6
       4.331604e-05 4.1638214e-05 -6.851336e-05 -3.109535e-06
0000e0 7d 04 50 38 6a 88 56 b8 2a d3 6e b5 67 d8 4d b7
       4.9595244e-05 -5.114862e-05 -8.8969193e-07 -1.2269337e-05
0000f0 39 17 62 b7 8a 78 60 36 db 51 b8 b6 76 6d 30 38
       -1.3476057e-05 3.3448764e-06 -5.4931566e-06 4.2063613e-05

v_out.weight f4 [1, 64]
000000 66 6c 47 3e dc 0a 5b bd 42 14 be 3d f4 2c 2e 3d
       0.19474944 -0.053477153 0.092812076 0.04252334
000010 ec 74 f2 bc 70 a1 19 3d 48 c1 b8 bc 8c d9 4e be
       -0.029596768 0.037507474 -0.022553101 -0.20200175
000020 38 c0 f8 3d 6d 86 9d bd 24 05 f3 3d 1b 2b 6a bd
       0.12146038 -0.07691655 0.11866215 -0.057170015
000030 ef eb e0 be 9d b9 23 bc 13 39 03 bd 68 6b 89 3d
       -0.43930003 -0.009992984 -0.032036852 0.06709939
000040 14 7f c4 3d b2 2b a8 3b 42 40 81 3e 58 6e 9b bd
       0.09594551 0.005132162 0.25244337 -0.07589406
000050 66 ff 21 be 59 b0 41 3d 61 3e 6b 3e 56 d8 2f be
       -0.15820083 0.04728732 0.22973014 -0.1717237
000060 31 0b e3 bc 61 43 22 3e 51 bd 39 39 bf d7 31 3e
       -0.027715297 0.15846016 0.000177135 0.17367457
000070 48 96 03 3e 2e 14 eb 3d 4a 77 8c bd 3b 86 76 bd
       0.12850296 0.11478458 -0.0685869 -0.060186606
000080 8f 4c 1d bd e1 4b e5 bd 80 62 aa bc 4c 12 06 3e
       -0.03840309 -0.111961134 -0.020798922 0.13092917
000090 0a 13 7a bd 28 e9 0f 3d db 02 f0 3d 67 76 86 3d
       -0.061053313 0.035134465 0.11719295 0.06565552
0000a0 56 75 6c 3e 5b 27 25 3e 9f 97 d7 3d c4 99 bf bd
       0.23091635 0.16128294 0.10526966 -0.093555
0000b0 7b 08 00 bd db 46 77 be 08 7b 41 be f3 f3 58 3d
       -0.031258088 -0.24148123 -0.18894589 0.052967023
0000c0 6d a7 46 be 04 92 15 be 29 10 e1 3d 54 10 1a bc
       -0.19399805 -0.14606482 0.109894104 -0.009403307
0000d0 0f ea 73 3d 68 fc 84 3d c2 8f d3 bc 61 06 24 3d
       0.059549388 0.06493455 -0.025825385 0.040045146
0000e0 e0 a5 3a 3d 83 e7 2b bd 66 76 60 bd f5 33 e7 bd
       0.045568347 -0.041968834 -0.054800414 -0.11289207
0000f0 fc f1 01 be 9f 91 85 3d 83 92 8d bd 29 61 86 3d
       -0.12689966 0.06521916 -0.069127105 0.065615006
