results/MyEnv/MyEnv/mappo/check/run35/models/actor_agent1.pt (torch, 65932 bytes, 17 tensors)

base.feature_norm.weight f4 [91]
0.99928725 0.9957468 1.0060719 0.9943481 1.0061083 1.0028858 1.0073131 1.0018862
0.99727345 0.9929773 0.9976417 0.9996994 0.9975463 1.0010202 1.0009879 0.9972262
0.9991145 1.0045074 0.9916305 1.0059917 0.9980504 1.0018015 1.0050701 1.0053314
1.0034707 1.0017002 1.0025594 1.0088761 0.9975327 0.9983675 1.0008826 1.0014077
0.9977983 0.9973215 1.0012119 1.0029767 0.9986321 0.9979019 0.99120444 0.9981569
0.9949456 0.9988043 1.0003499 0.997198 0.99697703 1.0028771 1.000126 1.0007308
0.9991582 1.0038396 1.0054258 1.009995 0.9975273 1.0022653 0.9973188 1.0054696
1.0010065 1.0007882 0.99878156 0.9958136 1.0055068 0.9990768 0.99532074 1.0047246
0.9955932 1.003638 1.0048059 1.0020555 0.99871594 0.99181086 0.99428535 0.9890321
1.0051455 1.0019267 1.0075734 0.99383265 1.0080736 1.0062653 1.0047088 0.99670804
0.9958479 1.0023702 0.9947551 1.0046062 0.997137 0.99809945 0.9908909 0.9978695
0.99870557 0.99781966 1.0005758
00000000: 4ad1 7f3f 43e9 7e3f f7c6 803f 998d 7e3f
00000010: 28c8 803f 905e 803f a3ef 803f cf3d 803f
00000020: 504d 7f3f c333 7e3f 7265 7f3f 4dec 7f3f
00000030: 325f 7f3f 6e21 803f 5f20 803f 374a 7f3f
00000040: f8c5 7f3f b393 803f 7fdb 7d3f 56c4 803f
00000050: 3b80 7f3f 083b 803f 23a6 803f b3ae 803f
00000060: ba71 803f b637 803f de53 803f da22 813f
00000070: 4e5e 7f3f 0395 7f3f ec1c 803f 212e 803f
00000080: b66f 7f3f 7650 7f3f b627 803f 8a61 803f
00000090: 5aa6 7f3f 8076 7f3f 93bf 7d3f 3687 7f3f
000000a0: c1b4 7e3f a3b1 7f3f 770b 803f 5e48 7f3f
000000b0: e339 7f3f 475e 803f 2104 803f f217 803f
000000c0: d5c8 7f3f d17d 803f cbb1 803f 8447 813f
000000d0: f35d 7f3f 3b4a 803f 4950 7f3f 3ab3 803f
000000e0: fb20 803f d419 803f 26b0 7f3f a4ed 7e3f
000000f0: 72b4 803f 7fc3 7f3f 57cd 7e3f d19a 803f
00000100: 32df 7e3f 3677 803f 7b9d 803f 5b43 803f
00000110: d9ab 7f3f 51e7 7d3f 7c89 7e3f 3531 7d3f
00000120: 9ca8 803f 223f 803f 2af8 803f d16b 7e3f
00000130: 8e08 813f 4dcd 803f 4c9a 803f 4228 7f3f
00000140: e3ef 7e3f ab4d 803f 45a8 7e3f f096 803f
00000150: 5f44 7f3f 7283 7f3f 07ab 7d3f 6074 7f3f
00000160: 2bab 7f3f 1c71 7f3f de12 803f

base.feature_norm.bias f4 [91]
-0.001329962 0.004167656 -0.00628922 0.0055285296 -0.006291154 0.003884517 0.0023588373 -0.0020234725
0.0030412187 0.006573571 0.0024702968 0.000450424 0.0028502832 -0.0005987125 0.00073248165 0.0022707772
0.0012122828 -0.004107891 0.00811937 0.0067494814 -0.001984714 0.0018916045 0.0052731805 0.00571978
0.0037521906 0.0018696053 0.0029190648 0.008985294 -0.0027862077 -0.001560434 0.001132078 0.001241384
-0.002367345 -0.0028493379 0.0011240641 0.0025735546 -0.0018193503 -0.0021456012 -0.009119594 -0.0019805944
-0.005193844 -0.0011882772 0.0004190657 -0.0028597882 -0.0030009248 0.0030075791 -5.675881e-05 0.0016199888
-0.00075695827 0.0040031667 0.0058655282 -0.0008178169 0.0025965252 0.0009585653 -0.0026768667 0.00571403
0.0010798153 0.0006526487 -0.0015405935 -0.0046165804 0.0058567007 -0.000899013 -0.004588055 0.005260974
-0.0047381204 0.0038445243 0.0051130205 0.0017838418 -0.0014307887 -0.008873789 -0.0063576717 -0.011456259
0.0060058953 0.0018071025 0.00799354 -0.00661618 0.008319071 0.007050158 0.004952966 -0.0034936233
-0.0046236143 0.0021605392 -0.0055024456 0.004884472 -0.0030563425 -0.00228612 -0.00946649 -0.0020348348
-0.0013949252 -0.0022856295 0.00093027926
00000000: 1f52 aeba d590 883b cd15 cebb ab28 b53b
00000010: 0626 cebb 6193 7e3b b996 1a3b 3c9c 04bb
00000020: 2f4f 473b 1c67 d73b b4e4 213b e326 ec39
00000030: d1cb 3a3b eaf2 1cba 0304 403a 52d1 143b
00000040: 76e5 9e3a 7d9b 86bb 1b07 053c c12a dd3b
00000050: fa11 02bb b7ef f73a a5ca ac3b fe6c bb3b
00000060: 50e7 753b 8b0d f53a c84d 3f3b 0e37 133c
00000070: cf98 36bb 7a87 ccba 3c62 943a efb5 a23a
00000080: 7525 1bbb f5bb 3abb 5555 933a 15a9 283b
00000090: 4477 eeba 379d 0cbb 596a 15bc dccc 01bb
000000a0: 1f31 aabb f7bf 9bba 0cb6 db39 496b 3bbb
000000b0: 2aab 44bb ce1a 453b 4f10 6eb8 ce55 d43a
000000c0: 9c6e 46ba ff2c 833b 9e33 c03b c362 56ba
000000d0: 772a 2a3b 3a48 7b3a 5f6e 2fbb c23c bb3b
000000e0: 9788 8d3a 8316 2b3a bded c9ba af46 97bb
000000f0: 91e9 bf3b beab 6bba 6557 96bb 4064 ac3b
00000100: 3c42 9bbb 6af4 7b3b 208b a73b cccf e93a
00000110: 4d89 bbba 5e63 11bc 0454 d0bb 08b3 3bbc
00000120: 1acd c43b 4cdc ec3a 56f7 023c 8acc d8bb
00000130: b64c 083c 0305 e73b 7d4c a23b 46f5 64bb
00000140: b081 97bb d597 0d3b dc4d b4bb ec0d a03b
00000150: eb4c 48bb bbd2 15bb 5619 1bbc dd5a 05bb
00000160: ecd5 b6ba 80ca 15bb fcdd 733a

base.mlp.fc1.0.weight f4 [64, 91]
0.060299814 0.1373848 -0.035935245 -0.11932983 -0.18282196 0.14874794 -0.21077198 -0.17168057
0.066704705 0.0067723347 -0.07146252 -0.03374772 -0.07885687 0.029639315 -0.10652693 -0.018029086
-0.11764988 -0.1524709 0.06722836 0.07127142 0.025011467 -0.104440525 0.038628858 -0.009535301
-0.19143704 0.45135707 0.102210894 -0.08943669 -0.057089295 -0.23814192 0.06956817 0.041947283
0.23262231 0.23612174 -0.041955173 0.089486234 -0.010600719 -0.12748781 0.10315107 0.3241181
-0.20982136 0.18106435 -0.0406745 -0.21837959 -0.07634628 0.03936239 -0.24094069 -0.11087395
-0.09789884 -0.1399129 0.3714894 0.28475377 -0.12097026 -0.058595486 -0.16783492 0.16540308
0.020921452 0.3094958 0.04228889 -0.21643381 0.117408454 0.24872093 0.16222408 -0.23143654
-0.08873978 0.19743492 0.1403804 -0.15034711 -0.21401258 0.30785382 0.15560086 -0.039895255
-0.19335596 0.10725767 0.07827425 -0.08856048 -0.08941044 -0.21794845 -0.09387195 -0.012434291
-0.46553442 0.42428976 0.10306217 0.07242745 0.24220791 0.2444465 0.37613127 -0.10957937
0.0258806 -0.2407744 -0.011397993 0.05624854 -0.16824208 -0.03723999 -0.069904104 0.11707949
-0.09813926 0.22241884 -0.063545324 -0.14664134 0.3817692 0.2078769 -0.29290128 -0.13014352
0.13482738 0.22570126 0.21556155 0.023736294 -0.12489915 0.26825964 -0.11217478 -0.059684187
0.19617721 0.16166961 -0.040544026 -0.11433378 0.013730746 0.11704355 -0.11622001 -0.110220425
-0.20163605 -0.25541613 -0.3249538 0.0066038454 -0.29275 0.3544758 0.26768306 -0.18023254
-0.2419118 0.049321584 0.03822591 0.34600967 -0.005894203 -0.22303082 -0.05913523 0.091662414
0.08499247 -0.056190062 -0.38542497 -0.09535036 -0.032443423 0.05175431 0.20395935 0.041809693
0.25448892 0.053435344 0.16721897 -0.15386613 0.51048636 -0.023391617 -0.21043879 0.0669118
-0.08275534 -0.31338426 -0.006574946 0.16558716 -0.10856522 -0.080221705 -0.16965552 0.091695674
-0.034619067 -0.029296858 -0.0034558545 0.08755268 -0.3449591 -0.08270824 0.16676804 0.10497482
-0.111295305 0.2057527 0.07098365 0.10292197 -0.11528473 0.0033882633 -0.017005099 0.06705605
-0.15745448 0.06045219 -0.15000004 -0.24111535 -0.0601298 0.18525122 0.03134892 -0.11265166
0.3219907 0.21748805 0.18522575 -0.12541865 -0.01761095 0.048829976 -0.06492176 0.119425975
-0.02073283 0.27718467 -0.06737793 -0.12619144 -0.04343673 -0.2887751 0.24205454 0.010220284
0.026809387 0.26199454 0.022468865 0.017456394 -0.025792535 -0.17560966 0.2517978 -0.08134636
0.10700133 0.10994798 -0.030857759 -0.20881459 -0.11642392 0.34190682 0.08504826 -0.0572989
-0.053636782 0.1042074 0.078818314 0.08350107 -5.917561e-05 -0.20673239 0.1330482 0.12526973
0.08137865 -0.05055596 0.25310388 -0.29502502 0.056436818 0.16063441 0.1560354 0.017722586
0.107305855 0.12160085 0.053250387 -0.057849538 -0.04522914 -0.3160998 -0.120083824 0.5337595
0.20139761 -0.16123772 0.040472925 -0.07939857 0.22218044 -0.34883764 -0.18916336 -0.24267863
0.319204 -0.06411063 -0.12857145 0.08936313 0.12335525 0.17589934 0.022070345 0.0634142
00000000: f0fc 763d 9aae 0c3e d630 13bd 3363 f4bd
00000010: ae35 3bbe 6151 183e 9cd4 57be 08cd 2fbe
00000020: 7a9c 883d 76ea dd3b f15a 92bd 0d3b 0abd
00000030: b67f a1bd 26ce f23c cb2a dabd bcb1 93bc
00000040: 6cf2 f0bd 5521 1cbe 06af 893d c0f6 913d
00000050: d9e4 cc3c eae4 d5bd 4b39 1e3d f339 1cbc
00000060: 1208 44be 4618 e73e f253 d13d 952a b7bd
00000070: 77d6 69bd 7adb 73be c279 8e3d ead0 2b3d
00000080: 8b34 6e3e e6c9 713e 30d9 2bbd 8f44 b73d
00000090: a3ae 2dbc 2a8c 02be de40 d33d cff2 a53e
000000a0: 69db 56be ef68 393e 4e9a 26bd e69e 5fbe
000000b0: 705b 9cbd 753a 213d 28b9 76be e211 e3bd
000000c0: 307f c8bd 5445 0fbe dc33 be3e 3fcb 913e
000000d0: 41bf f7bd d201 70bd ebdc 2bbe 6d5f 293e
000000e0: 7763 ab3c 3c76 9e3e 1d37 2d3d d3a0 5dbe
000000f0: d873 f03d b3b0 7e3e 121e 263e b3fd 6cbe
00000100: 34bd b5bd 612c 4a3e e1bf 0f3e 98f4 19be
00000110: 1d26 5bbe 049f 9d3e d555 1f3e 3569 23bd
00000120: 1bff 45be e9a9 db3d 404e a03d 325f b5bd
00000130: d21c b7bd e12d 5fbe f03f c0bd 32b9 4bbc
00000140: 875a eebe 823c d93e 4212 d33d d854 943d
00000150: 5a05 783e 2f50 7a3e 4794 c03e 266b e0bd
00000160: 8d03 d43c 908d 76be a6be 3abc de64 663d
00000170: a747 2cbe f688 18bd e229 8fbd 5fc7 ef3d
00000180: 3dfd c8bd c4c1 633e 0d24 82bd 2629 16be
00000190: 4177 c33e afdd 543e 28f7 95be 5844 05be
000001a0: 3010 0a3e 3b1e 673e 2bbc 5c3e 9e72 c23c
000001b0: 20cb ffbd 5459 893e e4bb e5bd 6877 74bd
000001c0: aee2 483e b88c 253e 7e11 26bd d427 eabd
000001d0: ecf6 603c 87b4 ef3d c204 eebd 3fbb e1bd
000001e0: ae79 4ebe e7c5 82be 5860 a6be 1265 d83b
000001f0: 54e3 95be da7d b53e c10d 893e e18e 38be
00000200: bab7 77be 6e05 4a3d c692 1c3d 2e28 b13e
00000210: 2924 c1bb 3162 64be c837 72bd 81b9 bb3d
00000220: 8810 ae3d 8d27 66bd 6c56 c5be 0d47 c3bd
00000230: 65e3 04bd 54fc 533d b8da 503e a440 2b3d
00000240: 5f4c 823e 05df 5a3d 733b 2b3e 158f 1dbe
00000250: 3caf 023f c79f bfbc 447d 57be 0e09 893d
00000260: a27b a9bd e773 a0be a572 d7bb ae8f 293e
00000270: 7157 debd 474b a4bd 2dba 2dbe f1ca bb3d
00000280: b9cc 0dbd f7ff efbc 9e7b 62bb d24e b33d
00000290: 7b9e b0be f062 a9bd 3ec5 2a3e 0afd d63d
000002a0: cbee e3bd d6b0 523e e05f 913d c1c8 d23d
000002b0: 671a ecbd a00d 5e3b 474e 8bbc af54 893d
000002c0: bf3b 21be b79c 773d 9c99 19be f1e6 76be
000002d0: aa4a 76bd 7fb2 3d3e ba67 003d eab5 e6bd
000002e0: f7db a43e 30b5 5e3e d2ab 3d3e bf6d 00be
000002f0: d744 90bc f101 483d b3f5 84bd 9b95 f43d
00000300: e5d7 a9bc 26eb 8d3e 71fd 89bd 5438 01be
00000310: b6ea 31bd 54da 93be 25dd 773e fa72 273c
00000320: 5c9f db3c 2624 863e a010 b83c b600 8f3c
00000330: de4a d3bc 05d3 33be a4eb 803e ec98 a6bd
00000340: 8323 db3d 682c e13d 69c9 fcbc 7ed3 55be
00000350: aa6f eebd 690e af3e c82d ae3d 40b2 6abd
00000360: 3eb2 5bbd b06a d53d 7f6b a13d 9c02 ab3d
00000370: 5433 78b8 a8b1 53be ca3d 083e b546 003e
00000380: daa9 a63d c413 4fbd d596 813e 850d 97be
00000390: 4b2a 673d 597d 243e bec7 1f3e f52e 913c
000003a0: 2cc3 db3d de09 f93d 141d 5a3d a3f3 6cbd
000003b0: 3142 39bd d5d7 a1be 82ee f5bd 76a4 083f
000003c0: 2d3b 4e3e 801b 25be f0c6 253d b89b a2bd
000003d0: 4583 633e d99a b2be 0ab4 41be bf80 78be
000003e0: b56e a33e 6f4c 83bd 3ca8 03be 0404 b73d
000003f0: ada1 fc3d f51e 343e decc b43c 4edf 813d

base.mlp.fc1.0.bias f4 [64]
0.0044283452 -0.00089588953 0.0019199911 0.0033778204 0.0013078445 -0.00843437 -0.0010366584 -0.008987771
-0.0015602569 -0.0031948423 0.0031028278 -0.007624375 0.0032661126 -0.003161416 0.0035161916 0.0076012253
0.0022757896 -0.0019032733 0.0067117703 0.0027280762 -0.00023209587 -0.0069594337 0.0035966875 0.003831603
-0.00087225373 -0.0023025714 0.010756184 -0.0003086942 0.00194779 -0.00048971403 -0.0073632374 -0.0026620452
0.007161511 -0.0021994452 0.0012706914 0.0008836181 0.0051666694 -0.0069458373 0.0014442791 -0.003360846
-0.0038480198 -0.0068701026 -0.0030537145 0.0035808685 -0.009168145 -2.8508002e-06 -0.0032326144 0.0016366533
0.0003452499 -0.0025951988 0.00091723754 -0.000340192 -0.0036071322 -0.009776482 7.34363e-05 0.0012631713
0.0011088856 0.0028281636 -0.0056951214 -0.0040693046 0.0024048623 0.0011993564 0.008520593 0.0049482947
00000000: a71b 913b 21da 6aba 36a8 fb3a 6c5e 5d3b
00000010: fb6b ab3a 5030 0abc 7ce0 87ba 7241 13bc
00000020: 8981 ccba 8f60 51bb d058 4b3b e5d5 f9bb
00000030: 470c 563b c22f 4fbb e86f 663b b313 f93b
00000040: 6a25 153b 4177 f9ba 69ee db3b 86c9 323b
00000050: c35e 73b9 f60b e4bb 67b6 6b3b a21b 7b3b
00000060: f5a7 64ba bde6 16bb b53a 303c 3cd8 a1b9
00000070: fd4c ff3a 2760 00ba 5047 f1bb b575 2ebb
00000080: 1cab ea3b 9124 10bb 548d a63a 9ba2 673a
00000090: 2a4d a93b e899 e3bb f74d bd3a a441 5cbb
000000a0: 0f2f 7cbb 991e e1bb d420 48bb 01ad 6a3b
000000b0: fd35 16bc 6050 3fb6 45da 53bb f984 d63a
000000c0: a802 b539 3614 2abb c572 703a cc5b b2b9
000000d0: a365 6cbb 8a2d 20bc d001 9a38 ff90 a53a
000000e0: 0758 913a b658 393b 249e babb cd57 85bb
000000f0: e59a 1d3b b933 9d3a f599 0b3c 4e25 a23b

base.mlp.fc1.2.weight f4 [64]
0.99774134 0.99470377 0.9914124 0.9937228 1.0031692 1.0018404 1.0121963 0.9962802
0.9979069 1.0066559 1.0027264 1.0029736 1.0015891 1.0057214 1.0029495 0.99666315
0.9934276 0.9952947 0.9954975 0.99747473 1.0054979 1.0051395 0.9963715 1.0064989
1.0054559 1.0072496 0.99902904 1.0019004 0.99543244 1.0083632 0.9922876 0.99674785
1.0078772 0.99047136 1.000065 1.001606 0.9938414 0.9983995 1.0022943 1.0074468
1.0067085 0.9987675 0.99892485 1.0043005 1.0007854 1.0021586 1.0082021 1.004624
1.0018624 1.0015042 1.002993 0.99934405 1.0040026 0.9880867 1.0027959 1.013033
1.0050606 0.9972973 0.9963971 0.9935273 1.0020379 1.0009216 1.0046806 1.0043424
00000000: fa6b 7f3f e8a4 7e3f 34cd 7d3f 9e64 7e3f
00000010: d967 803f 4e3c 803f a68f 813f 380c 7f3f
00000020: d476 7f3f 1ada 803f 5759 803f 7061 803f
00000030: 1234 803f 7bbb 803f a660 803f 5125 7f3f
00000040: 4551 7e3f a2cb 7e3f edd8 7e3f 815a 7f3f
00000050: 28b4 803f 69a8 803f 3412 7f3f f5d4 803f
00000060: c7b2 803f 8eed 803f 5ec0 7f3f 463e 803f
00000070: a9d4 7e3f 0c12 813f 8f06 7e3f de2a 7f3f
00000080: 1f02 813f 888f 7d3f 2102 803f a034 803f
00000090: 646c 7e3f 1c97 7f3f 2e4b 803f 04f4 803f
000000a0: d3db 803f 3aaf 7f3f 8ab9 7f3f eb8c 803f
000000b0: bc19 803f bc46 803f c40c 813f 8597 803f
000000c0: 073d 803f 4a31 803f 1362 803f 03d5 7f3f
000000d0: 2883 803f 40f3 7c3f 9e5b 803f 11ab 813f
000000e0: d3a5 803f e04e 7f3f e113 7f3f ce57 7e3f
000000f0: c742 803f 331e 803f 6099 803f 4b8e 803f

base.mlp.fc1.2.bias f4 [64]
-0.0018124664 -0.000980408 0.007921022 0.0060097286 0.0012562567 -0.002314723 -0.006154354 -0.004807463
0.0022435235 0.002204897 -0.0019574033 -0.0028809432 0.0018329355 -0.00592418 0.002931194 0.006490523
0.006388306 -0.0028868227 0.004901731 0.0023240808 0.0034651079 -0.005120539 0.003561296 0.0055173687
-0.0052356906 -0.0003693294 0.0064212317 0.000100402984 0.0046128547 -0.002940883 -0.0077434857 -0.0033283343
0.0071783117 -0.002862815 0.0015145886 -0.0015121996 0.0055896617 -0.0037118366 -0.00023795255 -0.0032216066
0.0010028976 -0.00293585 -0.0019992287 0.0016426201 -0.003281295 0.0022279676 0.002746777 0.00035128184
0.0013737282 -0.004995709 0.0031465278 -0.0006771775 -0.004035946 -0.011116193 0.0027627153 0.004011231
0.00235706 0.0028359613 -0.0044292086 -0.0059961593 -0.0021393434 -0.0007659297 0.005321337 0.004675971
00000000: 4890 edba 0981 80ba 2dc7 013c 42ed c43b
00000010: fba8 a43a 9cb2 17bb 77aa c9bb ec87 9dbb
00000020: 1408 133b 0980 103b c747 00bb 35ce 3cbb
00000030: 1c3f f03a a01f c2bb 4619 403b 74ae d43b
00000040: ff54 d13b d930 3dbb b39e a03b 9b4f 183b
00000050: dd16 633b 32ca a7bb a264 693b 0bcb b43b
00000060: 2890 abbb 8ea2 c1b9 3269 d23b 718f d238
00000070: 6e27 973b d4bb 40bb 11bd fdbb 2f20 5abb
00000080: 0b38 eb3b 119e 3bbb 2985 c63a 0035 c6ba
00000090: 7b29 b73b 4942 73bb e782 79b9 9721 53bb
000000a0: a973 833a 6467 40bb 7e05 03bb 2f4d d73a
000000b0: ff0a 57bb 1803 123b 4503 343b 402c b839
000000c0: ab0e b43a 0bb3 a3bb fa35 4e3b 9d84 31ba
000000d0: f83f 84bb b120 36bc ac0e 353b a570 833b
000000e0: e878 1a3b 89db 393b e522 91bb 6e7b c4bb
000000f0: 3a34 0cbb acc8 48ba 9c5e ae3b e338 993b

base.mlp.fc_h.0.weight f4 [64, 64]
0.0653698 -0.0009946296 0.1109811 -0.10657542 -0.06793037 -0.430319 0.06546122 0.0135309
-0.40569228 0.10214876 0.10283698 0.28833777 -0.21610992 0.3774704 0.13338411 0.4098967
0.023812952 -0.20986043 0.17426448 0.2046124 -0.16824523 0.20473877 0.10792373 -0.17749617
-0.04031487 0.03762425 -0.004585409 -0.24052516 -0.117000975 -0.4261859 -0.03722738 -0.13426307
-0.029370306 -0.44051483 -0.06675823 -0.22015089 0.0007228316 0.17088145 0.38715005 0.3001411
0.21167071 -0.1701056 -0.16318904 -0.05691998 -0.5158353 -0.24654251 -0.33688357 -0.116549656
-0.27069566 0.19434057 0.22715342 -0.16690941 0.090197355 -0.046969622 0.068909 -0.25513864
-0.034774516 0.034861512 0.107019044 -0.0074563012 -0.015005595 -0.01337488 -0.21524452 -0.0073045846
0.004039687 0.018215377 -0.093741216 -0.067006774 0.27218696 -0.3307622 0.3252597 0.008223422
0.13358782 -0.22390656 0.045338746 -0.09100443 0.01769555 0.21441744 0.767479 -0.1468203
0.042124562 0.20617773 0.08813831 -0.082853 -0.13090323 0.1470696 0.06316461 0.091366604
-0.015031566 -0.14513442 -0.22951522 0.4087166 0.306203 -0.0026207396 0.11203105 -0.10172655
0.3064786 -0.10648525 -0.03888169 0.12966722 0.12787509 -0.20715429 -0.19724935 -0.10718528
0.15178563 -0.020499634 0.2494308 -0.2959274 -0.3371089 -0.24109386 -0.16037844 0.085706435
0.060012195 -0.20431472 -0.16124482 0.113856405 0.027126914 0.037299436 0.13855436 0.05433088
-0.0180838 0.13284288 -0.005486766 -0.4797084 0.15059406 -0.30583844 0.39616144 0.17523351
-0.106998645 0.11449825 0.30641058 -0.07037807 0.12398618 0.547195 -0.36839578 -0.060506113
0.15304236 -0.006549574 -0.32336906 0.4669638 -0.21158086 0.24051884 0.05495595 -0.025315873
0.027069423 -0.13125831 0.056143675 -0.10440186 0.106610306 0.10408925 0.14391573 -0.072177075
-0.13074856 -0.050605386 -0.37444937 0.0761288 0.29833293 0.11904588 -0.32107213 0.13500796
-0.07328155 -0.055111818 0.3710528 0.025891291 0.22826219 0.23743649 0.06499791 0.14153616
0.30812484 0.24148436 0.27459845 0.17946286 0.050716765 -0.22238643 0.18111655 0.107749775
-0.37522522 -0.0009303338 -0.23965545 0.15642378 -0.2518257 0.0045095272 0.3342262 -0.12626393
-0.17315814 -0.21236543 -0.1625957 -0.18279752 0.11756499 -0.10939399 -0.25440937 -0.038977787
0.021825342 0.07640773 -0.22712824 0.3543653 0.059376873 0.16701673 -0.037406575 0.35481295
0.004395503 0.063727416 -0.008471375 -0.29062343 0.15006277 0.40940407 0.1990918 -0.15753198
0.005498256 -0.009135748 0.3806119 -0.010814566 -0.082354024 0.4683512 -0.20649704 -0.087037094
-0.064480364 -0.29700214 -0.09987182 -0.29083458 -0.056810305 -0.15119255 -0.37412438 0.41311327
0.11148157 0.25462046 -0.014577666 -0.347591 0.18344167 0.027798764 0.23916923 -0.09823386
-0.20150584 -0.4273692 0.15923926 -0.08845755 0.32892305 -0.100919314 0.16531324 -0.11552408
-0.007768034 0.109907694 -0.1902359 -0.107435696 -0.034560077 0.19835123 -0.07220763 -0.0007846812
0.057883218 0.15521318 0.27155215 0.104744256 -0.36743826 -0.25234297 0.018589757 -0.12425645
00000000: 9ae0 853d 3b5e 82ba 0f4a e33d 3744 dabd
00000010: 141f 8bbd c652 dcbe 8810 863d b5b0 5d3c
00000020: e6b6 cfbe 5e33 d13d 329c d23d 02a1 933e
00000030: eb4b 5dbe cd43 c13e d895 083e fbdd d13e
00000040: 6113 c33c a7e5 56be 6372 323e ea85 513e
00000050: 7a48 2cbe 0aa7 513e 1e07 dd3d 8ec1 35be
00000060: 3521 25bd e31b 1a3d 3341 96bb 3a4c 76be
00000070: 359e efbd 0a35 dabe bd7b 18bd 427c 09be
00000080: ff99 f0bc 298b e1be 8ab8 88bd 3c6f 61be
00000090: 687c 3d3a 8cfb 2e3e 8838 c63e 18ac 993e
000000a0: 35c0 583e 2a30 2ebe 071b 27be ed24 69bd
000000b0: c80d 04bf a475 7cbe 017c acbe 96b1 eebd
000000c0: 9f98 8abe 3701 473e e89a 683e 4dea 2abe
000000d0: 64b9 b83d 3863 40bd 2920 8d3d 88a1 82be
000000e0: b96f 0ebd f2ca 0e3d cd2c db3d fd53 f4bb
000000f0: 07da 75bc 5022 5bbc 0f69 5cbe 4c5b efbb
00000100: 5a5f 843b 6a38 953c 65fb bfbd d93a 89bd
00000110: 175c 8b3e aa59 a9be 7088 a63e 88bb 063c
00000120: 3fcb 083e c347 65be 1fb5 393d 8860 babd
00000130: 42f6 903c 3f90 5b3e 8179 443f 1058 16be
00000140: ce8a 2c3d 4120 533e dc81 b43d d5ae a9bd
00000150: 7f0b 06be 6a99 163e 725c 813d 6a1e bb3d
00000160: f546 76bc 1e9e 14be 0a06 6bbe 4d43 d13e
00000170: a4c6 9c3e b7c0 2bbb 8970 e53d 0256 d0bd
00000180: c3ea 9c3e f014 dabd 6842 1fbd 7cc7 043e
00000190: b0f1 023e 4120 54be bcfb 49be f583 dbbd
000001a0: b16d 1b3e d9ee a7bc ca6a 7f3e cc83 97be
000001b0: 8a99 acbe 4fe1 76be 3f3a 24be db86 af3d
000001c0: 59cf 753d e137 51be 5d1d 25be 8c2d e93d
000001d0: 4339 de3c 4bc7 183d 32e1 0d3e 0f8a 5e3d
000001e0: 7a24 94bc f707 083e 54ca b3bb 579c f5be
000001f0: 5435 1a3e db96 9cbe acd5 ca3e 6a70 333e
00000200: 1b22 dbbd 0f7e ea3d d9e1 9c3e 6122 90bd
00000210: 77ec fd3d f914 0c3f 5f9e bcbe 42d5 77bd
00000220: 23b7 1c3e cf9d d6bb a190 a5be e115 ef3e
00000230: a7a8 58be 924a 763e 7d19 613d 3c63 cfbc
00000240: b2c0 dd3c 9468 06be e9f6 653d a4d0 d5bd
00000250: 8156 da3d bf2c d53d a55e 133e 93d1 93bd
00000260: f3e2 05be 9847 4fbd d4b7 bfbe 6be9 9b3d
00000270: 18bf 983e 54ce f33d 9163 a4be 873f 0a3e
00000280: a314 96bd eebc 61bd a2fa bd3e f919 d43c
00000290: 90bd 693e 8d22 733e a01d 853d dbee 103e
000002a0: 8ac2 9d3e ad47 773e 2b98 8c3e 1dc5 373e
000002b0: 62bc 4f3d 45b9 63be 9e76 393e eaab dc3d
000002c0: 851d c0be a5e1 73ba 3d68 75be 8e2d 203e
000002d0: 4cef 80be a8c4 933b b21f ab3e 554b 01be
000002e0: 5e50 31be 5376 59be 7d7f 26be 462f 3bbe
000002f0: eac5 f03d f509 e0bd f241 82be 2ca7 1fbd
00000300: 0fcb b23c a87b 9c3d 4e94 68be 5e6f b53e
00000310: 2a35 733d 6f06 2b3e a337 19bd 0baa b53e
00000320: 2708 903b 8583 823d 86cb 0abc 98cc 94be
00000330: 0eaa 193e 699d d13e b9de 4b3e 1050 21be
00000340: b72a b43b 1bae 15bc 90df c23e 942f 31bc
00000350: 3aa9 a8bd bacb ef3e f673 53be 8140 b2bd
00000360: 480e 84bd aa10 98be 9989 ccbd 45e8 94be
00000370: ecb1 68bd 38d2 1abe 3b8d bfbe 9583 d33e
00000380: 7350 e43d 9d5d 823e 2ad7 6ebc 73f7 b1be
00000390: 22d8 3b3e 3cba e33c c7e8 743e d62e c9bd
000003a0: 8c57 4ebe 23d0 dabe 9e0f 233e 3b29 b5bd
000003b0: 9a68 a83e c9ae cebd e047 293e e497 ecbd
000003c0: fe8a febb 4917 e13d 33cd 42be 3f07 dcbd
000003d0: de8e 0dbd 961c 4b3e 98e1 93bd 10b3 4dba
000003e0: f416 6d3d 34f0 1e3e e208 8b3e 2884 d63d
000003f0: de20 bcbe 1933 81be 8c49 983c 2a7a febd

base.mlp.fc_h.0.bias f4 [64]
0.0 0.0 0.0 0.0 0.0 0.0 0.0 0.0
0.0 0.0 0.0 0.0 0.0 0.0 0.0 0.0
0.0 0.0 0.0 0.0 0.0 0.0 0.0 0.0
0.0 0.0 0.0 0.0 0.0 0.0 0.0 0.0
0.0 0.0 0.0 0.0 0.0 0.0 0.0 0.0
0.0 0.0 0.0 0.0 0.0 0.0 0.0 0.0
0.0 0.0 0.0 0.0 0.0 0.0 0.0 0.0
0.0 0.0 0.0 0.0 0.0 0.0 0.0 0.0
00000000: 0000 0000 0000 0000 0000 0000 0000 0000
00000010: 0000 0000 0000 0000 0000 0000 0000 0000
00000020: 0000 0000 0000 0000 0000 0000 0000 0000
00000030: 0000 0000 0000 0000 0000 0000 0000 0000
00000040: 0000 0000 0000 0000 0000 0000 0000 0000
00000050: 0000 0000 0000 0000 0000 0000 0000 0000
00000060: 0000 0000 0000 0000 0000 0000 0000 0000
00000070: 0000 0000 0000 0000 0000 0000 0000 0000
00000080: 0000 0000 0000 0000 0000 0000 0000 0000
00000090: 0000 0000 0000 0000 0000 0000 0000 0000
000000a0: 0000 0000 0000 0000 0000 0000 0000 0000
000000b0: 0000 0000 0000 0000 0000 0000 0000 0000
000000c0: 0000 0000 0000 0000 0000 0000 0000 0000
000000d0: 0000 0000 0000 0000 0000 0000 0000 0000
000000e0: 0000 0000 0000 0000 0000 0000 0000 0000
000000f0: 0000 0000 0000 0000 0000 0000 0000 0000

base.mlp.fc_h.2.weight f4 [64]
1.0 1.0 1.0 1.0 1.0 1.0 1.0 1.0
1.0 1.0 1.0 1.0 1.0 1.0 1.0 1.0
1.0 1.0 1.0 1.0 1.0 1.0 1.0 1.0
1.0 1.0 1.0 1.0 1.0 1.0 1.0 1.0
1.0 1.0 1.0 1.0 1.0 1.0 1.0 1.0
1.0 1.0 1.0 1.0 1.0 1.0 1.0 1.0
1.0 1.0 1.0 1.0 1.0 1.0 1.0 1.0
1.0 1.0 1.0 1.0 1.0 1.0 1.0 1.0
00000000: 0000 803f 0000 803f 0000 803f 0000 803f
00000010: 0000 803f 0000 803f 0000 803f 0000 803f
00000020: 0000 803f 0000 803f 0000 803f 0000 803f
00000030: 0000 803f 0000 803f 0000 803f 0000 803f
00000040: 0000 803f 0000 803f 0000 803f 0000 803f
00000050: 0000 803f 0000 803f 0000 803f 0000 803f
00000060: 0000 803f 0000 803f 0000 803f 0000 803f
00000070: 0000 803f 0000 803f 0000 803f 0000 803f
00000080: 0000 803f 0000 803f 0000 803f 0000 803f
00000090: 0000 803f 0000 803f 0000 803f 0000 803f
000000a0: 0000 803f 0000 803f 0000 803f 0000 803f
000000b0: 0000 803f 0000 803f 0000 803f 0000 803f
000000c0: 0000 803f 0000 803f 0000 803f 0000 803f
000000d0: 0000 803f 0000 803f 0000 803f 0000 803f
000000e0: 0000 803f 0000 803f 0000 803f 0000 803f
000000f0: 0000 803f 0000 803f 0000 803f 0000 803f

base.mlp.fc_h.2.bias f4 [64]
0.0 0.0 0.0 0.0 0.0 0.0 0.0 0.0
0.0 0.0 0.0 0.0 0.0 0.0 0.0 0.0
0.0 0.0 0.0 0.0 0.0 0.0 0.0 0.0
0.0 0.0 0.0 0.0 0.0 0.0 0.0 0.0
0.0 0.0 0.0 0.0 0.0 0.0 0.0 0.0
0.0 0.0 0.0 0.0 0.0 0.0 0.0 0.0
0.0 0.0 0.0 0.0 0.0 0.0 0.0 0.0
0.0 0.0 0.0 0.0 0.0 0.0 0.0 0.0
00000000: 0000 0000 0000 0000 0000 0000 0000 0000
00000010: 0000 0000 0000 0000 0000 0000 0000 0000
00000020: 0000 0000 0000 0000 0000 0000 0000 0000
00000030: 0000 0000 0000 0000 0000 0000 0000 0000
00000040: 0000 0000 0000 0000 0000 0000 0000 0000
00000050: 0000 0000 0000 0000 0000 0000 0000 0000
00000060: 0000 0000 0000 0000 0000 0000 0000 0000
00000070: 0000 0000 0000 0000 0000 0000 0000 0000
00000080: 0000 0000 0000 0000 0000 0000 0000 0000
00000090: 0000 0000 0000 0000 0000 0000 0000 0000
000000a0: 0000 0000 0000 0000 0000 0000 0000 0000
000000b0: 0000 0000 0000 0000 0000 0000 0000 0000
000000c0: 0000 0000 0000 0000 0000 0000 0000 0000
000000d0: 0000 0000 0000 0000 0000 0000 0000 0000
000000e0: 0000 0000 0000 0000 0000 0000 0000 0000
000000f0: 0000 0000 0000 0000 0000 0000 0000 0000

base.mlp.fc2.0.0.weight f4 [64, 64]
0.07191294 0.0064715333 0.104133874 -0.11335921 -0.06807682 -0.43501753 0.059024643 0.019133274
-0.4124974 0.1072252 0.09594891 0.2815938 -0.20958763 0.3706549 0.13993125 0.41136354
0.017015418 -0.20558245 0.16801107 0.19831146 -0.16213472 0.19796988 0.10124416 -0.17112799
-0.047537263 0.03456975 -0.007189072 -0.23462903 -0.12377486 -0.43112856 -0.031110257 -0.12768872
-0.027696187 -0.4362513 -0.064067625 -0.22693875 -0.005835748 0.17572652 0.39395672 0.30325413
0.21865399 -0.16502129 -0.156782 -0.05889021 -0.5138533 -0.23994754 -0.33054444 -0.121797726
-0.26825672 0.1968359 0.23371063 -0.16031785 0.083412714 -0.04066989 0.07549991 -0.26251283
-0.04038041 0.0280408 0.11144749 -0.0010030669 -0.021071726 -0.020037023 -0.20975424 -0.0008439914
0.010426047 0.016362442 -0.099992365 -0.07346683 0.26404443 -0.322521 0.32117957 0.015026904
0.12713903 -0.21862625 0.039724197 -0.09765132 0.024295319 0.20799473 0.7739875 -0.15415648
0.03567117 0.21270424 0.081503384 -0.08947225 -0.12604044 0.14061138 0.056774277 0.09630667
-0.021544103 -0.13766521 -0.2364012 0.41325074 0.29986483 -0.007621779 0.11848367 -0.095198154
0.3104594 -0.10075995 -0.044080134 0.12324689 0.1215871 -0.20031981 -0.19800954 -0.11252616
0.15222505 -0.013125448 0.2554138 -0.3019842 -0.33048198 -0.23458123 -0.16650012 0.08042311
0.052517295 -0.21036842 -0.1547679 0.12036557 0.020696312 0.04398898 0.14505506 0.0612193
-0.010848745 0.12633634 0.0020825462 -0.47364175 0.14420077 -0.31177828 0.40242288 0.1812386
-0.10141967 0.122780286 0.30017883 -0.076424256 0.12240771 0.54831165 -0.37552452 -0.055864763
0.14697503 -0.00492341 -0.33017528 0.460862 -0.20580477 0.2344219 0.060687263 -0.020348262
0.021024814 -0.12567845 0.050886318 -0.110141516 0.11286651 0.09801401 0.13782032 -0.06596666
-0.13689339 -0.04746021 -0.37611336 0.08242604 0.29224437 0.11789738 -0.31534573 0.14074792
-0.07906439 -0.048585266 0.37601593 0.019844377 0.22196962 0.24253882 0.07113213 0.15066856
0.3157478 0.2468316 0.28035554 0.18239368 0.05307045 -0.21662559 0.18804656 0.10296818
-0.37711406 0.006452042 -0.23387837 0.16218752 -0.25788987 0.009654988 0.33999497 -0.13159703
-0.17569192 -0.21840909 -0.157975 -0.17676327 0.1119796 -0.11563132 -0.24968304 -0.032790575
0.020736288 0.069038026 -0.2242283 0.3559782 0.05291441 0.1766488 -0.03306514 0.35680693
0.0060032234 0.06337752 -0.0036404012 -0.28979513 0.14959973 0.41116178 0.19832161 -0.15893786
0.007170118 -0.009061042 0.38039118 -0.010085725 -0.08614092 0.46980575 -0.20479174 -0.09543139
-0.062611386 -0.28824642 -0.106576905 -0.29384488 -0.05472174 -0.14951673 -0.3743847 0.41231197
0.10937032 0.24976547 -0.022307714 -0.34593368 0.18648668 0.03154579 0.2256237 -0.108600155
-0.2124487 -0.42460924 0.15687917 -0.093693234 0.3358192 -0.10180205 0.15188989 -0.10514531
-0.017101223 0.101566 -0.19128026 -0.10832804 -0.032901857 0.19849475 -0.07310126 0.011526033
0.06882224 0.15673889 0.2734812 0.10300668 -0.36723828 -0.24987009 0.019581962 -0.1279028
00000000: 1747 933d 280f d43b 2444 d53d e028 e8bd
00000010: dc6b 8bbd 9eba debe d3c3 713d 62bd 9c3c
00000020: dc32 d3be e398 db3d dd80 c43d 102d 903e
00000030: 249e 56be 7bc6 bd3e 234a 0f3e 3e9e d23e
00000040: eb63 8b3c 3584 52be 180b 2c3e 2912 4b3e
00000050: a506 26be 9eb8 4a3e 1959 cf3d 2d3c 2fbe
00000060: 6fb6 42bd 0399 0d3d 4f92 ebbb 9842 70be
00000070: ac7d fdbd e2bc dcbe f0da febc d5c0 02be
00000080: 1de3 e2bc 555c dfbe e335 83bd a262 68be
00000090: cd39 bfbb a7f1 333e b2b4 c93e 2044 9b3e
000000a0: d5e6 5f3e 57fb 28be 768b 20be dc36 71bd
000000b0: e48b 03bf cfb4 75be 1f3d a9be 1671 f9bd
000000c0: f258 89be 5a8f 493e d751 6f3e 5d2a 24be
000000d0: 49d4 aa3d 7895 26bd b29f 9a3d 1568 86be
000000e0: ee65 25bd d2b5 e53c 953e e43d 5779 83ba
000000f0: 9d9e acbc af24 a4bc d1c9 56be 4e3f 5dba
00000100: 03d2 2a3c 870a 863c ccc8 ccbd c775 96bd
00000110: d530 873e 7921 a5be a671 a43e 6733 763c
00000120: bc30 023e 8fdf 5fbe d7b5 223d 6afd c7bd
00000130: fa06 c73c 92fc 543e 0b24 463f 32db 1dbe
00000140: ef1b 123d 24cf 593e 3feb a63d 3a3d b7bd
00000150: bf10 01be 6efc 0f3e 258c 683d 6e3c c53d
00000160: 427d b0bc 1cf8 0cbe 2813 72be 9a95 d33e
00000170: e287 993e 1ec0 f9bb 91a7 f23d 40f7 c2bd
00000180: 89f4 9e3e 3c5b cebd 5f8d 34bd de68 fc3d
00000190: a802 f93d a320 4dbe 03c3 4abe 1e74 e6bd
000001a0: e2e0 1b3e 1e0c 57bc 99c5 823e ac9d 9abe
000001b0: ef34 a9be 1036 70be 027f 2abe dfb4 a43d
000001c0: 601c 573d d26a 57be 7a7b 1ebe 3982 f63d
000001d0: 508b a93c ca2d 343d 5089 143e 17c1 7a3d
000001e0: efbe 31bc 505e 013e 547b 083b 2c81 f2be
000001f0: 5ea9 133e 67a1 9fbe 5f0a ce3e 9d96 393e
00000200: 1eb5 cfbd 3b74 fb3d 0ab1 993e 5284 9cbd
00000210: e5b0 fa3d 275e 0c3f c044 c0be 73d2 64bd
00000220: 9f80 163e 8e54 a1bb bc0c a9be 1bf6 eb3e
00000230: 7cbe 52be 4b0c 703e 3593 783d 66b1 a6bc
00000240: 3b3c ac3c dab1 00be 2c6e 503d e091 e1bd
00000250: 8f26 e73d 92bb c83d c520 0d3e 8719 87bd
00000260: c82d 0cbe a365 42bd ee91 c0be fcce a83d
00000270: 0ea1 953e 2e74 f13d ff74 a1be 3920 103e
00000280: 83ec a1bd 5801 47bd 2985 c03e ad90 a23c
00000290: 014c 633e 195c 783e b9ad 913d dc48 1a3e
000002a0: b2a9 a13e 6cc1 7c3e c38a 8f3e 69c5 3a3e
000002b0: 6660 593d 19d3 5dbe 478f 403e fbe0 d23d
000002c0: 1815 c1be a76b d33b d07d 6fbe 7c14 263e
000002d0: 240a 84be f42f 1e3c d213 ae3e 5fc1 06be
000002e0: 95e8 33be a2a6 5fbe 33c4 21be 6e01 35be
000002f0: 8f55 e53d 1dd0 ecbd e9ac 7fbe 694f 06bd
00000300: 26df a93c cf63 8d3d 1a9c 65be c642 b63e
00000310: c8bc 583d 6ce3 343e 506f 07bd 66af b63e
00000320: b0b6 c43b 13cc 813d cc93 6ebb 0760 94be
00000330: ac30 193e cc83 d23e d214 4b3e 9bc0 22be
00000340: 4ff3 ea3b c474 14bc a2c2 c23e 993e 25bc
00000350: a76a b0bd 618a f03e edb4 51be 8871 c3bd
00000360: 663a 80bd 0995 93be fe44 dabd d672 96be
00000370: e723 60bd ea1a 19be 5aaf bfbe 8e1a d33e
00000380: 8cfd df3d 85c2 7f3e abbe b6bc 381e b1be
00000390: 5df6 3e3e 2936 013d e609 673e c269 debd
000003a0: 278c 59be 6266 d9be efa4 203e 3de2 bfbd
000003b0: 7ff0 ab3e 987d d0bd 0689 1b3e 6d56 d7bd
000003c0: dd17 8cbc d601 d03d f9de 43be 17db ddbd
000003d0: 19c4 06bd 3542 4b3e 1db6 95bd b0d7 3c3c
000003e0: adf2 8c3d 2980 203e ba05 8c3e 2bf5 d23d
000003f0: a806 bcbe f2dd 7fbe 5a6a a03c f4f8 02be

base.mlp.fc2.0.0.bias f4 [64]
0.0062911226 0.006415602 0.0057099354 -0.001095118 0.009462548 0.0007046059 -9.46172e-05 -0.0015721665
0.010404947 0.0050986763 -0.00165471 -0.0011108749 0.0017472878 -0.0018971532 -0.0008180121 0.00849377
0.0037194004 0.0019082961 -0.0030962152 0.00055403105 -0.00018707842 -0.0037578193 -0.004670052 0.00079704355
-9.404651e-05 -0.0007838116 -0.0015190091 -0.0017606883 -0.0032505714 -0.00296363 0.000296768 5.96117e-05
-0.0034535758 -0.0020564892 0.004643576 0.002652093 -0.003406107 0.0032998992 0.003778218 0.0067242803
0.002309345 -0.0025814075 0.0025786012 0.0037393929 0.0035395054 -0.004384705 0.00070682244 -4.3247845e-05
-0.00093580905 0.004452514 -0.010044869 0.00026627202 -0.004020247 -0.0010837038 -0.0036519724 -0.002218948
-0.0044923364 0.0033053316 -0.0006581434 -0.0003240166 0.0004814267 -0.0032155442 0.00056188565 0.0049885814
00000000: c325 ce3b f839 d23b 691a bb3b 108a 8fba
00000010: ce08 1b3c 4db5 383a 396d c6b8 2711 ceba
00000020: 8379 2a3c cc12 a73b dbe2 d8ba c79a 91ba
00000030: 4005 e53a e6a9 f8ba dd6f 56ba 7429 0b3c
00000040: 2fc1 733b cb1f fa3a dfe9 4abb 653c 113a
00000050: 7b2a 44b9 bf45 76bb 3c07 99bb b0f0 503a
00000060: d63a c5b8 b578 4dba 7d19 c7ba e5c6 e6ba
00000070: 8a07 55bb 7639 42bb 8797 9b39 9307 7a38
00000080: 6355 62bb 2ac6 06bb 2429 983b bdce 2d3b
00000090: fe38 5fbb 1f43 583b fb9b 773b 5a57 dc3b
000000a0: 6158 173b d52c 29bb c0fd 283b 9a10 753b
000000b0: 0cf7 673b 92ad 8fbb 0d4a 393a 0565 35b8
000000c0: 1551 75ba 65e6 913b 3c93 24bc 6d9a 8b39
000000d0: 47bc 83bb 110b 8eba ee55 6fbb c56b 11bb
000000e0: 7334 93bb 439e 583b 4287 2cba c6e0 a9b9
000000f0: ff67 fc39 e1bb 52bb 824b 133a 4177 a33b

base.mlp.fc2.0.2.weight f4 [64]
1.0027821 0.9922843 1.0014142 1.0008081 1.0103325 1.0030537 0.9929521 0.99522054
0.9964473 1.0005965 0.99256253 0.9976933 0.9998792 1.0022018 1.0010493 0.9925728
0.9970817 0.99715614 1.002821 1.0004462 0.9957888 1.0016603 0.9987752 0.99157727
0.9999008 1.0037811 1.0021822 0.99155086 1.008117 1.0039748 1.0067719 0.99335885
1.0021915 0.99280655 1.0010364 0.9980113 0.99195594 1.0003307 1.0005815 0.99857414
0.99996364 0.99764025 0.99752516 1.0038548 0.9975779 1.0012642 1.0054402 1.0015289
1.0043947 0.9936642 0.9934421 1.004921 0.9957007 1.0098659 0.9968084 1.0018754
0.99707484 0.9949606 0.9946827 1.002707 0.99831825 0.9966957 1.0013556 1.0016754
00000000: 2a5b 803f 5806 7e3f 572e 803f 7b1a 803f
00000010: 9352 813f 1064 803f 1c32 7e3f c6c6 7e3f
00000020: 2c17 7f3f 8c13 803f 9418 7e3f d468 7f3f
00000030: 15f8 7f3f 2648 803f 6222 803f 4019 7e3f
00000040: bf40 7f3f a045 7f3f 705c 803f 9f0e 803f
00000050: 04ec 7e3f 6836 803f bbaf 7f3f 02d8 7d3f
00000060: 80f9 7f3f e67b 803f 8247 803f 47d6 7d3f
00000070: fa09 813f 3f82 803f e7dd 803f c44c 7e3f
00000080: d047 803f 9228 7e3f f621 803f ab7d 7f3f
00000090: d3f0 7d3f d60a 803f 0e13 803f 8ea2 7f3f
000000a0: 9efd 7f3f 5a65 7f3f cf5d 7f3f 507e 803f
000000b0: 4461 7f3f 6d29 803f 44b2 803f 1932 803f
000000c0: 0190 803f c760 7e3f 3952 7e3f 40a1 803f
000000d0: 3ee6 7e3f 4943 813f d62e 7f3f 743d 803f
000000e0: 4c40 7f3f bdb5 7e3f 87a3 7e3f b458 803f
000000f0: c991 7f3f 7327 7f3f 6c2c 803f e636 803f

base.mlp.fc2.0.2.bias f4 [64]
-0.0021985073 0.004856395 -0.000862122 0.000640683 0.0042996383 0.0014527917 -0.006832799 -0.0045321537
0.0074145664 0.00088986306 -0.0017448954 -0.0022503696 0.00027801495 -0.0017826554 -0.00051874854 0.008334623
0.0030814987 0.0011146495 -0.002742336 0.00057862245 -0.0040522935 -0.0012426715 -0.001835718 -0.008108096
9.34209e-05 0.0016712127 -0.0017788995 -0.00844877 -0.0044101942 0.0021291776 -0.0029497375 -0.0061075496
-0.0017725434 -0.0030316936 -0.00052109984 -0.0018286206 -0.0058491123 0.0010630012 -0.00045167466 0.006665432
0.0032750035 -0.00081213453 0.0027672015 0.0038165671 0.0022049467 -0.0024130635 -0.0024748256 -0.0010853902
0.0015309495 0.006541436 -0.006721671 0.002444169 -0.005487547 -0.0011059026 -0.0029109323 -0.0030702848
-0.0037422788 0.002904095 -0.0051638247 0.001576317 -0.0016527072 -0.0022416557 0.0015514427 -0.00079424906
00000000: d514 10bb 6522 9f3b 0700 62ba 82f3 273a
00000010: fbe3 8c3b 9a6b be3a ace5 dfbb 7682 94bb
00000020: e4f5 f23b b345 693a f9b4 e4ba f07a 13bb
00000030: 89c2 9139 fda7 e9ba a0fc 07ba f18d 083c
00000040: f8f2 493b 6e19 923a c3b8 33bb b2ae 173a
00000050: 1ac9 84bb 23e1 a2ba 7a9c f0ba d2d7 04bc
00000060: f7ea c338 980c db3a f629 e9ba b66c 0abc
00000070: 6483 90bb ac89 0b3b 6250 41bb d721 c8bb
00000080: b054 e8ba 61af 46bb 6b9a 08ba 53ae efba
00000090: e9a9 bfbb 6754 8b3a bfce ecb9 b269 da3b
000000a0: 71a1 563b 6de5 54ba f059 353b 5f1f 7a3b
000000b0: de80 103b 7d24 1ebb af30 22bb a743 8eba
000000c0: 24aa c83a 8b59 d63b 7741 dcbb 5a2e 203b
000000d0: e1d0 b3bb eff3 90ba 57c5 3ebb d536 49bb
000000e0: 0541 75bb a152 3e3b 4d35 a9bb 6c9c ce3a
000000f0: a79f d8ba bee8 12bb c759 cb3a 2735 50ba

act.action_out.fc_mean.weight f4 [2, 64]
0.0072613033 -0.0026463077 0.0047896476 -0.0050041494 0.0095766615 0.010678259 -0.002816128 -0.003585514
0.004701203 -0.0019161924 0.00012437147 -0.003625132 -0.0036358277 0.0038866932 -0.009589276 0.0039216634
0.0039418587 -0.000624992 0.004140152 -0.0040076263 -0.0022154117 0.0029997656 -0.003693723 -0.0040748115
-0.0028343294 -0.0069800704 0.00525857 -0.0010857793 -0.011414701 -0.005823804 0.0045651626 -0.00063041534
-0.007953925 -0.0058472236 0.0045852275 -0.0024734081 -0.0020245702 0.0039991187 0.0043043983 -0.0038523448
0.006466201 0.000587935 0.00236171 -0.0056201965 0.0019663498 0.0039255335 0.0016384788 0.003695564
0.009985611 0.0025786594 -0.003993977 -0.0040696748 0.0011321185 -0.013785293 -0.0025958552 0.006789423
-0.0027868731 0.00344584 -0.0019773692 -0.004812579 -0.0017985133 -0.0004471617 -0.0035333356 0.00534425
-0.004838183 0.0040215235 -0.004800735 0.004272394 0.012879859 0.0044732234 0.003155741 0.0031641405
0.0018421933 0.0061175018 -0.0006743462 0.00403206 0.004133639 -0.0060506715 -0.004819008 -0.0027024625
-0.0042849774 0.0024750032 -0.008082456 0.0043382267 0.0042943154 -0.0062691956 0.0045812842 0.0020064344
0.0047367085 0.004819103 -0.005222925 0.0023816535 -0.0036525396 0.0063796374 -0.010439445 0.0033790867
-0.0026148008 0.0015034351 -0.004426243 0.004719994 0.0003089355 0.003371062 -0.004101073 0.006092535
-0.00026847163 -0.0031575286 -0.005436939 0.0053587537 -0.0052182544 -0.00576952 -0.009672592 -0.0054653194
0.0042986586 -0.0036944407 0.0023730597 0.010161986 -0.0025202946 -0.004620951 0.004381152 -0.00069042767
0.005237749 -0.002458814 0.0039904537 -0.0056288186 0.00549218 0.0056544933 0.0053694407 -0.00479789
00000000: 3af0 ed3b ad6d 2dbb 7af2 9c3b d9f9 a3bb
00000010: 6ee7 1c3c ddf3 2e3c ca8e 38bb f1fa 6abb
00000020: 8d0c 9a3b bf28 fbba b669 0239 9f93 6dbb
00000030: 1147 6ebb e4b7 7e3b 571c 1dbc 4c81 803b
00000040: b52a 813b 81d6 23ba 1daa 873b 6852 83bb
00000050: 7130 11bb b797 443b 6312 72bb ff85 85bb
00000060: 28c0 39bb 13b9 e4bb 1550 ac3b b550 8eba
00000070: ba04 3bbc 9cd5 bebb 5c97 953b 7542 25ba
00000080: 2e51 02bc 119a bfbb ad3f 963b e718 22bb
00000090: a7ae 04bb 0a0b 833b e90b 8d3b 9f77 7cbb
000000a0: 6de2 d33b a61f 1a3a ebc6 1a3b a029 b8bb
000000b0: e0dd 003b c3a1 803b 3ac2 d63a 4731 723b
000000c0: b09a 233c bafe 283b e8df 82bb e85a 85bb
000000d0: 9863 943a b6db 61bc 391f 2abb cf79 de3b
000000e0: f9a3 36bb 9ad3 613b c096 01bb d7b2 9dbb
000000f0: 18bc ebba 0771 eab9 898f 67bb d11e af3b
00000100: 9f89 9ebb fcc6 833b 7c4f 9dbb 70ff 8b3b
00000110: 0b06 533c 1e94 923b 8cd0 4e3b 785d 4f3b
00000120: c075 f13a 5375 c83b 9cc6 30ba 5f1f 843b
00000130: 7a73 873b b644 c6bb c5e8 9dbb cc1b 31bb
00000140: ff68 8cbb aa33 223b 476c 04bc af27 8e3b
00000150: 54b7 8c3b d36d cdbb 991e 963b 627e 033b
00000160: 6436 9b3b 91e9 9d3b 1225 abbb 8415 1c3b
00000170: 725f 6fbb 470c d13b 350a 2bbc ab73 5d3b
00000180: 145d 2bbb e90e c53a 040a 91bb 2eaa 9a3b
00000190: 9ff8 a139 09ed 5c3b 4b62 86bb e3a3 c73b
000001a0: a7c1 8cb9 8aee 4ebb 5a28 b2bb 7c98 af3b
000001b0: e4fd aabb 3e0e bdbb cb79 1ebc 6c16 b3bb
000001c0: c3db 8c3b 6e1e 72bb 5685 1b3b 757e 263c
000001d0: 872b 25bb 596b 97bb c48f 8f3b d1fd 34ba
000001e0: 6ca1 ab3b 0e24 21bb 5ac2 823b f471 b8bb
000001f0: bff7 b33b 5449 b93b 22f2 af3b 9e37 9dbb

act.action_out.fc_mean.bias f4 [2]
-0.0033064743 0.0045441105
00000000: 6fb1 58bb c3e6 943b

act.action_out.logstd._bias f4 [2, 1]
0.0055229273 0.015354792
00000000: acf9 b43b aa92 7b3c
