results/MyEnv/MyEnv/mappo/check/run35/models/actor_agent0.pt (torch, 65932 bytes, 17 tensors)

base.feature_norm.weight f4 [91]
000000 d7 3f 7f 3f e8 0e 80 3f 14 d5 7f 3f 3b b3 80 3f
       0.99706787 1.0004549 0.99934506 1.0054697
000010 ab 9d 7e 3f 89 83 80 3f cd 96 7f 3f 2a 91 7f 3f
       0.9945933 1.0040141 0.9983948 0.9983088
000020 16 90 7f 3f 68 0b 80 3f fa e8 7e 3f 1c b9 80 3f
       0.9982923 1.0003481 0.99574244 1.0056491
000030 ff c6 80 3f 74 f8 7d 3f d3 d2 7f 3f 41 13 80 3f
       1.0060729 0.99207234 0.9993107 1.0005876
000040 36 27 80 3f f5 32 7f 3f 68 d2 7f 3f b9 00 80 3f
       1.0011966 0.9968713 0.9993043 1.000022
000050 2c 4a 80 3f 9d 34 7f 3f 83 a0 7e 3f 10 91 80 3f
       1.0022635 0.99689656 0.9946367 1.004427
000060 11 4d 7e 3f 06 14 7f 3f c6 71 7f 3f fd 22 80 3f
       0.99336344 0.9963993 0.9978298 1.0010678
000070 94 51 80 3f 79 3d 7f 3f 89 c3 7e 3f fe 23 80 3f
       1.0024896 0.99703175 0.9951711 1.0010984
000080 d9 62 80 3f 5e b0 80 3f b8 9a 80 3f ea 5b 80 3f
       1.0030166 1.0053823 1.0047216 1.002805
000090 8a 23 80 3f 62 fc 7e 3f e0 fc 7e 3f 34 94 7e 3f
       1.0010846 0.99603856 0.99604607 0.9944489
0000a0 fa 58 7e 3f 35 45 7f 3f ba bc 7e 3f ec b2 7e 3f
       0.9935452 0.99714977 0.99506724 0.99491763
0000b0 f2 f6 7e 3f 19 a5 7e 3f 88 27 7d 3f 98 89 7f 3f
       0.9959556 0.9947067 0.98888445 0.99819326
0000c0 ad cb 7e 3f f1 a7 7e 3f 97 9b 80 3f 89 75 7f 3f
       0.99529535 0.9947501 1.0047482 0.9978872
0000d0 80 70 80 3f 40 68 80 3f 12 cc 7f 3f e5 e5 80 3f
       1.0034332 1.0031815 0.9992076 1.0070158
0000e0 8a 3a 80 3f b3 da 7e 3f 7b 92 7f 3f 5f af 7e 3f
       1.0017865 0.9955246 0.99832886 0.99486345
0000f0 d9 8c 7f 3f b1 22 7e 3f 2d 31 7f 3f 6d 4f 80 3f
       0.9982429 0.99271685 0.9968441 1.0024239
000100 9c 64 7f 3f 8c 3a 7f 3f f1 bf 7f 3f 79 45 80 3f
       0.9976289 0.9969871 0.99902254 1.0021201
000110 34 b9 7e 3f f5 a5 80 3f 0a d8 7d 3f 1b 98 80 3f
       0.9950135 1.0050646 0.99157774 1.0046419
000120 7d f0 7f 3f 64 75 7f 3f 33 72 7f 3f 9f e4 7f 3f
       0.9997633 0.997885 0.9978363 0.99958223
000130 ea 6e 80 3f 98 5f 80 3f a2 23 80 3f 67 f2 80 3f
       1.0033848 1.0029173 1.0010874 1.0073975
000140 49 eb 7e 3f 7f 2e 80 3f 33 3f 80 3f 04 1b 7f 3f
       0.99577767 1.001419 1.0019287 0.996506
000150 a7 22 80 3f a0 06 7e 3f 2c 9f 80 3f e2 f5 7d 3f
       1.0010575 0.9922886 1.0048575 0.9920331
000160 1a 75 7e 3f 92 b4 80 3f b4 b3 7f 3f
       0.9939743 1.0055106 0.9988358

base.feature_norm.bias f4 [91]
000000 22 91 42 3b aa f0 b4 b8 33 55 53 3a 9a f5 a7 bb
       0.0029688557 -8.627896e-05 0.0008061707 -0.0051257135
000010 79 a8 b5 3b e2 e5 88 3b b3 ba 8a 3b 45 ed f7 3a
       0.005543765 0.004177795 0.004233682 0.0018915316
000020 a2 ca ad 3a 37 df 1c ba 51 d2 89 3b ec ae ab bb
       0.0013259242 -0.00059841893 0.00420598 -0.005239358
000030 13 a1 b3 bb 8a d9 f6 3b 08 f0 c8 b9 8d ba 30 ba
       -0.005481848 0.007533257 -0.0003832581 -0.00067416654
000040 61 e7 a6 ba 67 1d 63 3b 90 6f 99 39 92 21 06 b9
       -0.0012733751 0.0034654976 0.00029265555 -0.00012791742
000050 47 c6 2f 3b 4a 58 53 bb 84 6e be bb 07 9f 94 3b
       0.0026821063 -0.003224867 -0.0058115143 0.004535559
000060 6a 63 e1 bb b3 42 77 bb e3 85 1c bb ed f7 4b 3a
       -0.006878306 -0.0037728965 -0.0023883514 0.0007780779
000070 20 8c 38 3b fe dc 4c bb 8d 93 a2 bb 48 32 a2 3a
       0.0028159693 -0.0031259651 -0.004961437 0.0012374604
000080 79 7f 56 3b 11 e9 b3 3b e3 94 a0 3b d7 ac 3c 3b
       0.0032729788 0.00549043 0.004900561 0.0028789544
000090 2e da 90 3a 53 29 82 bb 70 0d 86 bb 82 f6 ba bb
       0.0011051351 -0.0039722114 -0.0040909573 -0.0057056556
0000a0 09 8b d7 bb a6 68 42 bb 24 a4 a4 bb fb 31 a9 bb
       -0.0065778536 -0.0029664426 -0.00502445 -0.005163429
0000b0 9b e4 85 bb d3 6f b0 bb 85 5c 3c bc 38 29 02 bb
       -0.00408609 -0.0053844242 -0.011496668 -0.0019860994
0000c0 19 d8 a1 bb ff 85 b5 bb e4 86 a0 3b d6 e4 06 bb
       -0.004939091 -0.005539655 0.0048988927 -0.0020583174
0000d0 8f a2 69 3b db 3f 5a 3b 70 b6 72 ba 4b ff ea 3b
       0.003564987 0.003330222 -0.00092587527 0.0071715466
0000e0 6d 4b 0f 3b 59 24 96 bb 67 c2 e5 ba 7c d5 ae bb
       0.0021865026 -0.0045819697 -0.001752925 -0.005335508
0000f0 c7 0a ef ba db ee f2 bb 91 b8 58 bb 0e 90 39 3b
       -0.0018237465 -0.0074137277 -0.0033068995 0.0028314623
000100 0c 2e 31 bb 6f 43 50 bb 93 36 93 ba f7 d1 10 3b
       -0.0027035503 -0.0031778475 -0.0011231474 0.0022097805
000110 81 5d a7 bb d9 d2 a8 3b 09 fd 0e bc 5a d2 9f 3b
       -0.005107582 0.005152088 -0.0087273205 0.004877371
000120 20 e4 b3 b9 02 d1 11 bb ee 57 0f bb f6 1c db b9
       -0.00034311507 -0.0022249823 -0.0021872479 -0.00041792513
000130 35 c3 66 3b bb 8b 45 3b cb ec ac 3a 11 c9 fb 3b
       0.0035211567 0.00301431 0.0013193128 0.007683881
000140 6f f8 8e bb 6d 58 ac 3a ae d4 04 3b 6f 52 6c bb
       -0.0043631117 0.0013148912 0.0020268369 -0.0036059876
000150 0c c5 68 3a 1f 54 01 bc 40 30 a7 3b 0d 0b 96 3b
       0.000887946 -0.007893591 0.0051021874 0.004578954
000160 e8 01 d6 3b 5a 61 a6 ba 13 b4 9e ba
       0.006530989 -0.0012693808 -0.001210811

base.mlp.fc1.0.weight f4 [64, 91]
000000 0a 84 73 be c9 5d 88 be f9 95 eb 3d 8a 96 52 3e
       -0.23780838 -0.26634052 0.115032144 0.20565239
000010 2a 24 ae 3a e7 b6 00 3e dc 8f 47 bc 11 5d 4b 3d
       0.0013285924 0.12569772 -0.012180295 0.049649302
000020 8a 73 1e 3d e3 57 ac be c5 84 20 be 1e 46 a0 3b
       0.038684405 -0.33660802 -0.15675648 0.004891171
000030 31 c2 72 be 78 e1 84 3d 98 d1 0e be cd 7b 95 3d
       -0.2370689 0.06488317 -0.13947141 0.07299004
000040 33 95 dd 3d 46 86 96 3d 64 21 3d 3e 58 1f 7b 3d
       0.10819473 0.073498294 0.18469769 0.06130919
000050 56 a8 fe 3d ac 27 56 3e 53 0c 07 3d a2 21 a6 be
       0.12434451 0.20913571 0.032970738 -0.32447535
000060 4f 41 cf bc 2f 04 63 3c f4 f1 c3 3e ea 5b 4c bd
       -0.025299696 0.013855978 0.38270533 -0.049892344
000070 18 2f af 3e d1 00 c0 be 85 87 ef 3d 74 b8 36 3e
       0.34215617 -0.37500623 0.1169577 0.17843801
000080 e4 b2 0a 3d 64 d5 76 3e 20 83 29 3d 47 f9 d8 3d
       0.03386201 0.2410484 0.041384816 0.10594421
000090 60 9f 5d 3e 4e 6b c0 3d 7a 33 4f be 51 3e 0b be
       0.21642828 0.09395467 -0.2023448 -0.1359799
0000a0 e6 22 df bd e9 77 6e bd f3 38 e7 bd 20 ef b5 3d
       -0.10895328 -0.058219824 -0.11290159 0.088835
0000b0 08 3b 0d 3e 93 65 4c 3e 57 df ef bc a2 d5 0b 3d
       0.1379205 0.19960622 -0.029281301 0.034139283
0000c0 05 37 25 3e 1f 75 80 be 4e 4e aa 3e 90 64 65 3e
       0.1613427 -0.25089356 0.33262867 0.22401643
0000d0 f0 cc 26 3e 95 42 27 be 90 4d da 3d 42 6e c3 bd
       0.16289115 -0.16333993 0.10659325 -0.095425144
0000e0 c5 cd 42 3e fd 53 dc 3d 0a 8f 9e 3d 01 b8 5b be
       0.19023807 0.10758207 0.07742126 -0.2145691
0000f0 78 12 52 be 0a e6 de bc 6d ca 3b 3e 55 fc 10 3e
       -0.20514858 -0.0272093 0.18338938 0.14158757
000100 64 55 df bd 53 8c b9 be f7 46 d2 be 43 b0 0c 3e
       -0.10904959 -0.3623987 -0.41069767 0.13739114
000110 c7 c0 90 3e 83 40 e8 3d a1 5c ba bc 85 52 67 bd
       0.28272077 0.1134043 -0.022749247 -0.05647518
000120 f3 b2 74 3e 6c ba 1f be e3 aa 39 bc 32 43 6f be
       0.23896389 -0.15598458 -0.0113322465 -0.23365477
000130 1c 1d de bd 84 5c 18 3e 2c 49 d4 bd ad 45 06 3e
       -0.10845396 0.14879042 -0.10365519 0.13112517
000140 1c 43 27 3e 6f 99 21 bd 74 36 7f 3c 42 a6 1f 3e
       0.16334194 -0.039452966 0.0155769475 0.15590766
000150 aa 10 d0 3d e3 90 14 3e 26 5c 93 3e e2 ab ad 3d
       0.101594284 0.14508395 0.2878124 0.0848005
000160 f3 aa 84 3e 9b 1a 33 3a 4d 5c 2b be e7 d1 87 3e
       0.25911674 0.00068322726 -0.16734429 0.2652733
000170 fa 3c 1b be 85 26 63 3c 6e f5 69 be 23 d0 a3 3d
       -0.1515998 0.013864164 -0.2284753 0.07998683
000180 3e a6 b0 3d 9b 38 4b 3c b7 b8 8f bd 7c ef fd be
       0.08625458 0.0124036325 -0.070176534 -0.49596775
000190 cc 46 3d 3e b8 99 b0 3c 6d 02 71 bd ac 1e 22 3e
       0.18484038 0.021557674 -0.058840204 0.15832013
0001a0 c8 25 44 be c4 76 d3 bd 9e a3 1d bc 6e 5b 5a be
       -0.19155037 -0.10325387 -0.009621529 -0.2132394
0001b0 9d c7 4c 3e 90 45 85 bd 9f 3a b7 3c 77 83 ed 3d
       0.19998021 -0.065074086 0.02236682 0.115973406
0001c0 ae a9 c0 3d 5a a4 29 be 3c 6f e9 bd bb 62 16 be
       0.09407364 -0.16566601 -0.113981694 -0.146861
0001d0 6f 02 d5 be a8 e9 2e be 86 5b 8e bd 75 34 89 3e
       -0.4160342 -0.1708132 -0.069510505 0.26797834
0001e0 ec 06 c6 bc 7f 66 4d bd 9a b3 45 3c 9e f7 65 bd
       -0.024173222 -0.050146576 0.012066746 -0.05614435
0001f0 e9 ef 9e 3e 71 50 eb bd 72 6e d0 bd 87 95 80 be
       0.31042412 -0.11489952 -0.10177316 -0.2511408
000200 6f 8d 37 be e0 dd 28 be 31 ff 1b bb d8 ef ff 3d
       -0.17925046 -0.16490889 -0.002380323 0.124969184
000210 0e 54 15 be 65 8a 45 be 0e 35 58 be 9e c0 2d 3e
       -0.14582846 -0.19291075 -0.21113989 0.16968009
000220 94 85 63 3e 75 7b 2c be 3c 65 48 3e 6f 53 ab be
       0.22218925 -0.1684397 0.19569868 -0.33462092
000230 46 3f 68 3e 3a 70 26 be cc 4e 82 be e6 72 2f 3e
       0.22680387 -0.16253749 -0.25450742 0.17133674
000240 62 2b 0c bd ae f9 f8 bd ad c4 a6 bb 98 f4 d9 3d
       -0.03422106 -0.121569976 -0.0050893635 0.10642356
000250 b5 08 28 3e 05 b9 7b 3e 76 57 5d be 82 50 51 3c
       0.16409571 0.24582298 -0.21615395 0.012775542
000260 8b d8 81 bd 20 79 a1 3e 79 35 85 bc ca 57 ec bd
       -0.063401304 0.31537724 -0.01626085 -0.11540182
000270 a6 96 86 be 2b d5 34 3b 0e e1 df 3e a2 b5 73 bc
       -0.2628681 0.0027592878 0.4372639 -0.014874848
000280 12 07 ee bc c8 3a 67 bd 4e 45 a1 be 73 51 ee 3d
       -0.029056106 -0.056452543 -0.31498188 0.11636629
000290 0d a6 01 3e 0f 2e 1b be 71 c9 d3 3c 7e 6d d6 3c
       0.12661 -0.15154289 0.02585289 0.026175257
0002a0 50 90 88 3e f0 8a 53 3d 0c 88 ad bc cc a8 a1 be
       0.26672602 0.051646173 -0.021183036 -0.31574094
0002b0 23 54 2d bd 48 42 5a bd 7b 53 b5 bd 1d 93 a8 bd
       -0.042316567 -0.053285867 -0.08853813 -0.08231185
0002c0 fc 1f c9 bc 92 33 f1 bc 99 18 8b be 29 36 44 be
       -0.024551384 -0.029443536 -0.27167204 -0.19161285
0002d0 00 e1 86 bc d5 8a 5b 3d fc 9e cb bd 8c 0b 33 be
       -0.01646471 0.053599197 -0.09942433 -0.17484874
0002e0 b7 51 69 3e fc 01 dd bd c5 6c 25 3d 17 6a bf 3d
       0.22785078 -0.10791394 0.040386934 0.09346407
0002f0 fc b8 95 bd 88 8a 0c be f5 e5 38 bd 7d 50 04 be
       -0.073106736 -0.1372472 -0.04514118 -0.12921329
000300 7e bb 1e be f0 f9 a7 bd b0 ca 63 3e 58 e8 13 be
       -0.1550121 -0.08201969 0.22245288 -0.14444101
000310 ae cd d0 3c 98 4a 8e be b4 7a b8 3c 8b ba d2 3b
       0.0254887 -0.27791286 0.022519447 0.006430929
000320 02 05 ca 3d b2 68 27 be 35 25 5c be 5d 19 76 bd
       0.098642364 -0.16348532 -0.21498568 -0.060082782
000330 d9 64 c0 3e c5 4b 48 3e 83 b4 4f 3d 4a 2e 32 be
       0.3757694 0.19560154 0.05070926 -0.1740047
000340 55 41 62 be 9f f1 04 3e 8b 5b 12 be 85 f5 1f be
       -0.22095235 0.12982796 -0.14292733 -0.15621002
000350 4c 15 a6 be bd 88 2a 3e f9 e2 81 be 38 81 fc bd
       -0.32438123 0.16653724 -0.2536848 -0.12329334
000360 9e c8 4d be ed f4 2d be 36 10 0b 3b c1 27 d5 3d
       -0.2009606 -0.16987963 0.002121938 0.10407973
000370 91 e9 bc be c0 40 93 3d fe 05 5f bc 94 75 bf 3d
       -0.36896947 0.071900845 -0.0136122685 0.09348598
000380 ed 14 e4 3c a5 07 06 be ad 74 14 3d 29 14 cb bc
       0.02784201 -0.13088854 0.036244083 -0.024789887
000390 b9 bf 1a 3d 16 38 63 3e 8a 79 89 3e cf be 18 bd
       0.037780497 0.22189364 0.2685054 -0.037291344
0003a0 d6 37 f0 3e 9c 3e ee 3d f4 20 ce be f1 51 12 be
       0.469176 0.116330355 -0.40259516 -0.1428907
0003b0 89 c3 0e 3e 4b 36 b1 3d 59 80 05 be 3b f1 d0 3b
       0.13941778 0.08652934 -0.13037242 0.006376413
0003c0 2f 35 e9 3d 36 fb 35 3d d7 a1 4b 3e 86 7b a0 bd
       0.11387097 0.044429027 0.19885956 -0.0783606
0003d0 73 0c 8b 3e 72 01 c9 3d 1a 62 2a bd 0a 14 40 3e
       0.27157936 0.09814729 -0.041597463 0.18757644
0003e0 dc 0a 50 be 90 77 8a bc 99 d0 2b bc 54 b4 60 3e
       -0.20316643 -0.016902715 -0.010486745 0.2194379
0003f0 3a 9f 0a be 1c 09 86 3d 27 db e3 bd f7 9d aa bd
       -0.13537303 0.06544706 -0.11125784 -0.08330911

base.mlp.fc1.0.bias f4 [64]
000000 17 ac 9f 3b 61 cd 92 3a 78 5d bc bb 48 b9 c6 3b
       0.0048728096 0.0011200124 -0.005748447 0.0060645677
000010 a5 7e b7 b8 aa 8b 98 3b a1 d4 ba ba 01 6c c6 3b
       -8.7497094e-05 0.004655321 -0.0014254042 0.0060553555
000020 d7 ae 88 bb ef 48 ec 3b de 73 a8 3b 58 52 ef bb
       -0.004171233 0.007210843 0.0051407656 -0.0073035173
000030 13 d4 80 3b b2 8c cf bb c5 b1 f0 bb 5b e0 06 bb
       0.003931531 -0.006333911 -0.0073454105 -0.0020580504
000040 88 4d 9b 3b 90 8f fb 3a 3a 21 df bb eb 65 00 3b
       0.004739467 0.0019192565 -0.006809381 0.0019591998
000050 08 83 ef ba 0b 63 f7 3a 29 cb 94 bb e3 9f 8a bb
       -0.0018273303 0.0018874122 -0.00454082 -0.0042304858
000060 c3 21 b7 ba 8c 40 94 bb c4 22 fc 3b d6 13 05 bc
       -0.0013971854 -0.004524296 0.007694574 -0.008122405
000070 ac d3 ed 39 ca ad 4b bb 61 c5 a4 bb a0 15 c2 bb
       0.0004536187 -0.0031078928 -0.005028412 -0.005922988
000080 63 c0 f4 3b 50 ca 38 3a 74 e1 49 3b 52 b9 96 3a
       0.0074692233 0.000704919 0.0030804547 0.0011499322
000090 76 1a 95 ba bf 0c 25 ba 91 ed ba b9 da 48 0e 3a
       -0.0011375684 -0.000629615 -0.00035653685 0.0005427726
0000a0 4d af 98 3a cd 90 25 3b cb 4c 81 3b 56 e0 8f bb
       0.0011648923 0.002526331 0.003945922 -0.0043907566
0000b0 9e 48 81 3b 85 31 f5 bb ba 0d 9f bb 9b 99 83 bb
       0.003945424 -0.00748271 -0.0048539313 -0.004016114
0000c0 47 66 7f 3a e3 e3 27 3b 43 e8 3f ba 63 88 e0 3a
       0.00097427185 0.0025618009 -0.00073206815 0.001713049
0000d0 d4 f3 e6 3b ab c1 9a b8 53 ef a1 bb 68 03 ac bb
       0.0070481095 -7.379366e-05 -0.0049418597 -0.0052494295
0000e0 ba 73 25 3a 8b 47 15 bb 70 98 4e bb 2e db 3a 38
       0.0006311495 -0.0022778239 -0.0031523965 4.4549983e-05
0000f0 6b d5 02 bb aa 91 56 3b 67 fc 1d 3b 8d ca b2 3b
       -0.0019963633 0.003274063 0.0024106742 0.005456275

base.mlp.fc1.2.weight f4 [64]
000000 fa 56 80 3f 8d 2c 7e 3f 9c a3 7f 3f f0 4e 80 3f
       1.0026543 0.9928673 0.99859023 1.002409
000010 c3 9b 7f 3f 45 06 7f 3f 6a b8 7e 3f be e1 80 3f
       0.9984705 0.9961894 0.99500144 1.0068891
000020 dc 17 80 3f f5 16 7e 3f 12 6d 7f 3f e6 43 81 3f
       1.0007281 0.9925378 0.99775803 1.0098846
000030 9e 89 7f 3f 19 5b 7e 3f b9 41 7f 3f d9 eb 7d 3f
       0.9981936 0.99357754 0.9970966 0.99188
000040 49 96 80 3f 03 e8 80 3f 7d 22 80 3f 19 03 81 3f
       1.0045863 1.0070804 1.0010525 1.007907
000050 bb f0 7c 3f 12 b7 7f 3f 4a 76 7f 3f ed 8e 7e 3f
       0.98804826 0.9988872 0.9978987 0.9943684
000060 a5 8b 7f 3f f9 c9 80 3f af b0 7f 3f 9b fa 80 3f
       0.99822456 1.0061637 0.9987897 1.0076479
000070 05 36 80 3f 2d f1 7e 3f 6a 7f 80 3f 4c 98 7f 3f
       1.0016485 0.99586755 1.0038884 0.9984176
000080 c3 20 7e 3f 15 35 80 3f 1c 65 80 3f 4c d0 7f 3f
       0.9926874 1.0016199 1.0030856 0.9992721
000090 c1 65 80 3f ab d7 7e 3f e3 53 80 3f 8d 49 80 3f
       1.0031053 0.99547833 1.00256 1.0022446
0000a0 6b 73 80 3f 51 7b 80 3f b6 9a 80 3f 5a 4f 80 3f
       1.0035223 1.0037633 1.0047214 1.0024216
0000b0 16 67 7f 3f e9 62 80 3f 08 05 80 3f 08 55 7f 3f
       0.9976667 1.0030185 1.0001535 0.9973912
0000c0 f9 44 80 3f 04 0c 7e 3f 5c d9 7e 3f d5 27 80 3f
       1.0021049 0.99237084 0.99550414 1.0012156
0000d0 fe e5 80 3f 7c 0b 7f 3f 28 bc 80 3f 4d 3d 80 3f
       1.0070188 0.996269 1.0057421 1.0018708
0000e0 42 18 80 3f 73 15 80 3f 9f c0 7e 3f 89 cc 80 3f
       1.0007403 1.0006546 0.99512666 1.0062419
0000f0 a9 26 7f 3f 38 b8 80 3f 37 4d 80 3f 1e 4b 7e 3f
       0.99668366 1.0056219 1.0023564 0.9933337

base.mlp.fc1.2.bias f4 [64]
000000 01 c6 9f 3b 76 49 a8 bb 5c 4e b4 ba 4c 94 6c 3b
       0.004875899 -0.0051357104 -0.0013756263 0.0036099134
000010 09 dc b7 3a 90 f3 78 3b 41 d1 a3 bb 1c 7f ed 3b
       0.0014027368 0.0037986971 -0.0049993102 0.0072478186
000020 e8 c3 52 bb 0b 44 f1 3b 31 e5 51 3b dd b3 1c bc
       -0.0032160226 0.0073628477 0.0032027478 -0.009564367
000030 28 9d 6a 3b a1 f3 db bb 32 47 a0 bb 5a bb 59 bb
       0.0035799239 -0.0067123924 -0.0048912996 -0.0033223242
000040 62 e2 96 3b d9 e0 42 3b 3c c3 08 bb ee da b3 3b
       0.0046046237 0.002973607 -0.0020868322 0.005488745
000050 5c 80 e7 ba fc 03 f2 3a 5a 2f 13 bb f4 00 b3 bb
       -0.0017662155 0.0018464322 -0.0022458644 -0.00546276
000060 cf ed e8 3a 05 53 c7 bb 8a fc 85 3b d4 1b fe bb
       0.0017771068 -0.0060828947 0.004088943 -0.007754782
000070 99 d5 ae 3a eb dc 77 3b a7 61 85 bb 93 78 52 bb
       0.0013338804 0.0037820886 -0.004070479 -0.0032115325
000080 66 66 f2 3b 07 f1 7d 3b 3f 23 2e bb 22 df 23 3b
       0.0073974608 0.00387484 -0.0026571301 0.0025004824
000090 6a 44 25 3b eb 95 76 b8 47 9a 2b 3b d1 65 4c 3b
       0.002521778 -5.8790592e-05 0.0026184486 0.0031188617
0000a0 76 6f 5c 3b 2d 62 37 3b 5a 59 9a 3b 05 98 2f bb
       0.0033635772 0.0027982101 0.0047103586 -0.0026793492
0000b0 4e aa 33 3b 27 3b 88 bb f4 f2 59 ba 0b cf 66 bb
       0.0027414742 -0.004157442 -0.0008314096 -0.0035218622
0000c0 eb 29 03 bb 19 a4 f1 3b 10 d9 91 3b a9 b5 d8 39
       -0.0020013999 0.0073742983 0.0044509247 0.00041334078
0000d0 72 2c eb 3b 1d 7d 66 bb 71 0a b3 bb 50 a1 e3 ba
       0.007176929 -0.0035169788 -0.005463891 -0.00173668
0000e0 dd 2d 50 ba 0a e3 1a ba fa c8 98 bb 07 5d c1 bb
       -0.00079414045 -0.0005908465 -0.00466263 -0.0059009823
0000f0 44 c7 24 bb 3f 78 98 3b 26 56 21 3b f6 91 d7 3b
       -0.0025143186 0.0046530063 0.0024618 0.006578679

base.mlp.fc_h.0.weight f4 [64, 64]
000000 7a bb a7 bd fd 65 90 3c a9 33 32 be 40 f7 34 be
       -0.08190055 0.017626757 -0.1740252 -0.17672443
000010 ee 25 4e be aa b7 a8 3d c5 fa b4 3e 35 77 ba bd
       -0.20131657 0.08238156 0.35347572 -0.09104768
000020 0c 49 62 3d 02 07 21 be dd ca 31 3e 2a 14 01 be
       0.055245444 -0.1572533 0.17362542 -0.12605348
000030 36 89 a6 3e 65 d9 7d 3e ce 26 3a bd 16 cf 4a 3d
       0.3252656 0.2478996 -0.045447163 0.0495139
000040 13 61 4f 3d 11 b0 2d bd af c2 e7 3d 9e 65 b8 be
       0.050629687 -0.042404238 0.1131643 -0.36015028
000050 a5 06 aa be c9 70 ac 3d c8 e9 e3 bc 75 2b a8 be
       -0.33208194 0.084199496 -0.027821437 -0.32845655
000060 73 81 68 bd 12 55 a5 3e 61 91 56 be 39 e1 28 be
       -0.056764077 0.32291466 -0.20953895 -0.16492166
000070 ec 66 87 bc 37 59 48 3d c4 f5 15 3d bc f9 c2 3c
       -0.01652857 0.048913207 0.036611333 0.023800723
000080 c5 9a 01 3d 06 2d 30 be d0 4a a8 be 8b a9 95 bd
       0.03164174 -0.17204675 -0.32869577 -0.073077284
000090 d2 d3 ab be 63 a2 88 be 36 1f 0c 3f 07 e8 11 3e
       -0.33560044 -0.2668639 0.54735124 0.14248668
0000a0 95 03 5b be d1 fa a2 be a1 cd 50 3c 24 85 06 be
       -0.21388085 -0.31831983 0.012744338 -0.13136727
0000b0 5c 3a f0 3d 5c 87 6a 3e b5 ea e7 3e 3b 1e 1c 3d
       0.11729881 0.22903198 0.45296255 0.038114768
0000c0 c1 7a f1 3e d6 cb f3 bd e7 3c b1 3d c1 c0 5a be
       0.47163966 -0.11904113 0.08654194 -0.21362592
0000d0 8e 8e 25 be 12 56 77 3e 08 ab 1f bd ed 78 bf be
       -0.16167662 0.24153927 -0.038981467 -0.37396947
0000e0 40 73 07 3c bb c7 9e be 11 eb ac bd bc 89 3a 3c
       0.008267224 -0.31011757 -0.08443273 0.0113853775
0000f0 4c b4 10 bb 03 b6 5a bd 63 0e fc bd 89 0b 8f bd
       -0.0022080122 -0.053396236 -0.123074315 -0.06984622
000100 8f e2 14 be 20 c8 ee 3d e6 04 e8 be 6c 80 56 3d
       -0.1453955 0.116592646 -0.45316237 0.052368566
000110 63 31 82 bd 2c 3b 8e ba a0 fe 74 3e d4 7a fc bd
       -0.06357076 -0.0010851375 0.23925257 -0.12328115
000120 0b d5 25 be 17 b6 88 3d 91 48 a3 bc ed c9 11 3c
       -0.1619455 0.06675356 -0.019932063 0.0088982405
000130 9b e5 d2 bd 5e 89 11 3f 35 d0 e8 3d 41 7e aa 3b
       -0.102977 0.5685023 0.11367837 0.005203039
000140 4a 7b c3 bb 47 34 14 3d d9 f0 d6 3d 99 f3 72 be
       -0.005965625 0.036182668 0.10495157 -0.23725738
000150 60 6f 23 3a 1c 37 8f bd e6 f7 fd 3d 19 e1 54 3d
       0.0006234553 -0.06992933 0.124007985 0.051972482
000160 23 68 81 3d fc bc 38 3e ec 5d d4 3e 47 3f 21 3d
       0.06318691 0.18040842 0.41477907 0.039366987
000170 2e 67 9c 3e c5 9a be bc 4c 82 6f bc 7d 9f 3c bd
       0.3054747 -0.02326716 -0.014618468 -0.046050537
000180 08 1a 59 be 3e 2f a3 3e 96 a3 a3 3d b2 51 d9 3e
       -0.21201336 0.3187198 0.07990186 0.4244514
000190 46 d1 9c bd e2 57 7c be e0 45 9d 3d 67 87 6d be
       -0.07657103 -0.246429 0.07679343 -0.23196183
0001a0 77 24 44 bd 78 17 15 be 6e e2 ff bd 01 1a 95 3e
       -0.047886338 -0.14559734 -0.1249436 0.29121402
0001b0 09 83 90 3d 0a 76 1d 3c d5 a7 94 bb 38 0c 61 be
       0.07056243 0.009610662 -0.0045366087 -0.21977317
0001c0 b2 82 14 be e9 d6 c1 bc fa 9a 07 3d d1 02 b0 3e
       -0.14502981 -0.023662047 0.03310678 0.3437715
0001d0 06 54 ba 3e 7a 2c fe be 16 d7 b7 3e 9b 09 4f be
       0.3639223 -0.49643308 0.35906285 -0.20218508
0001e0 02 25 09 3d 37 70 83 3d 6b cd 1a 3e 84 57 ac 3e
       0.03348256 0.06417888 0.15117423 0.3366052
0001f0 93 fa c7 3e e6 5c 4a be 22 7f 1c 3e a4 3c 9b 3b
       0.3905836 -0.19762 0.15282872 0.0047374535
000200 46 2f 02 3e 6f ff d2 3d 75 e3 d6 3d a2 76 dc 3c
       0.12713346 0.10302626 0.10492603 0.026912037
000210 cd 5e 98 bd 1c c8 a8 bd b1 72 de bc 77 71 10 be
       -0.07439957 -0.08241293 -0.027154298 -0.14105783
000220 f8 14 c3 bd 40 ba 55 3e 45 f0 e5 bd 67 f5 0f 3e
       -0.09525484 0.2087183 -0.112274684 0.14058457
000230 41 6c b2 be 40 1e 93 3d 5a 22 45 bd e1 73 99 be
       -0.34848216 0.07183504 -0.048128463 -0.2997122
000240 78 ad 39 bc 3b 59 e6 be 29 cf 05 be e2 ad bc 3d
       -0.011332862 -0.44989952 -0.13067307 0.09212853
000250 38 f5 39 be 08 77 26 3e fd 33 85 be 70 68 f7 bd
       -0.1815995 0.16256344 -0.26016226 -0.12080467
000260 b6 dd e4 3e a9 76 29 be 0a ff 61 bd ac 7c f5 bc
       0.44700402 -0.16549172 -0.055174865 -0.029966675
000270 78 42 56 3c 77 0f d8 bd d4 29 c4 be 5d 15 47 be
       0.013077371 -0.10549825 -0.38313162 -0.19441743
000280 4f d6 3e 3e 02 82 13 be 13 c4 b1 be 54 e8 68 3e
       0.1863644 -0.14405063 -0.34719905 0.22744876
000290 15 c2 0a be ff 57 27 3e 05 37 9a bc 0a 48 c2 3d
       -0.13550599 0.16342162 -0.018825063 0.094863966
0002a0 10 de 1f be dc cc 84 be 20 c5 9f be b1 bc ae 3e
       -0.15612054 -0.25937545 -0.31205082 0.34128335
0002b0 35 3d 12 be 4f 96 f1 3d 69 e0 94 3d ee 02 04 be
       -0.14281161 0.11796247 0.07269365 -0.12891743
0002c0 93 00 e9 3c 29 8b 98 be 68 2a 75 be 38 43 b8 3d
       0.028442657 -0.2979367 -0.23941958 0.08997196
0002d0 7e 0b 97 3d 7a f3 e1 3d 3c 69 31 3e b9 15 26 3e
       0.07375239 0.110327676 0.173253 0.16219224
0002e0 aa 03 24 3f 34 96 18 be 5c 41 c7 bd e3 22 38 be
       0.6406809 -0.14901048 -0.09729263 -0.17982058
0002f0 6c 2d 66 be ff bc 24 3e 92 88 d6 3e d4 95 a4 bd
       -0.22478265 0.16087721 0.4190107 -0.0803639
000300 0a 99 87 3e 80 e1 21 3e 5a 42 07 3d 95 3a 26 3d
       0.26483947 0.15808678 0.033022262 0.040583212
000310 72 46 91 3e 79 79 a1 3e 36 e5 e9 3b 22 e3 83 be
       0.28374058 0.3153799 0.00713792 -0.25759226
000320 2c f5 63 3e d0 ad be bd a8 b7 81 be e4 1c 4f bd
       0.22261494 -0.09310496 -0.2533543 -0.05056466
000330 02 db 3d be a5 7f 15 bd 30 c1 fe bd 15 59 0c be
       -0.18540576 -0.036498684 -0.12439191 -0.13705857
000340 e1 27 1e be 56 71 c0 3c ba 4e 06 3f 9e 93 41 3e
       -0.154449 0.023491543 0.5246388 0.18903968
000350 f3 be 09 3e 27 11 17 3f f6 cc be 3d 36 3a c6 bc
       0.13451748 0.5901055 0.09316437 -0.024197679
000360 76 d0 9d 3d d4 f7 d9 3e e7 13 8f 3e 8e 17 0e 3d
       0.077057764 0.4257189 0.27944872 0.034690432
000370 4b f4 06 be 37 09 a7 3d 1a 9c e2 bc 68 f1 70 3e
       -0.13179128 0.081560545 -0.027662326 0.23529589
000380 3e 6e cc 3b 89 90 10 be 6f d6 19 be a6 ad f6 3d
       0.006238728 -0.14117636 -0.15023206 0.120448396
000390 20 1c c3 bd cd 7e 35 be 57 03 8a 3c 62 08 ca 3c
       -0.09526849 -0.17724152 0.016847296 0.0246622
0003a0 a3 95 53 bc 8a 38 33 be 27 05 92 be a5 78 df 3d
       -0.012914094 -0.17502037 -0.28519556 0.10911683
0003b0 13 ed 44 bd ba 73 85 be c1 f5 9e be 0d 42 05 3e
       -0.048077654 -0.26064855 -0.3104687 0.13013478
0003c0 1e 30 41 bd 45 bc 0d 3e f5 2a 21 3e 6c 61 14 3e
       -0.04716503 0.1384135 0.15739043 0.14490288
0003d0 85 90 5b bd 6c a8 a5 3c 25 41 4c be 16 f6 d0 bb
       -0.05360462 0.020221911 -0.19946726 -0.006376992
0003e0 01 62 07 bf 85 fa 8a be 0d 8b c5 be 67 18 27 3e
       -0.5288392 -0.27144256 -0.3858265 0.16317903
0003f0 7e 56 21 be b5 bc 71 3e 67 8f 5e 3e a4 da b7 bd
       -0.1575565 0.23607142 0.21734391 -0.08977249

base.mlp.fc_h.0.bias f4 [64]
000000 00 00 00 00 00 00 00 00 00 00 00 00 00 00 00 00
       0.0 0.0 0.0 0.0
000010 00 00 00 00 00 00 00 00 00 00 00 00 00 00 00 00
       0.0 0.0 0.0 0.0
000020 00 00 00 00 00 00 00 00 00 00 00 00 00 00 00 00
       0.0 0.0 0.0 0.0
000030 00 00 00 00 00 00 00 00 00 00 00 00 00 00 00 00
       0.0 0.0 0.0 0.0
000040 00 00 00 00 00 00 00 00 00 00 00 00 00 00 00 00
       0.0 0.0 0.0 0.0
000050 00 00 00 00 00 00 00 00 00 00 00 00 00 00 00 00
       0.0 0.0 0.0 0.0
000060 00 00 00 00 00 00 00 00 00 00 00 00 00 00 00 00
       0.0 0.0 0.0 0.0
000070 00 00 00 00 00 00 00 00 00 00 00 00 00 00 00 00
       0.0 0.0 0.0 0.0
000080 00 00 00 00 00 00 00 00 00 00 00 00 00 00 00 00
       0.0 0.0 0.0 0.0
000090 00 00 00 00 00 00 00 00 00 00 00 00 00 00 00 00
       0.0 0.0 0.0 0.0
0000a0 00 00 00 00 00 00 00 00 00 00 00 00 00 00 00 00
       0.0 0.0 0.0 0.0
0000b0 00 00 00 00 00 00 00 00 00 00 00 00 00 00 00 00
       0.0 0.0 0.0 0.0
0000c0 00 00 00 00 00 00 00 00 00 00 00 00 00 00 00 00
       0.0 0.0 0.0 0.0
0000d0 00 00 00 00 00 00 00 00 00 00 00 00 00 00 00 00
       0.0 0.0 0.0 0.0
0000e0 00 00 00 00 00 00 00 00 00 00 00 00 00 00 00 00
       0.0 0.0 0.0 0.0
0000f0 00 00 00 00 00 00 00 00 00 00 00 00 00 00 00 00
       0.0 0.0 0.0 0.0

base.mlp.fc_h.2.weight f4 [64]
000000 00 00 80 3f 00 00 80 3f 00 00 80 3f 00 00 80 3f
       1.0 1.0 1.0 1.0
000010 00 00 80 3f 00 00 80 3f 00 00 80 3f 00 00 80 3f
       1.0 1.0 1.0 1.0
000020 00 00 80 3f 00 00 80 3f 00 00 80 3f 00 00 80 3f
       1.0 1.0 1.0 1.0
000030 00 00 80 3f 00 00 80 3f 00 00 80 3f 00 00 80 3f
       1.0 1.0 1.0 1.0
000040 00 00 80 3f 00 00 80 3f 00 00 80 3f 00 00 80 3f
       1.0 1.0 1.0 1.0
000050 00 00 80 3f 00 00 80 3f 00 00 80 3f 00 00 80 3f
       1.0 1.0 1.0 1.0
000060 00 00 80 3f 00 00 80 3f 00 00 80 3f 00 00 80 3f
       1.0 1.0 1.0 1.0
000070 00 00 80 3f 00 00 80 3f 00 00 80 3f 00 00 80 3f
       1.0 1.0 1.0 1.0
000080 00 00 80 3f 00 00 80 3f 00 00 80 3f 00 00 80 3f
       1.0 1.0 1.0 1.0
000090 00 00 80 3f 00 00 80 3f 00 00 80 3f 00 00 80 3f
       1.0 1.0 1.0 1.0
0000a0 00 00 80 3f 00 00 80 3f 00 00 80 3f 00 00 80 3f
       1.0 1.0 1.0 1.0
0000b0 00 00 80 3f 00 00 80 3f 00 00 80 3f 00 00 80 3f
       1.0 1.0 1.0 1.0
0000c0 00 00 80 3f 00 00 80 3f 00 00 80 3f 00 00 80 3f
       1.0 1.0 1.0 1.0
0000d0 00 00 80 3f 00 00 80 3f 00 00 80 3f 00 00 80 3f
       1.0 1.0 1.0 1.0
0000e0 00 00 80 3f 00 00 80 3f 00 00 80 3f 00 00 80 3f
       1.0 1.0 1.0 1.0
0000f0 00 00 80 3f 00 00 80 3f 00 00 80 3f 00 00 80 3f
       1.0 1.0 1.0 1.0

base.mlp.fc_h.2.bias f4 [64]
000000 00 00 00 00 00 00 00 00 00 00 00 00 00 00 00 00
       0.0 0.0 0.0 0.0
000010 00 00 00 00 00 00 00 00 00 00 00 00 00 00 00 00
       0.0 0.0 0.0 0.0
000020 00 00 00 00 00 00 00 00 00 00 00 00 00 00 00 00
       0.0 0.0 0.0 0.0
000030 00 00 00 00 00 00 00 00 00 00 00 00 00 00 00 00
       0.0 0.0 0.0 0.0
000040 00 00 00 00 00 00 00 00 00 00 00 00 00 00 00 00
       0.0 0.0 0.0 0.0
000050 00 00 00 00 00 00 00 00 00 00 00 00 00 00 00 00
       0.0 0.0 0.0 0.0
000060 00 00 00 00 00 00 00 00 00 00 00 00 00 00 00 00
       0.0 0.0 0.0 0.0
000070 00 00 00 00 00 00 00 00 00 00 00 00 00 00 00 00
       0.0 0.0 0.0 0.0
000080 00 00 00 00 00 00 00 00 00 00 00 00 00 00 00 00
       0.0 0.0 0.0 0.0
000090 00 00 00 00 00 00 00 00 00 00 00 00 00 00 00 00
       0.0 0.0 0.0 0.0
0000a0 00 00 00 00 00 00 00 00 00 00 00 00 00 00 00 00
       0.0 0.0 0.0 0.0
0000b0 00 00 00 00 00 00 00 00 00 00 00 00 00 00 00 00
       0.0 0.0 0.0 0.0
0000c0 00 00 00 00 00 00 00 00 00 00 00 00 00 00 00 00
       0.0 0.0 0.0 0.0
0000d0 00 00 00 00 00 00 00 00 00 00 00 00 00 00 00 00
       0.0 0.0 0.0 0.0
0000e0 00 00 00 00 00 00 00 00 00 00 00 00 00 00 00 00
       0.0 0.0 0.0 0.0
0000f0 00 00 00 00 00 00 00 00 00 00 00 00 00 00 00 00
       0.0 0.0 0.0 0.0

base.mlp.fc2.0.0.weight f4 [64, 64]
000000 9f a5 ad bd 72 19 65 3c 41 b4 34 be 35 f8 35 be
       -0.08478855 0.013983117 -0.17646886 -0.17770465
000010 c7 8b 4b be a6 b5 ad 3d af b5 b3 3e 68 c7 bf bd
       -0.1987754 0.08481912 0.3509955 -0.093642056
000020 51 cb 3d 3d 0b 5e 21 be 19 f9 35 3e 23 4a fc bd
       0.046336476 -0.15758531 0.17770804 -0.12318828
000030 41 cf a7 3e b9 2b 7b 3e f3 e6 39 bd b8 48 1d 3d
       0.3277531 0.24528398 -0.045386266 0.038399428
000040 a9 ad 45 3d 2e 5d 4a bd 13 46 ea 3d 04 ff ba be
       0.04826132 -0.04940527 0.11439147 -0.36522686
000050 10 04 a6 be 01 90 bb 3d 8f 0e ee bc f1 47 aa be
       -0.32424974 0.09158326 -0.029059676 -0.33258012
000060 8e 1e 5e bd f7 a5 a6 3e e3 52 57 be 49 15 26 be
       -0.054228358 0.32548496 -0.21027713 -0.16219057
000070 20 a2 8c bc 39 27 53 3d 01 0a 1f 3d 31 64 b4 3c
       -0.017167151 0.051551078 0.0388279 0.022020431
000080 fd c0 0d 3d dc 5d 2e be 5f 14 a7 be 80 9f 7e bd
       0.034607876 -0.17027992 -0.3263273 -0.06216383
000090 10 38 ad be 85 33 8a be 66 82 0b 3f 2b b0 11 3e
       -0.33831835 -0.2699243 0.5449585 0.14227359
0000a0 69 01 5d be 1d 1e a2 be 51 79 29 3c 97 20 04 be
       -0.21582569 -0.316636 0.0103438655 -0.12903057
0000b0 f4 34 f6 3d 1b a1 6b 3e 10 df e7 3e c2 1e 14 3d
       0.12021819 0.23010676 0.4528737 0.036162145
0000c0 8a ba f2 3e c9 b5 f0 bd c1 17 b6 3d 25 73 65 be
       0.47407943 -0.11753423 0.088912494 -0.22407205
0000d0 f2 bc 27 be c5 da 74 3e 74 ec 14 bd 26 40 be be
       -0.1638067 0.23911579 -0.03635831 -0.37158316
0000e0 09 4f 31 3c bf 36 9d be 9b ce b1 bd fc 47 64 3c
       0.010822066 -0.3070583 -0.08681985 0.013933178
0000f0 16 16 33 bb 4b 3e 68 bd 86 3a 01 be ae 60 89 bd
       -0.0027326397 -0.056700032 -0.12619981 -0.06707893
000100 fd 22 0f be e9 c0 e0 3d 22 5f eb be 92 2d 3e 3d
       -0.1397819 0.10974295 -0.45971018 0.046430178
000110 4d bb 69 bd e3 94 b0 3b 27 34 6e 3e 91 12 04 be
       -0.05706339 0.0053888424 0.23262082 -0.12897708
000120 df 30 2a be 1c b7 96 3d d0 90 69 bc c3 8b 7e 3c
       -0.16620205 0.07359144 -0.014255717 0.0155362515
000130 e7 58 c5 bd 53 f7 0f 3f 83 57 dc 3d f7 96 f2 b8
       -0.096360974 0.5623676 0.10758879 -0.000115675786
000140 9f 87 4e bc fe d4 0b 3d 69 38 ce 3d de dd 77 be
       -0.012605577 0.034138672 0.10069353 -0.2420573
000150 d7 d8 a6 ba 85 2a 87 bd ac e8 ef 3d 8b f8 38 3d
       -0.0012729418 -0.06599907 0.117143005 0.045158904
000160 3a d6 8e 3d 60 66 3f 3e f2 f6 d7 3e e4 e8 3b 3d
       0.06974454 0.18691397 0.42180592 0.0458764
000170 da f5 99 3e 8a 95 89 bc c3 e7 06 bc ff b9 58 bd
       0.30070382 -0.016794939 -0.008233967 -0.052911755
000180 68 54 52 be 7a 2c a0 3e b1 f8 b0 3d 54 be db 3e
       -0.20540011 0.31283933 0.08641184 0.42918646
000190 83 c1 a9 bd 2e 0e 81 be bb a7 8f 3d f0 40 74 be
       -0.082888626 -0.2520613 0.07014414 -0.23852897
0001a0 ee 3e 5f bd e5 f1 17 be f6 bf 06 be 28 61 98 3e
       -0.054503374 -0.14838369 -0.13159165 0.29761624
0001b0 2c e6 9d 3d 26 6c 83 3c 08 ec 53 bc 84 2b 68 be
       0.077099174 0.01604278 -0.012934692 -0.2267285
0001c0 a6 d2 0d be e0 39 91 bc a3 59 22 3d 95 df ab 3e
       -0.13849887 -0.017727792 0.039636265 0.33569017
0001d0 b2 0b b7 3e 57 ca 00 bf ae 3b bb 3e c2 44 48 be
       0.3575111 -0.50308746 0.3656897 -0.19557479
0001e0 0a bb 23 3d f6 23 90 3d af 08 14 3e 63 af af 3e
       0.039973296 0.07038109 0.14456438 0.34313497
0001f0 be 31 c5 3e 16 ca 4f be f8 98 15 3e d4 37 39 3c
       0.38514513 -0.20291933 0.14609134 0.011304814
000200 33 39 00 3e 6e 18 d5 3d 55 68 d9 3d 1a c4 e1 3c
       0.1252182 0.1040505 0.10615603 0.027559329
000210 66 c4 9a bd 12 23 ab bd 3a 62 d4 bc 58 da 10 be
       -0.07556991 -0.083562985 -0.025925744 -0.14145792
000220 f0 96 c0 bd 80 35 54 3e c8 18 e8 bd 51 e9 0e 3e
       -0.09403789 0.20723534 -0.11332852 0.1395619
000230 a9 04 b3 be 54 d4 94 3d b1 48 40 bd 61 0c 96 be
       -0.34964493 0.07267061 -0.046944324 -0.2930632
000240 6a 63 25 bc 9e b5 e3 be ea 6c 04 be f9 8d ba 3d
       -0.010094503 -0.444745 -0.12932172 0.091091104
000250 b6 fa 30 be 33 3d 26 3e c9 38 84 be af 0c f5 bd
       -0.17283139 0.16234283 -0.25824574 -0.1196531
000260 d6 41 e4 3e 38 a3 2a be 93 8b 6c bd 4c 6c fe bc
       0.4458148 -0.16663826 -0.057750296 -0.0310575
000270 2f 1f 66 3c a4 68 da bd bd d5 c4 be 07 3f 45 be
       0.014045521 -0.1066449 -0.3844432 -0.19262324
000280 98 b1 3d 3e 4f 3f 12 be 12 69 b2 be 28 e5 68 3e
       0.18524778 -0.14281963 -0.34845787 0.22743666
000290 9e ba 09 be 67 f9 28 3e 1a 10 90 bc f9 39 c8 3d
       -0.13450095 0.1650139 -0.017585803 0.097766824
0002a0 c4 8c 1e be dc ce 84 be df 22 9f be 54 0c ae 3e
       -0.15483385 -0.2593907 -0.31081292 0.3399378
0002b0 51 5a 13 be e4 31 ee 3d c2 fe 99 3d f3 d3 01 be
       -0.14389922 0.1163061 0.07519294 -0.12678508
0002c0 b9 c4 de 3c c9 13 99 be 56 6d 76 be 88 75 b3 3d
       0.027193414 -0.29897907 -0.24065146 0.08762652
0002d0 98 5b 99 3d 66 80 e4 3d 7b 01 30 3e 76 e2 24 3e
       0.07488173 0.111573026 0.17188065 0.16102013
0002e0 ce b7 23 3f 44 49 19 be f8 b8 c4 bd 3e 4e 39 be
       0.6395234 -0.14969355 -0.096055925 -0.18096253
0002f0 8a 8a 64 be 69 ea 23 3e cd 18 d7 3e f5 8c a6 bd
       -0.22318473 0.16007389 0.4201111 -0.08132354
000300 bc 45 86 3e fd 94 22 3e 1f 37 0c 3d f9 0d 2c 3d
       0.26225078 0.15877147 0.034232255 0.042005513
000310 9d a3 90 3e 30 d2 a0 3e 8b 4e 08 3c 6e 4a 83 be
       0.28249827 0.3141036 0.008319507 -0.25642723
000320 ec 15 66 3e e0 1f c3 bd b8 89 82 be ae b1 52 bd
       0.224693 -0.09527564 -0.25495696 -0.05143898
000330 5e 0c 3e be fa cc 0e bd 7a 5d f9 bd 4a 1b 0d be
       -0.18559405 -0.03486345 -0.12176032 -0.13779941
000340 b1 ed 1c be d7 27 df 3c bf 19 07 3f e7 20 43 3e
       -0.15325047 0.027240677 0.5277366 0.1905552
000350 f0 f2 12 3e 8f a0 15 3f 6e 5a c1 3d bf 50 c3 bc
       0.14350486 0.5844812 0.09441076 -0.023842214
000360 dc 5a 9b 3d 8b 57 d9 3e 46 6c 8d 3e 85 51 09 3d
       0.075856894 0.42449602 0.2762167 0.03352501
000370 64 13 03 be 79 83 a4 3d 16 f8 ed bc b7 6d 72 3e
       -0.12800366 0.08032889 -0.02904896 0.23674665
000380 8f a5 ad 3b 7b 47 0b be a7 23 1b be e1 1e f4 3d
       0.005299277 -0.13601486 -0.15150319 0.11919952
000390 0f 75 c0 bd 2a d3 33 be 81 db 93 3c 68 4f da 3c
       -0.09397327 -0.17561021 0.018049004 0.026649192
0003a0 5d e0 3c bc 63 83 34 be c4 68 91 be 56 81 dc 3d
       -0.011528102 -0.17628245 -0.28400242 0.10766856
0003b0 cc 0e 49 bd 81 64 86 be 45 db 9e be 04 c9 06 3e
       -0.049086377 -0.26248553 -0.31026664 0.13162619
0003c0 5e 36 46 bd c6 eb 0b 3e b7 d8 1f 3e f5 fe 12 3e
       -0.048391692 0.13664159 0.15610014 0.14355071
0003d0 39 4c 56 bd a8 6a af 3c 09 54 4d be 77 4a f7 bb
       -0.052318785 0.021413162 -0.20051588 -0.0075467187
0003e0 81 b3 07 bf ac 8d 8b be 9e e9 c4 be ac da 25 3e
       -0.53008276 -0.27256525 -0.38459486 0.16196698
0003f0 73 73 1e be d4 33 73 3e 3e 6b 5f 3e d2 e7 b9 bd
       -0.15473728 0.2375024 0.21818253 -0.09077419

base.mlp.fc2.0.0.bias f4 [64]
000000 83 df 1c bb 0c 60 d4 bb 37 0f 97 3a 3a 09 a4 3a
       -0.0023936934 -0.0064811762 0.001152492 0.0012514957
000010 15 a1 88 b9 cb f1 85 bb a3 da ca 3a 12 e4 e4 bb
       -0.00026059957 -0.004087662 0.0015476536 -0.006985196
000020 7a 97 da ba 9d 53 e6 bb b8 73 2e 3a aa 16 b1 bb
       -0.0016677224 -0.0070290104 0.00066548167 -0.005404313
000030 06 a8 b6 3b 36 5d 01 3b e2 c2 1c bb 19 39 1f bb
       0.005574229 0.0019739396 -0.002391987 -0.0024295507
000040 10 67 c8 3b a5 8b ce 3b 8a 63 c0 3a 23 ed ef bb
       0.0061158016 0.006303268 0.0014678102 -0.00732197
000050 ba 99 8f 3b db b9 8c 3b 0a cf 63 3b 35 22 83 3b
       0.0043823393 0.0042946166 0.0034760856 0.0040018805
000060 3f c9 b6 3b b5 3c a4 3b 5b 43 98 3a 5d 92 83 38
       0.0055781896 0.0050121197 0.0011616753 6.273829e-05
000070 89 61 8a 3b 93 66 cd bb 71 7e cd bb f5 23 d8 3b
       0.004223053 -0.0062683313 -0.0062711765 0.0065960833
000080 29 c9 34 b9 9c e0 ea bb 70 10 9b 3b d8 30 d2 bb
       -0.00017241076 -0.007167889 0.004732184 -0.006414514
000090 e8 c9 00 3b f6 be fe ba db 10 3e 3b d9 43 a3 3b
       0.0019651596 -0.0019435573 0.0029001746 0.0049824533
0000a0 6f 89 9c bb 7c 84 9e 3a 8a 72 e3 3b 7c ee 59 bb
       -0.0047771255 0.0012093927 0.0069411444 -0.003325372
0000b0 ed 64 44 ba 6c 3e d7 3a ea a9 dc ba e7 33 86 bb
       -0.0007491846 0.0016421801 -0.0016835306 -0.0040955427
0000c0 b9 ee cd ba ec fa 03 3b 42 94 52 3b c9 9e 8f 3b
       -0.0015711404 0.0020138575 0.0032131826 0.0043829423
0000d0 7e 88 c5 3a d6 f4 c4 3b a1 2c 39 3b 13 d2 e0 3b
       0.0015070585 0.006010632 0.002825536 0.0068609803
0000e0 bf 9c ae bb 1a 2a 75 3b 7c c1 1c ba d6 65 13 bc
       -0.005328744 0.0037409128 -0.0005979759 -0.008996448
0000f0 c1 a8 50 3b c5 80 5b 3a 75 86 c4 3b 00 4a cc bb
       0.0031838866 0.0008373375 0.005997474 -0.0062344074

base.mlp.fc2.0.2.weight f4 [64]
000000 fd d5 80 3f 72 c8 80 3f 8f e4 7e 3f ce fa 7e 3f
       1.0065304 1.0061171 0.995675 0.9960145
000010 60 72 80 3f 2e 15 80 3f 2b 61 80 3f 90 42 80 3f
       1.0034904 1.0006464 1.0029653 1.0020313
000020 e2 b4 7f 3f 60 41 80 3f 00 0b 81 3f e5 bb 80 3f
       0.9988538 1.0019951 1.0081482 1.0057341
000030 0e 3a 80 3f b2 7f 80 3f bc bb 80 3f 5d cd 80 3f
       1.0017717 1.003897 1.0057292 1.0062672
000040 01 17 7f 3f d9 6b 80 3f a0 e9 80 3f a1 e3 7f 3f
       0.99644476 1.0032912 1.0071297 0.9995671
000050 22 43 80 3f fd 88 80 3f e8 83 80 3f bc 15 7f 3f
       1.0020487 1.0041806 1.0040255 0.9964254
000060 da 09 80 3f 20 8b 80 3f e9 2c 80 3f 86 ce 80 3f
       1.0003006 1.0042458 1.0013705 1.0063026
000070 8c 32 80 3f 8e b5 80 3f 5f 8b 80 3f 6e 06 80 3f
       1.0015426 1.0055406 1.0042533 1.0001962
000080 6f a4 80 3f 7d a2 80 3f fc c9 80 3f 34 07 7f 3f
       1.0050181 1.0049587 1.0061641 0.99620366
000090 aa 61 80 3f e7 bf 7e 3f d2 bb 80 3f c9 75 7f 3f
       1.0029805 0.9951157 1.0057318 0.997891
0000a0 81 e9 7e 3f 8c a3 80 3f 00 87 80 3f 8a 5b 7f 3f
       0.9957505 1.004991 1.0041199 0.9974905
0000b0 f7 2e 80 3f 48 0c 7e 3f 20 a3 80 3f 19 a5 80 3f
       1.0014333 0.9923749 1.0049782 1.0050384
0000c0 41 76 7f 3f 13 d4 7f 3f 0e a1 80 3f ec 38 80 3f
       0.99789816 0.99932975 1.004915 1.0017371
0000d0 1f 4c 80 3f 1d 3f 80 3f 56 83 7e 3f 64 7f 80 3f
       1.002323 1.0019261 0.9941915 1.0038877
0000e0 08 4c 80 3f 96 1b 81 3f 77 92 7f 3f dd b8 7e 3f
       1.0023203 1.0086544 0.9983286 0.9950083
0000f0 3d 1b 80 3f 6c 76 7f 3f f4 a9 80 3f 3a a6 80 3f
       1.0008312 0.9979007 1.0051866 1.0050728

base.mlp.fc2.0.2.bias f4 [64]
000000 48 4d 72 bb 0c 17 c9 bb eb 68 43 3b d0 a1 d7 3a
       -0.0036972333 -0.0061367806 0.0029817175 0.0016451422
000010 86 e6 6a bb 8f be 1e ba a7 ef a8 ba 86 6d 2e bb
       -0.003584297 -0.0006055617 -0.0012888805 -0.0026615574
000020 0d ea d1 ba 25 07 b0 bb 26 d1 4f 3b 04 9a be bb
       -0.0016015187 -0.0053719454 0.0031710356 -0.0058167
000030 ab 3f 02 3b 6c 55 7b 3b 9a 5e bc bb 38 34 93 bb
       0.0019874375 0.0038350476 -0.005748582 -0.004492309
000040 2e da 66 3b 7f 3f b7 3b d7 70 b9 3b 90 5a d9 b8
       0.003522526 0.005592286 0.0056592035 -0.00010364235
000050 21 7e a4 ba 1c 4c a2 3b 37 b6 95 3b db 5f 73 3b
       -0.0012549796 0.0049529206 0.004568841 0.0037135992
000060 22 2f 60 3b 10 b7 b6 3b 6f 68 f9 3a 94 af c8 3b
       0.003420778 0.005576022 0.0019028316 0.006124446
000070 75 d1 11 3b 69 bd bc bb 37 35 a0 bb 1f 0b 7c ba
       0.002225009 -0.005759884 -0.004889156 -0.0009614694
000080 f4 57 a5 bb 15 89 c3 bb 10 90 bd 3b 07 0a 7c bb
       -0.005045885 -0.005967269 0.005784996 -0.0038458125
000090 c3 d0 45 3b 7a 5a ef ba 82 fb a6 3b 14 94 48 3b
       0.0030184246 -0.0018261217 0.0050959 0.003060584
0000a0 f5 dc 83 bb 5d 60 9f 3b 23 e9 a5 3b 22 74 24 bb
       -0.004024143 0.0048637823 0.0050631925 -0.0025093635
0000b0 21 ae b0 b9 f3 0b 82 39 aa fe a0 bb d3 e5 78 bb
       -0.00033699072 0.00024804435 -0.004913171 -0.0037978783
0000c0 38 09 c4 ba 47 46 42 3a 69 21 3a ba 29 1b e9 ba
       -0.0014956361 0.0007410985 -0.00071003154 -0.0017784584
0000d0 8b 53 1d 3b 29 a2 c6 3b 8f 69 e4 ba 31 64 99 3b
       0.0024006094 0.0060618115 -0.0017426478 0.004681133
0000e0 b7 76 08 3b 41 77 ac 3b 79 68 b9 38 53 c8 b0 bb
       0.0020822713 0.0052632396 8.840947e-05 -0.0053949743
0000f0 b0 61 4b 3b bd 82 10 3b e6 a0 80 3b 69 92 b8 bb
       0.0031033568 0.0022050582 0.0039254306 -0.005632688

act.action_out.fc_mean.weight f4 [2, 64]
000000 b4 1d 0b bc 70 ae a2 ba 9c 44 80 ba 6b 06 36 3b
       -0.0084909685 -0.0012411606 -0.0009786072 0.0027774822
000010 a2 e0 b8 ba 99 ad 55 3b 87 a9 18 3c 57 b1 7e bb
       -0.0014105032 0.0032604693 0.009317762 -0.0038863027
000020 0b 0d d0 bb aa 5b 15 3a ce 08 d9 3b cd 84 31 bb
       -0.006349211 0.0005697558 0.006623364 -0.0027087212
000030 70 46 fb 3a b1 91 f1 3a 75 6f c5 ba 19 94 c7 bb
       0.0019170772 0.001843026 -0.0015063124 -0.0060906527
000040 47 a4 2c 3b ad 77 36 3c 5b b8 7f 3a 2b f7 5f 3a
       0.0026343034 0.011136931 0.0009754949 0.0008543606
000050 73 03 8c bb 00 f2 ad 3b a9 e8 87 bb df 0e a9 bb
       -0.004272872 0.0053083897 -0.0041476083 -0.0051592435
000060 f1 96 f5 bb 38 16 97 bb 3d c1 a8 3a 22 b8 38 b9
       -0.0074948003 -0.004610803 0.0012874972 -0.00017616202
000070 a3 04 fd bb 48 a4 17 bb fd 03 73 bb 4a 8b 03 ba
       -0.0077215 -0.002313869 -0.0037081235 -0.0005018009
000080 20 dc d1 ba da 27 07 bb 61 0f 8c 3b 92 c4 60 3b
       -0.0016011037 -0.0020623119 0.0042742942 0.0034296853
000090 1f c3 24 3b 09 45 8f 3b 55 11 3f 3b ac 9c 96 bb
       0.0025140715 0.0043722433 0.0029154618 -0.0045963135
0000a0 10 ae 51 bb b1 49 33 3b 28 bd cf ba ea 00 f1 3a
       -0.0031994618 0.0027357156 -0.001584922 0.0018387113
0000b0 d0 ab 1a bc 6d 66 08 bc c1 50 90 bb 8e fc ba 39
       -0.009440377 -0.008325201 -0.004404158 0.00035664852
0000c0 94 76 65 3b 77 1f 33 bb b8 3c 9e bb dd 01 02 bb
       0.0035013305 -0.0027331987 -0.0048290156 -0.0019837536
0000d0 6b 43 01 3b 65 69 30 3c 40 95 8b 3a 79 07 1c 3b
       0.0019724022 0.0107673155 0.0010649338 0.0023808165
0000e0 52 78 ad 3b d4 ea ad 3b 10 36 4c 3a eb 25 58 3b
       0.0052938843 0.0053075347 0.00077900384 0.0032981585
0000f0 20 42 ea bb 78 f9 35 bb 02 7e 30 3c b6 52 8d bb
       -0.007148996 -0.0027767103 0.01077223 -0.0043128384
000100 52 35 a2 bb 4b 5c 12 bc 72 c1 98 bb 72 23 8b bb
       -0.004950204 -0.008933137 -0.0046617324 -0.004246169
000110 f3 ae f0 bb f2 1e ed 3b c5 b3 c3 bb ba f7 e3 bb
       -0.0073450743 0.007236355 -0.005972358 -0.0069570215
000120 0c 1d 8f 3b 29 90 c5 bb 9a 27 fe 3b f0 0e 0d bc
       0.0043674763 -0.006029148 0.0077561857 -0.008609518
000130 90 56 ef 3b 81 4b f4 3b 47 d0 05 bc 0d c6 07 bc
       0.00730402 0.00745529 -0.008167333 -0.008286965
000140 9b 74 ad bb 52 03 8a 3b ac 5e 15 3c 59 20 d2 3b
       -0.0052934415 0.0042118216 0.00911681 0.0064125475
000150 12 46 eb bb 55 ee fb 3b fb a8 d9 3b 63 09 a8 bb
       -0.007179984 0.0076883235 0.0066424585 -0.005128072
000160 ea cd b8 bb 0e c2 d9 3b e7 2a d6 3b 37 c4 07 3c
       -0.0056397812 0.0066454476 0.006535876 0.008286527
000170 78 b3 a2 bb d1 ed 0c bc 53 aa fa bb b5 9b d0 bb
       -0.004965242 -0.008601622 -0.0076496988 -0.006366218
000180 28 76 f9 bb 02 de 12 bc df d2 0d 3c f1 49 a2 3b
       -0.0076129623 -0.008964064 0.008656233 0.004952662
000190 ef 77 e9 3b 8f a4 42 ba 60 7c 05 3c 02 c4 d7 bb
       0.007124893 -0.0007425034 0.008147329 -0.0065846452
0001a0 43 88 a1 3b 5b a1 fe 3b c3 ff ec 3b 82 5d bc 3b
       0.0049295737 0.0077707 0.0072326376 0.0057484517
0001b0 28 21 8b 3b 26 f5 03 b7 c0 ab 03 bc b7 ba ff bb
       0.004245896 -7.8652865e-06 -0.008036554 -0.0078042406
0001c0 01 f9 b8 3b 2e 6e d9 bb 7a 67 fa bb 1b 08 e4 bb
       0.005644918 -0.006635449 -0.00764173 -0.006958974
0001d0 e9 19 d9 3b da b0 6b 3b 53 a0 9f ba 55 71 e8 3b
       0.006625403 0.0035963566 -0.0012178518 0.0070935884
0001e0 11 11 e2 3b 53 96 0c 3c e5 58 c4 bb cd 4a 71 3b
       0.006899007 0.008580762 -0.0059920424 0.0036818266
0001f0 bb 3a 3a bb 85 3d d1 bb b0 28 de 3a 5e de 0b bc
       -0.0028416354 -0.0063855075 0.0016949382 -0.008536903

act.action_out.fc_mean.bias f4 [2]
000000 46 c8 17 3b 34 75 ed 3b
       0.0023160144 0.0072466377

act.action_out.logstd._bias f4 [2, 1]
000000 69 f3 e4 bb 52 b7 da ba
       -0.0069870246 -0.0016686714
