results/MyEnv/MyEnv/mappo/check/run1/models/actor_agent3.pt (torch, 69388 bytes, 17 tensors)

base.feature_norm.weight f4 [104]
0	0x3f7f1fda	0.99657977
1	0x3f7fac25	0.99872047
2	0x3f7fe5d6	0.99960077
3	0x3f80eb22	1.0071757
4	0x3f80a438	1.0050116
5	0x3f7e5385	0.9934619
6	0x3f801e4f	1.000925
7	0x3f7f08c0	0.99622726
8	0x3f8034fd	1.0016171
9	0x3f7ed785	0.99547607
10	0x3f7fc6ad	0.9991253
11	0x3f80d1e4	1.0064054
12	0x3f8048b8	1.0022192
13	0x3f80dfc4	1.0068288
14	0x3f8060dd	1.002956
15	0x3f7f5b19	0.9974838
16	0x3f807014	1.0034204
17	0x3f806899	1.0031921
18	0x3f7f17ae	0.9964551
19	0x3f7e372d	0.9930294
20	0x3f7eed80	0.99581146
21	0x3f800d8a	1.0004132
22	0x3f7e392e	0.99306
23	0x3f7fcfa2	0.999262
24	0x3f806bbf	1.0032881
25	0x3f805c0d	1.0028092
26	0x3f806cda	1.0033219
27	0x3f80e10d	1.006868
28	0x3f80b28c	1.0054488
29	0x3f7e68e9	0.9937883
30	0x3f80b210	1.005434
31	0x3f7ffab1	0.999919
32	0x3f80c602	1.0060427
33	0x3f7f6c0b	0.99774235
34	0x3f7f6d44	0.997761
35	0x3f7fd9f2	0.99941933
36	0x3f7f8656	0.99814355
37	0x3f7ed324	0.99540925
38	0x3f7ff9f1	0.99990755
39	0x3f7f1881	0.99646765
40	0x3f8043d0	1.0020695
41	0x3f7f999e	0.99843776
42	0x3f808fd7	1.0043896
43	0x3f7e3514	0.9929974
44	0x3f7ee0aa	0.9956156
45	0x3f7f35a2	0.9969121
46	0x3f7f2ed9	0.9968086
47	0x3f80e219	1.0069
48	0x3f7f6a70	0.99771786
49	0x3f7f6daa	0.9977671
50	0x3f80ac45	1.0052572
51	0x3f7fc758	0.9991355
52	0x3f7f4a5c	0.9972284
53	0x3f7feb18	0.999681
54	0x3f7fcac1	0.9991875
55	0x3f80d005	1.0063483
56	0x3f7fa56c	0.9986179
57	0x3f7f80be	0.9980582
58	0x3f7f5601	0.99740607
59	0x3f80bc1e	1.0057409
60	0x3f808a08	1.0042124
61	0x3f80a61c	1.0050693
62	0x3f7e8427	0.994204
63	0x3f7fd7ee	0.9993886
64	0x3f802191	1.0010244
65	0x3f803c13	1.0018333
66	0x3f7ec72f	0.9952268
67	0x3f80068f	1.0002002
68	0x3f80ada3	1.005299
69	0x3f7f1253	0.99637336
70	0x3f8061d6	1.0029857
71	0x3f8099b7	1.004691
72	0x3f7ef9e1	0.99600035
73	0x3f800407	1.0001229
74	0x3f80e212	1.0068991
75	0x3f7f983a	0.99841654
76	0x3f7fdbf2	0.99944985
77	0x3f803d03	1.0018619
78	0x3f7e4eae	0.99338806
79	0x3f7ef607	0.9959416
80	0x3f804e31	1.0023862
81	0x3f7fbdbb	0.9989888
82	0x3f80e295	1.0069147
83	0x3f7fbf59	0.9990135
84	0x3f803101	1.0014955
85	0x3f80a6c5	1.0050894
86	0x3f7f4aba	0.997234
87	0x3f7e8bdf	0.99432176
88	0x3f803c33	1.0018371
89	0x3f7eb20e	0.9949044
90	0x3f7f3f41	0.9970589
91	0x3f7f45a5	0.99715644
92	0x3f7ff2df	0.99979967
93	0x3f7ecd96	0.9953245
94	0x3f801461	1.0006219
95	0x3f803446	1.0015953
96	0x3f80b0d7	1.0053967
97	0x3f7e8c8c	0.9943321
98	0x3f7e2d40	0.99287796
99	0x3f80d3a1	1.0064584
100	0x3f80c9be	1.0061567
101	0x3f800d34	1.0004029
102	0x3f7e3ec1	0.99314505
103	0x3f80240b	1.0011

base.feature_norm.bias f4 [104]
0	0x3b6435c7	0.0034822093
1	0x3aa2c495	0.0012418205
2	0x3993ea71	0.00028212697
3	0xbbf0b6b9	-0.007346001
4	0xbbdf202a	-0.006809254
5	0xbbe3d940	-0.0069533885
6	0x3a02dcc8	0.00049920054
7	0xbb72b769	-0.003703559
8	0x3b3c9dd3	0.0028780594
9	0x3b9449ed	0.004525414
10	0x3a60fa21	0.0008582194
11	0xbbcd90ce	-0.0062733656
12	0xbb10cc2d	-0.0022094354
13	0xbbddab91	-0.006764837
14	0xbb40a9da	-0.0029398114
15	0x3b2712e0	0.0025493428
16	0xbb5fcbd6	-0.0034148595
17	0xbb54f03a	-0.003249182
18	0x3b6d5055	0.0036211212
19	0x3be37bc5	0.0069422447
20	0x3b83c471	0.0040212204
21	0x39600db9	0.00021367417
22	0x3b90e589	0.004421894
23	0xba2c5258	-0.00065735495
24	0x3b6b5a39	0.0035911931
25	0x3a5d61eb	0.0008445072
26	0xbb919cde	-0.004443749
27	0xbbe7e128	-0.0070764013
28	0xbbb8ecf0	-0.0056434795
29	0x3bd03e5a	0.006355089
30	0xbba2f8f7	-0.0049735266
31	0x370c0b2d	8.347252e-06
32	0xbbdad433	-0.006678128
33	0xbb0b5f1b	-0.0021266404
34	0x3bad4ba4	0.005288558
35	0x3a1cbe11	0.000597925
36	0x3a88d725	0.0010440095
37	0x3bc03ce4	0.0058666337
38	0x3beaf465	0.0071702474
39	0xbb5c57d0	-0.0033621676
40	0xbb06a2a5	-0.002054372
41	0x3ad4033c	0.001617528
42	0xbb8eb31d	-0.004354848
43	0x3be44060	0.006965682
44	0x3b90fbe7	0.0044245603
45	0xbb3d2993	-0.0028863891
46	0x3bd4e7ec	0.006497374
47	0xbbd90b05	-0.006623628
48	0xb9417924	-0.00018451043
49	0xbbd8eb30	-0.0066198334
50	0xbbab1e43	-0.0052221133
51	0x3a937f21	0.0011253097
52	0x3b446482	0.0029967134
53	0xb987bf60	-0.00025891792
54	0x38d017b1	9.922626e-05
55	0xbbcd0d64	-0.0062577
56	0x3b13cde9	0.0022553152
57	0x3b2eb097	0.0026655549
58	0x3b3e614d	0.0029049695
59	0x3bd77286	0.0065749316
60	0xbbb937f8	-0.005652424
61	0xbbd982f5	-0.0066379257
62	0x3bc08b98	0.005876016
63	0xbbcfc044	-0.0063400585
64	0xbb095b18	-0.0020958837
65	0xbb06c973	-0.002056685
66	0x3b9d7898	0.0048056357
67	0x3b1634ca	0.0022919648
68	0xbbbf055e	-0.0058294972
69	0x3ba42bf5	0.005010123
70	0xbb43cede	-0.002987794
71	0x3ba9d66a	0.005183031
72	0x3ba9f017	0.0051860916
73	0xb9565f45	-0.00020444121
74	0x3be093c7	0.006853554
75	0xbac404ac	-0.0014955006
76	0xb9a167ec	-0.0003078574
77	0x3aee526f	0.0018182526
78	0xbbd690f0	-0.0065480396
79	0xbb85bcce	-0.004081345
80	0x3b247036	0.0025091297
81	0xba8349a1	-0.001001645
82	0x3be0c8b9	0.0068598655
83	0xba82e2a7	-0.000998576
84	0xba6bb1df	-0.00089910434
85	0xbbac1c12	-0.0052523697
86	0xbb317f1b	-0.0027083817
87	0xbbb902ae	-0.0056460714
88	0x3b7e1e9c	0.0038775569
89	0xbb983f93	-0.0046462505
90	0xbb48d6a1	-0.0030645507
91	0xbb3a929a	-0.002846873
92	0xb90fa46b	-0.00013698793
93	0xbb973d78	-0.004615482
94	0x3a2e4200	0.0006647408
95	0x3ac4a032	0.0015001355
96	0x3baedc3d	0.005336313
97	0xbbbab97a	-0.00569838
98	0xbbe8286e	-0.0070848977
99	0x3bd144c6	0.0063863723
100	0x3bc76968	0.0060855635
101	0x39cd98ba	0.00039214437
102	0xbbdefe3b	-0.006805209
103	0x3a84559a	0.0010096312

base.mlp.fc1.0.weight f4 [64, 104]
0	0xbdda12b1	-0.10648096
1	0x3df70fc5	0.12063555
2	0x3e644309	0.22291197
3	0x3deb9940	0.115038395
4	0xbe381c3f	-0.17979525
5	0x3e9ab42f	0.30215594
6	0xbdca0f8c	-0.098662466
7	0xbe90d3f2	-0.282867
8	0xbe512888	-0.20425618
9	0xbdad1678	-0.08451551
10	0xbe9187ce	-0.28423923
11	0xbd35aa52	-0.044351883
12	0x3e244227	0.1604086
13	0xbe996580	-0.2996025
14	0x3db8afa4	0.09017876
15	0x3d214808	0.039375335
16	0xbc1468f5	-0.009058227
17	0xbdc16889	-0.094437666
18	0x3d37e78b	0.04489855
19	0xbda2f0ba	-0.07956071
20	0x3cc21ec8	0.023696318
21	0x3e353319	0.17695273
22	0xbe042312	-0.12904003
23	0xbd4a7484	-0.049427524
24	0x3e5d6986	0.21622285
25	0xbdb3112d	-0.087435104
26	0xbea56e96	-0.32310933
27	0x3e9b2173	0.30298957
28	0xbd59b4a6	-0.053150795
29	0xbb86aa2a	-0.0041096406
30	0x3d740901	0.0595789
31	0x3e89d6c5	0.2692167
32	0xbe27de19	-0.16393317
33	0x3d83a884	0.06428626
34	0x3d8ccbaa	0.06874783
35	0x3e18e0f4	0.14929563
36	0x3d8969ae	0.0670961
37	0xbdbce7c7	-0.092238955
38	0x3d986ba9	0.074424095
39	0x3e2a476b	0.16628806
40	0xbd28d903	-0.041222584
41	0xbe2fed27	-0.1718031
42	0x3da770df	0.08175825
43	0xbc2ccdff	-0.01054716
44	0x3df3361c	0.11875555
45	0xbe8d6718	-0.27617717
46	0xbdfc2fde	-0.123138174
47	0x3d233eea	0.03985492
48	0xbe020950	-0.12698865
49	0xbe3075f2	-0.17232493
50	0x3e29219e	0.1651673
51	0xbdc08011	-0.09399427
52	0xbe1e1ff3	-0.15441875
53	0xbb676f8f	-0.0035314297
54	0xbe91b610	-0.28459215
55	0x3e892850	0.26788568
56	0x3d430d5a	0.047620155
57	0x3e5a11e2	0.21295884
58	0xbdeca7fc	-0.11555478
59	0x3dfcdd16	0.12346856
60	0xbc7fa53a	-0.015603358
61	0x3e31c09c	0.17358631
62	0xbd8f92c5	-0.07010416
63	0x3cccf9c1	0.025021436
64	0xbd91d46b	-0.07120594
65	0x3e9074ef	0.28214213
66	0xbe5c27f2	-0.21499613
67	0x3ea85d06	0.3288347
68	0xbd423dd8	-0.04742226
69	0xbe1f7851	-0.15573241
70	0x3db2782f	0.087143295
71	0x3dc81451	0.097695
72	0x3d8f978b	0.070113264
73	0xbe92d2aa	-0.2867635
74	0xbe359cf8	-0.1773566
75	0xbe23152f	-0.1592605
76	0x3d946948	0.07246643
77	0xbe850f87	-0.2598841
78	0xbde2c2a1	-0.11072279
79	0x3ba6cba3	0.0050901934
80	0x3d40d642	0.047079332
81	0x3da385bf	0.079844944
82	0xbd7f68f0	-0.062355936
83	0x3d21f1a2	0.03953708
84	0x3e6f26fe	0.23354718
85	0x3cd03ff4	0.02542112
86	0x3db32535	0.08747331
87	0xbdab4eb6	-0.08364622
88	0x3dac1764	0.08402899
89	0x3ee383a7	0.4443638
90	0xbe123298	-0.14277112
91	0xbd428c3a	-0.04749701
92	0xbcd6be45	-0.026213774
93	0x3dbf3f22	0.093382135
94	0xbdbe652b	-0.0929664
95	0x3e39dca4	0.18150574
96	0xbe737110	-0.23773599
97	0x3b681433	0.003541243
98	0xbe9d65e5	-0.30741802
99	0x3e9980fd	0.29981223
100	0x3e46edd4	0.19426662
101	0x3e313ad8	0.17307603
102	0xbca13702	-0.01967955
103	0xbe055a06	-0.13022622
104	0x3e6a7d78	0.22899425
105	0x3d483296	0.048876368
106	0xbdf127d0	-0.11775172
107	0xbd23dd00	-0.040005684
108	0x3b82baaf	0.0039895396
109	0x3e8b8c43	0.2725545
110	0xbdb8a073	-0.09014978
111	0x3e11f78d	0.1425459
112	0xbb048ae6	-0.0020224391
113	0xbd23c0b1	-0.039978687
114	0x3d7ce473	0.061741304
115	0xbc0a357f	-0.008435606
116	0x3e222dfb	0.15837853
117	0xbe812b49	-0.25228336
118	0xbe3586b2	-0.17727163
119	0xbd9475df	-0.072490446
120	0xbe78ff37	-0.24316107
121	0xbe11e839	-0.14248742
122	0xbc106b2a	-0.008814612
123	0x3c629562	0.013829561
124	0x3dda8221	0.10669351
125	0x3c998277	0.018738968
126	0xbc39d7c9	-0.011342951
127	0x3d214031	0.03936786
128	0xbe6353fb	-0.22200005
129	0x3dc5a87c	0.096512765
130	0x3e04a0aa	0.12951913
131	0x3da4c429	0.08045227
132	0xbcd45d07	-0.025923265
133	0xbc0cff1a	-0.008605743
134	0xbd286edd	-0.041121352
135	0x3e3fb984	0.18723112
136	0xbd4ea1ca	-0.050447263
137	0x3ed7e6d4	0.42168295
138	0xbea12689	-0.31474712
139	0x3e5afa8a	0.21384636
140	0xbdca083c	-0.09864852
141	0xbd9b2555	-0.0757548
142	0xbe4e8b4c	-0.20170325
143	0x3e86afba	0.26305944
144	0xbdbfd910	-0.09367573
145	0xbd89c740	-0.06727457
146	0xbe0eacf5	-0.13933165
147	0x3ddd9dac	0.10821089
148	0x3e9ecb58	0.31014514
149	0x3dbaf2a1	0.09128309
150	0xbe743123	-0.23846869
151	0xbe3e514b	-0.18585698
152	0x3e9c4afb	0.30525956
153	0x3b3ba696	0.0028633229
154	0xbe60a1ba	-0.21936694
155	0xbd9ab0f9	-0.07553286
156	0xbdba9f3a	-0.09112401
157	0x3d899a92	0.06718935
158	0xbdf103f8	-0.11768335
159	0x3d89e726	0.06733541
160	0xbdc9777b	-0.09837242
161	0x3d0b4d51	0.03400928
162	0x3e61c46f	0.2204759
163	0x3ea54f49	0.32287052
164	0x3dbb533b	0.09146734
165	0xbe23b303	-0.15986256
166	0x3e114f97	0.14190517
167	0x3e2897eb	0.16464202
168	0x3cc4ecd1	0.024038704
169	0x3a42dfd4	0.00074338657
170	0x3ebb2c0f	0.36557052
171	0xbd029487	-0.031879928
172	0xbddc1a77	-0.10747235
173	0x3e0da017	0.138306
174	0x3e3bb464	0.18330532
175	0x3e244879	0.16043271
176	0x3e6ca24f	0.23108791
177	0xbdcbe12c	-0.099550575
178	0xbded6796	-0.11592023
179	0xbdb3567f	-0.08756732
180	0x3e832a2d	0.25618115
181	0x3e5c86c3	0.21535783
182	0x3c28a659	0.010293567
183	0xbe7ec9d8	-0.24881685
184	0xbe24d807	-0.16098033
185	0xbe9775bc	-0.29582012
186	0xbe5ba765	-0.21450575
187	0xbcad6593	-0.021166598
188	0x3df1d5c6	0.11808352
189	0xbe8c597f	-0.2741203
190	0xbc985b68	-0.018598273
191	0xbe97fb44	-0.29683888
192	0x3da364a6	0.079781815
193	0xbe008f18	-0.12554586
194	0xbe0f41f1	-0.13989998
195	0xbdb41da1	-0.08794714
196	0x3dfbcbee	0.12294756
197	0xbea9264c	-0.3303703
198	0x3ca289cd	0.0198411
199	0x3e0b12cf	0.13581394
200	0x3eaee0bf	0.34155843
201	0x3ca37199	0.019951629
202	0x3cc7b3c4	0.024377711
203	0xbc7ef887	-0.015562183
204	0xbdb1f9fb	-0.08690258
205	0xbce26427	-0.027635647
206	0xbda11de5	-0.0786703
207	0xbc991f7f	-0.018691776
208	0x3e8df10d	0.2772297
209	0xbddf40a9	-0.10901005
210	0xbe92da76	-0.28682297
211	0xbe111be2	-0.14170793
212	0x3d56b389	0.05241731
213	0xbd86d27b	-0.06583115
214	0xbe5658d2	-0.2093232
215	0x3e022966	0.12711105
216	0xbead2190	-0.3381467
217	0x3e333bc6	0.1750327
218	0x3e455918	0.19272268
219	0xbe1fab7b	-0.15592758
220	0xbe25a9af	-0.1617801
221	0xbe97b9ff	-0.2963409
222	0xbdcdf1e3	-0.10055902
223	0x3e8a5b32	0.27022702
224	0x3e647d3f	0.22313403
225	0xbcf54173	-0.029938435
226	0x3e252ea1	0.16131069
227	0x3d163c63	0.036678683
228	0xbd557643	-0.052114736
229	0x3dccd08a	0.10000713
230	0x3dbca2c6	0.09210734
231	0xbe6a9da5	-0.22911699
232	0x3e41166b	0.18856208
233	0x3e8e7a7f	0.27827832
234	0xbdfcae7f	-0.1233797
235	0x3e080a09	0.13285078
236	0x3c38caa1	0.011278779
237	0xbda3407a	-0.07971282
238	0xbd505ef0	-0.05087179
239	0xbea5dfbd	-0.3239726
240	0x3d9e84a2	0.077401415
241	0x3d58e772	0.0529551
242	0x3e5ceaa7	0.21573888
243	0x3d08131d	0.033221353
244	0xbd346fcf	-0.04405194
245	0x3e34a6ca	0.1764175
246	0x3e7109dc	0.23538917
247	0xbddb79c1	-0.10716582
248	0x3d10ea24	0.035379544
249	0x3e517812	0.2045596
250	0xbe26c197	-0.16284786
251	0xbe534dea	-0.2063519
252	0xbe8246e3	-0.25444707
253	0xbe03cb47	-0.12870513
254	0x3c849aee	0.016187157
255	0x3e3b4f37	0.18291937

base.mlp.fc1.0.bias f4 [64]
0	0xb96a59c9	-0.00022349427
1	0x3b9d1f67	0.004795003
2	0x3ba9f088	0.0051861443
3	0x3ae65842	0.001757391
4	0x3a03dfba	0.0005030591
5	0x393b503c	0.000178636
6	0x3bce9a23	0.0063049956
7	0x392bc400	0.00016380847
8	0xbbd4dfcc	-0.006496405
9	0xb9fa4281	-0.00047733265
10	0x3b9c58b1	0.004771315
11	0xbbb2e45d	-0.005459352
12	0x3b8c0afa	0.0042737694
13	0x3be47f13	0.0069731562
14	0xbbd456a6	-0.006480056
15	0x3b0086bc	0.0019611558
16	0x3b88f4fd	0.0041795955
17	0xbb357cf6	-0.002769289
18	0x3b230354	0.002487381
19	0x39a7945c	0.00031963259
20	0xbb6c8130	-0.0036087744
21	0xba859ddc	-0.001019414
22	0xbb1c8ffd	-0.0023889535
23	0x3ba1315c	0.004919214
24	0x39bcd665	0.0003601789
25	0xb9e04c7a	-0.0004278159
26	0x3b173c3d	0.0023076676
27	0xbbb31be1	-0.00546597
28	0xbb0a8e3b	-0.0021141905
29	0xba2b32d2	-0.0006530705
30	0xba9c189e	-0.0011909192
31	0x3aca0a3c	0.0015414427
32	0x3ba47b93	0.005019614
33	0xbbb6b6ff	-0.005576014
34	0xbbe06864	-0.006848382
35	0xbbb99fe2	-0.0056648115
36	0xbb6e4df5	-0.0036362384
37	0xbb837be6	-0.0040125726
38	0xbb8ea000	-0.0043525696
39	0xbac11d2a	-0.0014733423
40	0xbbb30175	-0.00546282
41	0xbbce160f	-0.0062892507
42	0xbbec85fe	-0.0072181216
43	0xbb973bdd	-0.0046152906
44	0xbb5ec107	-0.0033989565
45	0x3b12912e	0.0022364366
46	0xbbbfc22d	-0.005852005
47	0x3be0dd66	0.0068623303
48	0x3bb5bf11	0.0055464585
49	0xbabcb379	-0.0014396749
50	0x3b5a0498	0.0033266898
51	0xba1929dd	-0.0005842725
52	0xbab927d5	-0.0014126251
53	0xbb85d698	-0.0040844195
54	0x3b78d0ff	0.0037966368
55	0xbba75b95	-0.005107353
56	0x3bb8c836	0.0056391014
57	0xbb79b613	-0.003810291
58	0x3b3b7881	0.0028605761
59	0xbba676bd	-0.0050800727
60	0x3ba2bde5	0.004966485
61	0x3a8567c7	0.0010178023
62	0xbadc6326	-0.0016814217
63	0x3ba5779d	0.0050496594

base.mlp.fc1.2.weight f4 [64]
0	0x3f7f62ae	0.9975995
1	0x3f7e9cd9	0.9945808
2	0x3f7fb2a3	0.99881953
3	0x3f7f7220	0.99783516
4	0x3f80c91a	1.0061371
5	0x3f7eeeb9	0.9958301
6	0x3f7e7c8d	0.994088
7	0x3f8049b4	1.0022492
8	0x3f80d574	1.0065141
9	0x3f7faee6	0.9987625
10	0x3f7e513a	0.9934269
11	0x3f7e6fd6	0.993894
12	0x3f80bf73	1.0058426
13	0x3f7e30cf	0.99293226
14	0x3f805f45	1.0029074
15	0x3f7f3283	0.9968645
16	0x3f807f86	1.0038917
17	0x3f7f48a3	0.9972021
18	0x3f80d5a1	1.0065194
19	0x3f7f4733	0.99718016
20	0x3f7ecce2	0.99531376
21	0x3f80bc0c	1.0057387
22	0x3f807f5b	1.0038866
23	0x3f80c7f2	1.0061018
24	0x3f7fdbba	0.9994465
25	0x3f800f31	1.0004636
26	0x3f7f6fe2	0.99780095
27	0x3f80de78	1.0067892
28	0x3f809069	1.004407
29	0x3f7e920d	0.99441606
30	0x3f8071b3	1.0034698
31	0x3f7e9573	0.9944679
32	0x3f800c4d	1.0003754
33	0x3f80c61a	1.0060456
34	0x3f7e38f9	0.99305683
35	0x3f7fa459	0.9986015
36	0x3f7e6d3d	0.99385434
37	0x3f803c23	1.0018352
38	0x3f802491	1.0011159
39	0x3f7e9511	0.9944621
40	0x3f8076c7	1.0036248
41	0x3f7e8321	0.99418837
42	0x3f7e294b	0.9928176
43	0x3f806799	1.0031615
44	0x3f7e616e	0.99367416
45	0x3f80d0dd	1.006374
46	0x3f8081a6	1.0039566
47	0x3f7f2f8a	0.99681914
48	0x3f80c6a9	1.0060626
49	0x3f801e3c	1.0009227
50	0x3f803423	1.0015911
51	0x3f7f9a05	0.9984439
52	0x3f7f5232	0.99734795
53	0x3f8043c2	1.0020678
54	0x3f809ca6	1.0047805
55	0x3f7ea7f8	0.9947505
56	0x3f7f9849	0.99841744
57	0x3f807f57	1.0038861
58	0x3f7f13f4	0.9963982
59	0x3f7e7fb1	0.9941359
60	0x3f80d236	1.0064151
61	0x3f8010e9	1.000516
62	0x3f7f681e	0.99768245
63	0x3f80d818	1.0065947

base.mlp.fc1.2.bias f4 [64]
0	0x3b070b3f	0.0020606068
1	0x3ba9c10c	0.0051804837
2	0x3bc96056	0.0061455173
3	0xbabac434	-0.0014249147
4	0x3bc81110	0.0061055496
5	0xbaf8554a	-0.0018946317
6	0x3bc78a46	0.0060894815
7	0x3b0d1b8e	0.0021531316
8	0xbbd45f5b	-0.006481094
9	0x39239e62	0.00015603894
10	0x3bd2b0d0	0.006429769
11	0xbbc503e0	-0.006012425
12	0x3bbdebef	0.0057959477
13	0x3be87b91	0.0070948084
14	0xbbc756c4	-0.0060833413
15	0x3b45fe7d	0.0030211501
16	0x3b8563d6	0.0040707393
17	0xbb2d9897	-0.0026488656
18	0x3bd436f6	0.0064762784
19	0x3a82120f	0.0009923595
20	0xbb8d2c2e	-0.004308245
21	0xbbb6556c	-0.0055643823
22	0xbb751249	-0.0037394932
23	0x3bc6f5ca	0.006071781
24	0x3a39ac68	0.00070828805
25	0x3a0d8023	0.0005397817
26	0x3b2c58e2	0.0026298095
27	0xbbdc6191	-0.006725498
28	0xbb8eeb44	-0.004361542
29	0xba21a526	-0.00061662716
30	0x3b31aef8	0.0027112346
31	0x3af1913b	0.0018430123
32	0x3bb160a0	0.00541313
33	0xbbc7075c	-0.0060738754
34	0xbbe5432b	-0.0069965324
35	0xba16d259	-0.000575339
36	0xbbc96943	-0.0061465814
37	0xbaf88648	-0.0018960917
38	0xbb4188b0	-0.0029530935
39	0xbaa290cb	-0.0012402771
40	0xbb786807	-0.0037903802
41	0xbbbf9364	-0.0058464278
42	0xbbee8ad2	-0.0072797323
43	0x3af7ebe6	0.0018914908
44	0xbbc887e7	-0.0061197164
45	0x3bade7d9	0.0053071794
46	0xbbb047bb	-0.0053796447
47	0x3beb67ca	0.0071840035
48	0x3bc65e9d	0.0060537593
49	0x3a4c6b04	0.0007797929
50	0x3af119fc	0.0018394585
51	0xbab439d0	-0.001375014
52	0xba01a3bc	-0.0004945358
53	0xbb6740b2	-0.0035286364
54	0x3b9bf788	0.0047597326
55	0xbbabfb98	-0.005248498
56	0x3bc96b2f	0.0061468105
57	0xbb7e42da	-0.003879717
58	0x3b7f245d	0.0038931586
59	0xbbc01496	-0.005861829
60	0x3bd11dee	0.0063817417
61	0x3a325a5a	0.00068036246
62	0xbb0fab5e	-0.002192221
63	0x3bd63438	0.0065369867

base.mlp.fc_h.0.weight f4 [64, 64]
0	0xbe8b33b4	-0.27187884
1	0xbe97e3fc	-0.29666126
2	0x3de704f0	0.11280239
3	0xbc6bfb40	-0.014403164
4	0x3c7e5a2f	0.015524431
5	0x3d845584	0.06461623
6	0x3d98e356	0.07465236
7	0x3e9aa016	0.3020026
8	0xbe0bb0ad	-0.13641615
9	0xbeb00536	-0.34378976
10	0xbe373bb4	-0.17893869
11	0xbe951a00	-0.291214
12	0x3d6b4469	0.057438288
13	0xbeaad418	-0.3336494
14	0xbe80d6af	-0.2516379
15	0x3e615389	0.22004522
16	0xbe980afd	-0.29695883
17	0x3f058811	0.52160746
18	0x3edc860b	0.43071017
19	0xbe0dc021	-0.13842823
20	0x3e8679e8	0.26264882
21	0x3dd80c76	0.10549252
22	0x3e716ba0	0.23576212
23	0xbde7ad6b	-0.11312374
24	0x3e5af67c	0.21383089
25	0xbdb4a9a7	-0.08821421
26	0xbea2ac06	-0.31771868
27	0x3e09936a	0.1343514
28	0x3d591b39	0.053004477
29	0xbe75c9f2	-0.24002817
30	0x3e898853	0.2686182
31	0x3e55ef68	0.20892107
32	0xbd3d322c	-0.046190426
33	0xbe80a562	-0.25126177
34	0xbea6cb78	-0.3257711
35	0x3da4f546	0.08054595
36	0x3e7de733	0.24795227
37	0x3e408137	0.18799292
38	0xbcbf4b00	-0.023351192
39	0x3ad4e002	0.0016241076
40	0xbd0a8c56	-0.03382524
41	0xbe0cf18f	-0.13764022
42	0x3d2957bc	0.041343436
43	0xbe980a1f	-0.29695222
44	0xbe44c3d8	-0.19215333
45	0x3c8d5adb	0.017255237
46	0x3e1f03bc	0.15528768
47	0x3d87b28f	0.06625854
48	0xbdeafe4e	-0.11474286
49	0x3e1ec0ef	0.15503286
50	0xbdf7fbf2	-0.12108602
51	0x3e63e217	0.22254215
52	0x3bc28b82	0.005937041
53	0x3aab39e6	0.001306352
54	0x3d7cc7a7	0.06171384
55	0xbe547075	-0.20746024
56	0xbded7948	-0.11595398
57	0x3c4b07a7	0.012391961
58	0xbe09efbe	-0.1347036
59	0xbe81f62e	-0.25383133
60	0xbedd09e9	-0.43171623
61	0xbd91457f	-0.070933335
62	0xbbcb0d82	-0.0061966786
63	0xbe8a14b1	-0.2696891
64	0x3ec637ec	0.3871454
65	0x3df5fe2a	0.120113686
66	0x3e286199	0.1644348
67	0xbe9e0b11	-0.30867818
68	0xbeba291c	-0.3635949
69	0xbbfdb6a5	-0.00774272
70	0x3ce1383e	0.027492639
71	0xbe04c7be	-0.1296682
72	0x3d5693ff	0.052387234
73	0x3e2623ba	0.16224566
74	0x3cf6f340	0.030145288
75	0xbccbe05b	-0.024887254
76	0xbe81fa79	-0.25386408
77	0x3e02517f	0.12726401
78	0xbee5ce3d	-0.4488391
79	0x3ce68c51	0.02814308
80	0xbed950e9	-0.42444542
81	0x3e443615	0.19161256
82	0x3e64d061	0.22345115
83	0x3e9fc028	0.3120129
84	0x3d674d43	0.056470167
85	0xbdaa4e16	-0.08315675
86	0xbe98d0dd	-0.2984685
87	0x3e29269c	0.16518635
88	0xbe795380	-0.24348259
89	0x3ea79331	0.32729486
90	0x3d09c586	0.03363564
91	0xbd94cf51	-0.07266105
92	0x3d540cb4	0.051769927
93	0xbd5e8f0a	-0.05433563
94	0x3f09812d	0.5371273
95	0x3b0f4932	0.0021863696
96	0x3ddfc6d2	0.10926594
97	0xbdc8eb1c	-0.098104686
98	0xbe195bf4	-0.14976484
99	0xbe2f14f0	-0.17097831
100	0xbe7cb28d	-0.24677487
101	0x3c4b4bbc	0.012408193
102	0x3e84633f	0.2585697
103	0xbe8eb1a7	-0.27869913
104	0xbd99020b	-0.07471093
105	0xbddd3ae0	-0.10802245
106	0xbd500c81	-0.050793175
107	0xbdaae00c	-0.08343515
108	0xbeb1a1d3	-0.34693775
109	0x3e2e2f0e	0.17010137
110	0x3c0ca72c	0.008584779
111	0xbdcfa2cd	-0.10138474
112	0x3c67a269	0.014137843
113	0xbe8c77fc	-0.2743529
114	0x3bb424a4	0.005497532
115	0xbd1aefeb	-0.03782646
116	0xbc6171f7	-0.0137600815
117	0x3e7ecbc9	0.24882425
118	0x3dd20003	0.102539085
119	0x3d58069e	0.052740686
120	0xbe9a8baf	-0.30184695
121	0xbc190b6b	-0.009341101
122	0x3ec516ae	0.38493866
123	0x3e4a8108	0.19775784
124	0x3ce506be	0.027957316
125	0xbc628b53	-0.013827163
126	0x3ebe565b	0.3717526
127	0x3e3f9420	0.18708849
128	0xbe6740b4	-0.22583276
129	0xbe810d49	-0.25205448
130	0x3d276e4a	0.040876664
131	0x3e729252	0.2368863
132	0x3e2db39a	0.16963044
133	0x3cf5e0e8	0.03001447
134	0x3e783ab9	0.24241151
135	0xbc0cc5ea	-0.008592108
136	0xbe5cccbd	-0.21562476
137	0x3e635ba2	0.22202924
138	0xbd65d9f7	-0.05611607
139	0xbe9ab6aa	-0.30217487
140	0xbe9a919d	-0.3018922
141	0x3db6d7ea	0.08927901
142	0x3def2cb4	0.11678448
143	0xbe8c32ba	-0.2738245
144	0xbeb76c78	-0.35824943
145	0x3e2791e5	0.16364248
146	0x3e3ebcfc	0.1862678
147	0x3e28c6a9	0.16482033
148	0xbee145ed	-0.43998662
149	0x3c9cbd83	0.019133335
150	0xbe31d73e	-0.17367265
151	0xbe72975a	-0.23690549
152	0xbe972692	-0.29521614
153	0x3eda0f99	0.42590025
154	0x3df14b28	0.11781913
155	0x3e9fa9a3	0.3118411
156	0xbb92083e	-0.004456549
157	0x3e382c4a	0.17985645
158	0x3d185c03	0.037197124
159	0xbdfd12c2	-0.123570934
160	0x3e98d49d	0.2984971
161	0xbc248d31	-0.010043428
162	0xbd9507cc	-0.07276878
163	0xbc465db1	-0.012107299
164	0x3ee0150b	0.43766055
165	0x3e1f73b6	0.15571484
166	0x3de8a84c	0.11360225
167	0x3d9f0789	0.07765109
168	0xbdaca6d0	-0.084302545
169	0x3ec6a9ce	0.38801426
170	0xbd236bfb	-0.0398979
171	0x3d4b54db	0.04964147
172	0x3e155616	0.1458362
173	0xbb955009	-0.00455666
174	0xbd885942	-0.066576496
175	0x3c92c4e1	0.017916145
176	0x3f04df2c	0.51903033
177	0x3ec7b25a	0.3900326
178	0x3e1a4d08	0.15068448
179	0x3e6ec6a4	0.23317963
180	0x3e63b5e1	0.2223735
181	0x3d862788	0.06550509
182	0x3df89b96	0.12139051
183	0x3e0539ea	0.13010374
184	0x3e378165	0.17920454
185	0xbdeeb3f4	-0.11655417
186	0x3d44cd3e	0.048047297
187	0x3e183474	0.1486376
188	0x3e041890	0.12899995
189	0x3b3fccdf	0.00292664
190	0xbe0499b9	-0.12949266
191	0xbdbbbd31	-0.09166945
192	0x3e995f3c	0.2995547
193	0x3ceeb73c	0.029140107
194	0x3db3dd2d	0.0878242
195	0x3d879a95	0.06621281
196	0xbe57709f	-0.21039055
197	0xbdc61379	-0.09671683
198	0x3de59b15	0.1121122
199	0x3d9a0cd6	0.075219795
200	0x3cef0c18	0.029180571
201	0xbe695dcd	-0.22789688
202	0xbe30d71d	-0.17269559
203	0x3e1b2081	0.15149118
204	0x3a18ae0a	0.00058242737
205	0xbe6d432e	-0.23170158
206	0x3e9a3d38	0.3012483
207	0x3e3993b7	0.18122755
208	0x3c80c082	0.015716795
209	0xbe48830f	-0.19581245
210	0x3e62f00f	0.22161888
211	0x3e4a4b95	0.19755395
212	0x3dc32713	0.09528937
213	0xbe03a8b9	-0.12857331
214	0xbe4dc68f	-0.20095275
215	0xbea61f2f	-0.32445666
216	0x3e0ba560	0.13637304
217	0x3e3384e7	0.17531167
218	0x3e370ac3	0.17875199
219	0xbeb98842	-0.3623677
220	0x3e496dc8	0.19670784
221	0xbe8cbd98	-0.274884
222	0x3d4219c7	0.047387864
223	0xbe57e241	-0.21082403
224	0x3e9416ad	0.2892355
225	0x3bf64000	0.0075149536
226	0xbd1170fd	-0.035508145
227	0x3dc53bf1	0.096305735
228	0xbe8279eb	-0.2548364
229	0x3dac7457	0.084206276
230	0x3e8afc71	0.27145723
231	0xbe1bbe6b	-0.15209357
232	0xbe2e8a96	-0.17045054
233	0x3de06d30	0.10958326
234	0x3e860965	0.26179042
235	0xbe8d39c6	-0.2758314
236	0xbe2dd445	-0.16975506
237	0xbedce18a	-0.43140823
238	0xbd23e10f	-0.040009554
239	0xbe027a48	-0.12741959
240	0x3d18f95f	0.037347194
241	0x3defafd1	0.11703456
242	0x3e4c0232	0.19922712
243	0x3e208fe6	0.15679893
244	0xbe8b945f	-0.27261636
245	0xbe27493b	-0.16336529
246	0xbed1b121	-0.4095545
247	0x3d179ede	0.037016742
248	0x3e6fbed1	0.23412634
249	0xbe12e11b	-0.14343683
250	0xbf0135f4	-0.5047295
251	0x3ebe207c	0.3713416
252	0x3dbc0fe1	0.09182716
253	0xbe217ee0	-0.15771055
254	0xbd508004	-0.050903335
255	0xbeaccd68	-0.33750463

base.mlp.fc_h.0.bias f4 [64]
0	0x00000000	0.0
1	0x00000000	0.0
2	0x00000000	0.0
3	0x00000000	0.0
4	0x00000000	0.0
5	0x00000000	0.0
6	0x00000000	0.0
7	0x00000000	0.0
8	0x00000000	0.0
9	0x00000000	0.0
10	0x00000000	0.0
11	0x00000000	0.0
12	0x00000000	0.0
13	0x00000000	0.0
14	0x00000000	0.0
15	0x00000000	0.0
16	0x00000000	0.0
17	0x00000000	0.0
18	0x00000000	0.0
19	0x00000000	0.0
20	0x00000000	0.0
21	0x00000000	0.0
22	0x00000000	0.0
23	0x00000000	0.0
24	0x00000000	0.0
25	0x00000000	0.0
26	0x00000000	0.0
27	0x00000000	0.0
28	0x00000000	0.0
29	0x00000000	0.0
30	0x00000000	0.0
31	0x00000000	0.0
32	0x00000000	0.0
33	0x00000000	0.0
34	0x00000000	0.0
35	0x00000000	0.0
36	0x00000000	0.0
37	0x00000000	0.0
38	0x00000000	0.0
39	0x00000000	0.0
40	0x00000000	0.0
41	0x00000000	0.0
42	0x00000000	0.0
43	0x00000000	0.0
44	0x00000000	0.0
45	0x00000000	0.0
46	0x00000000	0.0
47	0x00000000	0.0
48	0x00000000	0.0
49	0x00000000	0.0
50	0x00000000	0.0
51	0x00000000	0.0
52	0x00000000	0.0
53	0x00000000	0.0
54	0x00000000	0.0
55	0x00000000	0.0
56	0x00000000	0.0
57	0x00000000	0.0
58	0x00000000	0.0
59	0x00000000	0.0
60	0x00000000	0.0
61	0x00000000	0.0
62	0x00000000	0.0
63	0x00000000	0.0

base.mlp.fc_h.2.weight f4 [64]
0	0x3f800000	1.0
1	0x3f800000	1.0
2	0x3f800000	1.0
3	0x3f800000	1.0
4	0x3f800000	1.0
5	0x3f800000	1.0
6	0x3f800000	1.0
7	0x3f800000	1.0
8	0x3f800000	1.0
9	0x3f800000	1.0
10	0x3f800000	1.0
11	0x3f800000	1.0
12	0x3f800000	1.0
13	0x3f800000	1.0
14	0x3f800000	1.0
15	0x3f800000	1.0
16	0x3f800000	1.0
17	0x3f800000	1.0
18	0x3f800000	1.0
19	0x3f800000	1.0
20	0x3f800000	1.0
21	0x3f800000	1.0
22	0x3f800000	1.0
23	0x3f800000	1.0
24	0x3f800000	1.0
25	0x3f800000	1.0
26	0x3f800000	1.0
27	0x3f800000	1.0
28	0x3f800000	1.0
29	0x3f800000	1.0
30	0x3f800000	1.0
31	0x3f800000	1.0
32	0x3f800000	1.0
33	0x3f800000	1.0
34	0x3f800000	1.0
35	0x3f800000	1.0
36	0x3f800000	1.0
37	0x3f800000	1.0
38	0x3f800000	1.0
39	0x3f800000	1.0
40	0x3f800000	1.0
41	0x3f800000	1.0
42	0x3f800000	1.0
43	0x3f800000	1.0
44	0x3f800000	1.0
45	0x3f800000	1.0
46	0x3f800000	1.0
47	0x3f800000	1.0
48	0x3f800000	1.0
49	0x3f800000	1.0
50	0x3f800000	1.0
51	0x3f800000	1.0
52	0x3f800000	1.0
53	0x3f800000	1.0
54	0x3f800000	1.0
55	0x3f800000	1.0
56	0x3f800000	1.0
57	0x3f800000	1.0
58	0x3f800000	1.0
59	0x3f800000	1.0
60	0x3f800000	1.0
61	0x3f800000	1.0
62	0x3f800000	1.0
63	0x3f800000	1.0

base.mlp.fc_h.2.bias f4 [64]
0	0x00000000	0.0
1	0x00000000	0.0
2	0x00000000	0.0
3	0x00000000	0.0
4	0x00000000	0.0
5	0x00000000	0.0
6	0x00000000	0.0
7	0x00000000	0.0
8	0x00000000	0.0
9	0x00000000	0.0
10	0x00000000	0.0
11	0x00000000	0.0
12	0x00000000	0.0
13	0x00000000	0.0
14	0x00000000	0.0
15	0x00000000	0.0
16	0x00000000	0.0
17	0x00000000	0.0
18	0x00000000	0.0
19	0x00000000	0.0
20	0x00000000	0.0
21	0x00000000	0.0
22	0x00000000	0.0
23	0x00000000	0.0
24	0x00000000	0.0
25	0x00000000	0.0
26	0x00000000	0.0
27	0x00000000	0.0
28	0x00000000	0.0
29	0x00000000	0.0
30	0x00000000	0.0
31	0x00000000	0.0
32	0x00000000	0.0
33	0x00000000	0.0
34	0x00000000	0.0
35	0x00000000	0.0
36	0x00000000	0.0
37	0x00000000	0.0
38	0x00000000	0.0
39	0x00000000	0.0
40	0x00000000	0.0
41	0x00000000	0.0
42	0x00000000	0.0
43	0x00000000	0.0
44	0x00000000	0.0
45	0x00000000	0.0
46	0x00000000	0.0
47	0x00000000	0.0
48	0x00000000	0.0
49	0x00000000	0.0
50	0x00000000	0.0
51	0x00000000	0.0
52	0x00000000	0.0
53	0x00000000	0.0
54	0x00000000	0.0
55	0x00000000	0.0
56	0x00000000	0.0
57	0x00000000	0.0
58	0x00000000	0.0
59	0x00000000	0.0
60	0x00000000	0.0
61	0x00000000	0.0
62	0x00000000	0.0
63	0x00000000	0.0

base.mlp.fc2.0.0.weight f4 [64, 64]
0	0xbe88e12c	-0.26734293
1	0xbe95d6b6	-0.29265374
2	0x3df58907	0.119890265
3	0xbc980979	-0.018559204
4	0x3c36e7f0	0.011163697
5	0x3d70df80	0.058806896
6	0x3da24a6f	0.07924353
7	0x3e98705f	0.29773232
8	0xbe096aa3	-0.13419585
9	0xbead9c83	-0.3390847
10	0xbe32d867	-0.17465363
11	0xbe9765cc	-0.29569852
12	0x3d59dfca	0.053191938
13	0xbea87282	-0.32899863
14	0xbe813a9a	-0.25240022
15	0x3e65b2f2	0.22431543
16	0xbe9a5186	-0.30140322
17	0x3f045796	0.51696146
18	0x3eda49fc	0.4263457
19	0xbe1349b3	-0.14383583
20	0x3e840b20	0.25789738
21	0x3de122e7	0.10992985
22	0x3e75e88a	0.24014488
23	0xbdf0cc16	-0.11757676
24	0x3e5f8548	0.21828187
25	0xbdbd9bcb	-0.09258231
26	0xbe9fe684	-0.31230557
27	0x3e0e232a	0.13880602
28	0x3d6b509f	0.057449933
29	0xbe76bca7	-0.24095403
30	0x3e873d2d	0.2641386
31	0x3e5b793a	0.21432963
32	0xbd33f402	-0.043933876
33	0xbe7ccd8f	-0.2468779
34	0xbea93993	-0.33051738
35	0x3dad8dbf	0.084743015
36	0x3e796b56	0.24357352
37	0x3e450919	0.19241752
38	0xbc9ca3fe	-0.019121166
39	0x3bea58e8	0.0071517117
40	0xbcf1e17b	-0.029526463
41	0xbe11b087	-0.14227496
42	0x3d15850b	0.036503833
43	0xbe9a563f	-0.30143926
44	0xbe4929f5	-0.19644912
45	0x3c515563	0.012776705
46	0x3e22940e	0.15876791
47	0x3d968765	0.07350043
48	0xbdf397ba	-0.11894174
49	0x3e1a2cb7	0.1505612
50	0xbe00632f	-0.12537836
51	0x3e5f45ec	0.21804017
52	0x3c374344	0.011185471
53	0x3b8ed70c	0.0043591317
54	0x3d6b0d34	0.05738564
55	0xbe58faf4	-0.21189481
56	0xbde0945d	-0.10965798
57	0x3c89b895	0.016811648
58	0xbe03f820	-0.12887621
59	0xbe843a06	-0.25825518
60	0xbedf3f91	-0.43603185
61	0xbd9a4a79	-0.07533736
62	0xbc2de787	-0.010614282
63	0xbe8c496d	-0.2739977
64	0x3ec29ddb	0.3801106
65	0x3de7a93c	0.11311576
66	0x3e285710	0.16439462
67	0xbe9a82cd	-0.30177918
68	0xbeb6956a	-0.3566087
69	0xbb1f51c4	-0.002431021
70	0x3ca8e102	0.020615105
71	0xbdfb4999	-0.12269897
72	0x3d3b9501	0.045796398
73	0x3e1f103b	0.15533535
74	0x3cbdbc86	0.023161184
75	0xbc936689	-0.017993229
76	0xbe7cbe93	-0.24682073
77	0x3df66e62	0.120327726
78	0xbee83854	-0.45355475
79	0x3cad3d45	0.02114738
80	0xbed5c28a	-0.41749984
81	0x3e4abd56	0.19798788
82	0x3e6bf7cd	0.23043747
83	0x3e9f6b46	0.3113653
84	0x3d8183f4	0.06323996
85	0xbdb8afe4	-0.090179235
86	0xbe9c6820	-0.3054819
87	0x3e30402f	0.17211984
88	0xbe80419d	-0.2505006
89	0x3eab2642	0.33427626
90	0x3ce72a5a	0.028218437
91	0xbda332c6	-0.07968669
92	0x3d374886	0.044746898
93	0xbd65a873	-0.05606885
94	0x3f0b3b75	0.543876
95	0x3b0b0fee	0.0021219212
96	0x3dddefb8	0.10836738
97	0xbdd749be	-0.10512112
98	0xbe129ddd	-0.14318033
99	0xbe36406c	-0.17798012
100	0xbe758fae	-0.2398059
101	0x3bb0b9c6	0.0053932397
102	0x3e80d39b	0.25161442
103	0xbe8d8867	-0.2764313
104	0xbda77149	-0.08175904
105	0xbdcf2d74	-0.10116091
106	0xbd34d022	-0.044143803
107	0xbd9cd262	-0.07657315
108	0xbeae16c8	-0.34001756
109	0x3e355003	0.17706303
110	0x3ad232b2	0.0016036837
111	0xbdd167b0	-0.10224855
112	0x3cad381a	0.021144915
113	0xbe88f11b	-0.2674645
114	0x3c4cd555	0.012502034
115	0xbcfd3d4c	-0.030913018
116	0xbca3b0e6	-0.019981813
117	0x3e78270d	0.24233647
118	0x3de0532b	0.10953363
119	0x3d7449bf	0.059640642
120	0xbe9c036b	-0.30471358
121	0xbc860823	-0.016361302
122	0x3ec1fd9e	0.37888807
123	0x3e5198d7	0.2046846
124	0x3d0f2b81	0.034953598
125	0xbbe2939f	-0.0069145705
126	0x3ec1cce9	0.37851647
127	0x3e46cb9a	0.19413605
128	0xbe655a2b	-0.22397678
129	0xbe802ec2	-0.25035673
130	0x3d288bba	0.04114888
131	0x3e710e5e	0.23540637
132	0x3e2bf7dc	0.1679377
133	0x3cee7e26	0.029112887
134	0x3e7a10d2	0.24420479
135	0xbc26bed1	-0.01017733
136	0xbe5c0d2f	-0.21489404
137	0x3e65348a	0.22383323
138	0xbd5e185f	-0.05422246
139	0xbe9b78c7	-0.30365583
140	0xbe9b61a2	-0.30347925
141	0x3dbaf079	0.09127898
142	0x3df051ec	0.11734375
143	0xbe8b5723	-0.27214918
144	0xbeb82f9c	-0.35973823
145	0x3e269a8c	0.16269892
146	0x3e3d0270	0.18457961
147	0x3e28a4bc	0.16469091
148	0xbee1fe08	-0.44139123
149	0x3cade197	0.021225734
150	0xbe2fcb39	-0.17167367
151	0xbe7426d8	-0.23842943
152	0xbe9614dc	-0.2931279
153	0x3ed9333b	0.42421898
154	0x3df31440	0.11869097
155	0x3ea0b906	0.31391162
156	0xbb1ae92c	-0.0023637516
157	0x3e3861c7	0.18006049
158	0x3d1312c4	0.03590657
159	0xbdfc98d2	-0.12333836
160	0x3e98bd0d	0.29831734
161	0xbc03673b	-0.0080202175
162	0xbd973059	-0.073822685
163	0xbc28b5f5	-0.010297288
164	0x3edf39f3	0.435989
165	0x3e219047	0.15777694
166	0x3dec6bab	0.115439735
167	0x3d9fb481	0.077981
168	0xbda89de8	-0.08233243
169	0x3ec5e17e	0.386486
170	0xbd289e07	-0.04116633
171	0x3d44f2a9	0.04808298
172	0x3e13c392	0.14430073
173	0xbbbdddd3	-0.005794266
174	0xbd856115	-0.065126576
175	0x3c951d46	0.018202435
176	0x3f0476c9	0.5174375
177	0x3ec6e452	0.3884607
178	0x3e18a5da	0.14907017
179	0x3e6d1f56	0.23156485
180	0x3e64a523	0.2232862
181	0x3d87d946	0.066332385
182	0x3df54b61	0.11977268
183	0x3e03a570	0.12856078
184	0x3e382e06	0.17986307
185	0xbdea9b51	-0.114554055
186	0x3d4a0eb0	0.049330413
187	0x3e16981f	0.14706467
188	0x3e026465	0.1273361
189	0x3acc81c4	0.0015602638
190	0xbe05efcf	-0.13079761
191	0xbdbf1d34	-0.09331742
192	0x3e9b7c76	0.30368394
193	0x3d08c8d6	0.033394657
194	0x3dae0819	0.08497638
195	0x3d7f0fd2	0.062270947
196	0xbe5b8b4b	-0.21439855
197	0xbdc99569	-0.09842951
198	0x3dedd32f	0.11612546
199	0x3d91ee86	0.07125573
200	0x3d0993b7	0.033588137
201	0xbe650f13	-0.22369032
202	0xbe2ca43e	-0.16859528
203	0x3e171286	0.1475316
204	0xbb66a580	-0.003519386
205	0xbe694a8c	-0.22782344
206	0x3e9b8010	0.3037114
207	0x3e3da01e	0.18518111
208	0x3c3fc678	0.0117050335
209	0xbe4c0f72	-0.19927767
210	0x3e5ed516	0.21760973
211	0x3e4d5896	0.20053324
212	0x3dbb2756	0.09138362
213	0xbdff2ec6	-0.12460093
214	0xbe49bd63	-0.19701152
215	0xbea80fe5	-0.32824627
216	0x3e0fb8b2	0.140353
217	0x3e2f6a0c	0.17130297
218	0x3e39836d	0.18116541
219	0xbeb77eb7	-0.35838863
220	0x3e4d7fb9	0.20068254
221	0xbe8acdd2	-0.27110153
222	0x3d33a5ab	0.043859165
223	0xbe5a5297	-0.21320568
224	0x3e93da5f	0.2887754
225	0x3c3badfb	0.011455054
226	0xbd1ed779	-0.03877971
227	0x3dcd47c0	0.10023451
228	0xbe8485d3	-0.2588335
229	0x3db491f6	0.08816902
230	0x3e8d0632	0.2754379
231	0xbe1afec3	-0.15136246
232	0xbe2a777c	-0.16647142
233	0x3dd8776f	0.10569655
234	0x3e8441c6	0.2583143
235	0xbe8f38db	-0.27973065
236	0xbe31defe	-0.17370221
237	0xbedf69eb	-0.43635496
238	0xbd15a601	-0.036535267
239	0xbe0368ad	-0.128329
240	0x3d087d29	0.033322487
241	0x3de6a04a	0.112610415
242	0x3e47d5e7	0.19515191
243	0x3e1c74a9	0.15278877
244	0xbe892565	-0.26786342
245	0xbe238639	-0.1596917
246	0xbed3b884	-0.41351712
247	0x3d07416e	0.033021383
248	0x3e6d3e9c	0.23168415
249	0xbe0ed39c	-0.1394791
250	0xbf005848	-0.50134706
251	0x3ebc0ecc	0.3673004
252	0x3db3dc2e	0.0878223
253	0xbe2554f9	-0.16145696
254	0xbd605dd8	-0.054776996
255	0xbeaef317	-0.34169838

base.mlp.fc2.0.0.bias f4 [64]
0	0xbb8f435d	-0.004372044
1	0x3be3eaa2	0.0069554606
2	0xbad0a2bc	-0.0015917639
3	0xbb81a88c	-0.00395686
4	0xbb2c7a49	-0.0026318005
5	0x3b99469e	0.0046776077
6	0xbb730262	-0.0037080278
7	0x3bcb5bba	0.006206003
8	0xbbbef0e1	-0.005827055
9	0xbb724486	-0.0036967113
10	0x3aaab4b3	0.0013023823
11	0x3b680ca3	0.0035407923
12	0x3b68c90a	0.003552022
13	0xb736937d	-1.0882385e-05
14	0x3b37783c	0.002799525
15	0xbb16e3c1	-0.0023023936
16	0x3bb1dd2c	0.005427977
17	0x3b634e55	0.003468414
18	0x3bd287cd	0.00642488
19	0x3b487995	0.0030590047
20	0xbb32de9d	-0.0027293332
21	0x3aab3dfe	0.001306474
22	0xb91bf4dd	-0.0001487317
23	0xbb9e3c99	-0.004829001
24	0xbb1a3464	-0.0023529762
25	0xb9982a1b	-0.0002902307
26	0x3b10dfca	0.0022106045
27	0x3abe0890	0.0014498401
28	0x3bb14098	0.0054093115
29	0xbbc75bed	-0.0060839565
30	0x3b8dc879	0.0043268767
31	0x3bd0483a	0.0063562663
32	0xbb53e5e3	-0.0032333068
33	0x3a35982e	0.00069272786
34	0x3b62fa7b	0.0034634161
35	0xbb758285	-0.003746183
36	0xba3029a4	-0.0006720072
37	0x3b943ba5	0.0045237117
38	0xbb68179a	-0.0035414458
39	0xbbb308ea	-0.005463709
40	0xba878c4e	-0.0010341497
41	0x3b00dc72	0.0019662646
42	0xbaa8f3d7	-0.0012890053
43	0x3aedbe3b	0.0018138358
44	0x3ba32407	0.00497866
45	0xbb089b15	-0.002084439
46	0xbbc362cd	-0.0059627057
47	0x39991d09	0.00029204067
48	0xb99b588f	-0.00029629885
49	0x39f4176c	0.00046556757
50	0x3b9c155f	0.00476329
51	0x3b321c42	0.0027177488
52	0x3b489f1b	0.0030612412
53	0x3b116caf	0.0022190025
54	0x3bcac906	0.0061885146
55	0xbbdfb163	-0.006826566
56	0xbaf37682	-0.0018574747
57	0xbb6f54f8	-0.0036519151
58	0x3bd789c6	0.006577703
59	0xba117368	-0.0005548508
60	0x3be31636	0.006930138
61	0x3a447c34	0.00074953143
62	0xbb91ddb0	-0.004451476
63	0xbb98dfa6	-0.004665333

base.mlp.fc2.0.2.weight f4 [64]
0	0x3f805f96	1.002917
1	0x3f7f0222	0.9961263
2	0x3f8048dc	1.0022235
3	0x3f8083d5	1.0040232
4	0x3f80a1af	1.0049342
5	0x3f809c11	1.0047628
6	0x3f80d56d	1.0065132
7	0x3f804bfc	1.0023189
8	0x3f807811	1.0036641
9	0x3f805d84	1.0028539
10	0x3f808d81	1.0043184
11	0x3f801299	1.0005676
12	0x3f7f4cb3	0.9972641
13	0x3f806130	1.0029659
14	0x3f80949f	1.0045356
15	0x3f808128	1.0039415
16	0x3f7ff8d9	0.99989086
17	0x3f7eb6b8	0.99497557
18	0x3f809335	1.0044924
19	0x3f8023e4	1.0010953
20	0x3f7f8a29	0.9982019
21	0x3f809045	1.0044028
22	0x3f809e49	1.0048305
23	0x3f80973d	1.0046154
24	0x3f809713	1.0046104
25	0x3f80adb5	1.0053011
26	0x3f808662	1.004101
27	0x3f806807	1.0031747
28	0x3f7efc99	0.99604183
29	0x3f7efc64	0.9960387
30	0x3f7ff0cc	0.999768
31	0x3f805443	1.0025715
32	0x3f8071ac	1.003469
33	0x3f807c95	1.003802
34	0x3f807c70	1.0037975
35	0x3f808850	1.0041599
36	0x3f8070a5	1.0034376
37	0x3f804c0a	1.0023205
38	0x3f805e84	1.0028844
39	0x3f802768	1.0012026
40	0x3f800b31	1.0003415
41	0x3f80d093	1.0063652
42	0x3f807858	1.0036726
43	0x3f806b17	1.0032681
44	0x3f809e82	1.0048373
45	0x3f8027e6	1.0012176
46	0x3f803722	1.0016825
47	0x3f809661	1.0045892
48	0x3f809dcb	1.0048155
49	0x3f7e76c9	0.994
50	0x3f8060f5	1.0029589
51	0x3f806c47	1.0033044
52	0x3f8076d8	1.0036268
53	0x3f7fdff1	0.9995108
54	0x3f80a024	1.0048871
55	0x3f7f18ca	0.996472
56	0x3f7f7b27	0.9979729
57	0x3f80a5de	1.0050619
58	0x3f7fd8ec	0.9994037
59	0x3f805b19	1.0027801
60	0x3f7ff75a	0.99986804
61	0x3f805044	1.0024495
62	0x3f807de4	1.0038419
63	0x3f8090b8	1.0044165

base.mlp.fc2.0.2.bias f4 [64]
0	0xbb883df4	-0.004157776
1	0x3ba67587	0.0050799283
2	0x3b065fba	0.0020503835
3	0xbac03b2b	-0.0014666071
4	0xbb70a70e	-0.0036720666
5	0x3b9a2466	0.004704046
6	0xbb9162ce	-0.0044368273
7	0x3bce35f7	0.006293054
8	0xbb91b443	-0.0044465377
9	0xbb8744dc	-0.0041280817
10	0x3b862d2a	0.0040947394
11	0x3af3ba9e	0.0018595045
12	0x3a25a5ef	0.00063189765
13	0xbb45b542	-0.0030167853
14	0x3b8eff7b	0.0043639517
15	0xbb6d824e	-0.0036240998
16	0x3965f973	0.00021932069
17	0x3ba45d79	0.0050160256
18	0x3bccf440	0.006254703
19	0xba92f568	-0.0011212053
20	0xbb1a55b1	-0.0023549611
21	0x3b89c449	0.004204307
22	0xbb9ce81f	-0.004788413
23	0xbb999297	-0.0046866643
24	0xba93e400	-0.0011283159
25	0xbbadde3d	-0.005306034
26	0x3b7b11c8	0.003831016
27	0x3b485db9	0.0030573441
28	0x3b6bc9a9	0.0035978353
29	0xbbc9da51	-0.0061600585
30	0x3abd6c2d	0.0014451795
31	0x3af8fea4	0.0018996787
32	0xbb945c00	-0.004527569
33	0x3b764554	0.0037577944
34	0x3b85b803	0.004080774
35	0xbb9f099b	-0.00485344
36	0xbb43ae76	-0.0029858625
37	0xbb116775	-0.002218691
38	0xbb59d466	-0.0033238172
39	0xbb5a340c	-0.0033295183
40	0x39c92558	0.0003836553
41	0x3abec3f9	0.0014554254
42	0xbb73ba92	-0.0037190062
43	0xbb55705c	-0.0032568192
44	0x3b9cf7b8	0.0047902726
45	0x3a8c6382	0.0010710808
46	0x3a971bdf	0.0011528692
47	0xbae4c865	-0.0017454742
48	0xbb9d8df1	-0.0048081805
49	0x3bc39597	0.0059687602
50	0x3b82002f	0.003967307
51	0x3b4dda2a	0.0031410553
52	0x3b66ac30	0.0035197847
53	0x3aa22194	0.0012369626
54	0x3bd4114c	0.0064717885
55	0xbbd1aab3	-0.0063985228
56	0xbb100900	-0.002197802
57	0xbb9842c8	-0.004646633
58	0x3bd6086a	0.0065317648
59	0x3b374a2f	0.00279678
60	0x3abae955	0.0014260212
61	0x3b259baa	0.0025269785
62	0xbb8ced0a	-0.004300718
63	0xbb93e0a1	-0.004512862

act.action_out.fc_mean.weight f4 [2, 64]
0	0xbad3c780	-0.0016157478
1	0xba9e67f2	-0.0012085421
2	0x3a2b1b35	0.00065271865
3	0x3bbb3057	0.0057125497
4	0xbb217b69	-0.0024640209
5	0xb889952e	-6.560456e-05
6	0x3c264560	0.010148376
7	0xbbaee98f	-0.005337901
8	0x3989259f	0.00026158706
9	0x3bc8576b	0.0061139367
10	0x3a0845ae	0.00051983714
11	0x3b45bc56	0.0030172071
12	0x3798d562	1.8219176e-05
13	0xbaeff273	-0.0018306508
14	0x3a3c0830	0.0007172851
15	0x3b26e4bf	0.0025465933
16	0xbaf611aa	-0.0018773575
17	0x39dcdf3e	0.00042127998
18	0xbbd3984f	-0.0064573656
19	0xb9fc6dfd	-0.00048147133
20	0x3af1f608	0.0018460164
21	0x39d79651	0.0004111999
22	0x3aad951d	0.0013243292
23	0xba97d253	-0.0011583067
24	0x3bf39a35	0.0074341544
25	0x3a5549a2	0.00081362773
26	0x3b179cc8	0.002313422
27	0x3b19ab01	0.0023447874
28	0xba8a4d9a	-0.0010551692
29	0x3b9244db	0.0044637746
30	0x39e48736	0.0004358829
31	0xbac98f98	-0.0015377877
32	0x3b86e98e	0.0041171974
33	0xba7b57a6	-0.0009587951
34	0x384fba02	4.952588e-05
35	0x3b24de59	0.0025156944
36	0xbb11216d	-0.0022145167
37	0xbadfbac8	-0.0017069215
38	0xbb267600	-0.0025399923
39	0x3b2e775d	0.002662144
40	0xbb0cfe55	-0.0021513898
41	0xbc0333bc	-0.00800794
42	0xba8d5c69	-0.0010784987
43	0xba9a9916	-0.0011794891
44	0x39acf4e5	0.00032988857
45	0x3a0332ad	0.00050048047
46	0x3a1ba610	0.0005937526
47	0xbb7dd2a7	-0.0038730295
48	0xb85c69ec	-5.2550735e-05
49	0xba1339f2	-0.00056162395
50	0xbbc8bfaf	-0.006126366
51	0x3b0b52a8	0.0021258984
52	0x3b0ec024	0.0021782005
53	0x391b8dae	0.00014834732
54	0xbbc97b66	-0.0061487434
55	0x3bdd1092	0.00674636
56	0x39f97dee	0.00047586806
57	0xba893365	-0.0010467587
58	0xbbdd96b8	-0.006762352
59	0xba5ff026	-0.000854256
60	0xbb660573	-0.0035098463
61	0x3a9877b7	0.0011632357
62	0x39d83bcc	0.00041243283
63	0xbaaf61a2	-0.0013380537
64	0xbbd23aca	-0.0064156996
65	0xbb908e23	-0.0044114753
66	0x3bba2418	0.0056805722
67	0x3bc246a8	0.005928833
68	0xbbf0d443	-0.0073495223
69	0x3bddc0e6	0.00676738
70	0xbbafe6b8	-0.00536808
71	0x3b89a457	0.004200499
72	0xbbd11fe4	-0.0063819755
73	0xbb940e0f	-0.0045182775
74	0x3bd2a26b	0.006428053
75	0x3b786863	0.0037904016
76	0x3b6c98d7	0.0036101842
77	0xbbc33203	-0.0059568896
78	0x3be0c137	0.0068589705
79	0xbbdf8d57	-0.006822269
80	0xbba8a892	-0.0051470483
81	0xbb7a2da3	-0.0038174174
82	0x3bb496c2	0.005511136
83	0xbbb075e7	-0.005385149
84	0xbb805c1b	-0.00391723
85	0x3bd407b5	0.0064706453
86	0xbbcaecea	-0.006192793
87	0xbc06389e	-0.0081922095
88	0x3bb9a7f2	0.0056657726
89	0xbbfbf9ba	-0.007689682
90	0x3be893d4	0.0070977006
91	0x3bca1c69	0.0061679375
92	0xbb806f76	-0.003919537
93	0x385768d1	5.1357612e-05
94	0x3ba39b58	0.0049928837
95	0xbbbc1919	-0.0057402966
96	0xbbc85ff0	-0.0061149523
97	0x3bc3e060	0.0059776753
98	0x3bd5ff19	0.006530654
99	0xbbcb27c7	-0.00619981
100	0xbbc06516	-0.0058714254
101	0xbbb6527e	-0.005564033
102	0xbbd1cbdd	-0.006402476
103	0x3bc14cf6	0.005899067
104	0x3ba7554a	0.005106603
105	0x3bb32ee1	0.005468235
106	0xbbcbdb36	-0.0062212003
107	0xbbc2555e	-0.0059305867
108	0x3bf56134	0.007488394
109	0x3bb21f56	0.0054358644
110	0x3bb6b592	0.005575844
111	0xbbd147cc	-0.0063867327
112	0xbbea2b66	-0.007146287
113	0xbb60b02e	-0.0034284699
114	0x3b7c82eb	0.0038530182
115	0x3bcfb005	0.006338122
116	0x3bd7516d	0.006570986
117	0x3b9d8d73	0.004808122
118	0x3bdd9ee4	0.006763326
119	0x3ad3dcaf	0.0016163791
120	0x3b9cf0a1	0.0047894274
121	0xbbef30cf	-0.0072995196
122	0x38f10891	0.00011493371
123	0x3bbaca17	0.0057003605
124	0xbb9c09cd	-0.0047619105
125	0x3bb9da11	0.0056717475
126	0xbbdca2c1	-0.006733269
127	0xbbf5a933	-0.0074969768

act.action_out.fc_mean.bias f4 [2]
0	0x3a09dd71	0.00052591326
1	0x3bbb8d81	0.0057236557

act.action_out.logstd._bias f4 [2, 1]
0	0x3bd77e44	0.0065763313
1	0x3bb31ae4	0.005465852
