results/MyEnv/MyEnv/mappo/check/run1/models/actor_agent1.pt (torch, 69388 bytes, 17 tensors)

base.feature_norm.weight f4 [104]
000000 84 89 7e 3f 70 eb 7e 3f 9b 4c 7f 3f 23 e6 7e 3f
       0.9942858 0.99578 0.99726266 0.9956991
000010 7c 9f 7f 3f 17 d7 80 3f 15 91 80 3f 58 6d 80 3f
       0.9985273 1.006564 1.0044276 1.0033369
000020 cf 37 80 3f ac e2 80 3f c9 a4 80 3f e3 81 7e 3f
       1.0017031 1.0069175 1.0050288 0.9941694
000030 df d9 80 3f 9e cd 80 3f 4e 2b 80 3f 27 a7 80 3f
       1.0066489 1.0062749 1.0013216 1.0051011
000040 bc 2d 80 3f aa b6 80 3f dc 6b 80 3f 91 a8 80 3f
       1.0013957 1.0055745 1.0032916 1.0051442
000050 a1 c0 7e 3f db 25 80 3f 2e d7 7e 3f 0b 75 7e 3f
       0.9951268 1.0011553 0.9954709 0.99397343
000060 0e 86 7e 3f 78 3a 80 3f e3 4a 80 3f b4 0d 80 3f
       0.994233 1.0017843 1.0022854 1.0004182
000070 b4 d4 80 3f bd 8a 7e 3f cd 77 80 3f d6 e3 7f 3f
       1.0064912 0.9943045 1.003656 0.99957025
000080 53 bf 7e 3f cf 88 7e 3f ec 80 7f 3f 23 34 7f 3f
       0.9951069 0.99427503 0.99806094 0.9968893
000090 56 91 80 3f 98 e6 80 3f 49 61 80 3f f7 57 80 3f
       1.0044353 1.0070372 1.0029689 1.0026845
0000a0 3b 7d 7e 3f 73 34 80 3f 28 56 7f 3f e6 f2 7e 3f
       0.99409837 1.0016006 0.9974084 0.99589384
0000b0 25 ef 7e 3f ba b0 7e 3f cd 61 7f 3f 2b cc 7f 3f
       0.99583656 0.99488413 0.9975861 0.9992091
0000c0 37 e5 7e 3f b3 3a 80 3f aa 4c 7e 3f 86 b3 7f 3f
       0.99568504 1.0017914 0.9933573 0.99883306
0000d0 f8 62 7e 3f ae fe 7f 3f 01 7f 7f 3f 55 25 80 3f
       0.99369764 0.99997985 0.9980317 1.0011393
0000e0 26 a4 7f 3f ea 3d 80 3f a9 57 7f 3f 67 5a 80 3f
       0.99859846 1.0018895 0.99743134 1.0027589
0000f0 af c7 80 3f f3 42 7f 3f cf 84 80 3f d5 92 7e 3f
       1.0060939 0.9971153 1.004053 0.994428
000100 9b 0f 80 3f e1 1a 80 3f 6e b4 80 3f f0 82 80 3f
       1.0004762 1.0008203 1.0055063 1.0039959
000110 41 8c 7e 3f b4 d7 7e 3f 38 a1 80 3f de 6d 7f 3f
       0.9943276 0.99547887 1.00492 0.9977702
000120 ae ac 80 3f bd 48 80 3f 2c d7 7f 3f 9b 73 7e 3f
       1.0052698 1.0022198 0.999377 0.9939515
000130 57 5a 7e 3f 5b 73 80 3f 75 74 7e 3f d3 df 7e 3f
       0.993566 1.0035204 0.9939645 0.9956028
000140 e7 9b 7f 3f ab bf 80 3f 80 e7 7e 3f cf 1a 80 3f
       0.99847263 1.0058492 0.9957199 1.0008181
000150 10 2f 7e 3f b9 80 7f 3f 1d 09 7f 3f ab 3a 80 3f
       0.9929056 0.9980579 0.9962328 1.0017904
000160 cf 89 7f 3f 03 bd 80 3f 43 0f 80 3f 06 71 80 3f
       0.99819654 1.0057682 1.0004658 1.0034492
000170 1a 70 7e 3f 3f 11 80 3f f4 35 7e 3f 27 44 7f 3f
       0.99389803 1.0005263 0.99301076 0.9971337
000180 aa aa 80 3f 7f 64 7e 3f de b0 7e 3f 83 ac 80 3f
       1.0052083 0.99372095 0.9948863 1.0052646
000190 c1 7e 7f 3f 5a 1a 80 3f a5 b9 80 3f ec d2 80 3f
       0.99802786 1.0008042 1.0056654 1.0064368

base.feature_norm.bias f4 [104]
000000 a0 a4 b3 3b 20 55 87 3b 4c 30 17 3b 5a 4f 93 3b
       0.0054822713 0.0041300207 0.0023069559 0.0044955434
000010 27 56 00 3b 8b f5 dd bb dc ba 90 3b 7c f1 5c 3b
       0.00195826 -0.006773656 0.0044168066 0.0033713272
000020 6c 47 d6 3a 63 eb e2 bb d9 42 a5 bb 9f 9c b3 3b
       0.001634819 -0.006925033 -0.0050433693 0.005481317
000030 bf 93 d7 bb bc 3c c7 bb 1c ce 9e ba 78 73 a6 bb
       -0.006578892 -0.006080238 -0.0012115869 -0.005079683
000040 4f fd eb ba f5 a8 b5 bb ec 7f 49 bb cb f2 a8 bb
       -0.0018004569 -0.005543823 -0.0030746413 -0.0051558963
000050 12 5f 96 3b 80 00 85 b9 b3 8b 80 bb 92 16 c4 bb
       0.00458897 -0.0002536811 -0.0039229034 -0.005984136
000060 d2 1e b7 bb 88 fe 89 bb 14 c7 27 bb 57 0f 35 ba
       -0.005588391 -0.0042112507 -0.0025600838 -0.0006906888
000070 64 a9 d2 bb 9b 1d bc 3b 32 e9 8e bb d5 51 cd 39
       -0.0064288843 0.005740834 -0.004361295 0.00039161617
000080 a0 86 d0 3b 57 e3 d7 3b 43 b9 fa ba a5 42 51 3b
       0.006363705 0.0065883803 -0.0019128699 0.0031930592
000090 fd 47 84 bb 4a c9 d3 bb cf 9b ac 3b 1e e5 27 3b
       -0.004036902 -0.0064632045 0.0052675973 0.0025618742
0000a0 04 95 fb 3a 3a cb a9 b9 2f 12 c9 3a b6 49 83 3b
       0.001919419 -0.00032385607 0.0015340502 0.0040065898
0000b0 74 52 59 3b 7c 70 a3 bb 5c da b3 3b da 60 22 39
       0.0033160718 -0.0049877744 0.005488677 0.00015485604
0000c0 29 fe 8b bb 2e e7 84 bb c7 f9 d5 3b 32 e2 80 39
       -0.0042722416 -0.004055879 0.00653002 0.0002458259
0000d0 ab 1f dd 3b 18 95 c6 38 7a 22 81 3b b0 77 a7 ba
       0.00674816 9.4691466e-05 0.0039408775 -0.0012776759
0000e0 20 3b f9 b8 88 f9 68 bb eb ad c7 bb c6 a2 56 bb
       -0.00011884258 -0.0035549123 -0.0060937307 -0.003275083
0000f0 8c 0b cf bb 56 e5 26 3b 3d e1 8e bb f9 f7 cb 3b
       -0.006318515 0.0025466285 -0.0043603466 0.006224629
000100 43 0b 77 ba 78 1f db 39 c2 c8 ba bb b1 90 a9 3b
       -0.00094239804 0.0004179438 -0.0057002017 0.0051747193
000110 c0 d5 d8 3b 7d f6 c3 3b 67 38 a4 3b e3 bc 3d ba
       0.006617278 0.0059803114 0.0050116065 -0.0007237924
000120 2a 83 a5 bb b5 84 3c bb 8d e8 ac 39 c1 80 a8 bb
       -0.0050510364 -0.0028765623 0.0003297966 -0.005142302
000130 3c 3a d2 bb 13 02 5f 3b 91 3b c5 bb b3 5e 8a bb
       -0.0064156335 0.0034028336 -0.0060190638 -0.004222715
000140 d7 0c cd ba 48 fb bb 3b 59 55 89 bb 73 2b 8f 3a
       -0.0015644085 0.005736742 -0.0041910824 0.0010922983
000150 99 b0 af 3a c6 f5 be 3a 52 dc 58 bb bd f6 d8 ba
       0.0013404071 0.0014569096 -0.0033090306 -0.0016553026
000160 a7 03 e0 bb 94 08 be 3b 53 3e 0b 3a 44 af 5f 3b
       -0.006836373 0.0057993624 0.0005311716 0.0034131566
000170 9b b6 c7 bb a8 ab ed 39 2e d9 e2 bb 37 3a 38 bb
       -0.0060947663 0.00045332056 -0.0069228625 -0.002811087
000180 15 db a7 3b b0 51 ce bb 87 23 a9 bb 3e 3e ae 3b
       0.005122552 -0.006296359 -0.005161706 0.0053174784
000190 2b 87 fd ba 52 ce 99 3a 74 66 ba 3b 87 64 d3 3b
       -0.0019342651 0.0011734462 0.005688483 0.006451193

base.mlp.fc1.0.weight f4 [64, 104]
000000 4b 76 51 be 8a b5 29 3e 0c 27 c3 3c 23 67 14 3e
       -0.20455281 0.16573158 0.02382233 0.14492469
000010 87 16 37 be 04 ea 37 3d 5d f6 17 3e d0 48 0a 3d
       -0.17879687 0.04490091 0.14840074 0.033760846
000020 4e 85 88 be f7 ca c0 bd 5e ea 24 bd da 3a 30 3d
       -0.26664203 -0.094137125 -0.040262572 0.043024875
000030 1d d7 08 bd 1a 55 fb bd 17 55 dc 3d d7 e4 af 3e
       -0.033408273 -0.12272091 0.10758417 0.34354278
000040 a4 17 b2 bd be 3d fa bc e9 ab 33 3e e5 ed 75 be
       -0.08695915 -0.03054702 0.17546047 -0.24016531
000050 3b 70 a6 3d a8 d7 c7 3d 32 e3 25 3d 18 77 08 3e
       0.08126875 0.0975793 0.040499873 0.1332668
000060 53 8b 82 bd bd 97 66 be 70 ee f0 3c 55 df 27 3e
       -0.0637423 -0.22518821 0.02941057 0.16393788
000070 62 2c da 3d 35 73 08 bf b4 fe c1 bc ba 90 5b bd
       0.106529966 -0.5330079 -0.023681022 -0.05360482
000080 81 8f b9 bd 33 c6 4e be 9e 53 88 3e f1 13 4a 3e
       -0.09060574 -0.20192795 0.26626295 0.1973417
000090 15 6a f7 bd 03 8d 15 3d a6 60 82 bd a4 9f e4 bd
       -0.120807804 0.036511432 -0.063660905 -0.111632615
0000a0 00 12 26 3e 0e bd ae 3e 55 03 c3 bd fb 98 9a be
       0.16217804 0.34128612 -0.0952212 -0.3019484
0000b0 f8 0b 2d 3d 1a 29 6e 3c cb da 0b be 7a 4c 74 be
       0.042247742 0.014536167 -0.13657682 -0.23857298
0000c0 d9 10 25 3e 0f 9e ad be 92 ad 18 be 47 9a 7a 3e
       0.16119708 -0.33909652 -0.14909962 0.24472915
0000d0 82 30 e5 3d 30 ac 8d 3c 87 d3 f5 3c 97 6e 71 3e
       0.11190893 0.01729402 0.03000809 0.23577343
0000e0 32 0d 50 3d aa 66 87 be 7d 41 58 bd eb a4 29 be
       0.050793834 -0.26445514 -0.05279683 -0.16566817
0000f0 37 f2 77 3c 0b 8a b6 3c 39 00 69 be c5 56 83 3e
       0.015133432 0.02228262 -0.22753991 0.25652137
000100 47 ed ec bd 9b 4d 42 bd 8b 00 a5 bd f1 81 3c be
       -0.115686946 -0.04743729 -0.08056744 -0.18408944
000110 49 8d 64 3c b7 79 f6 3c a5 1b 9e 3e d2 f6 1a bd
       0.013949701 0.030087335 0.30880466 -0.037833042
000120 28 62 0e be 3d 81 38 be 84 64 b1 bd 7c 67 08 be
       -0.13904631 -0.1801805 -0.0866175 -0.13320726
000130 42 67 26 bd 25 89 a0 bc 60 91 ea ba 44 4e 28 be
       -0.040625818 -0.019596646 -0.0017896108 -0.16436106
000140 4a 85 f3 3d cc 42 5b 3d bd 86 6d bd b8 cd 05 3d
       0.11890657 0.0535305 -0.057989825 0.03266689
000150 7e b6 85 be e8 c8 16 3e bf 34 96 3d d3 33 61 3c
       -0.26115793 0.14725077 0.07334279 0.013745266
000160 ff 6a c2 bd 5b 75 1f bd 19 f9 d1 3c b7 da 5e be
       -0.09493064 -0.03893028 0.025631474 -0.2176312
000170 06 64 90 3d 67 ca 2a be 75 ef 31 bd ad cf 17 bc
       0.07050328 -0.16678773 -0.043441255 -0.009265822
000180 33 87 b6 3e 10 cf 4d be 79 48 97 be a8 a1 bc 3c
       0.35650024 -0.2009852 -0.2954748 0.023026302
000190 7a db 90 bd 56 69 61 be 77 7f 9b 3e 39 a4 5b bc
       -0.07073112 -0.22012839 0.30370685 -0.013405853
0001a0 75 93 fd bd 0b c3 83 be 18 31 98 3e bc da 92 3d
       -0.12381641 -0.25734743 0.29724956 0.071706265
0001b0 c4 cf 9a 3d 97 f4 2c 3e 74 7b a2 bd fa 66 aa 3e
       0.075591594 0.16890179 -0.07933703 0.3328169
0001c0 3f 8e 60 3d b4 a4 55 be 9c b5 9d 3e dc 91 ea bd
       0.054823156 -0.2086361 0.3080262 -0.11453602
0001d0 36 13 25 3e 19 1d a6 be e9 b1 3a be 09 25 c1 3d
       0.1612061 -0.32444075 -0.1823193 0.09430892
0001e0 97 4e 0d 3d 11 cc ae bd 23 bb 82 3e 2a d2 0a be
       0.034498777 -0.08535016 0.255334 -0.13556734
0001f0 0e 2f 2a be c9 68 3d bd 6b 38 a6 3d 47 82 53 3e
       -0.16619512 -0.04624251 0.081162296 0.20655166
000200 8b e4 7c 3d 27 a1 a5 3c ce 77 0f 3e 34 72 f3 3c
       0.061741393 0.020218445 0.14010546 0.029717542
000210 00 e5 91 3d 38 bb 14 3d 20 75 fc bc 32 9d 3f 3e
       0.071237564 0.03631136 -0.030817568 0.18712309
000220 b0 0a 8d 3d e0 81 f8 bd 93 87 0c be e8 d6 16 3d
       0.06886804 -0.12134147 -0.13723592 0.036826044
000230 56 ef 5f be 90 02 1e be 48 8d 1d be 79 35 9c 3c
       -0.21868643 -0.15430665 -0.15385926 0.019068466
000240 9c a9 6b bd c7 ef a0 be 57 6c 10 bc 1b 38 9a be
       -0.0575348 -0.31432936 -0.008814893 -0.3012093
000250 fb cb cd bd 91 b2 5a bc a0 f3 2d 3e a7 b7 35 be
       -0.10048672 -0.013348238 0.16987467 -0.17745839
000260 b1 a0 2f 3e 03 2a 72 3e 3d 43 a8 3c 68 df 67 3d
       0.17151143 0.23648839 0.020539874 0.05660954
000270 a3 3f 5e bd 08 b2 4c be b7 2a 0d 3d 8a d0 f1 bd
       -0.054259907 -0.19989789 0.034464564 -0.11807354
000280 ba 87 41 3e 6f 42 dd 3d 5d 0b ce be 6c ad 5b 3e
       0.18899432 0.10803687 -0.40243044 0.21452874
000290 f2 7f ba 3b f8 5e 30 3c 29 f4 a1 3d e8 96 9a bd
       0.005691522 0.01076483 0.07907898 -0.07548314
0002a0 af 1e 44 bd d0 03 00 3e 0a 79 be be 1a 74 16 3e
       -0.047880825 0.12501454 -0.3720172 0.14692727
0002b0 85 22 84 bd e0 b0 fd 3c f6 2f 8e 3e 89 87 3e bd
       -0.064518966 0.03096813 0.27770966 -0.046515975
0002c0 a2 12 a0 bd df 3b 6d bd b9 fc 2d be 00 53 07 be
       -0.07816054 -0.057918426 -0.16990937 -0.13215256
0002d0 5b 9c 1b be d2 6c 18 bc c6 cf bd be 1f a4 32 be
       -0.15196364 -0.0093032885 -0.3707258 -0.1744542
0002e0 85 0b 2b 3c 21 57 1f 3d 5b c5 0b 3e 84 2c dd 3d
       0.010439758 0.038901452 0.13649504 0.10799506
0002f0 a4 4a 09 3e ec 93 81 3e c6 1c 4a 3d 45 bd 1c 3d
       0.1340738 0.25308168 0.049343847 0.03826644
000300 98 14 76 3c ba 9a 0e be 71 e9 8c 3e 60 1c a0 3d
       0.015019558 -0.13926211 0.27521852 0.07817912
000310 01 ae ac be 80 b6 30 3e 79 bd 89 3e ba 3a 56 3e
       -0.33726504 0.17257118 0.2690237 0.2092084
000320 9d 97 6c bd 96 39 4e 3e 55 88 dd bd d3 47 d9 3c
       -0.057761777 0.20139155 -0.10817019 0.026523506
000330 87 47 ce bd 7f 9a cb 3d 15 7b 97 bd fe e2 c0 bd
       -0.100722365 0.09941577 -0.07396523 -0.09418295
000340 d4 d6 8b 3e 2c b3 c8 3d f7 35 b7 3d 87 47 e5 3d
       0.27312338 0.09799799 0.0894584 0.111952834
000350 4e b8 20 bd 45 e3 1f bd d9 e1 aa 3d b9 9c 9c 3c
       -0.039238267 -0.0390351 0.08343858 0.0191177
000360 37 d6 2d 3e 29 a3 27 3d e4 9c 22 3d fe f6 8c bd
       0.16976248 0.040927086 0.039700404 -0.068830475
000370 0e 2d 7f 3e f2 5f 95 bd 28 53 30 bc fa bf 99 3e
       0.24919531 -0.07293691 -0.0107620135 0.3002928
000380 73 fe 8a 3e 63 45 7b bd 09 74 12 be 70 0e 30 3d
       0.27147254 -0.06134547 -0.14302076 0.04298252
000390 99 68 7e bc b9 3c 2c be f4 0b 16 3e 92 e9 9f 3e
       -0.015527868 -0.16820039 0.14652997 0.31232888
0003a0 41 12 41 be f4 4f 3a 3e 99 4a a7 bd a6 3c cb b9
       -0.1885462 0.18194562 -0.08168525 -0.00038764364
0003b0 db 9e 83 be 7e 6a f0 bd 1d bf 56 be 4c be fc bc
       -0.25707135 -0.11739062 -0.20971341 -0.03085246
0003c0 69 6f 88 be 5c 14 1f bc f4 f0 af 3d 9a d3 33 be
       -0.266475 -0.009709444 0.0859088 -0.17561188
0003d0 d8 f8 01 be d7 73 a6 be 97 2c 47 bd 25 8b e2 3d
       -0.12692583 -0.32510254 -0.04862651 0.11061696
0003e0 ce 49 e9 bd 5b d5 3e be 55 69 fc bd c8 98 08 be
       -0.1139103 -0.18636076 -0.12324778 -0.13339531
0003f0 0b c8 56 3e db 7e 35 3d c0 8c c2 bd 22 dc 3f be
       0.20974748 0.044310432 -0.09499502 -0.18736318

base.mlp.fc1.0.bias f4 [64]
000000 75 43 9a 3b a3 62 c6 3b 02 60 b5 bb cd f9 b0 3b
       0.0047077485 0.006054239 -0.0055351267 0.0054008723
000010 69 02 8d b9 3b ad bd bb 70 ce c7 bb 67 c4 b2 3b
       -0.0002689541 -0.005788473 -0.0060976073 0.005455542
000020 c7 b6 0e ba fc a0 8e ba 42 be 56 3b e7 7f 8c bb
       -0.0005444106 -0.0010881717 0.003276721 -0.004287708
000030 74 d1 01 bb 38 c8 9d ba c1 cd c2 3b 75 0e 84 3b
       -0.0019808682 -0.0012037819 0.005944938 0.0040300437
000040 24 46 74 3b 97 8f df 3a bc 65 9b bb 57 6f bb 3b
       0.0037273252 0.0017056343 -0.0047423523 0.00572006
000050 9c 9a 98 3b fa 55 9c bb 9d 99 b9 3a 9d fb 44 3b
       0.0046571027 -0.0047709914 0.001416016 0.00300572
000060 3d 51 91 bb 9a 98 95 bb 85 a0 90 39 bd cb 89 3b
       -0.004434733 -0.0045653107 0.00027585417 0.0042051957
000070 bb 9b 5c bb 2e bd 90 bb 9a b3 8b 3b aa a6 b8 3b
       -0.0033662159 -0.004417083 0.0042633535 0.0056351023
000080 22 b9 95 bb d3 79 b6 3b f4 9a a0 3b 67 55 5d 3b
       -0.0045691887 0.005568722 0.0049012844 0.0033772828
000090 20 0c f8 3a 51 3e bb bb c0 e9 73 bb 78 51 d7 3b
       0.0018924512 -0.005714216 -0.0037218183 0.006570991
0000a0 66 e8 4d 3a 67 d7 28 3b d6 b7 f2 ba 23 1c 3f 3b
       0.00078547595 0.0025763155 -0.0018517922 0.0029161058
0000b0 d4 a2 23 bb 47 b6 a5 3b de 87 71 3b 23 bc c5 3b
       -0.002496888 0.0050571295 0.0036854665 0.0060343905
0000c0 da 7f 5a bb 5c c5 bf bb 6c 4b 96 39 83 ee 97 3b
       -0.0033340366 -0.0058523845 0.00028666423 0.004636587
0000d0 d1 04 02 ba 47 b4 87 3b 5b c3 ac bb 7f 4d ce 3a
       -0.0004959824 0.004141364 -0.0052723116 0.0015739648
0000e0 44 cf d4 bb dd c1 80 3b e3 27 b9 bb 0b 02 60 3b
       -0.0064944346 0.0039293603 -0.005650507 0.0034180905
0000f0 c6 a6 7d bb 6b 0f b1 bb 4b 8f 9b b9 60 05 b5 bb
       -0.003870414 -0.0054034493 -0.00029670665 -0.0055243224

base.mlp.fc1.2.weight f4 [64]
000000 e0 75 7f 3f 1d 06 80 3f 70 71 7e 3f b1 9a 80 3f
       0.9978924 1.0001866 0.9939184 1.0047208
000010 f3 cb 7f 3f 44 62 7e 3f 2c c0 80 3f 41 75 80 3f
       0.99920577 0.9936869 1.0058646 1.0035783
000020 a1 05 7f 3f 0f e8 7e 3f 08 0c 80 3f 42 9e 80 3f
       0.99617964 0.99572843 1.0003672 1.0048296
000030 45 d5 7f 3f 03 97 7e 3f e5 8b 80 3f 80 0a 80 3f
       0.999348 0.99449176 1.0042692 1.0003204
000040 00 a7 7e 3f 83 94 80 3f 12 6b 7e 3f 40 65 80 3f
       0.9947357 1.0045322 0.99382126 1.0030899
000050 23 12 7f 3f 39 78 80 3f 8c cb 7f 3f 8c 8a 80 3f
       0.9963705 1.0036689 0.9991996 1.0042281
000060 91 b0 80 3f d8 93 80 3f 19 12 80 3f 09 cf 7e 3f
       1.0053884 1.0045118 1.0005523 0.9953466
000070 de aa 7f 3f 34 c6 7e 3f a7 00 80 3f fb a7 7e 3f
       0.998701 0.99521184 1.0000199 0.9947507
000080 ff 22 7f 3f fc cf 80 3f 5b dc 7e 3f 1d 6a 80 3f
       0.99662775 1.0063472 0.99554986 1.0032383
000090 57 7c 7f 3f 83 bf 80 3f df 4b 80 3f 12 81 7e 3f
       0.997991 1.0058445 1.0023154 0.99415696
0000a0 a8 86 80 3f a8 1d 7f 3f 87 57 7f 3f 84 5c 7f 3f
       1.0041094 0.99654627 0.9974293 0.9975054
0000b0 cd 5b 7f 3f 1d b2 80 3f d9 2a 80 3f 1f 41 7e 3f
       0.9974945 1.0054356 1.0013076 0.99318117
0000c0 d9 2b 80 3f ea 4d 7e 3f e0 d9 7f 3f ef 7a 80 3f
       1.0013381 0.9933764 0.99941826 1.0037516
0000d0 12 d9 7e 3f 42 dd 80 3f d4 e1 7e 3f 62 e7 7f 3f
       0.99549973 1.0067523 0.99563336 0.9996244
0000e0 27 c0 80 3f 27 5c 7f 3f ed cd 80 3f 03 8e 7e 3f
       1.005864 0.9974999 1.0062844 0.9943544
0000f0 ab 1c 7f 3f da eb 80 3f 44 55 80 3f 3d c0 80 3f
       0.9965312 1.0071976 1.0026021 1.0058666

base.mlp.fc1.2.bias f4 [64]
000000 1f cd 52 3b 50 06 57 3b eb 87 c9 bb b5 24 9d 3b
       0.0032165719 0.003281016 -0.006150236 0.0047956356
000010 92 be 58 3a bf 96 c7 bb 42 b1 c4 bb 7c d2 a0 3b
       0.0008268143 -0.0060909684 -0.006002576 0.004907904
000020 71 ff 42 3b a9 94 2b bb 34 47 9d 3a 03 08 a9 bb
       0.0029754306 -0.0026181138 0.001199937 -0.005158426
000030 bf c9 66 ba 5b 3f 32 bb cb 0f a4 3b e5 a5 35 3b
       -0.0008803866 -0.0027198407 0.0050067655 0.002771729
000040 31 4e ac 3b ce ff 8b 3b 82 43 d0 bb 45 8a 77 3b
       0.0052583446 0.0042724377 -0.006355704 0.0037771624
000050 a5 19 75 3b 46 1e 6b bb 28 b3 47 ba 53 69 75 3b
       0.0037399319 -0.0035876199 -0.0007617944 0.0037446811
000060 98 0a ab bb 98 0b c5 bb dd d2 73 ba 08 68 78 3b
       -0.0052197687 -0.006013345 -0.00093011354 0.0037903804
000070 e8 0c 2a bb 01 95 94 bb d7 fe 0b 3b 0c 8d be 3b
       -0.0025947634 -0.004534364 0.0021361613 0.005815154
000080 43 23 60 bb a5 e8 c5 3b 93 76 a8 3b bf 66 47 3b
       -0.0034200705 0.0060396963 0.0051410883 0.0030426232
000090 58 d6 ac 3a 9c 8d c5 bb 81 c4 28 bb 45 40 cf 3b
       0.0013186438 -0.006028844 -0.002575189 0.0063248
0000a0 8d 9b 00 bb ab 81 70 3b 26 25 50 bb e3 ba 11 3b
       -0.0019623965 0.0036698382 -0.0031760423 0.0022236637
0000b0 a6 2e 3a 3a 68 e0 b5 3b 8f 64 82 3a 96 dd de 3b
       0.0007102288 0.005550433 0.0009948182 0.0068013174
0000c0 7c c9 76 bb a0 5d d8 bb ae ce ea 39 1e e7 95 3b
       -0.0037656715 -0.006602958 0.00044785946 0.0045746705
0000d0 7b 7c 02 3b 12 50 ab 3b 6d 3f af bb c7 67 28 3b
       0.0019910622 0.005228051 -0.005348137 0.0025696622
0000e0 45 71 d8 bb ea eb 58 3b 9c b3 d3 bb e4 71 ba 3b
       -0.0066052997 0.00330996 -0.00646062 0.0056898464
0000f0 79 35 97 bb 2b 30 e4 bb 18 9a af ba b6 09 c0 bb
       -0.0046145287 -0.00696375 -0.0013397364 -0.0058605326

base.mlp.fc_h.0.weight f4 [64, 64]
000000 30 21 33 3f 96 16 15 bc 6d 01 35 3e ac 98 bf 3e
       0.69972515 -0.009099623 0.17676325 0.37421167
000010 a0 c8 7a 3c 87 d9 33 be 94 c9 77 bd cc 56 c4 bd
       0.015306622 -0.17563449 -0.060494974 -0.09586868
000020 b6 59 1a 3e 4c 6e 52 3d 70 23 ef be 10 ae 94 be
       0.15073285 0.05137472 -0.46706724 -0.2903905
000030 96 7e fa 3d dc 0f 71 bd aa ce e1 3d 4e ad 10 3d
       0.122311756 -0.058853015 0.11025746 0.035321526
000040 67 55 14 be d3 5d 9c bd cc 09 41 bd 15 30 89 3d
       -0.14485703 -0.07635083 -0.047128484 0.06698624
000050 11 83 3c 3d 67 72 f4 bd 3b a2 30 bb ec f2 10 3e
       0.046023432 -0.11935883 -0.0026952166 0.14155167
000060 d3 d4 b3 bd d0 9a 27 3e 29 db 35 3e ea a0 3f be
       -0.087808274 0.1636765 0.17759384 -0.18713728
000070 da a8 b1 be 52 6b 4a 3e c7 23 f6 3d 56 c7 86 3d
       -0.34699136 0.19767502 0.12018543 0.06580989
000080 6e 5a bf be 40 ac 2e be 34 9e cb 3b aa f3 03 bc
       -0.3737368 -0.17057896 0.0062139276 -0.0080536995
000090 70 e0 2f 3e fe c0 04 be 41 8a 81 3e 1f 12 76 be
       0.1717546 -0.12964246 0.25300792 -0.2403035
0000a0 d0 0a 46 3d b7 9b 15 bd 66 95 f2 be 9e 4f ec be
       0.048350155 -0.036525454 -0.47379607 -0.46154493
0000b0 61 7d 9b be 6b d3 82 3d 68 33 a2 ba 14 e8 51 bd
       -0.30369094 0.06387981 -0.0012374939 -0.051246718
0000c0 92 d8 10 3e ab b6 4a be 77 6e c2 be 1e 0f 5d 3d
       0.14145115 -0.19796245 -0.37974903 0.053969495
0000d0 85 7d d5 bd 43 5c 1f be f7 0f 3c 3e 33 f1 a6 bd
       -0.104243316 -0.15562539 0.18365465 -0.08151474
0000e0 5e d7 26 3d 8a 9c 15 3e 44 8e 94 3d cb 83 a5 be
       0.040732734 0.14610496 0.072536975 -0.32327113
0000f0 df 22 ee 3d 80 d2 3b bd 03 7b 34 3e 3c 07 24 3e
       0.11627745 -0.045855045 0.1762505 0.16018385
000100 f9 66 5c bc aa c5 5b bd 54 4c b0 3e 02 71 9c 3e
       -0.013452285 -0.053655304 0.34433234 0.30554968
000110 6c 7f 73 be 75 04 6b 3d 0e 9a 46 be 39 bc 9b 3e
       -0.23779076 0.057377297 -0.19394705 0.3041704
000120 e7 ee 65 be a7 97 5e 3d 07 41 cf 3d 92 52 b4 3e
       -0.22454415 0.054343846 0.10119825 0.35219246
000130 81 71 48 3e a9 59 10 3d 94 99 20 be b9 0b 52 3e
       0.19574548 0.035241757 -0.15683585 0.20512284
000140 1f da 60 be 4f 0c 7e be f2 9d de bd 8f b8 c0 be
       -0.21958207 -0.24809383 -0.108699694 -0.37640807
000150 1e 0f cf 3d fd 5f 36 bd 96 d0 cb 3c 43 88 bc bd
       0.10110305 -0.044525135 0.024879735 -0.09205677
000160 2b 36 b1 3e 0e 78 27 be dd 73 ad 3e ab e2 92 3c
       0.3461164 -0.16354391 0.3387746 0.01793035
000170 89 79 0d bc b7 60 4a 3e 4e bf 3d bd 94 56 cc 3e
       -0.008634933 0.19763456 -0.04632502 0.39909804
000180 a5 0d 04 3c 98 38 b0 3c 9a 17 f1 bd ba a4 cf 3e
       0.008059894 0.021511361 -0.1177208 0.40555364
000190 ca 82 8b 3c f0 5c 0e 3e 36 8a 9e be d5 19 66 3e
       0.017030139 0.1390264 -0.30964822 0.22470792
0001a0 1a 69 11 be 34 a5 67 be 25 ec 05 3e 34 f1 ca bc
       -0.1420025 -0.22621614 0.13078363 -0.024773218
0001b0 9e d7 50 bd d9 f4 c9 3e fe ce 6b 3e 8e 6a 55 3e
       -0.05098688 0.39444616 0.2302818 0.20841429
0001c0 14 91 5c 3e 2c ef c2 bd ee 78 16 3e 2c 07 6d 3e
       0.21539718 -0.09518275 0.14694569 0.23147267
0001d0 bf ab 25 be 2b 81 08 be bb b6 6d bd 4c 9d 32 bd
       -0.16178797 -0.13330524 -0.058035593 -0.04360704
0001e0 bf 87 34 3e 0b ae ee bc ac 6c 53 be 58 bc 2f be
       0.17629908 -0.029135725 -0.20646924 -0.17161691
0001f0 5d 03 2f be ce 41 09 bf 6c 8b 54 3e fa 2e 3e 38
       -0.17091127 -0.53616035 0.2075631 4.534328e-05
000200 b3 4a c0 ba 9b a1 82 be ca 55 56 be d4 e1 9a be
       -0.00146707 -0.2551392 -0.20931163 -0.30250418
000210 a8 90 fd 3d 73 03 39 3e b5 10 b0 be 48 02 53 bb
       0.123811066 0.18067722 -0.34387746 -0.0032197405
000220 f2 fa 33 3b e2 ac 81 be 96 d0 78 bd 71 be fa 3e
       0.0027462807 -0.25327212 -0.060745798 0.4897342
000230 36 16 42 3e 1b 4b 29 be 59 e8 2b 3e 18 7d a4 3d
       0.18953785 -0.16532557 0.16787852 0.08031672
000240 51 ab b6 bd b8 3e 8f be cd 82 11 be 2f 40 b8 3e
       -0.08919395 -0.27977538 -0.14210053 0.35986468
000250 78 9b cd 3c 68 29 12 be ed 0d 9d be 4c a7 3b 3e
       0.025098547 -0.14273608 -0.30674687 0.18325537
000260 f1 02 32 be c2 6d f7 3c 9d df f5 3d 3f 91 66 3e
       -0.17383935 0.030203704 0.120055415 0.22516344
000270 e8 88 2a 3e f7 4e 69 be 8d c5 15 3e 1e 6f b3 be
       0.16653788 -0.22784029 0.14626141 -0.35045713
000280 6f 28 e1 be 08 12 60 bd 1f 1f 81 be 95 4b 71 3e
       -0.4397616 -0.054704696 -0.25219056 0.23563989
000290 c5 6a 3b 3e da 29 6a be 9e e8 21 3c 68 8f 58 3d
       0.18302448 -0.22867528 0.00988212 0.052871138
0002a0 52 61 65 3e 76 f0 da bd 6f 80 0d bd a9 bc 6a 3e
       0.22400406 -0.106903955 -0.034546312 0.2292353
0002b0 74 8e df 3b 76 2e 74 3e eb 98 bd 3c ca 1d a7 3d
       0.0068224017 0.23845848 0.023144206 0.08159979
0002c0 68 c9 eb be 83 74 8f be 18 fb 26 3d 9e 2c 56 be
       -0.46052098 -0.2801858 0.040766805 -0.20915458
0002d0 7e f1 a8 be 08 e4 7c bd 92 ee fc bc fc 50 fe 3b
       -0.32996744 -0.061740905 -0.030875478 0.007761119
0002e0 72 ac f0 bd 27 0b 92 be 47 b9 8a 3d 02 ea 68 be
       -0.11751641 -0.28524134 0.0677362 -0.22745517
0002f0 31 a8 52 3e 06 1e 1d bd 66 30 62 3e 7e b6 1c be
       0.20571972 -0.03835871 0.22088775 -0.1530399
000300 81 98 a0 bd 63 95 28 bd a9 36 0b bd da 32 5f be
       -0.07841588 -0.04115809 -0.033987675 -0.21796742
000310 2e e4 5e be a7 18 f9 be b4 36 91 be 96 fd 6d 3e
       -0.21766731 -0.4865162 -0.28362048 0.23241267
000320 c3 95 27 3e a5 e3 29 bd b2 28 20 3e a5 54 28 be
       0.16365723 -0.041476864 0.15640524 -0.1643854
000330 56 75 90 3d e4 da c0 be 96 a0 00 be 3e 32 e2 bd
       0.0705363 -0.37667 -0.12561259 -0.11044739
000340 1b f9 8a 3e a9 cc e3 3d 32 72 67 3d 0f 49 d7 bb
       0.27143177 0.1112302 0.05650539 -0.0065699886
000350 9a 4f d2 bd 94 05 29 3d 05 14 40 3e 56 c9 a9 bc
       -0.10269089 0.041265085 0.18757637 -0.020725887
000360 6f b0 65 3e 8f f9 ae bd de 52 38 3e 1b 01 f7 3e
       0.22430585 -0.08543693 0.18000361 0.4824303
000370 ec ac b1 3b c5 8c d4 3e 41 8b 21 3e 50 a2 da bd
       0.005422225 0.4151365 0.15775777 -0.1067549
000380 76 65 d8 bb f0 2e 39 be 79 ca 5f be be 29 15 bd
       -0.006603892 -0.18084311 -0.21854581 -0.03641676
000390 9c 58 ed be c1 e0 e2 3c e5 54 42 be f4 b6 06 3d
       -0.46356666 0.027695062 -0.18977697 0.03288932
0003a0 db ca f2 be f9 76 14 3d e5 e8 0d bd 90 56 fd be
       -0.4742039 0.036246274 -0.034645934 -0.49480104
0003b0 67 d5 fa 3b 82 b9 36 be 39 11 36 3d ff 77 ba bd
       0.007654834 -0.17844203 0.04445002 -0.09104919
0003c0 08 a5 8f be df f1 35 be bb 10 1f 3e 72 84 24 be
       -0.28055596 -0.17768048 0.15533726 -0.16066149
0003d0 fa f5 5f be 87 cd 02 3e 81 d0 f4 bc 08 c9 a7 3e
       -0.21871176 0.12773715 -0.029884579 0.32770562
0003e0 86 36 87 be d4 83 42 3e 1b 54 16 3d 84 fc 6f be
       -0.26408786 0.18995601 0.036701303 -0.23436171
0003f0 99 63 b8 3d d7 46 10 3e e0 2d b3 3d 83 fd 98 3b
       0.09003372 0.14089523 0.08748984 0.004668893

base.mlp.fc_h.0.bias f4 [64]
000000 00 00 00 00 00 00 00 00 00 00 00 00 00 00 00 00
       0.0 0.0 0.0 0.0
000010 00 00 00 00 00 00 00 00 00 00 00 00 00 00 00 00
       0.0 0.0 0.0 0.0
000020 00 00 00 00 00 00 00 00 00 00 00 00 00 00 00 00
       0.0 0.0 0.0 0.0
000030 00 00 00 00 00 00 00 00 00 00 00 00 00 00 00 00
       0.0 0.0 0.0 0.0
000040 00 00 00 00 00 00 00 00 00 00 00 00 00 00 00 00
       0.0 0.0 0.0 0.0
000050 00 00 00 00 00 00 00 00 00 00 00 00 00 00 00 00
       0.0 0.0 0.0 0.0
000060 00 00 00 00 00 00 00 00 00 00 00 00 00 00 00 00
       0.0 0.0 0.0 0.0
000070 00 00 00 00 00 00 00 00 00 00 00 00 00 00 00 00
       0.0 0.0 0.0 0.0
000080 00 00 00 00 00 00 00 00 00 00 00 00 00 00 00 00
       0.0 0.0 0.0 0.0
000090 00 00 00 00 00 00 00 00 00 00 00 00 00 00 00 00
       0.0 0.0 0.0 0.0
0000a0 00 00 00 00 00 00 00 00 00 00 00 00 00 00 00 00
       0.0 0.0 0.0 0.0
0000b0 00 00 00 00 00 00 00 00 00 00 00 00 00 00 00 00
       0.0 0.0 0.0 0.0
0000c0 00 00 00 00 00 00 00 00 00 00 00 00 00 00 00 00
       0.0 0.0 0.0 0.0
0000d0 00 00 00 00 00 00 00 00 00 00 00 00 00 00 00 00
       0.0 0.0 0.0 0.0
0000e0 00 00 00 00 00 00 00 00 00 00 00 00 00 00 00 00
       0.0 0.0 0.0 0.0
0000f0 00 00 00 00 00 00 00 00 00 00 00 00 00 00 00 00
       0.0 0.0 0.0 0.0

base.mlp.fc_h.2.weight f4 [64]
000000 00 00 80 3f 00 00 80 3f 00 00 80 3f 00 00 80 3f
       1.0 1.0 1.0 1.0
000010 00 00 80 3f 00 00 80 3f 00 00 80 3f 00 00 80 3f
       1.0 1.0 1.0 1.0
000020 00 00 80 3f 00 00 80 3f 00 00 80 3f 00 00 80 3f
       1.0 1.0 1.0 1.0
000030 00 00 80 3f 00 00 80 3f 00 00 80 3f 00 00 80 3f
       1.0 1.0 1.0 1.0
000040 00 00 80 3f 00 00 80 3f 00 00 80 3f 00 00 80 3f
       1.0 1.0 1.0 1.0
000050 00 00 80 3f 00 00 80 3f 00 00 80 3f 00 00 80 3f
       1.0 1.0 1.0 1.0
000060 00 00 80 3f 00 00 80 3f 00 00 80 3f 00 00 80 3f
       1.0 1.0 1.0 1.0
000070 00 00 80 3f 00 00 80 3f 00 00 80 3f 00 00 80 3f
       1.0 1.0 1.0 1.0
000080 00 00 80 3f 00 00 80 3f 00 00 80 3f 00 00 80 3f
       1.0 1.0 1.0 1.0
000090 00 00 80 3f 00 00 80 3f 00 00 80 3f 00 00 80 3f
       1.0 1.0 1.0 1.0
0000a0 00 00 80 3f 00 00 80 3f 00 00 80 3f 00 00 80 3f
       1.0 1.0 1.0 1.0
0000b0 00 00 80 3f 00 00 80 3f 00 00 80 3f 00 00 80 3f
       1.0 1.0 1.0 1.0
0000c0 00 00 80 3f 00 00 80 3f 00 00 80 3f 00 00 80 3f
       1.0 1.0 1.0 1.0
0000d0 00 00 80 3f 00 00 80 3f 00 00 80 3f 00 00 80 3f
       1.0 1.0 1.0 1.0
0000e0 00 00 80 3f 00 00 80 3f 00 00 80 3f 00 00 80 3f
       1.0 1.0 1.0 1.0
0000f0 00 00 80 3f 00 00 80 3f 00 00 80 3f 00 00 80 3f
       1.0 1.0 1.0 1.0

base.mlp.fc_h.2.bias f4 [64]
000000 00 00 00 00 00 00 00 00 00 00 00 00 00 00 00 00
       0.0 0.0 0.0 0.0
000010 00 00 00 00 00 00 00 00 00 00 00 00 00 00 00 00
       0.0 0.0 0.0 0.0
000020 00 00 00 00 00 00 00 00 00 00 00 00 00 00 00 00
       0.0 0.0 0.0 0.0
000030 00 00 00 00 00 00 00 00 00 00 00 00 00 00 00 00
       0.0 0.0 0.0 0.0
000040 00 00 00 00 00 00 00 00 00 00 00 00 00 00 00 00
       0.0 0.0 0.0 0.0
000050 00 00 00 00 00 00 00 00 00 00 00 00 00 00 00 00
       0.0 0.0 0.0 0.0
000060 00 00 00 00 00 00 00 00 00 00 00 00 00 00 00 00
       0.0 0.0 0.0 0.0
000070 00 00 00 00 00 00 00 00 00 00 00 00 00 00 00 00
       0.0 0.0 0.0 0.0
000080 00 00 00 00 00 00 00 00 00 00 00 00 00 00 00 00
       0.0 0.0 0.0 0.0
000090 00 00 00 00 00 00 00 00 00 00 00 00 00 00 00 00
       0.0 0.0 0.0 0.0
0000a0 00 00 00 00 00 00 00 00 00 00 00 00 00 00 00 00
       0.0 0.0 0.0 0.0
0000b0 00 00 00 00 00 00 00 00 00 00 00 00 00 00 00 00
       0.0 0.0 0.0 0.0
0000c0 00 00 00 00 00 00 00 00 00 00 00 00 00 00 00 00
       0.0 0.0 0.0 0.0
0000d0 00 00 00 00 00 00 00 00 00 00 00 00 00 00 00 00
       0.0 0.0 0.0 0.0
0000e0 00 00 00 00 00 00 00 00 00 00 00 00 00 00 00 00
       0.0 0.0 0.0 0.0
0000f0 00 00 00 00 00 00 00 00 00 00 00 00 00 00 00 00
       0.0 0.0 0.0 0.0

base.mlp.fc2.0.0.weight f4 [64, 64]
000000 22 ea 32 3f 5a f1 e4 bb 0d 18 37 3e 33 5b c0 3e
       0.6988851 -0.006986779 0.17880268 0.3756958
000010 62 1e 5b 3c 5f 7a 32 be 91 1c 7b bd a7 6d c5 bd
       0.013373943 -0.17429493 -0.06130654 -0.09640055
000020 e0 07 18 3e c7 bf 67 3d 2e a5 ee be 1f 8f 95 be
       0.14846754 0.056579378 -0.46610397 -0.29210755
000030 b6 87 fe 3d 54 a5 5c bd 24 90 e2 3d ae b2 12 3d
       0.124282286 -0.053868607 0.11062649 0.035814933
000040 be 81 16 be d9 60 98 bd 22 58 39 bd 16 d3 8c 3d
       -0.1469793 -0.07440347 -0.045250066 0.06876199
000050 c7 a9 35 3d ac 88 f7 bd fa e5 5b ba 87 fb 12 3e
       0.044351365 -0.12086615 -0.0008388456 0.14353763
000060 0b d5 b7 bd 1e b3 28 3e 28 e0 33 3e 76 06 41 be
       -0.089761816 0.16474578 0.17565978 -0.18850121
000070 22 7f b3 be 31 2d 46 3e 84 7a f8 3d 86 d2 82 3d
       -0.35057932 0.19353177 0.12132743 0.063878104
000080 aa 68 be be 13 52 2d be 89 27 f0 3b f9 66 c3 bb
       -0.37189227 -0.1692584 0.0073289317 -0.005963203
000090 f6 40 2e 3e 3b ff 05 be 58 81 80 3e b0 90 71 be
       0.17016968 -0.13085644 0.2509868 -0.2359035
0000a0 0d d1 41 3d b8 04 20 bd 5b 9c f1 be 65 87 ed be
       0.047318507 -0.039067 -0.47189602 -0.4639236
0000b0 13 2b 9c be 00 e4 86 3d e9 6a 30 3a 41 a8 5b bd
       -0.30501613 0.06586456 0.0006729798 -0.053627256
0000c0 0e 86 0d 3e f7 b1 48 be 7b 6b c3 be eb 92 5f 3d
       0.13820669 -0.19599138 -0.3816794 0.05458347
0000d0 e6 2b d6 bd 18 2c 23 be ca de 40 3e e3 34 a4 bd
       -0.10457592 -0.15934789 0.18834987 -0.080179
0000e0 3a be 29 3d 51 e0 13 3e 7a 51 94 3d e4 8c a6 be
       0.04144118 0.14441039 0.07242103 -0.32529366
0000f0 0f c4 f0 3d 25 c8 42 bd 20 17 34 3e 5e de 21 3e
       0.11756145 -0.047554154 0.17586946 0.15807483
000100 bb 02 95 bc c3 89 49 bd ca b7 b2 3e a6 c7 9e 3e
       -0.018189779 -0.049203645 0.34905845 0.31011695
000110 11 27 78 be be 76 7d 3d 5f e7 4a be 65 22 9d 3e
       -0.24233653 0.06188082 -0.19814824 0.30690303
000120 78 81 6a be 3e 20 71 3d 58 48 d9 3d ca 09 b2 3e
       -0.22900951 0.05886864 0.106095016 0.34773093
000130 32 03 4d 3e ec 3f 0c 3d 0c 33 1c be ea 2a 57 3e
       0.2002075 0.03424065 -0.15253848 0.21012464
000140 bf 9a 65 be 80 5c 79 be db 46 d5 bd ab 65 be be
       -0.22422312 -0.24351692 -0.10413905 -0.37186942
000150 5c f0 c5 3d d0 f9 48 bd 6a e9 f0 3c 92 4f b3 bd
       0.096649855 -0.049066365 0.029408175 -0.08755411
000160 3b e9 ae 3e 3c dc 23 be 09 20 ab 3e bf d9 52 3c
       0.34162316 -0.16001981 0.33422878 0.0128692975
000170 bb 74 c3 bb cf e3 4e 3e 03 b1 2a bd b8 08 ca 3e
       -0.005964843 0.2020409 -0.041672718 0.39459777
000180 39 35 4d 3c 17 66 d9 3c 85 bf fa bd cc 0b d2 3e
       0.012524896 0.026537938 -0.12243561 0.41024625
000190 93 50 4e 3c 9a ca 09 3e b2 e1 a0 be 4a bc 63 3e
       0.012592453 0.13456193 -0.31422192 0.22239795
0001a0 5a 1e 16 be b8 cd 6b be de 9b 0a 3e 44 c3 f1 bc
       -0.14660016 -0.23027694 0.13536021 -0.029512055
0001b0 77 86 66 bd 4b 4d cc 3e 10 82 70 3e eb 35 51 3e
       -0.05628058 0.3990272 0.23487115 0.20430724
0001c0 ac 39 60 3e 83 a9 b9 bd f6 cf 11 3e dd ab 71 3e
       0.21897 -0.09065535 0.14239487 0.23600717
0001d0 5c 08 2a be 4e 3c 0b be 7c 9f 75 bd ca ea 1c bd
       -0.16604751 -0.13597223 -0.05996655 -0.03830985
0001e0 92 c4 2f 3e 12 f4 c8 bc 8d ee 57 be 17 46 34 be
       0.1716483 -0.024530444 -0.21087094 -0.17604862
0001f0 03 16 32 be cb 84 0a bf d2 f0 4f 3e 33 c8 90 bb
       -0.1739121 -0.54108876 0.2030671 -0.004418397
000200 fb 46 0e bb 94 57 80 be 34 2c 52 be a7 df 98 be
       -0.0021709788 -0.25066817 -0.20524675 -0.29858133
000210 7e 13 f5 3d 3c 00 3d 3e a0 06 b2 be 06 36 53 39
       0.119666085 0.1845712 -0.3477068 0.00020142653
000220 f5 d8 eb ba 4d 46 7e be 0e 8d 6e bd 10 9e f8 3e
       -0.0017993735 -0.24831505 -0.05823999 0.48558092
000230 7f ac 46 3e 46 2d 23 be 20 fb 2f 3e 10 6a a9 3d
       0.1940174 -0.15935239 0.1718564 0.08272183
000240 9c bb be bd b5 26 8d be 42 49 0d be 26 58 ba 3e
       -0.093131274 -0.27568594 -0.13797477 0.36395377
000250 dc 2c af 3c 53 5c 16 be f3 f1 9a be 78 e4 3f 3e
       0.021383695 -0.14683656 -0.30262718 0.18739498
000260 d7 44 36 be 41 92 16 3d 5f 67 ed 3d d8 8e 63 3e
       -0.17799698 0.036760572 0.11591982 0.2222246
000270 d8 58 24 3e db 6c 6a be cf 73 19 3e d2 98 b5 be
       0.16049516 -0.22893088 0.14985584 -0.35468155
000280 fb 1c df be 41 a2 58 bd 27 c9 81 be 9b 59 75 3e
       -0.43576798 -0.052889112 -0.2534878 0.23959963
000290 2f 7e 37 3e e3 7a 6e be f8 fc c0 3b 0e d3 5a 3d
       0.17919229 -0.23289065 0.005889531 0.053423934
0002a0 e8 4f 64 3e eb 9b e4 bd 87 49 f9 bc 31 24 67 3e
       0.22296107 -0.111625515 -0.030430568 0.225724
0002b0 f6 24 a7 3b dc 4c 78 3e 5e ee de 3c 8b 89 9d 3d
       0.0051008416 0.2424807 0.027213272 0.0769225
0002c0 20 e8 ed be a7 65 8d be cb f3 15 3d 43 d1 54 be
       -0.4646616 -0.27616617 0.036609452 -0.20782952
0002d0 df bf aa be b8 c0 8a bd e4 19 0a bd e4 35 1e 3b
       -0.3334951 -0.067750394 -0.033716097 0.0024141008
0002e0 1a 8d f5 bd ad 4c 93 be d8 91 83 3d 05 71 6d be
       -0.119898036 -0.28769436 0.06424302 -0.23187645
0002f0 d4 42 59 3e 52 5f 25 bd 0f 51 5f 3e 31 be 20 be
       0.21216899 -0.040374108 0.21808265 -0.15697552
000300 a0 f0 a2 bd 01 13 27 bd 2a 98 09 bd 6d fa 5e be
       -0.07956052 -0.040789608 -0.03359238 -0.21775217
000310 56 39 5f be 2d a2 f8 be b3 16 91 be 1c 41 6e 3e
       -0.21799216 -0.4856123 -0.2833763 0.23267025
000320 30 3c 27 3e 8b ce 26 bd 6e d8 20 3e 48 98 28 be
       0.16331553 -0.04072432 0.15707561 -0.1646434
000330 f8 87 90 3d 1f 15 c0 be 9f e3 00 be 20 9f df bd
       0.07057184 -0.37516114 -0.1258683 -0.109190226
000340 23 b4 8a 3e 44 6a e4 3d ae 5f 68 3d 5f 0b d3 bb
       0.27090558 0.11153081 0.056731872 -0.0064405645
000350 78 e2 d2 bd 03 cd 27 3d 7f 58 40 3e 62 33 a7 bc
       -0.10297102 0.040967 0.18783759 -0.020410243
000360 6b 6d 65 3e 95 75 b9 bd 87 fc 37 3e d9 76 f6 3e
       0.22405021 -0.0905563 0.17967425 0.4813755
000370 32 ab 9c 3b 21 3a d1 3e 79 1f 22 3e ac fb da bd
       0.0047811503 0.4086466 0.15832318 -0.10692534
000380 39 07 d1 bb 42 0a 38 be ab 8f 59 be 2b b5 13 bd
       -0.006379035 -0.17972663 -0.21246211 -0.036061447
000390 14 b2 ed be 34 4d df 3c 3a e3 42 be 4e 00 1e 3d
       -0.46424925 0.027258493 -0.19031993 0.03857451
0003a0 c0 96 f3 be ff 39 18 3d af b4 0c bd 32 66 fd be
       -0.4757595 0.037164684 -0.034352 -0.4949203
0003b0 24 6c d6 3b 5c 5a 36 be 9c 66 37 3d 0b e7 bc bd
       0.006543653 -0.17807907 0.04477559 -0.092237554
0003c0 03 f8 90 be 4c 91 35 be 0c bf 1e 3e 2d 33 23 be
       -0.28314218 -0.17731208 0.15502566 -0.15937491
0003d0 fd c3 5f be ac 1d 08 3e b1 5e f4 bc 5d 53 a9 3e
       -0.21852107 0.13292569 -0.029830309 0.33071414
0003e0 a7 ee 86 be 5f 37 44 3e 25 45 13 3d 39 45 70 be
       -0.26353952 0.19161747 0.035954613 -0.23463906
0003f0 28 c2 ad 3d 4f 7f 0e 3e 42 89 b1 3d 59 da 89 3b
       0.08484298 0.13915752 0.08668758 0.0042069373

base.mlp.fc2.0.0.bias f4 [64]
000000 8e 6f e9 3a 53 8f 93 3b c7 af 80 3b e8 e3 c5 39
       0.0017809735 0.0045031696 0.0039272043 0.0003774457
000010 5a 17 ca 3b 7b 83 b3 3a 8a c4 66 3b 61 e6 96 3b
       0.0061673345 0.00136958 0.0035212361 0.0046051
000020 1e b4 97 bb 83 bc 91 bb 01 fb 61 ba f4 f2 1a bb
       -0.004629626 -0.004447521 -0.00086204713 -0.0023643347
000030 df 4e a1 bb 4e d9 c3 bb 2a 8c b5 bb 18 5d b4 3b
       -0.0049227322 -0.0059768325 -0.0055403905 0.0055042617
000040 cb 11 b4 39 e5 3e 92 3b 43 a4 5f b8 2a 7e c4 ba
       0.00034345532 0.004463064 -5.3320324e-05 -0.0014991213
000050 83 22 c6 3b 51 ef c8 bb 68 16 c7 3b e8 de 87 3b
       0.0060465946 -0.0061320444 0.006075669 0.0041464455
000060 22 c2 20 ba 39 b0 96 3b 71 dd ee ba 98 42 b2 3b
       -0.00061324437 0.004598644 -0.0018223954 0.0054400675
000070 1f e2 c1 bb 5f 55 87 3a b2 1e 8b bb 6c e0 89 3b
       -0.0059168483 0.0010325125 -0.0042456025 0.0042076614
000080 57 9b 08 3b 06 da c1 3b 97 2a b8 3b 9c 8a 7a bb
       0.0020844543 0.005915883 0.0056203115 -0.003822959
000090 4e 8e 85 3b dd b6 28 bb a9 ae c6 bb 7f c1 a6 3b
       0.004075802 -0.002574376 -0.0060633016 0.0050889845
0000a0 20 9e 84 3b 6a ad bc 3b 49 3b 4d 39 a5 8b 85 3b
       0.0040471703 0.0057579773 0.00019572409 0.004075485
0000b0 24 16 aa 3b 00 13 c3 bb 14 b0 c6 bb d5 e6 a8 bb
       0.0051906276 -0.0059531927 -0.0060634706 -0.0051544704
0000c0 73 ab ca bb a8 46 65 bb 4b 85 84 bb bc 8d e8 b9
       -0.006184989 -0.0034984741 -0.00404421 -0.0004435609
0000d0 2f 31 72 bb 72 92 9f 3b 67 67 b5 3b 74 9a 56 bb
       -0.0036955585 0.0048697526 0.005536008 -0.003274587
0000e0 70 1c 75 3b 57 00 97 bb ef ba a9 3b 78 32 6b 3b
       0.0037400983 -0.004608195 0.005179755 0.0035888236
0000f0 35 50 53 3b 72 8b 87 ba 9e 05 44 3b 57 86 af bb
       0.0032243852 -0.001034124 0.0029910575 -0.0053565907

base.mlp.fc2.0.2.weight f4 [64]
000000 10 88 80 3f 28 c0 80 3f 53 3f 80 3f 7c 09 80 3f
       1.0041523 1.0058641 1.0019325 1.0002894
000010 b4 bc 80 3f 1c a4 80 3f de b0 80 3f e5 a2 80 3f
       1.0057588 1.0050082 1.0053976 1.0049711
000020 d7 af 80 3f 9a b3 80 3f 05 71 80 3f 24 9b 80 3f
       1.0053662 1.005481 1.0034491 1.0047345
000030 cd b3 7e 3f b3 80 80 3f 01 ae 80 3f c5 c1 80 3f
       0.99493104 1.0039276 1.0053102 1.0059134
000040 d5 2d 80 3f 65 af 80 3f 66 3a 80 3f a3 c8 80 3f
       1.0013987 1.0053526 1.0017822 1.006123
000050 cc 65 80 3f 64 b8 80 3f 09 da 7e 3f 6f c7 80 3f
       1.0031066 1.0056272 0.99551445 1.0060862
000060 d4 9e 7f 3f 35 4e 80 3f 66 70 80 3f 08 a1 80 3f
       0.9985173 1.0023867 1.0034301 1.0049143
000070 76 6f 7f 3f 6e a5 80 3f 67 9d 80 3f b5 cc 7f 3f
       0.9977945 1.0050485 1.0048035 0.99921733
000080 9b a0 80 3f 83 0a 80 3f 7e 9e 7f 3f f5 b7 80 3f
       1.0049013 1.0003208 0.99851215 1.0056139
000090 c0 55 80 3f 95 b6 80 3f 53 85 80 3f 33 64 80 3f
       1.0026169 1.005572 1.0040687 1.0030578
0000a0 d5 8f 80 3f de b3 7f 3f f8 bc 80 3f 74 7a 7f 3f
       1.0043894 0.9988383 1.0057669 0.99796224
0000b0 e8 bb 80 3f ab 9e 80 3f 2d 5a 7f 3f e7 a8 80 3f
       1.0057344 1.0048422 0.9974697 1.0051545
0000c0 65 a7 80 3f ae 2c 7f 3f 7d b8 80 3f f5 9f 7f 3f
       1.0051085 0.9967755 1.0056301 0.9985345
0000d0 29 fa 7e 3f 2e 2b 80 3f 6a ad 80 3f 68 b5 80 3f
       0.99600464 1.0013177 1.0052922 1.0055361
0000e0 62 b5 80 3f a4 10 7f 3f e2 ac 80 3f e0 a8 80 3f
       1.0055354 0.99634767 1.005276 1.0051537
0000f0 f5 64 80 3f 65 be 80 3f 04 50 80 3f f1 bc 7e 3f
       1.003081 1.0058104 1.0024419 0.9950705

base.mlp.fc2.0.2.bias f4 [64]
000000 bb c1 2a 3b e5 7a bf 3b d1 9c e1 39 55 c2 c3 b9
       0.0026055414 0.0058435076 0.00043032182 -0.00037338087
000010 e6 ea c2 3b 00 85 04 3b 72 e3 ad 3b a6 57 a9 3b
       0.005948412 0.0020220876 0.0053066546 0.005167919
000020 aa 30 af bb e5 7a b0 bb 8d 38 3e bb 5b 26 f7 3a
       -0.0053463774 -0.005385744 -0.0029025406 0.0018856035
000030 1a 66 9f bb 3b 90 b9 bb f8 05 bd bb 3e 71 bd 3b
       -0.0048644664 -0.0056629456 -0.005768534 0.005781322
000040 64 17 85 38 1c 8d ad 3b 61 c5 3c b9 03 b0 75 bb
       6.346291e-05 0.0052963626 -0.00018002607 -0.0037488944
000050 5e 86 2f bb 14 94 c2 bb 51 c2 a2 3b eb 4a 87 bb
       -0.002678297 -0.0059380624 0.004967012 -0.004128804
000060 2d db a1 ba 7e ca 0f bb 0d 9f 61 bb f7 c4 a9 3b
       -0.0012348645 -0.0021940763 -0.0034427077 0.0051809507
000070 70 44 05 bb 3e c0 9f bb 02 02 9d bb a7 06 a8 3a
       -0.0020334981 -0.004875212 -0.004791499 0.0012819365
000080 7a 38 a0 3b d1 bb b6 3b c3 88 5b 3b ab ef b1 bb
       0.004889545 0.0055765887 0.0033498264 -0.005430182
000090 ea 30 39 bb d7 f1 b2 bb b7 18 bf bb 89 cb a0 3b
       -0.0028257915 -0.0054609585 -0.0058318037 0.004907076
0000a0 c5 06 65 3b ef ea 83 3a 5e c6 a8 bb 93 4f 22 3b
       0.0034946662 0.0010064523 -0.0051506003 0.0024766668
0000b0 65 3b bb 3b 3a 71 b1 bb 5f a2 05 bb 48 fb a8 bb
       0.0057138675 -0.005415109 -0.002039097 -0.005156908
0000c0 9f ad b6 bb 81 f2 94 bb 62 a3 b4 bb 9b 08 9d ba
       -0.0055748965 -0.0045455103 -0.005512641 -0.0011980714
0000d0 33 9b 7c bb 05 ef b7 ba 12 f2 b3 3b 6b f7 b1 bb
       -0.0038544654 -0.0014033025 0.0054915035 -0.005431106
0000e0 a7 c5 b2 3b 31 c8 5f bb 7b b5 af 3b 2f d8 a6 3b
       0.005455691 -0.0034146423 0.0053622103 0.005091689
0000f0 09 d4 5c 3b f0 5c bb bb 5b a5 31 bb ab ca 97 bb
       0.0033695719 -0.005717866 -0.0027106616 -0.004632314

act.action_out.fc_mean.weight f4 [2, 64]
000000 57 a1 c0 bb 76 ca 7b 3b 5f 08 11 bc f2 ae db 3b
       -0.005878608 0.0038420237 -0.0088520935 0.0067042047
000010 45 a6 c7 3b 15 b4 d3 bb 8a 03 be b8 de 5d 95 b9
       0.006092819 -0.0064606764 -9.060565e-05 -0.0002848943
000020 0d 16 e6 39 9d 33 25 b9 07 4d 00 bc 42 d4 dd bb
       0.00043885448 -0.00015754854 -0.007830865 -0.006769688
000030 41 68 60 b8 13 8e b0 ba 91 0a f1 bb a9 aa d4 3b
       -5.3502856e-05 -0.0013470076 -0.007355996 0.006490071
000040 7a d5 05 bc 92 4d 57 ba 6f a8 8d bb c3 34 fe 3b
       -0.008168573 -0.0008213158 -0.0043230574 0.0077577545
000050 dc 4b 02 3a e7 4c cb bb 71 00 cc 3a 4b 6b cd 3b
       0.00049704104 -0.006204236 0.0015564096 0.006268894
000060 83 fd 62 3a 60 d4 2b 39 41 ba 06 ba c8 3b fc 38
       0.0008658992 0.00016386947 -0.00051394483 0.000120274315
000070 62 e6 71 ba 73 26 12 39 0f 41 26 3b 24 61 79 3a
       -0.000922775 0.00013937968 0.0025368368 0.0009513071
000080 5d 1f db ba 60 21 03 3c 18 e8 c1 3b fc b2 0d 3b
       -0.0016717721 0.008003563 0.0059175603 0.0021621576
000090 8c 52 8f 39 e1 c5 29 ba 86 d4 c2 bb 1a fe a0 3b
       0.00027336588 -0.00064763246 -0.005945745 0.0049131038
0000a0 17 5f 06 3c 97 3d a9 ba 9f f7 7b 3b fd 66 a9 3a
       0.008201382 -0.0012912032 0.0038447154 0.001292437
0000b0 9b a2 c6 3b 27 ce ac ba 39 08 8c ba f3 da b7 38
       0.0060618646 -0.0013183997 -0.0010683603 8.7669025e-05
0000c0 3a 77 4f ba 90 ac 89 bb 93 98 b8 3a a6 53 9e b9
       -0.00079141895 -0.0042014793 0.0014083557 -0.0003019843
0000d0 80 70 97 3a cd b4 d9 b9 ee 9d 93 3a 17 a3 07 bb
       0.0011553913 -0.00041524172 0.0011262277 -0.0020696574
0000e0 75 3d 9f 3a 03 2f af 39 92 e6 e4 3a 11 0b 03 ba
       0.0012149053 0.00033413628 0.0017463735 -0.00049989024
0000f0 60 04 57 ba 51 62 a5 ba a2 09 17 38 0d 72 c3 3a
       -0.0008202251 -0.0012617802 3.6010177e-05 0.0014911309
000100 55 36 d1 3b bb a4 f9 3b bc 51 70 bb db 48 50 3b
       0.0063846507 0.0076185144 -0.0036669811 0.0031781706
000110 17 ca e8 3b c1 44 c1 3b a7 91 df 3b b9 3c d7 3b
       0.007104169 0.0058980887 0.006822783 0.006568518
000120 de 82 ec bb c0 43 ec bb 82 75 92 bb 9e 2c ad 3b
       -0.007217749 -0.007210225 -0.0044695744 0.00528486
000130 bc b9 79 3b 5a dd ed bb 6d 8d 82 bb 95 83 ce 3b
       0.003810509 -0.007259053 -0.0039841444 0.006302307
000140 03 7a dc ba 70 b4 ee 3b 3d 09 b7 3b ff 74 d6 bb
       -0.001682103 0.0072846934 0.005585818 -0.0065447087
000150 a6 96 bc bb 16 54 e0 bb 02 fc 60 bb 95 a5 ce bb
       -0.0057552634 -0.0068459613 -0.0034329896 -0.00630636
000160 9b ee 77 3b 05 4f b6 bb 3c ab bd bb e2 75 d5 3b
       0.003783143 -0.005563619 -0.005788235 0.006514297
000170 5e 73 97 3b b6 4c cd bb 4a da e5 bb 28 04 a0 bb
       0.004621907 -0.006265248 -0.0070145475 -0.004883308
000180 e8 6f d9 3b 4e 6f 6b b8 b7 e0 6a bb b5 ea 14 bc
       0.0066356547 -5.6132027e-05 -0.0035839507 -0.009089162
000190 94 b4 b5 bb 78 c3 e7 bb 0f 08 cf bb 3f 11 be 3b
       -0.005545208 -0.0070728622 -0.0063180993 0.0058003957
0001a0 08 b9 b3 3b 95 c6 99 bb f9 a8 02 bc 9b 95 99 bb
       0.005484704 -0.0046928623 -0.0079748565 -0.004687024
0001b0 87 ca d1 3b 81 56 d8 bb ad 1b 9a 3b 91 a9 dd bb
       0.006402317 -0.006602109 0.0047030062 -0.0067645987
0001c0 6b 1b fb bb 4d 05 43 b9 46 c3 12 bc f9 3e 9c 3b
       -0.0076631806 -0.00018598624 -0.00895769 0.004768249
0001d0 fc 3e 82 3b 2b d5 ac bb a6 97 ea 3b b4 b1 d8 bb
       0.0039747935 -0.005274435 0.007159191 -0.0066129807
0001e0 10 83 de 3b 8d 1a 8b 3b c0 69 d3 3b 22 5e dc 3b
       0.006790526 0.0042451085 0.0064518154 0.0067250887
0001f0 5a 29 c0 3b 9f 3d 07 bc 5e e2 b4 bb 41 36 62 3b
       0.0058643045 -0.008254438 -0.005520149 0.00345172

act.action_out.fc_mean.bias f4 [2]
000000 c3 aa c7 b9 89 e6 c0 3b
       -0.00038083465 0.005886857

act.action_out.logstd._bias f4 [2, 1]
000000 cc e1 e2 bb 84 90 23 bb
       -0.0069238897 -0.0024957964
