results/MyEnv/MyEnv/mappo/check/run1/models/critic_agent2.pt (torch, 206110 bytes, 15 tensors)

base.feature_norm.weight f4 [624]
0	0x3f801342	1.0005877
1	0x3f800858	1.0002546
2	0x3f7ec9b0	0.995265
3	0x3f7f7a71	0.99796206
4	0x3f7f331c	0.9968736
5	0x3f7ff67a	0.9998547
6	0x3f7ff9cb	0.9999053
7	0x3f7fdd13	0.9994671
8	0x3f800279	1.0000755
9	0x3f8012d4	1.0005746
10	0x3f7ff945	0.9998973
11	0x3f804eb6	1.0024021
12	0x3f7fe782	0.9996263
13	0x3f803dad	1.0018822
14	0x3f7f0f56	0.99632776
15	0x3f7f4bef	0.9972524
16	0x3f805e6d	1.0028816
17	0x3f801263	1.0005611
18	0x3f7fdeb3	0.9994919
19	0x3f7fc141	0.9990426
20	0x3f7ef53b	0.9959294
21	0x3f7ff4d4	0.99982953
22	0x3f8009a1	1.0002939
23	0x3f8005e0	1.0001793
24	0x3f8032be	1.0015485
25	0x3f7f9139	0.9983097
26	0x3f80010e	1.0000322
27	0x3f8040e7	1.0019807
28	0x3f7ff56c	0.9998386
29	0x3f800eb8	1.0004492
30	0x3f7f241e	0.99664485
31	0x3f800caf	1.0003871
32	0x3f7fc139	0.9990421
33	0x3f7f364f	0.99692243
34	0x3f7f3d2b	0.9970271
35	0x3f80743f	1.0035475
36	0x3f804710	1.0021687
37	0x3f7f51f8	0.9973445
38	0x3f7f29ee	0.99673355
39	0x3f7f2cc2	0.9967767
40	0x3f7f471b	0.99717873
41	0x3f7f652b	0.99763745
42	0x3f800b78	1.00035
43	0x3f7fcab6	0.9991869
44	0x3f7fc693	0.99912375
45	0x3f7f3620	0.99691963
46	0x3f7f882d	0.9981716
47	0x3f809eb9	1.0048438
48	0x3f7e9bc0	0.99456406
49	0x3f801cf9	1.0008842
50	0x3f800357	1.0001019
51	0x3f802573	1.0011429
52	0x3f7f8b4f	0.99821943
53	0x3f7fb277	0.9988169
54	0x3f8055ed	1.0026222
55	0x3f803f0f	1.0019244
56	0x3f8070df	1.0034446
57	0x3f805f34	1.0029054
58	0x3f7fe778	0.9996257
59	0x3f7f72d4	0.9978459
60	0x3f7f75fe	0.99789417
61	0x3f803895	1.0017267
62	0x3f804f8c	1.0024276
63	0x3f80016e	1.0000436
64	0x3f7eeff9	0.9958492
65	0x3f802c19	1.0013458
66	0x3f800f4d	1.000467
67	0x3f7faf15	0.9987653
68	0x3f7feeea	0.9997393
69	0x3f800396	1.0001094
70	0x3f7eeb5a	0.9957787
71	0x3f7f3eb5	0.9970506
72	0x3f8026b7	1.0011815
73	0x3f804e03	1.0023807
74	0x3f8002c3	1.0000843
75	0x3f7f67f7	0.9976801
76	0x3f7fbc9b	0.99897164
77	0x3f7f9322	0.9983388
78	0x3f801021	1.0004922
79	0x3f800800	1.0002441
80	0x3f7f82b1	0.99808794
81	0x3f8003f5	1.0001208
82	0x3f804af0	1.0022869
83	0x3f801db2	1.0009062
84	0x3f7ff628	0.9998498
85	0x3f7ff967	0.9998993
86	0x3f806e7b	1.0033716
87	0x3f800937	1.0002812
88	0x3f800e8b	1.0004438
89	0x3f80086a	1.0002568
90	0x3f804472	1.0020888
91	0x3f8007d3	1.0002388
92	0x3f7efa04	0.99600244
93	0x3f8036e8	1.0016756
94	0x3f800383	1.0001072
95	0x3f7f7493	0.99787253
96	0x3f8008ef	1.0002726
97	0x3f800c01	1.0003663
98	0x3f805590	1.0026112
99	0x3f803d59	1.0018722
100	0x3f804d19	1.0023528
101	0x3f7ff5a6	0.99984205
102	0x3f8048c5	1.0022207
103	0x3f7f748f	0.9978723
104	0x3f800500	1.0001526
105	0x3f8012d8	1.0005751
106	0x3f7f828e	0.99808586
107	0x3f8007ad	1.0002342
108	0x3f7fac66	0.99872434
109	0x3f7ee51f	0.9956836
110	0x3f8034e0	1.0016136
111	0x3f7ff071	0.9997626
112	0x3f7f7e9c	0.99802566
113	0x3f7fcc9e	0.99921596
114	0x3f801084	1.000504
115	0x3f7ff129	0.99977356
116	0x3f7f9c00	0.9984741
117	0x3f801170	1.0005322
118	0x3f800536	1.000159
119	0x3f7ff95b	0.9998986
120	0x3f7ff021	0.9997578
121	0x3f7fd159	0.99928814
122	0x3f7fdb89	0.9994436
123	0x3f80529f	1.0025214
124	0x3f801d7a	1.0008996
125	0x3f7fea2d	0.999667
126	0x3f7fde78	0.99948835
127	0x3f7febf4	0.9996941
128	0x3f8018d2	1.0007575
129	0x3f7ee54c	0.9956863
130	0x3f7f5526	0.997393
131	0x3f8020ea	1.0010045
132	0x3f7fd334	0.99931645
133	0x3f807807	1.003663
134	0x3f7fab74	0.9987099
135	0x3f803d0c	1.001863
136	0x3f7fc330	0.9990721
137	0x3f807cd6	1.0038097
138	0x3f7f4711	0.99717814
139	0x3f7fc00a	0.99902403
140	0x3f80509b	1.0024599
141	0x3f7fd995	0.9994138
142	0x3f80b9ca	1.0056698
143	0x3f7ff79a	0.99987185
144	0x3f7f6357	0.99760956
145	0x3f802682	1.0011752
146	0x3f80951a	1.0045502
147	0x3f800b2d	1.000341
148	0x3f805c7e	1.0028226
149	0x3f800388	1.0001078
150	0x3f807561	1.0035821
151	0x3f7f9808	0.99841356
152	0x3f801a22	1.0007975
153	0x3f807049	1.0034267
154	0x3f7fbec5	0.99900466
155	0x3f7ef0cd	0.9958618
156	0x3f8041f5	1.0020128
157	0x3f7fffc8	0.99999666
158	0x3f80520e	1.0025041
159	0x3f7ff275	0.99979335
160	0x3f802068	1.000989
161	0x3f7fcc5f	0.9992122
162	0x3f8038ae	1.0017297
163	0x3f7ff84c	0.99988246
164	0x3f7f6b28	0.9977288
165	0x3f8014fd	1.0006405
166	0x3f7fd576	0.9993509
167	0x3f7f81ea	0.9980761
168	0x3f7faff2	0.99877846
169	0x3f7ed161	0.99538237
170	0x3f800aee	1.0003335
171	0x3f8001e1	1.0000573
172	0x3f8017d8	1.0007277
173	0x3f7fde63	0.9994871
174	0x3f80079d	1.0002323
175	0x3f80112f	1.0005244
176	0x3f7fe9f5	0.99966365
177	0x3f7fd8f1	0.999404
178	0x3f7fc562	0.9991056
179	0x3f8025ab	1.0011495
180	0x3f800920	1.0002785
181	0x3f7fff57	0.9999899
182	0x3f7fe2ac	0.9995525
183	0x3f800aac	1.0003257
184	0x3f801935	1.0007693
185	0x3f7fb09e	0.9987887
186	0x3f803968	1.0017519
187	0x3f7ff4d5	0.9998296
188	0x3f7ff5b6	0.999843
189	0x3f801007	1.0004891
190	0x3f80839f	1.0040168
191	0x3f7fc2b7	0.99906486
192	0x3f80c5d2	1.006037
193	0x3f7f90a2	0.9983007
194	0x3f801a15	1.000796
195	0x3f8094ea	1.0045445
196	0x3f7f8919	0.9981857
197	0x3f7ff20d	0.99978715
198	0x3f805116	1.0024745
199	0x3f801b3f	1.0008315
200	0x3f7ff5e9	0.99984604
201	0x3f7ff297	0.9997954
202	0x3f7ee756	0.9957174
203	0x3f805b46	1.0027854
204	0x3f80070c	1.000215
205	0x3f7fb323	0.99882716
206	0x3f80369d	1.0016667
207	0x3f7ff51b	0.99983376
208	0x3f7ff002	0.999756
209	0x3f801ed9	1.0009414
210	0x3f801dc8	1.0009089
211	0x3f801446	1.0006187
212	0x3f800758	1.0002241
213	0x3f80034d	1.0001007
214	0x3f801903	1.0007633
215	0x3f800ef5	1.0004565
216	0x3f7ffbf6	0.99993837
217	0x3f80ae9a	1.0053284
218	0x3f7f2785	0.99669677
219	0x3f800c17	1.000369
220	0x3f7fdcdc	0.9994638
221	0x3f7f72c3	0.9978449
222	0x3f807498	1.0035582
223	0x3f800493	1.0001396
224	0x3f7fe479	0.99957997
225	0x3f800e5e	1.0004385
226	0x3f7f6799	0.9976745
227	0x3f7fe31a	0.99955904
228	0x3f801a24	1.0007977
229	0x3f8092df	1.0044822
230	0x3f7ff232	0.99978936
231	0x3f7ffa62	0.9999143
232	0x3f7ff14e	0.99977577
233	0x3f7fbc93	0.99897116
234	0x3f808aef	1.0042399
235	0x3f80077b	1.0002283
236	0x3f7fd512	0.99934494
237	0x3f7fb3f3	0.99883956
238	0x3f7ff3cb	0.99981374
239	0x3f80557c	1.0026088
240	0x3f80ad21	1.0052835
241	0x3f7ee8ed	0.99574167
242	0x3f7e649f	0.99372286
243	0x3f80040d	1.0001236
244	0x3f7f6904	0.99769616
245	0x3f7f5f31	0.99754626
246	0x3f80b1d3	1.0054268
247	0x3f7f55ef	0.997405
248	0x3f7fba58	0.99893713
249	0x3f80024e	1.0000703
250	0x3f7fb030	0.99878216
251	0x3f80278c	1.0012069
252	0x3f807033	1.003424
253	0x3f7f5ce5	0.9975112
254	0x3f7f34aa	0.99689734
255	0x3f801038	1.000495

base.feature_norm.bias f4 [624]
0	0xba01f81a	-0.00049579295
1	0xb98fe167	-0.00027443023
2	0x3b9b20b4	0.004734123
3	0x3b04e566	0.0020278334
4	0x3b4b9e32	0.0031069634
5	0x394569c0	0.00018826779
6	0x38e25d06	0.00010793847
7	0x3a08c538	0.0005217376
8	0x389593e7	7.1324226e-05
9	0xbb207f7d	-0.0024490051
10	0x3b48642a	0.003057728
11	0xbb0e785e	-0.0021739225
12	0x39bec000	0.00036382675
13	0xbae50dfa	-0.0017475479
14	0x3b6e03c4	0.0036318162
15	0x3b33722f	0.002738129
16	0xbb3cb49f	-0.0028794182
17	0xba05b2f2	-0.00051002123
18	0x3a112a59	0.00055376213
19	0x3a6340f0	0.0008669039
20	0x3b0910ca	0.0020914548
21	0xb9a5b330	-0.00031604758
22	0x39a7e7d6	0.00032025453
23	0x3a23eead	0.0006253522
24	0xbab149bf	-0.0013526006
25	0x3ae6e2f1	0.0017615241
26	0xb7bb5aba	-2.2334385e-05
27	0xbb0144c0	-0.0019724816
28	0x393bd8d1	0.0001791448
29	0xb9e2eb90	-0.00043281587
30	0x3b4237c9	0.0029635301
31	0xb9c58ca1	-0.00037679545
32	0x3a617359	0.0008600257
33	0x3a8ba046	0.0010652624
34	0x3afd62a0	0.0019331761
35	0xbb658516	-0.0035021952
36	0xbb67ccc4	-0.0035369853
37	0x3a89a03a	0.0010500022
38	0xb9d2021f	-0.00040055902
39	0xbb532dcd	-0.0032223344
40	0xbab917c0	-0.0014121458
41	0x3adf6596	0.0017043825
42	0x3b056abe	0.0020357813
43	0x39f3abc2	0.0004647654
44	0x3b2468e7	0.002508694
45	0xbb4b0d3e	-0.0030983235
46	0x3b13ae8f	0.0022534465
47	0xbb952a5a	-0.004552168
48	0xbbb948ba	-0.0056544216
49	0xba6e3dbf	-0.00090881804
50	0xb8f31b41	-0.000115922194
51	0xba8143a5	-0.0009862079
52	0x3b04883b	0.0020222801
53	0xba9c8dd7	-0.0011944127
54	0xbab65281	-0.0013910086
55	0xbb04f00a	-0.0020284676
56	0xbb61471f	-0.0034374667
57	0xbb45cc80	-0.0030181706
58	0xb9519433	-0.00019987002
59	0x3b0afe21	0.0021208602
60	0x3b09f7e6	0.00210523
61	0xbae1d7f1	-0.0017230493
62	0xbb23fda1	-0.0025023
63	0x38d9d057	0.00010386173
64	0x3b86663c	0.0041015428
65	0xbad10b48	-0.0015948797
66	0xb9f0ecbe	-0.00045952754
67	0x3a934ff9	0.0011239044
68	0x39ab8d0d	0.00032720753
69	0xb9021aaf	-0.00012407707
70	0x3b899b08	0.0041993894
71	0x3a12510f	0.00055815367
72	0xba8b7a0d	-0.0010641232
73	0xbb24d30f	-0.0025150215
74	0x388ec6f2	6.808144e-05
75	0xbb16a28a	-0.0022985064
76	0xba8557e0	-0.0010173284
77	0xbad472cb	-0.0016208527
78	0x39f2d606	0.00046317297
79	0x3983aabe	0.0002511348
80	0xbaf7aa31	-0.0018895325
81	0x38d6420b	0.00010216617
82	0x3b16d62d	0.0023015842
83	0x3a724235	0.0009241433
84	0xb91cce44	-0.00014954159
85	0xb905b05e	-0.0001274957
86	0x3b60688b	0.0034242
87	0x39a390be	0.00031197624
88	0x39e72e5b	0.0004409429
89	0x39f32f61	0.00046383872
90	0x3aa1ba0a	0.0012338769
91	0xb98da1c0	-0.0002701413
92	0xbb835fd2	-0.0040092254
93	0x3adb8e7f	0.0016750841
94	0x38e0ceda	0.000107196814
95	0xbb036f52	-0.0020055366
96	0x398fea4a	0.00027449644
97	0x39c124d4	0.00036839268
98	0x3b2854ec	0.0025685383
99	0x398ef716	0.00027268444
100	0xbb12ef44	-0.0022420445
101	0xb91e5c8f	-0.00015102535
102	0x3b10a1ff	0.0022069213
103	0xbb0af347	-0.0021202134
104	0xb90966f9	-0.00013103698
105	0xba043e91	-0.00050447235
106	0x3afa2e82	0.0019087347
107	0xb993e981	-0.00028212
108	0x3ab6598e	0.0013912187
109	0x3b94bd8d	0.004539198
110	0x3ad44ff1	0.0016198141
111	0xb97673e5	-0.00023503562
112	0xbafa657c	-0.0019103731
113	0x3a83ed06	0.0010065145
114	0xba097ab0	-0.0005244417
115	0x3968b52a	0.00022192733
116	0x3ac6ce19	0.0015167623
117	0xba104754	-0.0005503793
118	0xb90efcec	-0.00013636396
119	0x389a2997	7.351039e-05
120	0x398cb3a1	0.00026836715
121	0x3a2e34cc	0.00066454406
122	0x3a198ace	0.00058571703
123	0xbb26e593	-0.0025466427
124	0xba6e39f5	-0.0009087616
125	0x38bf8eb1	9.134168e-05
126	0xb8ce134d	-9.8264405e-05
127	0xb9aa4e00	-0.0003248304
128	0x3abdbd1c	0.0014475915
129	0x3b8de92c	0.004330775
130	0x3b3089d2	0.0026937616
131	0xba75390c	-0.0009354509
132	0x3a32bea6	0.000681857
133	0xbb70cea9	-0.0036744273
134	0xb8c39cf8	-9.327562e-05
135	0xbaf66da1	-0.0018800983
136	0x3a775e0e	0.00094363175
137	0xb9c98602	-0.0003843755
138	0x3a9341ca	0.0011234817
139	0x3a807e65	0.0009803294
140	0xba85f6ff	-0.0010220705
141	0xb63d4ee8	-2.8209124e-06
142	0x3a1652cd	0.0005734384
143	0xb8f7c2fb	-0.00011814196
144	0xbb30dde4	-0.0026987726
145	0xbb5cb666	-0.0033678054
146	0xbb9336db	-0.0044926233
147	0x38a7b51a	7.996913e-05
148	0xbbabeb64	-0.0052465666
149	0x38d73585	0.00010261968
150	0xbaeb222f	-0.0017939265
151	0x3afd1f29	0.0019311655
152	0x3a5322fa	0.0008054223
153	0xba46cdc0	-0.000758376
154	0x3a7f0762	0.0009728578
155	0x3b87d542	0.0041452954
156	0xbb0aef59	-0.0021199791
157	0xb79e042b	-1.8837009e-05
158	0xba268d20	-0.0006353427
159	0x396ef35b	0.00022788106
160	0xba645481	-0.0008710102
161	0x3a3cf53c	0.00072081736
162	0xb98a7cfb	-0.0002641453
163	0xb91fe3ea	-0.00015248326
164	0x3b1193de	0.002221338
165	0xba28ec34	-0.00064438884
166	0xb8023d12	-3.105129e-05
167	0x3b1b0ee8	0.0023660008
168	0x3a154d00	0.0005695373
169	0x3b9b26b2	0.0047348375
170	0xba1a6e9b	-0.0005891115
171	0x391cc8fb	0.0001495219
172	0xba2418a4	-0.0006259775
173	0x399d6213	0.00030018445
174	0x395a56f2	0.0002082249
175	0x398eff32	0.00027274486
176	0x399f27d2	0.00030356512
177	0x3a189db0	0.0005821837
178	0x3a75d6a9	0.0009377995
179	0x3ab86a6d	0.0014069803
180	0x3997d664	0.00028960698
181	0xb74134cc	-1.1515989e-05
182	0xb9ebcd81	-0.00044975805
183	0x39ae2197	0.00033212893
184	0x3a40fcec	0.0007361907
185	0xba9cbb6c	-0.0011957712
186	0x3ae41583	0.001740143
187	0xb94476e1	-0.00018736302
188	0x3a5bf0b4	0.00083900546
189	0xb9e8b644	-0.00044386287
190	0x3b360868	0.0027776007
191	0x3a71cd75	0.0009224036
192	0xbb7122ff	-0.003679454
193	0xbad5381d	-0.0016267333
194	0x3a504795	0.0007945237
195	0x3b948d0c	0.0045334157
196	0xbaec35d9	-0.0018021419
197	0xb9688be8	-0.00022177363
198	0x3b211933	0.002458167
199	0x3a4f6bd1	0.0007912489
200	0xb92cbb00	-0.00016472861
201	0xb9533939	-0.00020143845
202	0xbb8c4f0b	-0.0042818836
203	0x3b38efc9	0.0028219095
204	0x3967da7f	0.00022111273
205	0xba96a0ed	-0.0011492051
206	0x3adc4c8a	0.0016807478
207	0xb934b964	-0.00017235201
208	0x3992242f	0.0002787425
209	0xba7b4ca5	-0.0009586311
210	0xba6a40bc	-0.0008936038
211	0xba16f79b	-0.0005758942
212	0xba0bbde2	-0.0005330724
213	0x38e13fa2	0.000107406886
214	0x3a489374	0.0007651367
215	0x39f903c1	0.00047495778
216	0xb846dbff	-4.7411766e-05
217	0x3b2593e7	0.0025265159
218	0x3a4e9c4d	0.0007881567
219	0xb9a00667	-0.00030522348
220	0x3a048c2e	0.0005056289
221	0x3b10bb42	0.002208427
222	0xbb651f30	-0.0034961216
223	0xb90138ef	-0.00012323608
224	0x39f701ee	0.0004711295
225	0xb9f2bb2d	-0.00046297294
226	0x3b1ac8cc	0.002361822
227	0x39ad076b	0.00033002658
228	0xba0b4b2f	-0.00053136324
229	0x3b69491c	0.0035596555
230	0xb957240e	-0.00020517429
231	0xba0bd32f	-0.0005333898
232	0x39cf6ca9	0.00039563075
233	0x3a3e181d	0.0007251518
234	0xbb8edfdf	-0.0043601836
235	0xb95d1e2e	-0.00021087445
236	0x3a3c2f72	0.0007178701
237	0x3a9aeb4e	0.0011819394
238	0x3831b101	4.2364936e-05
239	0xbb2a20a2	-0.0025959392
240	0xbba8868f	-0.0051429938
241	0x3b3f9114	0.002923076
242	0xb9d93dd3	-0.00041435528
243	0xb91ddaa7	-0.00015054141
244	0x3b167214	0.002295618
245	0x3a4286ba	0.00074205885
246	0x3abf00b7	0.0014572357
247	0xbad61863	-0.0016334172
248	0xb9039d9a	-0.00012551845
249	0x3934826e	0.00017214727
250	0x3a99b05c	0.0011725533
251	0xba33559d	-0.00068410655
252	0x3bbf77e0	0.0058431476
253	0xbab9e9f8	-0.0014184108
254	0x3ad199bb	0.001599125
255	0x39907491	0.0002755267

base.mlp.fc1.0.weight f4 [64, 624]
0	0xbd0bb075	-0.03410383
1	0xbd94a73f	-0.07258462
2	0x3dd038eb	0.10167106
3	0xbc87bd85	-0.016569862
4	0x3d7d8e76	0.06190344
5	0xbac17633	-0.0014759958
6	0x3d7e4e4e	0.062086396
7	0x3e06a467	0.13148652
8	0xbcab54eb	-0.020914515
9	0x3e3e2d8a	0.1857206
10	0x3da46604	0.080272704
11	0x3b4a69dd	0.0030885853
12	0x3d933efd	0.071897484
13	0xbcbd033b	-0.02307283
14	0x3d902641	0.07038546
15	0xbc940e03	-0.018073088
16	0x3c86fa61	0.016476812
17	0x3d8af056	0.06784122
18	0xbce680bb	-0.028137555
19	0x3d8b8c32	0.068138495
20	0x3d5b9707	0.053610828
21	0x3d12e4f8	0.035862893
22	0xbdb6beab	-0.08923086
23	0xbc14c36c	-0.009079795
24	0xbd9bb7bd	-0.07603405
25	0xbd8caab4	-0.068684965
26	0xba2f59b4	-0.0006689087
27	0x3c9c68eb	0.019092998
28	0xbc2e0216	-0.0106206145
29	0x3d871a28	0.06596786
30	0x3c8c47cb	0.017124077
31	0xbccc73e9	-0.024957614
32	0x3e0ba8a1	0.13638546
33	0x3d46c781	0.048530106
34	0x3daf17c3	0.08549454
35	0xbd76e435	-0.06027623
36	0xbd86e3b0	-0.06586397
37	0xbcb58e32	-0.02216253
38	0xbd0911b2	-0.03346414
39	0xbd55bb86	-0.05218079
40	0xbc980a1f	-0.018559514
41	0xba603fce	-0.00085544295
42	0x3cf83745	0.030299792
43	0xbc93e70e	-0.018054511
44	0xbd8a301b	-0.06747457
45	0x3ca9a5a8	0.020708874
46	0x3b82b4a1	0.003988818
47	0x3d592de7	0.05302229
48	0x3be83d3a	0.007087377
49	0x3cabd4a7	0.020975424
50	0x3d9d712e	0.07687603
51	0xbd8a06ee	-0.06739603
52	0xbd6bdde9	-0.057584677
53	0x3d9b6a2f	0.07588612
54	0x3cfb8c9f	0.030706702
55	0x3d821d23	0.06353214
56	0x3cdfe52e	0.027330961
57	0x3d89a1ed	0.06720338
58	0xbcaf7c04	-0.02142144
59	0x3cb27a3e	0.021786805
60	0xbe04e446	-0.12977704
61	0xbdd80deb	-0.1054953
62	0xbcffa005	-0.031204233
63	0xbcfb23b8	-0.03065668
64	0x3da0f613	0.07859435
65	0xbc0bd1fc	-0.008533951
66	0xbd217623	-0.039419305
67	0x3d998795	0.07496563
68	0x3c86d0f8	0.016457066
69	0xbd0705c3	-0.03296448
70	0xbc6016a9	-0.013677278
71	0x3ce1438b	0.027498027
72	0x3db10d90	0.08645165
73	0x3b6dba8f	0.0036274528
74	0xbd88aeeb	-0.06673988
75	0x3c53c2e9	0.012924888
76	0xbd86ff30	-0.06591642
77	0x3b880bc6	0.004151794
78	0xbd8508ec	-0.06495842
79	0xbd18d8b4	-0.03731604
80	0xbd19321b	-0.0374013
81	0xbd654495	-0.055973608
82	0x3dd7eb4a	0.10542925
83	0x3aa9d017	0.0012955692
84	0x3d1274d3	0.035755944
85	0x3d192a1e	0.03739368
86	0x3d2cfc0d	0.04223256
87	0x3e05f633	0.13082199
88	0x3c60f42b	0.013730089
89	0x3d929976	0.071581766
90	0x3a578c2d	0.0008222487
91	0x3d6e8312	0.058230467
92	0x3c4fc0c2	0.012680234
93	0xbd555a55	-0.0520881
94	0x3c94fddf	0.018187461
95	0xbdb131a2	-0.08652045
96	0x3c487805	0.012235646
97	0xbcc5a0fd	-0.024124617
98	0xbc1974b8	-0.009366207
99	0x3cc3b441	0.023889663
100	0x3d8c6f17	0.06857126
101	0x3d019889	0.03163961
102	0xbccba9d0	-0.024861246
103	0x3d45b5b9	0.048269007
104	0xbce1c9c6	-0.027562033
105	0xbdb258c1	-0.08708335
106	0xbc905742	-0.017619733
107	0xbd87a254	-0.066227585
108	0x3caecd42	0.021338109
109	0x3dae4b40	0.085104465
110	0x3b41af78	0.002955405
111	0xbd0ec87f	-0.034859177
112	0x3c174340	0.009232342
113	0xbd997f2e	-0.07494961
114	0x3d428af8	0.047495812
115	0xbd943a98	-0.07237738
116	0x3bdf84c8	0.0068212487
117	0x3cab6e8d	0.020926738
118	0xbd70ac26	-0.058757924
119	0x3ce813c6	0.028329741
120	0x3b4918de	0.0030684988
121	0xbe16ec4f	-0.14738582
122	0xbd04bfd4	-0.032409504
123	0x3c7e9d78	0.015540473
124	0x3e594b43	0.21220116
125	0x3dc2e783	0.095168136
126	0x3de3cf16	0.11123483
127	0xbdc3f58f	-0.09568321
128	0x3c9f6e7c	0.019461863
129	0x3d8f010f	0.06982624
130	0xbc5e0828	-0.013551749
131	0xbd00523f	-0.031328436
132	0xbd69f186	-0.0571151
133	0xbd3b9995	-0.045800764
134	0xbc6919df	-0.01422736
135	0x3d9f20a8	0.077699006
136	0xbd87d39b	-0.066321574
137	0x3b9ee174	0.0048486535
138	0xbde2cc5a	-0.11074133
139	0x3d746d3a	0.05967448
140	0x3dd7d2d8	0.10538262
141	0x3d261d98	0.040555567
142	0x3db625a7	0.088939
143	0xbd5e5c03	-0.054286968
144	0x3d8060b7	0.06268447
145	0xbc8a1b1b	-0.016858628
146	0xbd8def74	-0.06930438
147	0x3c499bfb	0.012305255
148	0x3c6a49c9	0.014299818
149	0xbd3aa796	-0.04556998
150	0xbdc31b03	-0.095266365
151	0x3d28b66a	0.04118959
152	0x3defc997	0.11708372
153	0x3ddb0332	0.10693969
154	0x3c597cfe	0.013274429
155	0xbcadbb9b	-0.021207621
156	0xbcbce11d	-0.023056561
157	0xbdd00299	-0.101567455
158	0xbd610248	-0.054933816
159	0xbcdf7e4c	-0.027281903
160	0x3d92dae4	0.07170656
161	0xbd450444	-0.04809977
162	0xbd10be2e	-0.03533762
163	0xbe675437	-0.22590719
164	0x3dd34dbe	0.103175625
165	0xbde7de03	-0.11321642
166	0x3cfdd09d	0.030983264
167	0xbdc4495a	-0.09584303
168	0x3bb9107d	0.0056477175
169	0xbd81bce8	-0.06334859
170	0xbd712345	-0.058871526
171	0x3c7ae9ba	0.015314514
172	0x3db53b2f	0.08849179
173	0xbd728c04	-0.05921556
174	0x3d498b1c	0.04920493
175	0x3d0818a8	0.03322664
176	0xbcd9e436	-0.026598077
177	0xbd911c83	-0.07085516
178	0xbd3a51a6	-0.045488022
179	0x3d007780	0.031363964
180	0xbd76e6f9	-0.060278866
181	0x3d2135bf	0.039357897
182	0x3ce10f9a	0.02747326
183	0x3d3e91f8	0.046525925
184	0xbd21606e	-0.039398603
185	0xbd414afe	-0.04719066
186	0xbd7d75cd	-0.06187992
187	0x3d78d640	0.0607512
188	0x3dadda1e	0.08488868
189	0x3d4d34f1	0.050099317
190	0xbd223e98	-0.039610475
191	0xbd7fac3f	-0.062420126
192	0x3d81dad1	0.06340564
193	0xbca1284a	-0.019672532
194	0xbd0084bb	-0.03137658
195	0x3ded2254	0.11578813
196	0x3dbeb7f7	0.09312432
197	0xbd70af42	-0.05876089
198	0xbb01196f	-0.0019698997
199	0xbd2c986d	-0.042137552
200	0xbc7afdd1	-0.015319304
201	0x3d36690d	0.044533778
202	0xbd73efd9	-0.05955491
203	0x3d0beda7	0.03416219
204	0xbb8cef1b	-0.0043009645
205	0x3d9292cb	0.07156905
206	0x3df23780	0.11826992
207	0x3db3e6b3	0.08784237
208	0x3c84a4bb	0.01619183
209	0xbb728875	-0.0037007604
210	0xbd381ddb	-0.044950347
211	0x3e3f7fa9	0.18701042
212	0x3dc9094d	0.09816227
213	0xbb9a34f9	-0.004706022
214	0x3d02471b	0.031806093
215	0xbd8d693f	-0.0690484
216	0x3cc3741b	0.023859074
217	0x3cde9751	0.027171763
218	0xbdf0b563	-0.11753347
219	0xbd5fa588	-0.054601222
220	0x3dc6959e	0.09696506
221	0x3ba24149	0.0049516303
222	0x3d8f83ea	0.070075825
223	0xbd3a84bb	-0.045536738
224	0x3be40495	0.006958554
225	0xbd3239bd	-0.043512095
226	0xbd4fafd4	-0.050704792
227	0x3dcebe23	0.100948595
228	0x3c592f2c	0.013255876
229	0xbb874afd	-0.0041288123
230	0xb916cb9d	-0.00014380967
231	0xbb9f0cfd	-0.0048538432
232	0xbc9db77c	-0.019252531
233	0xbc829a0b	-0.015942594
234	0xbdf4dc91	-0.11956132
235	0x3cf7fde9	0.030272441
236	0x3d3328be	0.043740027
237	0xbcffa35a	-0.031205822
238	0x3d86e7ae	0.06587158
239	0x3b9484e7	0.0045324448
240	0x3d77b4d3	0.06047518
241	0x3b530515	0.0032199074
242	0xbd596d89	-0.053082976
243	0xbc08072f	-0.008302494
244	0xbc3b0a4e	-0.011416031
245	0x3de97662	0.11399533
246	0xbc0481d7	-0.008087597
247	0x3c563af2	0.013075577
248	0xbd2f4f75	-0.042800386
249	0x3d8bcc14	0.06826034
250	0x3d42d4cd	0.047566224
251	0xbdb104f0	-0.0864352
252	0x3ce58af7	0.028020365
253	0x3c265028	0.010150947
254	0x3cf4c98d	0.029881263
255	0xba80c1bb	-0.0009823361

base.mlp.fc1.0.bias f4 [64]
0	0x39f37162	0.0004643305
1	0xbb06376f	-0.0020479818
2	0x3a85af97	0.0010199425
3	0x3b3572f0	0.0027686916
4	0x3a033f98	0.00050067296
5	0x3af686f7	0.0018808533
6	0x3a9ac936	0.0011809233
7	0xba3d2e4a	-0.00072166754
8	0xb84337cf	-4.65436e-05
9	0xba384203	-0.00070288795
10	0x3a9ed14c	0.0012116819
11	0x3a786235	0.0009475083
12	0x39cc1d54	0.00038931763
13	0x37698a55	1.392009e-05
14	0xba9ca6e9	-0.0011951599
15	0xbaf81bcd	-0.0018929184
16	0x39b06013	0.00033640917
17	0xbac7f362	-0.0015255029
18	0xbb23c52f	-0.0024989357
19	0xba91e0a9	-0.0011129576
20	0xb9555138	-0.0002034352
21	0x3a31d168	0.0006783218
22	0xba80363c	-0.0009781788
23	0x3b55b0bc	0.0032606563
24	0xbb21abac	-0.0024668975
25	0xbb4cbc93	-0.0031240329
26	0x3b13533b	0.002248003
27	0xbb97fef0	-0.004638545
28	0xbaaf1106	-0.0013356514
29	0x3a81beae	0.0009898746
30	0xb9c9a05e	-0.0003845719
31	0x3b662fa6	0.0035123616
32	0xbabb753a	-0.0014301904
33	0x3a43245c	0.00074440776
34	0xba288c2c	-0.00064295786
35	0x3ab55fc0	0.001383774
36	0x3a50115c	0.0007937157
37	0xbb712e22	-0.003680118
38	0xba5172d8	-0.00079898303
39	0x3ade252c	0.0016948334
40	0x39d3761a	0.0004033305
41	0x3b288e1c	0.002571947
42	0x3b5ba14f	0.0033512895
43	0x39eb6b03	0.00044902423
44	0xba973316	-0.001153561
45	0xbb35f89f	-0.0027766598
46	0xbb075039	-0.0020647182
47	0x3a543c47	0.000809614
48	0x3b0aca35	0.0021177654
49	0x387250f9	5.7772708e-05
50	0x3a173dda	0.00057694095
51	0x3a3e3507	0.00072558265
52	0xb9915dc2	-0.0002772641
53	0xba0a40c5	-0.00052739336
54	0xbb356226	-0.002767691
55	0xbb453e5a	-0.003009698
56	0xb9f0cd0f	-0.00045929148
57	0xbb368ec3	-0.0027856089
58	0x3a6bfd10	0.0009002248
59	0x39883588	0.00025979825
60	0x3b2d83b0	0.0026476197
61	0x3a74ca35	0.00093379925
62	0xbac3faee	-0.0014952102
63	0x3a5f7b0a	0.0008525109

base.mlp.fc1.2.weight f4 [64]
0	0x3f7fd4aa	0.99933875
1	0x3f802a37	1.0012883
2	0x3f7fc384	0.9990771
3	0x3f800d9b	1.0004152
4	0x3f7fe818	0.9996352
5	0x3f8004ce	1.0001466
6	0x3f80426d	1.0020272
7	0x3f7fe367	0.99956363
8	0x3f7e9d1c	0.9945848
9	0x3f7f05cd	0.99618226
10	0x3f8010c4	1.0005116
11	0x3f803e7b	1.0019068
12	0x3f7fd2f3	0.9993126
13	0x3f7ffc43	0.99994296
14	0x3f7f6513	0.997636
15	0x3f807b4c	1.0037627
16	0x3f806785	1.0031592
17	0x3f7fdef0	0.9994955
18	0x3f800302	1.0000918
19	0x3f7f50e4	0.99732804
20	0x3f7ff7bc	0.9998739
21	0x3f7f786f	0.9979314
22	0x3f800572	1.0001662
23	0x3f8084ab	1.0040487
24	0x3f7ffcb2	0.9999496
25	0x3f7fb929	0.99891907
26	0x3f805e35	1.002875
27	0x3f7fcf13	0.99925345
28	0x3f7f55fb	0.9974057
29	0x3f7f4613	0.997163
30	0x3f801080	1.0005035
31	0x3f807f20	1.0038795
32	0x3f80015d	1.0000416
33	0x3f7fe09a	0.9995209
34	0x3f7f1f08	0.99656725
35	0x3f801211	1.0005513
36	0x3f802e3a	1.0014107
37	0x3f802d6c	1.0013862
38	0x3f7fc456	0.9990896
39	0x3f800c24	1.0003705
40	0x3f8026f8	1.0011892
41	0x3f7ffddd	0.9999674
42	0x3f7ffbf7	0.9999384
43	0x3f802810	1.0012226
44	0x3f808956	1.0041912
45	0x3f7f9e04	0.9985049
46	0x3f7fdeb2	0.9994918
47	0x3f7fe541	0.9995919
48	0x3f800b5b	1.0003465
49	0x3f7ff5e7	0.9998459
50	0x3f7fe994	0.99965787
51	0x3f802afc	1.0013118
52	0x3f7ff79b	0.9998719
53	0x3f8064c5	1.0030752
54	0x3f7ff020	0.99975777
55	0x3f7fde56	0.9994863
56	0x3f80339e	1.0015752
57	0x3f7f5688	0.9974141
58	0x3f803f5f	1.0019339
59	0x3f804a79	1.0022727
60	0x3f7f2988	0.99672747
61	0x3f7ffa45	0.99991256
62	0x3f7f2641	0.99667746
63	0x3f7fcbc2	0.99920285

base.mlp.fc1.2.bias f4 [64]
0	0xba2b8e4e	-0.00065443374
1	0xbadd578d	-0.0016887054
2	0xba100774	-0.00054942747
3	0x3a2a0881	0.00064862525
4	0xb991336b	-0.00027694865
5	0x392c1859	0.00016412268
6	0xba39e8c6	-0.0007091876
7	0xb9888c7f	-0.0002604462
8	0x39115252	0.00013858944
9	0x3b62374e	0.0034517827
10	0x3a85177e	0.0010154096
11	0xb983ec83	-0.00025162482
12	0x39f9597d	0.00047559655
13	0x373a9159	1.1120305e-05
14	0x3b1942c5	0.0023385745
15	0xbb6e20f7	-0.0036335567
16	0x3b52062f	0.0032047143
17	0xb9f6e799	-0.0004709333
18	0xb94042b7	-0.000183354
19	0x3b199cd8	0.0023439433
20	0xb949ab32	-0.00019232629
21	0xba68aadf	-0.00088755594
22	0xb963b03a	-0.00021714056
23	0x3b852424	0.004063146
24	0x384a4f6f	4.823453e-05
25	0xbb37905f	-0.0028009636
26	0x3b5302c6	0.0032197698
27	0xbb71ecb0	-0.0036914758
28	0x3aecb3a3	0.0018058907
29	0x3b3733b9	0.0027954413
30	0xb9df3880	-0.0004257597
31	0x3b800017	0.0039062607
32	0xb9ee3736	-0.00045436033
33	0xb9cf2834	-0.0003951207
34	0xba24a011	-0.0006279955
35	0x39534e55	0.00020151709
36	0x3abc6afc	0.0014375146
37	0xbaaf571e	-0.0013377403
38	0x3a262ff3	0.00063395425
39	0x39a9bda2	0.0003237548
40	0x3ac053f5	0.0014673459
41	0xb82443da	-3.916384e-05
42	0x393e5b25	0.00018153766
43	0x3a66a525	0.0008798412
44	0xbb6c63f0	-0.003607031
45	0xbb203e5a	-0.0024451227
46	0x39d01a15	0.00039692284
47	0xb9c447db	-0.0003743757
48	0x39d17209	0.0003994855
49	0xb8d9b065	-0.000103802224
50	0xb9a0b0c6	-0.00030649285
51	0x3a99e64d	0.0011741609
52	0xb8b50419	-8.631516e-05
53	0xbac38bcd	-0.0014918983
54	0x395427c0	0.00020232704
55	0xb94cd5a5	-0.00019534545
56	0xba5be895	-0.00083888444
57	0x3b262154	0.0025349455
58	0x3b0296ac	0.0019926233
59	0xba33562d	-0.00068411493
60	0x3b58a9a9	0.003306011
61	0xb8e56d5c	-0.00010939941
62	0xba06d3c1	-0.0005143248
63	0x3988f98c	0.00026125868

base.mlp.fc_h.0.weight f4 [64, 64]
0	0x3e082c0d	0.13298054
1	0xbe139a6d	-0.14414378
2	0x3efed38a	0.49770766
3	0x3dbb81c2	0.09155609
4	0xbc18130a	-0.009281883
5	0x3e2e78ae	0.17038223
6	0xbe2be46b	-0.16786353
7	0x3ece6ca7	0.4031727
8	0xbc4485de	-0.011994807
9	0x3e8b8aa9	0.27254227
10	0x3cc06f3a	0.023490537
11	0xbea05f9e	-0.3132295
12	0xbe33f2ea	-0.17573133
13	0x3ecb934c	0.39760816
14	0x3d898a2e	0.06715809
15	0xbe85296f	-0.26008174
16	0xbe0d47cc	-0.1379692
17	0x3e0dd4f3	0.13850765
18	0xbe067223	-0.13129477
19	0xbe498cd3	-0.19682626
20	0xbeace625	-0.33769336
21	0x3ddcd9f6	0.1078376
22	0xbd00825d	-0.031374324
23	0x3ecacda9	0.3961003
24	0x3e467515	0.19380601
25	0xbd40789e	-0.04699003
26	0xbe95fef2	-0.2929607
27	0x3e41c93d	0.18924423
28	0xbd882c47	-0.0664907
29	0xbdd24c9b	-0.102685176
30	0xbdb58292	-0.08862795
31	0x3d93b0b8	0.07211441
32	0x3e393ed5	0.18090375
33	0x3de0b4d8	0.10971993
34	0xbdbaf9a1	-0.09129644
35	0xbdfd1db3	-0.1235918
36	0xbd0f4fff	-0.0349884
37	0x3e19b312	0.15009716
38	0x3e8d1076	0.2755162
39	0xbc93a117	-0.01802115
40	0xbd90790e	-0.07054339
41	0x3e3518f1	0.17685296
42	0x3eeff09a	0.46863252
43	0x3d0913aa	0.03346602
44	0xbdd7233f	-0.105047695
45	0x3d0f34fb	0.034962635
46	0x3dd0303e	0.101654515
47	0x3e8dc522	0.27689463
48	0xbd0527dd	-0.03250872
49	0xbebe105c	-0.37121856
50	0xbd5c947a	-0.053852536
51	0xbe57ecb6	-0.21086392
52	0x3e9a450a	0.30130798
53	0xbdae9936	-0.085253164
54	0xbe4d602a	-0.20056215
55	0x3d89fd04	0.06737712
56	0x3d3d9544	0.04628493
57	0xbe96d599	-0.29459837
58	0x3e897014	0.2684332
59	0xbe0e88db	-0.13919394
60	0xbee49dd0	-0.4465165
61	0x3cec39bb	0.028836122
62	0x3d167297	0.036730375
63	0xbe266e54	-0.16253024
64	0xbda899d0	-0.082324624
65	0x3ea070fe	0.31336206
66	0xbc44b837	-0.012006811
67	0x3d797194	0.060899332
68	0x3ec51c51	0.38498166
69	0xbe3c0d99	-0.18364562
70	0xbe0052ab	-0.12531535
71	0x3cb3b49a	0.021936703
72	0xbce3cb62	-0.027806941
73	0xbee6c178	-0.4506948
74	0xbce064e5	-0.02739186
75	0x3d52b7e4	0.051444903
76	0xbf0c5994	-0.54824185
77	0xbd8b8ed1	-0.068143494
78	0xbdb58187	-0.08862596
79	0xba8a10f2	-0.0010533615
80	0x3e6c1234	0.23053819
81	0xbe57cb9d	-0.21073766
82	0xbd9723ce	-0.07379876
83	0xbe3e62b7	-0.18592344
84	0xbedb5408	-0.42837548
85	0x3e74f778	0.23922527
86	0xbe595611	-0.21224238
87	0x3e950dab	0.2911199
88	0xbdc703bd	-0.0971751
89	0x3e9aba91	0.30220464
90	0xbdf315fc	-0.118694276
91	0x3c4e7898	0.012601994
92	0xbdb185b7	-0.08668082
93	0xbe1d2c1f	-0.15348862
94	0x3de68e53	0.11257615
95	0xbdeff62d	-0.11716876
96	0x3e09bc87	0.13450824
97	0x3e469ad3	0.19394998
98	0x3eaccce5	0.33750072
99	0xbd9b4cec	-0.07583031
100	0xbd65103f	-0.055923697
101	0x3ea02ed3	0.31285724
102	0xbec7a1a9	-0.38990524
103	0x3d2a92dc	0.041643962
104	0x3d963918	0.073351085
105	0xbe2fc90a	-0.17166534
106	0xbdc52128	-0.09625465
107	0x3c4265a1	0.0118650505
108	0xbdd3d624	-0.103435785
109	0x3df6e10c	0.12054643
110	0xbe89c60c	-0.2690891
111	0x3ebc7821	0.368104
112	0xbe72d39b	-0.23713534
113	0x3e22a13a	0.15881816
114	0xbe7b4402	-0.24537662
115	0xbe49f7c8	-0.19723427
116	0x3c230f96	0.009952446
117	0xbcda6a1b	-0.026661923
118	0x3e9f301b	0.3109139
119	0xbe754abb	-0.23954289
120	0xbe083bfb	-0.1330413
121	0x3da7e2a5	0.08197526
122	0xbd7c85b7	-0.061650958
123	0xbeb8a025	-0.3605968
124	0x3e20f4b5	0.15718348
125	0x3e3b1d37	0.18272863
126	0x3dc64460	0.0968101
127	0xbd0da9e1	-0.034585837
128	0x3b00ad46	0.001963453
129	0xbe303fb7	-0.17211805
130	0xbdab2b45	-0.083578624
131	0x3d00b145	0.031419057
132	0xbe353792	-0.1769698
133	0x3cdd8560	0.027041137
134	0xbdc51b72	-0.096243754
135	0x3e670ef6	0.22564301
136	0xbdfd9f09	-0.12383849
137	0x3e92cc23	0.2867137
138	0x3e412b78	0.18864238
139	0x3e814c3d	0.25253478
140	0x3c84e8ce	0.016224291
141	0xbe1bc06d	-0.15210123
142	0xbec3d6a5	-0.38249698
143	0x3caefe34	0.021361448
144	0xbd2a077c	-0.041511044
145	0x3caa701b	0.02080541
146	0x3e373809	0.1789247
147	0xbef83796	-0.4847991
148	0xbde8d3fc	-0.11368558
149	0x3dd5b7e6	0.104354665
150	0x3ee7a5db	0.45243725
151	0x3d9546a9	0.07288868
152	0xbe30af5a	-0.17254391
153	0xbed2bf65	-0.41161647
154	0x3e3914c1	0.18074323
155	0x3d677d1e	0.056515805
156	0x3e6aefeb	0.22943084
157	0x3d1f6cd1	0.038922135
158	0x3e3921b7	0.18079267
159	0x3e56f275	0.20990928
160	0x3d3f1b10	0.04665667
161	0xbe0bcd5a	-0.13652554
162	0x3eabe727	0.33574793
163	0xbea9f0bb	-0.33191475
164	0xbe239c4f	-0.15977596
165	0xbe1d6cc2	-0.15373519
166	0xbc41945a	-0.011815155
167	0x3dd31a3f	0.103077404
168	0xbddfde24	-0.10931042
169	0xbdacc356	-0.08435695
170	0x3e4115fb	0.18856041
171	0xbd25ae10	-0.040449202
172	0x3e6382cc	0.22217864
173	0x3e66f866	0.22555694
174	0x3e8f7364	0.28017724
175	0x3de930a7	0.11386233
176	0xbead6c6e	-0.33871788
177	0xbe210407	-0.15724193
178	0x3d80958b	0.06278523
179	0x3d10f31c	0.035388097
180	0xbef5e7d1	-0.48028424
181	0xbd474510	-0.048649848
182	0x3e4623ec	0.1934964
183	0xbc19b6dd	-0.009381977
184	0xbee5a953	-0.44855747
185	0x3ddebc3a	0.10875745
186	0x3e2f4062	0.17114404
187	0x3d524d88	0.05134347
188	0x3e0e31dd	0.13886209
189	0x3ec6fd4e	0.3886513
190	0x3e2ee175	0.17078193
191	0x3ccd6ff3	0.025077796
192	0x3d6c95cb	0.05776004
193	0x3e3e96cd	0.18612213
194	0xbe41b828	-0.18917906
195	0xbbb438aa	-0.005499919
196	0x3e10bb1c	0.14133877
197	0x3e7416cd	0.23836823
198	0xbc90d35a	-0.017678905
199	0x3cc646ac	0.02420362
200	0x3e19d7c4	0.15023714
201	0x3e0d8b15	0.13822587
202	0x3decc1e0	0.11560416
203	0x3c1ff298	0.009762429
204	0x3e1abbe6	0.1511074
205	0xbe574556	-0.21022543
206	0x3d78bfd1	0.060729805
207	0x3d9046a9	0.07044727
208	0xbd73b554	-0.0594991
209	0x3d1ce9ac	0.038308784
210	0x3d301c11	0.042995516
211	0x3dba2d5e	0.09090684
212	0x3e5d09fa	0.21585837
213	0x3e9016fd	0.2814254
214	0x3d5bbb5a	0.05364547
215	0xbd7e4b34	-0.062083438
216	0xbe9cee29	-0.30650452
217	0xbe85e6b4	-0.26152575
218	0xbeecda38	-0.46260238
219	0x3da75115	0.08169762
220	0xbc929377	-0.017892582
221	0x3f0897b8	0.53356504
222	0xbe0360c1	-0.12829877
223	0xbd756888	-0.059914142
224	0x3dc1d5d1	0.0946461
225	0x3c9d4dae	0.01920208
226	0x3d824a47	0.063618235
227	0x3e141a43	0.14463143
228	0x3d9303fd	0.07178495
229	0xbda3819a	-0.07983704
230	0xbe144b6f	-0.144819
231	0x3d882a21	0.066486605
232	0x3e928758	0.28618884
233	0x3e71b4e6	0.23604164
234	0x3eb49f7b	0.35277924
235	0xbddfd2a3	-0.10928848
236	0xbd9b415f	-0.07580828
237	0xbe152646	-0.14565381
238	0xbef571ad	-0.4793829
239	0xbe0a5156	-0.1350759
240	0xbd9edea4	-0.07757309
241	0x3db2fc8a	0.08739574
242	0xbe0406d5	-0.12893231
243	0xbea031e2	-0.31288058
244	0x3e8f796a	0.2802232
245	0xbecea4f9	-0.4036024
246	0x3e2307c6	0.15920934
247	0xbec6e3c1	-0.38845637
248	0xbeced7d7	-0.40399048
249	0xbe507b73	-0.20359592
250	0x3ced7e6c	0.028990947
251	0x3eae28b4	0.3401543
252	0xbdf62ec7	-0.12020641
253	0x3e598a1a	0.21244088
254	0xbe9de09b	-0.30835423
255	0x3e089703	0.13338856

base.mlp.fc_h.0.bias f4 [64]
0	0x00000000	0.0
1	0x00000000	0.0
2	0x00000000	0.0
3	0x00000000	0.0
4	0x00000000	0.0
5	0x00000000	0.0
6	0x00000000	0.0
7	0x00000000	0.0
8	0x00000000	0.0
9	0x00000000	0.0
10	0x00000000	0.0
11	0x00000000	0.0
12	0x00000000	0.0
13	0x00000000	0.0
14	0x00000000	0.0
15	0x00000000	0.0
16	0x00000000	0.0
17	0x00000000	0.0
18	0x00000000	0.0
19	0x00000000	0.0
20	0x00000000	0.0
21	0x00000000	0.0
22	0x00000000	0.0
23	0x00000000	0.0
24	0x00000000	0.0
25	0x00000000	0.0
26	0x00000000	0.0
27	0x00000000	0.0
28	0x00000000	0.0
29	0x00000000	0.0
30	0x00000000	0.0
31	0x00000000	0.0
32	0x00000000	0.0
33	0x00000000	0.0
34	0x00000000	0.0
35	0x00000000	0.0
36	0x00000000	0.0
37	0x00000000	0.0
38	0x00000000	0.0
39	0x00000000	0.0
40	0x00000000	0.0
41	0x00000000	0.0
42	0x00000000	0.0
43	0x00000000	0.0
44	0x00000000	0.0
45	0x00000000	0.0
46	0x00000000	0.0
47	0x00000000	0.0
48	0x00000000	0.0
49	0x00000000	0.0
50	0x00000000	0.0
51	0x00000000	0.0
52	0x00000000	0.0
53	0x00000000	0.0
54	0x00000000	0.0
55	0x00000000	0.0
56	0x00000000	0.0
57	0x00000000	0.0
58	0x00000000	0.0
59	0x00000000	0.0
60	0x00000000	0.0
61	0x00000000	0.0
62	0x00000000	0.0
63	0x00000000	0.0

base.mlp.fc_h.2.weight f4 [64]
0	0x3f800000	1.0
1	0x3f800000	1.0
2	0x3f800000	1.0
3	0x3f800000	1.0
4	0x3f800000	1.0
5	0x3f800000	1.0
6	0x3f800000	1.0
7	0x3f800000	1.0
8	0x3f800000	1.0
9	0x3f800000	1.0
10	0x3f800000	1.0
11	0x3f800000	1.0
12	0x3f800000	1.0
13	0x3f800000	1.0
14	0x3f800000	1.0
15	0x3f800000	1.0
16	0x3f800000	1.0
17	0x3f800000	1.0
18	0x3f800000	1.0
19	0x3f800000	1.0
20	0x3f800000	1.0
21	0x3f800000	1.0
22	0x3f800000	1.0
23	0x3f800000	1.0
24	0x3f800000	1.0
25	0x3f800000	1.0
26	0x3f800000	1.0
27	0x3f800000	1.0
28	0x3f800000	1.0
29	0x3f800000	1.0
30	0x3f800000	1.0
31	0x3f800000	1.0
32	0x3f800000	1.0
33	0x3f800000	1.0
34	0x3f800000	1.0
35	0x3f800000	1.0
36	0x3f800000	1.0
37	0x3f800000	1.0
38	0x3f800000	1.0
39	0x3f800000	1.0
40	0x3f800000	1.0
41	0x3f800000	1.0
42	0x3f800000	1.0
43	0x3f800000	1.0
44	0x3f800000	1.0
45	0x3f800000	1.0
46	0x3f800000	1.0
47	0x3f800000	1.0
48	0x3f800000	1.0
49	0x3f800000	1.0
50	0x3f800000	1.0
51	0x3f800000	1.0
52	0x3f800000	1.0
53	0x3f800000	1.0
54	0x3f800000	1.0
55	0x3f800000	1.0
56	0x3f800000	1.0
57	0x3f800000	1.0
58	0x3f800000	1.0
59	0x3f800000	1.0
60	0x3f800000	1.0
61	0x3f800000	1.0
62	0x3f800000	1.0
63	0x3f800000	1.0

base.mlp.fc_h.2.bias f4 [64]
0	0x00000000	0.0
1	0x00000000	0.0
2	0x00000000	0.0
3	0x00000000	0.0
4	0x00000000	0.0
5	0x00000000	0.0
6	0x00000000	0.0
7	0x00000000	0.0
8	0x00000000	0.0
9	0x00000000	0.0
10	0x00000000	0.0
11	0x00000000	0.0
12	0x00000000	0.0
13	0x00000000	0.0
14	0x00000000	0.0
15	0x00000000	0.0
16	0x00000000	0.0
17	0x00000000	0.0
18	0x00000000	0.0
19	0x00000000	0.0
20	0x00000000	0.0
21	0x00000000	0.0
22	0x00000000	0.0
23	0x00000000	0.0
24	0x00000000	0.0
25	0x00000000	0.0
26	0x00000000	0.0
27	0x00000000	0.0
28	0x00000000	0.0
29	0x00000000	0.0
30	0x00000000	0.0
31	0x00000000	0.0
32	0x00000000	0.0
33	0x00000000	0.0
34	0x00000000	0.0
35	0x00000000	0.0
36	0x00000000	0.0
37	0x00000000	0.0
38	0x00000000	0.0
39	0x00000000	0.0
40	0x00000000	0.0
41	0x00000000	0.0
42	0x00000000	0.0
43	0x00000000	0.0
44	0x00000000	0.0
45	0x00000000	0.0
46	0x00000000	0.0
47	0x00000000	0.0
48	0x00000000	0.0
49	0x00000000	0.0
50	0x00000000	0.0
51	0x00000000	0.0
52	0x00000000	0.0
53	0x00000000	0.0
54	0x00000000	0.0
55	0x00000000	0.0
56	0x00000000	0.0
57	0x00000000	0.0
58	0x00000000	0.0
59	0x00000000	0.0
60	0x00000000	0.0
61	0x00000000	0.0
62	0x00000000	0.0
63	0x00000000	0.0

base.mlp.fc2.0.0.weight f4 [64, 64]
0	0x3e091762	0.13387826
1	0xbe139446	-0.1441203
2	0x3efef8cc	0.49799192
3	0x3dbda3d8	0.09259766
4	0xbc0b1079	-0.008487814
5	0x3e2f36af	0.17110704
6	0xbe2de006	-0.1697999
7	0x3ecec61e	0.40385526
8	0xbc1239f9	-0.008924955
9	0x3e8b372f	0.2719054
10	0x3cbfc875	0.023411015
11	0xbea13cf5	-0.3149182
12	0xbe342b68	-0.17594683
13	0x3ecb1ae4	0.39668953
14	0x3d87c2a1	0.066289194
15	0xbe859e2b	-0.26097235
16	0xbe0cff66	-0.13769302
17	0x3e0ec19a	0.1394104
18	0xbe07654a	-0.13222232
19	0xbe497ef1	-0.1967733
20	0xbead4884	-0.33844388
21	0x3dde237d	0.108466126
22	0xbd045e3c	-0.03231643
23	0x3ecb4bed	0.39706364
24	0x3e459180	0.19293785
25	0xbd4b3541	-0.049611334
26	0xbe95e0c0	-0.29273033
27	0x3e4185fc	0.18898767
28	0xbd856c4b	-0.06514796
29	0xbdd41981	-0.10356427
30	0xbdb7990e	-0.0896474
31	0x3d95a977	0.073077135
32	0x3e3865c9	0.18007578
33	0x3de242da	0.11047907
34	0xbdbb47ab	-0.09144529
35	0xbdffd162	-0.124911085
36	0xbd0bf3f0	-0.034168184
37	0x3e18ca26	0.14920864
38	0x3e8c8ba8	0.274503
39	0xbc8c4124	-0.017120905
40	0xbd8f8b79	-0.07009024
41	0x3e35f3f5	0.17768843
42	0x3ef078f6	0.46967286
43	0x3d145460	0.03621328
44	0xbdda90a0	-0.10672116
45	0x3d061bf0	0.032741487
46	0x3dce4db6	0.10073416
47	0x3e8e3a28	0.27778745
48	0xbd019e57	-0.031645145
49	0xbebd9afb	-0.37032303
50	0xbd5a2e5d	-0.05326687
51	0xbe56e14f	-0.20984386
52	0x3e9ab26b	0.30214247
53	0xbdae2cf0	-0.08504665
54	0xbe4e4c99	-0.20146407
55	0x3d8775c1	0.06614257
56	0x3d3b1cbd	0.045681704
57	0xbe973d5b	-0.29538998
58	0x3e899009	0.26867703
59	0xbe0f5083	-0.13995557
60	0xbee50b26	-0.44735068
61	0x3cf315bf	0.029673455
62	0x3d20cf97	0.039260473
63	0xbe24e9e3	-0.16104846
64	0xbdad7b5d	-0.08470795
65	0x3ea23554	0.3168131
66	0xbc68a311	-0.014199034
67	0x3d6fa063	0.058502566
68	0x3ec41dc0	0.38303947
69	0xbe3e801f	-0.18603562
70	0xbdf802dc	-0.121099204
71	0x3ca20b8b	0.019780895
72	0xbd0a6298	-0.033785433
73	0xbee5b7a0	-0.44866657
74	0xbcc49d30	-0.024000734
75	0x3d60b903	0.05486394
76	0xbf0d472a	-0.5518671
77	0xbd86be03	-0.065792106
78	0xbdb08935	-0.0861992
79	0x3abc3291	0.0014358332
80	0x3e69b4b9	0.22822846
81	0xbe5a41f3	-0.2131422
82	0xbd9213bf	-0.071326725
83	0xbe3c73ff	-0.18403624
84	0xbedad290	-0.4273877
85	0x3e729e95	0.23693307
86	0xbe56c1fc	-0.20972437
87	0x3e93cf6a	0.28869182
88	0xbdc24558	-0.094858825
89	0x3e9c5c9f	0.30539414
90	0xbdf1977b	-0.11796471
91	0x3c52a5de	0.012856929
92	0xbdad2e70	-0.08456123
93	0xbe1a9a0f	-0.15097831
94	0x3dea84cc	0.1145111
95	0xbdf4e994	-0.11958614
96	0x3e0c6661	0.1371093
97	0x3e4445c3	0.19167237
98	0x3eae865d	0.34086886
99	0xbd9ad45a	-0.07560034
100	0xbd6ef735	-0.058341224
101	0x3ea17049	0.3153098
102	0xbec657a2	-0.38738734
103	0x3d20aba0	0.039226174
104	0x3d929dae	0.07158981
105	0xbe323f5f	-0.17406987
106	0xbdca2ec3	-0.098722
107	0x3c322967	0.010874129
108	0xbdcee918	-0.10103053
109	0x3dfcaedd	0.1233804
110	0xbe887d1c	-0.2665795
111	0x3ebb3b96	0.36568898
112	0xbe751e2c	-0.23937291
113	0x3e2022fc	0.15638345
114	0xbe7dc66c	-0.24782723
115	0xbe4c8da8	-0.19975913
116	0x3bf5854d	0.0074926973
117	0xbcc78f13	-0.024360215
118	0x3ea072eb	0.31337675
119	0xbe72c81a	-0.23709145
120	0xbe06fb66	-0.13181838
121	0x3dacb82d	0.08433566
122	0xbd839ffd	-0.06427
123	0xbeb8413f	-0.3598728
124	0x3e236efd	0.15960307
125	0x3e38b29a	0.18036881
126	0x3dc85671	0.097821124
127	0xbd15b3ca	-0.036548413
128	0x3adf71f9	0.0017047516
129	0xbe31316f	-0.17304014
130	0xbdacb2ea	-0.08432563
131	0x3d0048e1	0.031319503
132	0xbe35a355	-0.17738087
133	0x3cdaebb9	0.02672373
134	0xbdc678bd	-0.09690998
135	0x3e668f11	0.22515513
136	0xbdf3aa2a	-0.118976906
137	0x3e930bca	0.28719932
138	0x3e419562	0.18904641
139	0x3e81222b	0.2522138
140	0x3c895d2c	0.01676806
141	0xbe1b87eb	-0.15188567
142	0xbec3b47c	-0.38223636
143	0x3cb129c9	0.02162637
144	0xbd2b1da0	-0.0417763
145	0x3ca8a7d1	0.020587834
146	0x3e3768d5	0.17911084
147	0xbef7d4ae	-0.4840445
148	0xbdea77ef	-0.11448657
149	0x3dd4c9dc	0.10390064
150	0x3ee7bd91	0.45261815
151	0x3d94e788	0.072707236
152	0xbe3068d9	-0.17227496
153	0xbed450ea	-0.41467983
154	0x3e37b226	0.17939052
155	0x3d6541fb	0.055971127
156	0x3e6e1246	0.23249158
157	0x3d206c94	0.03916605
158	0x3e3932f6	0.18085846
159	0x3e56c896	0.20974955
160	0x3d3e11f2	0.046403833
161	0xbe0c281a	-0.13687173
162	0x3eaa9bd9	0.33322027
163	0xbea9cb62	-0.3316298
164	0xbe23d7e1	-0.1600032
165	0xbe1d2ea2	-0.1534982
166	0xbc42fa9f	-0.011900573
167	0x3dd2a828	0.102859795
168	0xbdddf84a	-0.10838373
169	0xbdad48ba	-0.08461137
170	0x3e40f53a	0.18843547
171	0xbd206ba5	-0.039165158
172	0x3e63946d	0.22224589
173	0x3e65dae7	0.22446786
174	0x3e8f8aee	0.28035682
175	0x3de8ad44	0.11361173
176	0xbead915f	-0.33899972
177	0xbe213aec	-0.15745133
178	0x3d7f58f7	0.062340703
179	0x3d10bcb3	0.035336208
180	0xbef607a5	-0.48052707
181	0xbd4591bf	-0.048234697
182	0x3e465cd9	0.19371356
183	0xbc1a540b	-0.0094194515
184	0xbee55380	-0.44790268
185	0x3ddf5970	0.10905731
186	0x3e2eda4a	0.17075458
187	0x3d57fc09	0.052730594
188	0x3e0e7e5f	0.13915394
189	0x3ec6d8f9	0.38837412
190	0x3e32c3ec	0.17457551
191	0x3cd2af42	0.025718335
192	0x3d6523da	0.055942394
193	0x3e3c9e9b	0.18419878
194	0xbe4418f7	-0.19150148
195	0xbbe73aad	-0.0070565552
196	0x3e0ed616	0.13948855
197	0x3e721e32	0.23644331
198	0xbc8ab5d6	-0.01693241
199	0x3cb60542	0.022219304
200	0x3e1e577f	0.15463065
201	0x3e0fac1b	0.14030497
202	0x3df1ebc4	0.11812547
203	0x3c3ea47a	0.011635894
204	0x3e19af2b	0.15008228
205	0xbe5570dd	-0.20843835
206	0x3d8029c3	0.062579654
207	0x3d93f72d	0.072248794
208	0xbd7c334e	-0.061572365
209	0x3d1598b1	0.03652257
210	0x3d374c74	0.044750646
211	0x3dbf1931	0.09330977
212	0x3e5e10a3	0.21686034
213	0x3e8f10a4	0.27942383
214	0x3d6324b3	0.05545492
215	0xbd82b650	-0.063824296
216	0xbe9bfebe	-0.3046779
217	0xbe87bb54	-0.26510108
218	0xbeedb32f	-0.4642577
219	0x3da400fc	0.08008
220	0xbc6a0d76	-0.014285436
221	0x3f091118	0.5354171
222	0xbe01bb69	-0.12669148
223	0xbd7c8071	-0.06164593
224	0x3dc4eceb	0.09615501
225	0x3c8dc992	0.01730803
226	0x3d797249	0.060900006
227	0x3e13f105	0.1444741
228	0x3d8f45d8	0.069957435
229	0xbd9fc1ba	-0.07800622
230	0xbe12beee	-0.14330646
231	0x3d847f6d	0.06469617
232	0x3e933115	0.28748384
233	0x3e6fd68c	0.23421687
234	0x3eb3d10c	0.35120428
235	0xbdddda24	-0.10832623
236	0xbd98682e	-0.07441746
237	0xbe172ee6	-0.14763984
238	0xbef49019	-0.47766188
239	0xbe0c30d1	-0.13690497
240	0xbda29abe	-0.07939671
241	0x3daf53a1	0.08560873
242	0xbe062ac2	-0.13102248
243	0xbea114fd	-0.31461325
244	0x3e8e88be	0.278387
245	0xbecd1aef	-0.4005961
246	0x3e24e20a	0.16101852
247	0xbec63457	-0.38711807
248	0xbecdd763	-0.4020339
249	0xbe4e88bb	-0.20169346
250	0x3cdd36ec	0.027003728
251	0x3eaf199d	0.3419923
252	0xbdf26941	-0.11836482
253	0x3e57a868	0.21060336
254	0xbe9b6660	-0.30351543
255	0x3e09455e	0.13405368

base.mlp.fc2.0.0.bias f4 [64]
0	0x3a59041e	0.00082785066
1	0xbb1a93c1	-0.0023586603
2	0xb986b275	-0.00025691433
3	0xbaeebe6e	-0.0018214711
4	0xb8b30053	-8.5354455e-05
5	0x3846f9bc	4.7439462e-05
6	0x3b29f795	0.0025934924
7	0x3a607db3	0.00085636525
8	0xba3929b8	-0.00070634065
9	0xba364bc2	-0.0006954038
10	0x3982e02c	0.00024962553
11	0x37f930bf	2.9705812e-05
12	0x399ef5d4	0.00030319265
13	0xbaa2b1a1	-0.0012412557
14	0xbad7892d	-0.001644408
15	0xb965328a	-0.00021857969
16	0xb9d89a1c	-0.0004131355
17	0x39b5db7f	0.00034686548
18	0xba0bf7d4	-0.00053393585
19	0x3a88e517	0.0010444251
20	0xb84f735b	-4.946008e-05
21	0xba8f4e6d	-0.0010933407
22	0xbac09f23	-0.0014695864
23	0x3b64b9fe	0.00349009
24	0x3a20084b	0.00061047514
25	0x3b1a771e	0.0023569535
26	0x3b55eb06	0.0032641306
27	0x3a724c83	0.00092429685
28	0x3a7f570a	0.0009740448
29	0xbb13c0f6	-0.0022545434
30	0xbb0fb83e	-0.0021929885
31	0x3a9b77de	0.0011861285
32	0xbb1702bf	-0.0023042408
33	0x3b42a441	0.0029699954
34	0x3a236949	0.0006233645
35	0xba29b68c	-0.000647404
36	0x39b5e7c6	0.00034695695
37	0xb9fe7a0e	-0.00048537593
38	0xba300546	-0.0006714653
39	0x3aaa9383	0.0013013933
40	0xb988208d	-0.00025964194
41	0xbb058986	-0.002037616
42	0xb9f2e03a	-0.000463249
43	0x3abf4dd7	0.0014595342
44	0xba050ee7	-0.0005075768
45	0x3a90830b	0.0011025382
46	0xbadc24ef	-0.0016795675
47	0x394774c8	0.00019021623
48	0xba3b9f82	-0.00071572524
49	0xbb866da9	-0.004102428
50	0xb96d0dc5	-0.00022607211
51	0x39521c6a	0.00020037746
52	0xb8c7e2f8	-9.531336e-05
53	0xb8061870	-3.197085e-05
54	0xb8afaccf	-8.3768384e-05
55	0x3a73f19b	0.00093057164
56	0xbb40cad2	-0.0029417765
57	0x3ae4d243	0.0017457682
58	0xb90e0978	-0.00013545703
59	0xba28d8fe	-0.0006441026
60	0xbb158655	-0.0022815664
61	0xb8b9f6bd	-8.867446e-05
62	0x39f574d4	0.00046817085
63	0x3891c4fc	6.95083e-05

base.mlp.fc2.0.2.weight f4 [64]
0	0x3f7ff8e5	0.9998916
1	0x3f80080d	1.0002457
2	0x3f7ff77c	0.99987006
3	0x3f7ffef2	0.9999839
4	0x3f7ffc80	0.9999466
5	0x3f7ffcd2	0.9999515
6	0x3f7ff84e	0.9998826
7	0x3f8002e8	1.0000887
8	0x3f7f69f4	0.99771047
9	0x3f7ff644	0.99985147
10	0x3f7f36ad	0.99692804
11	0x3f8001c7	1.0000542
12	0x3f8020e1	1.0010034
13	0x3f7ffcbe	0.9999503
14	0x3f7ffdfd	0.9999693
15	0x3f7f81bf	0.9980735
16	0x3f8002a3	1.0000805
17	0x3f8077f1	1.0036603
18	0x3f7fa181	0.9985581
19	0x3f7fcd2e	0.99922454
20	0x3f801470	1.0006237
21	0x3f7ffda9	0.9999643
22	0x3f7fff5a	0.9999901
23	0x3f7fe268	0.99954844
24	0x3f7ffbfb	0.99993867
25	0x3f800012	1.0000021
26	0x3f800076	1.0000141
27	0x3f800210	1.000063
28	0x3f7f3fa5	0.9970649
29	0x3f7f9ebe	0.99851596
30	0x3f7ffa2f	0.99991125
31	0x3f7ff665	0.99985343
32	0x3f7ff930	0.99989605
33	0x3f802d6c	1.0013862
34	0x3f7ee30a	0.99565184
35	0x3f7fa124	0.99855256
36	0x3f7f4342	0.99712
37	0x3f80092b	1.0002798
38	0x3f7f8fab	0.99828595
39	0x3f80013b	1.0000376
40	0x3f80321a	1.001529
41	0x3f80029c	1.0000796
42	0x3f7ffc38	0.9999423
43	0x3f7ff906	0.99989355
44	0x3f7ffaa7	0.9999184
45	0x3f801070	1.0005016
46	0x3f7fe61e	0.99960506
47	0x3f7fd6b1	0.9993697
48	0x3f7ffcd7	0.9999518
49	0x3f7fea68	0.9996705
50	0x3f7ff9d8	0.99990606
51	0x3f7e880f	0.9942636
52	0x3f8000dc	1.0000262
53	0x3f800270	1.0000744
54	0x3f8013ca	1.0006039
55	0x3f8001b4	1.000052
56	0x3f7fd5ff	0.9993591
57	0x3f8003a2	1.0001109
58	0x3f80282f	1.0012263
59	0x3f800306	1.0000923
60	0x3f7fef6d	0.9997471
61	0x3f8009af	1.0002955
62	0x3f7fc1a3	0.9990484
63	0x3f8001fc	1.0000606

base.mlp.fc2.0.2.bias f4 [64]
0	0xb8c4ee6e	-9.390419e-05
1	0x378cf233	1.6802083e-05
2	0xb6befe9f	-5.692083e-06
3	0xb7f8a8d0	-2.9642513e-05
4	0x380c44c4	3.3442644e-05
5	0x37f7f8a2	2.9560473e-05
6	0x36988cb0	4.546331e-06
7	0xb7613640	-1.3423676e-05
8	0x3847cd09	4.763625e-05
9	0xb7450dd9	-1.1745339e-05
10	0xb812f051	-3.5032925e-05
11	0xb7a15530	-1.9232364e-05
12	0xb7cf7e94	-2.4735265e-05
13	0xb90deaff	-0.00013534351
14	0xb8e9b735	-0.00011144431
15	0xb783b6ff	-1.5701631e-05
16	0x37677460	1.3795769e-05
17	0x37d5907f	2.5458865e-05
18	0x38040579	3.147635e-05
19	0xb7fe76a1	-3.03344e-05
20	0xb786668c	-1.6021797e-05
21	0x3893622d	7.027793e-05
22	0xb7e4750d	-2.7234224e-05
23	0x375c28b6	1.3122501e-05
24	0x381dc498	3.761481e-05
25	0xb73b07e7	-1.11479085e-05
26	0x376b8ebb	1.4040324e-05
27	0xb6e91762	-6.9466632e-06
28	0x37ad2b2c	2.064331e-05
29	0x3a22d6bd	0.0006211808
30	0x380a702d	3.3006236e-05
31	0xb812ebee	-3.502884e-05
32	0x367556a5	3.6558279e-06
33	0xb828c758	-4.0239975e-05
34	0x3795d011	1.7859073e-05
35	0xb5c3e161	-1.4594226e-06
36	0xb8a17f1c	-7.700754e-05
37	0xb807b153	-3.2351654e-05
38	0x38004051	3.0577477e-05
39	0x37fe533a	3.0317915e-05
40	0x3718e652	9.113532e-06
41	0xb8130c61	-3.505906e-05
42	0x37f8c46f	2.9655375e-05
43	0xb8125ab6	-3.4893594e-05
44	0x381012ec	3.4349898e-05
45	0x3829fa56	4.0525883e-05
46	0xb74f1fac	-1.2345536e-05
47	0x3738805a	1.0997139e-05
48	0x3860ab1a	5.3565112e-05
49	0x38c9f7c2	9.6305754e-05
50	0xb71ddb66	-9.409012e-06
51	0x37be240b	2.2666549e-05
52	0x3715aee9	8.9218165e-06
53	0xb72240c1	-9.671029e-06
54	0xb819f8ae	-3.6709644e-05
55	0xb78828c4	-1.6231446e-05
56	0xb56fdeb7	-8.935853e-07
57	0x37fd0577	3.0162495e-05
58	0x3757b4ed	1.2857124e-05
59	0x37907a15	1.7222987e-05
60	0xb75caccf	-1.3153257e-05
61	0xb7a510e2	-1.9677394e-05
62	0xb667bbe9	-3.453106e-06
63	0xb71ff1a6	-9.533402e-06

v_out.weight f4 [1, 64]
0	0x3c8a9eed	0.016921485
1	0xbe3b00c8	-0.18262017
2	0x3d729d96	0.059232317
3	0x3e31d25c	0.17365402
4	0xbde8e3f9	-0.11371607
5	0xbe36e557	-0.17860924
6	0xbd812142	-0.063051715
7	0xbd00ff14	-0.03149326
8	0xbd23e660	-0.040014625
9	0x3def7455	0.116921104
10	0x3dc9d1e0	0.098544836
11	0x3ea9f0f4	0.33191645
12	0xbc991eba	-0.01869141
13	0x3c2f9e72	0.010718929
14	0x3c5e7498	0.013577603
15	0x3df03ac7	0.11729961
16	0x3cfba88e	0.030720022
17	0xbdec312e	-0.11532818
18	0xbe078ce7	-0.13237344
19	0x3e1500e2	0.14551118
20	0x3def6a54	0.11690202
21	0xbcd3e673	-0.025866723
22	0x3e885682	0.266285
23	0xbdea5056	-0.11441104
24	0xbda8338c	-0.08212957
25	0xbd078646	-0.033087038
26	0xbe04ea04	-0.12979895
27	0xbd1c8e0d	-0.038221408
28	0xbe5f678d	-0.21816845
29	0x3aab0ee6	0.0013050705
30	0xbdf283a7	-0.11841517
31	0x3dc92818	0.098221004
32	0x3d2cefb7	0.042220797
33	0xbc792cf1	-0.015208469
34	0xbd93af93	-0.072112225
35	0x3d733bab	0.059383076
36	0x3c93ee2a	0.018057901
37	0xbc9261b4	-0.017868854
38	0xbe1d9521	-0.1538892
39	0xbe239451	-0.15974547
40	0xbda02884	-0.07820228
41	0x3dc54c62	0.096337095
42	0xbe337d8d	-0.17528363
43	0x3dc92a9e	0.09822582
44	0xbdd7b5f7	-0.10532754
45	0xbd7ea694	-0.06217058
46	0x3dfaa650	0.12238753
47	0xbd36ec3a	-0.044658877
48	0xbd243f0f	-0.0400992
49	0xbc7310fa	-0.0148355905
50	0x3db45158	0.088045776
51	0xbec8d4d7	-0.39224884
52	0xbdad9908	-0.08476454
53	0x3daf126a	0.08548434
54	0x3daedf53	0.085386895
55	0x3e345f1b	0.17614405
56	0x3d5d5c8b	0.054043334
57	0xbe22ba83	-0.15891461
58	0xbdf9279e	-0.121657595
59	0xbe5319e2	-0.20615342
60	0x3dea8a6d	0.11452184
61	0x3d972359	0.07379789
62	0xbd221405	-0.039569873
63	0x3da94a94	0.08266178
