results/MyEnv/MyEnv/mappo/check/run100/models/critic_agent0.pt (torch, 89374 bytes, 15 tensors)

base.feature_norm.weight f4 [182]
000000 7c 4e 81 3f f4 8c 82 3f f5 2b 7e 3f fd 22 7d 3f
       1.0102077 1.0199265 0.99285823 0.9888151
000010 40 37 83 3f ae a0 7d 3f 67 77 7c 3f 4d 7e 81 3f
       1.0251236 0.990733 0.98619694 1.0116669
000020 76 ae 81 3f 86 d4 74 3f a4 42 7e 3f a1 06 83 3f
       1.0131366 0.95636785 0.99320436 1.0236398
000030 ee 55 81 3f b7 bd 80 3f c1 3a 84 3f fb f7 82 3f
       1.0104349 1.0057896 1.033043 1.0231928
000040 f9 b8 78 3f 0c 3b 7e 3f 02 2f 80 3f 3a 4b 82 3f
       0.97157246 0.9930885 1.0014346 1.0179207
000050 e1 e0 7a 3f 36 28 80 3f 20 f2 7f 3f c4 4c 75 3f
       0.9799939 1.0012271 0.9997883 0.9582026
000060 fb eb 80 3f bc 8e 79 3f e9 03 7b 3f 89 e5 7f 3f
       1.0072016 0.9748342 0.9805284 0.9995962
000070 31 5e 7e 3f 6f 02 7b 3f 78 02 7d 3f e6 ea 74 3f
       0.99362475 0.9805059 0.9883189 0.95670927
000080 b8 28 80 3f 0e 03 82 3f 46 0f 82 3f 76 50 7c 3f
       1.0012426 1.0157182 1.0160911 0.98560274
000090 45 44 7e 3f 6f 11 81 3f 2e 16 7c 3f 6e 9f 81 3f
       0.9932292 1.0083445 0.98471344 1.0126779
0000a0 68 88 7e 3f 84 71 81 3f 99 8a 7b 3f a3 24 80 3f
       0.9942689 1.0112767 0.9825836 1.0011181
0000b0 24 96 82 3f 10 78 81 3f 96 49 83 3f bd ed 78 3f
       1.0202069 1.0114765 1.0256832 0.9723776
0000c0 97 73 81 3f a0 a3 82 3f 3a 72 7b 3f 9e 57 81 3f
       1.01134 1.0206184 0.9822117 1.0104864
0000d0 04 9c 80 3f 7b 5b 82 3f 79 97 83 3f d6 f2 7d 3f
       1.0047612 1.0184168 1.0280601 0.99198663
0000e0 56 22 7e 3f 23 c2 82 3f fd 65 80 3f 37 43 7d 3f
       0.9927114 1.0215496 1.0031124 0.98930687
0000f0 70 e3 7e 3f 18 22 83 3f f3 12 85 3f b9 c4 80 3f
       0.9956579 1.024478 1.0396408 1.0060035
000100 2a fc 80 3f 71 05 80 3f 0f 0b 7e 3f 25 11 7d 3f
       1.0076954 1.000166 0.99235624 0.98854285
000110 3e b5 78 3f ed 88 81 3f 2e 17 7a 3f 44 b9 7f 3f
       0.97151554 1.0119911 0.9769162 0.9989207
000120 da ff 7d 3f 57 46 7a 3f a1 d9 7b 3f 51 ab 81 3f
       0.99218524 0.9776358 0.9837895 1.0130407
000130 76 53 7d 3f a7 b3 80 3f 5a f6 82 3f f3 d7 7f 3f
       0.98955476 1.0054826 1.023143 0.9993889
000140 4c 1b 82 3f 7c c7 7c 3f b8 c2 7c 3f 73 4a 7e 3f
       1.016458 0.9874189 0.9873462 0.9933235
000150 d9 cb 80 3f 73 21 84 3f 79 a8 75 3f 5f 5f 7f 3f
       1.0062209 1.0322708 0.95960194 0.997549
000160 9f f5 7f 3f 84 0c 7b 3f b9 5b 7e 3f af 03 80 3f
       0.99984163 0.9806597 0.9935871 1.0001124
000170 98 23 74 3f e7 ad 7c 3f b2 d7 7d 3f 94 50 80 3f
       0.9536681 0.98702854 0.9915725 1.002459
000180 1f d2 72 3f 0b ed 78 3f 9b 50 81 3f 37 33 80 3f
       0.9485187 0.972367 1.0102724 1.001563
000190 1c c2 75 3f 18 28 82 3f 4a f8 80 3f b5 9f 7e 3f
       0.9599931 1.0168486 1.0075772 0.99462444
0001a0 97 81 81 3f be 08 7f 3f 28 05 82 3f 6c 48 7f 3f
       1.0117673 0.99622715 1.0157824 0.9971988
0001b0 74 03 7e 3f a8 22 81 3f 44 35 84 3f 82 6a 82 3f
       0.9922402 1.0088701 1.0328755 1.0188754
0001c0 67 7c 82 3f 70 7e 80 3f 78 d8 7b 3f 22 eb 80 3f
       1.0194215 1.0038586 0.9837718 1.0071757
0001d0 b5 38 7d 3f 8d bb 81 3f 1c 28 80 3f 6b a0 7d 3f
       0.98914653 1.0135361 1.001224 0.99072903
0001e0 67 a4 7d 3f 58 65 80 3f 22 42 7e 3f 08 af 80 3f
       0.99078983 1.0030928 0.9931966 1.0053415
0001f0 56 9a 7e 3f 38 48 7a 3f 72 da 80 3f 61 96 7f 3f
       0.9945425 0.9776645 1.0066664 0.99838835
000200 ac 01 7d 3f 2d 47 7e 3f 48 75 7f 3f 3d 59 79 3f
       0.98830676 0.99327356 0.9978833 0.9740179
000210 1d 63 7c 3f fd aa 7b 3f 15 9d 7a 3f 98 26 7e 3f
       0.98588735 0.9830778 0.9789594 0.9927764
000220 d5 41 80 3f be 38 7d 3f 46 88 82 3f cb 8e 7e 3f
       1.002009 0.98914707 1.0197837 0.99436635
000230 62 97 80 3f 04 f5 81 3f 29 55 81 3f 9b 16 83 3f
       1.0046198 1.0152898 1.0104114 1.0241274
000240 25 46 79 3f 0f 67 80 3f da fd 80 3f 8a 9a 84 3f
       0.9737266 1.0031451 1.0077469 1.0359662
000250 5a 97 75 3f 6d 51 79 3f c2 47 7a 3f f9 1c 80 3f
       0.9593407 0.9738987 0.97765744 1.0008842
000260 70 7f 7d 3f 74 fd 7e 3f d2 ea 7f 3f da c2 80 3f
       0.9902258 0.9960549 0.9996768 1.0059464
000270 86 06 7d 3f d6 4a 7e 3f 33 cc 7d 3f cf 55 7e 3f
       0.9883808 0.9933294 0.9913971 0.99349684
000280 69 59 7e 3f 0c dd 80 3f 59 0c 7f 3f af 2b 82 3f
       0.9935518 1.0067458 0.99628216 1.0169581
000290 93 64 7e 3f 43 03 7f 3f 0a 85 7e 3f 23 36 83 3f
       0.99372214 0.9961435 0.9942175 1.0250896
0002a0 6f a5 81 3f d9 43 82 3f e5 b8 79 3f 8c 2f 80 3f
       1.0128611 1.0176955 0.9754775 1.001451
0002b0 11 4b 7d 3f 0f 8d 80 3f 0a 10 7f 3f a6 97 7d 3f
       0.9894267 1.0043048 0.9963385 0.9905952
0002c0 a8 4e 7b 3f d3 5e 82 3f 3b 6c 83 3f f3 58 83 3f
       0.98166895 1.0185188 1.0267404 1.026152
0002d0 c0 e8 82 3f 01 52 83 3f
       1.022728 1.0259401

base.feature_norm.bias f4 [182]
000000 cd 0e bb 3b 94 68 15 bc 15 af 2d 3c fe e4 1a 3c
       0.0057085515 -0.009119172 0.010600825 0.00945401
000010 b6 d3 ca bc 48 a6 0b bc 69 cd 5b 3a fd ab 35 bc
       -0.024759155 -0.008523531 0.00083847955 -0.0110883685
000020 cc b3 a0 bc 71 77 94 ba be c2 da 3a 2a 89 c2 bc
       -0.019616984 -0.00113271 0.0016690118 -0.023747046
000030 c6 06 a6 bb bc 40 36 bc 43 7c 82 3c 61 67 03 bc
       -0.0050667254 -0.011123832 0.015928393 -0.008020253
000040 20 98 cc 3c b6 c2 c6 38 00 96 aa 3b 36 e3 b2 bb
       0.024974883 9.4776435e-05 0.0052058697 -0.0054592146
000050 cc f4 bc 3b 5b d0 b2 ba 40 6d 3f bb eb 9a 50 bc
       0.0057664867 -0.0013642417 -0.0029209405 -0.012732248
000060 30 a2 5a 3c a4 ab 17 bd ba 34 f6 ba 01 83 8a ba
       0.013344333 -0.037028924 -0.0018784024 -0.0010567607
000070 80 33 5d 3a 89 cb b3 bc 8b 21 24 bc 5b ec ec bc
       0.0008438155 -0.021947639 -0.010017763 -0.028921297
000080 03 73 20 3c fe 10 3d 3c 9c fe 7a 3c a5 49 c9 bc
       0.009793046 0.011539696 0.015319493 -0.02457125
000090 75 0e 36 bc 05 b1 07 3c 86 f6 55 bc 9e d4 04 3c
       -0.011111845 0.008281951 -0.013059264 0.0081073325
0000a0 c5 05 14 3c d2 3b 8f 3b cc 03 f6 bc ea e7 e4 3b
       0.009034579 0.004371145 -0.030031107 0.006985654
0000b0 f7 df a6 bc fb 22 16 bc 8f 25 65 bc af 89 89 bc
       -0.020370467 -0.009163613 -0.013986005 -0.016789285
0000c0 a6 9e dd 3b 4c 89 f8 3c 7b 9f 41 bc c8 4c d9 3b
       0.006763297 0.030338906 -0.011817808 0.0066314675
0000d0 c6 89 3d bc 6f 25 1e 3b ec 55 d2 3b 32 89 5e bc
       -0.011568492 0.00241312 0.006418934 -0.013582515
0000e0 27 89 45 3b 2b 57 7f ba 7c ea 7d bb e0 06 ad 3b
       0.0030141564 -0.0009740467 -0.00387445 0.0052803606
0000f0 45 58 82 3a 45 29 9e 3b d7 bb bd 3c c3 e2 93 bc
       0.0009944519 0.004826697 0.023160858 -0.018052464
000100 20 47 ce bb a2 38 be bb fe 89 2c bb dd b6 b0 bc
       -0.0062951 -0.005805091 -0.0026327367 -0.021571571
000110 32 5a 05 bd bd 25 7d 3c b4 8f 79 bc 4b b2 ba 3b
       -0.03255672 0.015450892 -0.015232015 0.0056975237
000120 94 65 f5 ba bf 29 ee bb c7 d8 58 bc 88 6f f0 3c
       -0.0018722289 -0.00726816 -0.0132352775 0.029350057
000130 e0 43 46 bb e7 f7 13 ba e5 e2 a8 3b 31 3f 00 3c
       -0.003025286 -0.00056445453 0.005154001 0.007827566
000140 d2 b2 f2 3c 85 86 e9 ba e1 e0 c2 3b cb cc 95 bb
       0.029626284 -0.0017816579 0.005947218 -0.0045715324
000150 2b 2c b3 3a c8 9e cc 3c 09 53 58 bc 0b 2f 04 3b
       0.0013669779 0.024978057 -0.013203391 0.0020169641
000160 85 2c dc ba 01 cf 6b bc 68 e3 56 3b 79 10 1c bc
       -0.0016797936 -0.014392615 0.0032789353 -0.009525412
000170 f7 5c d4 3c 8f 77 18 3c cf 4e d7 3b 19 b7 44 bb
       0.025923235 0.009305849 0.006570674 -0.0030016361
000180 94 23 90 3c 69 c7 80 bc e3 66 fd bb f6 7a 98 bb
       0.01759509 -0.015720086 -0.0077332123 -0.00465333
000190 cd ef bc 3c 3c a9 19 bc 76 61 6a bb d8 0c 9a 3b
       0.023063565 -0.0093787275 -0.0035763658 0.004701238
0001a0 f5 27 20 bc 52 af d1 3a 2c 47 37 bc f6 c0 ce ba
       -0.0097751515 0.0015997684 -0.011186402 -0.001577406
0001b0 e5 22 8f 3b 31 93 b5 bb ca 4e 4e 3c a4 12 0c 3c
       0.0043681734 -0.005541228 0.012592027 0.008549366
0001c0 6c 84 cc ba 60 e3 96 3b 92 0b 26 bc 5b ac b7 bb
       -0.001560343 0.004604742 -0.0101345945 -0.005605263
0001d0 84 49 72 bc 78 ce 24 3c 59 32 82 39 06 8b 8c bc
       -0.014788035 0.010058992 0.00024833044 -0.017156135
0001e0 d9 54 8c bb 35 bd 0b bc 38 31 93 bc c2 0b ec ba
       -0.0042825756 -0.008528997 -0.017967805 -0.0018008875
0001f0 90 bd cb ba 22 5f 1c bc 93 1c b4 3b f4 f2 82 3b
       -0.0015544165 -0.009544166 0.0054965704 0.0039962474
000200 c6 e4 4a 3c 83 b9 e8 bb 4f c4 c7 bb 6c d9 8e ba
       0.012383645 -0.007102193 -0.0060964 -0.0010898537
000210 88 32 b7 bb 05 6b 5b bc cf b6 86 bc 58 f3 9a bb
       -0.0055907406 -0.013392215 -0.016444592 -0.004728716
000220 7d a5 d1 3b 58 74 29 bc 20 ae 66 ba 3b fc bb bb
       0.0063979016 -0.01034268 -0.00087997504 -0.0057368553
000230 73 a0 5e 3b 67 a9 ea 3a c7 94 4c 3c a2 d3 bd 3b
       0.0033970147 0.0017903269 0.012486643 0.005793051
000240 46 76 61 bc ad 16 94 3c d8 c9 24 3a 15 84 b4 3c
       -0.013761109 0.018077219 0.00062861806 0.022035638
000250 8e bf 3d bc a4 63 3a bc 50 4c 83 3b 16 8f a4 3b
       -0.011581315 -0.011376295 0.0040069 0.00502194
000260 68 b9 25 3c 6e 22 d4 3b 0e 88 5f bb 19 64 06 3b
       0.010115005 0.006473831 -0.0034108195 0.002050644
000270 b0 13 71 3b 65 0a 8f ba 8e 0e f3 bb fe ea a7 bb
       0.0036785416 -0.0010913132 -0.0074175065 -0.005124449
000280 72 90 2c bb 2c 1d 57 3c 85 af c1 ba 0e 21 2a 3b
       -0.0026331213 0.013129514 -0.001477704 0.0025959644
000290 29 e5 c0 3b f6 3d a2 bb 85 93 93 bb dc 13 b8 3c
       0.005886693 -0.004951234 -0.0045036697 0.022470407
0002a0 f6 ce 9b 3c 80 25 42 3c ca 33 66 bc d8 0c 81 bc
       0.019019585 0.011849761 -0.014050433 -0.015753195
0002b0 60 57 85 bc 73 f3 12 bc f5 fd e1 3b 39 39 25 bb
       -0.016277015 -0.008969176 0.006896729 -0.002521111
0002c0 e0 4f 20 bc 87 32 d3 bb b0 c6 c8 ba e7 f1 c1 3b
       -0.009784669 -0.0064452323 -0.0015318003 0.0059187296
0002d0 24 3e fb bb 00 14 6e 3c
       -0.00766732 0.014531136

base.mlp.fc1.0.weight f4 [64, 182]
000000 ab 12 e5 bd 39 5f a2 3d f2 81 b0 bd 90 d4 8e bc
       -0.11185201 0.079283185 -0.08618535 -0.017435342
000010 92 25 6e be de 30 29 bd 97 e6 87 bc d0 54 e5 bd
       -0.2325652 -0.04130637 -0.016589446 -0.11197817
000020 bc 4a da bc 88 08 2f 3e bb 9b a7 3d 00 60 09 be
       -0.026646964 0.17093098 0.08184 -0.13415527
000030 65 4a 95 3d fb 34 8d 3d 3b 87 a8 3d 53 31 16 be
       0.0728958 0.06894871 0.08228918 -0.14667253
000040 b1 f1 f8 3b 22 7a 0b be 20 5c c7 3d b6 63 b4 3b
       0.0075971712 -0.13620809 0.09734368 0.0055050505
000050 f6 b8 3c be 51 d5 52 3e ed b5 e5 bb 1a e8 3f be
       -0.18429932 0.20589186 -0.0070102126 -0.18740883
000060 d0 1f 8a 3d d6 03 15 be fc 26 3c 3e 00 30 4b be
       0.06744349 -0.14552245 0.18374246 -0.1984253
000070 77 06 2b 3e 77 61 71 3e 86 28 d5 bd 9e 6a 4f bd
       0.16701685 0.23572336 -0.1040812 -0.050638787
000080 7e 35 94 be 22 c0 2f be 51 b8 b3 bd 6c 58 0e be
       -0.2894706 -0.17163137 -0.0877539 -0.13900918
000090 95 86 00 3e f5 29 5f be e5 5e ba 3c 42 f0 f0 3d
       0.12551339 -0.21793349 0.022750327 0.117645755
0000a0 d2 d9 a7 bd c2 dd f8 3d 21 a2 70 bc 61 23 a8 bd
       -0.08195843 0.12151672 -0.014687092 -0.08209873
0000b0 1e 56 e9 bd 1a 60 91 3e 52 c4 8c 3d ae fc f7 bd
       -0.11393379 0.28393632 0.06873383 -0.12108742
0000c0 fd 2e fb 3d c4 ce e1 bd fe 39 33 3d aa fa 04 bd
       0.12264822 -0.110257655 0.043756478 -0.032465614
0000d0 f3 13 83 3c 7b ae a5 bd 96 c4 71 3d d6 8c 6f bd
       0.016000723 -0.0808992 0.05902537 -0.05848392
0000e0 77 7b 2b be ab 14 2a 3d d2 43 11 3d fd ee 03 3d
       -0.16746317 0.041523617 0.03546507 0.03221034
0000f0 fc 54 55 3e 20 e2 e0 bd ca 3a 14 bd ad b9 c5 3b
       0.208332 -0.1098063 -0.036188878 0.006034097
000100 ff 9c 71 3e 1f c9 84 bb 12 88 56 3d 5b 92 fc 3c
       0.23595046 -0.004052296 0.05237586 0.030831506
000110 15 81 e8 bd 46 77 b5 3c 1d 1f 9f 3d 8c ee cf bd
       -0.113527454 0.0221516 0.07769606 -0.10152921
000120 bc 81 27 3d 1d c0 97 bd bd 1a fe 3c 06 7a 68 bc
       0.04089521 -0.074096896 0.03101861 -0.014189249
000130 64 5a ea 3c 3d 58 58 3e 26 16 f6 bb b0 e8 8a bd
       0.028607555 0.2112741 -0.0075099645 -0.06782663
000140 05 fc 01 be 94 59 84 3c e1 31 b1 3d a5 7d 8a be
       -0.12693794 0.016155995 0.08652092 -0.27048984
000150 1a 55 04 be f5 a3 8d 3c 99 01 aa bc d0 96 c9 bd
       -0.12923089 0.017290095 -0.020752715 -0.09843218
000160 78 79 c5 3d 20 a9 7e 3e 1a 47 e5 3a f9 c3 82 bd
       0.09642309 0.24869204 0.0017492503 -0.06385035
000170 20 af 4c bd 93 0c 63 bb f9 02 19 3e 50 2e 6d bd
       -0.0499717 -0.0034644946 0.1494254 -0.057905495
000180 09 15 af 3c 20 84 0c 3e bb 2b 52 bc b9 f0 96 bd
       0.021372335 0.13722277 -0.012827809 -0.07370133
000190 49 27 1b 3d 77 ed 98 bc f0 4e 06 bd c1 00 12 3e
       0.037879262 -0.01866792 -0.032790124 0.142581
0001a0 aa fb 61 3e c3 09 e9 3d 9d 28 4a 3e 44 46 0c 3e
       0.22068658 0.11378815 0.19742055 0.13698679
0001b0 af 10 d6 bd 3f 29 93 be 47 06 34 3e 91 0c be 3d
       -0.10452401 -0.28742406 0.1758052 0.092797406
0001c0 a5 a4 99 3c 2d de fa bc f7 67 36 3d e4 fc da 3d
       0.018755266 -0.03062352 0.044532742 0.10692766
0001d0 60 27 ac bc 2a a8 56 be 75 77 e8 3d 71 c0 c1 3d
       -0.02101487 -0.20962587 0.113509096 0.094605334
0001e0 d9 2c a9 3d 8b 11 be bd 37 61 50 be 1f 08 42 bd
       0.08260507 -0.0928069 -0.20349585 -0.047371026
0001f0 55 1a 73 3e 32 e9 93 3b 56 d0 7f bc 56 f9 ca bb
       0.23740514 0.004513883 -0.015613636 -0.006194274
000200 ee ee 8d bd b5 70 99 bc 4f c4 1c be d3 bb b8 3d
       -0.06930338 -0.0187305 -0.15309261 0.090201996
000210 ed 58 b6 3d 1a 8d 9f 3e 83 d0 a2 bd f1 c1 d4 bc
       0.0890368 0.3116234 -0.07949927 -0.025971385
000220 d2 f5 2b be 0b f2 0d be 99 f4 60 3d e1 04 5b 3d
       -0.16792992 -0.13861863 0.054920767 0.05347145
000230 0a cd 87 bc ca 45 15 be 39 c0 70 be 2e d6 2a 3d
       -0.016577262 -0.14577404 -0.23510827 0.041708164
000240 31 dd 26 3e ce 46 e7 bd 3c 50 05 bd c2 80 38 3d
       0.16295315 -0.11292802 -0.03254722 0.045044668
000250 ec 90 b6 bb 01 66 bd bd d9 4b d4 bd 64 c0 d7 bd
       -0.0055714753 -0.09247971 -0.10366029 -0.105347425
000260 5d 29 a7 3c 72 4b ac bd 6b 21 5b be 65 bc 22 bd
       0.020405466 -0.084128276 -0.21399467 -0.03973045
000270 8f 7e 58 3d 79 6b d8 bd 90 a5 16 3e 10 83 b6 3d
       0.05285507 -0.10567374 0.14711595 0.08911717
000280 d1 50 ca 3c 16 34 17 3e b8 2f fb bc d3 91 95 3e
       0.02469674 0.14765963 -0.030662403 0.29212818
000290 a1 e0 43 3e 3e 94 45 3e 47 44 6b 3e 38 a1 be bd
       0.19128658 0.19294831 0.22975264 -0.09308094
0002a0 61 ab f7 3d e7 48 a8 bd af 58 7a 3e d3 18 84 be
       0.12093235 -0.0821703 0.24447893 -0.2580019
0002b0 e8 2b a8 3d 44 d0 38 bd c0 37 3d bd 17 4c 50 be
       0.082114995 -0.045120493 -0.046195745 -0.20341526
0002c0 85 54 36 3d 23 71 b3 bb 2d e0 a3 3d 19 37 13 3e
       0.044514198 -0.0054761334 0.080017425 0.14376487
0002d0 e8 8c 80 3d 05 1f 8f bd 5f 72 97 3d ef 7f ed 3d
       0.06276876 -0.069883384 0.073948614 0.11596667
0002e0 de 46 42 bc 18 87 1c 3e ae 1b 1e 3e 94 ae 1e 3e
       -0.011857716 0.15285909 0.15440246 0.15496284
0002f0 97 d9 5d 3d 4d 8a 41 3e 28 55 e0 bd 19 34 d0 3d
       0.054162588 0.18900414 -0.10953742 0.10166187
000300 86 89 dc bc 79 bf 95 3d 00 d9 93 3d a4 d4 64 bb
       -0.026921045 0.07311911 0.07219124 -0.0034916783
000310 50 b5 a4 3c e8 eb 42 3e 07 bc ad bd 48 da b3 bd
       0.020105988 0.19035304 -0.08483129 -0.08781868
000320 a1 12 9b be b0 fe a1 3d 69 e2 db bd 23 17 1b be
       -0.3028765 0.07909906 -0.10736544 -0.15145545
000330 91 ac 5d bd 18 02 0b bd f8 3f 75 be 1d 7a 03 3e
       -0.05411965 -0.033937544 -0.23950183 0.12839551
000340 8b 1a 21 3d 4d 5c bd bd 14 87 9f 3b 0c 49 7c bd
       0.039331954 -0.092461206 0.0048683975 -0.0615931
000350 8f 9e 61 3d 00 b8 ac 3c 9b 26 83 3d 73 b3 88 bc
       0.055082854 0.021083832 0.06403848 -0.01668713
000360 2a 22 e2 3d 10 ca c5 bd bc ce 45 be 2c 8f 3a be
       0.110416725 -0.09657681 -0.19317144 -0.18218678
000370 5f eb 20 3e fa fd a8 bd 38 cb e2 3d b6 2d 54 3e
       0.15714787 -0.08251567 0.11073917 0.20720562
000380 c6 25 09 3e 93 56 c9 3c 1c e1 67 be 97 9c ca bb
       0.13393316 0.024577415 -0.22644466 -0.0061832177
000390 84 0a dc 3d b5 3f b7 3c 15 15 13 bd dc 88 ad bd
       0.10744193 0.022369245 -0.035908777 -0.084733695
0003a0 4b 8f 02 be ff ac b6 bd 44 f0 3e 3d ed 8b 8f 3d
       -0.12749974 -0.08919715 0.046615854 0.070091106
0003b0 4e 70 29 be 76 c9 13 be a0 27 35 bd 16 32 05 bd
       -0.16546747 -0.1443232 -0.044227242 -0.03251847
0003c0 27 35 b4 be d5 1f fd bc b7 00 a9 bd 3c 74 4b be
       -0.35196802 -0.030898968 -0.082520895 -0.19868559
0003d0 15 bc 4e 3e 0a 24 06 3e b0 36 af bd 79 d4 1d 3e
       0.20188935 0.13099685 -0.08555353 0.15413083
0003e0 3c 30 75 bd e7 f4 78 bb 42 87 2d 3e 93 09 75 bd
       -0.059860453 -0.003798777 0.16946128 -0.059823584
0003f0 9e ec 65 bd 16 4a 04 be 7d 79 8b be 8d 19 84 bd
       -0.05613386 -0.12918887 -0.27241126 -0.06450186

base.mlp.fc1.0.bias f4 [64]
000000 fe 88 79 bc 9a 26 0d bd a7 a2 da 3b 12 59 0d 3b
       -0.015230415 -0.03446064 0.0066722217 0.0021567983
000010 2a c7 ae 3c f4 82 48 bb 31 3d 88 3b 6b 2b 26 ba
       0.021335203 -0.0030595632 0.004157685 -0.0006338867
000020 2f 2c c9 bb 4c 79 3d 3a ce 24 e9 3a 96 20 82 3c
       -0.0061393003 0.00072278525 0.0017787458 0.015884679
000030 50 d9 4b 3b ff b7 91 bc 0d b6 07 3c 60 3a c0 3b
       0.003110487 -0.017787931 0.00828315 0.005866334
000040 cc 3e 05 bc d6 9c 5d bb 35 13 7b bb c1 2b 00 3b
       -0.008132648 -0.0033815405 -0.0038311009 0.001955733
000050 73 53 58 bc a9 bb 65 3c ab 42 9f 3a f2 7c cd bb
       -0.01320349 0.014021792 0.0012150606 -0.006270998
000060 45 c0 3c 3c fe a5 39 3c bd 28 30 3c d5 17 44 bc
       0.01152045 0.0113310795 0.0107519 -0.011968573
000070 59 4a cf bc 93 7a 6d 39 a8 50 84 bc 6c 7a 86 bc
       -0.025304006 0.00022647744 -0.016151741 -0.016415797
000080 bd 77 81 bc 9c 25 6a bc d5 71 af 3b b8 76 2d bc
       -0.015804166 -0.014291193 0.005354146 -0.010587387
000090 b3 42 d1 bc 81 3e 2d bb e3 65 90 bb 11 4e 70 bc
       -0.0255445 -0.002643496 -0.004406677 -0.01466705
0000a0 b5 09 f3 39 40 86 64 bc 64 c8 9d bc 4b b9 40 3b
       0.00046355804 -0.013948023 -0.019260593 0.0029407318
0000b0 9c 75 93 3a 37 af 1b 3c fb 9c 1f 3b 45 c1 c6 bc
       0.001125026 0.009502224 0.0024355042 -0.02426208
0000c0 b1 20 19 bc 56 bc 5d 3c 68 68 ca 3b ca df 4e 3c
       -0.009346173 0.013533672 0.006176997 0.012626598
0000d0 81 45 cf bc 20 f3 2d 3b e3 fb c6 3b 35 6a 03 3c
       -0.025301697 0.002654262 0.0060725077 0.008020927
0000e0 d6 d6 22 bc 7b cf 5d ba 16 9b 02 3b 72 04 e6 3a
       -0.009938916 -0.0008461398 0.0019928864 0.0017548932
0000f0 46 91 5a 3c 7c 7b 88 3c 24 29 ba ba ab 9f 12 3c
       0.0133403 0.016660444 -0.0014202935 0.008949201

base.mlp.fc1.2.weight f4 [64]
000000 de 90 7b 3f 66 7b 83 3f b5 a5 80 3f f9 a0 80 3f
       0.98267925 1.0272033 1.005057 1.0049125
000010 c9 5b 80 3f 33 3c 7f 3f ec b6 7f 3f aa b3 7b 3f
       1.0028011 0.9970123 0.9988849 0.9832102
000020 4a 97 84 3f ad 14 7b 3f 06 f0 7f 3f fe 60 7f 3f
       1.035867 0.98078424 0.9997562 0.99757373
000030 73 30 80 3f 1a 44 7d 3f 50 db 7c 3f 84 65 80 3f
       1.0014786 0.9893204 0.98772144 1.003098
000040 84 46 81 3f 46 8e 7c 3f d6 dc 7a 3f 7e 81 7c 3f
       1.0099645 0.9865459 0.9799322 0.9863509
000050 05 05 82 3f 49 3b 80 3f 67 e0 7c 3f d4 26 83 3f
       1.0157782 1.0018092 0.9877991 1.0246224
000060 52 06 7a 3f ab 9c 80 3f 33 46 81 3f ff 70 70 3f
       0.97665894 1.0047811 1.0099548 0.9392242
000070 9a 7f 80 3f 93 40 7f 3f 29 81 79 3f ab 41 7f 3f
       1.0038941 0.9970791 0.9746271 0.99709576
000080 94 ba 80 3f f5 ab 7c 3f 5f 93 80 3f 33 e3 79 3f
       1.0056939 0.98699886 1.0044974 0.97612303
000090 1f 26 82 3f 07 69 81 3f 48 51 80 3f ba 58 80 3f
       1.0167884 1.0110177 1.0024805 1.0027077
0000a0 1e f1 80 3f f9 5f 7d 3f 1f 39 82 3f e6 6c 7d 3f
       1.0073583 0.9897457 1.0173682 0.9899429
0000b0 47 9a 82 3f b6 b7 7b 3f d6 a3 80 3f 73 45 7c 3f
       1.0203332 0.98327196 1.0049999 0.9854347
0000c0 b0 ba 78 3f e1 d0 80 3f 6b 90 7d 3f 13 d4 7e 3f
       0.9715986 1.0063745 0.9904849 0.9954235
0000d0 0e 7c 81 3f 0d b9 82 3f cc 29 80 3f 29 46 79 3f
       1.0115983 1.0212723 1.0012755 0.9737268
0000e0 41 9a 7e 3f 4a d9 80 3f 9d 7f 81 3f 33 aa 80 3f
       0.9945412 1.0066311 1.011707 1.0051941
0000f0 24 93 80 3f 0c a6 85 3f ed dd 80 3f e2 29 80 3f
       1.0044904 1.0441298 1.0067726 1.0012782

base.mlp.fc1.2.bias f4 [64]
000000 98 d3 f5 bc 9b cf df bc ee f4 7e 38 a2 27 4f bb
       -0.030008122 -0.027320674 6.0786428e-05 -0.0031609316
000010 5d 68 5f 3a 03 bc ad bb 87 d9 85 3a 0e de d3 3a
       0.0008522326 -0.0053019538 0.0010211923 0.00161642
000020 67 a4 2e bc 15 cd 9b ba 38 00 b5 38 0d fb ed 3a
       -0.010659314 -0.0011886681 8.630793e-05 0.0018156484
000030 96 dd d1 3a e1 15 b5 3b 6f 0d 5b 3b 9c 7f ec 3b
       0.0016011472 0.00552629 0.0033424755 0.0072173607
000040 66 1f fe bb a1 cd 4b 3c 48 3b 89 bc 44 77 0f bc
       -0.007755208 0.0124391625 -0.0167519 -0.0087564625
000050 24 e6 8d bc 27 b5 1b 3c f8 60 4d 3c eb cc ed bc
       -0.017321654 0.009503639 0.012535326 -0.029028377
000060 3a fc b0 bc a8 e5 15 ba ec 6f 19 3c 22 bd 8a bc
       -0.021604646 -0.00057181204 0.009365063 -0.016935889
000070 97 5c 76 bc 5b 30 21 bb a2 56 7f bc aa 9e 06 bc
       -0.015036724 -0.0024595472 -0.01558462 -0.008216539
000080 7b 77 e7 bb 1a b7 3b bb 23 d4 ff 3b 6d d9 49 bb
       -0.0070638037 -0.0028643073 0.007807271 -0.0030799762
000090 be 88 a4 bc d1 14 8a bb d0 09 d0 bb 29 60 a5 bb
       -0.020084735 -0.0042139073 -0.006348826 -0.0050468636
0000a0 c3 79 a6 bb cb 1d 7d 3b 5a 6b 8e bc 34 fe a3 ba
       -0.005080433 0.0038622494 -0.017385174 -0.0012511672
0000b0 0e 51 a7 3c 41 d5 9e ba cb 31 02 3c 39 62 41 bc
       0.020424392 -0.0012117998 0.007946442 -0.011803203
0000c0 6e 22 03 bc 1f 9a bf 3b 1f 79 b7 3b 08 61 70 3b
       -0.008003814 0.00584723 0.0055991556 0.003667893
0000d0 ac 3f 41 bc ea 62 8e 3c b9 37 b1 b9 e2 fa ab ba
       -0.011794966 0.01738115 -0.00033801587 -0.0013121034
0000e0 af 7a a7 bb e6 c3 0c bb 42 be b6 bb a7 01 de 3b
       -0.0051110606 -0.002147907 -0.0055768797 0.0067750993
0000f0 f2 20 2c 3c 88 66 2e 3d 9a 2b df bb 64 2f c9 3b
       0.010505902 0.04257825 -0.0068106176 0.0061396826

base.mlp.fc_h.0.weight f4 [64, 64]
000000 22 89 48 be 27 00 93 be fe 62 9a be ce 18 5d 3e
       -0.19583562 -0.28711054 -0.3015365 0.21591493
000010 3f 3d ca be c4 5e 87 3d 86 10 a2 3e 46 f7 23 be
       -0.39499852 0.06609872 0.3165323 -0.16012296
000020 a9 45 a9 3d 28 92 aa bd c2 87 f7 bc ba 01 29 bc
       0.0826524 -0.08328658 -0.030216102 -0.010315353
000030 e8 56 d4 bc 89 bb f4 3d 5f a7 14 3e c5 c8 a9 3e
       -0.025920346 0.11949832 0.14516972 0.33160987
000040 4d bc d4 bd e3 19 90 3d 88 70 cd 3d f5 55 c2 bc
       -0.10387478 0.070361875 0.10031229 -0.023722628
000050 a1 63 66 3d 33 fc 70 3d 46 29 2c 3e 89 37 42 be
       0.056247357 0.058834266 0.1681262 -0.18966497
000060 d4 0c 84 3c d7 ff 0d 3f 2c 71 da 3d 3f c5 5d be
       0.016119398 0.55468506 0.10666117 -0.21657275
000070 56 04 61 be 83 3f e7 ba 78 6e 08 bd 06 17 fc be
       -0.2197431 -0.0017642829 -0.033308476 -0.49236315
000080 4b a6 a5 bc 5e 81 53 be 7e 0c 0f 3d 63 9c 22 be
       -0.020220896 -0.20654818 0.034924023 -0.1587997
000090 ad c4 8b be 5d 00 c6 be f9 e8 60 bd e2 74 08 3e
       -0.2729849 -0.38672152 -0.05490968 0.13325837
0000a0 69 60 07 3e f9 06 2d 3e fa 1b 81 3d 74 89 11 3d
       0.13220371 0.16897191 0.06304164 0.035531476
0000b0 59 9e 78 3d 24 15 79 be b2 3a c0 be 50 4c 08 bf
       0.060697887 -0.24324471 -0.3754478 -0.53241444
0000c0 46 36 04 bc ab 2c ff bd 55 30 86 be d9 02 2a 3e
       -0.00806958 -0.124596916 -0.2620875 0.16602649
0000d0 e7 4e 56 3e 16 22 32 3e 23 c5 64 3b ca 20 5e be
       0.20928536 0.17395815 0.0034907542 -0.21692196
0000e0 01 b5 3a be 65 c2 ae be 9f 7d ac bd 06 9b 16 bd
       -0.1823311 -0.34132686 -0.08422398 -0.036768936
0000f0 d7 ec cd bd 07 bf c8 bd 0f 33 65 be 81 1a 6b bd
       -0.10054939 -0.098020606 -0.22382759 -0.057398323
000100 93 50 ce be 7a f3 2b be 77 f6 14 3d 29 38 91 3d
       -0.40295848 -0.16792098 0.03636786 0.0709079
000110 55 e3 f6 3e e1 ab a5 be a5 39 ba 3c 7f a8 c8 bc
       0.48220316 -0.32357696 0.022732565 -0.024494408
000120 f0 de 42 3e e5 ab b9 3d 4e fd b1 3c 4d 28 4f be
       0.19030356 0.090659894 0.02172723 -0.20230217
000130 31 7f e3 3d 57 a6 66 3e 5e 2b bc 3d 4a dd 92 bd
       0.11108244 0.22524391 0.09187959 -0.07171114
000140 83 6f 01 bf 25 a7 7e 3e f9 5c 9b bc 49 e6 0e bd
       -0.5056078 0.24868448 -0.018965231 -0.034887586
000150 f6 5d a8 3e 9d 44 48 be ae d7 d3 3d ab 0d 48 bd
       0.32884187 -0.19557424 0.10343872 -0.04884116
000160 29 95 01 3d 99 96 4d 3e 33 48 94 be 80 c7 ce bd
       0.03163639 0.2007698 -0.28961334 -0.10096645
000170 ce 93 b6 be 2e 6e 09 3e c4 e6 a3 3e 00 8a 29 3e
       -0.3565964 0.13420936 0.32011998 0.16556549
000180 20 f2 1d bd 60 f3 9d 3d d0 7f a1 be 4e 9e b9 bd
       -0.038560987 0.07712436 -0.31542826 -0.09063397
000190 b0 49 d1 be df b2 dc 3d d1 36 16 3e 45 6d 8f be
       -0.40876532 0.107763045 0.14669348 -0.28013054
0001a0 7f 9d 4f be 6d 40 29 be e7 1a a6 bc 20 f0 80 3e
       -0.20274924 -0.16528483 -0.0202765 0.251832
0001b0 87 20 1a be 1a f2 cb 3c 39 14 10 be 69 5f a8 3d
       -0.1505147 0.024895716 -0.14070214 0.08221323
0001c0 c1 b6 7a 3e 4d 13 a9 3c bf aa aa 3d d0 50 30 3e
       0.24483778 0.020639086 0.083333485 0.17218328
0001d0 7f cb 94 bd ac 71 7a 3d 43 52 94 be 52 3d 41 3c
       -0.07265376 0.061143562 -0.2896901 0.011794405
0001e0 35 9c fb 3c 7d b1 ec 3c 3d 43 1e bd a6 31 78 bd
       0.030714134 0.028893227 -0.038638342 -0.060594223
0001f0 12 87 19 be 9b 8b 53 be 85 9e ea 3e b6 9d c1 3e
       -0.14992931 -0.20658724 0.45824066 0.37815636
000200 b7 0b 7e 3e 6e 5d a3 be f5 e7 b6 bd 9f 16 a7 3e
       0.24809156 -0.3190722 -0.08930961 0.32634446
000210 47 d2 96 3e 3d 9c c3 3e 12 bb 17 3d 76 2c 60 be
       0.29457304 0.38205138 0.03704364 -0.2189196
000220 42 e6 74 3c 10 7c d7 bc 54 d6 d4 3c 85 1d a2 bd
       0.014947476 -0.026304275 0.025981106 -0.07915787
000230 16 1a 22 be d1 b3 a7 be c0 ba 93 3e 24 a3 e0 be
       -0.15830263 -0.32754377 0.28853416 -0.43874466
000240 c6 7b 80 3d ce f7 92 3e 2e eb 08 3e cf c0 2d 3e
       0.06273608 0.28704685 0.13370964 0.16968082
000250 24 14 24 be 7e e2 87 3e 26 d4 19 3e 96 cb d2 3d
       -0.16023308 0.26539987 0.15022334 0.10292737
000260 33 7b 94 be e3 bd 88 bd 6c 70 f1 3d 8c 01 84 bc
       -0.29000244 -0.06676843 0.11789021 -0.016114019
000270 69 44 7f 3e 78 68 03 3e 2a a0 da 3c 9e 99 6f be
       0.2492844 0.1283282 0.0266877 -0.23398444
000280 e1 8c 93 be fc d0 b5 bd 93 bc 1a be cf 1d ac 3d
       -0.2881842 -0.08877751 -0.15110998 0.08404123
000290 0a a1 19 be f8 b3 0f 3e 67 44 03 be 4d 8b 8e 3e
       -0.15002838 0.14033496 -0.12819062 0.27840653
0002a0 b0 ab 73 be 77 56 88 be 39 47 08 be d0 c8 37 3d
       -0.23795962 -0.26628467 -0.1330842 0.044869244
0002b0 06 d8 8a 3e bf 67 07 3d ac eb 6a be 68 4e f8 bd
       0.27117938 0.033057924 -0.22941464 -0.1212433
0002c0 3f ed a0 3c 47 80 ad 3d 6c c1 49 3e 74 35 7c bd
       0.019644378 0.084717326 0.19702691 -0.061574414
0002d0 be 98 8e be 70 13 b8 bd f1 62 15 bf 5f 73 5a 3c
       -0.27850908 -0.089880824 -0.583541 0.013333171
0002e0 7e 77 1d bd 90 1f 12 3e 3c 4d 07 bd dc 61 db bd
       -0.038444035 0.14269853 -0.03303264 -0.107120246
0002f0 07 37 bd be 63 c3 ca 3d 40 3c c4 3b 37 65 a1 be
       -0.36956045 0.09900548 0.0059886277 -0.31522533
000300 18 92 61 be 23 20 ba 3c aa fe 20 3e ba 21 d9 3d
       -0.22028387 0.022720402 0.15722147 0.10602136
000310 bc e7 95 3d 9b ee c6 3c 8a ea 5d be 68 7e 62 3e
       0.073195904 0.024283698 -0.21671501 0.22118533
000320 79 37 16 bd 36 d9 c0 bd 27 2f ca 3e 0d ad 59 3e
       -0.036673997 -0.0941643 0.394891 0.2125742
000330 d5 b6 f1 be 24 00 6b bd 49 f9 10 3d e5 19 4f 3e
       -0.47209802 -0.05737318 0.035393987 0.20224722
000340 3f b2 1d 3e f0 09 e0 3d 47 5a db 3e 22 82 5e be
       0.15400027 0.109393954 0.42842314 -0.21729329
000350 a7 db 03 be 63 e6 89 be 2f 69 5b be 9d d8 72 be
       -0.1287676 -0.26933584 -0.21426843 -0.23715444
000360 25 20 47 3d 1c c3 7c 3e 46 33 16 3e 84 d0 7f bd
       0.04861464 0.24683803 0.14667997 -0.062454715
000370 c0 f6 66 3e 84 b0 68 3e ce b8 9f 3d 4c b6 ff be
       0.22555065 0.22723585 0.077989206 -0.4994377
000380 75 70 52 be 17 45 9f 3d d5 02 87 be 03 14 0a 3d
       -0.20550711 0.0777685 -0.26369348 0.03371049
000390 fd 3b ba 3d fd 44 34 3e c5 32 71 3d 18 07 11 be
       0.09093473 0.17604442 0.05888631 -0.14162862
0003a0 a5 a6 8e 3b b5 d7 c6 bd 14 a7 95 3e 9f 9c 0a be
       0.0043533617 -0.097091116 0.29229033 -0.13536309
0003b0 57 5f b7 be f4 7c d0 3e 8c 6a ab 3d b4 a6 d2 3d
       -0.35814926 0.40720332 0.083699316 0.10285702
0003c0 9d f5 15 be c3 ff 73 3e eb a5 12 be 77 cf 31 3d
       -0.14644475 0.23828034 -0.14321105 0.043410745
0003d0 d9 01 96 bc 3c 03 8e 3d 50 93 f8 3b 53 7e 04 3f
       -0.018311428 0.06934211 0.0075859204 0.51755255
0003e0 58 bf a4 be 20 f4 11 be ac da f6 bd d5 31 8c 3e
       -0.32177234 -0.14253283 -0.12053427 0.2738177
0003f0 f5 7b c5 bd 18 9f cd bb a6 b8 7a 3d 67 34 17 3c
       -0.096427836 -0.006275069 0.06121125 0.009228802

base.mlp.fc_h.0.bias f4 [64]
000000 00 00 00 00 00 00 00 00 00 00 00 00 00 00 00 00
       0.0 0.0 0.0 0.0
000010 00 00 00 00 00 00 00 00 00 00 00 00 00 00 00 00
       0.0 0.0 0.0 0.0
000020 00 00 00 00 00 00 00 00 00 00 00 00 00 00 00 00
       0.0 0.0 0.0 0.0
000030 00 00 00 00 00 00 00 00 00 00 00 00 00 00 00 00
       0.0 0.0 0.0 0.0
000040 00 00 00 00 00 00 00 00 00 00 00 00 00 00 00 00
       0.0 0.0 0.0 0.0
000050 00 00 00 00 00 00 00 00 00 00 00 00 00 00 00 00
       0.0 0.0 0.0 0.0
000060 00 00 00 00 00 00 00 00 00 00 00 00 00 00 00 00
       0.0 0.0 0.0 0.0
000070 00 00 00 00 00 00 00 00 00 00 00 00 00 00 00 00
       0.0 0.0 0.0 0.0
000080 00 00 00 00 00 00 00 00 00 00 00 00 00 00 00 00
       0.0 0.0 0.0 0.0
000090 00 00 00 00 00 00 00 00 00 00 00 00 00 00 00 00
       0.0 0.0 0.0 0.0
0000a0 00 00 00 00 00 00 00 00 00 00 00 00 00 00 00 00
       0.0 0.0 0.0 0.0
0000b0 00 00 00 00 00 00 00 00 00 00 00 00 00 00 00 00
       0.0 0.0 0.0 0.0
0000c0 00 00 00 00 00 00 00 00 00 00 00 00 00 00 00 00
       0.0 0.0 0.0 0.0
0000d0 00 00 00 00 00 00 00 00 00 00 00 00 00 00 00 00
       0.0 0.0 0.0 0.0
0000e0 00 00 00 00 00 00 00 00 00 00 00 00 00 00 00 00
       0.0 0.0 0.0 0.0
0000f0 00 00 00 00 00 00 00 00 00 00 00 00 00 00 00 00
       0.0 0.0 0.0 0.0

base.mlp.fc_h.2.weight f4 [64]
000000 00 00 80 3f 00 00 80 3f 00 00 80 3f 00 00 80 3f
       1.0 1.0 1.0 1.0
000010 00 00 80 3f 00 00 80 3f 00 00 80 3f 00 00 80 3f
       1.0 1.0 1.0 1.0
000020 00 00 80 3f 00 00 80 3f 00 00 80 3f 00 00 80 3f
       1.0 1.0 1.0 1.0
000030 00 00 80 3f 00 00 80 3f 00 00 80 3f 00 00 80 3f
       1.0 1.0 1.0 1.0
000040 00 00 80 3f 00 00 80 3f 00 00 80 3f 00 00 80 3f
       1.0 1.0 1.0 1.0
000050 00 00 80 3f 00 00 80 3f 00 00 80 3f 00 00 80 3f
       1.0 1.0 1.0 1.0
000060 00 00 80 3f 00 00 80 3f 00 00 80 3f 00 00 80 3f
       1.0 1.0 1.0 1.0
000070 00 00 80 3f 00 00 80 3f 00 00 80 3f 00 00 80 3f
       1.0 1.0 1.0 1.0
000080 00 00 80 3f 00 00 80 3f 00 00 80 3f 00 00 80 3f
       1.0 1.0 1.0 1.0
000090 00 00 80 3f 00 00 80 3f 00 00 80 3f 00 00 80 3f
       1.0 1.0 1.0 1.0
0000a0 00 00 80 3f 00 00 80 3f 00 00 80 3f 00 00 80 3f
       1.0 1.0 1.0 1.0
0000b0 00 00 80 3f 00 00 80 3f 00 00 80 3f 00 00 80 3f
       1.0 1.0 1.0 1.0
0000c0 00 00 80 3f 00 00 80 3f 00 00 80 3f 00 00 80 3f
       1.0 1.0 1.0 1.0
0000d0 00 00 80 3f 00 00 80 3f 00 00 80 3f 00 00 80 3f
       1.0 1.0 1.0 1.0
0000e0 00 00 80 3f 00 00 80 3f 00 00 80 3f 00 00 80 3f
       1.0 1.0 1.0 1.0
0000f0 00 00 80 3f 00 00 80 3f 00 00 80 3f 00 00 80 3f
       1.0 1.0 1.0 1.0

base.mlp.fc_h.2.bias f4 [64]
000000 00 00 00 00 00 00 00 00 00 00 00 00 00 00 00 00
       0.0 0.0 0.0 0.0
000010 00 00 00 00 00 00 00 00 00 00 00 00 00 00 00 00
       0.0 0.0 0.0 0.0
000020 00 00 00 00 00 00 00 00 00 00 00 00 00 00 00 00
       0.0 0.0 0.0 0.0
000030 00 00 00 00 00 00 00 00 00 00 00 00 00 00 00 00
       0.0 0.0 0.0 0.0
000040 00 00 00 00 00 00 00 00 00 00 00 00 00 00 00 00
       0.0 0.0 0.0 0.0
000050 00 00 00 00 00 00 00 00 00 00 00 00 00 00 00 00
       0.0 0.0 0.0 0.0
000060 00 00 00 00 00 00 00 00 00 00 00 00 00 00 00 00
       0.0 0.0 0.0 0.0
000070 00 00 00 00 00 00 00 00 00 00 00 00 00 00 00 00
       0.0 0.0 0.0 0.0
000080 00 00 00 00 00 00 00 00 00 00 00 00 00 00 00 00
       0.0 0.0 0.0 0.0
000090 00 00 00 00 00 00 00 00 00 00 00 00 00 00 00 00
       0.0 0.0 0.0 0.0
0000a0 00 00 00 00 00 00 00 00 00 00 00 00 00 00 00 00
       0.0 0.0 0.0 0.0
0000b0 00 00 00 00 00 00 00 00 00 00 00 00 00 00 00 00
       0.0 0.0 0.0 0.0
0000c0 00 00 00 00 00 00 00 00 00 00 00 00 00 00 00 00
       0.0 0.0 0.0 0.0
0000d0 00 00 00 00 00 00 00 00 00 00 00 00 00 00 00 00
       0.0 0.0 0.0 0.0
0000e0 00 00 00 00 00 00 00 00 00 00 00 00 00 00 00 00
       0.0 0.0 0.0 0.0
0000f0 00 00 00 00 00 00 00 00 00 00 00 00 00 00 00 00
       0.0 0.0 0.0 0.0

base.mlp.fc2.0.0.weight f4 [64, 64]
000000 bc e8 3f be 82 f2 97 be 7c d9 9e be 8b 9d 4c 3e
       -0.18741125 -0.29677206 -0.31025302 0.19981973
000010 4d 19 c7 be 0d 0c 90 3d 04 70 a2 3e d1 67 33 be
       -0.3888649 0.070335485 0.31726086 -0.17520072
000020 a7 43 8f 3d 67 21 a3 bd 57 73 c8 bc 00 50 64 bb
       0.069953255 -0.07965355 -0.02446906 -0.0034837723
000030 03 aa 9e bc 54 6c e0 3d 19 50 11 3e 9d 55 ac 3e
       -0.019368177 0.10958162 0.14190711 0.33659068
000040 71 df e4 bd fc 47 7c 3d e8 ae e5 3d 41 2e 9d bc
       -0.111754306 0.061592087 0.11215001 -0.019187095
000050 f3 51 3f 3d d6 98 6f 3d a7 2d 2a 3e 0c 45 4c be
       0.046709012 0.058495365 0.16618977 -0.19948214
000060 63 27 ee 3c 59 6d 0d 3f 25 71 f2 3d fa d9 5e be
       0.029071515 0.55244976 0.11837987 -0.21762839
000070 24 84 6d be 9a 02 15 3c 14 61 e7 bc 7f ce fa be
       -0.23194939 0.009094859 -0.028244533 -0.4898567
000080 62 70 ff bc 9d 4a 4d be e9 a2 40 3d 88 0f 1b be
       -0.031181518 -0.20047994 0.047030363 -0.15142643
000090 3c 5a 90 be fb 6c c9 be e7 48 78 bd 9c f6 0e 3e
       -0.28193843 -0.39340958 -0.0606164 0.13961262
0000a0 e1 a9 fa 3d 8b 4e 22 3e 12 c2 5f 3d 34 7f f3 3c
       0.12239433 0.15850274 0.05462844 0.029723741
0000b0 5a 12 88 3d 01 da 7c be 1f e1 bc be 87 24 05 bf
       0.06644125 -0.24692537 -0.36890504 -0.5200886
0000c0 9c 03 b9 38 1e e4 ec bd 71 51 83 be e7 76 3c 3e
       8.82216e-05 -0.115669474 -0.25648072 0.18404733
0000d0 ab a6 4d 3e 9d 4f 3c 3e a4 6a 1b 3c 59 4d 4a be
       0.2008311 0.18389745 0.009485874 -0.19756068
0000e0 9b eb 35 be ce 92 b3 be ac 79 c1 bd 93 d9 06 bd
       -0.17765658 -0.3507294 -0.09447035 -0.03292234
0000f0 54 fc a9 bd 04 a3 a1 bd 1b ef 6f be 22 30 4d bd
       -0.08300081 -0.07892421 -0.23431055 -0.05009473
000100 94 b0 cf be b9 5d 20 be 3a 12 31 3d 57 c8 bb 3d
       -0.40564406 -0.15660752 0.043230273 0.09169071
000110 71 14 f6 3e 18 62 a6 be 09 85 a3 3c af b3 af bc
       0.4806247 -0.32496715 0.019960897 -0.021447985
000120 7d 08 41 3e 12 22 c1 3d a0 bd 9a 3c 53 fe 57 be
       0.18850894 0.094303265 0.018889248 -0.2109311
000130 9b 4c dc 3d 1a 10 73 3e 08 2c e7 3d c0 41 9b bd
       0.10756799 0.23736611 0.11287695 -0.075809
000140 2f 72 fd be 7a 4b 83 3e ce 45 b0 bc 06 ff 00 bd
       -0.49501178 0.25643522 -0.02151766 -0.03149321
000150 08 e7 ab 3e 0c 86 62 be ac c5 c2 3d 27 b5 24 bd
       0.335747 -0.22121447 0.09510359 -0.040211823
000160 93 d5 e5 3c 15 2d 44 3e 24 b6 98 be 1b 32 de bd
       0.028055942 0.19157822 -0.29826462 -0.108494006
000170 8b 34 b1 be 84 bb 02 3e 49 f9 9c 3e bb f5 1b 3e
       -0.346104 0.12766844 0.3065894 0.15230457
000180 ea 5d ed bc 80 b9 a3 3d d1 c4 a5 be 6b 45 bf bd
       -0.028975446 0.07994366 -0.32376722 -0.09339412
000190 8b 0a cd be c9 ad fa 3d 9a 67 1e 3e f0 82 9e be
       -0.40047106 0.12240178 0.15469208 -0.30959272
0001a0 c3 c6 46 be 3b 18 20 be 9a 54 14 bc 67 0d 88 3e
       -0.19411759 -0.15634243 -0.009053374 0.26572725
0001b0 a4 ea 21 be be 33 16 3d 70 c9 11 be 3e 17 a0 3d
       -0.15812165 0.03667044 -0.14236999 0.07816933
0001c0 ff 25 7f 3e bd 8e a8 3c 46 68 8b 3d 16 76 24 3e
       0.24916838 0.020575875 0.06806998 0.16060671
0001d0 f4 b6 89 bd 59 13 72 3d 44 12 98 be 50 63 e5 bb
       -0.06724349 0.059100483 -0.29701436 -0.0070003644
0001e0 35 7a c4 3c 22 d3 20 3d 72 0e d9 bc 41 a9 8f bd
       0.023984054 0.039263852 -0.026496146 -0.070147045
0001f0 c6 14 42 be f0 b4 63 be ee f8 ec 3e ce ea b9 3e
       -0.18953237 -0.22236991 0.46283668 0.36311954
000200 e9 62 73 3e a8 ca a0 be 57 b0 ac bd be 26 a9 3e
       0.237682 -0.31404614 -0.08432072 0.3303737
000210 f7 24 99 3e 1e de c7 3e 22 16 09 3d 8b cb 61 be
       0.29911014 0.3903665 0.033468373 -0.22050302
000220 9f f8 ac 3c 13 60 dc bb 0b db f5 3c 32 e2 a3 bd
       0.021114646 -0.00672532 0.030011674 -0.08002128
000230 72 59 21 be da 69 a4 be f0 69 9d 3e 03 17 de be
       -0.15756777 -0.32112008 0.30744886 -0.43376932
000240 b3 e8 7b 3d ae db 92 3e 03 c1 0c 3e de d2 38 3e
       0.061501216 0.28683227 0.13745503 0.1804919
000250 a5 d5 23 be 55 a4 86 3e c8 75 09 3e 79 9f d1 3d
       -0.15999468 0.2629725 0.13423836 0.10235495
000260 1b f0 94 be 5f 79 9c bd d9 6b ea 3d 5e ae e7 bc
       -0.29089436 -0.07640337 0.114463516 -0.028281387
000270 b2 07 82 3e 1f d8 fb 3d 5d e9 b7 3c 2b 5a 6c be
       0.25396496 0.12297081 0.022450143 -0.23081271
000280 07 6f 91 be 2f cf dc bd d8 f3 14 be 0a bb ad 3d
       -0.2840502 -0.10781705 -0.14546144 0.084829405
000290 3a de 18 be e2 f6 12 3e 25 4e 0b be 26 30 8e 3e
       -0.14928523 0.14351991 -0.13604029 0.2777111
0002a0 b2 07 75 be fa 6c 85 be 0f e5 0b be f3 e9 4d 3d
       -0.23928717 -0.26059705 -0.13661598 0.05027194
0002b0 38 60 8c 3e 29 b1 8f 3c e6 b1 64 be 12 5b 0a be
       0.2741716 0.017540531 -0.22333488 -0.13511303
0002c0 b6 c1 34 3c 9a 35 a7 3d 24 05 48 3e 22 f9 93 bd
       0.011032512 0.081645206 0.19533211 -0.07225253
0002d0 70 47 8e be 13 98 b3 bd 01 63 14 bf 35 8e 54 bc
       -0.27788877 -0.0876924 -0.5796357 -0.012973358
0002e0 22 e4 24 bd c1 dd 15 3e 67 50 03 bd b3 d8 d1 bd
       -0.040256627 0.14635374 -0.0320591 -0.1024641
0002f0 b7 ed c0 be 2b 68 b1 3d ab 91 5d 3c 02 34 a2 be
       -0.37681362 0.086624466 0.0135234995 -0.31680304
000300 1d 37 68 be a6 0d ce 3c 9e f9 28 3e 99 4c e0 3d
       -0.22677274 0.025152992 0.16501471 0.1095211
000310 5b e7 9b 3d 30 4b e9 3c a5 c0 63 be df 8d 73 3e
       0.07612487 0.028478235 -0.22241457 0.23784588
000320 1f 46 a4 bc 05 0b d9 bd 08 c6 ca 3e f6 09 5c 3e
       -0.020052968 -0.10597805 0.3960421 0.21488175
000330 90 46 f3 be f0 43 4f bd b7 65 4a 3d 94 8c 54 3e
       -0.47514772 -0.0506019 0.04941341 0.20756751
000340 4e 70 1e 3e e8 2e e1 3d a1 f2 d8 3e 96 7c 55 be
       0.15472528 0.10995275 0.4237261 -0.20848307
000350 3c 22 01 be 8e be 8a be ae 86 70 be 51 ee 72 be
       -0.12610716 -0.27098507 -0.23488876 -0.23723723
000360 0d a7 53 3d 28 97 72 3e ec 01 12 3e b3 dc 86 bd
       0.051672984 0.23690474 0.14258546 -0.06585064
000370 3b ed 6f 3e e4 08 65 3e a3 64 62 3d 8b 47 02 bf
       0.2343034 0.22366673 0.055271756 -0.50890416
000380 e4 66 51 be 5d 81 7a 3d 98 5f 8b be ff 30 1d 3d
       -0.20449406 0.061158527 -0.2722137 0.038376804
000390 78 06 bd 3d ce 6e 3d 3e 2f 61 7a 3d 10 15 13 be
       0.092297494 0.184993 0.061127838 -0.14363503
0003a0 0f 0a a2 3b e8 b0 bc bd 67 7d 96 3e 09 7b 07 be
       0.0049450467 -0.0921343 0.2939255 -0.13230528
0003b0 d1 03 b6 be 82 ae d0 3e 2b 11 b4 3d f4 eb ae 3d
       -0.35549787 0.4075814 0.08792337 0.08541098
0003c0 f1 82 2f be 2a 01 72 3e be f1 0a be c8 ae 0f 3d
       -0.17139794 0.23633257 -0.1356878 0.035078794
0003d0 77 9e 94 bc 2f 19 96 3d 92 62 35 3c 77 57 fb 3e
       -0.018141968 0.07329022 0.011070864 0.49090168
0003e0 a7 4d a5 be f3 65 0b be a2 1d f1 bd 08 2a 8e 3e
       -0.32285807 -0.1361311 -0.1177323 0.27766442
0003f0 4e 28 d8 bd 0c 69 c9 bc fc 28 86 3d 96 ed 01 3c
       -0.105545625 -0.024586223 0.06550786 0.00793018

base.mlp.fc2.0.0.bias f4 [64]
000000 74 ef de 3b 52 73 55 bb e7 56 44 3b b2 4f b0 3a
       0.0068034474 -0.0032569957 0.0029959024 0.0013451485
000010 76 a9 90 3b ba 1b 02 3c d2 84 d6 3c 1b 66 ce 3a
       0.0044147326 0.007941181 0.02618638 0.0015746983
000020 41 c4 f7 3b e3 f6 7e bb 3b a8 6e bc 8f 28 22 bc
       0.007561237 -0.003890448 -0.014566476 -0.009897365
000030 9b 7e 93 bc 99 64 35 3c 09 5f 98 bb ae 6f 45 3c
       -0.018004706 0.011071348 -0.004650001 0.012050552
000040 74 ee 5f bc d0 4d a1 bb 65 8b 4f 39 02 ac 10 bb
       -0.0136676915 -0.004922606 0.00019792987 -0.002207518
000050 d4 be 96 3c 82 b0 aa bc e7 80 22 3b 59 52 c8 bc
       0.01840154 -0.020836119 0.002479607 -0.024453329
000060 36 b9 51 bd a4 63 c5 38 a6 ea 47 bc 02 3f cc bb
       -0.05120202 9.4122515e-05 -0.012201941 -0.006233097
000070 44 67 80 bc 48 0f aa bb 60 61 d2 3c fa 95 ec bc
       -0.01567424 -0.00518981 0.025681198 -0.028880108
000080 ca b7 8b bb 61 94 89 3c 8a 9d 4d 3c b7 c8 db bb
       -0.0042638527 0.016794385 0.012549767 -0.0067072767
000090 6a 92 0a bc a3 10 e8 bb f1 dc 4c bb 32 de ad bb
       -0.008457759 -0.0070820614 -0.003125962 -0.0053060288
0000a0 b0 ef 3d 3c 47 d2 a6 3c d7 72 ff bb 0e ed fa bc
       0.0115927905 0.02036394 -0.0077956724 -0.030630615
0000b0 9f b1 a5 bc e9 e1 4f 3c 31 3b 58 3c 7c 61 6a bb
       -0.020226298 0.0126881385 0.013197706 -0.0035763672
0000c0 34 ac e1 3b 7e a2 4e bc 57 30 a9 bb 8e 21 d1 3b
       0.0068869833 -0.012611983 -0.0051632333 0.006382174
0000d0 a4 64 b5 bc 16 9a 01 bc 07 93 2b bb 98 57 13 3b
       -0.022142716 -0.007910272 -0.0026180164 0.002248263
0000e0 0a c3 a5 3b 19 87 83 ba f9 ea c6 bb 8a bc 0e 3c
       0.005058651 -0.0010034769 -0.0060704914 0.008711943
0000f0 27 c9 fe bb 94 a8 63 bb 02 7a 08 3c a0 27 eb bb
       -0.007775444 -0.0034737932 0.00832987 -0.0071763545

base.mlp.fc2.0.2.weight f4 [64]
000000 82 de 7d 3f 4e 73 80 3f ca 9a 7e 3f 74 66 7d 3f
       0.99167645 1.0035188 0.9945494 0.98984456
000010 c5 e1 7d 3f 85 52 7f 3f 67 ea 7d 3f 76 5a 82 3f
       0.9917262 0.9973529 0.99185795 1.0183856
000020 af 6a 7d 3f a2 73 80 3f ed cd 80 3f 0c 4b 80 3f
       0.9899091 1.0035288 1.0062844 1.0022902
000030 9b 38 7e 3f 13 4c 7f 3f 20 09 81 3f f2 ce 7d 3f
       0.99305123 0.99725455 1.008091 0.991439
000040 2e 88 7a 3f 93 a0 7b 3f d0 f2 7b 3f f5 96 80 3f
       0.97864044 0.9829189 0.9841738 1.0046068
000050 4a d4 79 3f 64 d7 7b 3f e5 49 80 3f ff 4e 7d 3f
       0.9758955 0.98375535 1.0022551 0.98948663
000060 f9 87 7b 3f 94 91 80 3f 75 f4 7e 3f 1f b1 7d 3f
       0.9825435 1.0044427 0.9959176 0.9909839
000070 97 d4 7c 3f cd 03 7b 3f ea c4 7e 3f e7 a3 7d 3f
       0.98761886 0.98052675 0.99519217 0.9907822
000080 76 51 80 3f 53 eb 7d 3f 18 25 80 3f 7b 57 80 3f
       1.002486 0.991872 1.001132 1.0026697
000090 b0 eb 80 3f 58 6d 7c 3f dd 59 7f 3f 70 27 7e 3f
       1.0071926 0.98604345 0.99746495 0.99278927
0000a0 48 40 78 3f 68 24 7d 3f 53 2c 7c 3f 75 8d 7e 3f
       0.96973085 0.98883677 0.98505133 0.99434596
0000b0 ca f0 81 3f eb 6b 7a 3f d9 bc 7d 3f be 1c 7b 3f
       1.0151608 0.9782092 0.99116284 0.9809073
0000c0 be 49 76 3f d1 19 80 3f 6d 95 78 3f 14 19 81 3f
       0.9620627 1.0007879 0.97103006 1.0085778
0000d0 cb 3c 81 3f 87 4a 7d 3f 95 8f 81 3f b3 52 7c 3f
       1.0096678 0.98941845 1.0121943 0.9856369
0000e0 eb 4b 80 3f d0 43 81 3f ac ba 7d 3f 54 9a 7d 3f
       1.0023168 1.009882 0.99112964 0.9906361
0000f0 4c 9e 80 3f b1 d1 80 3f b1 75 7d 3f e3 3b 7f 3f
       1.0048308 1.0063993 0.9900771 0.99700755

base.mlp.fc2.0.2.bias f4 [64]
000000 7d d5 55 3b f8 87 34 bb b8 a5 97 bb 1b d9 91 bb
       0.003262847 -0.0027546864 -0.0046279095 -0.00445093
000010 9e 2d 5d 3b 73 bd 80 bb 10 5f 77 bb bf 8a 57 3b
       0.0033749114 -0.003928834 -0.003774587 0.0032889096
000020 13 7c 89 bb ab 15 59 3b 86 e9 f0 ba d6 4c 47 bb
       -0.004195699 0.0033124487 -0.0018380142 -0.0030410788
000030 a3 4f 93 ba 0f dc 30 3a 97 60 4c bb 69 bf 62 3b
       -0.0011238944 0.00067466585 -0.0031185502 0.0034598953
000040 98 70 47 bb 50 7a a9 3b f1 3d 47 3b ab a6 17 3b
       -0.0030432101 0.0051720515 0.003040191 0.0023140113
000050 28 21 7a 39 e6 1d 8f 3b 17 75 08 3b 8e 06 8a 3b
       0.0002385421 0.004367578 0.0020821744 0.004212207
000060 97 61 81 3c f9 fa 4b 3b 6f aa 55 bb c6 9a 82 bb
       0.015793605 0.0031124933 -0.0032602807 -0.0039857356
000070 8a 0e f1 ba ee 0a 6d bb 09 bf 9d bb ac 37 9a 3b
       -0.0018391174 -0.0036169845 -0.004814033 0.0047063436
000080 b3 e4 48 bb b4 83 9e bb 19 1b 3a 3b 88 01 53 bb
       -0.0030653893 -0.0048374776 0.00283975 -0.0032196958
000090 85 ba 4b 3b 61 44 86 3b 62 86 46 3b 69 aa 1d bb
       0.0031086516 0.004097507 0.00302925 -0.0024057871
0000a0 c1 e3 1e 3c db 54 84 bb 5c f6 82 bb da 1b 7b 3b
       0.009697855 -0.004038436 -0.0039966535 0.0038316161
0000b0 7f 46 26 bb c2 b8 d3 3a 72 ed 37 3b fb 07 82 3b
       -0.0025371609 0.0016153085 0.0028065112 0.0039682365
0000c0 e6 ae 75 bb 4f 8b 3c bb aa 69 6c bb 35 df 59 bb
       -0.003748828 -0.0028769558 -0.0036073723 -0.0033244614
0000d0 71 fa fa 3b f4 32 68 bb 61 ae 53 bb 7e 64 85 3b
       0.0076592495 -0.003543076 -0.0032299983 0.0040708175
0000e0 f0 cb e3 3a 5f 16 36 3b 9d 94 59 bb 17 db 52 3b
       0.0017379504 0.002778433 -0.0033200153 0.0032174045
0000f0 5c 3f 5d 3b cd 71 0d 3b 42 c3 85 bb 35 0b 4d bb
       0.003375969 0.0021582723 -0.0040821144 -0.0031287197

v_out.weight f4 [1, 64]
000000 71 e5 82 3e 68 64 98 bd 21 d8 53 bd f1 1d fe bc
       0.25565675 -0.07441026 -0.05171979 -0.031020137
000010 6d cc 31 3e 48 53 1e be 7d 23 9d be 5e 49 fc 3d
       0.17363138 -0.15461457 -0.30691138 0.12318681
000020 1c b7 96 bd 64 43 46 3e 65 32 2d bd 36 bc fa bd
       -0.07359144 0.19361645 -0.042284388 -0.1224293
000030 c5 39 91 bc 12 59 b3 3c 37 32 ee bd 56 4f a5 3d
       -0.017727742 0.021893058 -0.116306715 0.08071773
000040 5e 70 1a bd 2b b0 9f 3c 8d dd 82 3d cc d1 4f 3d
       -0.037704818 0.019493183 0.06389914 0.050737187
000050 f1 4c 22 3b 34 c5 91 3d 60 67 22 3d 3c 49 ae 3d
       0.00247651 0.07117692 0.039649367 0.08510062
000060 2f 63 c8 bb 3a e0 f5 3d 9f d3 11 be ee ef 88 bd
       -0.006115339 0.120056584 -0.14240883 -0.06686388
000070 91 3b ad bc 5c 89 5b be 23 a1 37 bd de a9 60 3d
       -0.021146568 -0.21439117 -0.044831406 0.054849498
000080 eb 54 d1 bd 67 1d 03 bd da 56 9a 3d 6d eb 5a be
       -0.10221275 -0.032010462 0.07536097 -0.2137887
000090 5a 05 e8 3d 52 8b 08 3e d8 56 c4 3d eb 8e 88 bd
       0.11329146 0.13334396 0.09586877 -0.066678844
0000a0 d3 c9 44 bb 32 15 13 be 80 10 b6 bc 45 c9 67 3e
       -0.0030027523 -0.14363554 -0.022224665 0.22635372
0000b0 5a bb 87 bd 9d 08 e1 3c 6b 44 1f 3d 99 d7 37 3e
       -0.06627531 0.027469927 0.038883608 0.17953338
0000c0 ec 20 54 be 0a 7e b4 bd 58 c1 04 be 2e e7 5d be
       -0.20715684 -0.088131025 -0.1296438 -0.2167022
0000d0 62 22 77 bc 41 67 e3 bd 30 88 0b be 07 83 ed 3d
       -0.015083881 -0.111036785 -0.1362617 0.11597257
0000e0 21 b8 01 3d bc a8 8f 3d 34 e2 f5 bd ad fa 3f 3e
       0.03166974 0.070146054 -0.120060354 0.18747969
0000f0 7b 44 32 3e d8 86 16 3d 1e 36 e2 bd e5 2d 07 be
       0.17408936 0.03674969 -0.11045478 -0.13201101
