results/MyEnv/MyEnv/mappo/check/run90/models/critic_agent0.pt (torch, 89374 bytes, 15 tensors)

base.feature_norm.weight f4 [182]
0	0x3f7f845d	0.99811345
1	0x3f7ff988	0.9999013
2	0x3f7fe6ff	0.9996185
3	0x3f803f62	1.0019343
4	0x3f8044bc	1.0020976
5	0x3f801886	1.0007484
6	0x3f7fa260	0.9985714
7	0x3f8015e4	1.000668
8	0x3f7fa3b1	0.9985915
9	0x3f7efb49	0.9960218
10	0x3f800fc9	1.0004817
11	0x3f8031af	1.0015162
12	0x3f800029	1.0000049
13	0x3f80124d	1.0005585
14	0x3f802d2b	1.0013784
15	0x3f805360	1.0025444
16	0x3f7fd9b1	0.99941546
17	0x3f800669	1.0001956
18	0x3f802f52	1.0014441
19	0x3f7fab03	0.9987032
20	0x3f80132d	1.0005852
21	0x3f7fd433	0.99933165
22	0x3f80ab13	1.0052208
23	0x3f800902	1.0002749
24	0x3f8014ed	1.0006386
25	0x3f80454d	1.0021149
26	0x3f803e73	1.0019058
27	0x3f7f723f	0.997837
28	0x3f802172	1.0010207
29	0x3f7ff168	0.9997773
30	0x3f7f9523	0.9983694
31	0x3f8021f0	1.0010357
32	0x3f804476	1.0020893
33	0x3f804bd4	1.0023141
34	0x3f80204f	1.000986
35	0x3f7f78c1	0.9979363
36	0x3f7ff469	0.99982315
37	0x3f8017aa	1.0007222
38	0x3f7fbadd	0.99894506
39	0x3f7fb855	0.99890643
40	0x3f7efa41	0.9960061
41	0x3f7fcd9b	0.99923104
42	0x3f804dc9	1.0023738
43	0x3f7fe22a	0.99954474
44	0x3f805eaf	1.0028895
45	0x3f802d1b	1.0013765
46	0x3f801f3a	1.000953
47	0x3f7fe1f0	0.9995413
48	0x3f805532	1.0026
49	0x3f802433	1.0011047
50	0x3f7f412b	0.99708813
51	0x3f800834	1.0002503
52	0x3f800021	1.0000039
53	0x3f804ac2	1.0022814
54	0x3f802a7b	1.0012964
55	0x3f7fe7f5	0.99963313
56	0x3f7fdd9f	0.9994754
57	0x3f807baf	1.0037745
58	0x3f7fca36	0.99917924
59	0x3f7f814a	0.99806654
60	0x3f8017d5	1.0007273
61	0x3f8005b8	1.0001745
62	0x3f800606	1.0001838
63	0x3f800f58	1.0004683
64	0x3f8020e7	1.0010041
65	0x3f8040b1	1.0019742
66	0x3f801d1d	1.0008885
67	0x3f7f4ac3	0.9972345
68	0x3f7fc96d	0.99916726
69	0x3f801b16	1.0008266
70	0x3f7fc1d6	0.99905145
71	0x3f7fa2b8	0.99857664
72	0x3f8005af	1.0001734
73	0x3f80153a	1.0006478
74	0x3f801ff4	1.0009751
75	0x3f8028d4	1.001246
76	0x3f7f2159	0.9966026
77	0x3f7fe894	0.9996426
78	0x3f801749	1.0007106
79	0x3f7fc1c3	0.9990503
80	0x3f7f4c03	0.9972536
81	0x3f803da4	1.0018811
82	0x3f801db0	1.000906
83	0x3f800da0	1.0004158
84	0x3f7fee41	0.9997292
85	0x3f80097c	1.0002894
86	0x3f8024f3	1.0011276
87	0x3f800065	1.000012
88	0x3f7ec356	0.9951681
89	0x3f7f8ae5	0.9982131
90	0x3f7f7c19	0.99798733
91	0x3f7f6fa3	0.9977972
92	0x3f7fb51b	0.9988572
93	0x3f8019d1	1.0007879
94	0x3f8006b7	1.0002049
95	0x3f801b25	1.0008284
96	0x3f7fb4d3	0.9988529
97	0x3f7fb580	0.9988632
98	0x3f7fcb87	0.99919933
99	0x3f7fd2bf	0.9993095
100	0x3f8063bb	1.0030435
101	0x3f7fbe3e	0.9989966
102	0x3f801937	1.0007695
103	0x3f7fbff8	0.99902296
104	0x3f7f3d1b	0.99702615
105	0x3f801a5f	1.0008048
106	0x3f7e7c36	0.9940828
107	0x3f800a20	1.000309
108	0x3f7fa414	0.9985974
109	0x3f80113a	1.0005257
110	0x3f7ffd6d	0.9999607
111	0x3f801998	1.000781
112	0x3f800045	1.0000082
113	0x3f800dee	1.0004251
114	0x3f7f8937	0.9981875
115	0x3f7f4cd7	0.99726623
116	0x3f7ff511	0.99983317
117	0x3f801e22	1.0009196
118	0x3f7fb236	0.99881303
119	0x3f7f79ba	0.99795115
120	0x3f7fd5b5	0.99935466
121	0x3f7fa5c8	0.9986234
122	0x3f80b8de	1.0056417
123	0x3f800e17	1.00043
124	0x3f7fbfad	0.9990185
125	0x3f801701	1.000702
126	0x3f802fad	1.001455
127	0x3f801a66	1.0008056
128	0x3f7ff080	0.9997635
129	0x3f800ca6	1.000386
130	0x3f7faac5	0.9986995
131	0x3f801ddb	1.0009111
132	0x3f8000db	1.0000261
133	0x3f7fe93b	0.99965256
134	0x3f7ff8f0	0.99989223
135	0x3f7fb174	0.99880147
136	0x3f8020ed	1.0010048
137	0x3f802113	1.0010093
138	0x3f7f8fcd	0.998288
139	0x3f7faa40	0.99869156
140	0x3f801c0c	1.0008559
141	0x3f8061bc	1.0029826
142	0x3f7fa6e7	0.9986405
143	0x3f802610	1.0011616
144	0x3f8008b4	1.0002656
145	0x3f7f68b5	0.99769145
146	0x3f7f74cc	0.9978759
147	0x3f7fcb4d	0.9991959
148	0x3f7fb205	0.9988101
149	0x3f7e91e9	0.9944139
150	0x3f801dfc	1.000915
151	0x3f7fbfa3	0.9990179
152	0x3f80201d	1.00098
153	0x3f7f258f	0.99666685
154	0x3f7fb8f9	0.9989162
155	0x3f80100e	1.00049
156	0x3f8011fb	1.0005487
157	0x3f802651	1.0011693
158	0x3f800441	1.0001298
159	0x3f7fd70e	0.9993752
160	0x3f80116b	1.0005316
161	0x3f803013	1.0014671
162	0x3f7fc197	0.9990477
163	0x3f7fc2f5	0.99906856
164	0x3f80cd9a	1.0062745
165	0x3f7f30b9	0.9968372
166	0x3f800913	1.0002769
167	0x3f7ff27c	0.99979377
168	0x3f7ffd65	0.99996024
169	0x3f801bb9	1.000846
170	0x3f801c33	1.0008606
171	0x3f802652	1.0011694
172	0x3f7fd265	0.9993041
173	0x3f800a37	1.0003117
174	0x3f7ff0fc	0.9997709
175	0x3f7fd5e1	0.9993573
176	0x3f800eef	1.0004557
177	0x3f804ed3	1.0024055
178	0x3f804c68	1.0023317
179	0x3f802060	1.000988
180	0x3f7f609b	0.99756783
181	0x3f8034d6	1.0016124

base.feature_norm.bias f4 [182]
0	0x3af12788	0.0018398622
1	0x38577f2c	5.1378433e-05
2	0x39de8e96	0.00042449374
3	0xbae0e04a	-0.0017156687
4	0xbb0e3f68	-0.0021705274
5	0xba3c68cb	-0.0007187246
6	0x3a92f0c6	0.0011210672
7	0xba2d8f53	-0.0006620783
8	0x3ab75335	0.001398659
9	0xba878fa7	-0.0010342494
10	0xba1cdc41	-0.0005983748
11	0xbac3eba1	-0.0014947542
12	0x38138298	3.5169156e-05
13	0xba1cb4eb	-0.00059778866
14	0x3ab2b7ac	0.0013635061
15	0xbb28d3cf	-0.0025761013
16	0x3a1468d5	0.0005661373
17	0xb97a3ab9	-0.00023863734
18	0xbab952e1	-0.001413908
19	0xbaaab8a2	-0.0013024996
20	0x3a1ab603	0.00059017556
21	0xba2a22e5	-0.0006490185
22	0x3baadcfa	0.0052143307
23	0x399c5172	0.0002981532
24	0x3a283d8b	0.0006417862
25	0x3b0a92b5	0.0021144573
26	0x3af95f90	0.0019025672
27	0xbb0e268d	-0.0021690459
28	0x3a87e072	0.0010366573
29	0xb975a23e	-0.0002342546
30	0xbad90edf	-0.0016560218
31	0x3a87abd1	0.0010350888
32	0x3b09a477	0.002100257
33	0x3b16a5d3	0.0022987023
34	0x3a827c4d	0.0009955257
35	0xbb0704f3	-0.0020602315
36	0xb8bb2d73	-8.9253204e-05
37	0x3a3c70ef	0.0007188459
38	0xba8c8c9f	-0.0010723061
39	0xba919348	-0.0011106515
40	0xbb822448	-0.00397161
41	0xba485f21	-0.000764357
42	0x3b1b0723	0.0023655377
43	0xb9f259ef	-0.00046224843
44	0x3b3ee3da	0.002912751
45	0x3ab5f7ad	0.0013883017
46	0x3a7ae370	0.0009570634
47	0xb9f9e21d	-0.00047661448
48	0x3b29739d	0.0025856264
49	0x3a92d97f	0.0011203735
50	0xbb408584	-0.0029376457
51	0x398aabc6	0.00026449392
52	0x36b43697	5.370773e-06
53	0x3b1735cd	0.002307284
54	0x3ab7c058	0.0014019115
55	0x3a032eb1	0.0005004211
56	0xba0b31e2	-0.00053098623
57	0x3b789b18	0.003793424
58	0xba5801dc	-0.0008240023
59	0xbafde5c3	-0.0019370842
60	0x3a47cb80	0.00076215714
61	0x392c3118	0.00016421487
62	0x3940f59a	0.0001840204
63	0x39f3f814	0.00046533404
64	0x3a83db10	0.0010059793
65	0x3b023b3f	0.001987174
66	0x3a68720a	0.0008867091
67	0xbb331a8f	-0.0027329063
68	0xba5d6b74	-0.0008446493
69	0x3a5ad826	0.00083482487
70	0xba602110	-0.00085498486
71	0xbab8c697	-0.001409727
72	0x393d78de	0.00018069471
73	0x3a23fd67	0.00062557164
74	0x3a7b37cc	0.00095832045
75	0x3aa3e848	0.0012505138
76	0xbb5e1618	-0.003388768
77	0xb9c13767	-0.00036853107
78	0x3a422289	0.0007405659
79	0xba77a057	-0.0009446195
80	0xbb33db3d	-0.0027443909
81	0x3af74f87	0.0018868305
82	0x3a6d2e61	0.00090477435
83	0x39d6664e	0.00040893484
84	0xb98cd0d4	-0.0002685847
85	0x399239b0	0.0002789027
86	0x3a91125c	0.0011068094
87	0x3798b324	1.820323e-05
88	0xbb9e3bea	-0.0048289197
89	0xbaeb6159	-0.0017958089
90	0xbb086c5a	-0.0020816536
91	0x3b0d34a2	0.0021546264
92	0x3aa0a1b7	0.0012255226
93	0xba4180ff	-0.00073815876
94	0x394c04d3	0.00019456753
95	0xba650c15	-0.0008737457
96	0x3aa252e4	0.0012384322
97	0x3a4747ff	0.0007601976
98	0x3a48a4e1	0.00076539634
99	0x3a31307e	0.000675924
100	0xbb4dd838	-0.0031409394
101	0x3a9528dc	0.0011379975
102	0xba40f804	-0.0007361176
103	0x3a78a56e	0.00094851
104	0x3b4757d1	0.0030417333
105	0x3a504ad4	0.00079457206
106	0x3bc24e1a	0.0059297206
107	0xb9b41d62	-0.00034354167
108	0x3ab45fff	0.0013761519
109	0xb9fef8b0	-0.00048631942
110	0xb8419f48	-4.6163128e-05
111	0x3a4d1d95	0.00078245375
112	0x3710b432	8.625024e-06
113	0x39de949c	0.00042453862
114	0xbaeac5a5	-0.0017911686
115	0xbb349d56	-0.00275596
116	0xb92a74d8	-0.00016255991
117	0x3a735d53	0.0009283621
118	0xbaa00007	-0.0012207039
119	0xbb07ebbf	-0.002073988
120	0xba2b588e	-0.0006536328
121	0xbab322bf	-0.0013666971
122	0x3bb9aa2d	0.0056660385
123	0x39df8a56	0.00042636943
124	0xba7f16e8	-0.00097308913
125	0x3a3ff379	0.0007322352
126	0x3abe16b1	0.0014502612
127	0x3a539415	0.0008071077
128	0xb97628aa	-0.00023475537
129	0x39c7c02f	0.00038099426
130	0xbaaa7ae2	-0.0013006593
131	0x3a6ecf24	0.0009109846
132	0x382e51a1	4.1560856e-05
133	0xb9c2cd5f	-0.00037155577
134	0xb8c714c7	-9.4929295e-05
135	0xba9d8c3b	-0.0012019941
136	0x3a842b5e	0.0010083725
137	0x3a85a955	0.001019756
138	0xbadf3cc5	-0.001703166
139	0xbaabccb6	-0.0013107273
140	0x3a610cdb	0.00085849845
141	0x3b43e2f5	0.0029889916
142	0xbab23616	-0.0013596441
143	0x3a97dbba	0.0011585869
144	0x398f64a6	0.00027350074
145	0xbb1c9827	-0.00238944
146	0xbb0a4bee	-0.0021102387
147	0xba53664c	-0.00080642547
148	0xba9ccd2d	-0.0011963003
149	0xbbb73fe9	-0.0055923355
150	0x3a6ca78c	0.0009027652
151	0xba822ddb	-0.0009931879
152	0x3a80ffb5	0.0009841832
153	0xbb5ad238	-0.003338946
154	0xba8e9bce	-0.0010880174
155	0x3a00f444	0.0004919211
156	0x3a11b4d0	0.0005558254
157	0x3a9834e1	0.0011612439
158	0x390c4e49	0.00013380604
159	0xba24bbf8	-0.0006284113
160	0x3a0ae5fd	0.0005298553
161	0x3ac297e7	0.0014846296
162	0xba7c3a29	-0.00096217036
163	0xba869fd8	-0.0010271026
164	0x3bcdd0ef	0.0062810103
165	0xbb4f0227	-0.0031586976
166	0x398c1195	0.0002671598
167	0xb94ba2bf	-0.00019420216
168	0xb8571aac	-5.1284835e-05
169	0x3a60c633	0.0008574456
170	0x3a63e378	0.0008693258
171	0x3a99611f	0.0011701918
172	0xba3b0dcb	-0.0007135539
173	0x39a00b94	0.00030526205
174	0xb960f8f1	-0.00021455043
175	0xba22f642	-0.0006216505
176	0x39f945e9	0.00047545068
177	0x3b22346c	0.0024750484
178	0x3b19c8e0	0.0023465678
179	0x3a82ba44	0.0009973724
180	0xbb20a725	-0.0024513688
181	0x3ad3e235	0.0016165437

base.mlp.fc1.0.weight f4 [64, 182]
0	0xbdf31f50	-0.11871207
1	0x3d81f681	0.06345845
2	0xbda3c10b	-0.079958044
3	0xbd09d298	-0.033648103
4	0xbe7e89d9	-0.24857272
5	0xbd8a84e9	-0.06763632
6	0xbd2aac28	-0.041668087
7	0xbe084b94	-0.13310081
8	0xbd32a51f	-0.043614503
9	0x3e2fef34	0.17181093
10	0x3d9e848f	0.07740127
11	0xbe199b02	-0.15000537
12	0x3d6b76ac	0.05748622
13	0x3d5ba35a	0.05362258
14	0x3d9fb5f4	0.07798377
15	0xbe0f0f34	-0.13970643
16	0xbbfcb4dc	-0.00771199
17	0xbe1b5dfa	-0.15172568
18	0x3da7fd91	0.08202661
19	0xbc6190a3	-0.013767394
20	0xbe51d29c	-0.20490497
21	0x3e559154	0.2085622
22	0x3c8eddd5	0.017439762
23	0xbe350c69	-0.17680515
24	0x3d945887	0.07243448
25	0xbe192bec	-0.14958161
26	0x3e3704c8	0.17872918
27	0xbe4cded8	-0.20006883
28	0x3e2f48b7	0.17117582
29	0x3e80b7de	0.2514028
30	0xbdaa920c	-0.083286375
31	0xbc8edfb3	-0.017440652
32	0xbe7ffef0	-0.24999595
33	0xbe18a219	-0.14905585
34	0xbd8aa162	-0.067690626
35	0xbdff084d	-0.12452755
36	0x3e104692	0.1408942
37	0xbe4fae03	-0.20281224
38	0x3cf19ca5	0.02949364
39	0x3de3bce8	0.111200154
40	0xbdb7be0d	-0.08971796
41	0x3dea30a7	0.11435061
42	0xbca7e51a	-0.020494986
43	0xbdb3e97d	-0.08784769
44	0xbdf50f58	-0.11965817
45	0x3e925ee4	0.2858802
46	0x3d818796	0.06324689
47	0xbe044309	-0.12916197
48	0x3dd771f6	0.10519783
49	0xbdc94088	-0.098267615
50	0x3d7054dd	0.058674682
51	0xbc3e9ec7	-0.011634535
52	0x3d402fd7	0.046920624
53	0xbd4a73f9	-0.049427006
54	0x3ddb909a	0.1072094
55	0xbc91f863	-0.017818635
56	0xbe145b2f	-0.14487909
57	0x3d40faa1	0.04711402
58	0x3d07523f	0.03303742
59	0x3cd5304b	0.026024004
60	0x3e4ba132	0.1988571
61	0xbddf71b7	-0.10910361
62	0xbc146cdb	-0.009059156
63	0x3c6c9bb0	0.014441416
64	0x3e811f21	0.25219062
65	0x3c1cfda1	0.009581954
66	0x3d75986d	0.059959818
67	0x3d1cec0f	0.03831106
68	0xbdd2d087	-0.1029368
69	0x3cbfbc94	0.02340535
70	0x3d9975a2	0.0749314
71	0xbdd1323d	-0.1021466
72	0x3d3b7e9a	0.045775034
73	0xbd8e73b9	-0.06955666
74	0x3d244c8b	0.04011206
75	0xbbc2ce20	-0.005944982
76	0x3d111086	0.03541615
77	0x3e584b62	0.21122506
78	0xbaa3d09e	-0.0012498086
79	0xbd3f8edc	-0.0467671
80	0xbdef1066	-0.1167305
81	0x3cd0a29c	0.025468163
82	0x3db59622	0.08866526
83	0xbe852543	-0.2600499
84	0xbde3efe2	-0.111297384
85	0x3d1e29c2	0.038614042
86	0x3bbb3fbb	0.0057143844
87	0xbda50a92	-0.08058657
88	0x3de6c62b	0.11268266
89	0x3e759793	0.23983602
90	0xbc1e8667	-0.009675599
91	0xbd9b1d2a	-0.07573922
92	0xbd7db050	-0.061935723
93	0xba95a0a2	-0.001141567
94	0x3e0eb08c	0.13934535
95	0xbd96c64b	-0.0736204
96	0xbc81b9d0	-0.015835673
97	0x3e1849eb	0.14871947
98	0xbcc1e4aa	-0.023668606
99	0xbdb36d07	-0.0876103
100	0x3cdb84e1	0.02679676
101	0xbc9e7ee9	-0.019347625
102	0xbd466a88	-0.04844144
103	0x3e025b1b	0.12730066
104	0x3e522295	0.20521004
105	0x3e16975f	0.14706181
106	0x3e4c2903	0.1993752
107	0x3df8a4a9	0.121407814
108	0xbdf5340f	-0.1197282
109	0xbe9b0f3e	-0.30285066
110	0x3e426eac	0.1898753
111	0x3dd17686	0.10227685
112	0x3d3b739e	0.045764558
113	0xbcabb5d9	-0.020960735
114	0x3d6467ab	0.055762928
115	0x3dfcb30c	0.12338838
116	0xbcda7bdf	-0.026670394
117	0xbe5e96d3	-0.21737222
118	0x3defab60	0.11702609
119	0x3dd2a790	0.10285866
120	0x3dbc9795	0.092085995
121	0xbd966a74	-0.07344523
122	0xbe3d0e23	-0.18462424
123	0xbd0932d8	-0.033495754
124	0x3e791855	0.24325688
125	0x3c292c4b	0.010325502
126	0xbc66cfdb	-0.014087643
127	0xbb973ee0	-0.0046156496
128	0xbd89524a	-0.067051485
129	0xbc6fef2b	-0.014644424
130	0xbe1879d4	-0.14890224
131	0x3dca6f5e	0.09884523
132	0x3dc89524	0.09794071
133	0x3e9e9b76	0.30977982
134	0xbda571fd	-0.08078382
135	0xbc8a0177	-0.016846402
136	0xbe2448ff	-0.16043471
137	0xbe05ef95	-0.13079675
138	0x3d91dbea	0.071220234
139	0x3d905b89	0.07048709
140	0xbbe333fa	-0.0069336863
141	0xbe0dc801	-0.13845827
142	0xbe634841	-0.22195531
143	0x3d3dd162	0.04634226
144	0x3e2341c3	0.15943055
145	0xbddb2c99	-0.10701866
146	0xbcdc5456	-0.026895683
147	0x3d32eb04	0.04368116
148	0xb848179f	-4.7705715e-05
149	0xbdb03bf2	-0.08605184
150	0xbdb1fb97	-0.08690565
151	0xbd89378d	-0.067000486
152	0x3d8752c7	0.066075854
153	0xbd431154	-0.047623947
154	0xbe4066ed	-0.18789263
155	0xbcb8ebdf	-0.02257341
156	0x3d8d623a	0.06903501
157	0xbdc0a82f	-0.094070785
158	0x3e1fbb5b	0.15598814
159	0x3dc416e0	0.095746756
160	0x3d0bfc21	0.034175996
161	0x3e22a421	0.15882923
162	0xbd0c112a	-0.034196056
163	0x3e950c10	0.29110765
164	0x3e40e62d	0.18837805
165	0x3e3d25e1	0.18471481
166	0x3e67ffda	0.22656193
167	0xbdbb24f8	-0.091379106
168	0x3e12cc52	0.14335755
169	0xbd7b4739	-0.06134722
170	0x3e7bbfea	0.24584928
171	0xbe7aba54	-0.24485141
172	0x3da7ec44	0.08199361
173	0xbd594d86	-0.053052448
174	0xbd40ae70	-0.047041357
175	0xbe53edf2	-0.20696238
176	0x3d2d6dcc	0.04234104
177	0x3ba53b59	0.005042475
178	0x3db641d0	0.088992715
179	0x3e12e532	0.14345244
180	0x3d5e57d1	0.054282967
181	0xbd8c41d7	-0.068484955
182	0x3d5232b8	0.0513179
183	0x3dc24fff	0.09487914
184	0xbd43338e	-0.04765659
185	0x3df9557a	0.121745065
186	0x3dfa16df	0.122113936
187	0x3e0535d9	0.13008823
188	0x3d3de8f3	0.046364736
189	0x3e22515d	0.1585135
190	0xbe11eb43	-0.14249901
191	0x3dbae1d0	0.091251016
192	0xbd748a02	-0.059701927
193	0x3d2340c2	0.03985668
194	0x3d248ed1	0.040175263
195	0xbd12160d	-0.03566556
196	0x3d6adb81	0.05733824
197	0x3e1fa04b	0.1558849
198	0xbdf07fc3	-0.117431186
199	0xbdf521eb	-0.1196936
200	0xbeab6e3a	-0.33482534
201	0x3dd9bade	0.10631345
202	0xbda5a300	-0.080877304
203	0xbdf6fc5d	-0.12059853
204	0xbcfa99c7	-0.030590905
205	0xbc6165f7	-0.0137572205
206	0xbe67f959	-0.22653712
207	0x3e136e2b	0.14397494
208	0x3d76bf53	0.060241055
209	0xbd93f93d	-0.07225273
210	0x3ce1b701	0.027553083
211	0xbd190c4a	-0.037365235
212	0x3da3994e	0.07988225
213	0x3d2f8cd7	0.042858925
214	0x3db0a7bf	0.08625745
215	0x3b3b4f32	0.002858114
216	0x3e05af36	0.13055119
217	0xbda0a226	-0.07843427
218	0xbe309c1d	-0.17247052
219	0xbe22a245	-0.15882213
220	0x3e4027f3	0.1876524
221	0xbd5291b6	-0.051408492
222	0x3e14b02b	0.14520328
223	0x3e7a4d11	0.24443461
224	0x3e2e88cf	0.17044376
225	0x3d6a87ff	0.057258602
226	0xbe44b271	-0.19208695
227	0x3ce37f51	0.02777067
228	0x3e10db27	0.141461
229	0x3d7133ce	0.058887295
230	0xbc5197fc	-0.012792584
231	0xbd83d6e0	-0.064374685
232	0xbdd05213	-0.101719044
233	0xbd7d840f	-0.06189352
234	0x3db6cd8d	0.089259245
235	0x3df2eae9	0.11861212
236	0xbe1ad1e0	-0.15119123
237	0xbdcf0313	-0.10108008
238	0x3b2f2f3d	0.0026731037
239	0x3c9b9a08	0.018994346
240	0xbe9dd612	-0.30827385
241	0x3b1f7dfe	0.0024336572
242	0xbd4377fa	-0.04772184
243	0xbe28c4be	-0.16481301
244	0x3e63b13c	0.22235578
245	0x3e13bc21	0.14427234
246	0xbd82ee23	-0.06393077
247	0x3e3ee2dd	0.18641229
248	0xbcf6205b	-0.030044725
249	0x3cc0d86e	0.023540702
250	0x3e4a3e2b	0.19750278
251	0xbd0742af	-0.03302258
252	0xbd3a5312	-0.04548938
253	0xbdf84c4a	-0.12123926
254	0xbe893701	-0.26799777
255	0xbd81eb25	-0.063436784

base.mlp.fc1.0.bias f4 [64]
0	0x3a6b86a6	0.0008984603
1	0x39a54553	0.00031522903
2	0xb9e684e1	-0.0004396802
3	0x3ba18344	0.004928978
4	0x388f21f8	6.8250985e-05
5	0xb9a8550b	-0.0003210682
6	0x3a4d2357	0.00078253954
7	0x3a749ffd	0.00093317014
8	0xbaa7e87b	-0.0012810373
9	0x3abb45b2	0.0014287739
10	0xb910a15d	-0.00013793023
11	0xb9fcdc55	-0.00048229346
12	0x3b913ce5	0.004432308
13	0xba8e102c	-0.001083856
14	0x38f948dd	0.00011886817
15	0x3a9068ae	0.0011017525
16	0x3aa2841d	0.0012398992
17	0x3a9f6909	0.001216204
18	0xba4c7d65	-0.00078006677
19	0x3ae5f9fa	0.0017545812
20	0xb98fa38d	-0.0002739694
21	0xba4ab710	-0.0007732967
22	0xbac0cf5c	-0.0014710235
23	0x39210b4f	0.0001535837
24	0x3b1f19cf	0.0024276858
25	0x396f3cb2	0.00022815427
26	0x3a28dc76	0.00064415426
27	0x3ae553b1	0.0017496255
28	0x3a78bafb	0.00094883115
29	0x398704a8	0.00025752676
30	0x3986bb4d	0.00025698022
31	0xb9aa23f3	-0.0003245171
32	0x3a448769	0.00074969843
33	0x3a0841e1	0.0005197805
34	0xb9ae6980	-0.0003326647
35	0x39c4ce76	0.0003753786
36	0x39a8b753	0.00032180044
37	0xb8bd673b	-9.0314505e-05
38	0xba26c627	-0.00063619245
39	0x37cae8e5	2.4188726e-05
40	0xbb1db48b	-0.002406391
41	0xba9af1a6	-0.0011821284
42	0x39b305d0	0.0003414587
43	0xbae30fbb	-0.0017323414
44	0x3a59cfec	0.0008308876
45	0x3ad73106	0.0016417808
46	0x39e6ddf9	0.000440344
47	0x38567445	5.112986e-05
48	0x39d33080	0.00040281191
49	0x39d214fd	0.0004006996
50	0x3a8684b0	0.0010262933
51	0xba47c8e3	-0.0007621182
52	0xbb01a3f9	-0.0019781573
53	0x3b14207d	0.0022602372
54	0x3ad3e6ea	0.001616684
55	0xb9fba489	-0.0004799704
56	0xba863634	-0.0010239542
57	0xba999154	-0.0011716285
58	0xba9fe40d	-0.0012198702
59	0x3a9c9626	0.0011946603
60	0x3a4efe9c	0.0007896216
61	0x3b79da56	0.0038124523
62	0xbb59ee6e	-0.0033253687
63	0x3911e362	0.00013912984

base.mlp.fc1.2.weight f4 [64]
0	0x3f800156	1.0000408
1	0x3f800a8b	1.0003217
2	0x3f801926	1.0007675
3	0x3f7f4e03	0.9972841
4	0x3f7fa336	0.99858415
5	0x3f7fbded	0.9989918
6	0x3f7f7914	0.99794126
7	0x3f8035af	1.0016383
8	0x3f8010ca	1.0005124
9	0x3f7fb858	0.9989066
10	0x3f7fbdf7	0.9989924
11	0x3f7fd19c	0.99929214
12	0x3f806829	1.0031787
13	0x3f7fda72	0.99942696
14	0x3f801993	1.0007805
15	0x3f8002d1	1.000086
16	0x3f7fe129	0.9995294
17	0x3f800b52	1.0003455
18	0x3f8003c5	1.000115
19	0x3f802a3d	1.001289
20	0x3f80024a	1.0000699
21	0x3f800519	1.0001556
22	0x3f7ff931	0.9998961
23	0x3f7fcc12	0.9992076
24	0x3f7eb99e	0.9950198
25	0x3f7fcd0d	0.9992226
26	0x3f7fc493	0.99909323
27	0x3f806b23	1.0032696
28	0x3f80259b	1.0011476
29	0x3f7fa548	0.99861574
30	0x3f7fb1a6	0.99880445
31	0x3f7fe46f	0.99957937
32	0x3f7fdc4e	0.99945533
33	0x3f7fd99e	0.9994143
34	0x3f7fe0df	0.999525
35	0x3f801ed4	1.0009408
36	0x3f7eb767	0.994986
37	0x3f800afe	1.0003355
38	0x3f7fc1c2	0.99905026
39	0x3f8004ca	1.0001462
40	0x3f802eda	1.0014298
41	0x3f7ffc58	0.9999442
42	0x3f8013c1	1.0006028
43	0x3f801aaf	1.0008143
44	0x3f803a5f	1.0017813
45	0x3f7f6f97	0.9977965
46	0x3f801319	1.0005828
47	0x3f7fbe66	0.998999
48	0x3f7fecba	0.9997059
49	0x3f7fbf37	0.99901146
50	0x3f803caf	1.0018519
51	0x3f7fe418	0.9995742
52	0x3f801c2b	1.0008596
53	0x3f806810	1.0031757
54	0x3f80350f	1.0016192
55	0x3f7fda9d	0.9994295
56	0x3f7fbcdf	0.9989757
57	0x3f800e3e	1.0004346
58	0x3f80205d	1.0009876
59	0x3f7f88d5	0.99818164
60	0x3f7fc296	0.9990629
61	0x3f801e9b	1.000934
62	0x3f80671a	1.0031464
63	0x3f7fd807	0.99939007

base.mlp.fc1.2.bias f4 [64]
0	0x3829b2f2	4.0459396e-05
1	0x382305a6	3.886749e-05
2	0xba403191	-0.0007331605
3	0x3b308ffd	0.0026941292
4	0xbab32f26	-0.0013670668
5	0xba88632e	-0.0010405534
6	0x3a5ede5f	0.0008501764
7	0x3aa0fce0	0.0012282394
8	0xba5c8f91	-0.0008413727
9	0x3a46497a	0.00075640494
10	0xba85e283	-0.00102146
11	0xba3eef8a	-0.0007283619
12	0x3b4d6046	0.00313379
13	0x39b120f6	0.0003378463
14	0x39fb7bc0	0.00047966652
15	0x394e1c63	0.00019656266
16	0x39f403ef	0.00046542237
17	0xb9b6b2b7	-0.00034846898
18	0xb983d1f3	-0.0002514269
19	0x3ab083d3	0.0013467021
20	0xb885ff40	-6.389478e-05
21	0xba3967b3	-0.00070726423
22	0xba833ac3	-0.0010012019
23	0x3a08fe82	0.0005225913
24	0x3b18d93c	0.002332284
25	0x3a03c13d	0.0005026048
26	0xba4fcc75	-0.000792689
27	0x3b52bf98	0.0032157656
28	0xba85809d	-0.0010185424
29	0xbab474d8	-0.0013767732
30	0xb968a09b	-0.00022185074
31	0xba0013db	-0.0004885771
32	0x3a055534	0.00050862436
33	0xb9b8d645	-0.00035254858
34	0xb9b5882d	-0.0003462447
35	0x3a62f01c	0.0008656995
36	0xba563dee	-0.00081726804
37	0xb98aeb11	-0.0002649655
38	0xb9bba681	-0.00035791475
39	0x393d01d4	0.00018025126
40	0xbac6129e	-0.001511175
41	0xb7a264b5	-1.93588e-05
42	0xb9f2c4d6	-0.0004630449
43	0xba5ffb56	-0.0008544227
44	0x3ae3e285	0.0017386234
45	0x3b1027c5	0.002199636
46	0x3a21d9e5	0.00061741314
47	0xba809b17	-0.0009811845
48	0xb83d01bb	-4.5062723e-05
49	0x3a536f00	0.00080655515
50	0x3ad81e73	0.0016488567
51	0xb9f9c1f4	-0.00047637487
52	0xba62a888	-0.0008646329
53	0x3b501b02	0.003175438
54	0x3adbc9db	0.0016768532
55	0xba1925c3	-0.0005842114
56	0xba8a693d	-0.0010559928
57	0xba094692	-0.0005236651
58	0xba7d004d	-0.0009651229
59	0xbaf61579	-0.001877471
60	0xba399309	-0.00070791
61	0x3a2b8f16	0.0006544454
62	0xbb4dee91	-0.0031422714
63	0xb9bd9753	-0.00036161634

base.mlp.fc_h.0.weight f4 [64, 64]
0	0xbe488922	-0.19583562
1	0xbe930027	-0.28711054
2	0xbe9a62fe	-0.3015365
3	0x3e5d18ce	0.21591493
4	0xbeca3d3f	-0.39499852
5	0x3d875ec4	0.06609872
6	0x3ea21086	0.3165323
7	0xbe23f746	-0.16012296
8	0x3da945a9	0.0826524
9	0xbdaa9228	-0.08328658
10	0xbcf787c2	-0.030216102
11	0xbc2901ba	-0.010315353
12	0xbcd456e8	-0.025920346
13	0x3df4bb89	0.11949832
14	0x3e14a75f	0.14516972
15	0x3ea9c8c5	0.33160987
16	0xbdd4bc4d	-0.10387478
17	0x3d9019e3	0.070361875
18	0x3dcd7088	0.10031229
19	0xbcc255f5	-0.023722628
20	0x3d6663a1	0.056247357
21	0x3d70fc33	0.058834266
22	0x3e2c2946	0.1681262
23	0xbe423789	-0.18966497
24	0x3c840cd4	0.016119398
25	0x3f0dffd7	0.55468506
26	0x3dda712c	0.10666117
27	0xbe5dc53f	-0.21657275
28	0xbe610456	-0.2197431
29	0xbae73f83	-0.0017642829
30	0xbd086e78	-0.033308476
31	0xbefc1706	-0.49236315
32	0xbca5a64b	-0.020220896
33	0xbe53815e	-0.20654818
34	0x3d0f0c7e	0.034924023
35	0xbe229c63	-0.1587997
36	0xbe8bc4ad	-0.2729849
37	0xbec6005d	-0.38672152
38	0xbd60e8f9	-0.05490968
39	0x3e0874e2	0.13325837
40	0x3e076069	0.13220371
41	0x3e2d06f9	0.16897191
42	0x3d811bfa	0.06304164
43	0x3d118974	0.035531476
44	0x3d789e59	0.060697887
45	0xbe791524	-0.24324471
46	0xbec03ab2	-0.3754478
47	0xbf084c50	-0.53241444
48	0xbc043646	-0.00806958
49	0xbdff2cab	-0.124596916
50	0xbe863055	-0.2620875
51	0x3e2a02d9	0.16602649
52	0x3e564ee7	0.20928536
53	0x3e322216	0.17395815
54	0x3b64c523	0.0034907542
55	0xbe5e20ca	-0.21692196
56	0xbe3ab501	-0.1823311
57	0xbeaec265	-0.34132686
58	0xbdac7d9f	-0.08422398
59	0xbd169b06	-0.036768936
60	0xbdcdecd7	-0.10054939
61	0xbdc8bf07	-0.098020606
62	0xbe65330f	-0.22382759
63	0xbd6b1a81	-0.057398323
64	0xbece5093	-0.40295848
65	0xbe2bf37a	-0.16792098
66	0x3d14f677	0.03636786
67	0x3d913829	0.0709079
68	0x3ef6e355	0.48220316
69	0xbea5abe1	-0.32357696
70	0x3cba39a5	0.022732565
71	0xbcc8a87f	-0.024494408
72	0x3e42def0	0.19030356
73	0x3db9abe5	0.090659894
74	0x3cb1fd4e	0.02172723
75	0xbe4f284d	-0.20230217
76	0x3de37f31	0.11108244
77	0x3e66a657	0.22524391
78	0x3dbc2b5e	0.09187959
79	0xbd92dd4a	-0.07171114
80	0xbf016f83	-0.5056078
81	0x3e7ea725	0.24868448
82	0xbc9b5cf9	-0.018965231
83	0xbd0ee649	-0.034887586
84	0x3ea85df6	0.32884187
85	0xbe48449d	-0.19557424
86	0x3dd3d7ae	0.10343872
87	0xbd480dab	-0.04884116
88	0x3d019529	0.03163639
89	0x3e4d9699	0.2007698
90	0xbe944833	-0.28961334
91	0xbdcec780	-0.10096645
92	0xbeb693ce	-0.3565964
93	0x3e096e2e	0.13420936
94	0x3ea3e6c4	0.32011998
95	0x3e298a00	0.16556549
96	0xbd1df220	-0.038560987
97	0x3d9df360	0.07712436
98	0xbea17fd0	-0.31542826
99	0xbdb99e4e	-0.09063397
100	0xbed149b0	-0.40876532
101	0x3ddcb2df	0.107763045
102	0x3e1636d1	0.14669348
103	0xbe8f6d45	-0.28013054
104	0xbe4f9d7f	-0.20274924
105	0xbe29406d	-0.16528483
106	0xbca61ae7	-0.0202765
107	0x3e80f020	0.251832
108	0xbe1a2087	-0.1505147
109	0x3ccbf21a	0.024895716
110	0xbe101439	-0.14070214
111	0x3da85f69	0.08221323
112	0x3e7ab6c1	0.24483778
113	0x3ca9134d	0.020639086
114	0x3daaaabf	0.083333485
115	0x3e3050d0	0.17218328
116	0xbd94cb7f	-0.07265376
117	0x3d7a71ac	0.061143562
118	0xbe945243	-0.2896901
119	0x3c413d52	0.011794405
120	0x3cfb9c35	0.030714134
121	0x3cecb17d	0.028893227
122	0xbd1e433d	-0.038638342
123	0xbd7831a6	-0.060594223
124	0xbe198712	-0.14992931
125	0xbe538b9b	-0.20658724
126	0x3eea9e85	0.45824066
127	0x3ec19db6	0.37815636
128	0x3e7e0bb7	0.24809156
129	0xbea35d6e	-0.3190722
130	0xbdb6e7f5	-0.08930961
131	0x3ea7169f	0.32634446
132	0x3e96d247	0.29457304
133	0x3ec39c3d	0.38205138
134	0x3d17bb12	0.03704364
135	0xbe602c76	-0.2189196
136	0x3c74e642	0.014947476
137	0xbcd77c10	-0.026304275
138	0x3cd4d654	0.025981106
139	0xbda21d85	-0.07915787
140	0xbe221a16	-0.15830263
141	0xbea7b3d1	-0.32754377
142	0x3e93bac0	0.28853416
143	0xbee0a324	-0.43874466
144	0x3d807bc6	0.06273608
145	0x3e92f7ce	0.28704685
146	0x3e08eb2e	0.13370964
147	0x3e2dc0cf	0.16968082
148	0xbe241424	-0.16023308
149	0x3e87e27e	0.26539987
150	0x3e19d426	0.15022334
151	0x3dd2cb96	0.10292737
152	0xbe947b33	-0.29000244
153	0xbd88bde3	-0.06676843
154	0x3df1706c	0.11789021
155	0xbc84018c	-0.016114019
156	0x3e7f4469	0.2492844
157	0x3e036878	0.1283282
158	0x3cdaa02a	0.0266877
159	0xbe6f999e	-0.23398444
160	0xbe938ce1	-0.2881842
161	0xbdb5d0fc	-0.08877751
162	0xbe1abc93	-0.15110998
163	0x3dac1dcf	0.08404123
164	0xbe19a10a	-0.15002838
165	0x3e0fb3f8	0.14033496
166	0xbe034467	-0.12819062
167	0x3e8e8b4d	0.27840653
168	0xbe73abb0	-0.23795962
169	0xbe885677	-0.26628467
170	0xbe084739	-0.1330842
171	0x3d37c8d0	0.044869244
172	0x3e8ad806	0.27117938
173	0x3d0767bf	0.033057924
174	0xbe6aebac	-0.22941464
175	0xbdf84e68	-0.1212433
176	0x3ca0ed3f	0.019644378
177	0x3dad8047	0.084717326
178	0x3e49c16c	0.19702691
179	0xbd7c3574	-0.061574414
180	0xbe8e98be	-0.27850908
181	0xbdb81370	-0.089880824
182	0xbf1562f1	-0.583541
183	0x3c5a735f	0.013333171
184	0xbd1d777e	-0.038444035
185	0x3e121f90	0.14269853
186	0xbd074d3c	-0.03303264
187	0xbddb61dc	-0.107120246
188	0xbebd3707	-0.36956045
189	0x3dcac363	0.09900548
190	0x3bc43c40	0.0059886277
191	0xbea16537	-0.31522533
192	0xbe619218	-0.22028387
193	0x3cba2023	0.022720402
194	0x3e20feaa	0.15722147
195	0x3dd921ba	0.10602136
196	0x3d95e7bc	0.073195904
197	0x3cc6ee9b	0.024283698
198	0xbe5dea8a	-0.21671501
199	0x3e627e68	0.22118533
200	0xbd163779	-0.036673997
201	0xbdc0d936	-0.0941643
202	0x3eca2f27	0.394891
203	0x3e59ad0d	0.2125742
204	0xbef1b6d5	-0.47209802
205	0xbd6b0024	-0.05737318
206	0x3d10f949	0.035393987
207	0x3e4f19e5	0.20224722
208	0x3e1db23f	0.15400027
209	0x3de009f0	0.109393954
210	0x3edb5a47	0.42842314
211	0xbe5e8222	-0.21729329
212	0xbe03dba7	-0.1287676
213	0xbe89e663	-0.26933584
214	0xbe5b692f	-0.21426843
215	0xbe72d89d	-0.23715444
216	0x3d472025	0.04861464
217	0x3e7cc31c	0.24683803
218	0x3e163346	0.14667997
219	0xbd7fd084	-0.062454715
220	0x3e66f6c0	0.22555065
221	0x3e68b084	0.22723585
222	0x3d9fb8ce	0.077989206
223	0xbeffb64c	-0.4994377
224	0xbe527075	-0.20550711
225	0x3d9f4517	0.0777685
226	0xbe8702d5	-0.26369348
227	0x3d0a1403	0.03371049
228	0x3dba3bfd	0.09093473
229	0x3e3444fd	0.17604442
230	0x3d7132c5	0.05888631
231	0xbe110718	-0.14162862
232	0x3b8ea6a5	0.0043533617
233	0xbdc6d7b5	-0.097091116
234	0x3e95a714	0.29229033
235	0xbe0a9c9f	-0.13536309
236	0xbeb75f57	-0.35814926
237	0x3ed07cf4	0.40720332
238	0x3dab6a8c	0.083699316
239	0x3dd2a6b4	0.10285702
240	0xbe15f59d	-0.14644475
241	0x3e73ffc3	0.23828034
242	0xbe12a5eb	-0.14321105
243	0x3d31cf77	0.043410745
244	0xbc9601d9	-0.018311428
245	0x3d8e033c	0.06934211
246	0x3bf89350	0.0075859204
247	0x3f047e53	0.51755255
248	0xbea4bf58	-0.32177234
249	0xbe11f420	-0.14253283
250	0xbdf6daac	-0.12053427
251	0x3e8c31d5	0.2738177
252	0xbdc57bf5	-0.096427836
253	0xbbcd9f18	-0.006275069
254	0x3d7ab8a6	0.06121125
255	0x3c173467	0.009228802

base.mlp.fc_h.0.bias f4 [64]
0	0x00000000	0.0
1	0x00000000	0.0
2	0x00000000	0.0
3	0x00000000	0.0
4	0x00000000	0.0
5	0x00000000	0.0
6	0x00000000	0.0
7	0x00000000	0.0
8	0x00000000	0.0
9	0x00000000	0.0
10	0x00000000	0.0
11	0x00000000	0.0
12	0x00000000	0.0
13	0x00000000	0.0
14	0x00000000	0.0
15	0x00000000	0.0
16	0x00000000	0.0
17	0x00000000	0.0
18	0x00000000	0.0
19	0x00000000	0.0
20	0x00000000	0.0
21	0x00000000	0.0
22	0x00000000	0.0
23	0x00000000	0.0
24	0x00000000	0.0
25	0x00000000	0.0
26	0x00000000	0.0
27	0x00000000	0.0
28	0x00000000	0.0
29	0x00000000	0.0
30	0x00000000	0.0
31	0x00000000	0.0
32	0x00000000	0.0
33	0x00000000	0.0
34	0x00000000	0.0
35	0x00000000	0.0
36	0x00000000	0.0
37	0x00000000	0.0
38	0x00000000	0.0
39	0x00000000	0.0
40	0x00000000	0.0
41	0x00000000	0.0
42	0x00000000	0.0
43	0x00000000	0.0
44	0x00000000	0.0
45	0x00000000	0.0
46	0x00000000	0.0
47	0x00000000	0.0
48	0x00000000	0.0
49	0x00000000	0.0
50	0x00000000	0.0
51	0x00000000	0.0
52	0x00000000	0.0
53	0x00000000	0.0
54	0x00000000	0.0
55	0x00000000	0.0
56	0x00000000	0.0
57	0x00000000	0.0
58	0x00000000	0.0
59	0x00000000	0.0
60	0x00000000	0.0
61	0x00000000	0.0
62	0x00000000	0.0
63	0x00000000	0.0

base.mlp.fc_h.2.weight f4 [64]
0	0x3f800000	1.0
1	0x3f800000	1.0
2	0x3f800000	1.0
3	0x3f800000	1.0
4	0x3f800000	1.0
5	0x3f800000	1.0
6	0x3f800000	1.0
7	0x3f800000	1.0
8	0x3f800000	1.0
9	0x3f800000	1.0
10	0x3f800000	1.0
11	0x3f800000	1.0
12	0x3f800000	1.0
13	0x3f800000	1.0
14	0x3f800000	1.0
15	0x3f800000	1.0
16	0x3f800000	1.0
17	0x3f800000	1.0
18	0x3f800000	1.0
19	0x3f800000	1.0
20	0x3f800000	1.0
21	0x3f800000	1.0
22	0x3f800000	1.0
23	0x3f800000	1.0
24	0x3f800000	1.0
25	0x3f800000	1.0
26	0x3f800000	1.0
27	0x3f800000	1.0
28	0x3f800000	1.0
29	0x3f800000	1.0
30	0x3f800000	1.0
31	0x3f800000	1.0
32	0x3f800000	1.0
33	0x3f800000	1.0
34	0x3f800000	1.0
35	0x3f800000	1.0
36	0x3f800000	1.0
37	0x3f800000	1.0
38	0x3f800000	1.0
39	0x3f800000	1.0
40	0x3f800000	1.0
41	0x3f800000	1.0
42	0x3f800000	1.0
43	0x3f800000	1.0
44	0x3f800000	1.0
45	0x3f800000	1.0
46	0x3f800000	1.0
47	0x3f800000	1.0
48	0x3f800000	1.0
49	0x3f800000	1.0
50	0x3f800000	1.0
51	0x3f800000	1.0
52	0x3f800000	1.0
53	0x3f800000	1.0
54	0x3f800000	1.0
55	0x3f800000	1.0
56	0x3f800000	1.0
57	0x3f800000	1.0
58	0x3f800000	1.0
59	0x3f800000	1.0
60	0x3f800000	1.0
61	0x3f800000	1.0
62	0x3f800000	1.0
63	0x3f800000	1.0

base.mlp.fc_h.2.bias f4 [64]
0	0x00000000	0.0
1	0x00000000	0.0
2	0x00000000	0.0
3	0x00000000	0.0
4	0x00000000	0.0
5	0x00000000	0.0
6	0x00000000	0.0
7	0x00000000	0.0
8	0x00000000	0.0
9	0x00000000	0.0
10	0x00000000	0.0
11	0x00000000	0.0
12	0x00000000	0.0
13	0x00000000	0.0
14	0x00000000	0.0
15	0x00000000	0.0
16	0x00000000	0.0
17	0x00000000	0.0
18	0x00000000	0.0
19	0x00000000	0.0
20	0x00000000	0.0
21	0x00000000	0.0
22	0x00000000	0.0
23	0x00000000	0.0
24	0x00000000	0.0
25	0x00000000	0.0
26	0x00000000	0.0
27	0x00000000	0.0
28	0x00000000	0.0
29	0x00000000	0.0
30	0x00000000	0.0
31	0x00000000	0.0
32	0x00000000	0.0
33	0x00000000	0.0
34	0x00000000	0.0
35	0x00000000	0.0
36	0x00000000	0.0
37	0x00000000	0.0
38	0x00000000	0.0
39	0x00000000	0.0
40	0x00000000	0.0
41	0x00000000	0.0
42	0x00000000	0.0
43	0x00000000	0.0
44	0x00000000	0.0
45	0x00000000	0.0
46	0x00000000	0.0
47	0x00000000	0.0
48	0x00000000	0.0
49	0x00000000	0.0
50	0x00000000	0.0
51	0x00000000	0.0
52	0x00000000	0.0
53	0x00000000	0.0
54	0x00000000	0.0
55	0x00000000	0.0
56	0x00000000	0.0
57	0x00000000	0.0
58	0x00000000	0.0
59	0x00000000	0.0
60	0x00000000	0.0
61	0x00000000	0.0
62	0x00000000	0.0
63	0x00000000	0.0

base.mlp.fc2.0.0.weight f4 [64, 64]
0	0xbe482516	-0.19545397
1	0xbe930001	-0.2871094
2	0xbe9a9912	-0.30194908
3	0x3e5cb024	0.21551567
4	0xbeca1164	-0.39466393
5	0x3d8813be	0.066443905
6	0x3ea1529c	0.31508338
7	0xbe234a24	-0.15946251
8	0x3da93d6b	0.08263668
9	0xbdad78ae	-0.084702834
10	0xbcf488ba	-0.029850353
11	0xbc22e138	-0.009941392
12	0xbcd182cd	-0.025575066
13	0x3df37ddd	0.11889241
14	0x3e1532bd	0.14570136
15	0x3ea9ea99	0.33186796
16	0xbdd57e14	-0.10424438
17	0x3d8f592c	0.0699943
18	0x3dcda6b4	0.10041562
19	0xbcbfd59c	-0.023417287
20	0x3d64ceaa	0.055861153
21	0x3d7268d1	0.059181992
22	0x3e2cd6bc	0.1687879
23	0xbe42dbb3	-0.19029121
24	0x3c90d62c	0.01768025
25	0x3f0dd503	0.55403155
26	0x3ddb79ed	0.10716615
27	0xbe5d515c	-0.21613067
28	0xbe618bfd	-0.22026058
29	0xbab39f9b	-0.0013704182
30	0xbd0335cf	-0.032033738
31	0xbefbfc40	-0.4921589
32	0xbca8fc66	-0.020628165
33	0xbe52e42e	-0.20594856
34	0x3d13f72f	0.036124405
35	0xbe222b9c	-0.15836948
36	0xbe8cf1e3	-0.27528295
37	0xbec63b7b	-0.38717255
38	0xbd5d56a3	-0.0540377
39	0x3e08cda4	0.13359696
40	0x3e071d59	0.13194789
41	0x3e2c8fc9	0.16851725
42	0x3d80513c	0.06265494
43	0x3d102b63	0.035197627
44	0x3d7a20ec	0.061066553
45	0xbe7998bb	-0.24374668
46	0xbec00e94	-0.37511122
47	0xbf0831a8	-0.5320077
48	0xbbf1e025	-0.0073814564
49	0xbe001f01	-0.12511827
50	0xbe85d60d	-0.2613987
51	0x3e2a5a05	0.16635902
52	0x3e55ee6f	0.20891736
53	0x3e32787d	0.17428775
54	0x3b7ab6c2	0.0038255905
55	0xbe5dc44b	-0.21656911
56	0xbe3a5a01	-0.18198396
57	0xbeaee65e	-0.3416013
58	0xbdad4fd0	-0.08462489
59	0xbd1546ba	-0.036444403
60	0xbdcca682	-0.09992696
61	0xbdc84e35	-0.09780542
62	0xbe659ef1	-0.22423913
63	0xbd69f50f	-0.05711847
64	0xbecf05d0	-0.40434122
65	0xbe2af83f	-0.16696261
66	0x3d1ab8d7	0.037773933
67	0x3d941137	0.07229846
68	0x3ef632ef	0.48085734
69	0xbea65d46	-0.32493037
70	0x3ccaaa5e	0.02473944
71	0xbcd6ff12	-0.026244674
72	0x3e440507	0.19142543
73	0x3dba461e	0.09095405
74	0x3ca6c6f5	0.020358542
75	0xbe509069	-0.20367588
76	0x3de0b8c8	0.10972744
77	0x3e683cfe	0.22679517
78	0x3db93cdb	0.090448104
79	0xbd95813c	-0.0730004
80	0xbf011601	-0.504242
81	0x3e800660	0.25004864
82	0xbca4e366	-0.020127963
83	0xbd145256	-0.036211334
84	0x3ea91394	0.3302275
85	0xbe473e73	-0.19457416
86	0x3dd4cb3a	0.10390325
87	0xbd419b54	-0.047267273
88	0x3cfef478	0.031122431
89	0x3e4f37bf	0.20236109
90	0xbe9503c5	-0.29104438
91	0xbdd1c1a0	-0.10242009
92	0xbeb5d446	-0.35513514
93	0x3e0803e3	0.13282733
94	0x3ea2f55e	0.31827825
95	0x3e2836fb	0.16427223
96	0xbd1839e7	-0.037164595
97	0x3d9ab100	0.07553291
98	0xbea28887	-0.31744787
99	0xbdbc8b8d	-0.09206305
100	0xbecf135b	-0.40444455
101	0x3ddfa522	0.109201685
102	0x3e1670b1	0.14691426
103	0xbe901e17	-0.28147957
104	0xbe4e4ccc	-0.20146483
105	0xbe27c812	-0.16384915
106	0xbc9a5536	-0.01883946
107	0x3e81a0a2	0.25317866
108	0xbe1b8d96	-0.1519073
109	0x3cd7cbc4	0.02634228
110	0xbe117534	-0.14204866
111	0x3da58701	0.080823906
112	0x3e790802	0.24319461
113	0x3cb54f06	0.022132408
114	0x3da75b88	0.08171755
115	0x3e2ef157	0.17084251
116	0xbd91fbc5	-0.07128099
117	0x3d74f2ef	0.059801992
118	0xbe9502ac	-0.291036
119	0x3c2b21bd	0.010445056
120	0x3cf082df	0.02935928
121	0x3cf7614a	0.030197758
122	0xbd188620	-0.037237287
123	0xbd7da9d8	-0.061929554
124	0xbe1b153b	-0.15144818
125	0xbe54d05d	-0.2078261
126	0x3eeb56b2	0.4596458
127	0x3ec0ebeb	0.3767999
128	0x3e7dc4ba	0.24782076
129	0xbea37b82	-0.31930166
130	0xbdb64956	-0.089007065
131	0x3ea73997	0.32661125
132	0x3e96b577	0.29435322
133	0x3ec37dc8	0.381819
134	0x3d1f7538	0.038930148
135	0xbe60c508	-0.21950161
136	0x3c73d516	0.014882347
137	0xbccb407b	-0.02481102
138	0x3cd2c291	0.025727542
139	0xbda29ba0	-0.07939839
140	0xbe225701	-0.15853502
141	0xbea7718c	-0.32703817
142	0x3e935f95	0.2878386
143	0xbee0b764	-0.43889916
144	0x3d810407	0.06299596
145	0x3e93176d	0.2872881
146	0x3e08fc99	0.13377608
147	0x3e2d8f67	0.16949235
148	0xbe23cce1	-0.15996124
149	0x3e87c7e0	0.2651968
150	0x3e18f1fd	0.14936061
151	0x3dd3b2aa	0.10336812
152	0xbe952fd9	-0.29138067
153	0xbd878cb5	-0.066186346
154	0x3df0538b	0.117346846
155	0xbc865e28	-0.01640232
156	0x3e7fc8ca	0.24978939
157	0x3e031616	0.12801394
158	0x3ccda4e9	0.02510305
159	0xbe6f64f5	-0.23378356
160	0xbe9365f7	-0.2878873
161	0xbdb6d39b	-0.08927079
162	0xbe1b48bf	-0.15164469
163	0x3dab6162	0.08368184
164	0xbe15435f	-0.14576481
165	0x3e100024	0.14062554
166	0xbe047d06	-0.12938318
167	0x3e8e6d55	0.2781779
168	0xbe738934	-0.23782808
169	0xbe882918	-0.26593852
170	0xbe080caf	-0.13286088
171	0x3d389b73	0.045070123
172	0x3e8ab586	0.27091616
173	0x3d08f55a	0.03343711
174	0xbe6b26e0	-0.22964048
175	0xbdf8ff5f	-0.12158083
176	0x3c9d3049	0.019188063
177	0x3dae9903	0.085252784
178	0x3e4911d2	0.19635704
179	0xbd7d153b	-0.061787825
180	0xbe8e7751	-0.27825406
181	0xbdb884cc	-0.09009704
182	0xbf15716f	-0.5837621
183	0x3c55b3e6	0.013043379
184	0xbd1e691c	-0.03867446
185	0x3e125058	0.14288461
186	0xbd061563	-0.03273524
187	0xbddbce0d	-0.107326604
188	0xbebd9395	-0.3702666
189	0x3dca8ca4	0.09890106
190	0x3bce2259	0.0062907157
191	0xbea17b00	-0.31539154
192	0xbe626a3d	-0.22110839
193	0x3cbd9400	0.023141861
194	0x3e21de04	0.15807348
195	0x3ddad43a	0.1068501
196	0x3d944ede	0.07241605
197	0x3cc076f1	0.023494216
198	0xbe5bf654	-0.21480685
199	0x3e616d82	0.2201443
200	0xbd143937	-0.036187377
201	0xbdbeabb2	-0.09310092
202	0x3ec9c52e	0.3940825
203	0x3e58d96b	0.21176688
204	0xbef21e58	-0.47288775
205	0xbd66c1b9	-0.056337092
206	0x3d0cb41a	0.034351446
207	0x3e4e5f95	0.20153649
208	0x3e1e863c	0.15480894
209	0x3de1ae1c	0.11019537
210	0x3edb13be	0.427885
211	0xbe5f46ed	-0.218044
212	0xbe03029d	-0.12793966
213	0xbe89d7a0	-0.2692232
214	0xbe5bb803	-0.21456914
215	0xbe71d09b	-0.23614733
216	0x3d434ec0	0.047682524
217	0x3e7de310	0.24793649
218	0x3e1535be	0.14571282
219	0xbd81b47c	-0.06333253
220	0x3e67f589	0.22652258
221	0x3e67d3c5	0.22639377
222	0x3d9c3649	0.076275416
223	0xbf000061	-0.5000058
224	0xbe51932d	-0.204663
225	0x3d9d32df	0.076757185
226	0xbe87b6e4	-0.26506722
227	0x3d066eb4	0.03282042
228	0x3dc04f27	0.09390097
229	0x3e3528cb	0.17691343
230	0x3d6eebc6	0.05833032
231	0xbe11d4b4	-0.14241296
232	0x3ba57fef	0.0050506513
233	0xbdc504ed	-0.0962008
234	0x3e9612cc	0.29311216
235	0xbe09d24c	-0.13459128
236	0xbeb7c936	-0.358957
237	0x3ed0f696	0.4081313
238	0x3da9d065	0.08291701
239	0x3dd0e636	0.10200159
240	0xbe170c3b	-0.1475076
241	0x3e74fd84	0.23924834
242	0xbe13d213	-0.14435606
243	0x3d2ea29d	0.04263555
244	0xbc8f6057	-0.017501993
245	0x3d8c6d16	0.06856744
246	0x3bdf07ca	0.0068063485
247	0x3f044998	0.51674795
248	0xbea526c2	-0.32256132
249	0xbe1133ed	-0.14179964
250	0xbdf520a2	-0.11969115
251	0x3e8bcd4b	0.27305064
252	0xbdc7b3ce	-0.09751092
253	0xbbe39977	-0.0069457847
254	0x3d7e34fd	0.062062252
255	0x3c0b56f1	0.008504615

base.mlp.fc2.0.0.bias f4 [64]
0	0x39c726f7	0.0003798527
1	0xbab50dd0	-0.001381332
2	0xb98ce08a	-0.00026870175
3	0xba56d996	-0.0008195875
4	0x3a1db364	0.0006015806
5	0xb9d839e3	-0.0004124186
6	0x399ae098	0.00029540504
7	0x3a88f9b8	0.0010450399
8	0xbababed2	-0.0014247543
9	0x3a4e622b	0.00078729045
10	0xba317f35	-0.00067709695
11	0xba93fa16	-0.0011289741
12	0xba991df5	-0.0011681902
13	0x3a671b67	0.0008816034
14	0x3a0eaf93	0.0005443033
15	0xb7a86818	-2.0075633e-05
16	0x3a5f2543	0.00085123273
17	0xba71ba26	-0.00092211587
18	0x3a1d3bdf	0.0005997996
19	0x3ab203e3	0.0013581481
20	0xbb659674	-0.0035032304
21	0x39ab5990	0.0003268239
22	0x3a087cbd	0.0005206576
23	0x3985cef4	0.0002552193
24	0xbb89070b	-0.004181748
25	0x3a08b622	0.0005215128
26	0xba1f52e2	-0.0006077719
27	0xba9924e8	-0.0011683973
28	0x3bb6cc23	0.005578534
29	0xba74f63b	-0.00093445525
30	0x3a079336	0.00051717774
31	0xb91f4635	-0.00015189576
32	0xbaafc96f	-0.0013411472
33	0x3a4b5cb9	0.0007757652
34	0x3a302291	0.0006719018
35	0xbab790b2	-0.0014004915
36	0x3ad050a5	0.0015893175
37	0xba27a337	-0.00063948653
38	0x3a19a44c	0.0005860969
39	0xba4bafc6	-0.0007770028
40	0x3a558609	0.0008145278
41	0xba2b843b	-0.0006542836
42	0xba5000d9	-0.00079346966
43	0xb9c8a817	-0.0003827221
44	0xbab1210d	-0.0013513878
45	0x3a88a4a9	0.0010425049
46	0xb91a53cc	-0.00014717801
47	0x396f63b3	0.00022829957
48	0xba4c6b0a	-0.00077979325
49	0xba039afb	-0.00050203473
50	0xb9f725ea	-0.0004713976
51	0x38ef4f5e	0.000114111914
52	0xbbb1da6d	-0.0054276497
53	0xba53bb6b	-0.00080769387
54	0xba116eaf	-0.0005547804
55	0x39d17d4b	0.00039956937
56	0x3aeb5ff7	0.0017957677
57	0x3a56fc39	0.0008201036
58	0x39a6f3c8	0.00031843618
59	0xb89b31ff	-7.4002885e-05
60	0x3ad3f837	0.0016171996
61	0x3a8e1e67	0.0010842801
62	0xb99c1b63	-0.00029775043
63	0xbaae2dfe	-0.0013288853

base.mlp.fc2.0.2.weight f4 [64]
0	0x3f7fd11e	0.9992846
1	0x3f80143e	1.0006177
2	0x3f7fb914	0.9989178
3	0x3f8025bc	1.0011516
4	0x3f7e877a	0.9942547
5	0x3f7fd1c8	0.99929476
6	0x3f7fd0aa	0.9992777
7	0x3f8010ec	1.0005164
8	0x3f80083a	1.000251
9	0x3f8013b5	1.0006014
10	0x3f7fef24	0.99974275
11	0x3f8014b4	1.0006318
12	0x3f801246	1.0005577
13	0x3f801c22	1.0008585
14	0x3f801d66	1.0008972
15	0x3f7fcfdb	0.9992654
16	0x3f7fbb31	0.99895006
17	0x3f7fc61c	0.99911666
18	0x3f7eea1e	0.99575984
19	0x3f8014d2	1.0006354
20	0x3f7fc58a	0.99910796
21	0x3f7fd30c	0.99931407
22	0x3f801633	1.0006775
23	0x3f7fd34d	0.99931794
24	0x3f7fc6b9	0.999126
25	0x3f8016a9	1.0006915
26	0x3f7ed905	0.99549896
27	0x3f7fde8a	0.9994894
28	0x3f7fcd5f	0.99922746
29	0x3f7fdb51	0.99944025
30	0x3f7fd069	0.99927384
31	0x3f7fd1c5	0.9992946
32	0x3f8014b1	1.0006315
33	0x3f7fd18e	0.9992913
34	0x3f8016c3	1.0006946
35	0x3f800577	1.0001668
36	0x3f80163b	1.0006784
37	0x3f7fcf05	0.9992526
38	0x3f7fd30a	0.99931395
39	0x3f801789	1.0007182
40	0x3f80619f	1.0029792
41	0x3f7fd1e0	0.9992962
42	0x3f803173	1.0015091
43	0x3f7fd3d4	0.999326
44	0x3f8013e1	1.0006067
45	0x3f7fe46f	0.99957937
46	0x3f7f8cdf	0.9982433
47	0x3f7f566b	0.9974124
48	0x3f7e8b74	0.9943154
49	0x3f801e94	1.0009332
50	0x3f7f911e	0.99830806
51	0x3f8016cc	1.0006957
52	0x3f7fe37f	0.99956506
53	0x3f8015ed	1.0006691
54	0x3f801c08	1.0008554
55	0x3f7fd2ed	0.9993122
56	0x3f8014e3	1.0006374
57	0x3f801612	1.0006735
58	0x3f7fbc41	0.9989663
59	0x3f7fb06c	0.99878573
60	0x3f800be4	1.0003629
61	0x3f801514	1.0006433
62	0x3f7fd12f	0.99928564
63	0x3f7feb41	0.99968344

base.mlp.fc2.0.2.bias f4 [64]
0	0x3a358aa9	0.0006925264
1	0xba2e7369	-0.00066547707
2	0xba3af0bf	-0.0007131211
3	0xba2a8871	-0.00065053167
4	0x3a3546a1	0.00069151266
5	0xba368cfb	-0.0006963757
6	0xba354cb7	-0.00069160335
7	0x3a3049f5	0.00067248876
8	0xba38d33c	-0.00070505193
9	0x3a320219	0.00067904737
10	0xba294af4	-0.0006458007
11	0xba30c52a	-0.0006743247
12	0xba1ef727	-0.000606405
13	0x3a21a439	0.00061661337
14	0xba307b17	-0.0006732209
15	0x3a38742e	0.0007036355
16	0xba3a9f78	-0.00071190996
17	0x3a3ec6ab	0.00072775286
18	0x3a374bfe	0.000699222
19	0x3a2b6573	0.00065382494
20	0x3a78edb3	0.0009495869
21	0x3a388797	0.00070392474
22	0x3a293766	0.00064550934
23	0x3a382a3f	0.0007025338
24	0x3a79c476	0.0009527871
25	0x3a30a67c	0.00067386753
26	0xba35bd1d	-0.0006932782
27	0xba395c19	-0.00070709136
28	0xba402dfe	-0.0007331072
29	0xba35bbd2	-0.00069325895
30	0xba3c20d5	-0.0007176523
31	0x3a3a3d41	0.00071044645
32	0xba301782	-0.000671737
33	0xba3e369d	-0.0007256063
34	0x3a2ebc85	0.0006665665
35	0xba321ed8	-0.0006794757
36	0x3a3057e0	0.00067269616
37	0x3a36b642	0.00069699076
38	0x3a38139a	0.0007021964
39	0xba2ea49c	-0.0006662102
40	0x3a42afe8	0.0007426725
41	0xba3696a3	-0.00069651956
42	0xba2abcc4	-0.00065131136
43	0x3a35beda	0.0006933041
44	0xba2c5ded	-0.00065752753
45	0x3a3c3314	0.0007179242
46	0x3a3c15cd	0.00071748794
47	0x3a35d080	0.0006935671
48	0xba34f84c	-0.0006903454
49	0xba2f9335	-0.0006697656
50	0xba3642ab	-0.00069526833
51	0xba322c8a	-0.0006796798
52	0x3a44ed66	0.0007512182
53	0xba30ce03	-0.00067445653
54	0xba30dcfc	-0.00067467964
55	0x3a370e0b	0.00069829886
56	0x3a25f403	0.0006330611
57	0x3a2d73ef	0.0006616702
58	0xba37168d	-0.00069842563
59	0x3a35ff65	0.0006942659
60	0x3a31aba5	0.0006777591
61	0x3a26791f	0.0006350446
62	0xba375255	-0.00069931644
63	0xba31071a	-0.00067530724

v_out.weight f4 [1, 64]
0	0x3e86a637	0.26298687
1	0xbd910538	-0.070810735
2	0xbd618089	-0.05505422
3	0xbd256907	-0.040383365
4	0x3e342912	0.17593792
5	0xbe201080	-0.15631294
6	0xbea0eb32	-0.3142944
7	0x3dd844d2	0.105600014
8	0xbdaab7c5	-0.083358325
9	0x3e43121a	0.19049874
10	0xbd0b4337	-0.033999648
11	0xbdf6ad08	-0.12044722
12	0xbc9b6947	-0.018971099
13	0x3cb35f59	0.021896051
14	0xbddea098	-0.108704746
15	0x3db436af	0.087994926
16	0xbd6defba	-0.05808995
17	0x3d11d14e	0.0356
18	0x3d9a401b	0.075317584
19	0x3d3c602d	0.045990158
20	0x3bab68a6	0.005230981
21	0x3db1c010	0.08679211
22	0x3d16e9cf	0.03684407
23	0x3dc1bca0	0.094598055
24	0x3bab68a8	0.005230982
25	0x3ded6c12	0.115928784
26	0xbe10fbc6	-0.14158544
27	0xbd975dde	-0.073909506
28	0xbd01ddc3	-0.03170563
29	0xbe6f0bf5	-0.23344405
30	0xbd441ba9	-0.04787794
31	0x3d803def	0.06261813
32	0xbdcc6f28	-0.09982139
33	0xbd1c67b3	-0.038184833
34	0x3d9838d7	0.07432716
35	0xbe58255e	-0.21108004
36	0x3dda236d	0.10651288
37	0x3e15e7d9	0.14639224
38	0x3dc68c47	0.096947245
39	0xbd95621f	-0.07294106
40	0x3cc2da63	0.023785776
41	0xbe1dad3c	-0.15398115
42	0xbd18317f	-0.03715658
43	0x3e6cbfa1	0.23119976
44	0xbd53935f	-0.051654216
45	0x3d454278	0.048159093
46	0x3d37eb33	0.044902038
47	0x3e48c7ff	0.19607542
48	0xbe7682cb	-0.24073331
49	0xbdb3c05f	-0.08776926
50	0xbe2217d0	-0.15829396
51	0xbe55b7d2	-0.20870903
52	0xbade6a10	-0.0016968865
53	0xbdfa1c8a	-0.12212475
54	0xbdff65e3	-0.12470605
55	0x3e04bde5	0.12963064
56	0x3ce8c18e	0.028412607
57	0x3d7768f1	0.060402814
58	0xbe02b5e2	-0.12764695
59	0x3e4806e5	0.1953388
60	0x3e2d835e	0.16944644
61	0x3cf16455	0.029466787
62	0xbdf47d7b	-0.11937996
63	0xbe098350	-0.13428998
