results/MyEnv/MyEnv/mappo/check/run90/models/critic_agent1.pt (torch, 89374 bytes, 15 tensors)

base.feature_norm.weight f4 [182]
00000000: 37d7 7e3f dbb5 7f3f dcc7 803f 77f1 7f3f
00000010: f426 803f 2e03 803f 0c0d 803f 211d 803f
00000020: 580b 803f 6de3 7e3f b9fa 7f3f 764d 7f3f
00000030: 5e51 803f adfe 7f3f 3c03 803f 4913 803f
00000040: 371c 803f b754 803f 1d05 803f 0a1c 803f
00000050: 65e4 7f3f d00e 803f d706 803f 0e90 803f
00000060: 0b06 803f 2fe4 7f3f 94c6 7f3f e36f 7f3f
00000070: d209 803f 8510 803f acf8 7f3f 35f9 7f3f
00000080: 6b04 803f df2f 803f 420d 803f 541d 803f
00000090: b1a2 803f 6114 803f fff2 7f3f c461 7f3f
000000a0: 750c 803f 16fa 7e3f 35f9 7e3f 2dc4 7f3f
000000b0: 8ec3 7f3f 4328 803f 6913 803f 261c 803f
000000c0: 6d00 803f 20ae 7f3f 6676 7f3f 5f07 803f
000000d0: 9dde 7f3f f0d0 7f3f 97db 7f3f 8107 803f
000000e0: 2201 803f ad08 803f b5e6 7f3f d106 803f
000000f0: 9655 803f 820a 803f a100 803f 05e7 7f3f
00000100: f40b 803f 5b44 803f 681f 803f 3c0e 803f
00000110: aef9 7f3f ce8d 7f3f 97c1 7f3f 5e0a 803f
00000120: 8a76 7f3f 6b5c 803f 898d 7e3f d303 803f
00000130: 3d1f 803f 525d 803f a877 7e3f 9fe9 7f3f
00000140: 343b 7f3f 2d09 803f a7aa 7f3f cbe0 7f3f
00000150: e4e8 7f3f ca12 803f e62e 803f b496 803f
00000160: 01ee 7f3f f3bc 7f3f 2a28 803f 4857 7f3f
00000170: 3ae3 7f3f ad29 803f ccfe 7f3f ca02 803f
00000180: a7d5 7f3f b35a 7f3f 35fa 7f3f 8a0a 803f
00000190: fe78 7e3f 11a7 7f3f 2fbf 7f3f cba2 7f3f
000001a0: 8111 803f 142a 803f 5416 803f 80c3 7f3f
000001b0: d406 803f 94aa 803f e59a 7e3f a634 803f
000001c0: 35fd 7f3f 0990 7f3f 52aa 7f3f 4c12 803f
000001d0: ddfa 7f3f 8b0f 803f 83ad 7e3f 19fa 7f3f
000001e0: 7bf4 7f3f 3bec 7f3f 6ce7 7f3f 5218 803f
000001f0: 189c 7f3f 7110 803f 14d6 7f3f baf7 7f3f
00000200: cc25 803f 4f00 803f 6dfd 7f3f a3fd 7f3f
00000210: fa6d 7f3f 0110 803f 260b 803f 53f5 7f3f
00000220: a2a5 7f3f 7373 7f3f b0d3 7f3f 7f0c 803f
00000230: 19e4 7f3f 0204 803f 2f9e 803f 5a23 803f
00000240: 05ab 7f3f da0a 803f 6bd7 7f3f 1616 803f
00000250: d1f7 7f3f 6b99 7f3f 3255 803f beec 7f3f
00000260: 8bc6 7f3f 401a 803f 5f96 7f3f f80c 803f
00000270: 59f8 7f3f 4c03 803f 2d19 803f db14 803f
00000280: 0b09 803f 7574 7f3f 6652 803f b50d 803f
00000290: 5cc8 803f 8c26 7f3f 8eb3 7e3f 7deb 7f3f
000002a0: 3463 803f 8d2a 803f 5511 803f 2961 7f3f
000002b0: 1188 7f3f b7f3 7f3f 9be0 7f3f 0911 803f
000002c0: 95cb 7f3f ae4a 803f 2c8f 7f3f cccc 7f3f
000002d0: a909 803f 95f9 7f3f
0.9954714 0.99886864 1.0060992 0.9997782 1.0011888 1.000097 1.0003982 1.000889
1.0003462 0.99565774 0.9999195 0.9972757 1.0024831 0.9999798 1.0000987 1.0005885
1.000861 1.0025853 1.000156 1.0008557 0.9995788 1.000452 1.0002087 1.0043962
1.0001844 0.99957556 0.9991238 0.997801 1.0002997 1.0005041 0.9998882 0.99989635
1.0001348 1.0014609 1.0004046 1.000895 1.004965 1.0006219 0.9998016 0.99758554
1.0003802 0.9960035 0.9959901 0.99908715 0.9990777 1.0012287 1.0005924 1.000859
1.000013 0.9987507 0.99790037 1.000225 0.99949056 0.9992819 0.9994444 1.000229
1.0000346 1.0002648 0.99961406 1.000208 1.0026119 1.0003207 1.0000192 0.9996188
1.0003648 1.002086 1.0009584 1.0004344 0.99990356 0.9982575 0.9990477 1.0003164
0.9979025 1.0028204 0.99434716 1.0001167 1.0009533 1.0028479 0.9940133 0.9996585
0.9969971 1.00028 0.9986977 0.9995238 0.9996474 1.0005734 1.0014312 1.0045991
0.9997254 0.9989769 1.0012257 0.99742556 0.99956095 1.0012718 0.99998164 1.0000851
0.9993538 0.9974777 0.9999116 1.0003216 0.9940337 0.998643 0.999011 0.9985778
1.0005342 1.0012841 1.0006814 0.99907684 1.0002084 1.0052056 0.994551 1.0016067
0.9999574 0.99829155 0.99869263 1.0005584 0.9999216 1.0004743 0.9948351 0.99990994
0.9998242 0.99969834 0.99962497 1.0007422 0.99847555 1.0005018 0.9993603 0.99987376
1.0011535 1.0000094 0.9999607 0.99996394 0.99777186 1.0004884 1.0003402 0.9998371
0.9986211 0.99785537 0.99932384 1.0003814 0.99957424 1.0001223 1.0048274 1.0010788
0.9987033 1.0003312 0.99938077 1.000674 0.9998751 0.9984347 1.0026 0.99970615
0.9991233 1.0008011 0.99838823 1.0003958 0.99988323 1.0001006 1.0007683 1.0006365
1.000276 0.99787074 1.0025146 1.0004183 1.0061145 0.9966819 0.9949273 0.999687
1.0030274 1.0012985 1.0005289 0.9975763 0.99816996 0.99981254 0.99952096 1.0005199
0.99920017 1.002279 0.9982784 0.9992187 1.0002948 0.99990207

base.feature_norm.bias f4 [182]
00000000: 5ce6 913b 0201 983a e4a6 c7bb e967 9e38
00000010: f834 9eba 6ac2 c5b9 3c28 9e39 8a9a 66ba
00000020: cb7c b2b9 82df 1abb 32f8 24b8 d26c 343b
00000030: d669 23bb ae67 5638 0cbe 0139 9a66 eeb9
00000040: 5d7c 64ba 55c7 2abb 46d0 f2b8 5664 633a
00000050: e1a0 d8b9 8f46 ed39 3367 4839 5238 8e3b
00000060: 8473 5239 feb6 d1b9 7c21 61ba d18a 11bb
00000070: 54da a539 5165 093a d448 01b9 1e29 b1b8
00000080: e045 0c39 728a bd3a 4324 d639 61b6 6c3a
00000090: 79f0 a13b 5eef 273a 079f 5cb9 5c1a 20bb
000000a0: 9d13 ce39 d3c2 82bb 9b6f 83bb 5ce3 77ba
000000b0: b058 70ba a5c2 a03a a719 193a b504 6c3a
000000c0: d98c 3635 0f2e a2ba a4a6 09bb 7108 6039
000000d0: 54bc 11ba f351 39ba 68d4 12ba f7a1 c1b9
000000e0: eb0b 6238 aff8 4239 8e8c d0b9 bd3f 5c39
000000f0: 02f7 2b3b b90d a439 bf55 4537 dfe6 c3b9
00000100: 5ce5 b139 fa77 093b 9c65 7d3a 585e e839
00000110: 8a5b a1b8 e5d0 e3ba 33f6 7eba 7cca aa39
00000120: 3699 07bb 0769 3a3b fd52 b9bb bcbf 0739
00000130: 92d5 763a a416 3b3b 4c7c c4bb 760b bbb9
00000140: 5b8f 42bb 5354 8839 1391 aaba f355 f0b9
00000150: 0f10 a1b9 be18 1b3a eda3 bc3a 2eda 993b
00000160: eb9f 94b9 5a0b 88ba e932 a33a 1cd5 173b
00000170: fa3e f939 5147 abba 13e1 fb39 66c2 73b8
00000180: 86dc 263a 8b10 523a 1159 e138 164d 6cb9
00000190: 8973 7a3a fe89 af3a abe5 853a 3631 bd3a
000001a0: f7ec 02ba 9086 a83a c130 2aba 9aa9 663a
000001b0: 1b1e 73b9 df4e aabb eb66 b13b 9b31 d63a
000001c0: 4292 16b8 0aa2 e2ba ded2 adba e75c 1c3a
000001d0: 624f 96b8 b5c4 fd39 944f a9bb 5ee6 d7b8
000001e0: b767 2fb9 ed20 98b9 65eb bab9 7c60 443a
000001f0: 1359 caba f087 fc39 ce2a 2bba 8a64 01b9
00000200: 2203 983a 6168 c8b6 4e5d d4b7 a116 c6b7
00000210: c70a 13bb 782e 043a c3f0 b639 6ebc 38b9
00000220: 6c93 b7ba d989 16bb dc1a 34ba 7770 cb39
00000230: 2965 e2b9 ef00 0b39 f395 9d3b d797 8f3a
00000240: a0e0 abba 4235 af39 ef6c 27ba bca5 383a
00000250: 5935 1bb9 2625 cfba 558d 2a3b ed26 86b9
00000260: d7fa 67ba 75e1 5b3a 8b4e d7ba fad0 db39
00000270: ab5d d5b8 c5c7 c038 9a35 4b3a 6993 333a
00000280: 27f4 8439 53ad 0bbb 79b6 263b b623 d739
00000290: 9bd4 c83b e58f 59bb e863 a7bb cb64 acb9
000002a0: 2a10 483b 64fc ac3a e7ef 0f3a c695 1dbb
000002b0: 93f7 e5ba 7f6c 52b9 c2e1 00ba ea15 083a
000002c0: fdab 53ba 0b4b 163b 7ebd deba 2032 4eba
000002d0: edd8 9239 a391 d5b8
0.00445251 0.001159698 -0.006092893 7.553382e-05 -0.0012070229 -0.00037719618 0.00030166085 -0.0008796832
-0.00034043784 -0.0023631756 -3.9331797e-05 0.0027530682 -0.002493491 5.1118135e-05 0.00012373197 -0.00045471342
-0.00087160413 -0.0026058753 -0.00011578253 0.0008674314 -0.00041318595 0.00045256733 0.00019111931 0.00434021
0.00020070194 -0.00039999926 -0.00085880584 -0.0022207985 0.0003163392 0.00052412326 -0.00012329529 -8.4476764e-05
0.00013377471 0.0014460816 0.00040844278 0.0009029862 0.0049419967 0.0006406213 -0.00021040077 -0.0024429774
0.00039305995 -0.00399051 -0.004011107 -0.00094561814 -0.0009168489 0.001226504 0.00058403093 0.0009003387
6.8005244e-07 -0.0012373346 -0.0021003867 0.0002136545 -0.0005559374 -0.00070694013 -0.0005601109 -0.00036932502
5.38937e-05 0.00018593924 -0.00039777573 0.0002100458 0.0026239757 0.00031290742 1.1762079e-05 -0.0003736531
0.00033930957 0.0020976053 0.0009666325 0.0004432078 -7.694129e-05 -0.0017380981 -0.00097260176 0.0003257579
-0.0020690686 0.0028443949 -0.005655645 0.0001294603 0.000941598 0.002854743 -0.0059962627 -0.00035675958
-0.0029687497 0.00026002768 -0.0013013206 -0.00045840404 -0.00030720278 0.00059164676 0.0014392115 0.0046951985
-0.00028347908 -0.001037936 0.0012451085 0.0023167795 0.00047539902 -0.0013067519 0.00048042144 -5.8116762e-05
0.0006365258 0.00080133294 0.00010745426 -0.0002253543 0.0009553959 0.0013392565 0.0010215541 0.0014434222
-0.0004994417 0.0012857486 -0.000649225 0.00087990763 -0.00023185501 -0.0051973904 0.00541388 0.0016341688
-3.5899e-05 -0.0017290723 -0.0013261696 0.0005964771 -7.1673436e-05 0.0004840248 -0.005166957 -0.00010294908
-0.00016727937 -0.0002901623 -0.00035652067 0.0007491184 -0.0015437923 0.00048166467 -0.0006529511 -0.00012339852
0.0011597613 -5.972616e-06 -2.5315818e-05 -2.3613977e-05 -0.0022436844 0.0005042325 0.00034893127 -0.00017617803
-0.0014005727 -0.0022970347 -0.00068704574 0.0003880297 -0.0004318145 0.00013256421 0.004809135 0.0010955286
-0.0013113208 0.0003341828 -0.0006386777 0.00070437393 -0.00014801825 -0.0015803918 0.0026024182 -0.00025587474
-0.0008849329 0.0008387783 -0.0016426606 0.00041926635 -0.000101740785 9.1924834e-05 0.00077518227 0.0006850274
0.0002535891 -0.0021313026 0.0025438352 0.00041034602 0.00612886 -0.003319734 -0.0051083453 -0.00032881493
0.0030527213 0.0013197777 0.00054907653 -0.002404557 -0.0017545096 -0.00020067579 -0.0004916453 0.0005191254
-0.00080746395 0.0022932913 -0.0016993729 -0.00078657456 0.00028008912 -0.000101837584

base.mlp.fc1.0.weight f4 [64, 182]
00000000: 0549 2ebe 25d9 cfbd 9ad4 9fbd 0fea ab3d
00000010: 2ca1 ddbc bc4e 13be b527 943e 92ce 3e3e
00000020: d3f8 0cbd 1162 50bd 5b92 2c3e 9616 9b3d
00000030: 10ec 6bbd 98bb 8dbd 12e8 9f3e a715 c13d
00000040: 798e 003e 29e8 43be 3228 423d 26ab cd3d
00000050: b76b 10be 40ab 613d e42c eb3d 6e7c 203d
00000060: 154d 723d 470e 173e 72b6 8fbe a9df c33d
00000070: cfe8 c63b b6d1 4a3e 355e 77bd b015 703e
00000080: d529 a73d 6b45 213e 2a1f 133c 8243 533c
00000090: deed 29bd 6692 0d3e 74ca c93c ea08 5e3e
000000a0: cade e0bd b468 a7bc 7f0a 09be 5f2e 373d
000000b0: eb5b eebd 203c e3bd 5a48 653d 9ec4 063d
000000c0: deef eb3d 6eaa 20bc 9c7c 6b3e 1c60 743e
000000d0: 3c9e d2bd 07b9 11be 0bd1 f8bd 5a74 5f3e
000000e0: b8ac d7bb 7e89 58be af94 58be 96f1 c53d
000000f0: 27be a03d 4808 6c3d 75f1 72bd 6770 703d
00000100: cc0b 8ebd f9a2 8d3c f0f9 99bd 6366 803a
00000110: 6c72 eebd b6a2 05be dc14 943a 0d60 d8bd
00000120: 9422 54bd 7912 c63c 4271 eb3b eecf eb3d
00000130: 0383 86be cc93 ff3c 70aa 84bc edad 4f3e
00000140: 65f2 ba3d f0be 8f3e 3620 98bd 1a73 dfbc
00000150: df59 c73c 3cc2 58be 8675 d53d f346 87bd
00000160: 2e22 a5bd e532 fe3c 2ad5 43bd 00b2 7bbd
00000170: b0bb 883e a350 0fbd 96fa 583d 6ce8 203e
00000180: 4903 b5bd 6f4a a0bd f332 0dbe 6b86 313b
00000190: e209 35be 0c57 5d3d 833a a8bd 9043 1cbc
000001a0: f1ad eebd 416c 4c3d d6b2 033e a007 d2bb
000001b0: 5a53 963c 0f65 413e 616f 333e c3d9 53bd
000001c0: b75e 963e a3ff 713c 3bae 133e 3f65 81bd
000001d0: 0886 75bd a316 403e 91d4 5f3e 1a5f 363e
000001e0: a436 613d 70ce 693d ae37 a73c 284e 42bd
000001f0: 9990 05be 4d4f 703d f08d da3b 0978 a53d
00000200: f009 663d 24d2 67be 8510 623e 18d0 043e
00000210: ee25 71bc 5469 28bd 333d 63be e490 9e3d
00000220: 3836 4ebd 1bc8 583d 5195 4bbe d550 133e
00000230: 7158 073e efba cf3d e7e1 c83c e050 013e
00000240: 5c9b 163e 8996 303d 4465 833e d021 c6bd
00000250: d1ed 11be 3668 27be 5a03 ff3c ab37 5e3c
00000260: cae6 6e3c 8059 6bbd de8b 30bd 1f7b dfbd
00000270: 3fc2 89bd 78b5 f93d 3231 b3bd 53ab 1a3c
00000280: b426 e23d 198b 7e3e aba3 d839 c10b a43c
00000290: 7146 68bd 9684 b6bd e03e 1f3c 6a07 193c
000002a0: f361 8bbd 1603 21bd 6424 43be 9edd d2bb
000002b0: e176 173e a2a9 95bd 67d5 72bc 4f70 afbd
000002c0: 1cb7 45bd 35c2 09be cdb7 7dbe 71fc e13d
000002d0: a59e ccbc a455 1abd 2913 7bbe ebeb 293d
000002e0: b709 85bc 43d9 903d a6a8 e1bc 8461 e1bd
000002f0: 822b 8cbe edc8 953d 96b4 f83d bb1c 26be
00000300: 9ad3 4ebe 887e 883e 86a4 1fbd 58a8 933d
00000310: 0de1 e2bd dd80 d1bc 39fc 02be ba79 babc
00000320: dc7d d8bb fca7 b03d e747 89ba 7912 3ebd
00000330: 9371 d53d 187a 44bd c86d 6c3e 197d c83d
00000340: 2480 54be 5130 d3bc 2470 a13d 83e6 103e
00000350: ba2d 003e 9d82 3cbd f187 e53d ab08 003e
00000360: 0bac ca3d 7c6a c5bc 81b7 a43d bc86 433c
00000370: 7f99 01bd 63c6 ec3d 45f9 ff3c e6b4 f3bb
00000380: 0ec8 103e 1a88 623d 643b 343d ef9a 0abe
00000390: e9b0 04bc 8acc b43d 1ece e9bd 5cec e2bd
000003a0: 4990 b0bd 6fb6 883d 814a 81bd f59b 55bd
000003b0: 457c f6ba a99d a2bd 237c 3ebc c3ef d6bd
000003c0: 95f1 4d3e aa2d 453e 10c0 633e 2641 9cbd
000003d0: 1675 c03c cc6e 973d 75ef e6bd c5e1 5bbd
000003e0: 0be1 37bd 5d01 9abe 6134 04be ba66 f73d
000003f0: 0cdd 023d 8b0d 983c 4294 4b3d ca42 0fbd
-0.17020042 -0.10148839 -0.078042224 0.083942525 -0.027054392 -0.14385504 0.28936544 0.18633488
-0.034416985 -0.050874773 0.16852705 0.07572667 -0.057598174 -0.06920546 0.31231743 0.09427958
0.12554349 -0.19131531 0.047401614 0.100424096 -0.1410359 0.055094957 0.114831716 0.039181165
0.059155542 0.1475154 -0.28068882 0.09564144 0.0060702334 0.19806561 -0.060392577 0.23445773
0.08162276 0.15749137 0.008979598 0.012894513 -0.041486613 0.13825378 0.02463267 0.21683088
-0.10979994 -0.020435669 -0.1338291 0.044721957 -0.11638626 -0.11095452 0.055977203 0.032902353
0.115203604 -0.009806259 0.22996753 0.23864788 -0.10284087 -0.14230739 -0.12149247 0.21821728
-0.006581869 -0.21146199 -0.21150468 0.096652195 0.07848769 0.057625085 -0.059312303 0.058700945
-0.06935844 0.017289625 -0.07518375 0.0009796139 -0.11642918 -0.1305035 0.001129772 -0.10565195
-0.05179079 0.02417873 0.0071851322 0.11514269 -0.2627183 0.031198405 -0.016194552 0.20281191
0.09128264 0.2807536 -0.07428019 -0.027276564 0.024334846 -0.21167845 0.104228064 -0.06605329
-0.0806316 0.031030128 -0.04781071 -0.06144905 0.26705694 -0.03498901 0.052973352 0.15713662
-0.08838517 -0.07826697 -0.13788967 0.0027088176 -0.17679551 0.054038092 -0.08214285 -0.0095375925
-0.116542704 0.049907926 0.12861189 -0.0064096004 0.018350292 0.18886207 0.17522956 -0.051721346
0.29369137 0.014770421 0.14421932 -0.06318139 -0.059942275 0.18758635 0.21858431 0.17809716
0.05498375 0.05708164 0.020412292 -0.047437817 -0.13043441 0.058669377 0.0066697523 0.080795355
0.05616182 -0.22638756 0.22076614 0.12970006 -0.014718516 -0.041116074 -0.22191314 0.077424794
-0.050344676 0.05292521 -0.19881178 0.14386304 0.13217331 0.10143077 0.024521781 0.12628508
0.14707702 0.04311231 0.25663197 -0.09674418 -0.14250876 -0.16348347 0.031129528 0.013563077
0.014581392 -0.0574584 -0.043102138 -0.10912155 -0.067265026 0.121928155 -0.08749618 0.009440261
0.11042538 0.24857749 0.00041320673 0.020025136 -0.056707803 -0.089120075 0.00971958 0.009340147
-0.06805792 -0.039309584 -0.1905685 -0.0064351102 0.14791442 -0.073077455 -0.014821387 -0.08566343
-0.04827033 -0.1345299 -0.24777146 0.110344775 -0.024977991 -0.03767933 -0.24519028 0.041484755
-0.016239984 0.070726894 -0.027546238 -0.11004928 -0.27376944 0.07313714 0.12143819 -0.16221897
-0.20197907 0.26659036 -0.03897526 0.072098434 -0.11078081 -0.025574142 -0.12791528 -0.022763122
-0.0066068005 0.086257905 -0.0010473699 -0.046404336 0.10422053 -0.047968 0.23088753 0.097894855
-0.20752007 -0.025779875 0.07882717 0.14150433 0.12517443 -0.046023 0.112075694 0.12503307
0.09896096 -0.024098627 0.08042813 0.011933979 -0.031640526 0.11561277 0.03124679 -0.0074373363
0.14138815 0.055305578 0.04400195 -0.13535665 -0.008098819 0.08828075 -0.11416267 -0.11080238
-0.0862127 0.066754214 -0.063130386 -0.052150685 -0.0018805346 -0.079402275 -0.011626276 -0.1049495
0.20111687 0.192557 0.22241235 -0.076296136 0.02349333 0.0739418 -0.112761416 -0.053682107
-0.044892352 -0.30079165 -0.12910606 0.120801404 0.031949088 0.018561145 0.049701937 -0.034975804

base.mlp.fc1.0.bias f4 [64]
00000000: 4cd9 ba3a 5a74 743a 7a95 87b9 9382 82ba
00000010: c28b 853b 85c6 c63a 93b0 a8b9 23bf 8c3a
00000020: 59ef 77b7 a6cc 063b 41c8 6b39 fb32 dfba
00000030: 5d53 8639 f354 bf3a e9ac 03bb 87cb 913a
00000040: 3296 823a 2436 2bba 4b5d 1cbb f5fb 0e3a
00000050: e0c9 60b9 9e60 91ba 8282 8539 ba47 5439
00000060: 4958 feba e488 93ba 3e88 a43a 8c48 0eba
00000070: a2b3 9f3b 6922 583a 6792 10ba caf0 cdb8
00000080: b12b 71ba af14 adba c6d7 363b 1df0 0dbb
00000090: 3131 6939 3578 3f3a 9966 333b 930b 1bbb
000000a0: 48b8 1b3a ea53 7dbb 8b26 9b3b a779 843a
000000b0: 1021 603a c37e deba c71f bfba 1c1c c03a
000000c0: 3f2c a63a a9a7 203a 26de 2f3a cbcb 04bb
000000d0: 544c aaba c119 75ba fdcd e139 5ea8 973a
000000e0: 1507 0c3b 7428 0f3b e39c 52ba 56a1 00bb
000000f0: d76f f6ba cdfa a0b9 b2ad 0c3b 4162 24ba
0.0014255433 0.0009325199 -0.00025860575 -0.0009957127 0.0040754983 0.0015165365 -0.00032175015 0.0010738116
-1.4778075e-05 0.0020568757 0.00022485947 -0.0017028743 0.00025620582 0.001459746 -0.0020092076 0.0011123278
0.0009962975 -0.00065312 -0.0023859318 0.00054544146 -0.00021437509 -0.0011091416 0.00025464973 0.00020244616
-0.0019404973 -0.0011256007 0.001255281 -0.00054276804 0.004873709 0.00082448736 -0.000551498 -9.820012e-05
-0.0009199931 -0.0013205017 0.0027899607 -0.0021658011 0.00022238937 0.0007303984 0.0027374385 -0.0023658022
0.0005940241 -0.0038654753 0.0047348193 0.0010107056 0.00085498486 -0.0016975034 -0.0014581614 0.0014656815
0.0012677981 0.0006128499 0.0006708823 -0.0020263072 -0.0012992718 -0.0009349846 0.00043068817 0.0011570563
0.0021366526 0.002184418 -0.0008034242 -0.0019627414 -0.0018801641 -0.0003070444 0.0021465835 -0.00062707445

base.mlp.fc1.2.weight f4 [64]
00000000: 5e9c 7f3f 40f1 7f3f 70e4 7f3f fd05 803f
00000010: e70c 803f f6ff 7f3f c8b1 7f3f 14b8 7f3f
00000020: 1194 7f3f 44ff 7f3f 3ae7 7f3f db55 803f
00000030: ec03 803f e6b9 7f3f 84d7 7f3f 7b31 803f
00000040: 320f 803f 830c 803f 9a34 803f 12e2 7f3f
00000050: c405 803f 4cee 7f3f 2208 803f e907 803f
00000060: 3c0c 803f 1e3c 803f a9d7 7f3f 73e0 7f3f
00000070: 30c4 803f 3ab6 7f3f c6bd 7f3f 8639 803f
00000080: 3f2a 803f 0807 803f 53bb 7f3f 4d31 7f3f
00000090: 640e 7f3f 554d 7f3f b2aa 803f 3731 803f
000000a0: dfe0 7f3f 0a1e 7f3f 9cc6 803f 10c5 7f3f
000000b0: 51dc 7f3f b608 803f da15 803f f11b 803f
000000c0: dec6 7f3f 8c10 803f dd08 803f 090d 803f
000000d0: c143 803f f6eb 7f3f 5b04 803f 3c07 803f
000000e0: 1aa0 7f3f e8e1 7f3f d0e8 7f3f 7ad1 7f3f
000000f0: d24b 803f 9434 803f 413d 7f3f 94e5 7f3f
0.9984797 0.99977493 0.9995794 1.0001827 1.0003937 0.9999994 0.9988065 0.99890256
0.99835306 0.9999888 0.999622 1.0026201 1.0001197 0.99893034 0.99938226 1.00151
1.0004637 1.0003818 1.0016053 0.9995433 1.000176 0.9997299 1.0002482 1.0002414
1.0003734 1.0018346 0.99938446 0.9995186 1.0059872 0.9988743 0.99898946 1.0017555
1.0012892 1.0002146 0.9989521 0.996846 0.99631333 0.99727374 1.0052092 1.0015019
0.999525 0.9965521 1.0060611 0.9991007 0.9994555 1.0002658 1.0006669 1.0008527
0.9991282 1.000505 1.0002705 1.0003978 1.0020677 0.9996942 1.0001329 1.0002208
0.9985367 0.9995408 0.9996462 0.9992901 1.0023139 1.0016046 0.9970284 0.99959683

base.mlp.fc1.2.bias f4 [64]
00000000: a10f bd3a be00 34b9 a33c 0eb5 3b9e 9db9
00000010: 7f0c c239 4398 1639 c266 903a 923b 8138
00000020: 0e4f 803a af76 24b8 42b4 cd39 9c0f dbba
00000030: f399 4839 b811 923a b2e4 adba fcb0 a13a
00000040: 9fb5 1e3a 24a4 9239 5068 dfba c775 9ab9
00000050: 4e9f 2139 a093 7fb9 6927 4a39 d710 5239
00000060: 5159 f0b9 62ca ce3a 94f8 9bb9 4dba 6a39
00000070: 454c c33b 5e2d 4537 c7b4 243a 2e5c 6a38
00000080: d553 35ba 4088 53b9 3414 7c3a ad98 4dbb
00000090: 1bd9 b239 946d 003a fe77 ab3b 1efb beba
000000a0: 5129 dd39 7def 59bb 6d1b c63b a89d d3b9
000000b0: 6786 36b9 be96 acb9 761e 8c39 c98c 613a
000000c0: 48ad 863a 8656 adb8 a647 c239 b187 ebb9
000000d0: f60f 73ba 001b fcb9 ba2b c439 837c 8d3a
000000e0: 4094 c43a ddb4 93b9 6c77 f2b9 f576 9db8
000000f0: 3135 15bb ba53 bcb9 6147 723a 328f e6b9
0.0014424213 -0.00017166414 -5.298736e-07 -0.00030063264 0.00037011874 0.00014361837 0.0011016952 6.162295e-05
0.0009789185 -3.921118e-05 0.0003923495 -0.0016713026 0.00019130837 0.0011144197 -0.0013267009 0.0012336071
0.00060542853 0.00027969584 -0.0017044637 -0.0002946092 0.00015413502 -0.0002437369 0.00019278903 0.00020033434
-0.00045842913 0.0015776868 -0.0002974911 0.00022385381 0.00596002 1.1752678e-05 0.00062830414 5.5875797e-05
-0.0006917094 -0.00020173285 0.00096160476 -0.003137152 0.00034112562 0.0004899141 0.00523281 -0.0014570688
0.00042183188 -0.0033254318 0.00604575 -0.0004036252 -0.00017406941 -0.00032918708 0.00026725576 0.00086040475
0.001027503 -8.265399e-05 0.00037055946 -0.0004492379 -0.0009272093 -0.00048085302 0.00037416612 0.0010794554
0.0014997795 -0.0002817278 -0.00046246813 -7.508501e-05 -0.00227673 -0.00035920535 0.00092422037 -0.00043975707

base.mlp.fc_h.0.weight f4 [64, 64]
00000000: 4afe 8fbd 177a 003e c944 35be bc15 5ebe
00000010: 7703 cabd 5e88 503e aed3 a3bd d58d 243b
00000020: 652c 3f3d d3b0 713d 9558 8a3d 74f1 ba3e
00000030: bdde 06be 1276 39be adb3 e7bc c59a 323e
00000040: be66 bebd ebb7 533d 6bc0 813e 3dff 89be
00000050: fe8f 5fbe 212e 74be 9eaf c13d f034 99be
00000060: efce 173f 6b1a 28be b68c c2bd 7cbf 833e
00000070: 8b6e af3e eb91 43bd e691 3fbd a5c2 45be
00000080: 7ba1 423d 3e00 1a3e 24cd 6b3e c49a b1bd
00000090: 3b9d 8c3e c2c1 873e 4fff febd 266b 35bf
000000a0: 4f97 89bd fcea 60bd e533 7b3c 9c4e 4d3d
000000b0: 26c5 753d 30de 20bb 6ca3 c3bd e840 abbe
000000c0: 642c 583d 008e e03d 7f09 0ebd c4d4 813c
000000d0: 714f a2be 1971 5c3d e377 aa3d 9c31 88be
000000e0: bded 59be 2104 6fbe 7b15 ad3e 9261 37be
000000f0: bdaf 9b3e 3be1 d0bd 3f7d 803c 0fea 27bd
00000100: c6a0 fc3c cab7 30bd a4cc dabd c602 5cbd
00000110: 03e3 a2bd 9495 413e b891 4b3e 6e9d ef3c
00000120: 95b3 b2bb 2d93 1a3b 8d2f 4e3e 3f18 743d
00000130: 81ad 03bc 37e8 b8bd 9b96 51be ee0d 74bc
00000140: 4d0b e83d b3a2 a7bd 64f9 8bbe 6b21 463d
00000150: 4185 543e fa36 01bf 605d f73d e1ce 1bbe
00000160: df05 2dbe 2465 673e b024 9bbd 8f32 903e
00000170: cdbe 8dbc c96c 21be b593 f0be 21d9 383e
00000180: fc81 523e 7299 4e3e 89eb 403e 18b6 193d
00000190: 10d3 b8be fa6e 4e3d 0cec 0b3f 570d 83be
000001a0: f691 5bbe 3ca9 603d 0ed4 57bc 60d5 8d3b
000001b0: c1ae be3e bccf c43e 7bb7 1cbe b74d b43e
000001c0: 3857 52be 7c02 0d3e 2a7c 9b3e 57db d03d
000001d0: 3d70 2d3e aa30 353d a657 143e 37d4 a1bd
000001e0: 8036 ab3d 6449 8abd 547e b9be 836d 75bd
000001f0: ce6c 5e3e b518 863e 29ec 15be f45e a43e
00000200: f9ec 8cbe d6ef 94bd aae0 13bc 9f76 553e
00000210: c7db fd3d 1468 8ebc 9998 813e fe6c 04be
00000220: f368 00be 234c 413e 4155 8fbe ef71 1abe
00000230: 496d 783c f015 473c 4535 5dbe e39e a33e
00000240: 52f7 77be d28c da3e d7bd d43d b066 ca3e
00000250: 8059 90be 0bac 5cbe 8778 9c3e de1b 1a3e
00000260: e3a7 a73e 0422 f7bd 485a 463e eafe fd3d
00000270: a92a d6be 471d 1bbe 4d31 6d3c 2542 9d3d
00000280: 4a89 a73e 8114 023f 48e6 7d3c 7ea5 063c
00000290: 2bfc cc3c 99a4 d53d f677 3ebd 692d c13d
000002a0: d617 293d 72c6 df3e 0010 ffbd 26b3 143b
000002b0: f8f3 6bbd 51c7 c63c 794b 383e 2fec 2d3e
000002c0: 1d3c f43d 00cd a4bd 4cde 26be 7fdd 73be
000002d0: 32b2 dabd 62cb 44be 76fd 883e b10a 873e
000002e0: dabd 7b3e 0c45 f2bd 18bd 453e 017f 25be
000002f0: 066f 1fbe 286a c13d d63b 5f3e 62b4 6b3e
00000300: 0ea2 053d c7af ad3d c73f 853e f27a 0ebe
00000310: 49e0 0b3e a286 023e d07d 183c b7da 393d
00000320: 1752 e73e 13e5 e63d 2f51 803e c804 0cbe
00000330: 3a83 f6bd 3d6d 8e3e dd46 083e f2a0 4cbd
00000340: a337 a53e 7170 0f3c 7062 cbbe 5583 1fbe
00000350: e5d2 cebd 0fe7 c0be 2c43 e5bd f0b5 84be
00000360: 42cb b73e 5020 80ba 23fc 81be f416 e63d
00000370: 2876 afbe 5f86 67bd dec9 b23e 4d5e 923e
00000380: 6b58 bfbd eed2 923e 78a0 a5bd 24af 073f
00000390: c5f5 463e 2cc4 17be 4c2f c6be 7ce2 8abd
000003a0: 4b29 1bbd 0fbc 433d e98c b4bd bb32 10be
000003b0: 0a24 2aba 1ff1 1d3e 1977 cc3d 902e 553d
000003c0: fda2 2fbe f0ff 94bc 088d 49be 124b afbe
000003d0: e253 583e 5212 8d3e e2ff e8bd ef67 2b3e
000003e0: 2db1 88bd 6cc0 193e 62d1 82be 7180 0abd
000003f0: 0410 a33d 05ba f4bd 8354 44bd 672e 80be
-0.07030924 0.12546574 -0.1770202 -0.21687979 -0.09863942 0.2036452 -0.07999359 0.0025108953
0.046673197 0.059006523 0.06755177 0.3651234 -0.13170905 -0.18111446 -0.028283918 0.17441852
-0.0929694 0.05168907 0.25342116 -0.26952544 -0.21832272 -0.23845722 0.094573244 -0.299232
0.5930013 -0.16416328 -0.09499495 0.25732028 0.34264025 -0.04774658 -0.04677 -0.19312532
0.04751728 0.15039155 0.23027474 -0.08672097 0.27463707 0.26515013 -0.1245104 -0.7086662
-0.06718313 -0.0549116 0.015332197 0.050123796 0.06000247 -0.0024546497 -0.095526546 -0.33447957
0.05277671 0.10964584 -0.034677025 0.015848525 -0.31701234 0.053818796 0.08323648 -0.2660035
-0.21282096 -0.23341419 0.3380545 -0.17908314 0.30407515 -0.10199209 0.015684722 -0.0409947
0.030838381 -0.043144025 -0.10683563 -0.053713582 -0.07953455 0.18904716 0.19879806 0.029249873
-0.0054535368 0.0023586259 0.20135327 0.059593435 -0.008036972 -0.090286665 -0.20467608 -0.014895899
0.113302805 -0.08185329 -0.27338707 0.048371714 0.20753957 -0.5047451 0.12078357 -0.15215637
-0.16896771 0.22597176 -0.07575357 0.28163573 -0.017302895 -0.15764154 -0.46987692 0.18051578
0.20557398 0.20175722 0.1883985 0.037527174 -0.36098528 0.050398804 0.54657054 -0.25596115
-0.21442398 0.054848894 -0.013173116 0.004328415 0.37242702 0.3843974 -0.15304367 0.35215542
-0.20541084 0.13770479 0.30368167 0.10198086 0.16937347 0.044235863 0.1448656 -0.07901805
0.083600044 -0.067522794 -0.36229193 -0.05991889 0.21721193 0.26190725 -0.14640869 0.32103693
-0.27524546 -0.072723076 -0.009025732 0.20846032 0.12395435 -0.017383613 0.25311735 -0.12932202
-0.12540035 0.188767 -0.2799473 -0.15082525 0.015162774 0.012151226 -0.21602352 0.31957158
-0.24215439 0.42685562 0.103877716 0.3953147 -0.28193283 -0.21550004 0.30560705 0.15049693
0.32745275 -0.12067035 0.19370377 0.124021366 -0.41829422 -0.15147887 0.014477086 0.07678632
0.3272193 0.50812536 0.015496798 0.008218167 0.025022587 0.10431785 -0.046501122 0.094324894
0.041282497 0.4370609 -0.12454224 0.0022689789 -0.057605714 0.024264963 0.1799754 0.16984628
0.11925528 -0.08046913 -0.16295737 -0.23814963 -0.10678519 -0.1921821 0.26755875 0.26375344
0.24584141 -0.11829576 0.19310415 -0.1616173 -0.15569696 0.09444076 0.2180017 0.2301803
0.03262525 0.084807925 0.2602522 -0.13914087 0.13659777 0.12746671 0.00930734 0.0453746
0.45179817 0.11274161 0.25061938 -0.13673699 -0.12036748 0.27817717 0.13308282 -0.049958177
0.3226901 0.008754835 -0.3972354 -0.15577443 -0.10098819 -0.37676284 -0.11194453 -0.25920057
0.3589726 -0.0009775255 -0.25387678 0.11234847 -0.34269834 -0.05652463 0.34919637 0.2858757
-0.09343036 0.28676552 -0.080872476 0.5300162 0.19429691 -0.14820927 -0.3870796 -0.0678148
-0.037881177 0.04778677 -0.08815939 -0.14081852 -0.00064903556 0.15424012 0.099836536 0.05204636
-0.17152019 -0.018188447 -0.19682705 -0.34236962 0.21125749 0.2755304 -0.11376931 0.16738866
-0.066744186 0.1501481 -0.2555037 -0.033813898 0.07962039 -0.11949543 -0.04793216 -0.25035402

base.mlp.fc_h.0.bias f4 [64]
00000000: 0000 0000 0000 0000 0000 0000 0000 0000
00000010: 0000 0000 0000 0000 0000 0000 0000 0000
00000020: 0000 0000 0000 0000 0000 0000 0000 0000
00000030: 0000 0000 0000 0000 0000 0000 0000 0000
00000040: 0000 0000 0000 0000 0000 0000 0000 0000
00000050: 0000 0000 0000 0000 0000 0000 0000 0000
00000060: 0000 0000 0000 0000 0000 0000 0000 0000
00000070: 0000 0000 0000 0000 0000 0000 0000 0000
00000080: 0000 0000 0000 0000 0000 0000 0000 0000
00000090: 0000 0000 0000 0000 0000 0000 0000 0000
000000a0: 0000 0000 0000 0000 0000 0000 0000 0000
000000b0: 0000 0000 0000 0000 0000 0000 0000 0000
000000c0: 0000 0000 0000 0000 0000 0000 0000 0000
000000d0: 0000 0000 0000 0000 0000 0000 0000 0000
000000e0: 0000 0000 0000 0000 0000 0000 0000 0000
000000f0: 0000 0000 0000 0000 0000 0000 0000 0000
0.0 0.0 0.0 0.0 0.0 0.0 0.0 0.0
0.0 0.0 0.0 0.0 0.0 0.0 0.0 0.0
0.0 0.0 0.0 0.0 0.0 0.0 0.0 0.0
0.0 0.0 0.0 0.0 0.0 0.0 0.0 0.0
0.0 0.0 0.0 0.0 0.0 0.0 0.0 0.0
0.0 0.0 0.0 0.0 0.0 0.0 0.0 0.0
0.0 0.0 0.0 0.0 0.0 0.0 0.0 0.0
0.0 0.0 0.0 0.0 0.0 0.0 0.0 0.0

base.mlp.fc_h.2.weight f4 [64]
00000000: 0000 803f 0000 803f 0000 803f 0000 803f
00000010: 0000 803f 0000 803f 0000 803f 0000 803f
00000020: 0000 803f 0000 803f 0000 803f 0000 803f
00000030: 0000 803f 0000 803f 0000 803f 0000 803f
00000040: 0000 803f 0000 803f 0000 803f 0000 803f
00000050: 0000 803f 0000 803f 0000 803f 0000 803f
00000060: 0000 803f 0000 803f 0000 803f 0000 803f
00000070: 0000 803f 0000 803f 0000 803f 0000 803f
00000080: 0000 803f 0000 803f 0000 803f 0000 803f
00000090: 0000 803f 0000 803f 0000 803f 0000 803f
000000a0: 0000 803f 0000 803f 0000 803f 0000 803f
000000b0: 0000 803f 0000 803f 0000 803f 0000 803f
000000c0: 0000 803f 0000 803f 0000 803f 0000 803f
000000d0: 0000 803f 0000 803f 0000 803f 0000 803f
000000e0: 0000 803f 0000 803f 0000 803f 0000 803f
000000f0: 0000 803f 0000 803f 0000 803f 0000 803f
1.0 1.0 1.0 1.0 1.0 1.0 1.0 1.0
1.0 1.0 1.0 1.0 1.0 1.0 1.0 1.0
1.0 1.0 1.0 1.0 1.0 1.0 1.0 1.0
1.0 1.0 1.0 1.0 1.0 1.0 1.0 1.0
1.0 1.0 1.0 1.0 1.0 1.0 1.0 1.0
1.0 1.0 1.0 1.0 1.0 1.0 1.0 1.0
1.0 1.0 1.0 1.0 1.0 1.0 1.0 1.0
1.0 1.0 1.0 1.0 1.0 1.0 1.0 1.0

base.mlp.fc_h.2.bias f4 [64]
00000000: 0000 0000 0000 0000 0000 0000 0000 0000
00000010: 0000 0000 0000 0000 0000 0000 0000 0000
00000020: 0000 0000 0000 0000 0000 0000 0000 0000
00000030: 0000 0000 0000 0000 0000 0000 0000 0000
00000040: 0000 0000 0000 0000 0000 0000 0000 0000
00000050: 0000 0000 0000 0000 0000 0000 0000 0000
00000060: 0000 0000 0000 0000 0000 0000 0000 0000
00000070: 0000 0000 0000 0000 0000 0000 0000 0000
00000080: 0000 0000 0000 0000 0000 0000 0000 0000
00000090: 0000 0000 0000 0000 0000 0000 0000 0000
000000a0: 0000 0000 0000 0000 0000 0000 0000 0000
000000b0: 0000 0000 0000 0000 0000 0000 0000 0000
000000c0: 0000 0000 0000 0000 0000 0000 0000 0000
000000d0: 0000 0000 0000 0000 0000 0000 0000 0000
000000e0: 0000 0000 0000 0000 0000 0000 0000 0000
000000f0: 0000 0000 0000 0000 0000 0000 0000 0000
0.0 0.0 0.0 0.0 0.0 0.0 0.0 0.0
0.0 0.0 0.0 0.0 0.0 0.0 0.0 0.0
0.0 0.0 0.0 0.0 0.0 0.0 0.0 0.0
0.0 0.0 0.0 0.0 0.0 0.0 0.0 0.0
0.0 0.0 0.0 0.0 0.0 0.0 0.0 0.0
0.0 0.0 0.0 0.0 0.0 0.0 0.0 0.0
0.0 0.0 0.0 0.0 0.0 0.0 0.0 0.0
0.0 0.0 0.0 0.0 0.0 0.0 0.0 0.0

base.mlp.fc2.0.0.weight f4 [64, 64]
00000000: a350 90bd bead 003e d6f3 35be 0323 5ebe
00000010: f4a5 c9bd a7ce 503e 9d43 a4bd 39ef c03a
00000020: eab2 3d3d e7e6 703d 05bf 893d 70fd bb3e
00000030: dabd 06be 1ca9 39be 83c4 dbbc febc 323e
00000040: 2345 bebd 3ac0 543d 6298 813e 7804 8abe
00000050: 8b65 5fbe c103 74be 6be7 c13d a71e 99be
00000060: febf 173f b451 28be bd12 c3bd fd5c 833e
00000070: f08a af3e 1efc 47bd 815e 3ebd fa28 44be
00000080: 5c68 463d e8a5 1a3e d8a4 693e b03b b1bd
00000090: aca6 8e3e 8a32 893e 50a5 febd eb76 35bf
000000a0: 7bfc 89bd 8831 5fbd 7375 7d3c 2627 4b3d
000000b0: dc2d 783d ee31 25bb f664 c4bd d02a abbe
000000c0: 6b27 573d b2bc df3d f22b 0dbd 462b 803c
000000d0: 11e2 a2be 1cd6 573d e327 a93d 60cb 87be
000000e0: 66fd 59be 62b2 6ebe 1038 ad3e 0e9f 36be
000000f0: d696 9b3e e781 cebd 4e47 4f3c 943b 27bd
00000100: 4ae1 fd3c 359d 31bd 032f d9bd 0d80 5bbd
00000110: 5c4c a3bd ae42 413e cad2 4b3e 93e0 f63c
00000120: 0d6c b1bb 9133 293b 118d 4e3e 3a01 6d3d
00000130: 4e9d 05bc 4773 b8bd 3314 53be 91b7 74bc
00000140: af34 e83d 9534 a8bd d0d1 8bbe 8327 463d
00000150: 224e 543e 0044 01bf 86ee f63d e704 1cbe
00000160: 5bc2 2cbe 7791 673e 82c6 9abd 2579 903e
00000170: fe9b 8fbc 4783 20be 0db6 f0be cc31 383e
00000180: 3ba6 513e d0f0 4d3e 2d23 433e 4cc9 183d
00000190: 48d0 babe 4676 473d 32de 0b3f c1f1 82be
000001a0: 9257 5bbe 2805 5f3d beb8 5abc 7406 993b
000001b0: 395b be3e b4dd c43e 5960 1cbe 3c32 b43e
000001c0: 5426 52be fe56 0d3e 1a58 9b3e 6255 d13d
000001d0: 8974 2b3e 39d3 3a3d 4009 153e 0a26 a3bd
000001e0: b850 ab3d a0e2 8abd e7a7 b9be 1d56 78bd
000001f0: 9aa6 5e3e 8d58 853e 7fb5 12be 2246 a43e
00000200: 05f5 8cbe 29c4 94bd 99fe 19bc 1486 553e
00000210: c4fb fd3d 6e6f 8dbc 2b8d 813e c995 05be
00000220: 5bbc 00be 3a39 413e b25f 8fbe 1492 18be
00000230: 6e4c 7a3c dcdd 453c 650d 5cbe e5b8 a33e
00000240: 2fc6 77be 6b9c da3e 4d5e d43d f453 ca3e
00000250: 6b56 90be e0a1 5cbe f861 9c3e 0f27 1a3e
00000260: 619a a73e c2a7 f7bd c708 463e 1281 fc3d
00000270: 771e d6be 9052 1cbe 04c5 733c b5a1 a03d
00000280: 7309 a83e 0530 023f e821 5c3c c08f 073c
00000290: d627 eb3c 7607 de3d 304b 3ebd f20e c13d
000002a0: a7ca 283d 06eb df3e a605 ffbd a12a e63a
000002b0: 566d 6abd de01 c73c 4ee8 373e 9cf6 2d3e
000002c0: 04e0 f33d ff7a a5bd 09d1 26be ddf2 73be
000002d0: 7465 debd 5982 45be 9db1 883e 4680 873e
000002e0: 71c7 7b3e c9d7 f1bd 4de0 453e 0ebd 24be
000002f0: 1a81 1fbe c10b c33d bf5a 5c3e 99c5 6b3e
00000300: 302a 073d 4902 ad3d 4834 853e f309 0ebe
00000310: bf84 0b3e b341 023e 899d 1d3c 2375 343d
00000320: 9c84 e73e c793 e73d 7e77 803e 830a 0abe
00000330: a639 f7bd ea98 8e3e 8605 093e 6728 4ebd
00000340: e8f8 a43e 09b4 0a3c e741 cbbe c110 20be
00000350: 148d cfbd ff15 c1be 9c3d e6bd 56e4 84be
00000360: eaf2 b73e 912c d6ba cc57 82be 03eb e53d
00000370: 65a0 afbe 2713 6dbd 162d b33e 1a91 923e
00000380: 5fcc bcbd 7ad5 923e ea49 aabd 9199 073f
00000390: 1faa 4a3e dd0a 16be 405d c6be 0a2d 8abd
000003a0: 53cc 19bd c00b 433d 8451 b5bd ec0b 11be
000003b0: 1084 27ba 6462 1e3e ffe2 ca3d 09bd 533d
000003c0: 804f 2fbe 7f56 93bc 78de 49be 8e20 afbe
000003d0: 970e 583e 74c8 8c3e 2f30 e9bd 1da2 2b3e
000003e0: 7cc2 87bd 8f80 193e caf2 82be dee4 05bd
000003f0: 55c0 a33d 4f6c f3bd 50d6 50bd b25c 80be
-0.0704663 0.12566277 -0.17768797 -0.21693043 -0.09846106 0.20391332 -0.08020709 0.0014719731
0.046313204 0.058813956 0.06725887 0.36716795 -0.1315836 -0.18130916 -0.026827103 0.17454907
-0.092905305 0.051941134 0.2531157 -0.26956534 -0.2181608 -0.23829557 0.094679676 -0.29906198
0.5927733 -0.16437417 -0.095250584 0.25656882 0.34285688 -0.048824422 -0.046476845 -0.19156256
0.04843937 0.1510235 0.22816789 -0.086539626 0.27861536 0.2679637 -0.124338746 -0.7088458
-0.0673761 -0.054490596 0.015469897 0.04959788 0.06059061 -0.0025206762 -0.09589569 -0.334311
0.052527826 0.10924663 -0.034465738 0.015645634 -0.318131 0.052694425 0.08259561 -0.2652235
-0.2128807 -0.23310235 0.33831835 -0.17834112 0.30388516 -0.10083371 0.012651278 -0.040828303
0.030991215 -0.043362815 -0.1060467 -0.053588916 -0.07973549 0.18873093 0.19904628 0.030136382
-0.005414492 0.002581809 0.20171 0.057862498 -0.00815518 -0.090063624 -0.20613174 -0.014936344
0.113381736 -0.08213154 -0.27308512 0.048377525 0.2073293 -0.50494385 0.120572135 -0.15236245
-0.16871016 0.22614084 -0.075573936 0.28217426 -0.017530438 -0.15675078 -0.47013894 0.17987746
0.20473568 0.20111394 0.19056387 0.037301347 -0.3648703 0.04869678 0.5463592 -0.2557507
-0.21420124 0.054448277 -0.01334971 0.0046699587 0.37178972 0.38450396 -0.15271129 0.35194576
-0.20522434 0.13802716 0.30340654 0.102213636 0.16743673 0.045611594 0.1455431 -0.0796624
0.08365005 -0.067815065 -0.36260912 -0.060629 0.21743241 0.2604412 -0.14327048 0.32084757
-0.27530685 -0.07263977 -0.00939908 0.20851928 0.12401536 -0.017265048 0.25303015 -0.1304542
-0.12571852 0.18869486 -0.28002697 -0.14899474 0.015277011 0.012076821 -0.21489485 0.31977
-0.24196695 0.42697462 0.10369549 0.39517176 -0.28190932 -0.21546125 0.30543494 0.15053962
0.3273497 -0.12092544 0.19339286 0.12329306 -0.41820118 -0.1526587 0.014878515 0.07843343
0.3281971 0.5085452 0.013435818 0.008274019 0.028705519 0.10841267 -0.046458423 0.09426679
0.04120889 0.43733996 -0.12452249 0.0017560312 -0.057233177 0.024292883 0.17959711 0.16988605
0.11907962 -0.080801 -0.16290678 -0.23823114 -0.108591944 -0.19288005 0.26698008 0.26465052
0.245878 -0.11808736 0.19323845 -0.16087744 -0.15576592 0.09523726 0.21518992 0.23024596
0.032999218 0.084477015 0.2601645 -0.13870983 0.13624857 0.12720375 0.009620079 0.044057023
0.4521836 0.11307483 0.25091165 -0.13480572 -0.120715424 0.2785104 0.13381013 -0.0503315
0.3222115 0.008465775 -0.39698717 -0.15631391 -0.101343304 -0.37712094 -0.1124222 -0.25955456
0.35927516 -0.0016340186 -0.2545761 0.112264656 -0.3430206 -0.057879593 0.34995335 0.2862633
-0.09218668 0.28678495 -0.08314879 0.529687 0.19791459 -0.14652582 -0.3874302 -0.06746872
-0.037548374 0.047618628 -0.088534385 -0.14164704 -0.0006390223 0.1546722 0.09906577 0.05169395
-0.1712017 -0.01798558 -0.19713771 -0.34204525 0.21099316 0.27496684 -0.113861434 0.1676106
-0.06628892 0.14990447 -0.25575858 -0.032688968 0.07995669 -0.118858926 -0.050985634 -0.2507072

base.mlp.fc2.0.0.bias f4 [64]
00000000: 25a9 0e39 ea2a 2eb9 98b3 b037 b869 c8b9
00000010: 3eaa 9039 4105 8fb8 fd5b a9b8 6512 2839
00000020: 5011 5f39 2d53 96b9 c0e4 273a f258 643a
00000030: 8cd5 bc3a 276c 003a debd 8fb9 4719 213b
00000040: de4f dfb9 ad9f deba 2269 0fba 9daf 2c39
00000050: 076f 953a 38ef 97ba 8826 aeba 0658 60b8
00000060: f051 d0ba a280 54ba 65cb 133b 7334 2f39
00000070: b43c 8439 aefd c5b8 bc26 033a ece9 6a3a
00000080: 6fce 6739 b45a 06bb e858 da3a 2bf5 3aba
00000090: 037b e339 c19d 17bb a355 b6ba 11ce b83a
000000a0: 3d79 0bbb bf8b 6dba cf3f 453a b040 41ba
000000b0: 6182 c0b9 0731 b53a 7aca aa38 e3a8 b2ba
000000c0: c721 c038 cc90 3839 74fd ca3a 5d3b d8ba
000000d0: 6802 98b8 74c5 f4b9 4bfd 213b 0ac7 fd3a
000000e0: 558d 1d3a 9ab1 8a3a 99bf 0bba ddc3 9139
000000f0: 6032 22bb 2816 e2b9 4c2a 1d3a 8fed c139
0.00013605187 -0.0001660992 2.1064465e-05 -0.0003822574 0.0002759266 -6.81975e-05 -8.075682e-05 0.00016028581
0.00021273387 -0.000286722 0.0006404631 0.00087107637 0.0014406904 0.00048989285 -0.00027416548 0.0024581717
-0.0004259338 -0.0016984843 -0.0005470683 0.0001646862 0.0011400887 -0.0011591678 -0.001328663 -5.348774e-05
-0.001589356 -0.0008106326 0.0022551653 0.0001670884 0.0002522223 -9.4409435e-05 0.0005003025 0.00089612487
0.00022106779 -0.002050084 0.0016658576 -0.000713187 0.00043388465 -0.00231348 -0.001391102 0.0014099499
-0.002128198 -0.00090616563 0.0007524462 -0.0007372005 -0.00036718234 0.0013823815 8.143946e-05 -0.0013630654
9.161565e-05 0.00017601548 0.0015486912 -0.0016497184 -7.248373e-05 -0.0004668642 0.0024717625 0.0019361686
0.0006010135 0.0010581494 -0.00053309795 0.00027802485 -0.0024749264 -0.00043122587 0.00059953774 0.00036988824

base.mlp.fc2.0.2.weight f4 [64]
00000000: cb05 803f dc07 803f 9beb 7f3f 8a03 803f
00000010: 5515 803f b1f1 7f3f f905 803f 1f02 803f
00000020: 66b9 7f3f 89f5 7f3f 92d1 7e3f d0ce 7f3f
00000030: edfb 7f3f ffc9 803f 7a2d 7f3f 0ae6 7f3f
00000040: 9e02 803f 7bfa 7f3f fff7 7f3f 9068 7e3f
00000050: f0a5 7f3f c802 803f 0504 803f bc49 803f
00000060: 4df3 7f3f 0402 803f 56ac 7e3f 18c2 7f3f
00000070: 8857 7f3f 059c 7e3f 9405 803f 4105 803f
00000080: b208 803f 48b3 7f3f f3fa 7f3f ddf9 7f3f
00000090: 4a97 7f3f d300 803f 41e3 7f3f 6a11 803f
000000a0: c902 803f 7f0a 803f d2ab 7f3f daa0 7f3f
000000b0: e5f5 7f3f aaf5 7f3f 65d1 7f3f 29fb 7f3f
000000c0: 175a 7f3f 72bd 7e3f a6e7 7f3f 95ac 7f3f
000000d0: 6519 803f 9d03 803f 35f9 7f3f 91f0 7f3f
000000e0: c995 7f3f bb04 803f 38f6 7f3f 6a0a 803f
000000f0: 6ef6 7f3f 4f42 803f 67b2 7e3f 23dc 7f3f
1.0001768 1.0002398 0.9996888 1.000108 1.000651 0.99978167 1.0001823 1.0000647
0.9989227 0.9998403 0.9953853 0.99924946 0.99993783 1.0061644 0.99678767 0.99960387
1.0000799 0.9999158 0.99987787 0.993783 0.99862576 1.0000849 1.0001227 1.0022502
0.9998062 1.0000615 0.99481714 0.9990554 0.9974294 0.99456817 1.0001702 1.0001603
1.0002654 0.99882936 0.99992293 0.99990636 0.99840224 1.0000252 0.99956137 1.0005314
1.000085 1.0003203 0.9987155 0.99854815 0.9998458 0.9998423 0.99928886 0.99992615
0.9974684 0.9950782 0.9996284 0.99872714 1.000775 1.0001103 0.99989635 0.9997645
0.9983793 1.0001444 0.99985075 1.0003178 0.99985397 1.0020236 0.9949097 0.99945277

base.mlp.fc2.0.2.bias f4 [64]
00000000: d31d 31b9 d000 2139 bfa9 43b9 a806 1bb9
00000010: 7820 6039 9485 57b9 8d4c 0539 bf4a 3139
00000020: 4c4e 41b9 5714 4739 1e12 3eb9 e093 2139
00000030: 3510 3a39 a3d5 0439 be18 5839 b62e 49b9
00000040: 4cbc 2ab9 803e 2338 6d01 3cb9 37e2 3d39
00000050: 3196 2f39 23ff 1db9 980e 32b9 e085 3039
00000060: 9624 6339 4ef4 3eb9 39f8 a5bb 8839 3eb9
00000070: 27c8 3fb9 39b1 3bb9 3ecc 2639 8101 2339
00000080: e489 1839 5218 4239 9ac9 fa38 dc60 40b9
00000090: d853 2339 cfc5 14b9 bdc1 2cb9 5542 25b9
000000a0: 6b15 32b9 51ca 3eb9 df78 42b9 9b87 4339
000000b0: 8e2c 5e39 bf36 3239 758f 3d39 787f 20b9
000000c0: 4f1d 3139 ff1c 3b39 833d 42b9 7403 9c39
000000d0: 0187 23b9 58ba 24b9 4db5 0939 bf35 57b9
000000e0: 287b 50b9 b81b 1b39 856b 4d39 2807 4239
000000f0: 85d7 4039 caeb 48b9 bfb7 3c39 8999 49b9
-0.00016891146 0.00015354459 -0.00018659885 -0.00014784432 0.000213744 -0.0002055376 0.00012712386 0.0001690788
-0.00018435082 0.00018985696 -0.00018126561 0.00015409244 0.0001774438 0.00012668087 0.00020608582 -0.00019186255
-0.0001628261 3.8920436e-05 -0.00017929608 0.00018108716 0.00016745251 -0.00015067733 -0.0001698084 0.0001683454
0.00021662036 -0.00018210823 -0.005064991 -0.00018141244 -0.00018289742 -0.0001789973 0.0001590708 0.00015545452
0.00014547218 0.00018510342 0.0001195848 -0.0001834663 0.00015576126 -0.0001418807 -0.00016475371 -0.00015760337
-0.00016983382 -0.00018195181 -0.0001854631 0.00018647166 0.00021188168 0.00016995797 0.00018077886 -0.00015306275
0.00016890954 0.00017844512 -0.00018524197 0.0002975721 -0.00015595184 -0.00015709677 0.00013132878 -0.0002052402
-0.00019882305 0.00014792278 0.00019590378 0.00018503948 0.00018390834 -0.00019161325 0.00017997528 -0.0001922605

v_out.weight f4 [1, 64]
00000000: 099b 473e bd91 5cbd e72e c73d 34b5 2e3d
00000010: 3427 f8bc cae8 183d 44e0 c4bc 4aa2 4fbe
00000020: 0116 f73d c54a 9dbd eee6 e83d 5ffd 66bd
00000030: 07e5 e0be 9b48 88bc e941 ecbc d875 893d
00000040: acd0 c43d 973f ac3b 091e 833e 989d 8ebd
00000050: 259f 20be f93f 433d 985e 6b3e 5144 32be
00000060: 49db e1bc f4de 213e ca6c 06b7 efdf 303e
00000070: a2ed 013e 114a e23d cdd7 94bd 28ab 72bd
00000080: 2375 20bd 9e2a e2bd 2f0e a9bc 5a90 063e
00000090: 7892 73bd 82c6 0e3d 661f ef3d fd7e 883d
000000a0: b18b 6c3e c8dd 243e 3cc7 d43d 470d c4bd
000000b0: c229 ffbc 8f82 77be ccc2 40be 3ab8 583d
000000c0: b7c7 43be 0d79 10be 3eeb e03d bbfe 06bc
000000d0: b323 773d 033d 853d 0d20 d6bc 1b51 1a3d
000000e0: a5ca 333d 2163 2ebd 4af7 5fbd 7837 e8bd
000000f0: f1cf 01be b60b 853d 391e 83bd e495 853d
0.19492735 -0.053849924 0.09725743 0.042653278 -0.030292131 0.03733138 -0.02403272 -0.20276752
0.12064744 -0.07680277 0.11372171 -0.056393977 -0.43924734 -0.016636183 -0.028840022 0.0671193
0.096101135 0.005256604 0.25608853 -0.06963652 -0.15685709 0.04766843 0.22985303 -0.17408873
-0.027570384 0.15807706 -8.012352e-06 0.17272924 0.12688306 0.11049283 -0.07267723 -0.05924526
-0.03917421 -0.11043285 -0.020636646 0.13141003 -0.059465855 0.03485728 0.11675911 0.06664846
0.23100163 0.16100228 0.103895634 -0.09572845 -0.031147841 -0.24170898 -0.18824309 0.052910067
-0.19119154 -0.14108677 0.10982369 -0.008239443 0.06033678 0.06505778 -0.02613833 0.037675004
0.04389443 -0.042575005 -0.054679193 -0.11338705 -0.1267698 0.06496374 -0.06402249 0.0652273
