results/MyEnv/MyEnv/mappo/check/run71/models/critic_agent0.pt (torch, 89374 bytes, 15 tensors)

base.feature_norm.weight f4 [182]
00000000: ac0a 803f 8565 803f e348 803f 25b3 7f3f
00000010: e8a9 803f d250 803f dede 7f3f 8c7a 803f
00000020: 37f8 7f3f e263 803f 9009 7f3f 5f1e 803f
00000030: 5611 7f3f 6f07 803f 1f67 803f 037b 803f
00000040: fe46 803f 019e 803f 4d6f 803f ca32 7f3f
00000050: e946 803f 13f0 7e3f 501f 7f3f 9a1e 803f
00000060: 475f 803f 115a 803f 3172 803f a8a0 7e3f
00000070: 9c63 803f ba5d 803f 683b 7f3f a364 803f
00000080: a23b 803f e02a 7f3f 7d84 803f 7eaa 7f3f
00000090: 9cec 7e3f 6f6d 803f 5d38 7f3f 0b30 7f3f
000000a0: 761d 7f3f ba5f 803f 3b6b 803f 19a6 7f3f
000000b0: ec6a 803f 7671 7f3f c55c 803f 5e21 7f3f
000000c0: 0b7f 803f c757 803f 7236 803f 8e99 803f
000000d0: 2418 813f 2458 803f f673 803f 092c 7f3f
000000e0: 3ad4 7e3f 7079 803f 46fb 7e3f ef60 803f
000000f0: 7317 7f3f cc5c 803f 0c92 803f 5cf0 7d3f
00000100: 8b5e 7f3f f25a 7f3f 924b 803f ba1c 803f
00000110: f608 7f3f 5a52 803f 2173 7f3f a034 7f3f
00000120: acc9 7d3f f29a 7f3f 85e9 7e3f 3c6b 803f
00000130: 32bb 803f 2e6f 803f ec36 7f3f 5ae1 7e3f
00000140: c0fd 7e3f e83a 803f ee41 803f 8b2e 803f
00000150: 23f3 7f3f 08ff 7f3f a8d8 7f3f d151 7f3f
00000160: fe68 803f 0404 7f3f 2388 803f 7024 7f3f
00000170: ff27 7f3f 1c6c 803f 2aca 803f e73a 7f3f
00000180: 7564 803f 1a2d 7f3f e8f8 7e3f 0a35 7f3f
00000190: 1b2c 803f 4537 7f3f 8666 803f 542a 7f3f
000001a0: ad54 7e3f cc65 803f 7472 803f 709f 803f
000001b0: 0f3e 7f3f 3074 803f a15e 803f 3e65 803f
000001c0: e2d9 803f d87f 803f ea2b 7f3f f24e 803f
000001d0: 16af 7f3f 86d9 7f3f b44f 7f3f cce4 7e3f
000001e0: 1551 7f3f c530 7f3f c93d 803f f507 803f
000001f0: df37 7f3f 3c97 803f eca6 7f3f e3d2 7e3f
00000200: 6329 7f3f ac43 7f3f e269 803f 032d 7f3f
00000210: 4300 7f3f 5d34 7f3f 2eb9 803f 3593 7f3f
00000220: b272 803f d83b 803f 411e 7f3f fa3c 7f3f
00000230: 9b57 7f3f 4e68 803f d750 7f3f b925 803f
00000240: b568 803f 9ce6 7e3f 403e 7f3f 253e 7f3f
00000250: 713f 7f3f 8410 7f3f 6a55 803f f6e0 7e3f
00000260: 9780 803f bc64 803f 2d2c 7f3f 06c4 7d3f
00000270: 3164 803f b959 803f 8c5c 803f 7237 7f3f
00000280: a647 803f 8db0 803f 931d 7f3f fd7f 803f
00000290: c12b 7f3f 4071 7f3f 9f9d 7f3f 6653 7f3f
000002a0: d23b 7f3f e472 803f 7858 803f cb48 803f
000002b0: 3c10 803f c858 7f3f 425e 803f de7e 7f3f
000002c0: f880 7f3f 9690 7f3f e13e 7f3f de46 803f
000002d0: 415f 803f 4842 803f
1.0003257 1.0030981 1.0022243 0.9988273 1.0051851 1.0024664 0.99949443 1.0037398
0.9998812 1.0030482 0.99623966 1.0009269 0.9963583 1.0002269 1.003147 1.003754
1.0021665 1.0048219 1.0033966 0.9968687 1.002164 0.99585074 0.99657154 1.0009339
1.0029076 1.0027486 1.0034848 0.9946389 1.0030398 1.0028603 0.9970002 1.0030712
1.0018198 0.996748 1.0040432 0.99869525 0.9957979 1.0033396 0.9969538 0.9968268
0.9965433 1.0029213 1.0032724 0.9986282 1.003263 0.997825 1.0028311 0.9966029
1.003877 1.0026788 1.0016615 1.0046861 1.0085492 1.0026898 1.0035388 0.9967657
0.9954258 1.003706 0.9960216 1.0029582 0.99645156 1.0028319 1.004457 0.99194884
0.99753636 0.99748147 1.0023062 1.0008767 0.9962305 1.0025132 0.9978505 0.99689674
0.9913585 0.998458 0.9957507 1.0032725 1.0057127 1.0033929 0.9969318 0.9956261
0.9960594 1.0017977 1.002012 1.0014204 0.9998037 0.9999852 0.99939966 0.99734217
1.0032041 0.996155 1.0041546 0.99664974 0.99670404 1.0032992 1.0061696 0.9969925
1.0030657 0.99678195 0.9959855 0.99690306 1.001346 0.9969371 1.0031288 0.9967396
0.99347955 1.0031066 1.0034928 1.0048656 0.9970407 1.0035458 1.0028878 1.0030897
1.0066493 1.0039015 0.9967638 1.0024092 0.99876535 0.9994129 0.9973099 0.99567866
0.99733096 0.9968379 1.0018855 1.0002428 0.9969463 1.0046153 0.9986408 0.9954054
0.99672526 0.99712634 1.0032313 0.9967806 0.99609774 0.99689275 1.0056512 0.99833995
1.0035002 1.0018263 0.9965554 0.9970242 0.9974305 1.0031831 0.99732727 1.0011512
1.0031954 0.9957063 0.9970436 0.997042 0.9970618 0.99634576 1.0026066 0.99562013
1.0039243 1.0030742 0.9967678 0.99127233 1.0030576 1.0027381 1.0028243 0.9969398
1.0021865 1.0053879 0.996545 1.0039059 0.9967614 0.9978218 0.99849886 0.9973663
0.99700654 1.0035062 1.0026999 1.0022215 1.0004954 0.99744844 1.0028765 0.9980296
0.99806166 0.99829996 0.9970532 1.0021627 1.0029069 1.0020227

base.feature_norm.bias f4 [182]
00000000: 9922 c1b9 7b2b 4d3b a993 13bb f758 983a
00000010: e325 aabb 1247 55bb c41d cb3a 0244 76bb
00000020: fef2 db39 f208 4bbb daab 763b 89cc 68ba
00000030: 0bc8 6f3b aabf 7fb9 ebc6 4e3b 4406 77bb
00000040: fabc 0cbb f594 9dbb 4386 5dbb 30bd 4dbb
00000050: bbc8 0d3b 84ca 87bb 2648 61bb 14cd 673a
00000060: 8034 3f3b 2212 343b 84e7 6c3b d884 afbb
00000070: 0329 483b 3533 3c3b 2549 45bb 3c7f 493b
00000080: 1565 f03a 814c 54bb 5c9a 843b 0465 afba
00000090: e7a5 89bb 1c03 5b3b f57d 47bb 124c 50bb
000000a0: c2b5 62bb 880e 3f3b 2ef9 563b c7e8 b4ba
000000b0: 7916 563b e7f9 0fbb 5692 3a3b 09ea 5ebb
000000c0: a0e6 7d3b 8a0e 303b 7916 de3a 5c00 9a3b
000000d0: a499 0a3c 02f2 303b 09ba 683b eb50 54bb
000000e0: 31d5 95bb 71f1 723b 8b5a 82bb f4e2 413b
000000f0: 5585 68bb aa91 393b 1db4 913b 0021 04bc
00000100: 9d43 21bb 36ff 24bb 0ec1 173b 9ee2 573a
00000110: f7fd 76bb 6885 293b 07a1 0cbb 63b1 4bbb
00000120: 29b0 ccba 364f d13a 3a05 8b3b 50a2 57bb
00000130: 7af5 b9bb 0d98 5cbb 85b8 6f3a 0ec3 8fbb
00000140: 9e38 81bb a03d ec3a 5aa7 053b cbf3 bb3a
00000150: 9284 61b9 f7dc 01b7 aeee 10ba e89c 2ebb
00000160: 1be0 513b 331b 7cbb 6714 883b 4d48 573b
00000170: 505e 583b 6553 55bb 56f5 c8bb a349 443b
00000180: c547 5fbb 8a30 463b 94c9 833b 96a2 453b
00000190: e6ec c6ba bae5 463b f870 4cbb 936d 543b
000001a0: e543 d53b fbef 4a3b 85a5 5dbb bc8d 9ebb
000001b0: 4689 403b c39d 67bb 25f6 3d3b fded 4a3b
000001c0: 3ade d93b 02e6 7f3b c76e 54bb 17f5 1d3b
000001d0: a2d5 a2ba 90af 22ba 540e 31bb 4fef 8dbb
000001e0: b538 2fbb 13f6 4fbb 4e9f f83a 9cdb 8139
000001f0: 4665 48bb b562 973b bec1 b1ba a76c 313b
00000200: 5658 3a3b 734c 3b3b a26f 52bb 1c09 523b
00000210: c558 6b3b e9ba 16bb da65 b93b 06fe d9ba
00000220: 1b8b 653b 35f7 f03a 5030 62bb c191 43bb
00000230: f908 29bb ace4 503b d3ea 2fbb 6315 9a3a
00000240: 2244 523b 05a1 8cbb c2e9 41bb ec3e 42bb
00000250: a41c 41bb b42d 70bb 1944 2b3b 1e4b 90bb
00000260: 81a2 803b f142 493b a211 54bb 5d12 0fbc
00000270: bc2b 493b 43d3 333b 22d9 393b fe08 49bb
00000280: bf26 103b b70d b13b 0cc8 62bb 7f0a 803b
00000290: 521b 55bb dbd1 0ebb 2eb3 c6ba 0c22 2dbb
000002a0: 226c 44bb 41e7 653b c66c 313b 34ec 113b
000002b0: 6dc8 023a 9fb3 2dbb 24a3 3c3b 5418 02bb
000002c0: 3120 ffba fca2 dfba 7807 42bb b97a 0e3b
000002d0: 5391 3e3b fe9c 043b
-0.00036837606 0.0031306434 -0.0022518432 0.0011623193 -0.0051925047 -0.0032543582 0.0015496542 -0.0037577157
0.00041951978 -0.0030980674 0.0037639053 -0.0008880576 0.003658774 -0.00024390095 0.003155167 -0.0037692944
-0.0021474943 -0.004809017 -0.003380195 -0.0031393282 0.0021634537 -0.004144015 -0.003437528 0.00088425097
0.002917558 0.0027476628 0.0036148736 -0.0053564124 0.0030542023 0.0028717045 -0.0030103412 0.0030746004
0.0018340672 -0.0032394233 0.0040467214 -0.0013381545 -0.0042006853 0.0033418601 -0.0030440066 -0.0031783623
-0.00345932 0.0029152948 0.0032802331 -0.0013802283 0.0032667203 -0.0021969022 0.002846857 -0.0034014008
0.00387422 0.0026864135 0.0016943953 0.00469975 0.008459482 0.0026999717 0.0035511276 -0.0032396864
-0.0045725335 0.003707018 -0.0039780787 0.0029584737 -0.0035479863 0.0028315582 0.00444652 -0.008064508
-0.002460695 -0.0025176532 0.002315584 0.0008235368 -0.0037687996 0.002586687 -0.0021458284 -0.0031081073
-0.0015616465 0.0015969041 0.0042425664 -0.0032903142 -0.005675015 -0.0033659965 0.0009144622 -0.004387266
-0.003943517 0.0018023737 0.0020393939 0.0014339624 -0.00021507058 -7.740447e-06 -0.000552873 -0.0026643816
0.0032024446 -0.003846836 0.004152823 0.003284949 0.00330152 -0.0032550928 -0.006132762 0.0029951117
-0.0034069878 0.0030241334 0.0040218327 0.0030156723 -0.0015176802 0.003034933 -0.0031195264 0.0032413944
0.006508338 0.0030965793 -0.003382058 -0.0048386734 0.0029378696 -0.0035341836 0.0028985825 0.0030964606
0.006648806 0.0039047007 -0.0032414661 0.0024102384 -0.0012423287 -0.00062059704 -0.0027016597 -0.0043315063
-0.002673668 -0.0031732365 0.0018968375 0.0002476842 -0.0030577942 0.004619921 -0.0013561768 0.0027072818
0.0028434 0.0028579503 -0.0032109995 0.0032048887 0.0035911065 -0.002299959 0.0056578936 -0.0016631491
0.003502554 0.001838422 -0.003451366 -0.0029841515 -0.0025792702 0.003187458 -0.0026842847 0.0011755641
0.0032084067 -0.004291656 -0.0029588793 -0.0029639555 -0.0029466534 -0.0036648335 0.0026133119 -0.004403486
0.003925622 0.0030710066 -0.0032359143 -0.0087324055 0.0030696234 0.0027439154 0.002835818 -0.0030675526
0.002199575 0.0054032463 -0.00346041 0.003907501 -0.0032517505 -0.0021792564 -0.0015159601 -0.0026417999
-0.0029971679 0.0035080465 0.002707289 0.0022266032 0.0004988972 -0.0026504768 0.0028783763 -0.0019850926
-0.001946455 -0.0017062123 -0.0029606503 0.002174063 0.002907832 0.0020235176

base.mlp.fc1.0.weight f4 [64, 182]
00000000: aee1 eebd 54b9 893d 08fe 9fbd 392a 04bd
00000010: 5a95 7cbe bcfd 8dbd aa94 4dbd 40fb 05be
00000020: 03b9 2abd e5a2 2b3e a0d2 a23d 1d49 17be
00000030: a39e 733d cbd0 633d ddf1 9d3d 1308 0dbe
00000040: 6e64 b2bb 4654 19be f00e ac3d 9182 70bc
00000050: 43c1 52be 42a3 543e 4d7d 873c 5ef7 35be
00000060: 437d 923d 091c 1abe b816 363e 6bce 4dbe
00000070: 5c5b 2e3e 6340 803e d670 acbd 4758 96bc
00000080: 0f76 80be 8b8d 19be 367d 8cbd 9f73 00be
00000090: 2958 0f3e ad9b 50be 602e ea3c 26df e13d
000000a0: 789d b9bd 7851 e83d cb4e afbc 6bc6 b5bd
000000b0: 37e9 f6bd 49e9 913e 7058 7f3d 9c31 05be
000000c0: 8097 d53d 7e1b cbbd 4896 6c3d dd74 4dbc
000000d0: 1d6f 3c3d 102c 4ebd 73b6 d93d ec64 89bc
000000e0: 0d4a 15be 4643 3d3d a298 033d b2af cd3c
000000f0: c3b2 4a3e b24d e1bd e24c 23bc 94bb 5d3c
00000100: c4a8 803e cf32 0e3c 1ae1 713d 632b 193d
00000110: 12ae d4bd b540 b83c 889a 973d f10f d3bd
00000120: 09c1 643d 87a3 8ebd a08d 253d b91d b9bb
00000130: 302c 123d f28f 583e dae9 0ebc 8949 43bd
00000140: f2ee f0bd f02a c93c 9fbb b33d c69c 85be
00000150: aac9 e5bd 3871 1a3d 62a3 9d3b b7e4 a6bd
00000160: fae0 e43d 85a8 743e a178 2dbc e03f 97bd
00000170: 45c4 74bd d49a 143a 961e 103e 1f08 93bd
00000180: 8cdb 87bc 9d50 123e e3d0 aebc 8b5d afbd
00000190: 03ef eb3c 068d 8fbc 7922 3dbd f065 043e
000001a0: 9e2d 543e b5b8 153e ffcc 4d3e 0e4c fd3d
000001b0: 461e f1bd bf0a 9abe c36e 433e 359b cf3d
000001c0: a0b4 373d 5524 b3bc 1eab 603d a5d4 fa3d
000001d0: a9ed e1bc 3184 5fbe 13cd ed3d a8c8 d03d
000001e0: 76ba ba3d ca48 98bd 41fb 3dbe 59f4 0cbd
000001f0: 8429 783e 1b47 1a3c a9a5 75bc 1947 c0ba
00000200: 2392 85bd 28d1 6abc 4028 18be a61b cb3d
00000210: 4ed9 bd3d 9a2f 983e 1050 a7bd 0975 91bc
00000220: 9e36 25be 62dd 06be 72fd 8f3d b47d 8e3d
00000230: d482 00bc 12b5 0ebe 3737 64be 5b1b 3a3d
00000240: e853 223e e40a ddbd aacd e3bc 0c30 2f3d
00000250: 6494 7bba 1b1d b2bd 4dd7 b3bd 1816 8bbd
00000260: 5a77 853d 00d0 46bd c755 41be 865d c0bc
00000270: 5886 8b3d c083 c2bd fecc 1e3e a23a c23d
00000280: e144 083d 51b7 213e 6ccc 0fbd db94 943e
00000290: 9afc 3f3e b036 3c3e 7011 673e af01 bdbd
000002a0: f1de 113e ebfd 7ebd 16d2 7a3e 55a8 7bbe
000002b0: 2d0a a63d fc0b 5dbd dd67 44bd d4dc 54be
000002c0: f9b3 293d 54ad 873b 2a6b b43d abf7 113e
000002d0: b79b 5a3d 781f 8ebd 87c6 4a3d d8a7 c73d
000002e0: 5ca3 4abd 70b3 f43d 2c6e f63d 69d1 033e
000002f0: c8c9 3b3d e378 203e fbe1 13be 23d9 af3d
00000300: 57c7 7bbd 95e3 1b3d ff2c 1d3d a06d 19bd
00000310: 693b 723d f7d5 1d3e d22b f4bd 2bcc f8bd
00000320: 8259 acbe d772 dd3d 12eb a1bd fd44 f3bd
00000330: 0aa9 ebbc 5e89 43bc c91d 66be 3748 153e
00000340: 8429 7e3d 8940 90bd a293 f03c a4a8 11bd
00000350: 4551 a73d a9fc 363d f45e b43d 1664 993b
00000360: c58a 073e b9ea 9cbd fabf 2ebe c5c6 20be
00000370: 9106 423e 0b22 4bbd 7d8c 163e 2029 7c3e
00000380: 2764 303e ccf5 713d 20d7 42be e658 f23c
00000390: d7b6 123e 4ea3 783d 07e4 33bc b31f 80bd
000003a0: 149f ccbd b116 76bd 267e ba3d f19c f63d
000003b0: b7f6 18be ffbd c9bd 741a 933b 7e62 aa3c
000003c0: 22e8 9cbe 49e6 8a3b 4808 3cbd 18e9 26be
000003d0: ab8c 653e 799b 153e a26e 7ebd 40c1 403e
000003e0: 8042 e7bc 72b2 cf3c 311a 4c3e 13b2 ffbc
000003f0: abe5 32bd 8b94 f4bd 317d 86be 2687 87bd
-0.11664139 0.06724802 -0.078121245 -0.03226683 -0.24666348 -0.069331616 -0.050190605 -0.13084126
-0.041680347 0.16761358 0.0795033 -0.14773984 0.05947746 0.055619042 0.077121474 -0.13772611
-0.005444101 -0.14973554 0.084012866 -0.014679567 -0.20581536 0.20765403 0.01653924 -0.17770144
0.07152798 -0.15049757 0.17782104 -0.20098273 0.17027038 0.25049123 -0.08419959 -0.01835264
-0.25090072 -0.149954 -0.068598196 -0.12544106 0.13998474 -0.20371886 0.028586566 0.1102889
-0.09063238 0.11343664 -0.021399876 -0.08875736 -0.12056201 0.28498295 0.0623402 -0.13007206
0.10429287 -0.09917353 0.057760507 -0.012540069 0.046004403 -0.05033499 0.106305026 -0.016771756
-0.1457903 0.046206735 0.032127984 0.025108192 0.19794755 -0.11001147 -0.009967061 0.013533492
0.25128758 0.008679106 0.059052564 0.037394892 -0.10384764 0.022491792 0.07402521 -0.10305775
0.055848155 -0.06964784 0.040418267 -0.005649295 0.03568667 0.21148661 -0.008722747 -0.04767755
-0.11764325 0.024556607 0.0877602 -0.2609617 -0.11220105 0.03770563 0.0048107365 -0.08149093
0.111757234 0.2389241 -0.010587842 -0.0738523 -0.05975749 0.0005668823 0.14074168 -0.07179283
-0.01658418 0.14288564 -0.02133984 -0.08562764 0.028800493 -0.0175233 -0.046175454 0.12929511
0.20720527 0.14621241 0.20097731 0.12368022 -0.11773352 -0.30086324 0.19085221 0.10137025
0.04484999 -0.02186791 0.05485069 0.1224759 -0.027579146 -0.21827771 0.116113804 0.10194522
0.09117596 -0.074357584 -0.18552877 -0.034412716 0.24234587 0.009416367 -0.01499311 -0.0014669626
-0.06522014 -0.014332093 -0.14859104 0.09917383 0.09269963 0.29723817 -0.081695676 -0.017756002
-0.16134116 -0.13170388 0.07030763 0.0695757 -0.007843692 -0.1393626 -0.22286688 0.045436244
0.1585232 -0.10793093 -0.02780803 0.04277043 -0.0009597002 -0.08696958 -0.087813 -0.067913234
0.06516905 -0.048538208 -0.18880378 -0.023482095 0.068127334 -0.094977856 0.15507886 0.094838396
0.033268813 0.15792586 -0.03510706 0.29019818 0.18748704 0.18380237 0.22565246 -0.09228837
0.14245202 -0.062253874 0.24494204 -0.24575932 0.081074096 -0.053966507 -0.047950614 -0.20787364
0.0414314 0.0041405354 0.088095024 0.14254634 0.053371157 -0.06939596 0.049505737 0.097488105
-0.049472198 0.119482875 0.12032732 0.12872852 0.04584673 0.15671115 -0.14441673 0.085863374
-0.061469402 0.038058836 0.03837299 -0.037458062 0.05913869 0.15413652 -0.119224206 -0.12148317
-0.3366204 0.108129196 -0.07906164 -0.11878393 -0.028767128 -0.011934606 -0.224723 0.14578329
0.06205131 -0.07043559 0.029367272 -0.03556122 0.08169798 0.04467455 0.08807173 0.0046811206
0.1323653 -0.07661957 -0.17065421 -0.15700825 0.18947817 -0.049593013 0.1470203 0.24625063
0.17225705 0.0590723 -0.19027376 0.029583406 0.1432756 0.060702614 -0.010979659 -0.06256046
-0.09991279 -0.060080234 0.09106092 0.12041653 -0.14937864 -0.09850692 0.0044892374 0.020798918
-0.30645853 0.004238878 -0.045906335 -0.16299856 0.22416942 0.1461009 -0.062117226 0.18823719
-0.028229952 0.025353644 0.19931866 -0.031212842 -0.04367606 -0.11942395 -0.26267388 -0.066175744

base.mlp.fc1.0.bias f4 [64]
00000000: 4f34 20ba f92c 0c3b 89de 30bb edd3 a4bb
00000010: ad13 603b a041 513b c391 623b 8d6e 3d3b
00000020: fd56 933b 3c2e 15ba a344 9ebb cde9 14bb
00000030: b9de 643b 7c1c 4f39 8911 b63a e495 973b
00000040: b11d 29bb eca3 5abb fa3d 993b 9171 613b
00000050: d560 87ba 63ea 7a3b 1583 49bb f33f f2b7
00000060: 706a 7c3a 1990 443b 3d96 50bb 5842 b5bb
00000070: dd0f 9cbb bd43 3dbb f344 b83b 5b14 edba
00000080: 2469 b1bb e700 933b 1bc0 05bb 3db7 413b
00000090: dbe6 5f3b 6152 37bb 667a 30bb 411b 3cbb
000000a0: d33a 67bb e715 a53a 4a46 af3a d7f5 55bb
000000b0: db77 323b e618 4b3b aac0 863b be56 2cba
000000c0: f1a3 6abb 88c9 4e3b 6422 793b ecf0 4bbb
000000d0: 0fb7 cf39 90f8 f6bb 9153 80bb 5db3 5fbb
000000e0: d938 2dbb 6251 63bb 1d77 27bb 2fed 10bb
000000f0: 0b5d ba3b 79b3 723b f71f 033c 2c46 253b
-0.000611131 0.002138911 -0.002698811 -0.0050301463 0.0034191415 0.0031929985 0.0034571744 0.0028905005
0.004496454 -0.00056907884 -0.0048299595 -0.0022722364 0.0034922792 0.0001975167 0.0013890724 0.0046260227
-0.002580505 -0.0033361865 0.0046765776 0.0034399966 -0.0010328541 0.0038286678 -0.0030748297 -2.8878427e-05
0.00096288975 0.0029993115 -0.003182783 -0.0055315904 -0.0047626332 -0.0028879486 0.0056234538 -0.0018087731
-0.005414145 0.0044861916 -0.0020408693 0.0029558681 0.00341647 -0.0027972686 -0.0026928424 -0.0028702768
-0.0035282865 0.0012595028 0.0013372388 -0.0032647753 0.0027232084 0.0030990182 0.004112323 -0.0006574205
-0.0035803283 0.0031553227 0.0038014883 -0.0031118942 0.00039618506 -0.007536955 -0.003916212 -0.0034134008
-0.002643159 -0.003468596 -0.0025553175 -0.0022114029 0.005687361 0.0037033244 0.0080032265 0.0025218828

base.mlp.fc1.2.weight f4 [64]
00000000: 2992 7f3f 158a 7e3f 9b46 803f c5dd 803f
00000010: 3489 803f 4e09 813f 0a58 803f 6e4a 803f
00000020: 4df5 803f 93aa 7e3f 3dde 7e3f f11d 7f3f
00000030: a6b3 803f 2f4e 7f3f c906 7e3f 8142 803f
00000040: 0755 803f e25d 803f 3d2d 813f 7053 803f
00000050: 2a79 803f f77f 803f 77c1 7e3f 85b7 7f3f
00000060: 63e6 7e3f 3ae9 7e3f 905b 7f3f 911d 7e3f
00000070: d884 803f f07e 7f3f 809b 803f 434e 7f3f
00000080: 10a4 803f 8164 803f 2a72 7f3f 3070 803f
00000090: 4f49 803f 8c3b 7f3f f96e 803f d82e 803f
000000a0: 5c6f 803f 0917 7f3f c578 803f 4580 803f
000000b0: 9f5b 803f 2016 803f b479 803f 846b 7f3f
000000c0: 6956 803f 1c0f 7f3f 0bec 7e3f db56 7f3f
000000d0: 6415 7f3f b7d2 7e3f 9723 7f3f bc57 803f
000000e0: 2e25 7f3f a913 803f b85b 803f 73fc 7c3f
000000f0: 0ffb 803f 3b6a 803f 4617 803f 810d 7f3f
0.998324 0.99429446 1.0021547 1.0067679 1.0041871 1.0080965 1.0026867 1.0022714
1.007486 0.99479026 0.9955786 0.9965506 1.0054824 0.99728674 0.99229103 1.0020295
1.0025948 1.0028651 1.0091931 1.0025463 1.0036976 1.0039052 0.99513954 0.99889404
0.9957029 0.99574625 0.9974909 0.99263865 1.0040541 0.99803066 1.0047455 0.9972879
1.0050068 1.0030671 0.99783576 1.0034237 1.0022372 0.99700236 1.0033866 1.0014296
1.0033984 0.99644524 1.0036856 1.0039145 1.002796 1.0006752 1.0037141 0.9977343
1.002637 0.9963243 0.99578923 0.99741906 0.99642015 0.99540275 0.9966368 1.0026774
0.99666107 1.0006 1.002799 0.98822707 1.0076617 1.0032419 1.0007102 0.9962998

base.mlp.fc1.2.bias f4 [64]
00000000: 338d 283a 9c25 b83a 664b 0cbb 17f4 d0bb
00000010: e73b 893b 6c31 023c 2513 4a3b a58b 223b
00000020: 92e7 e33b eca6 dc3a a57c 94bb b53c 46bb
00000030: 49b2 d03b 84e0 2b3b 33c8 473a ecf0 0f3b
00000040: 7e1d 2fbb 9c0c 3ebb 581a 0e3c af60 4c3b
00000050: 8d24 72bb 7682 873b 8f46 4abb eeea 8a3a
00000060: 7e59 7e3a 6af2 523b fcdd 24bb 0ac1 3ebb
00000070: 3c72 9bbb 6677 0ebb 361c 9c3b efd4 16bb
00000080: f723 9ebb ac76 553b a9d1 0abb 848f 5e3b
00000090: 108b 583b cb86 3bbb f2ed 59bb 2722 6fbb
000000a0: 8a7b 5fbb f372 4f3b dd7c 643b a7f3 7cbb
000000b0: 594f 383b 2a70 5c3b 4c3b 743b 6c48 08bb
000000c0: 8d72 54bb 8aa8 6f3b 9d09 8c3b f6a0 29bb
000000d0: 71df 693b 0184 96bb d27a 5cbb 40c4 3fbb
000000e0: 8fca 48bb 3c3c 55bb 1959 37bb d37b 0cbb
000000f0: eff0 fb3b 1ff2 733b b14f 3d3a 5af2 643b
0.0006429732 0.0014049294 -0.0021407246 -0.006376754 0.004188049 0.007946353 0.0030834165 0.0024802473
0.0069550956 0.0016834415 -0.0045314603 -0.0030248587 0.0063689095 0.002622635 0.00076210796 0.002196367
-0.002672046 -0.0028999215 0.008673273 0.0031185558 -0.0036948055 0.004135425 -0.003086481 0.0010598579
0.00097026664 0.0032187947 -0.0025156727 -0.002910676 -0.0047438424 -0.0021738647 0.004764105 -0.0023015102
-0.0048260647 0.0032571955 -0.0021182096 0.0033960054 0.0033041872 -0.0028614278 -0.0033253399 -0.0036488862
-0.0034100735 0.0031654208 0.0034864463 -0.0038597377 0.0028123467 0.003363619 0.003726679 -0.002079512
-0.003241691 0.0036568963 0.004273607 -0.0025883294 0.003568616 -0.004593373 -0.0033642543 -0.0029261261
-0.0030638312 -0.0032537123 -0.002797669 -0.002143611 0.0076886336 0.0037223173 0.0007221653 0.0034934492

base.mlp.fc_h.0.weight f4 [64, 64]
00000000: 2289 48be 2700 93be fe62 9abe ce18 5d3e
00000010: 3f3d cabe c45e 873d 8610 a23e 46f7 23be
00000020: a945 a93d 2892 aabd c287 f7bc ba01 29bc
00000030: e856 d4bc 89bb f43d 5fa7 143e c5c8 a93e
00000040: 4dbc d4bd e319 903d 8870 cd3d f555 c2bc
00000050: a163 663d 33fc 703d 4629 2c3e 8937 42be
00000060: d40c 843c d7ff 0d3f 2c71 da3d 3fc5 5dbe
00000070: 5604 61be 833f e7ba 786e 08bd 0617 fcbe
00000080: 4ba6 a5bc 5e81 53be 7e0c 0f3d 639c 22be
00000090: adc4 8bbe 5d00 c6be f9e8 60bd e274 083e
000000a0: 6960 073e f906 2d3e fa1b 813d 7489 113d
000000b0: 599e 783d 2415 79be b23a c0be 504c 08bf
000000c0: 4636 04bc ab2c ffbd 5530 86be d902 2a3e
000000d0: e74e 563e 1622 323e 23c5 643b ca20 5ebe
000000e0: 01b5 3abe 65c2 aebe 9f7d acbd 069b 16bd
000000f0: d7ec cdbd 07bf c8bd 0f33 65be 811a 6bbd
00000100: 9350 cebe 7af3 2bbe 77f6 143d 2938 913d
00000110: 55e3 f63e e1ab a5be a539 ba3c 7fa8 c8bc
00000120: f0de 423e e5ab b93d 4efd b13c 4d28 4fbe
00000130: 317f e33d 57a6 663e 5e2b bc3d 4add 92bd
00000140: 836f 01bf 25a7 7e3e f95c 9bbc 49e6 0ebd
00000150: f65d a83e 9d44 48be aed7 d33d ab0d 48bd
00000160: 2995 013d 9996 4d3e 3348 94be 80c7 cebd
00000170: ce93 b6be 2e6e 093e c4e6 a33e 008a 293e
00000180: 20f2 1dbd 60f3 9d3d d07f a1be 4e9e b9bd
00000190: b049 d1be dfb2 dc3d d136 163e 456d 8fbe
000001a0: 7f9d 4fbe 6d40 29be e71a a6bc 20f0 803e
000001b0: 8720 1abe 1af2 cb3c 3914 10be 695f a83d
000001c0: c1b6 7a3e 4d13 a93c bfaa aa3d d050 303e
000001d0: 7fcb 94bd ac71 7a3d 4352 94be 523d 413c
000001e0: 359c fb3c 7db1 ec3c 3d43 1ebd a631 78bd
000001f0: 1287 19be 9b8b 53be 859e ea3e b69d c13e
00000200: b70b 7e3e 6e5d a3be f5e7 b6bd 9f16 a73e
00000210: 47d2 963e 3d9c c33e 12bb 173d 762c 60be
00000220: 42e6 743c 107c d7bc 54d6 d43c 851d a2bd
00000230: 161a 22be d1b3 a7be c0ba 933e 24a3 e0be
00000240: c67b 803d cef7 923e 2eeb 083e cfc0 2d3e
00000250: 2414 24be 7ee2 873e 26d4 193e 96cb d23d
00000260: 337b 94be e3bd 88bd 6c70 f13d 8c01 84bc
00000270: 6944 7f3e 7868 033e 2aa0 da3c 9e99 6fbe
00000280: e18c 93be fcd0 b5bd 93bc 1abe cf1d ac3d
00000290: 0aa1 19be f8b3 0f3e 6744 03be 4d8b 8e3e
000002a0: b0ab 73be 7756 88be 3947 08be d0c8 373d
000002b0: 06d8 8a3e bf67 073d aceb 6abe 684e f8bd
000002c0: 3fed a03c 4780 ad3d 6cc1 493e 7435 7cbd
000002d0: be98 8ebe 7013 b8bd f162 15bf 5f73 5a3c
000002e0: 7e77 1dbd 901f 123e 3c4d 07bd dc61 dbbd
000002f0: 0737 bdbe 63c3 ca3d 403c c43b 3765 a1be
00000300: 1892 61be 2320 ba3c aafe 203e ba21 d93d
00000310: bce7 953d 9bee c63c 8aea 5dbe 687e 623e
00000320: 7937 16bd 36d9 c0bd 272f ca3e 0dad 593e
00000330: d5b6 f1be 2400 6bbd 49f9 103d e519 4f3e
00000340: 3fb2 1d3e f009 e03d 475a db3e 2282 5ebe
00000350: a7db 03be 63e6 89be 2f69 5bbe 9dd8 72be
00000360: 2520 473d 1cc3 7c3e 4633 163e 84d0 7fbd
00000370: c0f6 663e 84b0 683e ceb8 9f3d 4cb6 ffbe
00000380: 7570 52be 1745 9f3d d502 87be 0314 0a3d
00000390: fd3b ba3d fd44 343e c532 713d 1807 11be
000003a0: a5a6 8e3b b5d7 c6bd 14a7 953e 9f9c 0abe
000003b0: 575f b7be f47c d03e 8c6a ab3d b4a6 d23d
000003c0: 9df5 15be c3ff 733e eba5 12be 77cf 313d
000003d0: d901 96bc 3c03 8e3d 5093 f83b 537e 043f
000003e0: 58bf a4be 20f4 11be acda f6bd d531 8c3e
000003f0: f57b c5bd 189f cdbb a6b8 7a3d 6734 173c
-0.19583562 -0.28711054 -0.3015365 0.21591493 -0.39499852 0.06609872 0.3165323 -0.16012296
0.0826524 -0.08328658 -0.030216102 -0.010315353 -0.025920346 0.11949832 0.14516972 0.33160987
-0.10387478 0.070361875 0.10031229 -0.023722628 0.056247357 0.058834266 0.1681262 -0.18966497
0.016119398 0.55468506 0.10666117 -0.21657275 -0.2197431 -0.0017642829 -0.033308476 -0.49236315
-0.020220896 -0.20654818 0.034924023 -0.1587997 -0.2729849 -0.38672152 -0.05490968 0.13325837
0.13220371 0.16897191 0.06304164 0.035531476 0.060697887 -0.24324471 -0.3754478 -0.53241444
-0.00806958 -0.124596916 -0.2620875 0.16602649 0.20928536 0.17395815 0.0034907542 -0.21692196
-0.1823311 -0.34132686 -0.08422398 -0.036768936 -0.10054939 -0.098020606 -0.22382759 -0.057398323
-0.40295848 -0.16792098 0.03636786 0.0709079 0.48220316 -0.32357696 0.022732565 -0.024494408
0.19030356 0.090659894 0.02172723 -0.20230217 0.11108244 0.22524391 0.09187959 -0.07171114
-0.5056078 0.24868448 -0.018965231 -0.034887586 0.32884187 -0.19557424 0.10343872 -0.04884116
0.03163639 0.2007698 -0.28961334 -0.10096645 -0.3565964 0.13420936 0.32011998 0.16556549
-0.038560987 0.07712436 -0.31542826 -0.09063397 -0.40876532 0.107763045 0.14669348 -0.28013054
-0.20274924 -0.16528483 -0.0202765 0.251832 -0.1505147 0.024895716 -0.14070214 0.08221323
0.24483778 0.020639086 0.083333485 0.17218328 -0.07265376 0.061143562 -0.2896901 0.011794405
0.030714134 0.028893227 -0.038638342 -0.060594223 -0.14992931 -0.20658724 0.45824066 0.37815636
0.24809156 -0.3190722 -0.08930961 0.32634446 0.29457304 0.38205138 0.03704364 -0.2189196
0.014947476 -0.026304275 0.025981106 -0.07915787 -0.15830263 -0.32754377 0.28853416 -0.43874466
0.06273608 0.28704685 0.13370964 0.16968082 -0.16023308 0.26539987 0.15022334 0.10292737
-0.29000244 -0.06676843 0.11789021 -0.016114019 0.2492844 0.1283282 0.0266877 -0.23398444
-0.2881842 -0.08877751 -0.15110998 0.08404123 -0.15002838 0.14033496 -0.12819062 0.27840653
-0.23795962 -0.26628467 -0.1330842 0.044869244 0.27117938 0.033057924 -0.22941464 -0.1212433
0.019644378 0.084717326 0.19702691 -0.061574414 -0.27850908 -0.089880824 -0.583541 0.013333171
-0.038444035 0.14269853 -0.03303264 -0.107120246 -0.36956045 0.09900548 0.0059886277 -0.31522533
-0.22028387 0.022720402 0.15722147 0.10602136 0.073195904 0.024283698 -0.21671501 0.22118533
-0.036673997 -0.0941643 0.394891 0.2125742 -0.47209802 -0.05737318 0.035393987 0.20224722
0.15400027 0.109393954 0.42842314 -0.21729329 -0.1287676 -0.26933584 -0.21426843 -0.23715444
0.04861464 0.24683803 0.14667997 -0.062454715 0.22555065 0.22723585 0.077989206 -0.4994377
-0.20550711 0.0777685 -0.26369348 0.03371049 0.09093473 0.17604442 0.05888631 -0.14162862
0.0043533617 -0.097091116 0.29229033 -0.13536309 -0.35814926 0.40720332 0.083699316 0.10285702
-0.14644475 0.23828034 -0.14321105 0.043410745 -0.018311428 0.06934211 0.0075859204 0.51755255
-0.32177234 -0.14253283 -0.12053427 0.2738177 -0.096427836 -0.006275069 0.06121125 0.009228802

base.mlp.fc_h.0.bias f4 [64]
00000000: 0000 0000 0000 0000 0000 0000 0000 0000
00000010: 0000 0000 0000 0000 0000 0000 0000 0000
00000020: 0000 0000 0000 0000 0000 0000 0000 0000
00000030: 0000 0000 0000 0000 0000 0000 0000 0000
00000040: 0000 0000 0000 0000 0000 0000 0000 0000
00000050: 0000 0000 0000 0000 0000 0000 0000 0000
00000060: 0000 0000 0000 0000 0000 0000 0000 0000
00000070: 0000 0000 0000 0000 0000 0000 0000 0000
00000080: 0000 0000 0000 0000 0000 0000 0000 0000
00000090: 0000 0000 0000 0000 0000 0000 0000 0000
000000a0: 0000 0000 0000 0000 0000 0000 0000 0000
000000b0: 0000 0000 0000 0000 0000 0000 0000 0000
000000c0: 0000 0000 0000 0000 0000 0000 0000 0000
000000d0: 0000 0000 0000 0000 0000 0000 0000 0000
000000e0: 0000 0000 0000 0000 0000 0000 0000 0000
000000f0: 0000 0000 0000 0000 0000 0000 0000 0000
0.0 0.0 0.0 0.0 0.0 0.0 0.0 0.0
0.0 0.0 0.0 0.0 0.0 0.0 0.0 0.0
0.0 0.0 0.0 0.0 0.0 0.0 0.0 0.0
0.0 0.0 0.0 0.0 0.0 0.0 0.0 0.0
0.0 0.0 0.0 0.0 0.0 0.0 0.0 0.0
0.0 0.0 0.0 0.0 0.0 0.0 0.0 0.0
0.0 0.0 0.0 0.0 0.0 0.0 0.0 0.0
0.0 0.0 0.0 0.0 0.0 0.0 0.0 0.0

base.mlp.fc_h.2.weight f4 [64]
00000000: 0000 803f 0000 803f 0000 803f 0000 803f
00000010: 0000 803f 0000 803f 0000 803f 0000 803f
00000020: 0000 803f 0000 803f 0000 803f 0000 803f
00000030: 0000 803f 0000 803f 0000 803f 0000 803f
00000040: 0000 803f 0000 803f 0000 803f 0000 803f
00000050: 0000 803f 0000 803f 0000 803f 0000 803f
00000060: 0000 803f 0000 803f 0000 803f 0000 803f
00000070: 0000 803f 0000 803f 0000 803f 0000 803f
00000080: 0000 803f 0000 803f 0000 803f 0000 803f
00000090: 0000 803f 0000 803f 0000 803f 0000 803f
000000a0: 0000 803f 0000 803f 0000 803f 0000 803f
000000b0: 0000 803f 0000 803f 0000 803f 0000 803f
000000c0: 0000 803f 0000 803f 0000 803f 0000 803f
000000d0: 0000 803f 0000 803f 0000 803f 0000 803f
000000e0: 0000 803f 0000 803f 0000 803f 0000 803f
000000f0: 0000 803f 0000 803f 0000 803f 0000 803f
1.0 1.0 1.0 1.0 1.0 1.0 1.0 1.0
1.0 1.0 1.0 1.0 1.0 1.0 1.0 1.0
1.0 1.0 1.0 1.0 1.0 1.0 1.0 1.0
1.0 1.0 1.0 1.0 1.0 1.0 1.0 1.0
1.0 1.0 1.0 1.0 1.0 1.0 1.0 1.0
1.0 1.0 1.0 1.0 1.0 1.0 1.0 1.0
1.0 1.0 1.0 1.0 1.0 1.0 1.0 1.0
1.0 1.0 1.0 1.0 1.0 1.0 1.0 1.0

base.mlp.fc_h.2.bias f4 [64]
00000000: 0000 0000 0000 0000 0000 0000 0000 0000
00000010: 0000 0000 0000 0000 0000 0000 0000 0000
00000020: 0000 0000 0000 0000 0000 0000 0000 0000
00000030: 0000 0000 0000 0000 0000 0000 0000 0000
00000040: 0000 0000 0000 0000 0000 0000 0000 0000
00000050: 0000 0000 0000 0000 0000 0000 0000 0000
00000060: 0000 0000 0000 0000 0000 0000 0000 0000
00000070: 0000 0000 0000 0000 0000 0000 0000 0000
00000080: 0000 0000 0000 0000 0000 0000 0000 0000
00000090: 0000 0000 0000 0000 0000 0000 0000 0000
000000a0: 0000 0000 0000 0000 0000 0000 0000 0000
000000b0: 0000 0000 0000 0000 0000 0000 0000 0000
000000c0: 0000 0000 0000 0000 0000 0000 0000 0000
000000d0: 0000 0000 0000 0000 0000 0000 0000 0000
000000e0: 0000 0000 0000 0000 0000 0000 0000 0000
000000f0: 0000 0000 0000 0000 0000 0000 0000 0000
0.0 0.0 0.0 0.0 0.0 0.0 0.0 0.0
0.0 0.0 0.0 0.0 0.0 0.0 0.0 0.0
0.0 0.0 0.0 0.0 0.0 0.0 0.0 0.0
0.0 0.0 0.0 0.0 0.0 0.0 0.0 0.0
0.0 0.0 0.0 0.0 0.0 0.0 0.0 0.0
0.0 0.0 0.0 0.0 0.0 0.0 0.0 0.0
0.0 0.0 0.0 0.0 0.0 0.0 0.0 0.0
0.0 0.0 0.0 0.0 0.0 0.0 0.0 0.0

base.mlp.fc2.0.0.weight f4 [64, 64]
00000000: 62fd 4abe b510 96be e60a 9bbe 1e0f 5c3e
00000010: 5095 c9be 6bff 893d 4d1b a23e 0878 24be
00000020: da91 a83d 6d15 a6bd 7d37 edbc c0ce 05bc
00000030: ac29 cabc 19d3 f13d d3b6 113e 9858 aa3e
00000040: 07e4 d4bd b9af 8d3d 6a73 cf3d 444a bdbc
00000050: ae18 613d 3aeb 773d b6d2 333e 0a8a 43be
00000060: 4de2 3c3c 0102 0d3f e91e dd3d 5c70 58be
00000070: 0007 5ebe ba47 28ba 3628 03bd ef38 fbbe
00000080: 679c adbc cdfe 51be 71ac 143d 0c5f 21be
00000090: bb55 8cbe 8c43 c5be 102f 66bd 07cf 083e
000000a0: f629 063e 717c 2a3e 448a 833d 54a4 0c3d
000000b0: d69c 7c3d b1a6 78be ea94 bfbe f9e5 07bf
000000c0: 32bb 01bc a0f1 00be e22f 87be fe58 2b3e
000000d0: 2df4 543e a17c 333e 56e9 9c3b 33db 5ebe
000000e0: f91a 38be d500 aebe 6623 afbd 4201 04bd
000000f0: 5835 cbbd 5734 c6bd 866c 67be 4a6e 72bd
00000100: 2b05 d0be 1ebf 28be b5bb 243d 35ec 983d
00000110: 5eec f43e b6a2 a7be 44fa 9d3c 7c83 e0bc
00000120: c9e7 3e3e d330 af3d 00f2 923c 887d 53be
00000130: 3892 db3d 96a7 6a3e e9a3 bf3d 57a0 9abd
00000140: 7182 00bf f146 813e 5f56 babc 005e 1abd
00000150: 2557 aa3e 2969 4cbe 601a ca3d b02f 38bd
00000160: dc1c 133d e816 523e 1c3d 96be cc74 d6bd
00000170: 9fbf b5be ce94 053e aeef a13e 7466 253e
00000180: 8fab 0ebd 43f0 953d e773 a3be 8b76 c1bd
00000190: 3bee d1be a2be d43d 442f 1a3e 6a5d 8dbe
000001a0: ddaf 4bbe 5804 25be 6169 c5bc b9e1 823e
000001b0: f2d1 1dbe 05f0 ac3c 3501 14be 3c51 a03d
000001c0: ecce 7d3e 35a2 c83c 69ec b23d ce63 2c3e
000001d0: 08e2 8cbd 88b1 6a3d dd49 96be 008b 7d3c
000001e0: 6393 d83c 699d e93c 2f79 0ebd 145d 6dbd
000001f0: 6d7e 1dbe 9da7 57be 5f9c ec3e a6b1 c33e
00000200: e1db 7c3e f61a a0be 33a8 b1bd 4b5b a83e
00000210: f686 953e b850 c23e e032 103d a1d7 61be
00000220: 9a23 523c fea5 00bd c91a c03c 7fb5 a8bd
00000230: b2a7 24be f354 a6be d6f4 963e 22e1 e1be
00000240: 6e44 833d a53e 943e 5677 063e 4b30 2c3e
00000250: 6672 21be 6575 863e 92ba 133e bb1a d83d
00000260: 778a 92be 5383 81bd 044c ec3d 2f8a 9dbc
00000270: 00ca 793e e1f7 003e 53e7 c53c 7298 72be
00000280: f65d 92be 7d44 bbbd a75c 1dbe 920d a73d
00000290: 3e37 1abe 3c03 0d3e 56a0 00be 15e5 8f3e
000002a0: 4921 71be 9ec0 86be 63c8 0abe 05e6 413d
000002b0: f6a8 893e 9f78 023d 1280 6dbe a3e3 fdbd
000002c0: a7cb aa3c 8cce b23d 5acf 4c3e 4a4f 83bd
000002d0: ed44 8dbe a24d bdbd e609 16bf 1f0d 7e3c
000002e0: ece4 2bbd bb7e 103e 8189 f9bc dc57 dfbd
000002f0: 488a bebe bf39 c63d 0d29 133c 11ee 9fbe
00000300: 7a2d 64be c0d6 de3c 2306 243e 2707 df3d
00000310: d2d8 8f3d 36b5 ae3c 75a9 60be e737 603e
00000320: c502 22bd a373 cabd 59b2 c83e ac34 563e
00000330: 1342 f3be eda0 5ebd 4740 183d e328 4c3e
00000340: 0582 203e 4707 e63d d1de d93e 59ad 60be
00000350: b8d3 00be 2b88 8bbe 87fe 5fbe d8ca 6fbe
00000360: bae7 553d 4243 803e 0433 133e ff58 86bd
00000370: 2b64 673e 7ed2 653e 7ba8 993d 4baf 00bf
00000380: 708a 4fbe b5f2 983d 4e87 88be 46e3 fb3c
00000390: 2e04 b73d 1638 313e e968 7d3d 83d7 0dbe
000003a0: a2c3 ef3b aedb bfbd 6a25 943e 39a3 07be
000003b0: cad9 b8be 651e d13e ae5f a53d 6e5b cc3d
000003c0: 19d7 13be 9102 773e 5a5c 0fbe 18b5 253d
000003d0: c152 7bbc 71ef 873d 9ca6 973b f633 053f
000003e0: 0383 a6be 06cc 11be 37ca f0bd 9cac 8c3e
000003f0: f19e cbbd e340 1bbc c8c7 833d 50de 4b3c
-0.1982322 -0.2930962 -0.30281752 0.21490142 -0.3937173 0.0673817 0.31661454 -0.16061413
0.08230944 -0.081095554 -0.028957123 -0.008166969 -0.024678074 0.11807842 0.14229898 0.33270717
-0.10395055 0.06918282 0.10129435 -0.023106702 0.054955177 0.060527064 0.17560849 -0.19095626
0.011528564 0.5508118 0.10796911 -0.21136612 -0.21682358 -0.00064193795 -0.03202077 -0.49066874
-0.021192743 -0.20507355 0.036297265 -0.15758914 -0.27409157 -0.38528097 -0.056197226 0.13360225
0.13101944 0.16649033 0.064228565 0.034336403 0.061673008 -0.24282338 -0.374183 -0.53085285
-0.007918166 -0.12592173 -0.2640372 0.16733167 0.2079627 0.17528011 0.004788558 -0.21763305
-0.17979039 -0.3398501 -0.085516736 -0.032227762 -0.09922284 -0.09677952 -0.22599992 -0.05918721
-0.40628943 -0.16479155 0.040218074 0.07466928 0.47836584 -0.32741326 0.019284375 -0.027406447
0.18643107 0.08554234 0.01793766 -0.20653355 0.107212484 0.22915491 0.09357435 -0.07550114
-0.5019904 0.25249436 -0.022746263 -0.0376873 0.3326961 -0.1996199 0.09868312 -0.044967353
0.035916194 0.2051655 -0.29343498 -0.10471496 -0.35497758 0.13045046 0.31628174 0.16152364
-0.03483158 0.07321217 -0.31924364 -0.094464384 -0.41002068 0.10387923 0.15057093 -0.27610332
-0.19891305 -0.16114938 -0.0240981 0.25562838 -0.15412119 0.021110544 -0.14453585 0.07827994
0.24785966 0.024491409 0.08736498 0.16834947 -0.068790495 0.057298213 -0.29353228 0.015475035
0.026437467 0.028517442 -0.03478354 -0.057950094 -0.15380259 -0.21060033 0.46213052 0.38221473
0.24693252 -0.3127057 -0.086746596 0.3288215 0.2920453 0.3795221 0.03520477 -0.22054912
0.012825871 -0.031408302 0.023450272 -0.08237743 -0.16079596 -0.32486686 0.2948367 -0.44117075
0.06409536 0.28954044 0.1313146 0.16815297 -0.15766296 0.2626144 0.1442664 0.105519734
-0.28621265 -0.06323876 0.11537936 -0.01923093 0.24393463 0.12594558 0.024158156 -0.23690966
-0.28587312 -0.091439225 -0.15367375 0.08156885 -0.15060136 0.13770765 -0.12561163 0.28104463
-0.23547854 -0.2631883 -0.13553004 0.047338504 0.2688672 0.031853314 -0.23193386 -0.12396934
0.020849062 0.08730802 0.20000973 -0.064116076 -0.2759165 -0.09243323 -0.58608854 0.015506058
-0.041966364 0.14110844 -0.030461075 -0.1090543 -0.37214875 0.09678983 0.008981955 -0.31236318
-0.22282973 0.02720201 0.16017966 0.10890036 0.07023777 0.021326642 -0.21939643 0.21896325
-0.039553422 -0.09885337 0.39198568 0.2091853 -0.47511348 -0.05435269 0.037170675 0.19937472
0.15674599 0.11231857 0.42552808 -0.21941127 -0.12580764 -0.27252325 -0.21874438 -0.23417222
0.052222945 0.25051314 0.1437493 -0.065599434 0.22596805 0.22443578 0.07502838 -0.50267476
-0.20267653 0.07468168 -0.2666573 0.03074802 0.08936344 0.17306551 0.06186763 -0.13851742
0.0073170224 -0.093680725 0.28934795 -0.13245858 -0.3610366 0.40843502 0.0807489 0.09978376
-0.14437522 0.24122073 -0.14000073 0.040455908 -0.015339554 0.06637467 0.0046280157 0.5203241
-0.3252183 -0.14237985 -0.117573194 0.2747544 -0.09942425 -0.009475919 0.064345896 0.01244314

base.mlp.fc2.0.0.bias f4 [64]
00000000: 299f a73a af8a 7bbb 52ca 26bb 56fc 41bb
00000010: 5781 1a3b 751a 2fbb 2508 a7b9 99e7 5b3b
00000020: 95d3 2abb 58ee 443b 5144 51bb c6fb e8ba
00000030: 23f1 74bb e1e1 603b ec6c 86bb e4f2 d43a
00000040: be2a 5bbb ba7e 273b 3b31 6d3b 04fb 803b
00000050: 4590 733b 0911 073b 4dc2 6b3b 638f dc3a
00000060: a2af 7c3b 3c13 803b b8ea 46bb e3f0 12bb
00000070: d802 14bb c1ed d7ba ff64 84ba 35bd 683b
00000080: bb39 75bb 6cee c33b 1b06 2d3b becd 3fbb
00000090: 08b8 773b 48d1 753b b678 0039 1a4f 4fbb
000000a0: 8c61 573b e09b a0ba 6896 4ebb ff3f 273b
000000b0: 635c 45bb 2cda 9a3a bef2 2f3b c49f ed3a
000000c0: 6fd9 0ebb 0c72 74bb e36a 59bb 1455 7bbb
000000d0: f5dd 673b 833b 49bb 831e 80bb 85d1 fe3a
000000e0: 1cd0 473b 709f a33a c404 60bb 14b4 423b
000000f0: 9c0f 6f3b 8e9d 223b c131 50bb 785f 57bb
0.0012788522 -0.0038382222 -0.0025450182 -0.0029599867 0.0023575628 -0.002671865 -0.0003185879 0.003355479
-0.0026066054 0.003004929 -0.003193159 -0.001777523 -0.0037375174 0.0034314322 -0.00410234 0.0016246703
-0.0033442224 0.0025557713 0.0036192674 0.0039361734 0.0037164849 0.002060952 0.0035973967 0.00168274
0.0038556834 0.003908543 -0.0030352306 -0.0022421412 -0.0022584703 -0.0016474054 -0.00101009 0.0035513167
-0.0037418443 0.00597935 0.0026401344 -0.002926692 0.00377989 0.0037508775 0.00012252 -0.0031632842
0.003286454 -0.0012253486 -0.0031522755 0.0025520322 -0.0030114881 0.0011814288 0.0026847566 0.0018129279
-0.002179708 -0.0037299423 -0.0033175282 -0.003835027 0.00353801 -0.0030705638 -0.0039098873 0.0019441104
0.0030489033 0.0012483429 -0.0034182528 0.0029709386 0.003647781 0.0024813148 -0.0031767937 -0.00328633

base.mlp.fc2.0.2.weight f4 [64]
00000000: 7111 7f3f f962 803f a4e6 7e3f fb44 7e3f
00000010: ec34 7f3f 4733 7f3f b923 7f3f 3f38 803f
00000020: c534 7f3f a366 803f bf6f 803f 1164 803f
00000030: 5459 803f 8869 803f 9b5b 803f 7614 7f3f
00000040: 4b89 7f3f 4838 7f3f ee47 803f 6464 803f
00000050: 5554 803f d7fe 7e3f cd3b 803f ba35 7f3f
00000060: ca58 803f f83d 803f d22d 803f 9611 7f3f
00000070: 7946 7f3f 6629 7f3f ab31 7f3f 2660 803f
00000080: ab4a 803f 5e2f 7f3f 3165 803f c04a 7f3f
00000090: 6a64 803f 9649 803f f334 7f3f 4f59 803f
000000a0: f02d 803f c027 7f3f 1569 803f 5637 7f3f
000000b0: b6ac 803f 0834 7f3f 7f2d 7f3f 9f26 7f3f
000000c0: 71dd 7e3f 3163 803f d530 803f 075e 803f
000000d0: 852f 7f3f dd04 7f3f 1c4b 803f e635 7f3f
000000e0: 8069 803f 7d40 7f3f 2f36 7f3f c1e5 7e3f
000000f0: 3e4d 803f ef64 803f 7537 7f3f dd61 803f
0.9963599 1.0030204 0.9957068 0.99324006 0.9969013 0.9968762 0.99663883 1.0017165
0.99689895 1.0031322 1.0034102 1.0030538 1.0027261 1.0032206 1.0027956 0.99640596
0.9981887 0.99695253 1.0021951 1.0030637 1.0025736 0.99607605 1.001825 0.99691355
1.0027096 1.0018911 1.0013983 0.9963621 0.9971691 0.99672544 0.9968516 1.0029342
1.0022787 0.9968165 1.0030881 0.99723434 1.0030644 1.0022457 0.9969017 1.0027255
1.0014019 0.9967003 1.0032068 0.9969381 1.0052707 0.9968877 0.99678797 0.99668306
0.9955664 1.0030271 1.0014902 1.0028695 0.99681884 0.99616796 1.0022922 0.9969162
1.0032196 0.99707776 0.9969205 0.99569327 1.0023572 1.0030802 0.99693996 1.0029866

base.mlp.fc2.0.2.bias f4 [64]
00000000: ed6d 493b a022 47bb bb26 4abb 0e6c 4abb
00000010: 1fa3 493b 90c0 49bb 795c 49bb 4381 473b
00000020: d566 4abb a144 483b 0e15 45bb 27e3 47bb
00000030: 16fb 41bb b82e 433b dec5 47bb 4b55 4a3b
00000040: 7a2b 49bb 120d 4c3b 8636 473b 3c18 463b
00000050: 6e65 343b 965b 4a3b 51da 443b 213c 4a3b
00000060: 70c3 343b 2ed2 473b 6de0 47bb a48d 4abb
00000070: f98b 4cbb 777c 49bb 1280 4bbb fcdb 463b
00000080: 71b0 47bb 7426 4cbb 6b30 473b 908b 48bb
00000090: 75ba 473b 1812 483b 2733 4a3b 6c0d 47bb
000000a0: 3502 473b 22c6 49bb 626e 45bb 327c 493b
000000b0: 603d 47bb ca77 4b3b 05c0 4b3b 038c 493b
000000c0: 9484 49bb 897b 47bb 9700 48bb 3b5b 48bb
000000d0: 33fe 4dbb 0874 49bb def9 47bb 6ce4 493b
000000e0: bf4e 443b 568d 4a3b 28ed 49bb 6984 493b
000000f0: 4c48 483b 3675 443b 3efc 49bb ecfd 47bb
0.0030735687 -0.0030385628 -0.003084584 -0.003088716 0.0030767394 -0.0030784942 -0.0030725284 0.0030442036
-0.0030884047 0.0030558484 -0.0030072364 -0.0030500384 -0.0029599122 0.0029782485 -0.0030482928 0.0030873592
-0.003069608 0.003113572 0.0030397489 0.0030226847 0.0027526277 0.0030877343 0.0030037353 0.0030858594
0.002758231 0.0030490267 -0.0030498758 -0.0030907178 -0.003121136 -0.0030744353 -0.0031051678 0.0030343523
-0.0030470158 -0.003115085 0.003039385 -0.0030600764 0.0030476127 0.0030528363 0.0030853243 -0.003037299
0.0030366306 -0.0030788262 -0.0030125608 0.0030744192 -0.0030401573 0.0031046742 0.0031089794 0.003075362
-0.0030749189 -0.0030438623 -0.003051793 -0.0030571956 -0.0031432032 -0.0030739326 -0.0030513923 0.0030806316
0.0029954163 0.0030906997 -0.0030811522 0.0030749089 0.003056067 0.002997709 -0.0030820514 -0.003051634

v_out.weight f4 [1, 64]
00000000: 4326 853e a9f3 95bd 90f9 53bd 7928 03bd
00000010: 1de8 363e eb96 1dbe 3291 9fbe 2fc4 da3d
00000020: 54d9 a3bd 2faa 453e 434e 1abd 58a4 fbbd
00000030: 1592 adbc 756f c63c 1988 e2bd bb54 ae3d
00000040: 05e9 6abd 3be8 083d 1f9c a73d ff5a 463d
00000050: d1fb 0f3c a913 ab3d 56dd 1b3d 89d1 bc3d
00000060: ce29 113c dde8 ef3d f710 17be 74ea 90bd
00000070: 48f9 f2bc 1c44 6cbe f535 3abd 39b8 873d
00000080: 74d5 cfbd 4f4b 12bd 8a22 9d3d 0020 55be
00000090: 4f08 df3d d8fa 183e 5a9d c13d dc87 99bd
000000a0: 3db4 b63c 9904 1bbe 913d 1fbd e84d 6a3e
000000b0: 3374 66bd 4d40 3a3d 0b11 323d 2e0a 483e
000000c0: 84cb 77be 4e0d b8bd da5e 25be 4df2 57be
000000d0: b335 143b 11d7 f0bd 5c2e 01be 504a 023e
000000e0: 67f9 fd3c b09d 683d 9d9e 00be 11d7 443e
000000f0: 4b8f 2f3e 51ba 023d cdb0 efbd efe5 0cbe
0.26005754 -0.07321865 -0.051751673 -0.03202102 0.17861982 -0.15389602 -0.31165463 0.1068195
-0.080004364 0.19303201 -0.037672292 -0.122872055 -0.021187821 0.024223069 -0.11061115 0.08512255
-0.05735113 0.033424597 0.081840746 0.048426624 0.008788065 0.08353359 0.03805288 0.09219653
0.008860065 0.11714337 -0.14752565 -0.070759684 -0.029659882 -0.23072857 -0.045461614 0.066269346
-0.10148135 -0.03571635 0.076726034 -0.20812988 0.108902566 0.1493944 0.094538406 -0.07496616
0.022302741 -0.15138473 -0.038877074 0.22881281 -0.05626316 0.04547148 0.043473285 0.19535133
-0.24198729 -0.08986913 -0.16149464 -0.21088524 0.0022615015 -0.11759771 -0.12615341 0.1272366
0.031002713 0.056791008 -0.12560506 0.19222666 0.17144506 0.031915966 -0.11703644 -0.13759588
