results/MyEnv/MyEnv/mappo/check/run71/models/critic_agent1.pt (torch, 89374 bytes, 15 tensors)

base.feature_norm.weight f4 [182]
00000000: 7ff6 7f3f dbe7 7f3f e4fa 7f3f 952a 7e3f
00000010: 6c84 7f3f d2c2 7f3f 0cee 7f3f 8c04 803f
00000020: e3ec 7f3f 87aa 7f3f 4c08 7e3f 8e76 803f
00000030: 4185 803f 5d0c 803f a007 803f d272 7f3f
00000040: 8f58 7e3f 65ea 7f3f 940c 803f 8b69 7e3f
00000050: 5818 803f 9104 803f 6ba7 7f3f 6819 803f
00000060: 5fa7 7f3f 0872 7f3f acd3 7f3f ac15 803f
00000070: 588a 7f3f 53ff 7f3f b60b 803f 142d 803f
00000080: a54e 803f c8e1 7f3f d238 7f3f b4e7 7f3f
00000090: a65c 7f3f c2ac 7f3f 4e1a 803f 7f6b 7f3f
000000a0: aee0 7f3f cc22 803f 156c 7f3f 8622 7e3f
000000b0: 406d 803f d11f 803f 8a84 7e3f c0d6 7f3f
000000c0: 773f 803f 5a3d 803f 4cd0 7f3f a6ef 7f3f
000000d0: 46fc 7d3f a3c1 7f3f e7ef 7f3f 3dc3 7f3f
000000e0: 99ff 7f3f 5e17 803f a10c 803f 10a9 7d3f
000000f0: 3e4e 803f 9fd1 7f3f 54bc 7f3f d747 7f3f
00000100: b4b7 7f3f fecb 7d3f 4088 7f3f 600d 803f
00000110: 0de4 7f3f e50d 803f e3cb 7e3f bbb8 7f3f
00000120: f444 803f 5303 803f 9576 803f 931b 803f
00000130: 4769 803f 95d0 7f3f f9f8 7f3f 0f4c 803f
00000140: 659b 7f3f b3ba 7f3f ba32 803f d610 803f
00000150: 40ed 7f3f 9ceb 7f3f 8d9c 7f3f c502 803f
00000160: 0011 803f 4111 803f 8df5 7f3f e0b2 7f3f
00000170: f7e2 7f3f e6ea 7f3f 1b13 803f 98f5 7f3f
00000180: 36e2 7f3f 1d74 7f3f 16af 7f3f f3ef 7f3f
00000190: addd 7f3f a14e 7e3f 10bc 7f3f 2b09 803f
000001a0: da69 7f3f 127d 7f3f 8d3d 803f 4865 803f
000001b0: b912 803f 1023 803f 395a 7e3f 2b2c 803f
000001c0: fc7a 803f fa9d 7e3f 3e7b 7f3f 7af4 7f3f
000001d0: 9f1d 803f c1de 7f3f ea19 803f c802 803f
000001e0: ccea 7f3f f7e4 7f3f 8402 803f e44d 803f
000001f0: 6528 813f d22a 803f 671d 803f cac1 803f
00000200: de40 803f c609 803f aaff 7f3f aa20 803f
00000210: 3b6c 803f fe51 803f 2f04 803f 8d04 803f
00000220: e866 7f3f 9f48 7e3f c2ec 7d3f 8812 803f
00000230: 4f3f 7f3f 1a02 803f c7d5 7f3f 277f 7f3f
00000240: 58d2 7f3f 03ee 7f3f 8be5 7f3f 7974 7f3f
00000250: 17d4 7f3f 9a59 7f3f d4d0 7f3f 1c5b 803f
00000260: c5c0 7f3f bf78 7f3f 7819 803f 2334 803f
00000270: 5a0e 803f a8b3 7f3f 101e 803f bb09 7e3f
00000280: 73ff 7c3f d117 803f 4024 803f 766d 803f
00000290: 007d 7f3f 62d3 803f cb51 803f 4d0c 803f
000002a0: f5ef 7f3f b0dd 7f3f 41db 7f3f 1c03 7f3f
000002b0: 7522 803f de0f 803f 02b8 803f 8956 803f
000002c0: 192b 803f f5be 7f3f ccf2 7f3f 98a2 7f3f
000002d0: d14a 7e3f 2423 803f
0.999855 0.9996316 0.99992204 0.99283725 0.99811435 0.9990665 0.99972606 1.0001388
0.99970835 0.9986958 0.9923141 1.003618 1.0040666 1.0003773 1.0002327 0.99784577
0.9935388 0.9996703 1.0003839 0.99379796 1.0007429 1.0001394 0.99864835 1.0007753
0.99864763 0.9978337 0.9993236 1.0006614 0.9982047 0.9999897 1.0003574 1.0013757
1.0024 0.9995389 0.99696076 0.99962926 0.99750745 0.9987298 1.0008028 0.997734
0.9995221 1.0010619 0.99774295 0.9927143 1.003334 1.000971 0.9942099 0.9993706
1.0019368 1.0018723 0.9992721 0.9997505 0.99213064 0.9990484 0.99975437 0.99907285
0.99999386 1.0007131 1.0003854 0.99086094 1.0023878 0.9992923 0.9989674 0.99718994
0.99889684 0.9913939 0.99817276 1.0004082 0.9995735 1.000424 0.99529856 0.9989125
1.0021043 1.0001014 1.0036188 1.0008415 1.0032128 0.99927646 0.9998928 1.0023211
0.9984649 0.99894255 1.001548 1.0005138 0.9997139 0.99968886 0.9984825 1.0000845
1.0005188 1.0005265 0.99984056 0.99882317 0.99955696 0.999678 1.000583 0.9998412
0.99954545 0.9978655 0.99876535 0.9997551 0.99947625 0.9933873 0.99896336 1.0002798
0.9977089 0.9980022 1.0018784 1.0030909 1.0005714 1.00107 0.9935642 1.0013479
1.0037532 0.99459803 0.9979743 0.99982417 1.000904 0.9994927 1.0007908 1.0000849
0.99967647 0.9995875 1.0000768 1.002377 1.0090452 1.0013068 1.0008973 1.005914
1.0019796 1.0002983 0.9999949 1.0009968 1.0033029 1.0025022 1.0001277 1.0001389
0.997664 0.9932956 0.9918939 1.0005655 0.99705976 1.0000641 0.99935573 0.99803394
0.99930334 0.9997255 0.9995963 0.997871 0.99933 0.99746096 0.9992802 1.0027804
0.9990352 0.9979362 1.0007772 1.0015911 1.000438 0.9988351 1.0009174 0.992336
0.98827285 1.0007268 1.0011063 1.0033405 0.9980011 1.0064509 1.0024961 1.0003754
0.9997552 0.99947643 0.9994393 0.9961412 1.0010515 1.0004842 1.0056155 1.0026408
1.0013152 0.9990075 0.99979854 0.99857473 0.9933291 1.0010724

base.feature_norm.bias f4 [182]
00000000: 5db9 1d39 6495 17b9 6c68 3bb8 ad09 ed3b
00000010: d53b 023b 7569 b2ba 03bb bdba 4390 13b9
00000020: 91f7 9839 ab37 8a3a d328 fc3b a275 6fbb
00000030: 9f97 80bb 1487 d0b9 cbc4 8139 de1a 083b
00000040: 5c3d d43b 2545 c739 f251 d7b9 ae5e cbbb
00000050: f8e0 443a 5533 0c39 59bf afba ec99 4e3a
00000060: e9ab baba a7c7 0fbb 44b8 33ba 2ab5 293a
00000070: 9130 e6ba 6ae7 10b5 edfa bf39 45ca b43a
00000080: 78d4 1d3b bc83 f4b9 85bb 48bb fd37 beb9
00000090: 1078 23bb ad8f 9fba 91ec 513a 0d89 12bb
000000a0: 4652 f6b9 e946 8a3a f0e8 14bb 49a2 edbb
000000b0: 0940 5b3b e3e8 7d3a 6b7e bfbb 4629 26ba
000000c0: 512b 003b 844c ef3a acc0 3bba 333c 80b9
000000d0: de99 00bc 0228 7cba ccae 86b9 4e03 75ba
000000e0: b52c 24b5 2d60 383a d088 cd39 a405 17bc
000000f0: 14d1 1c3b d160 37ba 71a7 87ba 3f07 37bb
00000100: 87a0 91ba 4628 0ebc 93f6 eeba 3a0d db39
00000110: b6b2 e2b9 095f d439 3726 9abb 0fc8 8dba
00000120: e23e bb3a 793a 2739 b989 6ebb 63ae 5cba
00000130: cd3b 52bb bc44 1c3a 916a 463a d7a5 173b
00000140: a13a c9ba 2988 8aba 6ef2 cb3a 1fc5 0c3a
00000150: 7f8e 99b9 e99d a1b9 ac26 c5ba b2ea ce38
00000160: f17d 043a a552 073a 559b 1eb9 f268 ad3a
00000170: 6124 d239 ab08 4239 da56 11ba f3df 0f39
00000180: 0b3d 97ba 41af 3e3a a4c7 9b3a 5def 5438
00000190: cd57 393a 8d3c da3b ce7c 843a fb50 adb9
000001a0: d715 173b d413 00bb 5048 09bb d7fc 4ebb
000001b0: 4376 20ba 1d13 90ba 97d4 d1bb 331a b13a
000001c0: e8bc 713b 7d09 b1bb ec55 04bb 1288 48b9
000001d0: 87e6 6d3a 90ef 03ba 5ac2 543a 3208 a038
000001e0: cede a6b9 e4bf d2b9 0702 a238 8b2b 1c3b
000001f0: 1c36 143c 81ce a93a aa99 6a3a 6b05 f4b9
00000200: a7bd daba 933c b4b9 239b 9235 1e41 72ba
00000210: 4e8b bf39 c900 f239 b4d6 1139 a15c 0f39
00000220: 14e0 1abb 4182 dabb 9822 05bc b987 2d3a
00000230: c5eb 3fbb 2616 ad38 6b9f 2cba 63e9 02bb
00000240: e610 35ba b103 61b9 640b dbb9 4509 0bbb
00000250: cd42 33ba d29b 24bb d333 3cba 1a0f 353b
00000260: 977a 7aba dc2c 03bb 00c4 493a 63c2 d43a
00000270: a3ee ce39 3d9e 98ba 8764 743a 9d66 fbbb
00000280: 9cf7 3fbc d29b 383a 0ad4 923a 6bb3 5b3b
00000290: 2148 03bb 8e60 d33b 7081 233b 20e3 bf39
000002a0: fbf1 7eb9 2f85 06ba b509 11ba c266 7cbb
000002b0: 7f77 8b3a a523 f939 2f6e b73b 2250 2d3b
000002c0: c610 ad3a a6e4 80ba c731 8db9 cfbb b6ba
000002d0: 29f6 d9bb 1e23 8a3a
0.0001504174 -0.00014456135 -4.4681525e-05 0.0072338195 0.0019872088 -0.0013611751 -0.001447529 -0.00014072754
0.0002917615 0.0010545155 0.0076952963 -0.003653862 -0.0039243246 -0.00039773493 0.0002475142 0.0020767967
0.006477041 0.00038007754 -0.0004106905 -0.006206355 0.00075103296 0.00013370563 -0.0013408466 0.00078812125
-0.0014241907 -0.002193907 -0.0006855766 0.0006473834 -0.0017562081 -5.398093e-07 0.00036617313 0.0013793191
0.002408294 -0.00046637456 -0.0030629348 -0.00036281339 -0.002494339 -0.0012173556 0.00080079684 -0.002235952
-0.00046982075 0.0010549697 -0.002272185 -0.007252012 0.0033454916 0.0009685887 -0.0058439276 -0.00063385477
0.0019557069 0.0018257056 -0.0007162194 -0.00024458914 -0.007849185 -0.0009618999 -0.00025688706 -0.0009346501
-6.115982e-07 0.0007033374 0.0003920258 -0.009217653 0.0023928331 -0.0006995323 -0.0010349584 -0.0027927903
-0.0011110463 -0.008676594 -0.0018231444 0.0004178079 -0.0004323923 0.00040506598 -0.0047042626 -0.0010817068
0.0014285708 0.00015948144 -0.0036398007 -0.00084183196 -0.00320791 0.000596117 0.000756898 0.002313962
-0.0015352556 -0.0010569143 0.001555992 0.00053699495 -0.00029288602 -0.00030825965 -0.0015041432 9.866561e-05
0.0005054167 0.00051621563 -0.0001512592 0.0013230129 0.00040081426 0.00018504511 -0.0005544253 0.0001372097
-0.0011538578 0.00072740397 0.0011885059 5.0767663e-05 0.0007070273 0.0066600502 0.0010107995 -0.00033057466
0.002305379 -0.0019543068 -0.0020947643 -0.003158381 -0.0006121138 -0.0010992024 -0.0064035165 0.0013511836
0.0036886279 -0.0054027424 -0.0020192815 -0.00019124176 0.0009075184 -0.0005032951 0.0008116119 7.630921e-05
-0.0003182799 -0.0004019729 7.7251396e-05 0.0023829665 0.009046104 0.001295522 0.00089492893 -0.00046543343
-0.0016688601 -0.00034377407 1.0922998e-06 -0.00092412706 0.0003653415 0.00046158422 0.00013908261 0.0001367205
-0.0023632096 -0.0066683595 -0.008125924 0.00066196505 -0.0029284817 8.253408e-05 -0.00065850344 -0.0019975535
-0.000690712 -0.00021459047 -0.00041779422 -0.0021215242 -0.0006838262 -0.002511729 -0.0007179353 0.002762741
-0.00095550105 -0.0020015752 0.0007696748 0.0016232248 0.0003946918 -0.0011643838 0.0009322841 -0.0076721446
-0.0117167495 0.0007042262 0.0011202109 0.003352369 -0.0020032006 0.006450719 0.0024948977 0.0003659958
-0.00024313472 -0.000513154 -0.00055327575 -0.0038513397 0.0010640471 0.00047519538 0.0055978517 0.0026445468
0.0013203851 -0.0009833768 -0.00026930703 -0.0013941469 -0.006651659 0.001053903

base.mlp.fc1.0.weight f4 [64, 182]
00000000: 763f 2bbe 561e d5bd 9f54 96bd 93e9 af3d
00000010: a165 c5bc 62ea 0bbe 23f3 9a3e aaeb 423e
00000020: 8807 f6bc a1d2 53bd 22cd 303e bf13 a13d
00000030: 0d10 60bd 05d0 87bd 98e9 9d3e 04a3 ca3d
00000040: 0e8c 033e c8f1 40be 64ff 4d3d e484 c53d
00000050: 2f7f 14be 755c 513d 1f06 e33d 052c 103d
00000060: 48fc 613d 0bfa 123e bdc0 91be 70b8 bb3d
00000070: a8ec 083b cdbc 463e 5fd6 83bd 8c00 6c3e
00000080: 27fe 9e3d d431 1d3e 3de1 a33b 46f6 113c
00000090: 7f3f 3abd 957e 093e ea2b a93c 60f6 593e
000000a0: 6808 e9bd 2905 c8bc 3b1d 0dbe 48e9 263d
000000b0: 5986 f6bd 2464 ebbd 4505 553d 58ed ec3c
000000c0: ccc7 e33d e8f9 61bc 7368 673e 9d4c 703e
000000d0: 3abf dabd 3ecd 15be f47b 00be 7086 5e3e
000000e0: cc27 2dbc 679d 5cbe 85a9 5cbe e0cc bd3d
000000f0: 3192 983d 12b5 5b3d 7e9f 81bd 5b21 603d
00000100: 9532 96bd 3523 5a3c c222 a2bd d3c2 44bb
00000110: ca9b f6bd 40b6 09be 6ac2 3abb 0c89 e0bd
00000120: 4990 53bd db4b c53c ab68 e73b 4274 eb3d
00000130: 469f 86be 32d0 fc3c 66f9 78bc f399 4b3e
00000140: 8aca b23d 81b4 8d3e af47 a0bd b708 00bd
00000150: 74b3 a63c 17d7 5cbe 944c cd3d 9371 8fbd
00000160: c349 adbd 1a95 dd3c e628 54bd e4a6 6ebd
00000170: 4c61 8a3e ad84 06bd ad7c 603d b8e1 233e
00000180: 9dbf adbd 1d92 a5bd fc1c 0abe c98a a93b
00000190: c996 2cbe 3b74 673d db3f a2bd e0d2 d9bb
000001a0: b1c2 e8bd 7386 3c3d aac1 053e ba59 64bb
000001b0: 2e0a ae3c c95b 443e 3a68 323e a62f 64bd
000001c0: 2c54 943e 9ce2 303c 649b 0f3e 1d8f 89bd
000001d0: 52ed 82bd df01 3c3e 68c1 5b3e 7b4b 323e
000001e0: dee3 503d e47b 593d 7f90 863c c1a0 52bd
000001f0: 15a6 09be e7f9 5f3d 3d2d 303b d925 9e3d
00000200: 583f 683d 39ef 67be 16fe 613e 62cd 043e
00000210: 0f10 60bc aa7a 2ebd 2252 67be d469 963d
00000220: 8582 5ebd 0a82 483d 2fa6 4fbe ae3b 0f3e
00000230: 2b46 033e 8791 c73d ac3c a83c e17a fa3d
00000240: 4988 123e 1947 203d 9b5b 813e 874a cebd
00000250: 3a01 16be 1b7b 2bbe c05b de3c 02dc 1c3c
00000260: c8a4 2d3c 7da8 7bbd 0dda 40bd 8ca5 e7bd
00000270: 58ea 91bd 218f f13d a35b bbbd 3836 b33b
00000280: 9d05 da3d a577 7a3e f14a 6abb 0b66 833c
00000290: 8899 78bd 58b1 bebd 09e8 bb3b ef98 af3b
000002a0: 5f8c 93bd 0b56 31bd 1639 47be 1f9e 2abc
000002b0: 1f62 133e 2cd1 9dbd 4c17 9abc 7e9b b7bd
000002c0: bf06 56bd f3d6 0dbe c2e5 80be bdd3 d93d
000002d0: ef2b edbc 8fa5 2abd 40f2 7abe f150 2d3d
000002e0: b916 84bc 6342 923d 7508 e0bc 5161 dfbd
000002f0: 2d46 8cbe 39c6 953d 704d f93d bf77 22be
00000300: 3dc9 4ebe 8978 883e 63dd 1ebd 190f 943d
00000310: 53e8 e3bd bd80 d1bc 1c06 03be e9e0 b8bc
00000320: c712 d2bb c392 af3d f597 ceba 613c 40bd
00000330: d05a d43d d7a2 46bd eee4 6b3e 4f69 c73d
00000340: cd09 55be ff82 d7bc ae5b a03d e05c 103e
00000350: 9a46 ff3d 6ea7 3ebd df77 e43d 29fc fe3d
00000360: 0195 c93d 31b7 c9bc dea2 a33d 78bd 3a3c
00000370: 36c3 03bd 98ae eb3d d2ac fb3c 7e7c 02bc
00000380: a13c 103e 5e56 603d e318 323d 5f25 0bbe
00000390: ae6b 0dbc 00b6 b33d a2e2 eabd f9fb e3bd
000003a0: 5ba3 b1bd 6ca1 873d 8f62 82bd 81bf 57bd
000003b0: d2d5 1dbb 894f a0bd b71b 47bc ee03 d8bd
000003c0: 1b68 4d3e fca1 443e e036 633e 7754 9dbd
000003d0: 151a bc3c 4c5a 963d b804 e8bd ec0d 5ebd
000003e0: 5607 3abd 0247 9abe 01be 04be 0852 f63d
000003f0: 8db5 003d 7dbf 933c 6a71 493d 18e0 1dbd
-0.16723427 -0.10406177 -0.07340359 0.085894726 -0.024096312 -0.13663629 0.30263624 0.19035211
-0.030032888 -0.051714543 0.17265752 0.078650944 -0.054702807 -0.066314735 0.3084228 0.09894374
0.12846395 -0.18842232 0.050292388 0.096444875 -0.14501642 0.051113565 0.11085152 0.03519823
0.055172235 0.14353196 -0.2846736 0.09166038 0.0020893011 0.1940796 -0.064373724 0.23047084
0.077633195 0.15351039 0.0050012157 0.008908814 -0.04547071 0.13427193 0.020650823 0.21285391
-0.113785565 -0.024416523 -0.13780682 0.040749818 -0.120373435 -0.1149371 0.05200698 0.028921768
0.111220926 -0.013792492 0.22598438 0.23466726 -0.10681005 -0.14629075 -0.12547284 0.21730971
-0.01056857 -0.21544419 -0.21549042 0.092675924 0.07449759 0.05363948 -0.06329249 0.05471931
-0.073338665 0.013314058 -0.07916786 -0.003002335 -0.12041433 -0.13448429 -0.0028497227 -0.109636396
-0.051651273 0.024084022 0.007062038 0.11496784 -0.2629339 0.030860994 -0.01519618 0.19882946
0.087300375 0.27676776 -0.078261726 -0.03125831 0.020349242 -0.21566425 0.10024372 -0.070040844
-0.084613346 0.027048636 -0.051796816 -0.058264628 0.27027357 -0.032841373 0.0548064 0.16004074
-0.08483813 -0.080845095 -0.13487619 0.005174015 -0.16854395 0.05650733 -0.07922336 -0.0066474527
-0.113652594 0.04602666 0.13062158 -0.003484352 0.021245088 0.19175638 0.17422572 -0.055709504
0.28970468 0.010796215 0.1402412 -0.0671675 -0.063929215 0.18360089 0.21460497 0.17411606
0.05099856 0.053096667 0.016426323 -0.051422838 -0.13442262 0.054681685 0.0026882433 0.077220626
0.056701034 -0.2264985 0.22069582 0.12968972 -0.013675704 -0.04259745 -0.22589925 0.07344404
-0.054323692 0.04895214 -0.20278238 0.1398761 0.12819736 0.09744554 0.020536743 0.122304685
0.14309801 0.039130304 0.25265202 -0.10072809 -0.14648905 -0.1674618 0.02714336 0.009573938
0.010598369 -0.06143998 -0.04708295 -0.113108724 -0.07124776 0.11794878 -0.09148338 0.00546911
0.10645602 0.24459703 -0.0035750235 0.016039869 -0.060693294 -0.093111694 0.005734448 0.0053588073
-0.07204508 -0.043294948 -0.1945537 -0.010413676 0.14392899 -0.07705912 -0.018809937 -0.08965205
-0.052252527 -0.13851528 -0.2517529 0.10636089 -0.028951613 -0.041661795 -0.24506474 0.04231352
-0.016124116 0.071415685 -0.027347783 -0.109072335 -0.2739729 0.073131986 0.12172973 -0.15865992
-0.20193954 0.2665446 -0.03878535 0.07229442 -0.11128297 -0.025574083 -0.127953 -0.022568183
-0.00641093 0.085729145 -0.001576184 -0.04693258 0.103688836 -0.04849514 0.23036548 0.09736883
-0.2080452 -0.026307581 0.078299865 0.14097929 0.12464638 -0.046546392 0.11155676 0.124504395
0.09842873 -0.024623485 0.07990049 0.011397712 -0.03216859 0.115079105 0.030722056 -0.007964252
0.14085628 0.054769866 0.043480765 -0.13588475 -0.00863163 0.08774948 -0.11469008 -0.11132044
-0.08673736 0.06622586 -0.06366455 -0.052672867 -0.0024083746 -0.0782767 -0.012152604 -0.105476245
0.20059244 0.19202417 0.22188902 -0.07682126 0.022961656 0.073414415 -0.11329025 -0.054212496
-0.045417152 -0.301323 -0.12963106 0.12027365 0.03142314 0.018035645 0.049180426 -0.03854379

base.mlp.fc1.0.bias f4 [64]
00000000: ffd7 06bb fe14 163a 468b 66b9 096f c63a
00000010: befb b3bb b12f 65bb a947 cdba 65d4 82b7
00000020: 4ba5 f5ba cd92 9cb9 278d 4eb9 367a 153b
00000030: 7691 de3a 34ee fdba 012a 8a3a adff 813b
00000040: 7904 2a3a 3e0e 8a3a 4517 a0ba 050c 68bb
00000050: 6dfb 08b9 cdc8 3bbb 40d2 0abb 6bc2 383b
00000060: 54f0 0aba fda7 3ebb e480 39ba e951 e5ba
00000070: 59fa a6b9 a8b7 6a39 2816 56ba 0509 12bb
00000080: 030d 703b 294a edb9 5593 77bb 8979 0b3b
00000090: f794 843a 4797 0cba b46a fe3a dec5 0fbb
000000a0: 320c e538 df6a 3038 a0fb a53a f234 3a3b
000000b0: 65f6 95ba 11fd a3ba 1465 083b 1214 e0b9
000000c0: 9b39 f53a 60a8 c33a 106e b4b9 3bbf eb3a
000000d0: 1400 7eba fb24 ca3a 9c09 3bbb 4dfe ffb8
000000e0: 7572 2ebb 796c 8c3a 8ba2 463b 2b10 fabb
000000f0: 3817 37bb b2dc c23b 25f4 0dba ba36 053c
-0.002057552 0.0005725174 -0.00021986393 0.0015139292 -0.0054926565 -0.0034971053 -0.0015661615 -1.5596112e-05
-0.0018741278 -0.00029864014 -0.00019698274 0.002280844 0.0016980607 -0.0019373358 0.0010541083 0.0039672465
0.0006485652 0.0010532809 -0.0012213966 -0.0035407555 -0.00013063634 -0.0028653622 -0.0021182448 0.0028192054
-0.0005300094 -0.0029091828 -0.0007076396 -0.0017495725 -0.0003184851 0.00022384396 -0.00081667537 -0.0022283208
0.003662885 -0.00045259416 -0.0037777026 0.0021282157 0.0010115196 -0.0005363118 0.0019410462 -0.0021938006
0.000109218425 4.20612e-05 0.0012663491 0.0028412906 -0.0011441229 -0.0012511333 0.00208122 -0.00042739563
0.0018709184 0.0014927499 -0.00034414278 0.0017986068 -0.00096893427 0.0015422398 -0.0028539663 -0.00012206715
-0.0026618515 0.001071348 0.0030309286 -0.007631322 -0.0027937423 0.005946719 -0.00054151035 0.008130724

base.mlp.fc1.2.weight f4 [64]
00000000: 4949 803f 52e5 7e3f b403 7e3f 97a3 7f3f
00000010: 6d1d 7f3f 4eb8 7f3f b74b 7f3f 82e5 7f3f
00000020: 9a18 803f f8c8 7f3f 69dd 803f 1176 803f
00000030: 6129 803f cef6 7f3f 3d3f 803f 1556 803f
00000040: 19f0 7f3f e5d9 7f3f 7496 7f3f d73b 803f
00000050: 4d97 803f 0aa7 7f3f e8ea 7d3f 0155 803f
00000060: f41b 803f e7ff 7f3f d1d9 7f3f 0df9 7f3f
00000070: 26f6 7f3f a42b 803f c43a 7f3f e89d 7f3f
00000080: 1d16 7f3f 11ed 7f3f 1846 803f a4f5 7e3f
00000090: b70b 803f ecdb 7f3f 894f 803f b9cc 7f3f
000000a0: e704 803f 44df 803f 5f08 803f a20e 803f
000000b0: 4618 803f f1e8 7f3f dadf 7f3f caed 7f3f
000000c0: 214a 7f3f cb63 803f 77c0 7f3f 3c02 803f
000000d0: 357a 7f3f 5654 803f e71e 803f 7d8a 7f3f
000000e0: c00e 7f3f fe13 803f 880f 803f 8ef1 803f
000000f0: bd14 803f 10bd 803f 8069 7f3f d0af 803f
1.0022365 0.99568665 0.992244 0.99858993 0.99654275 0.998906 0.99724907 0.99959576
1.0007508 0.9991603 1.0067569 1.0036031 1.0012628 0.9998597 1.0019299 1.002627
0.99975735 0.99941856 0.9983895 1.0018262 1.0046173 0.99864256 0.99186563 1.0025941
1.0008531 0.9999985 0.99941736 0.99989396 0.9998497 1.0013318 0.99699044 0.9985032
0.9964312 0.9997111 1.0021391 0.9959357 1.0003575 0.9994495 1.0024272 0.99921757
1.0001496 1.0068135 1.0002555 1.0004466 1.0007408 0.99964815 0.99950945 0.9997221
0.99722487 1.0030454 0.99903053 1.0000682 0.9979585 1.0025737 1.0009431 0.9982069
0.9963188 1.0006101 1.000474 1.0073717 1.0006329 1.0057697 0.99770355 1.0053654

base.mlp.fc1.2.bias f4 [64]
00000000: 78f7 adba b768 89bb 388d c638 20a9 c33a
00000010: aaa1 f6bb b4bf d4ba 38f2 1f3b ea2e fe39
00000020: 9c5a bcba c705 753a 6aa2 57b8 2f30 653b
00000030: 522a cc3a 7ef9 60b9 083f 1bba a250 4a3b
00000040: 7679 893a 71c4 aeb9 4cc8 e13a 3769 0c3a
00000050: aa1a 353a fece d4ba 6f00 eeba fe39 343b
00000060: 47f5 41ba c839 caba ee32 f7b9 f5b3 a9ba
00000070: bb99 87b8 a294 803a 4cef 5dba fdf2 31b9
00000080: 1c01 753b 40cb bab9 fa32 2cbb aa14 be3a
00000090: eed1 1c3a 3047 ddb9 9ef3 0f3b 2738 e239
000000a0: 02ca 08b8 d897 cf39 ee09 1d39 2a16 a13a
000000b0: 9921 adba 1b8c 5d39 a94f ab3a 103f 15b9
000000c0: 03b7 f73a 42d0 303b b5d7 57ba 257a 8db7
000000d0: f735 d0ba 7017 cf3a cd2c 8fba c68e 5dba
000000e0: efb7 f2ba 7e36 513a a9c7 0c3a 0ff3 efbb
000000f0: dcfc 43ba caff bb3b 9e46 7a3a a6c0 cb3b
-0.0013272604 -0.004193391 9.46768e-05 0.0014927723 -0.007526596 -0.0016231448 0.0024405848 0.0004848161
-0.0014370265 0.0009346869 -5.1411254e-05 0.0034971347 0.0015576577 -0.00021455248 -0.0005922173 0.0030870815
0.0010488469 -0.00033334226 0.0017225831 0.00053562544 0.00069085753 -0.0016236005 -0.0018158088 0.0027500386
-0.0007398915 -0.0015428597 -0.00047149457 -0.0012947308 -6.465936e-05 0.0009809921 -0.0008466139 -0.00016970556
0.0037384694 -0.00035628118 -0.0026275502 0.0014502008 0.00059822097 -0.00042205444 0.0021965276 0.00043147916
-3.261306e-05 0.0003959525 0.00014976386 0.0012289931 -0.0013208865 0.00021128396 0.0013070005 -0.0001423324
0.0018899146 0.00269796 -0.0008233742 -1.6865388e-05 -0.0015885223 0.0015799832 -0.0010923386 -0.0008451756
-0.0018517951 0.0007980837 0.0005370328 -0.007322676 -0.00074763387 0.0057372795 0.0009547266 0.006218034

base.mlp.fc_h.0.weight f4 [64, 64]
00000000: 4afe 8fbd 177a 003e c944 35be bc15 5ebe
00000010: 7703 cabd 5e88 503e aed3 a3bd d58d 243b
00000020: 652c 3f3d d3b0 713d 9558 8a3d 74f1 ba3e
00000030: bdde 06be 1276 39be adb3 e7bc c59a 323e
00000040: be66 bebd ebb7 533d 6bc0 813e 3dff 89be
00000050: fe8f 5fbe 212e 74be 9eaf c13d f034 99be
00000060: efce 173f 6b1a 28be b68c c2bd 7cbf 833e
00000070: 8b6e af3e eb91 43bd e691 3fbd a5c2 45be
00000080: 7ba1 423d 3e00 1a3e 24cd 6b3e c49a b1bd
00000090: 3b9d 8c3e c2c1 873e 4fff febd 266b 35bf
000000a0: 4f97 89bd fcea 60bd e533 7b3c 9c4e 4d3d
000000b0: 26c5 753d 30de 20bb 6ca3 c3bd e840 abbe
000000c0: 642c 583d 008e e03d 7f09 0ebd c4d4 813c
000000d0: 714f a2be 1971 5c3d e377 aa3d 9c31 88be
000000e0: bded 59be 2104 6fbe 7b15 ad3e 9261 37be
000000f0: bdaf 9b3e 3be1 d0bd 3f7d 803c 0fea 27bd
00000100: c6a0 fc3c cab7 30bd a4cc dabd c602 5cbd
00000110: 03e3 a2bd 9495 413e b891 4b3e 6e9d ef3c
00000120: 95b3 b2bb 2d93 1a3b 8d2f 4e3e 3f18 743d
00000130: 81ad 03bc 37e8 b8bd 9b96 51be ee0d 74bc
00000140: 4d0b e83d b3a2 a7bd 64f9 8bbe 6b21 463d
00000150: 4185 543e fa36 01bf 605d f73d e1ce 1bbe
00000160: df05 2dbe 2465 673e b024 9bbd 8f32 903e
00000170: cdbe 8dbc c96c 21be b593 f0be 21d9 383e
00000180: fc81 523e 7299 4e3e 89eb 403e 18b6 193d
00000190: 10d3 b8be fa6e 4e3d 0cec 0b3f 570d 83be
000001a0: f691 5bbe 3ca9 603d 0ed4 57bc 60d5 8d3b
000001b0: c1ae be3e bccf c43e 7bb7 1cbe b74d b43e
000001c0: 3857 52be 7c02 0d3e 2a7c 9b3e 57db d03d
000001d0: 3d70 2d3e aa30 353d a657 143e 37d4 a1bd
000001e0: 8036 ab3d 6449 8abd 547e b9be 836d 75bd
000001f0: ce6c 5e3e b518 863e 29ec 15be f45e a43e
00000200: f9ec 8cbe d6ef 94bd aae0 13bc 9f76 553e
00000210: c7db fd3d 1468 8ebc 9998 813e fe6c 04be
00000220: f368 00be 234c 413e 4155 8fbe ef71 1abe
00000230: 496d 783c f015 473c 4535 5dbe e39e a33e
00000240: 52f7 77be d28c da3e d7bd d43d b066 ca3e
00000250: 8059 90be 0bac 5cbe 8778 9c3e de1b 1a3e
00000260: e3a7 a73e 0422 f7bd 485a 463e eafe fd3d
00000270: a92a d6be 471d 1bbe 4d31 6d3c 2542 9d3d
00000280: 4a89 a73e 8114 023f 48e6 7d3c 7ea5 063c
00000290: 2bfc cc3c 99a4 d53d f677 3ebd 692d c13d
000002a0: d617 293d 72c6 df3e 0010 ffbd 26b3 143b
000002b0: f8f3 6bbd 51c7 c63c 794b 383e 2fec 2d3e
000002c0: 1d3c f43d 00cd a4bd 4cde 26be 7fdd 73be
000002d0: 32b2 dabd 62cb 44be 76fd 883e b10a 873e
000002e0: dabd 7b3e 0c45 f2bd 18bd 453e 017f 25be
000002f0: 066f 1fbe 286a c13d d63b 5f3e 62b4 6b3e
00000300: 0ea2 053d c7af ad3d c73f 853e f27a 0ebe
00000310: 49e0 0b3e a286 023e d07d 183c b7da 393d
00000320: 1752 e73e 13e5 e63d 2f51 803e c804 0cbe
00000330: 3a83 f6bd 3d6d 8e3e dd46 083e f2a0 4cbd
00000340: a337 a53e 7170 0f3c 7062 cbbe 5583 1fbe
00000350: e5d2 cebd 0fe7 c0be 2c43 e5bd f0b5 84be
00000360: 42cb b73e 5020 80ba 23fc 81be f416 e63d
00000370: 2876 afbe 5f86 67bd dec9 b23e 4d5e 923e
00000380: 6b58 bfbd eed2 923e 78a0 a5bd 24af 073f
00000390: c5f5 463e 2cc4 17be 4c2f c6be 7ce2 8abd
000003a0: 4b29 1bbd 0fbc 433d e98c b4bd bb32 10be
000003b0: 0a24 2aba 1ff1 1d3e 1977 cc3d 902e 553d
000003c0: fda2 2fbe f0ff 94bc 088d 49be 124b afbe
000003d0: e253 583e 5212 8d3e e2ff e8bd ef67 2b3e
000003e0: 2db1 88bd 6cc0 193e 62d1 82be 7180 0abd
000003f0: 0410 a33d 05ba f4bd 8354 44bd 672e 80be
-0.07030924 0.12546574 -0.1770202 -0.21687979 -0.09863942 0.2036452 -0.07999359 0.0025108953
0.046673197 0.059006523 0.06755177 0.3651234 -0.13170905 -0.18111446 -0.028283918 0.17441852
-0.0929694 0.05168907 0.25342116 -0.26952544 -0.21832272 -0.23845722 0.094573244 -0.299232
0.5930013 -0.16416328 -0.09499495 0.25732028 0.34264025 -0.04774658 -0.04677 -0.19312532
0.04751728 0.15039155 0.23027474 -0.08672097 0.27463707 0.26515013 -0.1245104 -0.7086662
-0.06718313 -0.0549116 0.015332197 0.050123796 0.06000247 -0.0024546497 -0.095526546 -0.33447957
0.05277671 0.10964584 -0.034677025 0.015848525 -0.31701234 0.053818796 0.08323648 -0.2660035
-0.21282096 -0.23341419 0.3380545 -0.17908314 0.30407515 -0.10199209 0.015684722 -0.0409947
0.030838381 -0.043144025 -0.10683563 -0.053713582 -0.07953455 0.18904716 0.19879806 0.029249873
-0.0054535368 0.0023586259 0.20135327 0.059593435 -0.008036972 -0.090286665 -0.20467608 -0.014895899
0.113302805 -0.08185329 -0.27338707 0.048371714 0.20753957 -0.5047451 0.12078357 -0.15215637
-0.16896771 0.22597176 -0.07575357 0.28163573 -0.017302895 -0.15764154 -0.46987692 0.18051578
0.20557398 0.20175722 0.1883985 0.037527174 -0.36098528 0.050398804 0.54657054 -0.25596115
-0.21442398 0.054848894 -0.013173116 0.004328415 0.37242702 0.3843974 -0.15304367 0.35215542
-0.20541084 0.13770479 0.30368167 0.10198086 0.16937347 0.044235863 0.1448656 -0.07901805
0.083600044 -0.067522794 -0.36229193 -0.05991889 0.21721193 0.26190725 -0.14640869 0.32103693
-0.27524546 -0.072723076 -0.009025732 0.20846032 0.12395435 -0.017383613 0.25311735 -0.12932202
-0.12540035 0.188767 -0.2799473 -0.15082525 0.015162774 0.012151226 -0.21602352 0.31957158
-0.24215439 0.42685562 0.103877716 0.3953147 -0.28193283 -0.21550004 0.30560705 0.15049693
0.32745275 -0.12067035 0.19370377 0.124021366 -0.41829422 -0.15147887 0.014477086 0.07678632
0.3272193 0.50812536 0.015496798 0.008218167 0.025022587 0.10431785 -0.046501122 0.094324894
0.041282497 0.4370609 -0.12454224 0.0022689789 -0.057605714 0.024264963 0.1799754 0.16984628
0.11925528 -0.08046913 -0.16295737 -0.23814963 -0.10678519 -0.1921821 0.26755875 0.26375344
0.24584141 -0.11829576 0.19310415 -0.1616173 -0.15569696 0.09444076 0.2180017 0.2301803
0.03262525 0.084807925 0.2602522 -0.13914087 0.13659777 0.12746671 0.00930734 0.0453746
0.45179817 0.11274161 0.25061938 -0.13673699 -0.12036748 0.27817717 0.13308282 -0.049958177
0.3226901 0.008754835 -0.3972354 -0.15577443 -0.10098819 -0.37676284 -0.11194453 -0.25920057
0.3589726 -0.0009775255 -0.25387678 0.11234847 -0.34269834 -0.05652463 0.34919637 0.2858757
-0.09343036 0.28676552 -0.080872476 0.5300162 0.19429691 -0.14820927 -0.3870796 -0.0678148
-0.037881177 0.04778677 -0.08815939 -0.14081852 -0.00064903556 0.15424012 0.099836536 0.05204636
-0.17152019 -0.018188447 -0.19682705 -0.34236962 0.21125749 0.2755304 -0.11376931 0.16738866
-0.066744186 0.1501481 -0.2555037 -0.033813898 0.07962039 -0.11949543 -0.04793216 -0.25035402

base.mlp.fc_h.0.bias f4 [64]
00000000: 0000 0000 0000 0000 0000 0000 0000 0000
00000010: 0000 0000 0000 0000 0000 0000 0000 0000
00000020: 0000 0000 0000 0000 0000 0000 0000 0000
00000030: 0000 0000 0000 0000 0000 0000 0000 0000
00000040: 0000 0000 0000 0000 0000 0000 0000 0000
00000050: 0000 0000 0000 0000 0000 0000 0000 0000
00000060: 0000 0000 0000 0000 0000 0000 0000 0000
00000070: 0000 0000 0000 0000 0000 0000 0000 0000
00000080: 0000 0000 0000 0000 0000 0000 0000 0000
00000090: 0000 0000 0000 0000 0000 0000 0000 0000
000000a0: 0000 0000 0000 0000 0000 0000 0000 0000
000000b0: 0000 0000 0000 0000 0000 0000 0000 0000
000000c0: 0000 0000 0000 0000 0000 0000 0000 0000
000000d0: 0000 0000 0000 0000 0000 0000 0000 0000
000000e0: 0000 0000 0000 0000 0000 0000 0000 0000
000000f0: 0000 0000 0000 0000 0000 0000 0000 0000
0.0 0.0 0.0 0.0 0.0 0.0 0.0 0.0
0.0 0.0 0.0 0.0 0.0 0.0 0.0 0.0
0.0 0.0 0.0 0.0 0.0 0.0 0.0 0.0
0.0 0.0 0.0 0.0 0.0 0.0 0.0 0.0
0.0 0.0 0.0 0.0 0.0 0.0 0.0 0.0
0.0 0.0 0.0 0.0 0.0 0.0 0.0 0.0
0.0 0.0 0.0 0.0 0.0 0.0 0.0 0.0
0.0 0.0 0.0 0.0 0.0 0.0 0.0 0.0

base.mlp.fc_h.2.weight f4 [64]
00000000: 0000 803f 0000 803f 0000 803f 0000 803f
00000010: 0000 803f 0000 803f 0000 803f 0000 803f
00000020: 0000 803f 0000 803f 0000 803f 0000 803f
00000030: 0000 803f 0000 803f 0000 803f 0000 803f
00000040: 0000 803f 0000 803f 0000 803f 0000 803f
00000050: 0000 803f 0000 803f 0000 803f 0000 803f
00000060: 0000 803f 0000 803f 0000 803f 0000 803f
00000070: 0000 803f 0000 803f 0000 803f 0000 803f
00000080: 0000 803f 0000 803f 0000 803f 0000 803f
00000090: 0000 803f 0000 803f 0000 803f 0000 803f
000000a0: 0000 803f 0000 803f 0000 803f 0000 803f
000000b0: 0000 803f 0000 803f 0000 803f 0000 803f
000000c0: 0000 803f 0000 803f 0000 803f 0000 803f
000000d0: 0000 803f 0000 803f 0000 803f 0000 803f
000000e0: 0000 803f 0000 803f 0000 803f 0000 803f
000000f0: 0000 803f 0000 803f 0000 803f 0000 803f
1.0 1.0 1.0 1.0 1.0 1.0 1.0 1.0
1.0 1.0 1.0 1.0 1.0 1.0 1.0 1.0
1.0 1.0 1.0 1.0 1.0 1.0 1.0 1.0
1.0 1.0 1.0 1.0 1.0 1.0 1.0 1.0
1.0 1.0 1.0 1.0 1.0 1.0 1.0 1.0
1.0 1.0 1.0 1.0 1.0 1.0 1.0 1.0
1.0 1.0 1.0 1.0 1.0 1.0 1.0 1.0
1.0 1.0 1.0 1.0 1.0 1.0 1.0 1.0

base.mlp.fc_h.2.bias f4 [64]
00000000: 0000 0000 0000 0000 0000 0000 0000 0000
00000010: 0000 0000 0000 0000 0000 0000 0000 0000
00000020: 0000 0000 0000 0000 0000 0000 0000 0000
00000030: 0000 0000 0000 0000 0000 0000 0000 0000
00000040: 0000 0000 0000 0000 0000 0000 0000 0000
00000050: 0000 0000 0000 0000 0000 0000 0000 0000
00000060: 0000 0000 0000 0000 0000 0000 0000 0000
00000070: 0000 0000 0000 0000 0000 0000 0000 0000
00000080: 0000 0000 0000 0000 0000 0000 0000 0000
00000090: 0000 0000 0000 0000 0000 0000 0000 0000
000000a0: 0000 0000 0000 0000 0000 0000 0000 0000
000000b0: 0000 0000 0000 0000 0000 0000 0000 0000
000000c0: 0000 0000 0000 0000 0000 0000 0000 0000
000000d0: 0000 0000 0000 0000 0000 0000 0000 0000
000000e0: 0000 0000 0000 0000 0000 0000 0000 0000
000000f0: 0000 0000 0000 0000 0000 0000 0000 0000
0.0 0.0 0.0 0.0 0.0 0.0 0.0 0.0
0.0 0.0 0.0 0.0 0.0 0.0 0.0 0.0
0.0 0.0 0.0 0.0 0.0 0.0 0.0 0.0
0.0 0.0 0.0 0.0 0.0 0.0 0.0 0.0
0.0 0.0 0.0 0.0 0.0 0.0 0.0 0.0
0.0 0.0 0.0 0.0 0.0 0.0 0.0 0.0
0.0 0.0 0.0 0.0 0.0 0.0 0.0 0.0
0.0 0.0 0.0 0.0 0.0 0.0 0.0 0.0

base.mlp.fc2.0.0.weight f4 [64, 64]
00000000: 81f7 8bbd 8c44 003e 5a86 3ebe 184d 5cbe
00000010: 0b92 c6bd 2ac8 4f3e cda1 a2bd a0e2 423b
00000020: 1c85 363d d85a 733d 6b56 833d b4d1 ba3e
00000030: 79f7 08be 8dc0 38be 2a52 f1bc fd6b 313e
00000040: 03e0 c6bd abc6 523d 07da 813e 66a2 89be
00000050: b8e7 61be 2dea 74be 7516 bd3d 704e 99be
00000060: 0beb 173f 4d78 26be a9f4 c2bd 13c7 833e
00000070: 7387 af3e b1a5 43bd 099f 2fbd 941d 47be
00000080: 5f96 443d 3478 193e 95ff 6b3e 75bf b9bd
00000090: f08f 8c3e 8cf5 883e 9699 ffbd 4130 35bf
000000a0: 6dba 88bd d174 46bd c370 773c 19d3 473d
000000b0: 79c2 7b3d efc0 01bb 8c2d c8bd 925a abbe
000000c0: 16cb 5e3d ed7f e93d 40b0 0ebd 7779 853c
000000d0: 1646 a2be 6919 5e3d 7570 ab3d 8261 87be
000000e0: 96f3 5abe 4424 6fbe 1ae2 ac3e 6ae1 36be
000000f0: 67f1 9b3e 08dc d0bd 65f7 623c 662e 2bbd
00000100: d9b4 003d dd97 34bd d812 cbbd f69e 5ebd
00000110: 37bd a6bd 2c39 413e 9529 4c3e 1976 f63c
00000120: da1b 97bb 518e 4c3b 564c 523e 174f 703d
00000130: 9cf6 debb b5b9 b7bd bbb7 4fbe 8f35 74bc
00000140: 5a15 ec3d 7b8a a9bd 1580 8bbe 44c3 3f3d
00000150: 3204 563e 135c 01bf e5c7 ff3d 63cf 1cbe
00000160: 5342 2cbe abca 663e 5f16 9dbd 788a 903e
00000170: 0276 89bc 5398 22be 6c9d f3be 87c3 3a3e
00000180: b109 533e 36e9 4d3e 40ef 413e bc22 273d
00000190: fb67 b9be 68ab 423d 77b0 0b3f 58f1 82be
000001a0: 77cc 5abe 2ffd 483d 9ef9 66bc 847a 8a3b
000001b0: ddb9 be3e 002d c53e 346e 1bbe 1bd1 b33e
000001c0: b517 52be 413d 0a3e c6fc 9a3e 6757 d23d
000001d0: 7860 2c3e 5ef8 2c3d 4710 153e 6454 a5bd
000001e0: 07e4 b03d 2864 8cbd 1ae2 b9be 7edb 71bd
000001f0: 9e1c 5f3e 267c 853e 7680 13be 8e1b a43e
00000200: 15b1 8cbe 361f 94bd 09df 90bc 945f 563e
00000210: 81b6 ff3d 23e6 8ebc c999 813e a991 04be
00000220: 45d2 02be e01b 413e 63de 90be f90f 1abe
00000230: 5684 503c e1f4 473c 63be 5ebe 601c a33e
00000240: 5c9a 7abe bdbd da3e 9f02 d43d 2300 cb3e
00000250: eacb 90be c7e2 5cbe b755 9b3e a788 1a3e
00000260: 1f92 a73e 7f89 f4bd 2ec3 463e d9a4 fd3d
00000270: ed34 d6be 6392 1abe 7868 913c 6622 9a3d
00000280: a77b a73e ab24 023f 40be 763c 4918 a33b
00000290: 0678 d13c 6132 d63d e821 3dbd dbd4 c13d
000002a0: c266 283d 6507 e33e 524c febd c805 eb3a
000002b0: 1f6d 69bd f6bb c53c 54ef 353e bb56 2e3e
000002c0: b089 f53d b6b5 9dbd 1a6b 26be 8504 74be
000002d0: 465e d9bd 36d5 42be 72ee 883e 11b7 873e
000002e0: 09ac 793e b351 f1bd 10f0 453e aeb8 25be
000002f0: f28b 1fbe 7ada c23d 3f1c 5d3e cda0 6b3e
00000300: a5d2 0e3d 62ca a83d c6ca 7f3e 7274 0bbe
00000310: a4fa 093e 309f ff3d 9f9c 443c c456 443d
00000320: 942d e53e 1428 ec3d 21bb 7c3e 3d82 0ebe
00000330: e62d f9bd 51d3 8f3e 3e98 093e 5c3b 5bbd
00000340: 52b7 a33e 27bd cf3b d52a cabe fd16 21be
00000350: 01e5 d6bd 597e c2be 2550 e4bd 05ef 85be
00000360: e31e b93e 323c 323b 3a35 83be 0b78 e93d
00000370: 2838 aebe f891 71bd ede1 b23e 5c00 933e
00000380: 6716 babd a9a5 913e a5c7 a0bd b163 063f
00000390: 3996 443e b789 17be 2f6f c7be 01cd 84bd
000003a0: d69e 10bd fe1c 543d 6682 b9bd 0414 13be
000003b0: 7b90 183b 11a1 203e 7a6c c43d f36a 4b3d
000003c0: 5c63 2cbe fb60 55bc e6f5 4bbe 94f6 adbe
000003d0: 581f 563e a606 8d3e d2a2 e3bd 4c97 2a3e
000003e0: ea6a 85bd 8859 173e c624 84be 699c ffbc
000003f0: 5375 a83d a51e f9bd 5ca8 40bd d68a 81be
-0.06834317 0.12526149 -0.18605939 -0.21513784 -0.09695824 0.202912 -0.07941017 0.002973713
0.044560537 0.059412807 0.06412967 0.36488116 -0.13375653 -0.18042202 -0.029458124 0.1732635
-0.097106956 0.051458996 0.25361654 -0.26881713 -0.2206105 -0.23917456 0.09232799 -0.29942656
0.5934302 -0.16256829 -0.095193215 0.2573782 0.34283027 -0.047765438 -0.042876277 -0.19444877
0.047994968 0.1498726 0.23046716 -0.09069721 0.27453566 0.26749837 -0.12480466 -0.70776755
-0.06676183 -0.04845125 0.015102568 0.048785303 0.06146476 -0.0019798835 -0.097743124 -0.33467537
0.054392897 0.11401353 -0.034836054 0.01629327 -0.31694096 0.05422345 0.08371059 -0.2644158
-0.21381983 -0.23353678 0.33766252 -0.17859426 0.30457613 -0.10198218 0.013852929 -0.041792296
0.03142247 -0.04409014 -0.099157035 -0.054350816 -0.081415586 0.18869466 0.19937737 0.03008561
-0.0046114745 0.0031212757 0.20536932 0.058669176 -0.0068043005 -0.08970968 -0.20284931 -0.0149053475
0.1152751 -0.08278366 -0.27246156 0.04681708 0.20900038 -0.5053112 0.12489299 -0.15313487
-0.16822176 0.22538249 -0.076702826 0.28230643 -0.016779903 -0.1587842 -0.4758104 0.1823865
0.20609166 0.20108494 0.18938923 0.04080461 -0.36212143 0.047526747 0.5456614 -0.25574756
-0.2136706 0.04906958 -0.014097599 0.004226031 0.37251177 0.38510895 -0.15178758 0.35120472
-0.20516856 0.13499929 0.30270976 0.10270577 0.16833675 0.04222905 0.1455699 -0.08072737
0.08637243 -0.06855041 -0.36305314 -0.059047215 0.2178826 0.2607128 -0.14404473 0.32052273
-0.27478853 -0.072325155 -0.017684476 0.20934898 0.12485982 -0.017443722 0.2531264 -0.1294619
-0.12775524 0.1885829 -0.28294668 -0.15045156 0.012726864 0.01220438 -0.21752314 0.31857586
-0.24472946 0.42722884 0.103520624 0.39648542 -0.28280574 -0.21570884 0.30338833 0.15091191
0.3272867 -0.11940288 0.19410393 0.12384958 -0.41837254 -0.15094905 0.01775001 0.07526092
0.32711527 0.508372 0.015060008 0.0049772603 0.025569927 0.10458828 -0.046174914 0.09464427
0.041113622 0.4434158 -0.12416901 0.00179308 -0.05698883 0.024137478 0.17767078 0.17025273
0.119891524 -0.07700674 -0.16251794 -0.23829849 -0.10613684 -0.19026646 0.2674442 0.26506856
0.24382032 -0.11783161 0.19329858 -0.16183731 -0.15580729 0.09514327 0.21592806 0.2301056
0.034868855 0.082417265 0.24979696 -0.13618639 0.13474518 0.124815345 0.012000232 0.04793431
0.44761336 0.11531082 0.24680759 -0.1391687 -0.121669576 0.2809091 0.13436982 -0.053523406
0.319758 0.0063396874 -0.39485803 -0.15731426 -0.10492898 -0.3798702 -0.11148099 -0.2615892
0.36156377 0.0027196524 -0.25626546 0.113998495 -0.3402722 -0.058977097 0.34937993 0.28711212
-0.09086304 0.284467 -0.07850579 0.52495867 0.1919793 -0.14798628 -0.38952014 -0.06484414
-0.035307728 0.05178546 -0.09058075 -0.14363104 0.0023279476 0.15686442 0.09591003 0.04966254
-0.16834778 -0.01302361 -0.19918022 -0.33977187 0.20910394 0.27544135 -0.1111504 0.16659278
-0.06514533 0.14780247 -0.25809306 -0.031202512 0.08225503 -0.12164048 -0.04703556 -0.25301236

base.mlp.fc2.0.0.bias f4 [64]
00000000: 9e1d afb9 20c3 5eba 2e40 8b39 9bb2 24bb
00000010: 9d0d 03bb 1396 1a39 c6ce b3ba 37ba 2cbb
00000020: 90fd 8739 462b 4fbb 4c92 a739 47c4 f238
00000030: 668f faba 1afd 133a 516c 2f3a a9dc f839
00000040: 6c7d 64ba 28c1 cdba 6516 4c39 e053 a3bb
00000050: fc70 6aba 8e8b 863a 22ca e23a 38e5 743a
00000060: f041 90ba b211 753b 01cb 433b a183 983a
00000070: d5ec b7ba 3653 0e3a 2cb9 0f38 6abd ffba
00000080: 21b3 a6b9 ed58 fab9 c74c 1a39 db28 25ba
00000090: ec0a 7939 00ce 2539 a115 98ba 1819 f93a
000000a0: 900a ae3a 739e f839 0f78 06b9 6f0d 2cbb
000000b0: 21b3 bdba 62fb 2aba 0af0 0b3b 101a 0a3a
000000c0: 0445 b4ba 162a 6cba 6c7c c33a 6d70 3739
000000d0: f52e 843a 85ef b83a 7564 85ba c483 e338
000000e0: a71e 193a 4c40 9d38 9922 f939 7c93 263a
000000f0: 720e 49b9 84a3 923a 6984 84b9 552a 4ab8
-0.00033400668 -0.0008497704 0.00026559964 -0.0025130871 -0.0019997128 0.00014742491 -0.001371824 -0.002635611
0.00025938125 -0.0031611486 0.00031961722 0.00011576019 -0.0019116222 0.000564532 0.00066918606 0.0004746665
-0.0008716199 -0.0015697824 0.00019463299 -0.004984364 -0.00089432276 0.0010264979 0.0017302672 0.00093420176
-0.0011005979 0.003739458 0.0029875638 0.0011635908 -0.0014032373 0.00054292695 3.426631e-05 -0.0019511406
-0.0003179545 -0.0004774997 0.00014715186 -0.00063003384 0.00023750559 0.00015812367 -0.0011603126 0.0019004671
0.0013278294 0.000474203 -0.00012823961 -0.0026253124 -0.001447294 -0.00065224443 0.0021352791 0.0005268166
-0.0013753478 -0.0009008957 0.00149144 0.00017494122 0.0010084795 0.0014109468 -0.0010177033 0.00010848747
0.00058410544 7.4983196e-05 0.00047518758 0.00063543743 -0.00019174235 0.0011187647 -0.00025275655 -4.8199978e-05

base.mlp.fc2.0.2.weight f4 [64]
00000000: a9b6 7f3f cfb3 7f3f 8658 803f a677 7f3f
00000010: 4bc6 7f3f 260c 803f ba9b 7f3f 1307 803f
00000020: 7769 7f3f a201 803f 582b 7f3f a6b8 7f3f
00000030: 1114 803f bbae 803f e272 803f 93f7 7d3f
00000040: db76 7f3f 37a8 7f3f 8ea4 7f3f 3010 803f
00000050: 52cd 7f3f 9798 803f 4fd4 7f3f 303c 7f3f
00000060: 740e 803f a603 803f aa32 7d3f 960d 803f
00000070: a92c 803f 7971 803f 2ae9 7f3f e1df 7f3f
00000080: 7af5 7f3f 818c 7e3f 0e6e 803f cd0f 803f
00000090: d197 7f3f 0fc2 7e3f 6655 7f3f 49f7 7f3f
000000a0: 10da 7f3f 5fce 7d3f a6b6 7f3f 16c8 7f3f
000000b0: 36a4 7e3f 8a9d 7f3f f0cf 7f3f ba39 803f
000000c0: 56e4 7e3f aa07 803f 0e89 7e3f 9df9 7f3f
000000d0: 131b 803f 5157 803f 0bdd 7f3f 553a 803f
000000e0: 5a01 803f 8bde 7f3f 5113 803f 84d3 7f3f
000000f0: bd13 7e3f 560f 803f 59f1 803f 6ec5 7f3f
0.9988809 0.9988374 1.0027015 0.99791944 0.99911946 1.0003707 0.99846995 1.0002159
0.997703 1.0000498 0.9967551 0.99891126 1.0006124 1.0053324 1.003506 0.99205893
0.99790734 0.9986605 0.99860466 1.000494 0.9992267 1.0046567 0.9993333 0.99701214
1.0004411 1.0001113 0.9890543 1.0004146 1.0013629 1.0034629 0.99965155 0.9995099
0.9998394 0.9943314 1.0033586 1.0004822 0.9984103 0.9951486 0.9973968 0.999867
0.9994211 0.9914302 0.99888074 0.9991468 0.99469316 0.9984976 0.9992666 1.0017617
0.99567163 1.0002339 0.9942788 0.99990255 1.0008262 1.0026647 0.9994666 1.0017802
1.0000412 0.9994895 1.0005895 0.9993212 0.9924887 1.000468 1.0073653 0.9991063

base.mlp.fc2.0.2.bias f4 [64]
00000000: 77b4 213a 3825 10ba e89b 123a 26e8 343a
00000010: 8ec2 03ba 7c01 033a 5dce 32ba 31d0 17ba
00000020: a9b2 123a 1b7f 10ba ad76 253a c23d 2cba
00000030: 8c94 1aba 38f6 5eba 768a 35ba d3ab 313a
00000040: 7a08 283a 45fc aa3a 05e3 203a 0c05 10ba
00000050: d223 16ba d3c3 123a c4f4 203a f0cd 22ba
00000060: 1d6c f7b9 d6a4 163a f412 31bc d23a 173a
00000070: a63f 153a 0b0b 193a 1cc9 2aba aae7 2cba
00000080: 474d 33ba 83cc 27ba 030c 11ba a075 153a
00000090: 0508 2eba 52c2 3b3a 5503 263a 5bea 0f3a
000000a0: 21e7 203a cbe3 1e3a b6ed 263a 9dfe 11ba
000000b0: 430e f9b9 3b20 20ba 9eda 21ba 2893 0a3a
000000c0: 04b5 19ba bff9 16ba 9fa7 133a dcf4 73ba
000000d0: 7869 2d3a f0aa 253a 5952 41ba ed2f 053a
000000e0: 050d 323a 4109 33ba 321a 0bba d39a 25ba
000000f0: f3eb 1eba e752 0d3a 4005 09ba ce00 2a3a
0.0006168554 -0.000549871 0.000559269 0.0006901048 -0.00050262443 0.00049974746 -0.00068209117 -0.0005791216
0.00055960804 -0.0005512104 0.00063119346 -0.0006570482 -0.0005896769 -0.00085053174 -0.00069252343 0.0006777618
0.00064099545 0.0013045153 0.0006137344 -0.0005493916 -0.00057273835 0.0005598638 0.00061399885 -0.00062104966
-0.00047192062 0.00057466084 -0.010807741 0.0005768958 0.0005693383 0.00058381323 -0.0006514953 -0.00065958
-0.00068398233 -0.0006401019 -0.0005533101 0.00057014264 -0.0006638768 0.000716244 0.0006332894 0.0005489939
0.00061379565 0.00060611655 0.0006367819 -0.00055692514 -0.00047503607 -0.00061083183 -0.0006174239 0.000528621
-0.000586346 -0.0005759261 0.00056325825 -0.0009306201 0.00066151423 0.0006319722 -0.00073746365 0.0005080689
0.0006792101 -0.0006829687 -0.00053063326 -0.0006317321 -0.0006062381 0.00053910766 -0.00052269176 0.0006485105

v_out.weight f4 [1, 64]
00000000: 9448 463e 0ee3 56bd dc55 cd3d 50f2 253d
00000010: 391e ecbc 4a96 1b3d 26e3 b6bc 69cc 4fbe
00000020: 5187 f43d fac6 9dbd c8b3 eb3d 6cb4 65bd
00000030: 9a3d e1be acaa 82bc e721 12bd 159e 733d
00000040: ef64 c03d 9ba8 923b c377 823e b68b 9cbd
00000050: 9f3f 21be 3954 563d 4c91 6a3e 91eb 2cbe
00000060: 17b8 e7bc 2cef 213e a63b 99b8 ac47 323e
00000070: 88f8 053e 6093 f43d f1db 93bd d829 70bd
00000080: 4cf1 1ebd 88de d8bd fba1 c5bc 7d2b 073e
00000090: 33c3 73bd 5b80 f53c 1fb7 ea3d 8632 873d
000000a0: 32df 6b3e 6ab5 1b3e 7227 d53d 7454 c5bd
000000b0: 635e d5bc 4120 76be 41c0 40be 9545 603d
000000c0: 06f0 41be 6bc9 15be a0fd d53d 06d5 1dbc
000000d0: 7f81 773d 6c78 8a3d bf61 d3bc 11c6 223d
000000e0: 2dda 3a3d 22ef 2bbd 7d28 63bd 5836 e6bd
000000f0: 725d f4bd 11f5 813d 77a0 9cbd 34ed 843d
0.19363624 -0.05246263 0.10026142 0.04051429 -0.028823005 0.037985124 -0.02232511 -0.2029282
0.11939872 -0.077039674 0.115089 -0.056080267 -0.4399231 -0.015950523 -0.035676863 0.05947693
0.093942516 0.0044756657 0.25481996 -0.07643835 -0.15746926 0.052326415 0.22906989 -0.16886736
-0.028286023 0.15813893 -7.306719e-05 0.17410153 0.13083088 0.11942172 -0.07219685 -0.058633655
-0.038804337 -0.105893195 -0.02412509 0.13200183 -0.05951233 0.029968431 0.11460709 0.066014335
0.23034361 0.15205923 0.10407914 -0.09635249 -0.026045984 -0.24035741 -0.18823339 0.05475386
-0.18939218 -0.14627616 0.10448766 -0.009633308 0.06042623 0.0676125 -0.025803445 0.039739672
0.045618225 -0.0419761 -0.055458535 -0.11240834 -0.11931886 0.06345571 -0.07647794 0.064905554
