results/MyEnv/MyEnv/mappo/check/run69/models/actor_agent1.pt (torch, 65932 bytes, 17 tensors)

base.feature_norm.weight f4 [91]
0	0x3f80b64f	1.0055636
1	0x3f801fb7	1.0009679
2	0x3f7d8d1f	0.9904346
3	0x3f80c582	1.0060275
4	0x3f816de1	1.0111657
5	0x3f7f34ca	0.99689925
6	0x3f813d10	1.009676
7	0x3f7e45d4	0.993253
8	0x3f80ec55	1.0072123
9	0x3f80a194	1.004931
10	0x3f7d9270	0.9905157
11	0x3f7f4638	0.9971652
12	0x3f7fb33b	0.9988286
13	0x3f80919f	1.004444
14	0x3f803b76	1.0018146
15	0x3f7e9b8e	0.9945611
16	0x3f7fb429	0.9988428
17	0x3f7ff76d	0.99986917
18	0x3f8016a7	1.0006913
19	0x3f8015c4	1.0006642
20	0x3f7f19b2	0.9964858
21	0x3f7f3336	0.99687517
22	0x3f8046a0	1.0021553
23	0x3f80716f	1.0034617
24	0x3f80d2eb	1.0064367
25	0x3f800612	1.0001853
26	0x3f80592e	1.0027215
27	0x3f809d21	1.0047952
28	0x3f7f8d7e	0.99825275
29	0x3f7f6e1e	0.997774
30	0x3f7ff968	0.9998994
31	0x3f80e671	1.0070325
32	0x3f7e91c2	0.9944116
33	0x3f7d7bda	0.9901711
34	0x3f8049da	1.0022538
35	0x3f7fb02f	0.9987821
36	0x3f8088cf	1.0041751
37	0x3f7fdea6	0.9994911
38	0x3f7e9765	0.9944976
39	0x3f801fdb	1.0009722
40	0x3f803f9b	1.0019411
41	0x3f8129d2	1.0090888
42	0x3f7e5808	0.99353075
43	0x3f7ee3af	0.9956617
44	0x3f80bfd0	1.0058537
45	0x3f8095bd	1.0045696
46	0x3f80b559	1.0055343
47	0x3f7eb40a	0.9949347
48	0x3f80f276	1.0073993
49	0x3f81015d	1.0078541
50	0x3f80ec3b	1.0072092
51	0x3f7e57cb	0.9935271
52	0x3f7dd5e3	0.9915449
53	0x3f7fc61e	0.9991168
54	0x3f7fcf76	0.99925935
55	0x3f7cba54	0.98721814
56	0x3f7d9060	0.99048424
57	0x3f7fe275	0.9995492
58	0x3f7e54db	0.9934823
59	0x3f808262	1.003979
60	0x3f7ff36e	0.9998082
61	0x3f7e6c6c	0.9938419
62	0x3f809228	1.0044603
63	0x3f815627	1.0104417
64	0x3f7db1e4	0.99099565
65	0x3f7e9093	0.9943935
66	0x3f80b9ce	1.0056703
67	0x3f7fc68e	0.99912345
68	0x3f8100b3	1.0078338
69	0x3f7d83ec	0.9902942
70	0x3f7e7077	0.9939036
71	0x3f7f550a	0.99739134
72	0x3f815057	1.0102643
73	0x3f80740d	1.0035416
74	0x3f807444	1.0035481
75	0x3f7de8bd	0.99183255
76	0x3f7fe6ca	0.9996153
77	0x3f812388	1.0088968
78	0x3f808acd	1.0042359
79	0x3f7e5de2	0.99362004
80	0x3f7fc55b	0.99910516
81	0x3f8117fb	1.0085443
82	0x3f80156a	1.0006535
83	0x3f800d0b	1.000398
84	0x3f804a0e	1.00226
85	0x3f800c27	1.0003709
86	0x3f807aa6	1.0037429
87	0x3f80691f	1.003208
88	0x3f80bf48	1.0058374
89	0x3f806328	1.003026
90	0x3f7fabc8	0.9987149

base.feature_norm.bias f4 [91]
0	0x3c2b6d05	0.010463004
1	0xba99ec84	-0.0011743461
2	0x3c126522	0.008935245
3	0xbbc6e386	-0.0060696034
4	0xbc3323b8	-0.010933809
5	0x3bb102d7	0.00540195
6	0x3949e8ac	0.00019255531
7	0x3bd29444	0.006426366
8	0xbbdeb147	-0.0067960354
9	0xbb8abfcc	-0.0042342898
10	0x3c24f023	0.010067019
11	0x3b16dd63	0.002302014
12	0x3aac2d55	0.0013136069
13	0xbb86289b	-0.004094196
14	0x3b05d836	0.0020423061
15	0x3bb978aa	0.005660136
16	0x3aafec7f	0.0013421922
17	0x396661d3	0.00021970952
18	0xba1b79b9	-0.0005930919
19	0x3a65d5c5	0.0008767511
20	0xbb6b6928	-0.0035920832
21	0xbb54f7b2	-0.003249627
22	0x3b1f49d9	0.0024305491
23	0x3b8a0f72	0.004213267
24	0x3bdcf998	0.006743621
25	0x3984184d	0.00025195107
26	0x3b2f54e1	0.0026753473
27	0x3ba21a35	0.004946972
28	0xbae4d851	-0.0017459487
29	0xbb181b86	-0.0023209765
30	0x38ddc09b	0.00010573977
31	0x3beb3725	0.0071782046
32	0xbbbdd8f4	-0.005793685
33	0xbc24867a	-0.010041827
34	0x3b154593	0.0022777065
35	0xbae0c1e4	-0.0017147628
36	0x3b820529	0.0039679003
37	0xba3248ad	-0.00068009907
38	0xbbb77ecd	-0.0055998326
39	0x3a3c72e3	0.00071887503
40	0x3b03e5b4	0.0020125927
41	0x3c1957e6	0.0093593355
42	0xbbe03e11	-0.0068433364
43	0xbb9301fd	-0.004486321
44	0x3bc59ca9	0.0060306382
45	0x3ba62366	0.005070138
46	0x3bb4f013	0.005521783
47	0xbba7e72a	-0.0051239925
48	0x3bf60e7f	0.0075090523
49	0x3c046bd1	0.008082346
50	0x3bf1870a	0.0073708342
51	0xbbe4bf2f	-0.0069807987
52	0xbc0dd632	-0.008657025
53	0xba66be4a	-0.0008802159
54	0xba678cd7	-0.00088329375
55	0x3acfd721	0.001585696
56	0x3b181b87	0.0023209767
57	0xb9f53c25	-0.00046774853
58	0xbbd9f5ea	-0.0066516297
59	0x3b702d98	0.003664827
60	0xb9750bc2	-0.00023369401
61	0xbbca8f5e	-0.0061816415
62	0x3b95c79b	0.004570914
63	0x3c2f5189	0.010700592
64	0xbc174a3e	-0.009234009
65	0xbbc3f22d	-0.0059797973
66	0x3bbe367c	0.005804835
67	0xba7e3097	-0.00096965715
68	0x3c048eee	0.008090718
69	0xbc29a862	-0.010355087
70	0xbbd19835	-0.0063963183
71	0xbb2acb4b	-0.0026061113
72	0x3c2f6591	0.010705368
73	0x3b62529e	0.0034534107
74	0x3b7f73c4	0.0038978914
75	0xbc08be4a	-0.00834615
76	0xb9ab5e36	-0.00032685854
77	0x3c207175	0.009792675
78	0x3b894945	0.0041896426
79	0xbbddf436	-0.006773497
80	0xba2a54f0	-0.0006497642
81	0x3c0dd48f	0.008656635
82	0x39fe2bec	0.0004847938
83	0x3a7814dd	0.0009463558
84	0x3b0bf9fa	0.0021358714
85	0xb91ee5c9	-0.00015153656
86	0x3b7239cf	0.0036960726
87	0x3b56b910	0.0032764114
88	0x3bc1ee11	0.0059182723
89	0x3b3a2b22	0.0028407057
90	0xba84f9ff	-0.0010145305

base.mlp.fc1.0.weight f4 [64, 91]
0	0x3d71ce2c	0.05903451
1	0x3e189265	0.14899595
2	0xbcce5100	-0.025185108
3	0xbddc5933	-0.10759201
4	0xbe2ffb89	-0.17185797
5	0x3e1ca845	0.15298565
6	0xbe5a2555	-0.21303304
7	0xbe240cb3	-0.1602047
8	0x3d9eaf51	0.07748283
9	0x3c93a3e0	0.018022478
10	0xbd7880ca	-0.060669698
11	0xbcb591ec	-0.022164308
12	0xbd8a6142	-0.06756832
13	0x3d27a75d	0.040931094
14	0xbdeca8d3	-0.11555638
15	0xbbf26c21	-0.007398144
16	0xbdd93c58	-0.10607213
17	0xbe108f57	-0.1411718
18	0x3da0cf6f	0.07852065
19	0x3d7e9937	0.062157836
20	0x3c822e65	0.015891263
21	0xbde89412	-0.11356367
22	0x3cf15f59	0.02946441
23	0xbc99363d	-0.01870262
24	0xbe4d6aa7	-0.20060216
25	0x3ee26a07	0.44221517
26	0x3dbea432	0.093086615
27	0xbdc9e4cb	-0.09858092
28	0xbd87af89	-0.066252775
29	0xbe7d37ce	-0.24728319
30	0x3d775501	0.0603838
31	0x3d0635d7	0.03276619
32	0x3e64dfd5	0.2235101
33	0x3e6870b3	0.22699241
34	0xbd5168aa	-0.051125206
35	0x3da48ead	0.08035026
36	0xbca1d991	-0.019757064
37	0xbe0bebf9	-0.13664235
38	0x3dc08102	0.09399606
39	0x3ea1412e	0.3149504
40	0xbe60444f	-0.21901058
41	0x3e30045b	0.17189161
42	0xbd4be907	-0.04978278
43	0xbe68fb43	-0.22752099
44	0xbdaf2500	-0.08551979
45	0x3cf763a2	0.030198876
46	0xbe801229	-0.25013855
47	0xbdf5cf35	-0.12002412
48	0xbddb5846	-0.10710196
49	0xbe18aa00	-0.149086
50	0x3eb98085	0.36230865
51	0x3e94396a	0.28950053
52	0xbdfb2feb	-0.12264999
53	0xbd8a8e3a	-0.06765409
54	0xbe353bae	-0.17698547
55	0x3e2b726b	0.16742866
56	0x3cbdf8c8	0.023189917
57	0x3e99c124	0.30030167
58	0x3d07bc0f	0.03313833
59	0xbe6705c0	-0.22560787
60	0x3dddc28a	0.10828121
61	0x3e75595e	0.23959872
62	0x3e1cb580	0.15303612
63	0xbe766525	-0.24062021
64	0xbdc86f4b	-0.097868524
65	0x3e40d809	0.18832411
66	0x3e0659e6	0.13120231
67	0xbe235850	-0.15951657
68	0xbe648bd7	-0.2231897
69	0x3e98f256	0.29872388
70	0x3e15f398	0.14643705
71	0xbd490b84	-0.049083248
72	0xbe4f6820	-0.20254564
73	0x3dc8e03d	0.09808395
74	0x3d8d8ba6	0.069114015
75	0xbdc810ed	-0.09768853
76	0xbdc9cacd	-0.09853134
77	0xbe6896c0	-0.22713757
78	0xbdd30416	-0.10303514
79	0xbcb081e2	-0.021546308
80	0xbef30ec4	-0.47472203
81	0x3ed48737	0.4150941
82	0x3dc041b4	0.09387532
83	0x3d819f7d	0.06329248
84	0x3e6e9d76	0.23302254
85	0x3e70ebfb	0.2352752
86	0x3ebbe2db	0.36696514
87	0xbdf337bc	-0.11875865
88	0x3c88d35b	0.016702345
89	0xbe7fe95f	-0.24991368
90	0xbca87b24	-0.02056653
91	0x3d48f8a5	0.04906525
92	0xbe2958a8	-0.16537726
93	0xbd0c7358	-0.034289688
94	0xbd88f737	-0.066877775
95	0x3df58b7f	0.119894974
96	0xbdc5bcd0	-0.09655154
97	0x3e61f3b1	0.22065617
98	0xbd76e8f7	-0.060280766
99	0xbe130780	-0.1435833
100	0x3ec4d608	0.38444543
101	0x3e573c0d	0.21019001
102	0xbe9469c4	-0.28986943
103	0xbe02adec	-0.12761658
104	0x3e0ca5c5	0.13735111
105	0x3e643042	0.22284034
106	0x3e5fb227	0.21845303
107	0x3cdb4e57	0.026770754
108	0xbdfaa39f	-0.122382395
109	0x3e8aa388	0.2707789
110	0xbdeba143	-0.115053676
111	0xbd801c3b	-0.062553845
112	0x3e45f381	0.1933117
113	0x3e229e9a	0.15880814
114	0xbd31d4a3	-0.043415677
115	0xbdf00a34	-0.11720696
116	0x3c3190e1	0.0108377645
117	0x3de9cd34	0.114160925
118	0xbdf3ec83	-0.119103454
119	0xbde796c4	-0.11308053
120	0xbe516f17	-0.20452534
121	0xbe843ec6	-0.25829142
122	0xbea7d823	-0.32782087
123	0x3b753f41	0.0037421735
124	0xbe975b07	-0.29561636
125	0x3eb40724	0.35161698
126	0x3e879468	0.26480412
127	0xbe3b817f	-0.18311118
128	0xbe7aad11	-0.24480082
129	0x3d3e4421	0.04645169
130	0x3d10c8aa	0.03534762
131	0x3eafb197	0.34315178
132	0xbc0f77a9	-0.008756557
133	0xbe675009	-0.22589125
134	0xbd7e06d0	-0.062018216
135	0x3db5df93	0.08880534
136	0x3da833ef	0.082130305
137	0xbd71efb5	-0.059066493
138	0xbec6d0fd	-0.3883132
139	0xbdc93054	-0.09823671
140	0xbd10a8f1	-0.035317365
141	0x3d482f5d	0.048873294
142	0x3e5ab9bb	0.21359913
143	0x3d04f27f	0.032457825
144	0x3e80a432	0.2512527
145	0x3d4f0375	0.050540406
146	0x3e29277d	0.1651897
147	0xbe145477	-0.14485346
148	0x3f01f2b9	0.5076099
149	0xbcd74517	-0.026278062
150	0xbe5a75e1	-0.2133403
151	0x3d831cd2	0.064019814
152	0xbdaf5c1b	-0.085624896
153	0xbea1ecdf	-0.3162603
154	0xbc1af977	-0.009458891
155	0x3e26a0a1	0.16272213
156	0xbde43483	-0.11142828
157	0xbdaa31c3	-0.083102725
158	0xbe30a734	-0.17251283
159	0x3db5ec76	0.08882992
160	0xbd197d4a	-0.037473
161	0xbd03ab39	-0.032145713
162	0xbbceb45f	-0.006308123
163	0x3dad6301	0.08466149
164	0xbeb215c4	-0.3478223
165	0xbdaf450e	-0.08558093
166	0x3e27d6ff	0.16390608
167	0x3dd11160	0.10208392
168	0xbde9da1d	-0.11418555
169	0x3e4fbdf2	0.20287302
170	0x3d8b8433	0.068123244
171	0x3dccebb1	0.10005892
172	0xbdf2015a	-0.11816664
173	0x3a0baa03	0.0005327763
174	0xbca2fb99	-0.019895362
175	0x3d837876	0.064194605
176	0xbe242acb	-0.16031949
177	0x3d6bdb47	0.057582166
178	0xbe1c8ddc	-0.1528849
179	0xbe79d4ad	-0.24397536
180	0xbd80fdc9	-0.06298406
181	0x3e3ac1fc	0.18238062
182	0x3cfbff3f	0.03076136
183	0xbde48df7	-0.1115989
184	0x3ea54bb6	0.32284325
185	0x3e5fc13b	0.21851055
186	0x3e3eae3a	0.1862115
187	0xbe05d202	-0.13068393
188	0xbc518d4f	-0.012790038
189	0x3d4c0cdd	0.049816955
190	0xbd839ce7	-0.06426411
191	0x3df7eb7c	0.12105462
192	0xbca09f69	-0.019607263
193	0x3e8e68a2	0.27814204
194	0xbd879916	-0.06620996
195	0xbe0006a6	-0.12502536
196	0xbd361900	-0.044457436
197	0xbe936ae9	-0.28792503
198	0x3e78da9c	0.24302143
199	0x3c3a6a39	0.0113778645
200	0x3ce53808	0.02798082
201	0x3e859332	0.26088864
202	0x3caee625	0.021349976
203	0x3c85d775	0.01633809
204	0xbcdc5ae7	-0.026898814
205	0xbe34f091	-0.17669894
206	0x3e805d28	0.25071073
207	0xbda8d2ad	-0.08243308
208	0x3dd8e1b7	0.10589927
209	0x3ddef15e	0.10885881
210	0xbd02e766	-0.03195896
211	0xbe56ede9	-0.20989193
212	0xbdf0a7f1	-0.11750782
213	0x3eae7fa5	0.3408176
214	0x3dabe277	0.08392804
215	0xbd6f2e18	-0.058393568
216	0xbd60376d	-0.05474036
217	0x3dd3336b	0.103125416
218	0x3d9f3035	0.07772867
219	0x3da8cefd	0.08242605
220	0xba995959	-0.0011699601
221	0xbe54c9d0	-0.2078011
222	0x3e071eee	0.13195392
223	0x3dfe4b1a	0.12416668
224	0x3da46056	0.08026187
225	0xbd537bf4	-0.051631883
226	0x3e810786	0.25201052
227	0xbe979dc0	-0.2961254
228	0x3d62c7f2	0.055366464
229	0x3e235fc4	0.159545
230	0x3e1eaf62	0.1549659
231	0x3c884a71	0.016637059
232	0x3dd9911d	0.10623381
233	0x3de4d577	0.11173528
234	0x3d6a25c8	0.057164937
235	0xbd6a87ae	-0.0572583
236	0xbd3dae44	-0.04630877
237	0xbea69428	-0.3253491
238	0xbde1c116	-0.11023156
239	0x3f085de9	0.53268296
240	0x3e4d1f12	0.20031384
241	0xbe26383e	-0.16232392
242	0x3d214d55	0.03938039
243	0xbda4e496	-0.08051412
244	0x3e626a72	0.22110918
245	0xbeb32943	-0.34992418
246	0xbe42d4eb	-0.19026534
247	0xbe79a2b1	-0.24378468
248	0x3ea2e298	0.31813502
249	0xbd858988	-0.06520373
250	0xbe04c776	-0.12966713
251	0x3db4c8c5	0.08827356
252	0x3dfa6a5b	0.12227317
253	0x3e32ffc3	0.17480378
254	0x3cabede1	0.020987453
255	0x3d7f3fb1	0.0623166

base.mlp.fc1.0.bias f4 [64]
0	0xbbbe57dd	-0.005808814
1	0xbb81e417	-0.003963958
2	0x3a8c3e44	0.0010699709
3	0x3ad1aaf6	0.0015996385
4	0xbaf38483	-0.001857892
5	0xbbd9e647	-0.0066497657
6	0x39d18dee	0.00039969332
7	0x3b4d8aeb	0.003136332
8	0x3afa8da1	0.0019115695
9	0xbb1c9861	-0.0023894536
10	0xbb2c7e66	-0.0026320457
11	0xbb3d8fcc	-0.002892482
12	0x3c0a783b	0.008451517
13	0xbbbbe036	-0.005733515
14	0x3aeceec7	0.0018076532
15	0x3bd43b57	0.0064768004
16	0x3b2fc24c	0.002681869
17	0xbc42df61	-0.011894078
18	0xbb801c95	-0.0039096572
19	0x3b39d751	0.0028357098
20	0x3bf38717	0.0074318754
21	0xbc0b94e9	-0.00851939
22	0x3bd536f4	0.006506795
23	0x3bbeb1e4	0.005819546
24	0x3c0cfda5	0.008605395
25	0xbb382b6b	-0.002810205
26	0x393fc85c	0.00018289819
27	0x3b8cf059	0.0043011126
28	0xba5e5887	-0.00084818195
29	0xbbef5091	-0.0073033054
30	0xbc48c6b3	-0.012254405
31	0xba950936	-0.0011370543
32	0x3bd53658	0.0065067224
33	0x3b06d9dd	0.0020576634
34	0x3aa3813f	0.0012474431
35	0xbb860fbf	-0.0040912325
36	0x3a5c9911	0.00084151427
37	0xbb92f22c	-0.0044844355
38	0xbaf2465f	-0.0018484107
39	0x3ad96bf7	0.0016587962
40	0xbb121958	-0.0022292938
41	0xbbc85626	-0.0061137853
42	0x3b08d08d	0.002087626
43	0x3b6dc0e8	0.003627831
44	0xbb105b74	-0.0022027167
45	0x37871237	1.6101736e-05
46	0xbb11e1c3	-0.0022259809
47	0xbbe7729c	-0.007063223
48	0x3b8a5d17	0.004222523
49	0xba65450a	-0.00087459444
50	0x3b1383ee	0.0022509056
51	0x3b233831	0.002490532
52	0x3b8717dd	0.004122718
53	0x3be23cc1	0.006904215
54	0x3b1eb281	0.0024215283
55	0xb9a151fe	-0.00030769402
56	0xbbeb3321	-0.007177726
57	0x3b4d5d8e	0.003133628
58	0xba67c102	-0.0008840711
59	0xbb2799a6	-0.002557376
60	0xbab37acc	-0.0013693213
61	0xbb68a715	-0.003549998
62	0xbb9ee468	-0.0048490055
63	0x3c195e68	0.009360887

base.mlp.fc1.2.weight f4 [64]
0	0x3f7d39b6	0.98916185
1	0x3f7fba06	0.99893224
2	0x3f7fa279	0.9985729
3	0x3f7db3f5	0.9910272
4	0x3f805ca7	1.0028275
5	0x3f7f2145	0.9966014
6	0x3f8075f7	1.0036
7	0x3f811d60	1.008709
8	0x3f7f0ecc	0.99631953
9	0x3f80a46b	1.0050176
10	0x3f81887b	1.0119776
11	0x3f7f972e	0.99840057
12	0x3f80d79a	1.0065796
13	0x3f80c6ba	1.0060647
14	0x3f8042e4	1.0020413
15	0x3f7e271b	0.9927842
16	0x3f7d7346	0.9900402
17	0x3f7f2845	0.9967082
18	0x3f80ad79	1.005294
19	0x3f800f92	1.0004752
20	0x3f810661	1.0080072
21	0x3f8107b8	1.008048
22	0x3f7e447a	0.99323237
23	0x3f811a02	1.0086062
24	0x3f7eb94a	0.9950148
25	0x3f7e8ef4	0.9943688
26	0x3f7e5dad	0.9936169
27	0x3f801e3e	1.0009229
28	0x3f7fd75e	0.99938
29	0x3f80fba7	1.0076798
30	0x3f7cd4a2	0.9876195
31	0x3f7dde23	0.9916708
32	0x3f818416	1.0118434
33	0x3f7f664c	0.9976547
34	0x3f7c9c93	0.98676413
35	0x3f80c626	1.006047
36	0x3f7e9ab8	0.9945483
37	0x3f7fd934	0.999408
38	0x3f7ce766	0.98790586
39	0x3f7e0672	0.99228585
40	0x3f8051a2	1.0024912
41	0x3f7f07c7	0.9962124
42	0x3f807ebb	1.0038675
43	0x3f7fc058	0.9990287
44	0x3f80f67c	1.0075221
45	0x3f80a27b	1.0049585
46	0x3f80ca62	1.0061762
47	0x3f7eb032	0.994876
48	0x3f7f0d92	0.9963008
49	0x3f7ebb7b	0.9950482
50	0x3f8017ce	1.0007265
51	0x3f80cae7	1.0061921
52	0x3f7e8334	0.9941895
53	0x3f8096b9	1.0045997
54	0x3f80af38	1.0053473
55	0x3f7f50ee	0.99732864
56	0x3f7fcff9	0.99926716
57	0x3f7e8ac8	0.99430513
58	0x3f7fad41	0.9987374
59	0x3f7fae99	0.9987579
60	0x3f7ff31d	0.99980336
61	0x3f803c19	1.001834
62	0x3f7f4eaf	0.99729437
63	0x3f8126ca	1.0089962

base.mlp.fc1.2.bias f4 [64]
0	0xbc2bf415	-0.010495205
1	0xb95dbbda	-0.00021146183
2	0x39bf74b6	0.00036517315
3	0x3c0fa1f2	0.008766638
4	0xbb08ffee	-0.00209045
5	0xbba0dc32	-0.004909062
6	0xbb457117	-0.0030127221
7	0x3c0f5153	0.008747417
8	0x3b6dd06f	0.0036287566
9	0x3b134a8e	0.0022474858
10	0xbc3dbd2f	-0.011580749
11	0x3a87203e	0.0010309292
12	0x3be4bb92	0.006980368
13	0xbbc7164c	-0.006075656
14	0x3b0259a8	0.0019889865
15	0x3bc2b4fa	0.0059419842
16	0x3c206627	0.00978998
17	0xbc3e71ba	-0.011623794
18	0xbba8d9b5	-0.005152906
19	0xb99815e7	-0.00029008018
20	0x3c00bc10	0.007857338
21	0xbc028e62	-0.007968517
22	0x3bd94695	0.0066307285
23	0x3ba94f07	0.0051668915
24	0x3bb31060	0.0054645985
25	0xba10ea6d	-0.0005528096
26	0x3b9ab5eb	0.0047213933
27	0x3a943b4c	0.0011309176
28	0x3a4eb0e4	0.0007884635
29	0xbc067f79	-0.008209103
30	0xbc4aeaf7	-0.012385122
31	0xbc08863e	-0.008332787
32	0x3be6c4ad	0.0070424885
33	0x3902a310	0.00012458512
34	0x3ae96c04	0.001780868
35	0xbbc155e1	-0.00590013
36	0x3b154427	0.0022776218
37	0xba5c40f3	-0.0008402012
38	0xbb0d7179	-0.0021582528
39	0x3985ccdf	0.00025520378
40	0xba024992	-0.0004970069
41	0xbbb1556a	-0.0054117935
42	0x3b827528	0.0039812513
43	0x3b197d3b	0.002342059
44	0x3bca748e	0.006178445
45	0x3ba3a927	0.0049945298
46	0xbaa52f56	-0.0012602608
47	0xbbc53a67	-0.006018925
48	0x3ba00fa4	0.004884677
49	0x3a598aaf	0.00082985585
50	0x3a7df460	0.0009687599
51	0x3bcc5db3	0.0062367558
52	0x3bb7cf32	0.0056094164
53	0x3ba37fdc	0.0049896073
54	0x3ba4d8a7	0.00503071
55	0xbaad214a	-0.0013208773
56	0xbbafcb5b	-0.005364818
57	0x3bb7a969	0.005604912
58	0xbaa96c4a	-0.0012925949
59	0xbac524bc	-0.0015040855
60	0x3811ac56	3.4731194e-05
61	0xbafacfb7	-0.001913539
62	0xbb498566	-0.0030749678
63	0x3c0b3331	0.008496092

base.mlp.fc_h.0.weight f4 [64, 64]
0	0x3d85e09a	0.0653698
1	0xba825e3b	-0.0009946296
2	0x3de34a0f	0.1109811
3	0xbdda4437	-0.10657542
4	0xbd8b1f14	-0.06793037
5	0xbedc52c6	-0.430319
6	0x3d861088	0.06546122
7	0x3c5db0b5	0.0135309
8	0xbecfb6e6	-0.40569228
9	0x3dd1335e	0.10214876
10	0x3dd29c32	0.10283698
11	0x3e93a102	0.28833777
12	0xbe5d4beb	-0.21610992
13	0x3ec143cd	0.3774704
14	0x3e0895d8	0.13338411
15	0x3ed1ddfb	0.4098967
16	0x3cc31361	0.023812952
17	0xbe56e5a7	-0.20986043
18	0x3e327263	0.17426448
19	0x3e5185ea	0.2046124
20	0xbe2c487a	-0.16824523
21	0x3e51a70a	0.20473877
22	0x3ddd071e	0.10792373
23	0xbe35c18e	-0.17749617
24	0xbd252135	-0.04031487
25	0x3d1a1be3	0.03762425
26	0xbb964133	-0.004585409
27	0xbe764c3a	-0.24052516
28	0xbdef9e35	-0.117000975
29	0xbeda350a	-0.4261859
30	0xbd187bbd	-0.03722738
31	0xbe097c42	-0.13426307
32	0xbcf099ff	-0.029370306
33	0xbee18b29	-0.44051483
34	0xbd88b88a	-0.06675823
35	0xbe616f3c	-0.22015089
36	0x3a3d7c68	0.0007228316
37	0x3e2efb8c	0.17088145
38	0x3ec63888	0.38715005
39	0x3e99ac18	0.3001411
40	0x3e58c035	0.21167071
41	0xbe2e302a	-0.1701056
42	0xbe271b07	-0.16318904
43	0xbd6924ed	-0.05691998
44	0xbf040dc8	-0.5158353
45	0xbe7c75a4	-0.24654251
46	0xbeac7c01	-0.33688357
47	0xbdeeb196	-0.116549656
48	0xbe8a989f	-0.27069566
49	0x3e470137	0.19434057
50	0x3e689ae8	0.22715342
51	0xbe2aea4d	-0.16690941
52	0x3db8b964	0.090197355
53	0xbd406338	-0.046969622
54	0x3d8d2029	0.068909
55	0xbe82a188	-0.25513864
56	0xbd0e6fb9	-0.034774516
57	0x3d0ecaf2	0.034861512
58	0x3ddb2ccd	0.107019044
59	0xbbf453fd	-0.0074563012
60	0xbc75da07	-0.015005595
61	0xbc5b2250	-0.01337488
62	0xbe5c690f	-0.21524452
63	0xbbef5b4c	-0.0073045846
64	0x3b845f5a	0.004039687
65	0x3c95386a	0.018215377
66	0xbdbffb65	-0.093741216
67	0xbd893ad9	-0.067006774
68	0x3e8b5c17	0.27218696
69	0xbea959aa	-0.3307622
70	0x3ea68870	0.3252597
71	0x3c06bb88	0.008223422
72	0x3e08cb3f	0.13358782
73	0xbe6547c3	-0.22390656
74	0x3d39b51f	0.045338746
75	0xbdba6088	-0.09100443
76	0x3c90f642	0.01769555
77	0x3e5b903f	0.21441744
78	0x3f447981	0.767479
79	0xbe165810	-0.1468203
80	0x3d2c8ace	0.042124562
81	0x3e532041	0.20617773
82	0x3db481dc	0.08813831
83	0xbda9aed5	-0.082853
84	0xbe060b7f	-0.13090323
85	0x3e16996a	0.1470696
86	0x3d815c72	0.06316461
87	0x3dbb1e6a	0.091366604
88	0xbc7646f5	-0.015031566
89	0xbe149e1e	-0.14513442
90	0xbe6b060a	-0.22951522
91	0x3ed1434d	0.4087166
92	0x3e9cc6a4	0.306203
93	0xbb2bc0b7	-0.0026207396
94	0x3de57089	0.11203105
95	0xbdd05602	-0.10172655
96	0x3e9ceac3	0.3064786
97	0xbdda14f0	-0.10648525
98	0xbd1f4268	-0.03888169
99	0x3e04c77c	0.12966722
100	0x3e02f1b0	0.12787509
101	0xbe542041	-0.20715429
102	0xbe49fbbc	-0.19724935
103	0xbddb83f5	-0.10718528
104	0x3e1b6db1	0.15178563
105	0xbca7eed9	-0.020499634
106	0x3e7f6aca	0.2494308
107	0xbe9783cc	-0.2959274
108	0xbeac998a	-0.3371089
109	0xbe76e14f	-0.24109386
110	0xbe243a3f	-0.16037844
111	0x3daf86db	0.085706435
112	0x3d75cf59	0.060012195
113	0xbe5137e1	-0.20431472
114	0xbe251d5d	-0.16124482
115	0x3de92d8c	0.113856405
116	0x3cde3943	0.027126914
117	0x3d18c74b	0.037299436
118	0x3e0de132	0.13855436
119	0x3d5e8a0f	0.05433088
120	0xbc94247a	-0.0180838
121	0x3e0807f7	0.13284288
122	0xbbb3ca54	-0.005486766
123	0xbef59c57	-0.4797084
124	0x3e1a3554	0.15059406
125	0xbe9c96db	-0.30583844
126	0x3ecad5ac	0.39616144
127	0x3e33706a	0.17523351
128	0xbddb221b	-0.106998645
129	0x3dea7e0f	0.11449825
130	0x3e9ce1d9	0.30641058
131	0xbd902261	-0.07037807
132	0x3dfdec77	0.12398618
133	0x3f0c14f9	0.547195
134	0xbebc9e5f	-0.36839578
135	0xbd77d542	-0.060506113
136	0x3e1cb723	0.15304236
137	0xbbd69dcf	-0.006549574
138	0xbea590a1	-0.32336906
139	0x3eef15e1	0.4669638
140	0xbe58a8a7	-0.21158086
141	0x3e764a92	0.24051884
142	0x3d61197d	0.05495595
143	0xbccf633c	-0.025315873
144	0x3cddc0b2	0.027069423
145	0xbe066894	-0.13125831
146	0x3d65f6e9	0.056143675
147	0xbdd5d0a4	-0.10440186
148	0x3dda5681	0.106610306
149	0x3dd52cbf	0.10408925
150	0x3e135ea5	0.14391573
151	0xbd93d193	-0.072177075
152	0xbe05e2f3	-0.13074856
153	0xbd4f4798	-0.050605386
154	0xbebfb7d4	-0.37444937
155	0x3d9be96b	0.0761288
156	0x3e98bf18	0.29833293
157	0x3df3ce54	0.11904588
158	0xbea46391	-0.32107213
159	0x3e0a3f87	0.13500796
160	0xbd9614a3	-0.07328155
161	0xbd61bcee	-0.055111818
162	0x3ebdfaa2	0.3710528
163	0x3cd419f9	0.025891291
164	0x3e69bd90	0.22826219
165	0x3e73228d	0.23743649
166	0x3d851da0	0.06499791
167	0x3e10eedb	0.14153616
168	0x3e9dc28a	0.30812484
169	0x3e7747ad	0.24148436
170	0x3e8c982b	0.27459845
171	0x3e37c51d	0.17946286
172	0x3d4fbc62	0.050716765
173	0xbe63b945	-0.22238643
174	0x3e39769e	0.18111655
175	0x3ddcabea	0.107749775
176	0xbec01d85	-0.37522522
177	0xba73e1a5	-0.0009303338
178	0xbe75683d	-0.23965545
179	0x3e202d8e	0.15642378
180	0xbe80ef4c	-0.2518257
181	0x3b93c4a8	0.0045095272
182	0x3eab1fb2	0.3342262
183	0xbe014b55	-0.12626393
184	0xbe31505e	-0.17315814
185	0xbe597653	-0.21236543
186	0xbe267f7d	-0.1625957
187	0xbe3b2f46	-0.18279752
188	0x3df0c5ea	0.11756499
189	0xbde009f5	-0.10939399
190	0xbe8241f2	-0.25440937
191	0xbd1fa72c	-0.038977787
192	0x3cb2cb0f	0.021825342
193	0x3d9c7ba8	0.07640773
194	0xbe68944e	-0.22712824
195	0x3eb56f5e	0.3543653
196	0x3d73352a	0.059376873
197	0x3e2b066f	0.16701673
198	0xbd1937a3	-0.037406575
199	0x3eb5aa0b	0.35481295
200	0x3b900827	0.004395503
201	0x3d828385	0.063727416
202	0xbc0acb86	-0.008471375
203	0xbe94cc98	-0.29062343
204	0x3e19aa0e	0.15006277
205	0x3ed19d69	0.40940407
206	0x3e4bdeb9	0.1990918
207	0xbe215010	-0.15753198
208	0x3bb42ab7	0.005498256
209	0xbc15ae1b	-0.009135748
210	0x3ec2df90	0.3806119
211	0xbc312f94	-0.010814566
212	0xbda8a93a	-0.082354024
213	0x3eefcbba	0.4683512
214	0xbe5373f6	-0.20649704
215	0xbdb24081	-0.087037094
216	0xbd840e48	-0.064480364
217	0xbe9810aa	-0.29700214
218	0xbdcc8999	-0.09987182
219	0xbe94e845	-0.29083458
220	0xbd68b1ec	-0.056810305
221	0xbe1ad238	-0.15119255
222	0xbebf8d3b	-0.37412438
223	0x3ed38395	0.41311327
224	0x3de45073	0.11148157
225	0x3e825d9d	0.25462046
226	0xbc6ed72a	-0.014577666
227	0xbeb1f773	-0.347591
228	0x3e3bd822	0.18344167
229	0x3ce3ba3c	0.027798764
230	0x3e74e8c7	0.23916923
231	0xbdc92ed6	-0.09823386
232	0xbe4e578c	-0.20150584
233	0xbedad023	-0.4273692
234	0x3e230f9e	0.15923926
235	0xbdb5293b	-0.08845755
236	0x3ea8689a	0.32892305
237	0xbdceaec9	-0.100919314
238	0x3e2947e0	0.16531324
239	0xbdec97e4	-0.11552408
240	0xbbfe8afe	-0.007768034
241	0x3de11749	0.109907694
242	0xbe42cd33	-0.1902359
243	0xbddc073f	-0.107435696
244	0xbd0d8ede	-0.034560077
245	0x3e4b1c96	0.19835123
246	0xbd93e198	-0.07220763
247	0xba4db310	-0.0007846812
248	0x3d6d16f4	0.057883218
249	0x3e1ef034	0.15521318
250	0x3e8b08e2	0.27155215
251	0x3dd68428	0.104744256
252	0xbebc20de	-0.36743826
253	0xbe813319	-0.25234297
254	0x3c98498c	0.018589757
255	0xbdfe7a2a	-0.12425645

base.mlp.fc_h.0.bias f4 [64]
0	0x00000000	0.0
1	0x00000000	0.0
2	0x00000000	0.0
3	0x00000000	0.0
4	0x00000000	0.0
5	0x00000000	0.0
6	0x00000000	0.0
7	0x00000000	0.0
8	0x00000000	0.0
9	0x00000000	0.0
10	0x00000000	0.0
11	0x00000000	0.0
12	0x00000000	0.0
13	0x00000000	0.0
14	0x00000000	0.0
15	0x00000000	0.0
16	0x00000000	0.0
17	0x00000000	0.0
18	0x00000000	0.0
19	0x00000000	0.0
20	0x00000000	0.0
21	0x00000000	0.0
22	0x00000000	0.0
23	0x00000000	0.0
24	0x00000000	0.0
25	0x00000000	0.0
26	0x00000000	0.0
27	0x00000000	0.0
28	0x00000000	0.0
29	0x00000000	0.0
30	0x00000000	0.0
31	0x00000000	0.0
32	0x00000000	0.0
33	0x00000000	0.0
34	0x00000000	0.0
35	0x00000000	0.0
36	0x00000000	0.0
37	0x00000000	0.0
38	0x00000000	0.0
39	0x00000000	0.0
40	0x00000000	0.0
41	0x00000000	0.0
42	0x00000000	0.0
43	0x00000000	0.0
44	0x00000000	0.0
45	0x00000000	0.0
46	0x00000000	0.0
47	0x00000000	0.0
48	0x00000000	0.0
49	0x00000000	0.0
50	0x00000000	0.0
51	0x00000000	0.0
52	0x00000000	0.0
53	0x00000000	0.0
54	0x00000000	0.0
55	0x00000000	0.0
56	0x00000000	0.0
57	0x00000000	0.0
58	0x00000000	0.0
59	0x00000000	0.0
60	0x00000000	0.0
61	0x00000000	0.0
62	0x00000000	0.0
63	0x00000000	0.0

base.mlp.fc_h.2.weight f4 [64]
0	0x3f800000	1.0
1	0x3f800000	1.0
2	0x3f800000	1.0
3	0x3f800000	1.0
4	0x3f800000	1.0
5	0x3f800000	1.0
6	0x3f800000	1.0
7	0x3f800000	1.0
8	0x3f800000	1.0
9	0x3f800000	1.0
10	0x3f800000	1.0
11	0x3f800000	1.0
12	0x3f800000	1.0
13	0x3f800000	1.0
14	0x3f800000	1.0
15	0x3f800000	1.0
16	0x3f800000	1.0
17	0x3f800000	1.0
18	0x3f800000	1.0
19	0x3f800000	1.0
20	0x3f800000	1.0
21	0x3f800000	1.0
22	0x3f800000	1.0
23	0x3f800000	1.0
24	0x3f800000	1.0
25	0x3f800000	1.0
26	0x3f800000	1.0
27	0x3f800000	1.0
28	0x3f800000	1.0
29	0x3f800000	1.0
30	0x3f800000	1.0
31	0x3f800000	1.0
32	0x3f800000	1.0
33	0x3f800000	1.0
34	0x3f800000	1.0
35	0x3f800000	1.0
36	0x3f800000	1.0
37	0x3f800000	1.0
38	0x3f800000	1.0
39	0x3f800000	1.0
40	0x3f800000	1.0
41	0x3f800000	1.0
42	0x3f800000	1.0
43	0x3f800000	1.0
44	0x3f800000	1.0
45	0x3f800000	1.0
46	0x3f800000	1.0
47	0x3f800000	1.0
48	0x3f800000	1.0
49	0x3f800000	1.0
50	0x3f800000	1.0
51	0x3f800000	1.0
52	0x3f800000	1.0
53	0x3f800000	1.0
54	0x3f800000	1.0
55	0x3f800000	1.0
56	0x3f800000	1.0
57	0x3f800000	1.0
58	0x3f800000	1.0
59	0x3f800000	1.0
60	0x3f800000	1.0
61	0x3f800000	1.0
62	0x3f800000	1.0
63	0x3f800000	1.0

base.mlp.fc_h.2.bias f4 [64]
0	0x00000000	0.0
1	0x00000000	0.0
2	0x00000000	0.0
3	0x00000000	0.0
4	0x00000000	0.0
5	0x00000000	0.0
6	0x00000000	0.0
7	0x00000000	0.0
8	0x00000000	0.0
9	0x00000000	0.0
10	0x00000000	0.0
11	0x00000000	0.0
12	0x00000000	0.0
13	0x00000000	0.0
14	0x00000000	0.0
15	0x00000000	0.0
16	0x00000000	0.0
17	0x00000000	0.0
18	0x00000000	0.0
19	0x00000000	0.0
20	0x00000000	0.0
21	0x00000000	0.0
22	0x00000000	0.0
23	0x00000000	0.0
24	0x00000000	0.0
25	0x00000000	0.0
26	0x00000000	0.0
27	0x00000000	0.0
28	0x00000000	0.0
29	0x00000000	0.0
30	0x00000000	0.0
31	0x00000000	0.0
32	0x00000000	0.0
33	0x00000000	0.0
34	0x00000000	0.0
35	0x00000000	0.0
36	0x00000000	0.0
37	0x00000000	0.0
38	0x00000000	0.0
39	0x00000000	0.0
40	0x00000000	0.0
41	0x00000000	0.0
42	0x00000000	0.0
43	0x00000000	0.0
44	0x00000000	0.0
45	0x00000000	0.0
46	0x00000000	0.0
47	0x00000000	0.0
48	0x00000000	0.0
49	0x00000000	0.0
50	0x00000000	0.0
51	0x00000000	0.0
52	0x00000000	0.0
53	0x00000000	0.0
54	0x00000000	0.0
55	0x00000000	0.0
56	0x00000000	0.0
57	0x00000000	0.0
58	0x00000000	0.0
59	0x00000000	0.0
60	0x00000000	0.0
61	0x00000000	0.0
62	0x00000000	0.0
63	0x00000000	0.0

base.mlp.fc2.0.0.weight f4 [64, 64]
0	0x3d89b723	0.06724384
1	0x3b60fcff	0.0034330485
2	0x3dde39f6	0.10850899
3	0xbddf5934	-0.10905686
4	0xbd8b6415	-0.068061985
5	0xbede6f27	-0.43444178
6	0x3d7a11a4	0.06105198
7	0x3c7f5ccc	0.015586089
8	0xbed10556	-0.40824383
9	0x3dd2d228	0.102939904
10	0x3dcd3e67	0.10021668
11	0x3e92613d	0.28589812
12	0xbe5b1065	-0.21392973
13	0x3ebfe749	0.37481144
14	0x3e0abfac	0.1354968
15	0x3ed44399	0.41457823
16	0x3caebce0	0.021330297
17	0xbe555af4	-0.20835477
18	0x3e303f8b	0.1721174
19	0x3e4f3b5d	0.20237489
20	0xbe28eb75	-0.1649607
21	0x3e4f1498	0.202227
22	0x3dd7cbb3	0.105368994
23	0xbe356c2a	-0.17717043
24	0xbd2fb786	-0.04289963
25	0x3d0fb2cb	0.03508262
26	0xba5705dc	-0.0008202472
27	0xbe73a373	-0.2379282
28	0xbdf4bf1b	-0.11950513
29	0xbedaeaae	-0.4275717
30	0xbd120007	-0.035644557
31	0xbe074948	-0.13211548
32	0xbd02561f	-0.031820413
33	0xbedf9ae3	-0.43672857
34	0xbd88a8e6	-0.0667284
35	0xbe63f5b0	-0.22261691
36	0xbb26eacd	-0.0025469542
37	0x3e30f6b0	0.17281604
38	0x3ec7abb4	0.38998187
39	0x3e9b89d2	0.30378586
40	0x3e5cdb78	0.21568096
41	0xbe2eb4b8	-0.17061126
42	0xbe24db03	-0.16099171
43	0xbd599c20	-0.053127408
44	0xbf04119b	-0.51589364
45	0xbe7a378f	-0.24435256
46	0xbeaaaacd	-0.33333436
47	0xbdeaf382	-0.11472227
48	0xbe89cb40	-0.2691288
49	0x3e4d34eb	0.20039718
50	0x3e6ad4ed	0.22932787
51	0xbe28a98b	-0.16470926
52	0x3db3bf0a	0.08776672
53	0xbd3a6103	-0.045502674
54	0x3d919afe	0.071096405
55	0xbe84b270	-0.25917387
56	0xbd2c1f50	-0.04202205
57	0x3d04d7c8	0.032432348
58	0x3ddec6ee	0.108777866
59	0xbb9f8266	-0.0048678396
60	0xbc87133d	-0.016488666
61	0xbc83c68c	-0.016085885
62	0xbe5b7f74	-0.21435338
63	0xbba1faa2	-0.004943208
64	0x3b9daa2d	0.0048115463
65	0x3c0f2f08	0.0087392405
66	0xbdbe7468	-0.092995465
67	0xbd8a6fd5	-0.067596115
68	0x3e889385	0.26675048
69	0xbea8e387	-0.3298609
70	0x3ea6ae53	0.32554874
71	0x3c1331c0	0.008984029
72	0x3e0840f9	0.13306035
73	0xbe642d72	-0.22282961
74	0x3d37ecf1	0.0449037
75	0xbdbb408a	-0.09143169
76	0x3c985d3e	0.018599149
77	0x3e5ae989	0.21378149
78	0x3f44abb6	0.7682451
79	0xbe1dd6e2	-0.15414003
80	0x3d2a289d	0.041542638
81	0x3e4fb69a	0.202845
82	0x3db353f7	0.087562494
83	0xbdab5495	-0.08365742
84	0xbe05e084	-0.13073927
85	0x3e15fd90	0.14647508
86	0x3d804849	0.06263787
87	0x3dac4dc4	0.0841327
88	0xbc792bd5	-0.015208204
89	0xbe1fe393	-0.15614156
90	0xbe6c5600	-0.23079681
91	0x3ed17381	0.40908435
92	0x3e9c7cff	0.30564114
93	0xbb7cb511	-0.0038560072
94	0x3de7d400	0.11319733
95	0xbdcebe4f	-0.10094892
96	0x3e9d0937	0.30671093
97	0xbdd9fcda	-0.10643931
98	0xbd5212e7	-0.051287558
99	0x3e0431d4	0.12909633
100	0x3e0054b2	0.12532309
101	0xbe5330bc	-0.2062406
102	0xbe4365c2	-0.19081786
103	0xbdf6dc5e	-0.120537505
104	0x3e25f7a8	0.16207755
105	0xbc9f2b94	-0.01942996
106	0x3e801ad6	0.25020474
107	0xbe977a42	-0.29585463
108	0xbeabff35	-0.33593145
109	0xbe761782	-0.24032405
110	0xbe236275	-0.15955527
111	0x3dc8badf	0.09801268
112	0x3d7752f7	0.060381856
113	0xbe50b0b0	-0.20379901
114	0xbe24534a	-0.16047397
115	0x3deaaf22	0.11459185
116	0x3cd9cec4	0.026587851
117	0x3d1cc3df	0.038272735
118	0x3e0ea714	0.13930923
119	0x3d627ab5	0.055292804
120	0xbc8ce8ca	-0.017200846
121	0x3e076bbb	0.1322469
122	0xbba5f9a7	-0.0050651613
123	0xbef5b233	-0.47987518
124	0x3e1966ad	0.14980574
125	0xbe9cdf24	-0.30638993
126	0x3ecb5bc8	0.3971846
127	0x3e32f728	0.17477095
128	0xbde50cf9	-0.11184115
129	0x3de4c1eb	0.111697994
130	0x3e9fbe29	0.31199768
131	0xbd86f31a	-0.06589337
132	0x3dfd7fe0	0.12377906
133	0x3f0b0e3a	0.54318583
134	0xbebb113e	-0.36536592
135	0xbd8542aa	-0.06506856
136	0x3e213b07	0.15745173
137	0xbc4bfec4	-0.012450878
138	0xbea34789	-0.31890514
139	0x3ef14aa1	0.4712725
140	0xbe5cf80c	-0.21578997
141	0x3e7ab5e9	0.24483456
142	0x3d4e472b	0.05036084
143	0xbcbea12a	-0.023270208
144	0x3d015293	0.03157289
145	0xbe08795c	-0.13327545
146	0x3d78932c	0.06068723
147	0xbdcd537a	-0.100256875
148	0x3dd27ce3	0.102777265
149	0x3dde47d8	0.10853547
150	0x3e17e7c6	0.14834508
151	0xbda64e21	-0.08120371
152	0xbe018488	-0.12648213
153	0xbd5d9ec7	-0.0541065
154	0xbebcfdd1	-0.36912397
155	0x3d92e579	0.07172675
156	0x3e9b0fb4	0.30285418
157	0x3dfbd0a7	0.12295657
158	0xbea666c1	-0.3250027
159	0x3e059a96	0.13047251
160	0xbdb068e1	-0.08613754
161	0xbd6f3ed4	-0.058409527
162	0x3ebb8087	0.36621496
163	0x3cf93c6a	0.030424315
164	0x3e6ac6bb	0.22927372
165	0x3e6eaa38	0.23307121
166	0x3d8c1faf	0.06841981
167	0x3e0d2eff	0.13787459
168	0x3ea11fa6	0.31469458
169	0x3e754d81	0.23955347
170	0x3e8a4f42	0.27013594
171	0x3e4062eb	0.18787734
172	0x3d3e0413	0.046390604
173	0xbe685e16	-0.22692141
174	0x3e3bbbd2	0.18333367
175	0x3deb24f9	0.11481661
176	0xbebdbe6e	-0.3705935
177	0x3c1eb030	0.009685561
178	0xbe7a0af7	-0.24418245
179	0x3e1b8c30	0.15190196
180	0xbe7d385d	-0.24728532
181	0x39097d56	0.0001311203
182	0x3ea8cc1d	0.32968226
183	0xbe03433f	-0.12818621
184	0xbe39a040	-0.18127537
185	0xbe54e32d	-0.20789786
186	0xbe2adda2	-0.16686109
187	0xbe3fad3d	-0.18718429
188	0x3df9b666	0.12192993
189	0xbdd7272a	-0.10505517
190	0xbe84aade	-0.2591161
191	0xbd36c955	-0.0446256
192	0x3ccd763f	0.025080798
193	0x3da4ffcf	0.08056604
194	0xbe6a2e30	-0.22869182
195	0x3eb3cbf0	0.3511653
196	0x3d71dbd1	0.059047524
197	0x3e3388e8	0.17532694
198	0xbd1e9ec1	-0.03872562
199	0x3eb77bd8	0.35836673
200	0x3a843df7	0.0010089268
201	0x3d852c0b	0.06502541
202	0xbc3bb108	-0.011455782
203	0xbe96dcba	-0.29465276
204	0x3e1cf2ed	0.15327044
205	0x3ed034d5	0.40665308
206	0x3e4f79dc	0.2026133
207	0xbe1f0c81	-0.15532114
208	0x3b182be5	0.0023219523
209	0xbb197edc	-0.0023421561
210	0x3ec0f93d	0.37690154
211	0xbc60a805	-0.013711934
212	0xbda75e5f	-0.08172297
213	0x3eee23f0	0.46511793
214	0xbe56ac20	-0.20964098
215	0xbdbc70d3	-0.09201207
216	0xbd8ad539	-0.0677895
217	0xbe940cc7	-0.28915998
218	0xbddbf0eb	-0.10739311
219	0xbe93477a	-0.2876547
220	0xbd757402	-0.059925087
221	0xbe192fc6	-0.1495963
222	0xbebd8e66	-0.37022704
223	0x3ed53d7c	0.4164847
224	0x3de54dc7	0.111964755
225	0x3e83804f	0.2568383
226	0xbc6e5d7b	-0.014548655
227	0xbeb39875	-0.35077253
228	0x3e3e37d3	0.18575983
229	0x3cff1199	0.03113632
230	0x3e6b1168	0.22955859
231	0xbdca3d8d	-0.09875021
232	0xbe556be5	-0.2084194
233	0xbed79340	-0.4210453
234	0x3e25607c	0.16150087
235	0xbdc11476	-0.09427731
236	0x3eaad047	0.33362028
237	0xbdc7ca6d	-0.097554065
238	0x3e21e732	0.1581085
239	0xbded422f	-0.11584889
240	0xbc6b879a	-0.014375592
241	0x3dd2b7f2	0.10288991
242	0xbe3f6e78	-0.18694484
243	0xbdd51bc7	-0.10405689
244	0xbd1adf53	-0.037810635
245	0x3e4ebb52	0.20188645
246	0xbd8cf7dd	-0.06883214
247	0x3bea2b2d	0.0071462602
248	0x3d894b7f	0.06703853
249	0x3e1b96b6	0.1519421
250	0x3e8d40d7	0.2758853
251	0x3ddd17f2	0.10795583
252	0xbebe086c	-0.371158
253	0xbe8282eb	-0.25490507
254	0x3cb68b47	0.02228321
255	0xbdfe698e	-0.12422477

base.mlp.fc2.0.0.bias f4 [64]
0	0x3b0b53ed	0.002125974
1	0x3a10c682	0.0005522744
2	0xbb924926	-0.0044642864
3	0x3b4fe63e	0.0031722928
4	0x3b8ae473	0.004238659
5	0x3aee4137	0.0018177395
6	0xb9e82e3b	-0.00044284933
7	0xba5c1696	-0.00083956996
8	0x3c3b3ba9	0.011427798
9	0x3bd58cf2	0.006517046
10	0x3bbe7b88	0.005813066
11	0x3b067a34	0.0020519616
12	0x3b00e949	0.0019670299
13	0xbba6aa26	-0.0050862012
14	0xbab7030f	-0.0013962704
15	0x3b637ea4	0.0034712935
16	0x3ac380e0	0.0014915727
17	0x3bb86f39	0.005628493
18	0xbbcccacb	-0.0062497607
19	0x3b99689e	0.004681661
20	0x3b609cc5	0.003427313
21	0xbb9be23a	-0.004757193
22	0x3b3a7b42	0.0028454815
23	0xbbbb64b2	-0.005718791
24	0x3b47fe91	0.0030516724
25	0x3be621b9	0.007023063
26	0xbbe0b849	-0.006857906
27	0xbb6f9a0e	-0.003656033
28	0xbbefd459	-0.007319015
29	0x3ba2acca	0.0049644457
30	0xbc1809c5	-0.009279673
31	0x3ae26ea0	0.00172754
32	0xbb69f6cf	-0.0035700088
33	0x3a50942c	0.00079566496
34	0x3afac18a	0.0019131165
35	0x3b4cb0d6	0.0031233332
36	0xbb1cf79a	-0.0023951293
37	0x3b659bda	0.0035035522
38	0xbb6ea407	-0.0036413686
39	0x3b5ad171	0.0033388997
40	0x3b77b0df	0.0037794632
41	0xbbb273b1	-0.0054459204
42	0xb9765bae	-0.00023494542
43	0x3bdaebef	0.0066809575
44	0x3b196684	0.0023407051
45	0xbbe83cad	-0.0070873112
46	0xbbca95e9	-0.0061824215
47	0xba369a11	-0.00069657067
48	0x3a95826e	0.0011406669
49	0x3ad992e2	0.0016599561
50	0x3b20ffc5	0.0024566513
51	0x3b93ba35	0.0045082816
52	0x3bd93078	0.0066280924
53	0x3b15b746	0.0022844835
54	0x3a2c9b4d	0.0006584421
55	0x3acaa0b0	0.0015459266
56	0x3b0d1513	0.0021527454
57	0xbb1194b3	-0.0022213876
58	0x3b1a9444	0.0023586908
59	0x3b13e7b4	0.0022568526
60	0x3a8fc3ff	0.0010968446
61	0x3ad152bf	0.0015970095
62	0x3b986280	0.004650414
63	0xbbb56ddf	-0.0055367793

base.mlp.fc2.0.2.weight f4 [64]
0	0x3f80ac3c	1.0052562
1	0x3f800339	1.0000983
2	0x3f80b934	1.005652
3	0x3f808bb1	1.004263
4	0x3f7fe870	0.99964046
5	0x3f80276a	1.0012028
6	0x3f7ffb9e	0.9999331
7	0x3f802f7c	1.0014491
8	0x3f80194a	1.0007718
9	0x3f80b62e	1.0055597
10	0x3f80994f	1.0046786
11	0x3f804f5d	1.002422
12	0x3f80adf8	1.0053091
13	0x3f80c133	1.005896
14	0x3f7efe17	0.9960646
15	0x3f7f2c09	0.9967657
16	0x3f8022fe	1.0010679
17	0x3f80bc48	1.0057459
18	0x3f80e7e3	1.0070766
19	0x3f80974c	1.0046172
20	0x3f8046bd	1.0021588
21	0x3f80c23c	1.0059276
22	0x3f80841d	1.0040318
23	0x3f7fa06d	0.99854165
24	0x3f80afac	1.0053611
25	0x3f80aa64	1.0051999
26	0x3f80be2f	1.005804
27	0x3f7f89bf	0.9981956
28	0x3f815076	1.010268
29	0x3f80b1dc	1.0054278
30	0x3f80ba54	1.0056863
31	0x3f7fd3f7	0.9993281
32	0x3f7efb2a	0.99601996
33	0x3f7e892c	0.9942806
34	0x3f809bb1	1.0047513
35	0x3f807d54	1.0038247
36	0x3f7fc823	0.9991476
37	0x3f806ede	1.0033834
38	0x3f806c5d	1.003307
39	0x3f7e479d	0.99328023
40	0x3f7e690b	0.9937903
41	0x3f805117	1.0024747
42	0x3f807bde	1.0037801
43	0x3f7ef701	0.9959565
44	0x3f8079f1	1.0037214
45	0x3f808739	1.0041267
46	0x3f8119a4	1.008595
47	0x3f80b2c8	1.005456
48	0x3f7f4d06	0.99726903
49	0x3f7fb1ee	0.99880874
50	0x3f7fc1e6	0.9990524
51	0x3f802a5e	1.001293
52	0x3f7f817d	0.9980696
53	0x3f7ec794	0.9952328
54	0x3f806455	1.0030619
55	0x3f7eaead	0.99485284
56	0x3f7f0872	0.9962226
57	0x3f807145	1.0034567
58	0x3f7fe8ad	0.9996441
59	0x3f7e9eb7	0.9946093
60	0x3f8091eb	1.0044531
61	0x3f8002e1	1.0000879
62	0x3f80b546	1.005532
63	0x3f80bf4a	1.0058377

base.mlp.fc2.0.2.bias f4 [64]
0	0xbbad62a4	-0.0052913
1	0xbb539c34	-0.003228915
2	0xbbb2da56	-0.0054581566
3	0x3b86ffd8	0.0041198544
4	0x3bc69e4e	0.006061352
5	0x3ba53c0f	0.00504256
6	0xb91a5d63	-0.00014721374
7	0x3ab1f48f	0.0013576912
8	0xb9b90269	-0.00035287745
9	0x3bc75ee6	0.006084311
10	0x3bd1faed	0.0064080865
11	0x3b27dd00	0.0025613904
12	0x3ba2a872	0.004963928
13	0xbbc2fcd1	-0.005950548
14	0xbb92d78a	-0.0044812607
15	0x3b1be6c3	0.0023788668
16	0xba9adbac	-0.0011814735
17	0x3bb5791a	0.005538118
18	0xbbdde962	-0.006772206
19	0x3b9b5703	0.004740597
20	0x3b0ad6a6	0.002118507
21	0xbbc40947	-0.0059825513
22	0x3b5c58cc	0.0033622263
23	0xbace4f50	-0.001574019
24	0x3ba67f56	0.0050810976
25	0x3bb61700	0.005556941
26	0xbbc4b7e0	-0.006003365
27	0xbaf7b4aa	-0.0018898447
28	0xbc032a3f	-0.008005678
29	0x3bae4868	0.00531869
30	0xbbcee4fe	-0.006313919
31	0xb9980ba9	-0.00029000387
32	0xbb76d49b	-0.0037663344
33	0x3b8a2787	0.004216138
34	0xbb9c3645	-0.0047672116
35	0x3b746325	0.003729054
36	0xba9edd37	-0.001212037
37	0xbb847777	-0.0040425616
38	0xbb92599d	-0.004466249
39	0x3bda7378	0.006666597
40	0x3b0f6b0f	0.002188388
41	0xbbb28458	-0.0054479055
42	0xbb5e0e49	-0.0033883026
43	0x3b9fb70f	0.004874117
44	0xbb32c939	-0.0027280583
45	0xbbb0b1e4	-0.0053923
46	0xbbdaa1cf	-0.006672121
47	0xbbb3d9b2	-0.005488598
48	0x3ad32e1a	0.0016111762
49	0x3a910df9	0.0011066786
50	0x372fd211	1.0479723e-05
51	0x3b9edf7a	0.004848418
52	0x3b41c6d3	0.0029567971
53	0xba808e14	-0.0009807968
54	0x3b254403	0.002521754
55	0x3b03d207	0.00201142
56	0xb97c3d6b	-0.00024055473
57	0xbba3c4b0	-0.004997812
58	0xb9c5812d	-0.00037671012
59	0xbaf4450d	-0.0018636301
60	0x3b8d86ad	0.004319033
61	0x3a7be3ac	0.0009608816
62	0x3bb7aadf	0.005605086
63	0xbbbe2774	-0.005803043

act.action_out.fc_mean.weight f4 [2, 64]
0	0x3be2fb52	0.0069269324
1	0xba7341a4	-0.00092794956
2	0x3ba2bff0	0.0049667284
3	0xbbaed136	-0.0053349985
4	0x3acec819	0.0015776186
5	0x3c11b6e8	0.008893706
6	0xbb5710cc	-0.0032816408
7	0xbb835f09	-0.004009132
8	0x3b9d9929	0.004809518
9	0xbb1fda0e	-0.0024391445
10	0x3989fa44	0.0002631714
11	0xbb48a6de	-0.0030617039
12	0xbb903a4c	-0.004401481
13	0x3b64b8ed	0.0034900263
14	0x3b0cc5e4	0.0021480257
15	0x3b10ed59	0.0022114126
16	0x3b7a4cae	0.0038192677
17	0xbb302d3f	-0.0026882438
18	0x3b56241d	0.0032675334
19	0xbb86a8c0	-0.004109472
20	0xbb37e862	-0.0028062095
21	0x3b2d6f73	0.0026464134
22	0xbba3293c	-0.0049792808
23	0xbb95670f	-0.0045594047
24	0xbb5bbc39	-0.0033528937
25	0xbb852549	-0.0040632826
26	0x3b8dfd06	0.0043331413
27	0xbac2efe5	-0.001487252
28	0xbc186425	-0.00930122
29	0xbb9ffc11	-0.0048823436
30	0x3b664144	0.0035134116
31	0xba1a490a	-0.00058855175
32	0xbbcf4cba	-0.006326285
33	0xbb89ca5f	-0.0042050327
34	0x3b8cea59	0.0043003974
35	0xbb38ab39	-0.0028178229
36	0xbb5b647d	-0.0033476644
37	0x3bd026c3	0.006352277
38	0x3b6ccc04	0.0036132345
39	0xbb11bab9	-0.002223654
40	0x3b2db9a4	0.0026508356
41	0x3b693d74	0.0035589607
42	0x3b3fb539	0.0029252304
43	0x3b009adb	0.001962355
44	0x3b52eab1	0.0032183344
45	0x3b9dc0f5	0.004814262
46	0x3ac815b6	0.001526526
47	0x3b60cc0f	0.0034301316
48	0x3bb6ee07	0.0055825743
49	0x3b21487e	0.002460986
50	0xbb5a1ff6	-0.003328321
51	0xbba426cd	-0.005009508
52	0xba79a82d	-0.00095236563
53	0xbb4d6440	-0.0031340271
54	0xbb97e8a9	-0.0046358895
55	0x3b912a3a	0.0044300826
56	0xba2e9710	-0.00066600833
57	0x3b804038	0.0039139055
58	0xbb12be81	-0.0022391381
59	0x3a902946	0.0010998629
60	0xbb0fed02	-0.0021961336
61	0xbacc31c0	-0.0015578791
62	0xbb82df4d	-0.0039939047
63	0x3ba4e9a6	0.005032736
64	0xbc0b57aa	-0.008504787
65	0xbbdd2704	-0.006749036
66	0xbc1e7cde	-0.009673325
67	0x3bfeebbe	0.0077795675
68	0x3b8f3c05	0.0043711686
69	0x3b4809e0	0.0030523464
70	0x3bf3c5b2	0.0074393386
71	0x3bf43c20	0.0074534565
72	0xbbdb41c1	-0.006691188
73	0x3c25e585	0.0101255225
74	0x3c0e9894	0.00870337
75	0x3c03fec8	0.00805635
76	0x3c115f6f	0.008872851
77	0xbc1fe1a1	-0.009758384
78	0xbb96657f	-0.004589736
79	0xbbd3b45f	-0.006460711
80	0xbbf2c525	-0.0074087554
81	0x3c2169b0	0.009851858
82	0xbc4f1241	-0.012638629
83	0x3c061cd4	0.008185584
84	0x3c0bb55a	0.008527124
85	0xbc238314	-0.009979982
86	0x3c0f824c	0.008759093
87	0x3bd35406	0.0064492254
88	0x3c1824ad	0.009286088
89	0x3c134f49	0.008991071
90	0xbc1e1125	-0.009647642
91	0x3bda88f3	0.0066691577
92	0xbc1a8aef	-0.009432538
93	0x3c0fd1fe	0.008778093
94	0xbc26dc56	-0.010184368
95	0x3c0163af	0.007897302
96	0x3ac087ec	0.0014688945
97	0x3ba696ac	0.0050838795
98	0xbc060c5e	-0.0081816595
99	0x3c13d563	0.009023043
100	0x3bf1fa87	0.0073846015
101	0xbbd26904	-0.0064212102
102	0xbbef49b9	-0.0073024896
103	0x3b9ace42	0.004724295
104	0x3b37fce4	0.0028074319
105	0xbbff3502	-0.0077883014
106	0xbc1f2d66	-0.009715414
107	0xb9c4376c	-0.00037425326
108	0xbc1d72ac	-0.009609859
109	0xbc06a1c7	-0.008217282
110	0xbc47478e	-0.012163056
111	0xbc161b97	-0.009161851
112	0x39d3504a	0.00040304876
113	0xbbf0c0ec	-0.007347217
114	0x3bd0241f	0.006351962
115	0x3bb83ae9	0.005622257
116	0x3b9de454	0.0048184786
117	0xbacc50ec	-0.0015588081
118	0x3c0eb958	0.008711182
119	0xbb68950a	-0.0035489225
120	0x3bad4eb0	0.0052889213
121	0xbbe93785	-0.007117214
122	0x3c017092	0.007900374
123	0xbb452200	-0.003008008
124	0x3c1fabdb	0.009745563
125	0x3bf86f1e	0.0075816056
126	0x3c16d85f	0.00920686
127	0xbc1b08fd	-0.009462592

act.action_out.fc_mean.bias f4 [2]
0	0xbb62b776	-0.0034594215
1	0x3c0dd2ce	0.008656217

act.action_out.logstd._bias f4 [2, 1]
0	0xbb866790	-0.004101701
1	0xbbf0139f	-0.0073265578
