results/MyEnv/MyEnv/mappo/check/run69/models/critic_agent0.pt (torch, 89374 bytes, 15 tensors)

base.feature_norm.weight f4 [182]
0	0x3f7fee26	0.9997276
1	0x3f7f8394	0.9981015
2	0x3f802c7f	1.0013579
3	0x3f7fd595	0.99935275
4	0x3f801993	1.0007805
5	0x3f802fed	1.0014626
6	0x3f7f80cb	0.998059
7	0x3f804dd2	1.0023749
8	0x3f8053fd	1.0025631
9	0x3f7f3222	0.9968587
10	0x3f7f608a	0.9975668
11	0x3f8085ab	1.0040792
12	0x3f806a0e	1.0032365
13	0x3f7f7da8	0.9980111
14	0x3f8072a6	1.0034988
15	0x3f80883d	1.0041577
16	0x3f7f7765	0.99791557
17	0x3f7f669d	0.9976595
18	0x3f806960	1.0032158
19	0x3f805b59	1.0027877
20	0x3f7df2d6	0.99198663
21	0x3f804312	1.0020468
22	0x3f811b46	1.0086448
23	0x3f7fdae9	0.99943405
24	0x3f80363f	1.0016555
25	0x3f7da163	0.9907438
26	0x3f7f57bd	0.99743253
27	0x3f7ea2f9	0.99467427
28	0x3f804a79	1.0022727
29	0x3f7f47eb	0.99719113
30	0x3f7eff8d	0.9960869
31	0x3f7d0a88	0.98844194
32	0x3f807fea	1.0039036
33	0x3f805a34	1.0027528
34	0x3f7ea296	0.99466836
35	0x3f7f100b	0.99633855
36	0x3f802b64	1.0013242
37	0x3f80693c	1.0032115
38	0x3f7f007a	0.996101
39	0x3f7f5969	0.99745804
40	0x3f802035	1.0009829
41	0x3f803fe4	1.0019498
42	0x3f80a4b3	1.0050262
43	0x3f7ff664	0.9998534
44	0x3f7ff854	0.99988294
45	0x3f7effca	0.99609053
46	0x3f805b75	1.002791
47	0x3f7ed62a	0.9954554
48	0x3f7fc968	0.99916697
49	0x3f808711	1.0041219
50	0x3f7e9da9	0.9945932
51	0x3f7ed2fb	0.9954068
52	0x3f7f7361	0.9978543
53	0x3f7fc14e	0.99904335
54	0x3f7fe795	0.9996274
55	0x3f7f0c3e	0.99628055
56	0x3f7f62ea	0.99760306
57	0x3f7f7752	0.99791443
58	0x3f7f359f	0.99691194
59	0x3f7f461d	0.9971636
60	0x3f7ff1ba	0.9997822
61	0x3f805cf5	1.0028368
62	0x3f80b106	1.0054023
63	0x3f80333a	1.0015633
64	0x3f7fd8d5	0.99940234
65	0x3f7f3d48	0.9970288
66	0x3f802b6d	1.0013252
67	0x3f805be5	1.0028044
68	0x3f7ee36b	0.9956576
69	0x3f7f7b89	0.99797875
70	0x3f7f22a8	0.99662256
71	0x3f7edd6f	0.9955663
72	0x3f7f89ad	0.9981945
73	0x3f8061e6	1.0029876
74	0x3f8029ed	1.0012795
75	0x3f806944	1.0032125
76	0x3f7f5733	0.9974243
77	0x3f8000a9	1.0000201
78	0x3f7e641f	0.9937152
79	0x3f7f7b6e	0.99797714
80	0x3f7f229d	0.9966219
81	0x3f809c6d	1.0047737
82	0x3f80753b	1.0035776
83	0x3f8043a6	1.0020645
84	0x3f7f7238	0.9978366
85	0x3f805a2b	1.0027517
86	0x3f805eb0	1.0028896
87	0x3f7fa19a	0.9985596
88	0x3f7d7573	0.9900734
89	0x3f7ee891	0.9957362
90	0x3f80817c	1.0039515
91	0x3f806cd3	1.003321
92	0x3f80497a	1.0022423
93	0x3f8055e7	1.0026215
94	0x3f7f4334	0.9971192
95	0x3f80bdc8	1.0057917
96	0x3f7eeefe	0.99583423
97	0x3f7f20f8	0.9965968
98	0x3f7f593a	0.99745524
99	0x3f7f40fe	0.99708545
100	0x3f809140	1.0044327
101	0x3f7eb572	0.99495614
102	0x3f8048de	1.0022237
103	0x3f7f60d6	0.99757135
104	0x3f804867	1.0022095
105	0x3f804e34	1.0023866
106	0x3f806895	1.0031916
107	0x3f7f5ce5	0.9975112
108	0x3f7f170d	0.9964455
109	0x3f8056c9	1.0026485
110	0x3f80442f	1.0020808
111	0x3f806471	1.0030652
112	0x3f804e71	1.0023938
113	0x3f7f21ee	0.9966115
114	0x3f7f306e	0.9968327
115	0x3f804720	1.0021706
116	0x3f7f45db	0.99715966
117	0x3f80c1dd	1.0059162
118	0x3f7e8c15	0.994325
119	0x3f7ea9b2	0.99477684
120	0x3f7f6cd4	0.99775434
121	0x3f7f0711	0.9962016
122	0x3f7f32a3	0.9968664
123	0x3f806a0a	1.003236
124	0x3f7f1551	0.996419
125	0x3f7fdb04	0.99943566
126	0x3f800811	1.0002462
127	0x3f8052e3	1.0025295
128	0x3f8054ea	1.0025914
129	0x3f803509	1.0016185
130	0x3f7f9d83	0.9984972
131	0x3f8064b1	1.0030729
132	0x3f802772	1.0012038
133	0x3f7f4a17	0.9972243
134	0x3f7f3af9	0.9969936
135	0x3f7f703b	0.99780625
136	0x3f802137	1.0010136
137	0x3f7e8ba1	0.99431807
138	0x3f7f1e98	0.9965606
139	0x3f7f0a33	0.9962494
140	0x3f7f6ca9	0.9977518
141	0x3f802e10	1.0014057
142	0x3f7f2b65	0.9967559
143	0x3f806cbd	1.0033184
144	0x3f803fa8	1.0019426
145	0x3f7fa271	0.9985724
146	0x3f805a4a	1.0027554
147	0x3f8031ff	1.0015258
148	0x3f7f1f8f	0.9965753
149	0x3f7ee390	0.9956598
150	0x3f8055b0	1.002615
151	0x3f8057c7	1.0026788
152	0x3f8092a1	1.0044748
153	0x3f805250	1.002512
154	0x3f7f0efd	0.99632245
155	0x3f8063da	1.0030472
156	0x3f805794	1.0026727
157	0x3f805a9d	1.0027653
158	0x3f7ec041	0.99512106
159	0x3f7f600d	0.99755937
160	0x3f802ea4	1.0014234
161	0x3f7feb09	0.9996801
162	0x3f7f93eb	0.9983508
163	0x3f808a61	1.004223
164	0x3f813aad	1.0096031
165	0x3f7fb472	0.9988471
166	0x3f7fb213	0.99881095
167	0x3f80ac2e	1.0052545
168	0x3f80699e	1.0032232
169	0x3f806d36	1.0033329
170	0x3f7f6deb	0.99777097
171	0x3f80634f	1.0030307
172	0x3f7f5c2d	0.99750024
173	0x3f8029fc	1.0012813
174	0x3f8015a8	1.0006609
175	0x3f7f5668	0.9974122
176	0x3f7f3c15	0.9970105
177	0x3f7f3456	0.99689233
178	0x3f7f71d4	0.9978306
179	0x3f8050d7	1.002467
180	0x3f804370	1.002058
181	0x3f7fd6a4	0.9993689

base.feature_norm.bias f4 [182]
0	0x3b297bb4	0.0025861086
1	0x3af60b8d	0.0018771753
2	0xbab60abb	-0.0013888696
3	0x3a2e2520	0.00066431053
4	0xba551b04	-0.0008129331
5	0xbb1fd1fd	-0.0024386637
6	0x3b638833	0.0034718632
7	0xbb1c6988	-0.0023866612
8	0xbb273f1b	-0.0025519792
9	0xbb57f2cb	-0.0032951112
10	0x3b21e0b1	0.0024700577
11	0xbb84db8a	-0.0040544914
12	0xbb52c570	-0.003216114
13	0x3b000286	0.0019532754
14	0x3b66efd1	0.0035238157
15	0xbb888168	-0.004165817
16	0x3b069beb	0.0020539712
17	0x3b17c86d	0.0023160235
18	0xbb542f81	-0.0032376947
19	0xbb9452ab	-0.0045264564
20	0x3b2bbcd8	0.002620509
21	0x3b01f46f	0.0019829532
22	0x3c0d4cdf	0.0086242845
23	0xba0df47c	-0.0005415154
24	0x3adaad94	0.001668381
25	0xbc176994	-0.00924148
26	0xbb287a92	-0.0025707823
27	0xbbaeecd7	-0.005338292
28	0x3b1557c3	0.0022787906
29	0xbb389b11	-0.0028168599
30	0xbb8084ba	-0.0039220722
31	0xbc410f57	-0.011783442
32	0x3b7fea51	0.0039049576
33	0x3b3d5ee0	0.0028895661
34	0xbbb0417d	-0.0053789006
35	0xbb70a461	-0.0036719071
36	0x3ad1db74	0.0016010837
37	0x3b52d230	0.0032168739
38	0xbb7da803	-0.003870488
39	0xbb273ba0	-0.0025517717
40	0x3a7d9f28	0.00096749
41	0x3b0013dc	0.0019543087
42	0x3ba47dfe	0.0050199023
43	0xb9223715	-0.00015470044
44	0xb88bd10f	-6.666977e-05
45	0xbb80219a	-0.0039102556
46	0x3b37b3db	0.0028030786
47	0xbb95286a	-0.004551937
48	0xba57d96c	-0.00082339975
49	0x3b874c36	0.004128958
50	0xbbb1ad2a	-0.005422254
51	0xbb96b1e2	-0.004598842
52	0xbb0d4842	-0.0021557962
53	0xba7e25ee	-0.0009694983
54	0xb9d60a49	-0.00040824924
55	0xbb744112	-0.003727023
56	0xbb1d9d5d	-0.0024050095
57	0xbb099bc8	-0.0020997394
58	0xbb4a8496	-0.0030901781
59	0xbb3a4c32	-0.0028426764
60	0xb9809aaf	-0.0002452931
61	0x3b3a6fae	0.0028447914
62	0x3baf83f5	0.0053563067
63	0x3ace1e96	0.0015725668
64	0xba20829c	-0.0006122978
65	0xbb43af22	-0.0029859026
66	0x3aafcf14	0.0013413155
67	0x3b37b959	0.002803406
68	0xbb8ea22e	-0.0043528294
69	0xbb03f302	-0.0020133858
70	0xbb5d74e2	-0.0033791591
71	0xbb90f5af	-0.004423819
72	0xbaee35bc	-0.0018173973
73	0x3b427c67	0.00296762
74	0x3aa87a99	0.001285392
75	0x3b532d26	0.0032222955
76	0xbb2aa687	-0.00260392
77	0x37e3d81e	2.7161146e-05
78	0xbbcec144	-0.00630966
79	0xbb04e5c4	-0.0020278553
80	0xbb5d7189	-0.0033789596
81	0x3b9c84cf	0.004776574
82	0x3b6aa680	0.0035804808
83	0x3b07f478	0.002074508
84	0xbb0e3972	-0.002170172
85	0x3b34f332	0.0027610776
86	0x3b3e6b0f	0.002905551
87	0xbabe5924	-0.0014522416
88	0xbc22e4b2	-0.0099422205
89	0xbb8be142	-0.004268796
90	0x3b81d366	0.0039619682
91	0x3b51be02	0.0032004123
92	0xbb0f72f9	-0.0021888597
93	0xbb2cc7a3	-0.002636411
94	0x3b3b7872	0.0028605727
95	0xbbbc9be2	-0.0057558874
96	0x3bbc64f3	0.005749339
97	0x3b30f17e	0.002699941
98	0x3b2767e2	0.0025544097
99	0x3b3f00ce	0.0029144767
100	0xbb916551	-0.0044371267
101	0x3ba59690	0.005053349
102	0xbb10bec6	-0.0022086366
103	0x3b1d25e2	0.0023978879
104	0xbb0ea51f	-0.00217659
105	0x3b1d5661	0.0024007785
106	0xbb516952	-0.0031953645
107	0x3b21d114	0.002469127
108	0x3b6722f6	0.003526864
109	0xbb2c5322	-0.0026294668
110	0x3b08e134	0.0020886185
111	0x3b492996	0.0030694953
112	0x3b1d2207	0.002397658
113	0xbb5d0175	-0.0033722792
114	0xbb501d68	-0.0031755809
115	0x3b0e57d8	0.002171984
116	0xbb3a7744	-0.0028452436
117	0x3bc24eb6	0.005929793
118	0xbbb87ce2	-0.0056301216
119	0xbbaadc33	-0.005214238
120	0xbb13850d	-0.0022509724
121	0xbb795d27	-0.0038049908
122	0xbb4ed97f	-0.0031562743
123	0x3b54273f	0.0032372025
124	0xbb6ae091	-0.0035839418
125	0xba0b894d	-0.00053228886
126	0x3984566f	0.000252414
127	0x3b2676ed	0.0025400475
128	0x3b2a48a4	0.0025983239
129	0x3ad5a9b7	0.0016301189
130	0xbac6cca7	-0.0015167192
131	0x3b49c054	0.0030784803
132	0x3a9f7619	0.0012165933
133	0xbb362a61	-0.0027796256
134	0xbb453b64	-0.0030095214
135	0xbb107702	-0.002204359
136	0x3a88251f	0.001038704
137	0xbbbb5264	-0.005716609
138	0xbb61d7e7	-0.0034460963
139	0xbb763ef6	-0.0037574149
140	0xbb12ea1e	-0.0022417377
141	0x3ab833ef	0.0014053563
142	0xbb55400e	-0.00325394
143	0x3b59ce90	0.0033234693
144	0x3aff3a2d	0.0019472294
145	0xbabfa475	-0.0014621156
146	0xbb6849df	-0.0035444421
147	0xbb4e4e45	-0.0031479758
148	0xbb619bd7	-0.0034425163
149	0xbbadb43e	-0.0053010276
150	0x3b2bbc6b	0.0026204835
151	0x3b305473	0.0026905804
152	0x3b92f9a7	0.0044853273
153	0x3b24e99c	0.0025163656
154	0xbb7158a6	-0.003682652
155	0x3b4856c6	0.00305693
156	0x3b2fac10	0.0026805438
157	0x3b357ff2	0.002769467
158	0xbba0b3b4	-0.004904235
159	0xbb209330	-0.0024501793
160	0x3abbc5ed	0.0014325954
161	0xb9a5181a	-0.0003148921
162	0xbad8d0d7	-0.0016541731
163	0x3b8a8080	0.004226744
164	0x3c1d9339	0.00961762
165	0xba97499a	-0.0011542321
166	0xba9c5db0	-0.0011929777
167	0x3badc0f4	0.005302543
168	0x3b5365af	0.0032256653
169	0x3b5af936	0.0033412701
170	0xbb1554ad	-0.0022786066
171	0x3b4704b4	0.0030367794
172	0xbb249c5f	-0.0025117618
173	0x3aa82144	0.0012827297
174	0x3a33bd34	0.00068565016
175	0xbb2a056f	-0.002594318
176	0xbb44025d	-0.0029908635
177	0xbb4bf291	-0.0031119923
178	0xbb0ea441	-0.0021765383
179	0x3b224039	0.0024757518
180	0x3b07298f	0.0020624136
181	0xba286564	-0.00064238

base.mlp.fc1.0.weight f4 [64, 182]
0	0xbdf2f6bf	-0.11863469
1	0x3d783716	0.06059941
2	0xbda989dd	-0.082782485
3	0xbd191da4	-0.037381783
4	0xbe80bc15	-0.25143495
5	0xbd8f9d73	-0.07012453
6	0xbd31340b	-0.043262523
7	0xbe0b3254	-0.13593417
8	0xbd3e4954	-0.04645665
9	0x3e30477c	0.17214769
10	0x3d98c775	0.074599184
11	0xbe1c89b4	-0.15286905
12	0x3d5fbf51	0.054625813
13	0x3d4ff168	0.050767332
14	0x3da5793a	0.08079763
15	0xbe11ecc9	-0.14250483
16	0xbc2d25b6	-0.010568073
17	0xbe1e4a51	-0.15458037
18	0x3da22194	0.07916561
19	0xbc92c380	-0.017915487
20	0xbe50f3ce	-0.20405504
21	0x3e587838	0.2113961
22	0x3ca632e8	0.020287946
23	0xbe322736	-0.1739777
24	0x3d9a225f	0.07526087
25	0xbe164c9e	-0.14677665
26	0x3e39e7f1	0.18154885
27	0xbe49ff2c	-0.19726247
28	0x3e322e6f	0.17400526
29	0x3e822920	0.25422
30	0xbda4d11f	-0.08047699
31	0xbc6fd215	-0.01463749
32	0xbe7d181b	-0.24716227
33	0xbe15bbe6	-0.14622459
34	0xbd84dd10	-0.06487477
35	0xbdf945c0	-0.12171507
36	0x3e132cc3	0.14372544
37	0xbe4cc813	-0.19998197
38	0x3d045062	0.03230322
39	0x3de98070	0.11401451
40	0xbdb1f678	-0.08689588
41	0x3deff9b0	0.11717546
42	0xbc90a60f	-0.017657308
43	0xbdae2113	-0.08502402
44	0xbdef4145	-0.11682371
45	0x3e93d015	0.28869691
46	0x3d8753cb	0.06607779
47	0xbe01622b	-0.12635104
48	0x3ddd38e4	0.10801867
49	0xbdc3731a	-0.09543438
50	0x3d7bd37b	0.06148098
51	0xbc10731d	-0.008816508
52	0x3d4bbb66	0.049739264
53	0xbd3ee124	-0.04660143
54	0x3de15aef	0.11003672
55	0xbc55c1d3	-0.0130467
56	0xbe1178b3	-0.142062
57	0x3d4c8967	0.049935725
58	0x3d12daab	0.03585307
59	0x3cec40f0	0.028839558
60	0x3e4e85e8	0.20168269
61	0xbdd9a6cf	-0.10627519
62	0xbbcbf0ca	-0.0062237727
63	0x3c8d72e3	0.017266696
64	0x3e82913f	0.2550144
65	0x3c4b3b53	0.012404281
66	0x3d8095c2	0.06278564
67	0x3d287aa5	0.041132588
68	0xbdcd0f39	-0.10012669
69	0x3cd6da32	0.02622709
70	0x3d9f3964	0.07774618
71	0xbdcb7035	-0.09933511
72	0x3d470b97	0.048595037
73	0xbd88a7bd	-0.066726185
74	0x3d2fde26	0.042936467
75	0xbb4c1847	-0.00311424
76	0x3d1c90cb	0.038224023
77	0x3e5b2ed5	0.21404584
78	0x3acd1945	0.001564779
79	0xbd3401a0	-0.043946862
80	0xbde95112	-0.11392416
81	0x3ce7dfe1	0.028304996
82	0x3dbb6320	0.09149766
83	0xbe83b2b4	-0.25722277
84	0xbdde2a4d	-0.10847912
85	0x3d29bf30	0.041442096
86	0x3c0c01c1	0.00854534
87	0xbd9f4439	-0.07776684
88	0x3dec7f57	0.11547726
89	0x3e787866	0.24264678
90	0xbbe06bc7	-0.0068487856
91	0xbd919bae	-0.07109772
92	0xbd84bbde	-0.06481145
93	0xbb822408	-0.0039715804
94	0x3e0adcb5	0.13560756
95	0xbd9ca642	-0.07648899
96	0xbc9d048d	-0.019167209
97	0x3e16c314	0.14722854
98	0xbcd8febd	-0.026488656
99	0xbdb9119f	-0.09036564
100	0x3cd67c93	0.026182448
101	0xbcb5e133	-0.02220211
102	0xbd52229c	-0.051302537
103	0x3dfede31	0.124447234
104	0x3e4f35d2	0.20235375
105	0x3e197d7b	0.14989273
106	0x3e49362b	0.1964957
107	0x3df2ca98	0.11855048
108	0xbdfb0b58	-0.12258023
109	0xbe9c8617	-0.30571052
110	0x3e47419f	0.19458626
111	0x3dd74232	0.10510673
112	0x3d470870	0.04859203
113	0xbc94b11d	-0.01815086
114	0x3d6fee1e	0.058576696
115	0x3e013d7e	0.12621114
116	0xbcc36766	-0.023853015
117	0xbe5baeab	-0.2145335
118	0x3df56aba	0.11983247
119	0x3dd863b5	0.105658926
120	0x3dc25c4d	0.09490261
121	0xbd90a7a9	-0.07063229
122	0xbe3a2887	-0.18179522
123	0xbcfb3729	-0.03066595
124	0x3e7bf9f4	0.24607068
125	0x3c579107	0.013157136
126	0xbc3893d1	-0.011265711
127	0xbaea2e45	-0.0017866573
128	0xbd8387fa	-0.0642242
129	0xbc419fff	-0.011817931
130	0xbe15971d	-0.14608426
131	0x3dd03b6e	0.10167585
132	0x3dce5dff	0.10076522
133	0x3ea00c89	0.31259564
134	0xbd9facf4	-0.0779666
135	0xbc65dd7d	-0.014029858
136	0xbe2163a9	-0.15760674
137	0xbe030d37	-0.1279801
138	0x3d979ec6	0.074033305
139	0x3d961e76	0.07330029
140	0xbb86d27a	-0.004114446
141	0xbe0ae11b	-0.13562433
142	0xbe6066c0	-0.21914196
143	0x3d496a3a	0.04917357
144	0x3e2626cc	0.16225737
145	0xbdd56e0d	-0.10421381
146	0xbd013654	-0.031545952
147	0x3d3c9b75	0.046046693
148	0x3b3539e6	0.0027652918
149	0xbdaa82c7	-0.08325725
150	0xbdac3091	-0.08407701
151	0xbd837031	-0.06417883
152	0x3d8d2122	0.06891085
153	0xbd378148	-0.044801027
154	0xbe3d8560	-0.1850791
155	0xbca1becc	-0.0197443
156	0x3d932d3b	0.071863614
157	0xbdbadc00	-0.09123993
158	0x3e229a83	0.15879254
159	0x3dc9dba3	0.098563455
160	0x3d178ee5	0.03700151
161	0x3e258a5d	0.16166063
162	0xbd0086aa	-0.031378426
163	0x3e967f18	0.2939384
164	0x3e43d1d6	0.19123015
165	0x3e400820	0.187531
166	0x3e6ae356	0.22938284
167	0xbdb555ea	-0.088542774
168	0x3e15b1ee	0.14618656
169	0xbd6fab2a	-0.058512844
170	0x3e7ea19d	0.24866338
171	0xbe77d482	-0.24202159
172	0x3dadb0de	0.08481
173	0xbd4dbd4b	-0.050229352
174	0xbd351ca5	-0.04421677
175	0xbe510b7b	-0.20414536
176	0x3d38f88d	0.04515891
177	0x3c00dcda	0.007865155
178	0x3dbc0934	0.09181443
179	0x3e15cb23	0.14628272
180	0x3d69e8ad	0.057106663
181	0xbd86794b	-0.065661035
182	0x3d5c7d3c	0.05383037
183	0x3dc09f18	0.09405345
184	0xbd463cfb	-0.048398
185	0x3df6b45c	0.120461196
186	0x3df86b7e	0.121298775
187	0x3e0584a2	0.13038877
188	0x3d3f475e	0.04669892
189	0x3e217f4d	0.15771218
190	0xbe12c1f7	-0.14331804
191	0x3db6111b	0.08889981
192	0xbd77719d	-0.060411084
193	0x3d1fe3b8	0.03903553
194	0x3d21348f	0.039356764
195	0xbd15790f	-0.036492404
196	0x3d6e1a8f	0.058130797
197	0x3e1ef017	0.15521275
198	0xbdf2312c	-0.11825785
199	0xbdf6d337	-0.12052005
200	0xbeabd977	-0.3356435
201	0x3ddaa873	0.106766604
202	0xbdb5a14f	-0.08868658
203	0xbdf542ea	-0.119756535
204	0xbcf3d17e	-0.02976298
205	0xbc53af57	-0.012920222
206	0xbe671f9b	-0.2257065
207	0x3e1448f3	0.14480953
208	0x3d7a3706	0.06108763
209	0xbd924730	-0.07142484
210	0x3ce886f5	0.028384665
211	0xbd15947c	-0.03651856
212	0x3da5541b	0.080726825
213	0x3d3315b6	0.043721877
214	0x3db25a72	0.08708657
215	0x3b730c6f	0.0037086268
216	0x3e068bb3	0.13139229
217	0xbd9ee5ef	-0.077587
218	0xbe2fc415	-0.17164643
219	0xbe21c893	-0.15799169
220	0x3e410357	0.1884893
221	0xbd4f1b65	-0.050563235
222	0x3e158d62	0.14604715
223	0x3e7b26e8	0.2452656
224	0x3e2f627b	0.17127411
225	0x3d6dfe92	0.058104105
226	0xbe43d69f	-0.1912484
227	0x3cea6df8	0.02861689
228	0x3e11b510	0.14229226
229	0x3d74ab68	0.05973378
230	0xbc43faa1	-0.01196161
231	0xbd8222ea	-0.063543156
232	0xbdce9593	-0.10087123
233	0xbd7a0162	-0.061036475
234	0x3db888fc	0.09010503
235	0x3df4a679	0.11945815
236	0xbe19f758	-0.1503576
237	0xbdcbb9b9	-0.09947533
238	0x3b66a222	0.0035191854
239	0x3ca286c7	0.019839657
240	0xbe9d671f	-0.30742738
241	0x3b5707fd	0.0032811158
242	0xbd400182	-0.046876438
243	0xbe27eb0c	-0.16398257
244	0x3e648ad2	0.22318581
245	0x3e1495ec	0.14510316
246	0xbd813314	-0.063085705
247	0x3e3fc35e	0.1872687
248	0xbcef5272	-0.029214118
249	0x3cc79274	0.024361826
250	0x3e4b1bfb	0.19834892
251	0xbd03cb42	-0.032176264
252	0xbd36dbb1	-0.044643108
253	0xbdf69032	-0.12039222
254	0xbe88c82b	-0.26715216
255	0xbd803ad0	-0.062612176

base.mlp.fc1.0.bias f4 [64]
0	0x3b77d8bc	0.0037818393
1	0x3a984705	0.0011617845
2	0xbb36a9c8	-0.0027872194
3	0x3b66df3f	0.003522828
4	0x3ad88ad6	0.0016520869
5	0xbb8d3716	-0.0043095453
6	0x3b3bbaef	0.0028645357
7	0x3b3933ee	0.0028259712
8	0xbb7984e7	-0.00380736
9	0xbaad6f7c	-0.0013232077
10	0xbc0e59df	-0.008688419
11	0xbab89e34	-0.0014085234
12	0x3b1a017b	0.0023499418
13	0x3a955324	0.0011392576
14	0x3b4b6a3b	0.003103866
15	0x3ba7d921	0.0051223193
16	0xba619faa	-0.00086068606
17	0x3b53b029	0.0032301045
18	0x3a9408bf	0.001129411
19	0x3b943771	0.0045232107
20	0x3ad07c15	0.001590612
21	0x3a1032fd	0.0005500762
22	0xbb7f11c3	-0.00389205
23	0x3b4f1acc	0.0031601666
24	0x3b4f0123	0.003158637
25	0x3b11c200	0.0022240877
26	0xbb54bf08	-0.0032462496
27	0x3b939542	0.004503877
28	0xbb7b88df	-0.0038381142
29	0xbb95df57	-0.0045737433
30	0xbb4ecd13	-0.003155534
31	0xb9a1ed32	-0.00030885037
32	0x3acacec6	0.0015473
33	0xba31f151	-0.0006787973
34	0xbb0f4c9a	-0.0021865726
35	0x3b2dcbc8	0.0026519168
36	0x3a8319cb	0.0010002194
37	0xbadbd47f	-0.0016771703
38	0xbb097c19	-0.002097851
39	0x3b190ac6	0.0023352369
40	0xbba5a21f	-0.0050547267
41	0x3a33bed4	0.0006856744
42	0xb9e3c41e	-0.00043442933
43	0xbb48cc26	-0.003063926
44	0x3aa468c9	0.0012543435
45	0x3b4d61c6	0.0031338795
46	0x3b4941a2	0.0030709286
47	0xbb446433	-0.002996695
48	0xbad83dea	-0.0016497944
49	0x3b21e4ad	0.0024702952
50	0x3b559f2c	0.0032596095
51	0xbade3939	-0.001695431
52	0xbb8b5fb7	-0.0042533535
53	0x3b532e98	0.0032223817
54	0x39247147	0.00015682458
55	0xba8071d1	-0.0009799545
56	0xbb08e141	-0.0020886215
57	0xbb4ed7ef	-0.0031561812
58	0xbb86f103	-0.0041180863
59	0x3af2e3c5	0.0018531015
60	0xba0852c3	-0.0005200321
61	0x3ba7f134	0.005125189
62	0xbb8c9165	-0.0042897933
63	0x3b4b7fc4	0.0031051496

base.mlp.fc1.2.weight f4 [64]
0	0x3f80b5c8	1.0055475
1	0x3f80722b	1.0034841
2	0x3f806269	1.0030032
3	0x3f7fe4d9	0.9995857
4	0x3f7ec74d	0.9952286
5	0x3f7eff09	0.996079
6	0x3f7e8b3b	0.994312
7	0x3f7ea448	0.99469423
8	0x3f804667	1.0021485
9	0x3f806178	1.0029745
10	0x3f7e44dd	0.9932383
11	0x3f7f3a7d	0.9969862
12	0x3f7fd735	0.99937755
13	0x3f7f553f	0.9973945
14	0x3f803e5b	1.0019029
15	0x3f7f3c7b	0.9970166
16	0x3f803113	1.0014976
17	0x3f7f22d8	0.9966254
18	0x3f7fd12a	0.99928534
19	0x3f808c45	1.0042807
20	0x3f7f1252	0.9963733
21	0x3f801fd3	1.0009712
22	0x3f806438	1.0030584
23	0x3f7f5039	0.99731785
24	0x3f7fa149	0.99855477
25	0x3f7f17f3	0.9964592
26	0x3f7f0424	0.99615693
27	0x3f810dee	1.0082376
28	0x3f805465	1.0025755
29	0x3f7f08d9	0.99622875
30	0x3f7f2b2f	0.9967527
31	0x3f7f933d	0.9983404
32	0x3f7f84d0	0.9981203
33	0x3f7f5407	0.9973759
34	0x3f7f2ac0	0.99674606
35	0x3f8071cc	1.0034728
36	0x3f7ef275	0.9958871
37	0x3f8026d6	1.0011852
38	0x3f800fad	1.0004784
39	0x3f803f76	1.0019367
40	0x3f808090	1.0039234
41	0x3f7fc025	0.99902564
42	0x3f805025	1.0024458
43	0x3f803b92	1.001818
44	0x3f7fd7fc	0.9993894
45	0x3f7f4c34	0.9972565
46	0x3f805fd4	1.0029244
47	0x3f7f4bbb	0.9972493
48	0x3f7f5edb	0.9975411
49	0x3f7f4fbb	0.99731034
50	0x3f80321a	1.001529
51	0x3f7f62ed	0.99760324
52	0x3f807f59	1.0038863
53	0x3f8035f7	1.0016469
54	0x3f7ebec9	0.99509865
55	0x3f7f3301	0.996872
56	0x3f7f50e6	0.99732816
57	0x3f805e43	1.0028766
58	0x3f8070fb	1.0034479
59	0x3f7f1cfd	0.9965361
60	0x3f7f3c53	0.9970142
61	0x3f80b05f	1.0053824
62	0x3f808e57	1.0043439
63	0x3f806779	1.0031577

base.mlp.fc1.2.bias f4 [64]
0	0x3bb177e8	0.0054159053
1	0xbb73a2d8	-0.003717592
2	0xbb435b74	-0.002980915
3	0x3a4257cc	0.00074135954
4	0xbb9be22c	-0.0047571864
5	0xbb819b0e	-0.0039552515
6	0x3b42768c	0.002967271
7	0x3b2489ed	0.0025106624
8	0xbb494aa9	-0.0030714667
9	0xbbdeb77c	-0.0067967754
10	0xbbdecdea	-0.006799449
11	0xbb40d38c	-0.0029422967
12	0xba37be88	-0.00070092874
13	0x3b1f7c4b	0.002433556
14	0x3b2cecb6	0.0026386208
15	0xbb394995	-0.0028272618
16	0xbadb2fe8	-0.0016722651
17	0x3b5cbb24	0.003368088
18	0xba45a03e	-0.00075388316
19	0x3b8f788b	0.0043783835
20	0x3b653725	0.0034975496
21	0xbae8d084	-0.0017762338
22	0xbb547d5d	-0.0032423355
23	0x3b449f59	0.0030002205
24	0x3b61219a	0.0034352303
25	0x3b2fa312	0.0026800078
26	0xbb71efb7	-0.0036916563
27	0x3c03f579	0.008054131
28	0xbb39f896	-0.0028376929
29	0xbb7bb945	-0.003840999
30	0xbb52f50b	-0.0032189514
31	0xbad2fe54	-0.0016097524
32	0x3aec6f56	0.0018038552
33	0xbb00a55c	-0.0019629812
34	0xbb3161f0	-0.0027066432
35	0x3b5d70a7	0.003378907
36	0xb86f0c42	-5.6993456e-05
37	0xbaf7782b	-0.0018880417
38	0xbb1a4712	-0.0023540896
39	0x3b0104e1	0.0019686746
40	0xbb822553	-0.0039717345
41	0x3a4eda32	0.000789079
42	0xbb1daa5a	-0.0024057836
43	0xbb09cee7	-0.0021027864
44	0xb980fc2f	-0.00024601954
45	0x3b2ec2bf	0.002666637
46	0x3b41dd23	0.002958127
47	0xbb3878a4	-0.002814808
48	0xbb1b6977	-0.0023713985
49	0x3b252030	0.0025196187
50	0x3b11e75b	0.0022263143
51	0xbb1d9d77	-0.0024050155
52	0xbb7ed7c1	-0.0038885924
53	0x3af3be64	0.001859617
54	0xbba185a8	-0.004929263
55	0xbb31a1fd	-0.002710461
56	0xbb303b41	-0.0026890787
57	0xbb3ee4e8	-0.0029128138
58	0xbb60d725	-0.0034307924
59	0xbb5cf368	-0.0033714417
60	0xbb0df139	-0.0021658672
61	0x3bb61e6c	0.005557826
62	0xbb8e4419	-0.004341614
63	0x3b51732c	0.0031959517

base.mlp.fc_h.0.weight f4 [64, 64]
0	0xbe488922	-0.19583562
1	0xbe930027	-0.28711054
2	0xbe9a62fe	-0.3015365
3	0x3e5d18ce	0.21591493
4	0xbeca3d3f	-0.39499852
5	0x3d875ec4	0.06609872
6	0x3ea21086	0.3165323
7	0xbe23f746	-0.16012296
8	0x3da945a9	0.0826524
9	0xbdaa9228	-0.08328658
10	0xbcf787c2	-0.030216102
11	0xbc2901ba	-0.010315353
12	0xbcd456e8	-0.025920346
13	0x3df4bb89	0.11949832
14	0x3e14a75f	0.14516972
15	0x3ea9c8c5	0.33160987
16	0xbdd4bc4d	-0.10387478
17	0x3d9019e3	0.070361875
18	0x3dcd7088	0.10031229
19	0xbcc255f5	-0.023722628
20	0x3d6663a1	0.056247357
21	0x3d70fc33	0.058834266
22	0x3e2c2946	0.1681262
23	0xbe423789	-0.18966497
24	0x3c840cd4	0.016119398
25	0x3f0dffd7	0.55468506
26	0x3dda712c	0.10666117
27	0xbe5dc53f	-0.21657275
28	0xbe610456	-0.2197431
29	0xbae73f83	-0.0017642829
30	0xbd086e78	-0.033308476
31	0xbefc1706	-0.49236315
32	0xbca5a64b	-0.020220896
33	0xbe53815e	-0.20654818
34	0x3d0f0c7e	0.034924023
35	0xbe229c63	-0.1587997
36	0xbe8bc4ad	-0.2729849
37	0xbec6005d	-0.38672152
38	0xbd60e8f9	-0.05490968
39	0x3e0874e2	0.13325837
40	0x3e076069	0.13220371
41	0x3e2d06f9	0.16897191
42	0x3d811bfa	0.06304164
43	0x3d118974	0.035531476
44	0x3d789e59	0.060697887
45	0xbe791524	-0.24324471
46	0xbec03ab2	-0.3754478
47	0xbf084c50	-0.53241444
48	0xbc043646	-0.00806958
49	0xbdff2cab	-0.124596916
50	0xbe863055	-0.2620875
51	0x3e2a02d9	0.16602649
52	0x3e564ee7	0.20928536
53	0x3e322216	0.17395815
54	0x3b64c523	0.0034907542
55	0xbe5e20ca	-0.21692196
56	0xbe3ab501	-0.1823311
57	0xbeaec265	-0.34132686
58	0xbdac7d9f	-0.08422398
59	0xbd169b06	-0.036768936
60	0xbdcdecd7	-0.10054939
61	0xbdc8bf07	-0.098020606
62	0xbe65330f	-0.22382759
63	0xbd6b1a81	-0.057398323
64	0xbece5093	-0.40295848
65	0xbe2bf37a	-0.16792098
66	0x3d14f677	0.03636786
67	0x3d913829	0.0709079
68	0x3ef6e355	0.48220316
69	0xbea5abe1	-0.32357696
70	0x3cba39a5	0.022732565
71	0xbcc8a87f	-0.024494408
72	0x3e42def0	0.19030356
73	0x3db9abe5	0.090659894
74	0x3cb1fd4e	0.02172723
75	0xbe4f284d	-0.20230217
76	0x3de37f31	0.11108244
77	0x3e66a657	0.22524391
78	0x3dbc2b5e	0.09187959
79	0xbd92dd4a	-0.07171114
80	0xbf016f83	-0.5056078
81	0x3e7ea725	0.24868448
82	0xbc9b5cf9	-0.018965231
83	0xbd0ee649	-0.034887586
84	0x3ea85df6	0.32884187
85	0xbe48449d	-0.19557424
86	0x3dd3d7ae	0.10343872
87	0xbd480dab	-0.04884116
88	0x3d019529	0.03163639
89	0x3e4d9699	0.2007698
90	0xbe944833	-0.28961334
91	0xbdcec780	-0.10096645
92	0xbeb693ce	-0.3565964
93	0x3e096e2e	0.13420936
94	0x3ea3e6c4	0.32011998
95	0x3e298a00	0.16556549
96	0xbd1df220	-0.038560987
97	0x3d9df360	0.07712436
98	0xbea17fd0	-0.31542826
99	0xbdb99e4e	-0.09063397
100	0xbed149b0	-0.40876532
101	0x3ddcb2df	0.107763045
102	0x3e1636d1	0.14669348
103	0xbe8f6d45	-0.28013054
104	0xbe4f9d7f	-0.20274924
105	0xbe29406d	-0.16528483
106	0xbca61ae7	-0.0202765
107	0x3e80f020	0.251832
108	0xbe1a2087	-0.1505147
109	0x3ccbf21a	0.024895716
110	0xbe101439	-0.14070214
111	0x3da85f69	0.08221323
112	0x3e7ab6c1	0.24483778
113	0x3ca9134d	0.020639086
114	0x3daaaabf	0.083333485
115	0x3e3050d0	0.17218328
116	0xbd94cb7f	-0.07265376
117	0x3d7a71ac	0.061143562
118	0xbe945243	-0.2896901
119	0x3c413d52	0.011794405
120	0x3cfb9c35	0.030714134
121	0x3cecb17d	0.028893227
122	0xbd1e433d	-0.038638342
123	0xbd7831a6	-0.060594223
124	0xbe198712	-0.14992931
125	0xbe538b9b	-0.20658724
126	0x3eea9e85	0.45824066
127	0x3ec19db6	0.37815636
128	0x3e7e0bb7	0.24809156
129	0xbea35d6e	-0.3190722
130	0xbdb6e7f5	-0.08930961
131	0x3ea7169f	0.32634446
132	0x3e96d247	0.29457304
133	0x3ec39c3d	0.38205138
134	0x3d17bb12	0.03704364
135	0xbe602c76	-0.2189196
136	0x3c74e642	0.014947476
137	0xbcd77c10	-0.026304275
138	0x3cd4d654	0.025981106
139	0xbda21d85	-0.07915787
140	0xbe221a16	-0.15830263
141	0xbea7b3d1	-0.32754377
142	0x3e93bac0	0.28853416
143	0xbee0a324	-0.43874466
144	0x3d807bc6	0.06273608
145	0x3e92f7ce	0.28704685
146	0x3e08eb2e	0.13370964
147	0x3e2dc0cf	0.16968082
148	0xbe241424	-0.16023308
149	0x3e87e27e	0.26539987
150	0x3e19d426	0.15022334
151	0x3dd2cb96	0.10292737
152	0xbe947b33	-0.29000244
153	0xbd88bde3	-0.06676843
154	0x3df1706c	0.11789021
155	0xbc84018c	-0.016114019
156	0x3e7f4469	0.2492844
157	0x3e036878	0.1283282
158	0x3cdaa02a	0.0266877
159	0xbe6f999e	-0.23398444
160	0xbe938ce1	-0.2881842
161	0xbdb5d0fc	-0.08877751
162	0xbe1abc93	-0.15110998
163	0x3dac1dcf	0.08404123
164	0xbe19a10a	-0.15002838
165	0x3e0fb3f8	0.14033496
166	0xbe034467	-0.12819062
167	0x3e8e8b4d	0.27840653
168	0xbe73abb0	-0.23795962
169	0xbe885677	-0.26628467
170	0xbe084739	-0.1330842
171	0x3d37c8d0	0.044869244
172	0x3e8ad806	0.27117938
173	0x3d0767bf	0.033057924
174	0xbe6aebac	-0.22941464
175	0xbdf84e68	-0.1212433
176	0x3ca0ed3f	0.019644378
177	0x3dad8047	0.084717326
178	0x3e49c16c	0.19702691
179	0xbd7c3574	-0.061574414
180	0xbe8e98be	-0.27850908
181	0xbdb81370	-0.089880824
182	0xbf1562f1	-0.583541
183	0x3c5a735f	0.013333171
184	0xbd1d777e	-0.038444035
185	0x3e121f90	0.14269853
186	0xbd074d3c	-0.03303264
187	0xbddb61dc	-0.107120246
188	0xbebd3707	-0.36956045
189	0x3dcac363	0.09900548
190	0x3bc43c40	0.0059886277
191	0xbea16537	-0.31522533
192	0xbe619218	-0.22028387
193	0x3cba2023	0.022720402
194	0x3e20feaa	0.15722147
195	0x3dd921ba	0.10602136
196	0x3d95e7bc	0.073195904
197	0x3cc6ee9b	0.024283698
198	0xbe5dea8a	-0.21671501
199	0x3e627e68	0.22118533
200	0xbd163779	-0.036673997
201	0xbdc0d936	-0.0941643
202	0x3eca2f27	0.394891
203	0x3e59ad0d	0.2125742
204	0xbef1b6d5	-0.47209802
205	0xbd6b0024	-0.05737318
206	0x3d10f949	0.035393987
207	0x3e4f19e5	0.20224722
208	0x3e1db23f	0.15400027
209	0x3de009f0	0.109393954
210	0x3edb5a47	0.42842314
211	0xbe5e8222	-0.21729329
212	0xbe03dba7	-0.1287676
213	0xbe89e663	-0.26933584
214	0xbe5b692f	-0.21426843
215	0xbe72d89d	-0.23715444
216	0x3d472025	0.04861464
217	0x3e7cc31c	0.24683803
218	0x3e163346	0.14667997
219	0xbd7fd084	-0.062454715
220	0x3e66f6c0	0.22555065
221	0x3e68b084	0.22723585
222	0x3d9fb8ce	0.077989206
223	0xbeffb64c	-0.4994377
224	0xbe527075	-0.20550711
225	0x3d9f4517	0.0777685
226	0xbe8702d5	-0.26369348
227	0x3d0a1403	0.03371049
228	0x3dba3bfd	0.09093473
229	0x3e3444fd	0.17604442
230	0x3d7132c5	0.05888631
231	0xbe110718	-0.14162862
232	0x3b8ea6a5	0.0043533617
233	0xbdc6d7b5	-0.097091116
234	0x3e95a714	0.29229033
235	0xbe0a9c9f	-0.13536309
236	0xbeb75f57	-0.35814926
237	0x3ed07cf4	0.40720332
238	0x3dab6a8c	0.083699316
239	0x3dd2a6b4	0.10285702
240	0xbe15f59d	-0.14644475
241	0x3e73ffc3	0.23828034
242	0xbe12a5eb	-0.14321105
243	0x3d31cf77	0.043410745
244	0xbc9601d9	-0.018311428
245	0x3d8e033c	0.06934211
246	0x3bf89350	0.0075859204
247	0x3f047e53	0.51755255
248	0xbea4bf58	-0.32177234
249	0xbe11f420	-0.14253283
250	0xbdf6daac	-0.12053427
251	0x3e8c31d5	0.2738177
252	0xbdc57bf5	-0.096427836
253	0xbbcd9f18	-0.006275069
254	0x3d7ab8a6	0.06121125
255	0x3c173467	0.009228802

base.mlp.fc_h.0.bias f4 [64]
0	0x00000000	0.0
1	0x00000000	0.0
2	0x00000000	0.0
3	0x00000000	0.0
4	0x00000000	0.0
5	0x00000000	0.0
6	0x00000000	0.0
7	0x00000000	0.0
8	0x00000000	0.0
9	0x00000000	0.0
10	0x00000000	0.0
11	0x00000000	0.0
12	0x00000000	0.0
13	0x00000000	0.0
14	0x00000000	0.0
15	0x00000000	0.0
16	0x00000000	0.0
17	0x00000000	0.0
18	0x00000000	0.0
19	0x00000000	0.0
20	0x00000000	0.0
21	0x00000000	0.0
22	0x00000000	0.0
23	0x00000000	0.0
24	0x00000000	0.0
25	0x00000000	0.0
26	0x00000000	0.0
27	0x00000000	0.0
28	0x00000000	0.0
29	0x00000000	0.0
30	0x00000000	0.0
31	0x00000000	0.0
32	0x00000000	0.0
33	0x00000000	0.0
34	0x00000000	0.0
35	0x00000000	0.0
36	0x00000000	0.0
37	0x00000000	0.0
38	0x00000000	0.0
39	0x00000000	0.0
40	0x00000000	0.0
41	0x00000000	0.0
42	0x00000000	0.0
43	0x00000000	0.0
44	0x00000000	0.0
45	0x00000000	0.0
46	0x00000000	0.0
47	0x00000000	0.0
48	0x00000000	0.0
49	0x00000000	0.0
50	0x00000000	0.0
51	0x00000000	0.0
52	0x00000000	0.0
53	0x00000000	0.0
54	0x00000000	0.0
55	0x00000000	0.0
56	0x00000000	0.0
57	0x00000000	0.0
58	0x00000000	0.0
59	0x00000000	0.0
60	0x00000000	0.0
61	0x00000000	0.0
62	0x00000000	0.0
63	0x00000000	0.0

base.mlp.fc_h.2.weight f4 [64]
0	0x3f800000	1.0
1	0x3f800000	1.0
2	0x3f800000	1.0
3	0x3f800000	1.0
4	0x3f800000	1.0
5	0x3f800000	1.0
6	0x3f800000	1.0
7	0x3f800000	1.0
8	0x3f800000	1.0
9	0x3f800000	1.0
10	0x3f800000	1.0
11	0x3f800000	1.0
12	0x3f800000	1.0
13	0x3f800000	1.0
14	0x3f800000	1.0
15	0x3f800000	1.0
16	0x3f800000	1.0
17	0x3f800000	1.0
18	0x3f800000	1.0
19	0x3f800000	1.0
20	0x3f800000	1.0
21	0x3f800000	1.0
22	0x3f800000	1.0
23	0x3f800000	1.0
24	0x3f800000	1.0
25	0x3f800000	1.0
26	0x3f800000	1.0
27	0x3f800000	1.0
28	0x3f800000	1.0
29	0x3f800000	1.0
30	0x3f800000	1.0
31	0x3f800000	1.0
32	0x3f800000	1.0
33	0x3f800000	1.0
34	0x3f800000	1.0
35	0x3f800000	1.0
36	0x3f800000	1.0
37	0x3f800000	1.0
38	0x3f800000	1.0
39	0x3f800000	1.0
40	0x3f800000	1.0
41	0x3f800000	1.0
42	0x3f800000	1.0
43	0x3f800000	1.0
44	0x3f800000	1.0
45	0x3f800000	1.0
46	0x3f800000	1.0
47	0x3f800000	1.0
48	0x3f800000	1.0
49	0x3f800000	1.0
50	0x3f800000	1.0
51	0x3f800000	1.0
52	0x3f800000	1.0
53	0x3f800000	1.0
54	0x3f800000	1.0
55	0x3f800000	1.0
56	0x3f800000	1.0
57	0x3f800000	1.0
58	0x3f800000	1.0
59	0x3f800000	1.0
60	0x3f800000	1.0
61	0x3f800000	1.0
62	0x3f800000	1.0
63	0x3f800000	1.0

base.mlp.fc_h.2.bias f4 [64]
0	0x00000000	0.0
1	0x00000000	0.0
2	0x00000000	0.0
3	0x00000000	0.0
4	0x00000000	0.0
5	0x00000000	0.0
6	0x00000000	0.0
7	0x00000000	0.0
8	0x00000000	0.0
9	0x00000000	0.0
10	0x00000000	0.0
11	0x00000000	0.0
12	0x00000000	0.0
13	0x00000000	0.0
14	0x00000000	0.0
15	0x00000000	0.0
16	0x00000000	0.0
17	0x00000000	0.0
18	0x00000000	0.0
19	0x00000000	0.0
20	0x00000000	0.0
21	0x00000000	0.0
22	0x00000000	0.0
23	0x00000000	0.0
24	0x00000000	0.0
25	0x00000000	0.0
26	0x00000000	0.0
27	0x00000000	0.0
28	0x00000000	0.0
29	0x00000000	0.0
30	0x00000000	0.0
31	0x00000000	0.0
32	0x00000000	0.0
33	0x00000000	0.0
34	0x00000000	0.0
35	0x00000000	0.0
36	0x00000000	0.0
37	0x00000000	0.0
38	0x00000000	0.0
39	0x00000000	0.0
40	0x00000000	0.0
41	0x00000000	0.0
42	0x00000000	0.0
43	0x00000000	0.0
44	0x00000000	0.0
45	0x00000000	0.0
46	0x00000000	0.0
47	0x00000000	0.0
48	0x00000000	0.0
49	0x00000000	0.0
50	0x00000000	0.0
51	0x00000000	0.0
52	0x00000000	0.0
53	0x00000000	0.0
54	0x00000000	0.0
55	0x00000000	0.0
56	0x00000000	0.0
57	0x00000000	0.0
58	0x00000000	0.0
59	0x00000000	0.0
60	0x00000000	0.0
61	0x00000000	0.0
62	0x00000000	0.0
63	0x00000000	0.0

base.mlp.fc2.0.0.weight f4 [64, 64]
0	0xbe474a9f	-0.1946206
1	0xbe93be37	-0.2885606
2	0xbe9b1504	-0.3028947
3	0x3e5bab4f	0.21452068
4	0xbec99408	-0.3937075
5	0x3d8a088d	0.06739912
6	0x3e9f7316	0.3114249
7	0xbe26e995	-0.16300042
8	0x3da8f3ed	0.0824965
9	0xbdafbd1d	-0.08580992
10	0xbced29cb	-0.028950593
11	0xbc118968	-0.008882858
12	0xbcc9c0a6	-0.024627995
13	0x3df1835f	0.11792635
14	0x3e151a66	0.14560851
15	0x3eaa735f	0.33291146
16	0xbdd71858	-0.1050269
17	0x3d8d468b	0.06898221
18	0x3dd0dcff	0.10198402
19	0xbcb9db0b	-0.022687456
20	0x3d60eaf7	0.05491158
21	0x3d758635	0.059942443
22	0x3e2b0f87	0.16705142
23	0xbe440d53	-0.19145708
24	0x3c639116	0.013889572
25	0x3f0d5df9	0.55221516
26	0x3dddb049	0.10824639
27	0xbe5c67d8	-0.21523988
28	0xbe621cdb	-0.2208132
29	0xb9fb9579	-0.00047985816
30	0xbce07620	-0.027400076
31	0xbefb5ed3	-0.49095783
32	0xbcb11425	-0.021616051
33	0xbe51076a	-0.20412984
34	0x3d164b58	0.036692947
35	0xbe2137ae	-0.15743896
36	0xbe8c716d	-0.27430287
37	0xbec65325	-0.3873531
38	0xbd5c39ed	-0.05376618
39	0x3e09c450	0.13453794
40	0x3e061273	0.13092975
41	0x3e2b72d7	0.16743027
42	0x3d7cc5e8	0.061712176
43	0x3d0c90c1	0.034317736
44	0x3d7ecd9d	0.062207807
45	0xbe7ac1b7	-0.24487959
46	0xbebf9301	-0.37416843
47	0xbf07f6bf	-0.5311088
48	0xbbd6494b	-0.006539499
49	0xbe0123bc	-0.12611288
50	0xbe86a6a1	-0.26299003
51	0x3e2b5eda	0.16735402
52	0x3e54ecbb	0.2079343
53	0x3e3368ce	0.17520449
54	0x3b9cc391	0.0047840555
55	0xbe5c221f	-0.21497391
56	0xbe395b63	-0.18101268
57	0xbeaf64b8	-0.3425653
58	0xbdaf3eec	-0.08556923
59	0xbd117214	-0.035509184
60	0xbdc90cbe	-0.098168835
61	0xbdc66d00	-0.09688759
62	0xbe66968a	-0.22518364
63	0xbd65fc08	-0.05614856
64	0xbecfe4d1	-0.4060426
65	0xbe28be2a	-0.16478792
66	0x3d21d005	0.039505024
67	0x3d975d2f	0.0739082
68	0x3ef54f0c	0.4791187
69	0xbea740e7	-0.32666704
70	0x3cdbef23	0.026847428
71	0xbcb11377	-0.021615727
72	0x3e457214	0.19281799
73	0x3dc1cd3a	0.09462972
74	0x3c9910fa	0.018684853
75	0xbe526b2b	-0.20548694
76	0x3ddd2961	0.10798908
77	0x3e69f9b4	0.2284916
78	0x3db66dc7	0.08907657
79	0xbd9951b7	-0.07486289
80	0xbf00a80e	-0.5025643
81	0x3e80edab	0.25181326
82	0xbcb641bf	-0.022248147
83	0xbd1b2ef6	-0.037886582
84	0x3ea9f5e4	0.33195412
85	0xbe4ad116	-0.19806322
86	0x3dda11f1	0.10647953
87	0xbd3ad830	-0.04561633
88	0x3d0e5e59	0.034757946
89	0x3e5124c2	0.20424178
90	0xbe95e0ec	-0.29273164
91	0xbdd539ee	-0.1041144
92	0xbeb50a26	-0.35359305
93	0x3e064a02	0.13114169
94	0x3ea25abc	0.3170985
95	0x3e2654f3	0.16243343
96	0xbd10f443	-0.035389196
97	0x3d96c456	0.07361667
98	0xbea34795	-0.3189055
99	0xbdc00c35	-0.09377328
100	0xbecfef99	-0.40612486
101	0x3de268c9	0.110551424
102	0x3e1734f8	0.147663
103	0xbe9101cb	-0.2832168
104	0xbe4c6de4	-0.19963795
105	0xbe25f722	-0.16207555
106	0xbc8c10f6	-0.017097931
107	0x3e829026	0.25500602
108	0xbe1d5d7d	-0.15367694
109	0x3ce5a3e2	0.028032247
110	0xbe133e18	-0.14379156
111	0x3da20bae	0.07912384
112	0x3e7771da	0.24164525
113	0x3cc368ae	0.023853626
114	0x3da61a5a	0.08110495
115	0x3e2d24b6	0.16908535
116	0xbd8e5772	-0.069502726
117	0x3d6dc5ab	0.05804984
118	0xbe95e6ba	-0.29277593
119	0x3c0b2c2c	0.008494418
120	0x3ce23061	0.02761096
121	0x3d0322dd	0.03201567
122	0xbd116dac	-0.035504982
123	0xbd825e87	-0.06365686
124	0xbe1d2227	-0.1534506
125	0xbe56b34e	-0.20966837
126	0x3eec398f	0.46137664
127	0x3ec006b3	0.3750511
128	0x3e7bd3da	0.24592534
129	0xbea225be	-0.3166942
130	0xbdb230fb	-0.087007485
131	0x3ea84f09	0.328728
132	0x3e95abf4	0.29232752
133	0x3ec274c4	0.3797971
134	0x3d342b0a	0.043986358
135	0xbe5fb92c	-0.21847981
136	0x3c8141b4	0.0157784
137	0xbcabea77	-0.020985825
138	0x3cc2a361	0.023759546
139	0xbda6f86f	-0.08152854
140	0xbe246506	-0.16054162
141	0xbea670e6	-0.3250801
142	0x3e931318	0.28725505
143	0xbee1c55a	-0.4409588
144	0x3d84c47e	0.064827904
145	0x3e9428fd	0.28937522
146	0x3e068511	0.13136698
147	0x3e2bbd39	0.16771401
148	0xbe21be5f	-0.15795277
149	0x3e87547f	0.26431653
150	0x3e1bdf09	0.152218
151	0x3dd8a7a6	0.105788514
152	0xbe9315b5	-0.287275
153	0xbd8233fa	-0.0635757
154	0x3dec0194	0.115237385
155	0xbc96a4a5	-0.018389056
156	0x3e809df5	0.25120512
157	0x3e011954	0.12607318
158	0x3cc602bc	0.024171226
159	0xbe71f7a8	-0.2362963
160	0xbe9256de	-0.285819
161	0xbdbbd62c	-0.091717094
162	0xbe1dfc38	-0.15428245
163	0x3da750e7	0.08169728
164	0xbe19ed96	-0.15032038
165	0x3e11716e	0.14203426
166	0xbe034b04	-0.12821585
167	0x3e8d66c0	0.27617455
168	0xbe71695f	-0.23575352
169	0xbe87185d	-0.26385775
170	0xbe05f855	-0.13083012
171	0x3d40b769	0.047049914
172	0x3e898745	0.26861015
173	0x3d128b3f	0.035777327
174	0xbe6d3532	-0.23164824
175	0xbdfd0126	-0.12353735
176	0x3c8d2abc	0.017232291
177	0x3db28cc4	0.08718255
178	0x3e49dc02	0.19712833
179	0xbd82c327	-0.063848786
180	0xbe8d6f7f	-0.27624127
181	0xbdbc9614	-0.09208313
182	0xbf15f614	-0.5857861
183	0x3c2c82ac	0.0105292015
184	0xbd26ce85	-0.040724296
185	0x3e145e2e	0.14489052
186	0xbcfbd816	-0.030742686
187	0xbddfefe7	-0.109344296
188	0xbebee3be	-0.37283128
189	0x3dc69f81	0.09698392
190	0x3c07d24e	0.008289887
191	0xbea2877e	-0.31743997
192	0xbe6516dc	-0.22372001
193	0x3cd725a5	0.026263067
194	0x3e249b5c	0.1607489
195	0x3de06b42	0.10957958
196	0x3d8ec4f8	0.069711626
197	0x3caa5723	0.020793503
198	0xbe58017f	-0.2109432
199	0x3e655549	0.22395815
200	0xbd0b3fbc	-0.03399633
201	0xbdb99413	-0.09061446
202	0x3ec86b20	0.3914423
203	0x3e56026b	0.2089936
204	0xbef37f95	-0.47558275
205	0xbd5c28c6	-0.053749822
206	0x3d04c711	0.032416407
207	0x3e4b8500	0.19874954
208	0x3e212892	0.15738133
209	0x3de73e6e	0.112912044
210	0x3ed98836	0.42486733
211	0xbe61e68f	-0.22060607
212	0xbe00444f	-0.12526058
213	0xbe8b7be8	-0.2724297
214	0xbe57fb17	-0.21091877
215	0xbe6ef29b	-0.23334734
216	0x3d544253	0.051821064
217	0x3e8072e2	0.2508765
218	0x3e126f99	0.14300384
219	0xbd872738	-0.06599277
220	0x3e6a49a1	0.2287965
221	0x3e6523e1	0.22376968
222	0x3d95cd78	0.07314581
223	0xbf00c299	-0.5029693
224	0xbe4ec75c	-0.20193237
225	0x3d971dbb	0.073787175
226	0xbe8920d3	-0.26782855
227	0x3cf6d527	0.030130936
228	0x3dbcaa34	0.09212151
229	0x3e37568f	0.17904113
230	0x3d791089	0.060806785
231	0xbe149724	-0.1451078
232	0x3c000727	0.007814205
233	0xbdbf7aa3	-0.09349563
234	0x3e97741c	0.29580772
235	0xbe070cb5	-0.13188441
236	0xbeb940dd	-0.361823
237	0x3ed26c3d	0.41098204
238	0x3da44957	0.08021801
239	0x3dcb7823	0.09935024
240	0xbe1996e5	-0.14998968
241	0x3e77b280	0.24189186
242	0xbe148957	-0.14505516
243	0x3d23814d	0.039918233
244	0xbc72971a	-0.014806533
245	0x3d86e9c4	0.06587556
246	0x3b866d2d	0.0041023702
247	0x3f03850e	0.513749
248	0xbea68b94	-0.32528365
249	0xbe0e61d4	-0.13904506
250	0xbdefa480	-0.11701298
251	0x3e8a6bfb	0.27035508
252	0xbdcdf3f9	-0.100563
253	0xbc1e3180	-0.009655356
254	0x3d849589	0.06473834
255	0x3bbceb2b	0.005765339

base.mlp.fc2.0.0.bias f4 [64]
0	0x3aaf2797	0.0013363239
1	0xbb4ced2e	-0.00312693
2	0xbb14f1a9	-0.0022727048
3	0xbb66271d	-0.0035118528
4	0x3b470a5b	0.0030371163
5	0xbaea439f	-0.0017872936
6	0xb9d4269f	-0.00040464566
7	0x3b75c8c3	0.0037503697
8	0xbb3e208e	-0.0029011103
9	0x3b60bcd3	0.0034292236
10	0xbb44b844	-0.0030017057
11	0xbb40dd97	-0.0029428953
12	0xbb850d0d	-0.0040603937
13	0x3b56d023	0.0032777868
14	0xbb02d44b	-0.0019962962
15	0x3b039957	0.0020080411
16	0xbb1e3d2d	-0.002414535
17	0x3b1b2ddb	0.0023678455
18	0x3b5b3d49	0.0033453277
19	0x3b794144	0.0038033286
20	0xbbb3e23e	-0.0054896167
21	0x3b416e40	0.0029515177
22	0x3b60fe3b	0.003433122
23	0x3b6d3d48	0.0036199857
24	0xbbc3a69b	-0.0059707887
25	0x3b252440	0.0025198609
26	0xbac1a06c	-0.0014772541
27	0xbace4ae4	-0.0015738872
28	0x3a2cd770	0.0006593382
29	0xbb1a35da	-0.0023530633
30	0x3acbfd80	0.001556322
31	0x3aa0d3c1	0.0012270139
32	0xbb66a273	-0.0035192042
33	0xbab0e6be	-0.0013496501
34	0x3b0244cf	0.001987744
35	0xbb6e4152	-0.0036354852
36	0x3b4a23df	0.0030844135
37	0x3b1a9fbc	0.0023593744
38	0x3b23cba2	0.00249932
39	0xbb3d5e0b	-0.0028895165
40	0x3b4032e7	0.0029327215
41	0xb92a6fc7	-0.00016254104
42	0xbb37680e	-0.0027985605
43	0x3abe5e42	0.0014523941
44	0xbb6bcdef	-0.00359809
45	0x3b0ae862	0.002119564
46	0x3ad109a5	0.0015948309
47	0x3addfe57	0.0016936761
48	0xbb534ec3	-0.003224299
49	0xbb4b3d5a	-0.003101191
50	0xbb2748fe	-0.0025525684
51	0xbb37afeb	-0.002802844
52	0xbc2378d6	-0.00997754
53	0xbb415d2c	-0.0029504998
54	0xbb4057e3	-0.002934926
55	0x3b148c54	0.002266665
56	0x3b8a1e62	0.0042150477
57	0x3b70b1c7	0.0036727057
58	0xbb2f0e7a	-0.002671151
59	0x3b1b927b	0.0023738432
60	0x3b924391	0.004463621
61	0x3b5054b0	0.003178876
62	0xbb7529fc	-0.0037409058
63	0xbb80499b	-0.0039150245

base.mlp.fc2.0.2.weight f4 [64]
0	0x3f7f35a0	0.996912
1	0x3f805dca	1.0028622
2	0x3f7f32fa	0.9968716
3	0x3f804a88	1.0022745
4	0x3f7f53d8	0.9973731
5	0x3f7f3dee	0.9970387
6	0x3f7f3694	0.99692655
7	0x3f80541a	1.0025666
8	0x3f7f44ca	0.9971434
9	0x3f805b9d	1.0027958
10	0x3f804369	1.0020572
11	0x3f806045	1.0029379
12	0x3f8052a8	1.0025225
13	0x3f7fdf7a	0.99950373
14	0x3f806404	1.0030522
15	0x3f7f3497	0.9968962
16	0x3f7f059a	0.9961792
17	0x3f7f3f53	0.99706
18	0x3f802f9d	1.001453
19	0x3f805bbe	1.0027997
20	0x3f7f2566	0.9966644
21	0x3f7f409c	0.9970796
22	0x3f805899	1.0027038
23	0x3f7f3f29	0.9970575
24	0x3f7f295a	0.9967247
25	0x3f806021	1.0029336
26	0x3f7ef2cc	0.9958923
27	0x3f7f3d46	0.9970287
28	0x3f7f3819	0.99694973
29	0x3f7f2cb1	0.9967757
30	0x3f7f398b	0.9969718
31	0x3f7f39d0	0.9969759
32	0x3f805e49	1.0028774
33	0x3f7f28b7	0.996715
34	0x3f8060e4	1.0029569
35	0x3f8047e5	1.002194
36	0x3f805fa4	1.0029187
37	0x3f7f3ea6	0.9970497
38	0x3f7f1392	0.99639237
39	0x3f7fbf4f	0.9990129
40	0x3f7f619d	0.9975832
41	0x3f7f3c0e	0.9970101
42	0x3f804214	1.0020165
43	0x3f7f3f6f	0.99706167
44	0x3f805c97	1.0028256
45	0x3f7f39bc	0.9969747
46	0x3f7f0a9a	0.9962555
47	0x3f7eef2b	0.9958369
48	0x3f7f249c	0.99665236
49	0x3f80598a	1.0027325
50	0x3f7f1255	0.9963735
51	0x3f806069	1.0029422
52	0x3f80159a	1.0006592
53	0x3f805959	1.0027267
54	0x3f805d8c	1.0028548
55	0x3f7f3e68	0.997046
56	0x3f805d57	1.0028485
57	0x3f80552c	1.0025992
58	0x3f7e2cc5	0.9928706
59	0x3f7ee2cf	0.9956483
60	0x3f805a9d	1.0027653
61	0x3f805db4	1.0028596
62	0x3f7f47d4	0.99718976
63	0x3f803f61	1.0019342

base.mlp.fc2.0.2.bias f4 [64]
0	0x3b410b76	0.0029456294
1	0xbb3de9fb	-0.0028978575
2	0xbb434607	-0.0029796378
3	0xbb3c1782	-0.0028700535
4	0x3b3f46b1	0.0029186422
5	0xbb417b60	-0.0029523
6	0xbb40f11a	-0.0029440583
7	0x3b3ec350	0.0029108115
8	0xbb427c05	-0.0029675972
9	0x3b3f7c44	0.0029218355
10	0xbb3ca03c	-0.002878203
11	0xbb3ef797	-0.0029139274
12	0xbb36b077	-0.0027876177
13	0x3b356999	0.002768135
14	0xbb3ed0a5	-0.002911606
15	0x3b42450f	0.0029643213
16	0xbb4311f5	-0.0029765342
17	0x3b45188c	0.0030074446
18	0x3b3dbc7b	0.0028951454
19	0x3b3c8724	0.0028767074
20	0x3b5e74e4	0.0033944184
21	0x3b425473	0.0029652386
22	0x3b3b75d4	0.0028604167
23	0x3b422d88	0.002962919
24	0x3b5ecbe0	0.003399603
25	0x3b3ee697	0.0029129141
26	0xbb417b3f	-0.0029522923
27	0xbb42a1e7	-0.0029698552
28	0xbb45a585	-0.0030158472
29	0xbb411f9c	-0.0029468304
30	0xbb43df0b	-0.0029887583
31	0x3b430f97	0.002976393
32	0xbb3ea669	-0.0029090887
33	0xbb4494be	-0.0029995884
34	0x3b3e0f66	0.0029000877
35	0xbb3f7e74	-0.002921966
36	0x3b3ec3c9	0.0029108396
37	0x3b418e37	0.002953423
38	0x3b41f2e4	0.0029594237
39	0xbb43221b	-0.0029774967
40	0x3b478d18	0.0030449089
41	0xbb417ef7	-0.002952514
42	0xbb3f3884	-0.0029177973
43	0x3b4122f6	0.0029470301
44	0xbb3d02ad	-0.0028840706
45	0x3b43daee	0.002988513
46	0x3b43d69f	0.0029882563
47	0x3b412a85	0.0029474807
48	0xbb404943	-0.0029340542
49	0xbb3e796d	-0.0029064075
50	0xbb416ea2	-0.0029515405
51	0xbb3f9319	-0.0029231964
52	0xb9c1a664	-0.000369358
53	0xbb3ee786	-0.0029129698
54	0xbb3ef2c2	-0.0029136394
55	0x3b41b202	0.0029555564
56	0x3b3a2ba3	0.0028407357
57	0x3b3d58cc	0.0028892038
58	0xbb41383e	-0.0029482986
59	0x3b4133ac	0.0029480262
60	0x3b3f5e01	0.0029200318
61	0x3b3a7541	0.0028451236
62	0xbb41d53d	-0.0029576563
63	0xbb3ef155	-0.0029135544

v_out.weight f4 [1, 64]
0	0x3e856f6e	0.26061577
1	0xbd95a5fe	-0.07307051
2	0xbd5921db	-0.053010803
3	0xbd2a3197	-0.0415512
4	0x3e3766ae	0.17910263
5	0xbe1dc25e	-0.15406176
6	0xbe9fb72e	-0.31194443
7	0x3ddc7cd8	0.107659996
8	0xbda45e4c	-0.08025798
9	0x3e4552c3	0.19269852
10	0xbd14ccb4	-0.036328033
11	0xbdfb698a	-0.12275989
12	0xbcac2ccc	-0.021017455
13	0x3ca96925	0.02068002
14	0xbde30ea5	-0.110867776
15	0x3daf5f05	0.085630454
16	0xbd628a17	-0.055307474
17	0x3d0983c2	0.03357292
18	0x3da6191b	0.08110257
19	0x3d4557ef	0.048179563
20	0x3b44c015	0.0030021716
21	0x3dad31d2	0.08456768
22	0x3d1f5dbe	0.03890776
23	0x3dbd2090	0.092347264
24	0x3b48c57b	0.0030635286
25	0x3df20785	0.118178405
26	0xbe116915	-0.14200242
27	0xbd925883	-0.071457885
28	0xbcf15606	-0.029459964
29	0xbe6c51eb	-0.23078124
30	0xbd3ac15c	-0.045594558
31	0x3d770bc5	0.06031396
32	0xbdd10dc7	-0.10207706
33	0xbd11e808	-0.035621673
34	0x3d9ce13e	0.07660149
35	0xbe5a3a35	-0.21311267
36	0x3ddebe8a	0.10876186
37	0x3e13a7d9	0.14419498
38	0x3dc086d1	0.09400714
39	0xbd91f350	-0.07126486
40	0x3c971081	0.018440487
41	0xbe1b5731	-0.1516998
42	0xbd1a6c47	-0.037700918
43	0x3e6a6ebb	0.22893803
44	0xbd5cbea0	-0.05389273
45	0x3d3aa642	0.045568712
46	0x3d2fcfd3	0.042922806
47	0x3e472b5b	0.19450133
48	0xbe78e76b	-0.24307029
49	0xbdb774d4	-0.0895783
50	0xbe201d2d	-0.1563613
51	0xbe5805aa	-0.2109591
52	0xbb7ede45	-0.0038889807
53	0xbdfe5928	-0.12419349
54	0xbe01c110	-0.12671304
55	0x3e026d68	0.12737048
56	0x3cfb2d4b	0.030661246
57	0x3d7f6580	0.062352657
58	0xbdf8d512	-0.12150015
59	0x3e44cdf3	0.19219188
60	0x3e2ffa7d	0.17185397
61	0x3d01e861	0.031715754
62	0xbdf036f5	-0.11729232
63	0xbe0bd440	-0.13655186
