results/MyEnv/MyEnv/mappo/check/run3/models/critic_agent0.pt (torch, 48670 bytes, 15 tensors)

base.feature_norm.weight f4 [28]
1.1009561 1.004116 0.9902162 0.9956577 0.9798104 0.96716595 0.96693265 0.94890046
1.0233858 1.0153698 1.0001855 0.97363085 0.9850962 0.93683577 1.0406193 0.9555383
0.9459909 0.9607124 1.0352468 1.0377405 0.97213984 1.020844 0.9818842 0.9805311
0.9688735 1.0262208 0.97156125 1.0028499
00000000: 21ec 8c3f e086 803f cf7e 7d3f 6ce3 7e3f
00000010: dbd4 7a3f 3098 773f e688 773f 24eb 723f
00000020: 4efe 823f a3f7 813f 1406 803f df3f 793f
00000030: 442f 7c3f 78d4 6f3f 0333 853f 289e 743f
00000040: 762c 723f 3ff1 753f f882 843f aed4 843f
00000050: 28de 783f 04ab 823f c35c 7b3f 1604 7b3f
00000060: 1808 783f 345b 833f 3db8 783f 635d 803f

base.feature_norm.bias f4 [28]
-0.07715 0.016407138 -0.0018335128 0.021992845 0.011767319 -0.002946235 -0.028903501 -0.0110485535
-0.028882142 -0.022592193 -0.02948365 0.0160917 -0.058620315 -0.016610939 -0.013080842 0.03961449
0.006056928 0.0032767898 -0.009156599 -0.018750586 0.021916037 -0.013748054 0.031201355 0.0032299033
-0.009468882 -0.048858814 -0.02750303 0.0130417235
00000000: d200 9ebd 4368 863c 7b52 f0ba 572a b43c
00000010: b7cb 403c 9f15 41bb 09c7 ecbc fe04 35bc
00000020: 3e9a ecbc 4313 b9bc b287 f1bc bed2 833c
00000030: db1b 70bd aa13 88bc 0751 56bc ce42 223d
00000040: 3279 c63b 69bf 563b 8f05 16bc d49a 99bc
00000050: 4389 b33c 853f 61bc fc99 ff3c c9ac 533b
00000060: 5f23 1bbc 2e20 48bd 094e e1bc f4ac 553c

base.mlp.fc1.0.weight f4 [64, 28]
0.1714445 0.08200185 0.06531392 -0.019104278 0.1725823 0.12915067 -0.1867393 -0.033154428
0.03522391 0.020246627 -0.10727246 0.3514347 0.010027696 -0.20608765 0.1527409 0.21182004
-0.051589884 0.31279793 0.06649266 -0.08773866 -0.16910249 -0.022125449 -0.29801038 -0.0666471
0.01605678 0.23679076 -0.14959693 0.1353784 0.16164902 0.017371949 -0.0050179083 -0.10122663
0.42075244 0.20207356 0.38748553 0.38809568 0.004157803 -0.22424084 -0.025206327 -0.07991432
-0.12824313 0.113546304 0.16997446 -0.0957047 -0.18442045 -0.20853665 -0.44563556 -0.097364515
-0.32312664 -0.2987786 -0.11590896 0.27517894 0.1868489 -0.08650607 -0.20496131 -0.32155606
0.09209455 0.18121403 0.0263179 -0.019598309 -0.048710473 -0.007377838 0.019526368 0.043225206
0.12493678 0.116740845 -0.15133847 0.05520085 0.35973972 0.33530456 -0.10444024 0.15353876
0.09279281 -0.031702675 0.18860681 -0.22918782 0.00017943524 -0.14895141 -0.1304715 0.13324498
-0.039661482 -0.01946047 0.004977194 -0.0018145557 0.33467224 -0.034896594 -0.072991036 -0.43532243
-0.20302413 -0.061331056 -0.13503206 0.09832254 -0.22517575 -0.24193138 0.059251692 0.044823386
-0.18886913 0.19140552 -0.11541497 0.11505661 0.0611275 -0.069193296 0.23624098 0.24139547
0.14926095 -0.14388868 0.0032025033 0.05516814 0.20306374 -0.020729339 0.018319707 0.4123998
-0.097288996 -0.01635527 -0.18135345 -0.07096786 -0.09717168 -0.16868277 0.18763594 -0.47226748
-0.07036982 0.12056763 0.07890679 -0.15984091 -0.32177946 -0.047059476 0.066617034 0.2797599
-0.0024107732 -0.09796874 0.02900995 -0.07449316 -0.20970933 -0.0045446884 -0.078576125 -0.18115957
0.1488974 -0.08500368 -0.12410479 0.0041541783 0.10688777 -0.07690986 -0.0939973 -0.006603852
0.06172483 -0.08643447 0.0877068 -0.09214618 0.27048585 -0.30855098 0.1984247 0.07551666
0.010780264 -0.17859738 -0.09599169 0.14367278 -0.06026663 -0.3310956 0.04963279 -0.33732578
0.35433143 -0.052431818 0.12357267 0.14901207 -0.023923606 -0.22947733 0.031399544 -0.047234736
-0.15840425 0.1782711 -0.08048271 0.115922235 0.057373416 -0.027537018 0.009094582 -0.041734472
0.071201555 0.04628831 -0.07718482 -0.15721266 0.058526214 -0.099390276 0.09527282 -0.29544604
0.08345456 -0.06817639 0.013561498 0.0711563 -0.27805266 -0.053704992 -0.030180048 -0.22664197
0.17287679 0.09899056 -0.24090958 0.028452152 0.31006238 -0.09808027 -0.062613145 0.39080572
-0.12326321 -0.14516492 -0.09026972 -0.058582228 0.11018263 -0.28304365 -0.20416418 -0.03162683
0.2634693 -0.15738133 -0.10454215 0.12438204 -0.14298643 -0.21562403 -0.32087734 0.18560007
0.005442428 0.08396206 0.110733025 -0.20110711 0.12992471 0.53317213 0.025250955 -0.008503571
-0.19146599 0.3547069 -0.06255436 0.14149669 0.03259995 0.1098863 -0.1738104 0.07400149
-0.4041048 -0.15985797 0.09181832 0.30050188 0.2099488 -0.007853677 0.051154923 -0.19400541
-0.045336865 0.08631389 -0.2259916 0.22162934 0.09154088 -0.2736108 -0.41360748 0.12735523
-0.3358549 0.16522409 0.0019202344 0.07476375 -0.36088875 0.32265022 0.16981861 0.09444175
00000000: 268f 2f3e 96f0 a73d 4ec3 853d 9380 9cbc
00000010: 6ab9 303e 1340 043e 9638 3fbe f0cc 07bd
00000020: f246 103d 41dc a53c aab1 dbbd 40ef b33e
00000030: 354b 243c a408 53be 1c68 1c3e 5ae7 583e
00000040: ea4f 53bd 0d27 a03e 4e2d 883d 54b0 b3bd
00000050: 3429 2dbe 6e40 b5bc d194 98be 467e 88bd
00000060: 8289 833c 4779 723e f02f 19be a3a0 0a3e
00000070: 5287 253e 9e4f 8e3c 446d a4bb e84f cfbd
00000080: dd6c d73e 5fec 4e3e 8164 c63e 7ab4 c63e
00000090: 2e3e 883b 649f 65be 807d cebc 1eaa a3bd
000000a0: 2b52 03be f78a e83d c90d 2e3e d300 c4bd
000000b0: b7d8 3cbe a28a 55be 582a e4be 0c67 c7bd
000000c0: db70 a5be 82f9 98be ad61 edbd 41e4 8c3e
000000d0: 5155 3f3e 182a b1bd 61e1 51be ffa2 a4be
000000e0: 119c bc3d 2c90 393e a398 d73c a28c a0bc
000000f0: a284 47bd cac1 f1bb c3f5 9f3c ea0c 313d
00000100: dbde ff3d d315 ef3d 79f8 1abe 491a 623d
00000110: ce2f b83e 0aad ab3e c4e4 d5bd 4439 1d3e
00000120: 280a be3d aada 01bd 2522 413e 36b0 6abe
00000130: c826 3c39 b886 18be 529a 05be 5f71 083e
00000140: 1474 22bd 906b 9fbc bb17 a33b 63d6 edba
00000150: 295a ab3e bbef 0ebd 537c 95bd 95e2 debe
00000160: 8fe5 4fbe 4636 7bbd d845 0abe 545d c93d
00000170: 7994 66be dcbc 77be e7b1 723d ba98 373d
00000180: e966 41be cfff 433e af5e ecbd cda2 eb3d
00000190: d460 7a3d 37b5 8dbd 28e9 713e 6030 773e
000001a0: ddd7 183e 8e57 13be 17e1 513b fdf7 613d
000001b0: f1ef 4f3e 93d0 a9bc 3613 963c 1126 d33e
000001c0: 743f c7bd 7dfb 85bc b8b4 39be 9957 91bd
000001d0: f201 c7bd 2dbb 2cbe a323 403e 0bcd f1be
000001e0: 0d1e 90bd 29ec f63d e299 a13d 56ad 23be
000001f0: 47c0 a4be 70c1 40bd 836e 883d b13c 8f3e
00000200: 10fe 1dbb d6a3 c8bd 46a6 ed3c df8f 98bd
00000210: 0bbe 56be 9ceb 94bb 85ec a0bd e581 39be
00000220: 8f78 183e 6916 aebd a72a febd c61f 883b
00000230: fae7 da3d eb82 9dbd a881 c0bd 2065 d8bb
00000240: 2dd3 7c3d 8e04 b1bd 9f9f b33d 23b7 bcbd
00000250: 1f7d 8a3e 65fa 9dbe d82f 4b3e 7ba8 9a3d
00000260: b49f 303c 3be2 36be 4b97 c4bd f51e 133e
00000270: 24da 76bd 5d85 a9be c14b 4b3d f7b5 acbe
00000280: ee6a b53e bfc2 56bd ab13 fd3d 9f96 183e
00000290: 70fb c3bc 1bfc 6abe cf9c 003d 3679 41bd
000002a0: b934 22be b38c 363e 1ed4 a4bd a368 ed3d
000002b0: 6300 6b3d 5095 e1bc 7101 153c c4f1 2abd
000002c0: 1fd2 913d d098 3d3d 1313 9ebd 5bfc 20be
000002d0: 2fb9 6f3d 218d cbbd 651e c33d b444 97be
000002e0: 39ea aa3d 10a0 8bbd 0c31 5e3c 65ba 913d
000002f0: eb5c 8ebe c4f9 5bbd 263c f7bc d514 68be
00000300: 9d06 313e 90bb ca3d 00b1 76be 7d14 e93c
00000310: 7fc0 9e3e 4fde c8bd 523b 80bd b017 c83e
00000320: 6c71 fcbd 1da6 14be 55df b8bd ebf3 6fbd
00000330: 6ea7 e13d 19eb 90be 6a10 51be 238b 01bd
00000340: 73e5 863e 9228 21be 321a d6bd 03bc fe3d
00000350: 096b 12be 8ccc 5cbe 094a a4be f20d 3e3e
00000360: 6556 b23b 4df4 ab3d ffc7 e23d 06ef 4dbe
00000370: fc0a 053e f87d 083f 17db ce3c 9052 0bbc
00000380: a90f 44be 259c b53e 801c 80bd 82e4 103e
00000390: 8687 053d 120c e13d 5afb 31be 188e 973d
000003a0: d3e6 cebe cfb1 23be 3e0b bc3d 62db 993e
000003b0: d1fc 563e b5ac 00bc d387 513d 5ba9 46be
000003c0: 26b3 39bd 56c5 b03d 586a 67be cdf2 623e
000003d0: c979 bb3d b716 8cbe 5cc4 d3be 6969 023e
000003e0: 2cf5 abbe 8130 293e 60b0 fb3a bd1d 993d
000003f0: 69c6 b8be 6932 a53e eee4 2d3e ad6a c13d

base.mlp.fc1.0.bias f4 [64]
-0.05738521 -0.005420105 -0.045799352 0.036028575 -0.020370014 0.033212446 -0.033013828 0.044149436
0.026125487 0.07879118 -0.0026583632 -0.023702363 -0.038147572 -0.037064817 -0.036383543 -0.037194468
-0.013925839 0.055553183 0.04081698 -0.020040201 0.011429517 -0.0120656565 0.068252794 0.013443441
-0.027624069 0.022601437 0.020707525 -0.047088556 0.11345726 -0.011201413 -0.023223542 -0.039973702
-0.031240182 0.019521099 -0.031978775 0.10000037 0.018453022 -0.027233887 0.0014473192 0.03341425
0.0080029955 0.040017087 0.012637612 0.05144378 0.08612855 0.02559415 0.06846492 0.024659561
-0.031525083 -0.029366639 0.044315815 0.0126671055 -0.019146232 0.030847017 -0.017906826 0.018779196
0.027005717 -0.03173741 0.026518136 -0.022329139 -0.03582933 0.022093322 0.040560164 0.026271272
00000000: c10c 6bbd 239b b1bb 1a98 3bbd b392 133d
00000010: 04df a6bc c609 083d 8239 07bd 0ad6 343d
00000020: 1e05 d63c 455d a13d ef37 2ebb 752b c2bc
00000030: a140 1cbd 47d1 17bd e906 15bd 3a59 18bd
00000040: 3429 64bc bc8b 633d b52f 273d 592b a4bc
00000050: de42 3b3c 08af 45bc 1fc8 8b3d e141 5c3c
00000060: df4b e2bc a626 b93c d4a2 a93c eedf 40bd
00000070: 485c e83d 2286 37bc 4c3f bebc 77bb 23bd
00000080: 69eb ffbc b6ea 9f3c 2dfc 02bd fecc cc3d
00000090: cb2a 973c 9a19 dfbc f9b3 bd3a 61dd 083d
000000a0: ff1e 033c f5e8 233d fd0d 4f3c b7b6 523d
000000b0: 2a64 b03d d3aa d13c 5637 8c3d d902 ca3c
000000c0: 7220 01bd 4e92 f0bc 8084 353d b189 4f3c
000000d0: 8fd8 9cbc e2b2 fc3c 56b1 92bc d4d6 993c
000000e0: 183b dd3c 16ff 01bd 903c d93c 99eb b6bc
000000f0: c7c1 12bd 0efd b43c 6a22 263d da36 d73c

base.mlp.fc1.2.weight f4 [64]
1.0281832 1.0077393 1.0738337 1.0244737 0.9522004 1.0123748 1.0136492 1.0189066
0.98318285 1.0455184 0.9848098 1.0076071 1.0291827 1.0365496 1.0177342 1.0330484
0.9820431 1.0221798 1.0319766 1.009977 1.0173488 0.9930192 1.0689602 0.98708
1.0065086 0.9558092 0.9527034 1.0533458 1.0428938 1.0148644 1.0636251 1.0047206
0.9673997 0.9829928 1.0449208 1.0538046 0.9707255 0.98738104 0.97128445 0.9756886
0.9594275 1.0242109 0.9579625 1.0368057 0.99922276 0.99750453 0.9985525 0.9782369
0.96669626 1.0336231 1.0328908 0.94901085 0.9567793 1.031146 0.99152434 0.9709865
0.9803933 0.96247303 0.9758998 0.9838792 1.0106906 1.0174937 1.0378642 0.9642344
00000000: 829b 833f 9afd 803f 6273 893f f421 833f
00000010: 68c3 733f 7f95 813f 42bf 813f 886b 823f
00000020: dfb1 7b3f 8cd3 853f 7f1c 7c3f 45f9 803f
00000030: 42bc 833f a8ad 843f 1d45 823f ee3a 843f
00000040: 2d67 7b3f cad6 823f cf17 843f ed46 813f
00000050: 7c38 823f 8236 7e3f b0d3 883f 46b1 7c3f
00000060: 46d5 803f e9af 743f 5fe4 733f 09d4 863f
00000070: 8b7d 853f 14e7 813f de24 883f af9a 803f
00000080: 82a7 773f 6ba5 7b3f f7bf 853f 12e3 863f
00000090: 7781 783f 01c5 7c3f 19a6 783f bac6 793f
000000a0: 0a9d 753f 5819 833f 083d 753f 0db6 843f
000000b0: 10cd 7f3f 755c 7f3f 23a1 7f3f bc6d 7a3f
000000c0: 6879 773f c34d 843f c435 843f 60f2 723f
000000d0: 7def 743f 98fc 833f 8ad4 7d3f 9292 783f
000000e0: 0efb 7a3f a264 763f 92d4 793f 82df 7b3f
000000f0: 4f5e 813f 3c3d 823f bcd8 843f 11d8 763f

base.mlp.fc1.2.bias f4 [64]
-0.056281015 -0.005053173 -0.07992054 0.025629193 -0.019537456 0.026721938 -0.03083773 0.04141971
0.024635712 0.06257498 0.005655202 -0.02470308 -0.048852153 -0.04065495 -0.04714734 -0.050645277
0.005096732 0.039846215 0.032895517 -0.016607653 0.013614051 -0.004683292 0.034603916 0.015615125
-0.10970415 0.021155233 0.019424608 -0.069790535 0.10696999 -0.015179659 -0.03243612 -0.07838618
-0.0244846 0.014591749 -0.04784391 0.07652299 0.017237203 -0.023901809 0.018708475 0.029641949
0.012668934 0.03314518 0.01946137 -0.012289989 0.10790735 0.019853322 0.07139167 0.01883032
-0.031234147 -0.026385764 0.03762052 0.018630456 -0.020523652 0.005098569 -0.02971302 0.01695625
0.02230146 -0.037045754 0.024871167 -0.038167834 -0.033763494 0.015456527 0.020511795 0.03303251
00000000: ec86 66bd 1695 a5bb 61ad a3bd 50f4 d13c
00000010: 040d a0bc f7e7 da3c 689f fcbc b7a7 293d
00000020: d5d0 c93c 5027 803d 464f b93b 1d5e cabc
00000030: 3219 48bd ce85 26bd 921d 41bd 6c71 4fbd
00000040: 7d02 a73b c935 233d 73bd 063d c60c 88bc
00000050: 780d 5f3c 4d76 99bb d6bc 0d3d 95d6 7f3c
00000060: 92ac e0bd bd4d ad3c 5b20 9f3c 57ee 8ebd
00000070: 1513 db3d 1bb4 78bc bddb 04bd ef88 a0bd
00000080: ee93 c8bc 3b12 6f3c faf7 43bd 16b8 9c3d
00000090: 0935 8d3c bacd c3bc 8442 993c acd3 f23c
000000a0: 5c91 4f3c 3ec3 073d 736d 9f3c f35b 49bc
000000b0: 87fe dc3d 6fa3 a23c cc35 923d 0b42 9a3c
000000c0: c1de ffbc f526 d8bc f917 1a3d e69e 983c
000000d0: 3821 a8bc e611 a73b b868 f3bc d5e7 8a3c
000000e0: 8db1 b63c 4abd 17bd 9ebe cb3c e055 1cbd
000000f0: 974b 0abd 5f3d 7d3c 5a08 a83c 194d 073d

base.mlp.fc_h.0.weight f4 [64, 64]
0.032056723 0.007818261 0.06556117 0.41587508 0.06462522 -0.38089994 0.11409276 0.08752151
0.051957063 0.076786876 0.1267702 -0.21503629 0.06754928 0.21181223 0.2824872 -0.33112696
-0.21318446 0.020685472 -0.0598458 0.079367206 -0.05149301 0.26217145 -0.078955434 -0.44446236
0.20674483 -0.27749583 0.1536322 -0.22745562 0.36879402 0.027774293 -0.16954538 -0.07769126
-0.10047986 -0.10892065 0.28038448 -0.10709859 0.063971624 0.030587545 0.10235745 0.00416454
-0.072533146 -0.07185884 0.0641473 -0.022786798 -0.113670185 0.1919837 0.032962434 0.06899923
-0.16979015 -0.107086994 0.02577307 0.003671276 0.14664318 0.28428313 0.24460866 -0.17497446
-0.0746696 0.0015769169 -0.04230647 -0.09422287 0.0075699836 -0.09476523 0.43075448 -0.039283447
-0.1937206 0.07413647 0.27236798 -0.24633233 -0.018836329 -0.3080867 -0.2629623 -0.24596624
0.020959387 0.08737923 0.29568708 -0.11251276 -0.07481489 -0.3160803 0.09738799 0.119842894
0.11777947 0.28806376 0.19152765 -0.004691324 0.33105975 -0.0064766216 -0.028302858 -0.106921285
-0.30825877 -0.11914261 0.020900128 0.026285771 0.06348939 -0.008145491 -0.15135786 -0.3135201
0.08014185 0.16486394 0.090905406 0.2372366 -0.19956452 -0.030006815 -0.10200646 0.22752032
-0.059229076 -0.27062553 -0.015147618 -0.026407717 -0.27830726 0.04833632 0.080108486 0.3254636
0.15566918 -0.16374896 0.03366438 -0.0510486 -0.0012758048 -0.12521107 0.31628388 0.120734766
-0.16120176 0.031430185 0.01529681 -0.20715506 -0.3224636 0.10276826 -0.16614228 -0.019898776
-0.03461019 -0.005786128 -0.03873329 0.119221166 0.10734651 -0.05159726 -0.33078402 -0.21980801
0.06537036 0.50633085 -0.016979586 0.031365536 -0.18393917 -0.20852831 -0.093845434 0.21846646
-0.063228324 0.17460625 -0.097525425 -0.28660285 0.065584205 0.14541303 -0.13973102 0.1965864
0.18633267 -0.032614984 0.1359508 -0.23459424 0.16009124 0.2140125 0.118063636 -0.15410128
-0.18271695 -0.26614818 -0.022994833 -0.28304625 0.1767099 0.15278845 -0.027738407 -0.06509404
-0.21996231 0.17556351 0.12382946 0.18247116 0.16601467 -0.19504526 0.0058825295 0.01651512
-0.25566363 0.077597134 -0.30156308 -0.21149467 -0.19754758 -0.26396385 -0.124017574 -0.28451335
0.042020157 0.21631488 0.066512324 -0.01610649 -0.2861036 -0.031848088 -0.015522605 -0.023848496
0.05032585 0.37334073 0.031019172 0.27643695 -0.012171238 0.24366437 -0.3534917 -0.109551266
0.037364867 -0.16427281 0.03842077 -0.306141 0.033113807 0.2767257 -0.07399155 0.22434257
0.25504988 0.17529514 0.12405893 0.26793224 0.14464433 -0.38172054 -0.010767063 -0.16698726
-0.065771654 -0.21952477 0.059758905 0.003082768 -0.079489164 0.014200697 0.13472286 0.07553275
-0.06823235 -0.14197265 -0.031415194 -0.38538295 -0.10927234 -0.017475745 -0.08846369 -0.13240546
0.020133043 0.18704897 0.13796763 0.41434714 0.124277405 0.10811267 -0.11599879 -0.16894472
-0.06705443 -0.3218176 0.075821586 0.06823662 -0.14313668 0.22934748 0.11211366 0.12476216
-0.13505293 -0.16982996 0.0864186 -0.2254454 0.02714966 0.018228604 -0.1544458 0.077135086
00000000: e94d 033d 2a18 003c ef44 863d 94ed d43e
00000010: 3a5a 843d 5105 c3be 77a9 e93d 7a3e b33d
00000020: eed0 543d 7042 9d3d 0cd0 013e 7932 5cbe
00000030: 4757 8a3d 4ee5 583e 2aa2 903e 7989 a9be
00000040: 074d 5abe 9474 a93c df20 75bd 468b a23d
00000050: 56ea 52bd 563b 863e 63b3 a1bd 9290 e3be
00000060: ebb4 533e ef13 8ebe c251 1d3e 20ea 68be
00000070: 92d2 bc3e ea86 e33c 4e9d 2dbe 981c 9fbd
00000080: 63c8 cdbd ca11 dfbd 8e8e 8f3e 8156 dbbd
00000090: 8e03 833d bb92 fa3c c8a0 d13d b276 883b
000000a0: 428c 94bd ba2a 93bd a95f 833d 61ab babc
000000b0: eacb e8bd 6097 443e 9e03 073d 784f 8d3d
000000c0: 78dd 2dbe 6d50 dbbd 0c22 d33c ca99 703b
000000d0: a129 163e 8f8d 913e b17a 7a3e 812c 33be
000000e0: 60ec 98bd 8db0 ce3a 8d49 2dbd ecf7 c0bd
000000f0: a00d f83b 4614 c2bd da8b dc3e aee7 20bd
00000100: b15e 46be ddd4 973d d173 8b3e 8b3e 7cbe
00000110: a54e 9abc 8abd 9dbe ffa2 86be 93de 7bbe
00000120: 05b3 ab3c e2f3 b23d 4c64 973e 176d e6bd
00000130: 8d38 99bd 47d5 a1be 5b73 c73d 3170 f53d
00000140: 5d36 f13d 187d 933e d31f 443e aeb9 99bb
00000150: aa80 a93e d739 d4bb 65db e7bc 8cf9 dabd
00000160: 18d4 9dbe 0a01 f4bd bf36 ab3c 4255 d73c
00000170: ba06 823d aa74 05bc 8efd 1abe b585 a0be
00000180: 6921 a43d 18d2 283e 9d2c ba3d 27ee 723e
00000190: a45a 4cbe dad0 f5bc c3e8 d0bd 16fb 683e
000001a0: 309a 72bd 6e8f 8abe b72d 78bc ff54 d8bc
000001b0: 4a7e 8ebe 4efc 453d eb0f a43d 2aa3 a63e
000001c0: be67 1f3e cfad 27be a9e3 093d 5618 51bd
000001d0: e838 a7ba 5537 00be f6ef a13e ca43 f73d
000001e0: 1312 25be f0bc 003d 799f 7a3c 7520 54be
000001f0: f319 a5be 2a78 d23d 3421 2abe c202 a3bc
00000200: 6ac3 0dbd 8f99 bdbb cca6 1ebd 3a2a f43d
00000210: 7dd8 db3d a657 53bd 865c a9be 5a15 61be
00000220: e5e0 853d e69e 013f c618 8bbc 2679 003d
00000230: 8d5a 3cbe 7288 55be 0932 c0bd acb5 5f3e
00000240: da7d 81bd fbcb 323e 69bb c7bd 9cbd 92be
00000250: 0351 863d 27e7 143e a615 0fbe f24d 493e
00000260: fecd 3e3e 4a97 05bd b036 0b3e 7939 70be
00000270: f5ee 233e 1826 5b3e 59cb f13d bacc 1dbe
00000280: 271a 3bbe 9344 88be a95f bcbc 70eb 90be
00000290: 71f3 343e 9374 1c3e a83b e3bc 0650 85bd
000002a0: cd3d 61be ecc6 333e 4d9a fd3d b8d9 3a3e
000002b0: c0ff 293e f2b9 47be 3cc2 c03b b84a 873c
000002c0: 58e6 82be 3feb 9e3d 7a66 9abe 0f92 58be
000002d0: ea49 4abe 4526 87be edfc fdbd bcab 91be
000002e0: 541d 2c3d a681 5d3e 9d37 883d c2f1 83bc
000002f0: 2c7c 92be 2473 02bd 8652 7ebc ec5d c3bc
00000300: 7a22 4e3d 8426 bf3e eb1b fe3c 2589 8d3e
00000310: df69 47bc 2783 793e ddfc b4be 6a5c e0bd
00000320: e70b 193d 2237 28be 195f 1d3d 83be 9cbe
00000330: 58a2 073d feae 8d3e e288 97bd 0fba 653e
00000340: e695 823e 9280 333e 9c12 fe3d 6a2e 893e
00000350: a51d 143e e070 c3be 5668 30bc b5fe 2abe
00000360: 4ab3 86bd 1acb 60be c1c5 743d 4408 4a3b
00000370: 37cb a2bd 0aaa 683c caf4 093e eab0 9a3d
00000380: 67bd 8bbd 4761 11be 38ad 00bd ea50 c5be
00000390: 2dca dfbd 4b29 8fbc 732c b5bd 4c95 07be
000003a0: 0dee a43c c489 3f3e 6347 0d3e 4f25 d43e
000003b0: 2785 fe3d 2d6a dd3d c690 edbd d8ff 2cbe
000003c0: d553 89bd 47c5 a4be 5948 9b3d a4bf 8b3d
000003d0: 6c92 12be 11da 6a3e d99b e53d 4e83 ff3d
000003e0: 514b 0abe e8e7 2dbe 3cfc b03d 29db 66be
000003f0: f768 de3c 2754 953c 0a27 1ebe 00f9 9d3d

base.mlp.fc_h.0.bias f4 [64]
0.0 0.0 0.0 0.0 0.0 0.0 0.0 0.0
0.0 0.0 0.0 0.0 0.0 0.0 0.0 0.0
0.0 0.0 0.0 0.0 0.0 0.0 0.0 0.0
0.0 0.0 0.0 0.0 0.0 0.0 0.0 0.0
0.0 0.0 0.0 0.0 0.0 0.0 0.0 0.0
0.0 0.0 0.0 0.0 0.0 0.0 0.0 0.0
0.0 0.0 0.0 0.0 0.0 0.0 0.0 0.0
0.0 0.0 0.0 0.0 0.0 0.0 0.0 0.0
00000000: 0000 0000 0000 0000 0000 0000 0000 0000
00000010: 0000 0000 0000 0000 0000 0000 0000 0000
00000020: 0000 0000 0000 0000 0000 0000 0000 0000
00000030: 0000 0000 0000 0000 0000 0000 0000 0000
00000040: 0000 0000 0000 0000 0000 0000 0000 0000
00000050: 0000 0000 0000 0000 0000 0000 0000 0000
00000060: 0000 0000 0000 0000 0000 0000 0000 0000
00000070: 0000 0000 0000 0000 0000 0000 0000 0000
00000080: 0000 0000 0000 0000 0000 0000 0000 0000
00000090: 0000 0000 0000 0000 0000 0000 0000 0000
000000a0: 0000 0000 0000 0000 0000 0000 0000 0000
000000b0: 0000 0000 0000 0000 0000 0000 0000 0000
000000c0: 0000 0000 0000 0000 0000 0000 0000 0000
000000d0: 0000 0000 0000 0000 0000 0000 0000 0000
000000e0: 0000 0000 0000 0000 0000 0000 0000 0000
000000f0: 0000 0000 0000 0000 0000 0000 0000 0000

base.mlp.fc_h.2.weight f4 [64]
1.0 1.0 1.0 1.0 1.0 1.0 1.0 1.0
1.0 1.0 1.0 1.0 1.0 1.0 1.0 1.0
1.0 1.0 1.0 1.0 1.0 1.0 1.0 1.0
1.0 1.0 1.0 1.0 1.0 1.0 1.0 1.0
1.0 1.0 1.0 1.0 1.0 1.0 1.0 1.0
1.0 1.0 1.0 1.0 1.0 1.0 1.0 1.0
1.0 1.0 1.0 1.0 1.0 1.0 1.0 1.0
1.0 1.0 1.0 1.0 1.0 1.0 1.0 1.0
00000000: 0000 803f 0000 803f 0000 803f 0000 803f
00000010: 0000 803f 0000 803f 0000 803f 0000 803f
00000020: 0000 803f 0000 803f 0000 803f 0000 803f
00000030: 0000 803f 0000 803f 0000 803f 0000 803f
00000040: 0000 803f 0000 803f 0000 803f 0000 803f
00000050: 0000 803f 0000 803f 0000 803f 0000 803f
00000060: 0000 803f 0000 803f 0000 803f 0000 803f
00000070: 0000 803f 0000 803f 0000 803f 0000 803f
00000080: 0000 803f 0000 803f 0000 803f 0000 803f
00000090: 0000 803f 0000 803f 0000 803f 0000 803f
000000a0: 0000 803f 0000 803f 0000 803f 0000 803f
000000b0: 0000 803f 0000 803f 0000 803f 0000 803f
000000c0: 0000 803f 0000 803f 0000 803f 0000 803f
000000d0: 0000 803f 0000 803f 0000 803f 0000 803f
000000e0: 0000 803f 0000 803f 0000 803f 0000 803f
000000f0: 0000 803f 0000 803f 0000 803f 0000 803f

base.mlp.fc_h.2.bias f4 [64]
0.0 0.0 0.0 0.0 0.0 0.0 0.0 0.0
0.0 0.0 0.0 0.0 0.0 0.0 0.0 0.0
0.0 0.0 0.0 0.0 0.0 0.0 0.0 0.0
0.0 0.0 0.0 0.0 0.0 0.0 0.0 0.0
0.0 0.0 0.0 0.0 0.0 0.0 0.0 0.0
0.0 0.0 0.0 0.0 0.0 0.0 0.0 0.0
0.0 0.0 0.0 0.0 0.0 0.0 0.0 0.0
0.0 0.0 0.0 0.0 0.0 0.0 0.0 0.0
00000000: 0000 0000 0000 0000 0000 0000 0000 0000
00000010: 0000 0000 0000 0000 0000 0000 0000 0000
00000020: 0000 0000 0000 0000 0000 0000 0000 0000
00000030: 0000 0000 0000 0000 0000 0000 0000 0000
00000040: 0000 0000 0000 0000 0000 0000 0000 0000
00000050: 0000 0000 0000 0000 0000 0000 0000 0000
00000060: 0000 0000 0000 0000 0000 0000 0000 0000
00000070: 0000 0000 0000 0000 0000 0000 0000 0000
00000080: 0000 0000 0000 0000 0000 0000 0000 0000
00000090: 0000 0000 0000 0000 0000 0000 0000 0000
000000a0: 0000 0000 0000 0000 0000 0000 0000 0000
000000b0: 0000 0000 0000 0000 0000 0000 0000 0000
000000c0: 0000 0000 0000 0000 0000 0000 0000 0000
000000d0: 0000 0000 0000 0000 0000 0000 0000 0000
000000e0: 0000 0000 0000 0000 0000 0000 0000 0000
000000f0: 0000 0000 0000 0000 0000 0000 0000 0000

base.mlp.fc2.0.0.weight f4 [64, 64]
-0.002030264 0.017749958 0.018584022 0.46774727 0.10566932 -0.42082486 0.0712142 0.0472241
0.02997675 0.09260866 0.17187186 -0.23075604 0.11942158 0.25197756 0.25423554 -0.34643814
-0.24371186 -0.0026531718 -0.07417606 0.08042985 -0.07997598 0.23534979 -0.11172734 -0.47697076
0.2577661 -0.32085392 0.19877174 -0.24864385 0.42027137 -0.010760682 -0.2005521 -0.08424041
-0.104669385 -0.072804034 0.23676081 -0.09314792 0.015806666 0.015336975 0.15969646 0.039536767
-0.08817779 -0.072373316 0.03211846 -0.06358092 -0.13937148 0.16651094 0.061884224 0.10450326
-0.21673232 -0.13360044 0.008166653 0.03355225 0.18562682 0.33232132 0.27719584 -0.2045651
-0.10536385 0.036202308 -0.08117846 -0.13398893 -0.043393902 -0.13993335 0.47852543 -0.032997835
-0.21052058 0.04452603 0.3111496 -0.2034867 -0.114601806 -0.23481688 -0.26539424 -0.24057096
0.06797477 0.08554771 0.3001936 -0.15825272 -0.13174379 -0.3329616 0.08340548 0.099457234
0.14782502 0.27988482 0.18841714 -0.028016211 0.30421743 0.028797561 -0.024908483 -0.051365163
-0.318111 -0.032305066 0.064055525 0.012157703 0.029527633 -0.018811636 -0.16339643 -0.36640868
0.009217624 0.091761224 0.08601203 0.23280597 -0.14149605 -0.06156565 -0.14433356 0.23444247
-0.026066318 -0.25226152 0.026717752 -0.032262485 -0.28015992 0.106715426 0.087774545 0.33918378
0.10612157 -0.19188266 0.0801751 -0.035022397 -0.0598712 -0.13302411 0.26008934 0.13670471
-0.11734536 0.035551347 0.042470198 -0.17114069 -0.3667661 0.16932683 -0.14730695 -0.0049051275
-0.06387975 0.019781308 -0.07186265 0.13243075 0.15815647 -0.050279308 -0.34994197 -0.2522463
0.030628419 0.53988194 -0.014367687 0.012026428 -0.21433468 -0.20427004 -0.11249581 0.25921538
-0.07571803 0.2069953 -0.13819039 -0.2961165 0.068531245 0.10732128 -0.14106868 0.20712325
0.23313102 -0.035116248 0.088318266 -0.26510653 0.18839823 0.2446996 0.11053671 -0.1738608
-0.17110358 -0.28307486 -0.05130704 -0.29301384 0.14904863 0.20461272 -0.080950506 -0.101897694
-0.21946695 0.21211082 0.07894018 0.22137353 0.21795912 -0.22878844 0.028269667 0.023952276
-0.25301582 0.11212328 -0.3355673 -0.19732931 -0.21570933 -0.24204686 -0.07682682 -0.31315798
0.049044006 0.25900882 0.095842436 -0.041601397 -0.30835903 -0.0687659 -0.0009334922 -0.023983445
0.040530935 0.4074238 0.0017572381 0.28657168 -0.012037565 0.26258662 -0.37561268 -0.15196905
0.012101344 -0.1406611 0.056803845 -0.3224918 0.00864728 0.32224473 -0.082681485 0.26474994
0.27142954 0.21121442 0.13324873 0.30110323 0.17513181 -0.416521 -0.0027927835 -0.18636562
-0.043322712 -0.23517227 0.012588043 -0.010101624 -0.09308674 0.029518519 0.124884665 0.119212754
-0.04077935 -0.13176902 -0.067818455 -0.42104465 -0.14094767 0.031905573 -0.051182777 -0.18656975
0.004618169 0.19158508 0.09047314 0.4257839 0.17445874 0.092445925 -0.13875513 -0.13404007
-0.039106637 -0.33363155 0.024929339 0.081781365 -0.11586732 0.26179653 0.1489602 0.09993949
-0.1596177 -0.20451099 0.08758918 -0.25383934 -0.011570604 -0.010850105 -0.19847392 0.105124295
00000000: 2d0e 05bb 5c68 913c 853d 983c 927c ef3e
00000010: 2869 d83d 5b76 d7be c0d8 913d 0f6e 413d
00000020: cd91 f53c 9ca9 bd3d 2dff 2f3e 504b 6cbe
00000030: 4d93 f43d 3403 813e 292b 823e 5760 b1be
00000040: 9a8f 79be d6e0 2dbb 9ee9 97bd 68b8 a43d
00000050: 72ca a3bd 89ff 703e 4ed1 e4bd 8335 f4be
00000060: ebf9 833e f746 a4be d28a 4b3e 7e9c 7ebe
00000070: cf2d d73e 924d 30bc 885d 4dbe 3c86 acbd
00000080: e75c d6bd 481a 95bd 6d71 723e 56c4 bebd
00000090: fb7c 813c f047 7b3c 7887 233e 4ef1 213d
000000a0: 8f96 b4bd 7638 94bd a58e 033d b736 82bd
000000b0: 66b7 0ebe d881 2a3e 507a 7d3d ce05 d63d
000000c0: 14ef 5dbe 8ece 08be 6dcd 053c 166e 093d
000000d0: f514 3e3e 0526 aa3e 9dec 8d3e 8379 51be
000000e0: 01c9 d7bd df48 143d e440 a6bd 6534 09be
000000f0: cebd 31bd b04a 0fbe 4901 f53e bd28 07bd
00000100: b592 57be ed60 363d 004f 9f3e d15e 50be
00000110: 5ab4 eabd d673 70be c1e1 87be 3c58 76be
00000120: 5b36 8b3d a333 af3d fab2 993e 000d 22be
00000130: d8e7 06be f179 aabe 7ed0 aa3d 3cb0 cb3d
00000140: 715f 173e 104d 8f3e 6cf0 403e 4182 e5bc
00000150: 63c2 9b3e dde8 eb3c e00c ccbc 4764 52bd
00000160: 72df a2be 5152 04bd 8b2f 833d 1a31 473c
00000170: efe3 f13c dc1a 9abc 6551 27be eb99 bbbe
00000180: 8405 173c 4fed bb3d 1327 b03d b064 6e3e
00000190: 57e4 10be 432c 7cbd 2dcc 13be b011 703e
000001a0: 0889 d5bc 6c28 81be 30df da3c ab25 04bd
000001b0: 1f71 8fbe 9e8d da3d 24c3 b33d 7fa9 ad3e
000001c0: 4456 d93d e37c 44be d832 a43d a573 0fbd
000001d0: 813b 75bd 7937 08be 6e2a 853e 52fc 0b3e
000001e0: c452 f0bd 4a9e 113d 3bf5 2d3d 813f 2fbe
000001f0: c4c8 bbbe 0364 2d3e a2d7 16be 31bb a0bb
00000200: 63d3 82bd 690c a23c ba2c 93bd ed9b 073e
00000210: c5f3 213e adf1 4dbd 982b b3be 6d26 81be
00000220: 73e8 fa3c b435 0a3f 7266 6bbc 7f0a 453c
00000230: 8d7a 5bbe 2a2c 51be 3464 e6bd e1b7 843e
00000240: 0e12 9bbd 93f6 533e c881 0dbe 959c 97be
00000250: 1c5a 8c3d 42cb db3d 4f74 10be 1e18 543e
00000260: e6b9 6e3e 0ed6 0fbd 35e0 b43d 0bbc 87be
00000270: 77eb 403e 8892 7a3e 1261 e23d 9108 32be
00000280: c735 2fbe 30ef 90be 5527 52bd e905 96be
00000290: 34a0 183e ff85 513e 61c9 a5bd bdaf d0bd
000002a0: f2bb 60be 9433 593e 64ab a13d beaf 623e
000002b0: ad30 5f3e 8447 6abe ca95 e73c 9037 c43c
000002c0: 4a8b 81be e4a0 e53d 7acf abbe b210 4abe
000002d0: e8e2 5cbe 22db 77be 6157 9dbd 3e56 a0be
000002e0: 5ee2 483d ce9c 843e 0a49 c43d 3a66 2abd
000002f0: 3ce1 9dbe 23d5 8cbd 9ab5 74ba ee78 c4bc
00000300: c403 263d da99 d03e 2053 e63a 86b9 923e
00000310: 3539 45bc c171 863e 4e50 c0be c69d 1bbe
00000320: b744 463c 7709 10be 26ab 683d a51d a5be
00000330: 52ad 0d3c 43fd a43e e954 a9bd 4e8d 873e
00000340: d0f8 8a3e 9848 583e 5b72 083e 342a 9a3e
00000350: c155 333e 3e42 d5be 2207 37bb a1d6 3ebe
00000360: 2873 31bd 00d1 70be 143e 4e3c 4881 25bc
00000370: 43a4 bebd d2d0 f13c 88c3 ff3d d125 f43d
00000380: 3f08 27bd 75ee 06be 67e4 8abd 2a93 d7be
00000390: 9654 10be 6baf 023d 08a5 51bd 240c 3fbe
000003a0: 0254 973b e12e 443e fb49 b93d 5900 da3e
000003b0: 50a5 323e 4a54 bd3d d315 0ebe cd41 09be
000003c0: 482e 20bd c1d1 aabe 9d38 cc3c fd7c a73d
000003d0: d84b edbd 320a 863e 0689 183e 13ad cc3d
000003e0: d372 23be 546b 51be f561 b33d 3bf7 81be
000003f0: a192 3dbc a4c4 31bc bf3c 4bbe 684b d73d

base.mlp.fc2.0.0.bias f4 [64]
0.033587374 -0.007143679 0.030585188 0.034590326 0.051977355 -0.01649838 -0.022861348 0.018287076
-0.022756709 -0.024985932 -0.031256586 -0.00952575 -0.03369491 0.054151446 0.019412177 -0.019176979
0.023075968 -0.028198894 -0.016577404 0.03688122 0.029362582 -0.0061324053 0.00027749635 0.02043774
-0.01111102 0.030672878 0.04049828 -0.00010136567 0.10465386 0.013843714 0.015524104 -0.026785327
0.030853659 0.023696095 0.060165267 -0.0183109 0.023212729 0.11145661 0.048714057 -0.017642625
-0.02688119 0.020149127 -0.012642985 0.019732673 0.018618774 -0.013958396 0.1337234 0.02425194
0.07828761 0.036047716 -0.010495555 0.063367136 -0.018355444 0.02650838 -0.005354816 -0.021400798
-0.014756084 0.028757956 0.069706544 0.08682973 0.015490609 0.026073804 0.036525223 0.030640805
00000000: ea92 093d 8615 eabb ca8d fa3c 96ae 0d3d
00000010: 35e6 543d 9c27 87bc b947 bbbc c7ce 953c
00000020: 476c babc 4caf ccbc e806 00bd e411 1cbc
00000030: ad03 0abd e8cd 5d3d 4906 9f3c 0a19 9dbc
00000040: d009 bd3c 5e01 e7bc 56cd 87bc c310 173d
00000050: cc89 f03c 58f2 c8bb ee7c 9139 0c6d a73c
00000060: ff0a 36bc b045 fb3c 86e1 253d 4894 d4b8
00000070: c354 d63d bfd0 623c d058 7e3c e76c dbbc
00000080: d0c0 fc3c 501e c23c db6f 763d be00 96bc
00000090: 9f28 be3c 5d43 e43d 6488 473d 4487 90bc
000000a0: f135 dcbc c80f a53c 8624 4fbc 6aa6 a13c
000000b0: 6686 983c c2b1 64bc c9ee 083e 01ac c63c
000000c0: 4155 a03d c5a6 133d 8cf5 2bbc a1c6 813d
000000d0: 285e 96bc 1a28 d93c 7477 afbb ba50 afbc
000000e0: 81c3 71bc ce95 eb3c 4ec2 8e3d c9d3 b13d
000000f0: 53cc 7d3c bb98 d53c 799b 153d 6d02 fb3c

base.mlp.fc2.0.2.weight f4 [64]
0.97824967 0.9738839 0.9453375 0.9572902 1.0206988 0.90184873 0.9036732 0.93440247
0.9245666 0.9052681 0.9581091 1.0062091 0.9058993 1.0240546 0.9144882 0.9726605
0.9716419 0.8952016 0.9650608 0.9847815 0.9588792 0.96959126 0.9754192 0.9137238
0.9440332 0.953639 0.98163515 0.9994385 0.99593115 0.9495626 0.9192991 0.9149689
0.9816689 0.93899053 1.0120636 0.96100444 0.92335576 1.0011718 0.9826394 0.9523366
0.92524093 0.91079915 0.95377064 0.95501214 0.9471132 0.94088215 1.0113348 0.97694594
1.0043924 0.9605634 0.96532184 1.0195484 0.965794 0.97702646 0.97080934 0.9250465
0.94746804 0.9266129 1.04398 1.0040768 0.8924112 0.9346506 0.9824592 0.95868474
00000000: 926e 7a3f 7550 793f a301 723f f810 753f
00000010: 42a6 823f 8fdf 663f 2057 673f 0035 6f3f
00000020: 66b0 6c3f a6bf 673f a346 753f 76cb 803f
00000030: 04e9 673f 3914 833f e61b 6a3f 4700 793f
00000040: 86bd 783f ef2b 653f 390e 773f a41a 7c3f
00000050: 1b79 753f 2237 783f 13b5 793f cee9 693f
00000060: 29ac 713f af21 743f 714c 7b3f 34db 7f3f
00000070: 58f5 7e3f 8916 733f 3057 6b3f 673b 6a3f
00000080: a74e 7b3f af61 703f 4d8b 813f 6304 763f
00000090: 0b61 6c3f 6626 803f 418e 7b3f 55cc 733f
000000a0: 97dc 6c3f 222a 693f 502a 743f ad7b 743f
000000b0: 0376 723f a7dd 703f 6b73 813f 2119 7a3f
000000c0: ee8f 803f 7ce7 753f 551f 773f 9080 823f
000000d0: 473e 773f 681e 7a3f f686 783f d9cf 6c3f
000000e0: 448d 723f 8136 6d3f 23a1 853f 9785 803f
000000f0: 0f75 643f 4345 6f3f 7282 7b3f 5d6c 753f

base.mlp.fc2.0.2.bias f4 [64]
0.016528204 -0.016083116 0.018017167 0.018621001 0.01886005 -0.015902678 -0.01736247 0.016156696
-0.017060587 -0.017521841 -0.015356563 -0.017884403 -0.016211519 0.020423193 0.017074708 -0.018731898
0.014237575 -0.016596677 -0.017670477 0.017113904 0.016216015 -0.016263619 -0.014861953 0.016960435
-0.016477626 0.017752051 0.01338656 -0.016343705 0.041117243 0.01483491 0.01608673 -0.015807994
0.017251123 0.017676879 0.019978143 -0.017493173 0.016450929 -0.004376533 0.015552414 -0.016916474
-0.01582676 0.01721235 -0.018074136 0.016630301 0.015399817 -0.017128032 0.0067554056 0.013642633
0.030321606 0.017786557 -0.01804736 0.022514485 -0.016761273 0.016241245 -0.017472561 -0.017969757
-0.018231217 0.01786845 -0.022425834 0.020286985 0.016016517 0.017116146 0.01808062 0.016417503
00000000: 2866 873c bdc0 83bc bd98 933c 128b 983c
00000010: 6480 9a3c 5546 82bc bd3b 8ebc 0c5b 843c
00000020: a5c2 8bbc f789 8fbc 189a 7bbc 5082 92bc
00000030: 05ce 84bc 8a4e a73c 42e0 8b3c a373 99bc
00000040: b844 693c c1f5 87bc adc1 90bc 7532 8c3c
00000050: 73d7 843c 483b 85bc 8d7f 73bc 9cf0 8a3c
00000060: 16fc 86bc c06c 913c 4d53 5b3c 3ce3 85bc
00000070: 8e6a 283d 1f0e 733c 51c8 833c c47f 81bc
00000080: 3a52 8d3c 1acf 903c 34a9 a33c d84d 8fbc
00000090: 19c4 863c 0569 8fbb 8dcf 7e3c 6b94 8abc
000000a0: 1fa7 81bc ea00 8d3c 3610 94bc 453c 883c
000000b0: 844f 7c3c 1650 8cbc 735c dd3b 5a85 5f3c
000000c0: 0465 f83c 1db5 913c 0fd8 93bc 4c70 b83c
000000d0: f04e 89bc 5c0c 853c 9e22 8fbc 5035 93bc
000000e0: a259 95bc db60 923c 62b6 b7bc e430 a63c
000000f0: 1235 833c 2937 8c3c cf1d 943c 007e 863c

v_out.weight f4 [1, 64]
0.0208813 -0.0070648063 0.038547408 0.033674143 0.024915822 -0.12796193 -0.05345101 0.061230395
-0.052144583 -0.057731543 -0.20237486 -0.027258756 -0.13894938 0.024663808 0.059443716 -0.02456239
0.036595892 -0.10308135 -0.04113517 0.03750101 0.022497244 -0.0069256024 -0.025366731 0.0683743
-0.02619466 0.036499295 0.021064091 -0.0328446 0.003735687 0.122849256 0.08337345 -0.13665508
0.04259874 0.052376255 0.020741113 -0.026641414 0.07401932 0.016596062 0.015477897 -0.03746424
-0.19081044 0.0538327 -0.026189953 0.04812035 0.059711512 -0.03932934 0.013990753 0.03520097
0.0122155575 0.037859865 -0.033684276 0.018284515 -0.0712951 0.043415457 -0.014313005 -0.024893487
-0.0089869695 0.034110695 0.027806133 0.0043454953 0.16190617 0.061549406 0.03228078 0.04134345
00000000: 430f ab3c e47f e7bb e3e3 1d3d e6ed 093d
00000010: 441c cc3c 7408 03be 72ef 5abd b9cc 7a3d
00000020: 8f95 55bd e977 6cbd 5b3b 4fbe c14d dfbc
00000030: bf48 0ebe c10b ca3c 417b 733d 1137 c9bc
00000040: 93e5 153d 511c d3bd 5a7d 28bd a99a 193d
00000050: 244c b83c 2af0 e2bb e4cd cfbc d307 8c3d
00000060: 2f96 d6bc 4980 153d 9a8e ac3c 0f88 06bd
00000070: 6dd2 743b 6498 fb3d b3bf aa3d 4fef 0bbe
00000080: 047c 2e3d 7c88 563d 44e9 a93c 183f dabc
00000090: 7197 973d 77f4 873c 0197 7d3c 1a74 19bd
000000a0: d063 43be ad7f 5c3d 508c d6bc d819 453d
000000b0: 0f94 743d cd17 21bd 7939 653c e42e 103d
000000c0: c323 483c f212 1b3d 86f8 09bd 68c9 953c
000000d0: 2a03 92bd 68d4 313d 1881 6abc 6ded cbbc
000000e0: 153e 13bc a8b7 0b3d b0c9 e33c a864 8e3b
000000f0: bbca 253e 3b1b 7c3d da38 043d c057 293d
