results/MyEnv/MyEnv/mappo/check/run87/models/critic_agent1.pt (torch, 89374 bytes, 15 tensors)

base.feature_norm.weight f4 [182]
000000 36 ce 7f 3f 3a 4d 80 3f 18 ef 7f 3f 46 f5 7f 3f
       0.9992403 1.0023568 0.99974203 0.9998363
000010 7d 02 80 3f db 17 80 3f 2c 10 80 3f e3 00 80 3f
       1.0000759 1.000728 1.0004935 1.0000271
000020 62 ff 7f 3f c4 60 80 3f 1d de 7f 3f 51 1b 80 3f
       0.9999906 1.002953 0.9994829 1.0008336
000030 cf 1d 80 3f e1 a5 7f 3f 89 e9 7f 3f e5 0b 80 3f
       1.0009097 0.99862486 0.9996572 1.000363
000040 ff 07 80 3f 29 43 80 3f 40 0c 80 3f b1 22 80 3f
       1.000244 1.0020496 1.0003738 1.0010587
000050 25 12 80 3f ad 92 7f 3f 59 74 80 3f 04 0e 80 3f
       1.0005537 0.99833184 1.0035506 1.0004277
000060 a7 18 7f 3f 8f 24 80 3f 13 0e 80 3f d3 6d 7f 3f
       0.9964699 1.0011157 1.0004295 0.99776953
000070 a5 8a 7f 3f c8 f3 7f 3f 77 0c 80 3f 07 0b 80 3f
       0.9982093 0.99981356 1.0003804 1.0003365
000080 1b 9b 7f 3f 85 13 80 3f da 76 80 3f 65 ee 7f 3f
       0.9984605 1.0005957 1.0036271 0.99973136
000090 dc 56 80 3f 23 3b 80 3f 01 a0 7f 3f 6f f1 7f 3f
       1.0026507 1.0018047 0.9985352 0.99977773
0000a0 3a c9 7f 3f f8 df 7f 3f 7c b0 7f 3f 9d 17 80 3f
       0.9991642 0.99951124 0.9987867 1.0007206
0000b0 8e f0 7f 3f 5a 09 80 3f d2 19 80 3f 9a 36 80 3f
       0.9997643 1.0002854 1.000788 1.0016663
0000c0 3d fe 7e 3f 35 64 7f 3f f3 bc 7f 3f ae 0c 80 3f
       0.99606687 0.9976228 0.9989769 1.000387
0000d0 1e f5 7e 3f 4a 61 7f 3f 9e 51 80 3f 30 3c 80 3f
       0.9959277 0.99757826 1.0024908 1.0018368
0000e0 e2 cf 7e 3f 5e fb 7f 3f ea bd 7f 3f 54 fe 7f 3f
       0.99535954 0.9999293 0.9989916 0.9999745
0000f0 94 5d 80 3f bd d4 7f 3f 28 1a 80 3f 33 15 80 3f
       1.0028558 0.9993399 1.0007982 1.000647
000100 a5 0a 80 3f b0 6d 80 3f 7d 35 80 3f f6 34 80 3f
       1.0003248 1.0033474 1.0016323 1.0016162
000110 43 ed 7f 3f 0a 62 7e 3f dd af 7f 3f 0a 06 80 3f
       0.9997141 0.99368346 0.9987772 1.0001843
000120 f7 ab 7f 3f 76 01 80 3f 66 d3 7f 3f 96 d8 7f 3f
       0.9987177 1.0000446 0.99931943 0.9993986
000130 dd f1 7f 3f 44 35 80 3f 91 11 7f 3f 67 bf 7e 3f
       0.9997843 1.0016255 0.9963618 0.99510807
000140 6c 1a 80 3f f8 81 80 3f bc 39 7f 3f a6 13 80 3f
       1.0008063 1.0039663 0.9969747 1.0005996
000150 84 0b 80 3f 19 f5 7f 3f 13 6d 80 3f 43 3d 7f 3f
       1.0003514 0.99983364 1.0033287 0.9970285
000160 48 12 80 3f 05 e4 7f 3f 4c 94 7f 3f 5a 17 7f 3f
       1.0005579 0.99957305 0.9983566 0.99645007
000170 75 43 80 3f 2b 0e 80 3f 85 0c 80 3f 24 13 80 3f
       1.0020586 1.0004324 1.0003821 1.0005841
000180 dd 95 7f 3f 85 da 7e 3f 21 14 80 3f 74 3b 80 3f
       0.9983805 0.99552184 1.0006143 1.0018144
000190 9f c9 7e 3f 87 4a 7f 3f c6 06 80 3f ff 82 7f 3f
       0.995264 0.99723095 1.0002067 0.9980926
0001a0 e7 10 80 3f c4 dc 7e 3f 52 d6 7f 3f 15 cb 7f 3f
       1.0005158 0.9955561 0.999364 0.99919254
0001b0 95 d7 7f 3f eb 17 80 3f ca 18 80 3f 80 93 80 3f
       0.9993833 1.0007299 1.0007565 1.0045013
0001c0 89 5e 80 3f b9 a3 80 3f 92 6f 80 3f ed 1c 80 3f
       1.002885 1.0049964 1.0034049 1.0008827
0001d0 85 fc 7f 3f 3d ff 7f 3f 39 e8 7f 3f 57 0c 80 3f
       0.9999469 0.9999884 0.9996372 1.0003766
0001e0 ea 06 80 3f 65 dc 7f 3f 0d e0 7f 3f 43 f2 7f 3f
       1.000211 0.9994567 0.9995125 0.9997904
0001f0 4f 80 7f 3f f5 b6 7f 3f 9f 0a 80 3f 42 8f 7f 3f
       0.9980516 0.99888545 1.0003241 0.9982797
000200 21 92 7f 3f b1 17 7f 3f 1f fa 7f 3f 14 18 80 3f
       0.9983235 0.99645525 0.9999103 1.0007348
000210 3d 8f 7f 3f b3 74 7f 3f f7 cf 7f 3f 85 09 80 3f
       0.9982794 0.99787444 0.99926704 1.0002905
000220 fd 09 80 3f 51 d0 7f 3f 6c f5 7f 3f 26 15 80 3f
       1.0003048 0.9992724 0.9998386 1.0006454
000230 97 32 80 3f ee f7 7f 3f 16 4f 80 3f 58 1a 7f 3f
       1.0015439 0.99987686 1.0024135 0.9964957
000240 09 07 80 3f 57 ee 7f 3f 0b 41 80 3f 77 8b 80 3f
       1.0002147 0.9997305 1.001985 1.0042561
000250 5e 1f 80 3f 1f 2c 80 3f 25 01 80 3f f4 00 80 3f
       1.0009573 1.0013465 1.0000349 1.0000291
000260 17 a6 7f 3f 8b 16 7f 3f a6 c8 7f 3f 06 a5 7f 3f
       0.9986281 0.9964377 0.9991554 0.9986118
000270 1b 13 80 3f a0 1f 80 3f 66 c5 7f 3f ca 08 80 3f
       1.000583 1.0009651 0.9991058 1.0002682
000280 a9 f2 7f 3f 0b d4 7f 3f 36 9f 7f 3f 87 a8 7f 3f
       0.99979645 0.99932927 0.9985231 0.9986653
000290 84 e1 7f 3f 76 63 7f 3f 25 62 7f 3f f0 da 7f 3f
       0.99953485 0.9976114 0.9975913 0.9994345
0002a0 01 1f 80 3f 31 ac 7f 3f 2d 1c 80 3f ae d3 7f 3f
       1.0009462 0.9987212 1.0008599 0.9993237
0002b0 89 cb 7f 3f 13 09 80 3f 29 01 80 3f 34 0f 7f 3f
       0.99919945 1.0002769 1.0000354 0.99632573
0002c0 0d 00 80 3f 2e 94 80 3f 0c 1e 80 3f f7 32 7f 3f
       1.0000015 1.0045221 1.000917 0.9968714
0002d0 63 fa 7f 3f 2e 2a 80 3f
       0.99991435 1.0012872

base.feature_norm.bias f4 [182]
000000 5b de 32 3a 73 f1 13 ba f3 3b ca 39 e3 34 c4 b8
       0.00068232947 -0.0005643584 0.00038573108 -9.355859e-05
000010 ed 33 e6 b8 67 33 23 ba 22 b4 67 3a 2f d4 5f b9
       -0.000109769266 -0.0006225616 0.00088387926 -0.00021345982
000020 d1 f5 3b b9 61 3c 4c bb 0d 38 d3 39 53 d5 c9 ba
       -0.00017925283 -0.0031163918 0.00040286817 -0.0015398659
000030 67 0f 8e ba ba 34 d9 3a 29 1e d2 b9 59 4f 59 b9
       -0.001083833 0.00165715 -0.00040076792 -0.00020724292
000040 b6 19 b4 b8 61 22 00 bb 6f 1a 5a b9 e2 8a 9d 3a
       -8.587858e-05 -0.0019551741 -0.00020799947 0.001201954
000050 81 1f 23 3a 47 53 cb ba c6 38 66 3b 44 35 c5 39
       0.0006222651 -0.001551249 0.0035129054 0.00037614454
000060 db 39 64 bb b1 05 7e 3a 02 23 91 39 f9 04 13 bb
       -0.0034824524 0.0009690179 0.00027682638 -0.0022433384
000070 43 f2 e8 ba 7a 4e 5b b9 e3 1e ef 39 b8 ef 87 39
       -0.0017772395 -0.00020914702 0.00045608645 0.0002592781
000080 8d 29 cd ba c6 80 26 3a f6 54 6a 3b a4 d6 9f b9
       -0.0015652642 0.0006351586 0.0035756207 -0.00030486763
000090 2d 17 2c 3b 6e 5f f3 3a 70 5c b2 ba 0f 96 9a b9
       0.002625893 0.0018567869 -0.0013607871 -0.0002948497
0000a0 6a 76 37 ba 0e 42 d3 b9 52 88 94 ba 4a 90 44 3a
       -0.0006998541 -0.0004029427 -0.001133213 0.00074983074
0000b0 a3 84 92 b9 01 89 b3 39 bc 39 5e 3a 38 89 d4 3a
       -0.00027946112 0.00034243616 0.0008477231 0.0016215211
0000c0 a1 5d 7f bb ff 97 12 bb 40 2b 89 ba e4 61 e8 39
       -0.003896572 -0.0022368429 -0.001046516 0.00044323422
0000d0 4c e5 84 bb dd 7f 1e bb f7 b8 8d b9 10 2a 55 3a
       -0.0040556546 -0.00241851 -0.00027031425 0.0008131573
0000e0 96 2b 97 39 e2 58 3a 39 fd 3c 88 ba c3 5d af b8
       0.00028833438 0.00017771454 -0.0010394152 -8.362115e-05
0000f0 39 0c 36 3b 8d 01 23 ba 58 09 63 3a 2b a8 1a 3a
       0.0027778281 -0.00062181876 0.0008660755 0.0005899693
000100 c7 ad ce 39 3e 33 55 3b 42 ff d0 3a 3f 26 d4 3a
       0.00039420856 0.0032531763 0.0015945213 0.0016185715
000110 3b a3 cb b9 df de d3 bb bc 38 a3 ba b9 41 ee 38
       -0.00038840793 -0.0064657773 -0.0012452821 0.00011360966
000120 17 f6 a6 ba c0 91 10 39 1f 64 50 ba 31 67 2c ba
       -0.0012738135 0.00013787206 -0.00079494895 -0.0006576656
000130 67 33 9f b9 4b 0a d4 3a a6 51 6a bb bf 0a a0 bb
       -0.0003036514 0.0016177384 -0.0035754233 -0.0048840935
000140 96 e8 3c 3a cf 26 80 3b 0d c6 42 bb 82 f6 0e 3a
       0.0007206289 0.0039108763 -0.0029720098 0.00054536026
000150 89 8e ed 39 7e 6a f3 b8 be 99 58 3b 8c 0a 3b bb
       0.0004531036 -0.00011606979 0.0033050622 -0.0028540222
000160 1a 82 19 3a d6 f9 b8 b9 19 78 c3 ba 42 f5 71 3b
       0.00058558735 -0.00035281357 -0.0014913111 0.0036919867
000170 e2 07 76 3a f3 b7 3d ba 05 6c 75 39 20 54 03 ba
       0.000938533 -0.00072371884 0.00023405261 -0.0005009789
000180 a9 9d d9 3a c0 f5 7b 3b 1c 64 19 ba 90 8a 0d bb
       0.0016602773 0.003844604 -0.0005851404 -0.0021597482
000190 42 a2 73 39 b7 cb 47 3b d4 42 9f b8 70 c7 ba 3a
       0.00023234732 0.0030486414 -7.5941585e-05 0.0014250111
0001a0 ea 16 ba b9 d3 26 90 bb 1e 67 73 3a b2 38 3d 3a
       -0.00035493757 -0.0043991595 0.000928508 0.0007218226
0001b0 b0 17 fe 39 bf 85 13 ba 06 28 2d ba 1f 4d aa 39
       0.00048464304 -0.00056275347 -0.000660539 0.00032482386
0001c0 23 05 7f 3a 28 81 a5 3b 5c f4 5b 3b cd 21 4b 3a
       0.00097282435 0.005050797 0.0033562398 0.0007748872
0001d0 20 9b c4 b8 a6 eb 82 b8 41 f8 a9 b9 ca 54 c9 39
       -9.3749026e-05 -6.242776e-05 -0.00032419155 0.0003840088
0001e0 4a a8 15 39 73 a2 19 ba 93 15 11 ba 0b 73 f4 b8
       0.0001427244 -0.00058606936 -0.0005534526 -0.00011656255
0001f0 87 7b fe ba 4c 6b a0 ba 8c 3c bf 39 c5 5f e2 ba
       -0.0019415476 -0.0012239008 0.0003647547 -0.0017270973
000200 03 a1 d7 ba 74 2c 61 bb b1 d5 30 b9 26 89 4f 3a
       -0.0016451183 -0.0034358772 -0.00016864274 0.000791686
000210 df 76 d7 ba 30 4d 05 bb 54 9d 4a ba 47 40 b1 39
       -0.0016438625 -0.0020340197 -0.0007729132 0.0003380796
000220 99 82 b9 39 58 21 4e ba 55 42 c4 b8 26 38 21 3a
       0.00035383253 -0.0007863245 -9.3583636e-05 0.00061500294
000230 f1 38 bc 3a 63 7f 42 b9 c6 7a 18 3b 17 50 61 bb
       0.0014360232 -0.00018548737 0.0023266538 -0.0034380013
000240 5b 11 86 39 2c 7c 32 b9 22 fe e3 3a 07 5d 97 3b
       0.00025571403 -0.0001702166 0.0017394463 0.004619244
000250 ea cc 7c 3a 6e c5 a7 3a 52 fa 1a b8 11 1e 01 39
       0.00096435717 0.0012799927 -3.694959e-05 0.000123136
000260 5e 71 b7 ba 01 4a 64 bb 69 aa 46 ba 56 6c b0 ba
       -0.0013995578 -0.0034834149 -0.00075784937 -0.0013460021
000270 d5 39 22 3a 8b 8b 67 3a ae 56 6e ba 4b 2a 97 39
       0.0006188427 0.0008832744 -0.0009091896 0.00028832475
000280 ab 63 f6 b8 6d e9 54 ba 9a 8a c0 ba ff 2a 9f ba
       -0.00011748759 -0.00081219414 -0.0014689744 -0.0012143551
000290 09 78 ef b9 e1 65 20 bb 73 b2 19 bb 77 7f 04 ba
       -0.00045675065 -0.0024474787 -0.0023452311 -0.0005054394
0002a0 d0 de 5f 3a d9 39 a4 ba 17 dc 4b 3a 8d ee 3c ba
       0.00085399766 -0.0012529447 0.00077766314 -0.00072071777
0002b0 1f 69 55 ba 2e 91 9e 39 f3 05 bf 38 b4 58 6e bb
       -0.00081409694 0.00030244276 9.108698e-05 -0.003636879
0002c0 50 20 93 38 94 d0 96 3b 2b 97 6f 3a 4b 08 45 bb
       7.015525e-05 0.004602501 0.0009139652 -0.0030064757
0002d0 0d aa b8 37 66 69 21 3a
       2.2013695e-05 0.0006157368

base.mlp.fc1.0.weight f4 [64, 182]
000000 08 42 2d be ec 8e c6 bd 9b 6e 9d bd 5a 43 ab 3d
       -0.1691972 -0.09695229 -0.07687112 0.08362456
000010 bb 18 d4 bc 4a 0d 12 be 66 3b 97 3e 12 fa 3f 3e
       -0.025890699 -0.14262882 0.29537505 0.18747738
000020 17 19 08 bd da 6b 74 bd 03 c1 2d 3e d5 65 9d 3d
       -0.033227053 -0.059673168 0.1696816 0.076854385
000030 76 28 67 bd 53 5d 8b bd 98 6c 9f 3e 80 90 c3 3d
       -0.05643507 -0.068049096 0.31137538 0.095490456
000040 c0 b5 01 3e 67 b7 42 be 51 e4 46 3d fa ce cb 3d
       0.12666988 -0.19015275 0.048557583 0.09951587
000050 96 58 11 be 2f f7 5d 3d 00 52 e9 3d b2 be 1c 3d
       -0.14193949 0.05419081 0.113925934 0.0382678
000060 55 91 6e 3d 57 1e 16 3e 79 2e 90 be 2e 06 c2 3d
       0.05824407 0.14660011 -0.28160456 0.09473835
000070 c6 e8 a8 3b 93 e1 49 3e e3 11 7b bd b1 25 6f 3e
       0.005154702 0.19714956 -0.061296355 0.23354222
000080 e5 49 a5 3d 3e 58 20 3e 66 4a 04 3c f4 40 44 3c
       0.08070735 0.15658662 0.008074379 0.011978377
000090 bd ad 2d bd 3e a5 0c 3e 04 63 c2 3c 3a 1a 5d 3e
       -0.042402018 0.1373491 0.023728855 0.21592036
0000a0 b6 ba e2 bd 47 cd ae bc 11 f7 09 be 2f 7b 33 3d
       -0.110707685 -0.021338118 -0.13473155 0.04381865
0000b0 b8 3b f0 bd 46 16 e5 bd 61 94 61 3d fe 0f 03 3d
       -0.117301404 -0.11185889 0.055073146 0.031997673
0000c0 c5 13 ea 3d a3 a8 2f bc dd 8c 6a 3e 29 73 73 3e
       0.11429552 -0.0107213585 0.22905298 0.23774399
0000d0 62 7b d4 bd db a8 12 be 7f a2 01 be 8b 8f 5d 3e
       -0.10375096 -0.14322226 -0.12659644 0.21636789
0000e0 80 49 48 bc a6 6f 5d be 8a 84 59 be 70 11 c4 3d
       -0.012224555 -0.21624622 -0.21241966 0.095736384
0000f0 d8 e0 9e 3d 83 47 68 3d f2 a5 76 bd a7 b0 6c 3d
       0.07757729 0.056708824 -0.06021685 0.057785656
000100 c8 e5 8f bd db 2d 86 3c 2b da 9b bd 0e b2 9d 38
       -0.07026249 0.016379287 -0.076099716 7.519509e-05
000110 8c 52 f0 bd 23 91 06 be 2b 1f 61 39 47 40 da bd
       -0.117344946 -0.13141303 0.00021469283 -0.10656791
000120 db e1 57 bd a4 a8 be 3c dc a4 cd 3b cc ef e9 3d
       -0.052705627 0.023273773 0.0062757563 0.11422691
000130 0c fb 86 be f1 0f f8 3c 9e 1a 8c bc 49 bf 4e 3e
       -0.2636341 0.030281039 -0.017102536 0.20190157
000140 27 13 b9 3d b2 47 8f 3e 8c fa 99 bd 15 ec e6 bc
       0.09036856 0.27984387 -0.07518491 -0.028188745
000150 05 e9 bf 3c dc b1 59 be c9 95 d3 3d 08 26 89 bd
       0.023426542 -0.21259254 0.103313036 -0.06696707
000160 73 fc a6 bd d4 cb f6 3c dc 8f 47 bd 35 41 74 bd
       -0.081536196 0.03012649 -0.04872118 -0.0596325
000170 a3 77 8a 3e 07 8b 0a bd 6f 35 57 3d 2a 17 22 3e
       0.270444 -0.033823993 0.052541193 0.15829149
000180 78 c7 b2 bd 40 08 98 bd 6a ff 0b be a4 0c 87 3b
       -0.08729452 -0.074234486 -0.13671651 0.00412138
000190 00 c2 29 be 29 0a 62 3d ec ec a5 bd 19 4c 09 bc
       -0.16577911 0.05518547 -0.0810183 -0.0083799595
0001a0 c9 4f ec bd ed d6 48 3d 47 d8 04 3e 9f 04 ad bb
       -0.11538655 0.049033094 0.12973128 -0.005280092
0001b0 ba d9 9f 3c fc 94 42 3e 31 0d 31 3e cf 12 6a bd
       0.019513 0.19002146 0.17290188 -0.057146844
0001c0 43 ec 93 3e fa 2b 63 3c 39 c0 12 3e 99 45 83 bd
       0.2889119 0.013865465 0.1433114 -0.06409759
0001d0 d9 45 79 bd 91 26 3f 3e 4a e6 5e 3e 11 72 35 3e
       -0.060857628 0.18667056 0.21767536 0.17719294
0001e0 96 76 5d 3d 53 0e 66 3d 40 b7 9f 3c 3f 02 46 bd
       0.05406817 0.056166004 0.01949656 -0.048341986
0001f0 46 7f 06 be 18 90 6c 3d e5 f0 bc 3b 15 98 a3 3d
       -0.13134488 0.057754606 0.0057660216 0.07987992
000200 7d 49 62 3d cc c0 68 be 6d 20 61 3e 30 e2 03 3e
       0.055245865 -0.22729796 0.21985026 0.12879252
000210 46 f3 7f bc b8 28 2c bd 44 2d 64 be 00 b7 9c 3d
       -0.015621966 -0.04203102 -0.22282892 0.07652092
000220 83 e9 51 bd 26 09 55 3d 40 82 4c be 28 61 12 3e
       -0.051248085 0.052010678 -0.19971561 0.14294875
000230 6e 69 06 3e c6 da cd 3d 97 6b c1 3c 2a 62 00 3e
       0.13126156 0.10051493 0.023610873 0.12537447
000240 91 ae 15 3e f2 dd 2c 3d 2c ee 82 3e 61 00 c8 bd
       0.14617373 0.04220385 0.25572336 -0.09765697
000250 c9 da 12 be 10 55 28 be 56 80 f7 3c c3 54 4f 3c
       -0.14341272 -0.16438699 0.030212563 0.012654486
000260 04 e8 5f 3c e4 18 6f bd eb 3e 34 bd 55 5b e1 bd
       0.013666157 -0.058373347 -0.044005316 -0.11003748
000270 3b 9e 8b bd 1f d7 f7 3d 65 11 b5 bd 56 d9 0b 3c
       -0.068172894 0.12101578 -0.08841208 0.008535704
000280 c3 4c e0 3d 5b 9c 7d 3e c9 ec 03 ba dd a2 9c 3c
       0.10952141 0.24766676 -0.0005032537 0.019120628
000290 65 01 6c bd 32 64 b8 bd 8e 5d 10 3c 36 39 0a 3c
       -0.057618517 -0.09003486 0.008811368 0.008436492
0002a0 c6 42 8d bd 72 c3 24 bd 7b 14 44 be ae d8 f0 bb
       -0.06897502 -0.040225454 -0.19148438 -0.007350049
0002b0 05 87 16 3e 8b 83 97 bd 31 d2 80 bc b6 4e b1 bd
       0.14699943 -0.07398137 -0.015725227 -0.08657591
0002c0 b8 6b 49 bd 84 b1 0a be a8 a4 7e be d9 1c e0 3d
       -0.049174994 -0.1354428 -0.24867499 0.10943002
0002d0 79 06 d4 bc 38 12 2f bd 13 fe 77 be 08 54 26 3d
       -0.025881993 -0.042741984 -0.24218015 0.040607482
0002e0 a2 67 61 bc e5 ab 99 3d ab f7 cc bc 44 6e db bd
       -0.013757618 0.075034894 -0.025020441 -0.10714391
0002f0 c4 37 8f be 96 cb 9b 3d 23 22 fe 3d 00 b2 1c be
       -0.27972233 0.0760719 0.12408855 -0.15302277
000300 6f 21 4c be 2a fc 89 3e c5 53 15 bd 7c d4 98 3d
       -0.19934629 0.26950198 -0.036456842 0.07462403
000310 ff e0 e8 bd 7a 08 bc bc 94 00 00 be 42 d7 a5 bc
       -0.113710396 -0.02295326 -0.1250022 -0.020244244
000320 f5 bf 85 bb d6 94 aa 3d d0 b8 83 bb 19 41 4a bd
       -0.004081721 0.083291695 -0.004019834 -0.04937849
000330 00 5d cf 3d b5 9f 50 bd b2 63 69 3e c7 6c c2 3d
       0.1012516 -0.05093356 0.22791937 0.09493404
000340 5a 88 57 be 3f 8d eb bc 61 5e 9b 3d 10 de 0d 3e
       -0.21048108 -0.028753875 0.07586361 0.13854241
000350 fe 44 fa 3d 39 a4 48 bd 5b 76 df 3d 49 fb f9 3d
       0.122201905 -0.04898474 0.109112464 0.12206132
000360 79 97 c4 3d 4f ae dd bc 17 a7 9e 3d 7c d9 12 3c
       0.095992036 -0.027060656 0.077467136 0.008962985
000370 f1 c7 0d bd 51 b2 e6 3d 0c a9 e7 3c 26 8d 2a bc
       -0.034614507 0.1126448 0.02827885 -0.010409629
000380 a7 bc 0d 3e 39 5b 56 3d 4d 19 28 3d 2a a6 0d be
       0.13841496 0.05233309 0.041039754 -0.13832918
000390 88 63 35 bc 17 b7 ae 3d 71 e5 ef bd 89 fe e8 bd
       -0.011071093 0.08531015 -0.11713684 -0.11376674
0003a0 be a1 b6 bd 02 a0 82 3d c1 60 87 bd 44 c0 61 bd
       -0.089175686 0.06378175 -0.06610251 -0.055115
0003b0 22 a6 63 3a 73 a5 98 bd 48 04 fb bb 3b 1c d2 bd
       0.00086841185 -0.07453432 -0.0076604225 -0.10259291
0003c0 c8 e8 4a 3e 48 25 42 3e 47 b7 60 3e 36 52 a2 bd
       0.19815361 0.18959534 0.21944915 -0.07925837
0003d0 b3 1c a8 3c 28 5e 91 3d ec 05 ed bd 10 04 68 bd
       0.020521497 0.07098037 -0.11573395 -0.0566445
0003e0 72 01 44 bd cf 86 9b be ca 3c 07 be cb 4f f1 3d
       -0.04785294 -0.30376288 -0.13206783 0.117827974
0003f0 53 74 ed 3c 94 95 7f 3c 14 71 3f 3d 5b 6f 1b bd
       0.028986132 0.015599627 0.0467387 -0.037947994

base.mlp.fc1.0.bias f4 [64]
000000 d8 74 04 3a ce e4 10 bb d7 cd d9 39 44 53 b1 b9
       0.00050528115 -0.0022109034 0.00041542828 -0.00033822109
000010 a6 8d 89 3a 10 c9 71 ba b4 9b 5c 3b 4b 3c 53 3a
       0.0010494485 -0.0009223381 0.0033662142 0.00080579956
000020 5b 89 9b 3a ec 4d 89 3a 5f 37 1d 3a 5f ef 15 bb
       0.0011866497 0.0010475493 0.00059973256 -0.0022878272
000030 41 bb b5 b9 23 d5 f2 3a fd 41 94 bb 2b 14 ef b9
       -0.00034662525 0.0018526654 -0.004524468 -0.0004560066
000040 43 89 b6 37 c6 4c d6 bb 92 00 aa ba 6c 76 02 38
       2.1760008e-05 -0.006539914 -0.0012970141 3.1104704e-05
000050 0a b0 80 ba 80 17 01 b9 f7 2b 2c b7 51 9c 38 bb
       -0.0009818089 -0.00012311153 -1.0262235e-05 -0.0028169344
000060 8b 4b 37 bb 32 e7 f0 39 24 c7 14 bb fa 84 7d 3b
       -0.002796861 0.0004594862 -0.0022701705 0.0038683997
000070 72 4e 34 3b 12 cd e1 39 a3 0c 17 b9 95 b4 3d ba
       0.0027512577 0.00043068134 -0.0001440519 -0.00072366867
000080 40 52 14 ba 1e a7 0d bb 83 b5 86 ba c4 cc e8 39
       -0.0005658008 -0.0021614502 -0.0010277483 0.0004440305
000090 56 25 59 ba f7 34 b9 b9 cb ec fe ba 94 c2 69 bb
       -0.00082834566 -0.00035325412 -0.0019449232 -0.0035668956
0000a0 fa 95 5e 3a 39 ac 81 bb 42 18 85 3b b9 8e ee ba
       0.0008490976 -0.003957298 0.0040617296 -0.0018200494
0000b0 35 d9 dd 38 06 51 e2 ba aa d8 9e ba 50 78 7c 3b
       0.00010578559 -0.0017266579 -0.0012119014 0.003852386
0000c0 b5 46 e5 3a d9 3c 18 3b b2 9d 7f 38 2b ad 40 bb
       0.0017492386 0.0023229627 6.0943603e-05 -0.002940009
0000d0 20 fa 67 ba aa 0b 76 bb ae ad 89 ba 19 4a cc 3a
       -0.0008849222 -0.0037543573 -0.0010504031 0.0015586048
0000e0 bc 2a 24 3a 0e 1d 8f 3b e8 9e 4f 39 a8 af a5 3a
       0.00062624714 0.0043674773 0.00019800256 0.0012640851
0000f0 47 32 b1 38 a7 f6 7f ba b6 c9 26 ba ff 6e 84 bb
       8.4493826e-05 -0.0009764232 -0.0006362455 -0.004041552

base.mlp.fc1.2.weight f4 [64]
000000 6d 95 7f 3f 24 f4 7f 3f e1 12 80 3f bc 00 80 3f
       0.9983738 0.99981904 1.0005761 1.0000224
000010 a0 26 80 3f 44 d2 7f 3f 99 0c 80 3f 1b a4 7f 3f
       1.0011787 0.99930215 1.0003844 0.9985978
000020 23 6c 80 3f 78 f1 7f 3f 33 05 7f 3f 84 33 80 3f
       1.0033001 0.9997783 0.9961731 1.0015721
000030 b5 d6 7f 3f c5 f6 7f 3f 43 33 80 3f 82 f8 7f 3f
       0.9993699 0.99985915 1.0015644 0.9998857
000040 f4 15 80 3f 90 a6 7f 3f 8c d3 7f 3f 54 3e 80 3f
       1.00067 0.9986353 0.9993217 1.0019021
000050 46 10 80 3f a0 fe 7f 3f 32 12 80 3f 8c cd 7f 3f
       1.0004966 0.999979 1.0005553 0.99923015
000060 8b 5e 80 3f d2 31 80 3f 16 80 7f 3f 78 84 7f 3f
       1.0028852 1.0015204 0.9980482 0.99811506
000070 ad 59 80 3f 82 9c 7e 3f ed de 7e 3f 0a 22 7f 3f
       1.0027367 0.9945756 0.9955891 0.99661314
000080 61 38 80 3f c2 17 80 3f f1 35 80 3f a8 f2 7f 3f
       1.0017205 1.000725 1.0016462 0.9997964
000090 09 9a 7e 3f 4a 49 80 3f 4b 29 80 3f 3a 63 80 3f
       0.9945379 1.0022366 1.0012602 1.0030282
0000a0 fb ea 7f 3f cf f0 7e 3f 9f 54 80 3f ee 03 80 3f
       0.99967927 0.99586195 1.0025824 1.0001199
0000b0 ad 68 7f 3f 2b 26 80 3f 26 0d 80 3f fd 91 80 3f
       0.997691 1.0011648 1.0004013 1.0044552
0000c0 c8 ea 7e 3f 20 c7 7f 3f a9 21 80 3f e2 0f 80 3f
       0.99577 0.99913216 1.0010272 1.0004847
0000d0 f5 7e 80 3f 54 41 80 3f 13 b7 7f 3f 4d 2e 80 3f
       1.0038744 1.0019937 0.99888724 1.001413
0000e0 fe 32 80 3f 40 d4 7f 3f 80 b6 7e 3f 09 25 80 3f
       1.0015562 0.9993324 0.9949722 1.0011302
0000f0 b5 a2 7f 3f 2b 54 7f 3f 60 81 80 3f e3 85 7f 3f
       0.99857646 0.99737805 1.0039482 0.9981367

base.mlp.fc1.2.bias f4 [64]
000000 79 c8 7a 3a c7 9a c8 b9 94 9b 5d b8 0e ae f5 b6
       0.0009566616 -0.0003826229 -5.28354e-05 -7.3218316e-06
000010 4c c1 5a 3a 2e c2 22 ba 8b 42 c9 39 7c 9d 43 39
       0.00083448435 -0.00062087446 0.00038387286 0.00018655317
000020 95 46 82 3b a1 3d 51 39 97 1a 92 3a c2 9a 89 ba
       0.003975699 0.00019954752 0.001114684 -0.0010498392
000030 e6 66 da b9 99 6a af 39 cb de 92 bb 1f 0c 92 b9
       -0.00041656866 0.00033458023 -0.0044821254 -0.0002785632
000040 38 0e ff b9 b2 c4 ad ba 5d c6 cd b9 69 67 f5 3a
       -0.00048647984 -0.0013257472 -0.0003924844 0.0018722835
000050 96 25 16 3a fb 92 17 39 dc 86 e3 39 fa 99 51 ba
       0.00057276466 0.00014455237 0.00043397292 -0.00079956616
000060 56 67 3d bb dc 81 90 3a 26 0a 01 bb c2 56 67 3b
       -0.0028900704 0.0011025029 -0.0019689887 0.0035299514
000070 dc 46 04 3b 16 6f fb 38 fc 39 d2 3a 78 d3 8a ba
       0.0020183837 0.00011989304 0.0016039009 -0.0010591587
000080 32 29 2a b9 b2 c2 0c 37 23 87 aa 3a 4b b7 86 39
       -0.0001622781 8.389981e-06 0.0013010245 0.00025695036
000090 d0 1a 85 ba d9 d2 29 3a 04 79 99 3a 71 e5 48 bb
       -0.0010155085 0.0006478257 0.0011709039 -0.0030654336
0000a0 20 83 97 39 b9 5b 85 bb 9d ef 2b 3b 78 1c 13 ba
       0.0002889866 -0.004069772 0.002623535 -0.0005611847
0000b0 32 69 8b b9 34 f4 94 ba 09 31 c8 39 2a 2d 91 3b
       -0.00026590523 -0.0011364282 0.00038183507 0.004430433
0000c0 9a 45 86 3b 0f 2f 95 3a ca 56 77 3a fb 61 31 ba
       0.0040976526 0.0011381822 0.0009435235 -0.00067666144
0000d0 44 fa a5 39 96 1d 10 bb 7d e1 1a 3a d8 29 e3 3a
       0.00031657715 -0.002199029 0.0005908234 0.0017331196
0000e0 b3 ac 4e b9 dc 5a 04 ba 60 89 4a b9 74 d6 f4 b9
       -0.00019710026 -0.00050489395 -0.00019315397 -0.00046699087
0000f0 2c 49 af 3a 68 c6 5b ba 1d 0b 9e ba c9 43 05 bb
       0.0013373247 -0.0008383752 -0.0012057755 -0.0020334593

base.mlp.fc_h.0.weight f4 [64, 64]
000000 4a fe 8f bd 17 7a 00 3e c9 44 35 be bc 15 5e be
       -0.07030924 0.12546574 -0.1770202 -0.21687979
000010 77 03 ca bd 5e 88 50 3e ae d3 a3 bd d5 8d 24 3b
       -0.09863942 0.2036452 -0.07999359 0.0025108953
000020 65 2c 3f 3d d3 b0 71 3d 95 58 8a 3d 74 f1 ba 3e
       0.046673197 0.059006523 0.06755177 0.3651234
000030 bd de 06 be 12 76 39 be ad b3 e7 bc c5 9a 32 3e
       -0.13170905 -0.18111446 -0.028283918 0.17441852
000040 be 66 be bd eb b7 53 3d 6b c0 81 3e 3d ff 89 be
       -0.0929694 0.05168907 0.25342116 -0.26952544
000050 fe 8f 5f be 21 2e 74 be 9e af c1 3d f0 34 99 be
       -0.21832272 -0.23845722 0.094573244 -0.299232
000060 ef ce 17 3f 6b 1a 28 be b6 8c c2 bd 7c bf 83 3e
       0.5930013 -0.16416328 -0.09499495 0.25732028
000070 8b 6e af 3e eb 91 43 bd e6 91 3f bd a5 c2 45 be
       0.34264025 -0.04774658 -0.04677 -0.19312532
000080 7b a1 42 3d 3e 00 1a 3e 24 cd 6b 3e c4 9a b1 bd
       0.04751728 0.15039155 0.23027474 -0.08672097
000090 3b 9d 8c 3e c2 c1 87 3e 4f ff fe bd 26 6b 35 bf
       0.27463707 0.26515013 -0.1245104 -0.7086662
0000a0 4f 97 89 bd fc ea 60 bd e5 33 7b 3c 9c 4e 4d 3d
       -0.06718313 -0.0549116 0.015332197 0.050123796
0000b0 26 c5 75 3d 30 de 20 bb 6c a3 c3 bd e8 40 ab be
       0.06000247 -0.0024546497 -0.095526546 -0.33447957
0000c0 64 2c 58 3d 00 8e e0 3d 7f 09 0e bd c4 d4 81 3c
       0.05277671 0.10964584 -0.034677025 0.015848525
0000d0 71 4f a2 be 19 71 5c 3d e3 77 aa 3d 9c 31 88 be
       -0.31701234 0.053818796 0.08323648 -0.2660035
0000e0 bd ed 59 be 21 04 6f be 7b 15 ad 3e 92 61 37 be
       -0.21282096 -0.23341419 0.3380545 -0.17908314
0000f0 bd af 9b 3e 3b e1 d0 bd 3f 7d 80 3c 0f ea 27 bd
       0.30407515 -0.10199209 0.015684722 -0.0409947
000100 c6 a0 fc 3c ca b7 30 bd a4 cc da bd c6 02 5c bd
       0.030838381 -0.043144025 -0.10683563 -0.053713582
000110 03 e3 a2 bd 94 95 41 3e b8 91 4b 3e 6e 9d ef 3c
       -0.07953455 0.18904716 0.19879806 0.029249873
000120 95 b3 b2 bb 2d 93 1a 3b 8d 2f 4e 3e 3f 18 74 3d
       -0.0054535368 0.0023586259 0.20135327 0.059593435
000130 81 ad 03 bc 37 e8 b8 bd 9b 96 51 be ee 0d 74 bc
       -0.008036972 -0.090286665 -0.20467608 -0.014895899
000140 4d 0b e8 3d b3 a2 a7 bd 64 f9 8b be 6b 21 46 3d
       0.113302805 -0.08185329 -0.27338707 0.048371714
000150 41 85 54 3e fa 36 01 bf 60 5d f7 3d e1 ce 1b be
       0.20753957 -0.5047451 0.12078357 -0.15215637
000160 df 05 2d be 24 65 67 3e b0 24 9b bd 8f 32 90 3e
       -0.16896771 0.22597176 -0.07575357 0.28163573
000170 cd be 8d bc c9 6c 21 be b5 93 f0 be 21 d9 38 3e
       -0.017302895 -0.15764154 -0.46987692 0.18051578
000180 fc 81 52 3e 72 99 4e 3e 89 eb 40 3e 18 b6 19 3d
       0.20557398 0.20175722 0.1883985 0.037527174
000190 10 d3 b8 be fa 6e 4e 3d 0c ec 0b 3f 57 0d 83 be
       -0.36098528 0.050398804 0.54657054 -0.25596115
0001a0 f6 91 5b be 3c a9 60 3d 0e d4 57 bc 60 d5 8d 3b
       -0.21442398 0.054848894 -0.013173116 0.004328415
0001b0 c1 ae be 3e bc cf c4 3e 7b b7 1c be b7 4d b4 3e
       0.37242702 0.3843974 -0.15304367 0.35215542
0001c0 38 57 52 be 7c 02 0d 3e 2a 7c 9b 3e 57 db d0 3d
       -0.20541084 0.13770479 0.30368167 0.10198086
0001d0 3d 70 2d 3e aa 30 35 3d a6 57 14 3e 37 d4 a1 bd
       0.16937347 0.044235863 0.1448656 -0.07901805
0001e0 80 36 ab 3d 64 49 8a bd 54 7e b9 be 83 6d 75 bd
       0.083600044 -0.067522794 -0.36229193 -0.05991889
0001f0 ce 6c 5e 3e b5 18 86 3e 29 ec 15 be f4 5e a4 3e
       0.21721193 0.26190725 -0.14640869 0.32103693
000200 f9 ec 8c be d6 ef 94 bd aa e0 13 bc 9f 76 55 3e
       -0.27524546 -0.072723076 -0.009025732 0.20846032
000210 c7 db fd 3d 14 68 8e bc 99 98 81 3e fe 6c 04 be
       0.12395435 -0.017383613 0.25311735 -0.12932202
000220 f3 68 00 be 23 4c 41 3e 41 55 8f be ef 71 1a be
       -0.12540035 0.188767 -0.2799473 -0.15082525
000230 49 6d 78 3c f0 15 47 3c 45 35 5d be e3 9e a3 3e
       0.015162774 0.012151226 -0.21602352 0.31957158
000240 52 f7 77 be d2 8c da 3e d7 bd d4 3d b0 66 ca 3e
       -0.24215439 0.42685562 0.103877716 0.3953147
000250 80 59 90 be 0b ac 5c be 87 78 9c 3e de 1b 1a 3e
       -0.28193283 -0.21550004 0.30560705 0.15049693
000260 e3 a7 a7 3e 04 22 f7 bd 48 5a 46 3e ea fe fd 3d
       0.32745275 -0.12067035 0.19370377 0.124021366
000270 a9 2a d6 be 47 1d 1b be 4d 31 6d 3c 25 42 9d 3d
       -0.41829422 -0.15147887 0.014477086 0.07678632
000280 4a 89 a7 3e 81 14 02 3f 48 e6 7d 3c 7e a5 06 3c
       0.3272193 0.50812536 0.015496798 0.008218167
000290 2b fc cc 3c 99 a4 d5 3d f6 77 3e bd 69 2d c1 3d
       0.025022587 0.10431785 -0.046501122 0.094324894
0002a0 d6 17 29 3d 72 c6 df 3e 00 10 ff bd 26 b3 14 3b
       0.041282497 0.4370609 -0.12454224 0.0022689789
0002b0 f8 f3 6b bd 51 c7 c6 3c 79 4b 38 3e 2f ec 2d 3e
       -0.057605714 0.024264963 0.1799754 0.16984628
0002c0 1d 3c f4 3d 00 cd a4 bd 4c de 26 be 7f dd 73 be
       0.11925528 -0.08046913 -0.16295737 -0.23814963
0002d0 32 b2 da bd 62 cb 44 be 76 fd 88 3e b1 0a 87 3e
       -0.10678519 -0.1921821 0.26755875 0.26375344
0002e0 da bd 7b 3e 0c 45 f2 bd 18 bd 45 3e 01 7f 25 be
       0.24584141 -0.11829576 0.19310415 -0.1616173
0002f0 06 6f 1f be 28 6a c1 3d d6 3b 5f 3e 62 b4 6b 3e
       -0.15569696 0.09444076 0.2180017 0.2301803
000300 0e a2 05 3d c7 af ad 3d c7 3f 85 3e f2 7a 0e be
       0.03262525 0.084807925 0.2602522 -0.13914087
000310 49 e0 0b 3e a2 86 02 3e d0 7d 18 3c b7 da 39 3d
       0.13659777 0.12746671 0.00930734 0.0453746
000320 17 52 e7 3e 13 e5 e6 3d 2f 51 80 3e c8 04 0c be
       0.45179817 0.11274161 0.25061938 -0.13673699
000330 3a 83 f6 bd 3d 6d 8e 3e dd 46 08 3e f2 a0 4c bd
       -0.12036748 0.27817717 0.13308282 -0.049958177
000340 a3 37 a5 3e 71 70 0f 3c 70 62 cb be 55 83 1f be
       0.3226901 0.008754835 -0.3972354 -0.15577443
000350 e5 d2 ce bd 0f e7 c0 be 2c 43 e5 bd f0 b5 84 be
       -0.10098819 -0.37676284 -0.11194453 -0.25920057
000360 42 cb b7 3e 50 20 80 ba 23 fc 81 be f4 16 e6 3d
       0.3589726 -0.0009775255 -0.25387678 0.11234847
000370 28 76 af be 5f 86 67 bd de c9 b2 3e 4d 5e 92 3e
       -0.34269834 -0.05652463 0.34919637 0.2858757
000380 6b 58 bf bd ee d2 92 3e 78 a0 a5 bd 24 af 07 3f
       -0.09343036 0.28676552 -0.080872476 0.5300162
000390 c5 f5 46 3e 2c c4 17 be 4c 2f c6 be 7c e2 8a bd
       0.19429691 -0.14820927 -0.3870796 -0.0678148
0003a0 4b 29 1b bd 0f bc 43 3d e9 8c b4 bd bb 32 10 be
       -0.037881177 0.04778677 -0.08815939 -0.14081852
0003b0 0a 24 2a ba 1f f1 1d 3e 19 77 cc 3d 90 2e 55 3d
       -0.00064903556 0.15424012 0.099836536 0.05204636
0003c0 fd a2 2f be f0 ff 94 bc 08 8d 49 be 12 4b af be
       -0.17152019 -0.018188447 -0.19682705 -0.34236962
0003d0 e2 53 58 3e 52 12 8d 3e e2 ff e8 bd ef 67 2b 3e
       0.21125749 0.2755304 -0.11376931 0.16738866
0003e0 2d b1 88 bd 6c c0 19 3e 62 d1 82 be 71 80 0a bd
       -0.066744186 0.1501481 -0.2555037 -0.033813898
0003f0 04 10 a3 3d 05 ba f4 bd 83 54 44 bd 67 2e 80 be
       0.07962039 -0.11949543 -0.04793216 -0.25035402

base.mlp.fc_h.0.bias f4 [64]
000000 00 00 00 00 00 00 00 00 00 00 00 00 00 00 00 00
       0.0 0.0 0.0 0.0
000010 00 00 00 00 00 00 00 00 00 00 00 00 00 00 00 00
       0.0 0.0 0.0 0.0
000020 00 00 00 00 00 00 00 00 00 00 00 00 00 00 00 00
       0.0 0.0 0.0 0.0
000030 00 00 00 00 00 00 00 00 00 00 00 00 00 00 00 00
       0.0 0.0 0.0 0.0
000040 00 00 00 00 00 00 00 00 00 00 00 00 00 00 00 00
       0.0 0.0 0.0 0.0
000050 00 00 00 00 00 00 00 00 00 00 00 00 00 00 00 00
       0.0 0.0 0.0 0.0
000060 00 00 00 00 00 00 00 00 00 00 00 00 00 00 00 00
       0.0 0.0 0.0 0.0
000070 00 00 00 00 00 00 00 00 00 00 00 00 00 00 00 00
       0.0 0.0 0.0 0.0
000080 00 00 00 00 00 00 00 00 00 00 00 00 00 00 00 00
       0.0 0.0 0.0 0.0
000090 00 00 00 00 00 00 00 00 00 00 00 00 00 00 00 00
       0.0 0.0 0.0 0.0
0000a0 00 00 00 00 00 00 00 00 00 00 00 00 00 00 00 00
       0.0 0.0 0.0 0.0
0000b0 00 00 00 00 00 00 00 00 00 00 00 00 00 00 00 00
       0.0 0.0 0.0 0.0
0000c0 00 00 00 00 00 00 00 00 00 00 00 00 00 00 00 00
       0.0 0.0 0.0 0.0
0000d0 00 00 00 00 00 00 00 00 00 00 00 00 00 00 00 00
       0.0 0.0 0.0 0.0
0000e0 00 00 00 00 00 00 00 00 00 00 00 00 00 00 00 00
       0.0 0.0 0.0 0.0
0000f0 00 00 00 00 00 00 00 00 00 00 00 00 00 00 00 00
       0.0 0.0 0.0 0.0

base.mlp.fc_h.2.weight f4 [64]
000000 00 00 80 3f 00 00 80 3f 00 00 80 3f 00 00 80 3f
       1.0 1.0 1.0 1.0
000010 00 00 80 3f 00 00 80 3f 00 00 80 3f 00 00 80 3f
       1.0 1.0 1.0 1.0
000020 00 00 80 3f 00 00 80 3f 00 00 80 3f 00 00 80 3f
       1.0 1.0 1.0 1.0
000030 00 00 80 3f 00 00 80 3f 00 00 80 3f 00 00 80 3f
       1.0 1.0 1.0 1.0
000040 00 00 80 3f 00 00 80 3f 00 00 80 3f 00 00 80 3f
       1.0 1.0 1.0 1.0
000050 00 00 80 3f 00 00 80 3f 00 00 80 3f 00 00 80 3f
       1.0 1.0 1.0 1.0
000060 00 00 80 3f 00 00 80 3f 00 00 80 3f 00 00 80 3f
       1.0 1.0 1.0 1.0
000070 00 00 80 3f 00 00 80 3f 00 00 80 3f 00 00 80 3f
       1.0 1.0 1.0 1.0
000080 00 00 80 3f 00 00 80 3f 00 00 80 3f 00 00 80 3f
       1.0 1.0 1.0 1.0
000090 00 00 80 3f 00 00 80 3f 00 00 80 3f 00 00 80 3f
       1.0 1.0 1.0 1.0
0000a0 00 00 80 3f 00 00 80 3f 00 00 80 3f 00 00 80 3f
       1.0 1.0 1.0 1.0
0000b0 00 00 80 3f 00 00 80 3f 00 00 80 3f 00 00 80 3f
       1.0 1.0 1.0 1.0
0000c0 00 00 80 3f 00 00 80 3f 00 00 80 3f 00 00 80 3f
       1.0 1.0 1.0 1.0
0000d0 00 00 80 3f 00 00 80 3f 00 00 80 3f 00 00 80 3f
       1.0 1.0 1.0 1.0
0000e0 00 00 80 3f 00 00 80 3f 00 00 80 3f 00 00 80 3f
       1.0 1.0 1.0 1.0
0000f0 00 00 80 3f 00 00 80 3f 00 00 80 3f 00 00 80 3f
       1.0 1.0 1.0 1.0

base.mlp.fc_h.2.bias f4 [64]
000000 00 00 00 00 00 00 00 00 00 00 00 00 00 00 00 00
       0.0 0.0 0.0 0.0
000010 00 00 00 00 00 00 00 00 00 00 00 00 00 00 00 00
       0.0 0.0 0.0 0.0
000020 00 00 00 00 00 00 00 00 00 00 00 00 00 00 00 00
       0.0 0.0 0.0 0.0
000030 00 00 00 00 00 00 00 00 00 00 00 00 00 00 00 00
       0.0 0.0 0.0 0.0
000040 00 00 00 00 00 00 00 00 00 00 00 00 00 00 00 00
       0.0 0.0 0.0 0.0
000050 00 00 00 00 00 00 00 00 00 00 00 00 00 00 00 00
       0.0 0.0 0.0 0.0
000060 00 00 00 00 00 00 00 00 00 00 00 00 00 00 00 00
       0.0 0.0 0.0 0.0
000070 00 00 00 00 00 00 00 00 00 00 00 00 00 00 00 00
       0.0 0.0 0.0 0.0
000080 00 00 00 00 00 00 00 00 00 00 00 00 00 00 00 00
       0.0 0.0 0.0 0.0
000090 00 00 00 00 00 00 00 00 00 00 00 00 00 00 00 00
       0.0 0.0 0.0 0.0
0000a0 00 00 00 00 00 00 00 00 00 00 00 00 00 00 00 00
       0.0 0.0 0.0 0.0
0000b0 00 00 00 00 00 00 00 00 00 00 00 00 00 00 00 00
       0.0 0.0 0.0 0.0
0000c0 00 00 00 00 00 00 00 00 00 00 00 00 00 00 00 00
       0.0 0.0 0.0 0.0
0000d0 00 00 00 00 00 00 00 00 00 00 00 00 00 00 00 00
       0.0 0.0 0.0 0.0
0000e0 00 00 00 00 00 00 00 00 00 00 00 00 00 00 00 00
       0.0 0.0 0.0 0.0
0000f0 00 00 00 00 00 00 00 00 00 00 00 00 00 00 00 00
       0.0 0.0 0.0 0.0

base.mlp.fc2.0.0.weight f4 [64, 64]
000000 c4 92 8d bd fd b5 00 3e fa c6 35 be 16 3f 5e be
       -0.06912759 0.12569423 -0.17751685 -0.21703753
000010 de 6d c8 bd 36 db 50 3e 38 df a4 bd 58 31 3e 3a
       -0.097865805 0.20396122 -0.08050388 0.00072552776
000020 34 44 3d 3d 56 c4 70 3d e7 12 92 3d 90 c0 bb 3e
       0.04620762 0.05878099 0.071325116 0.3667035
000030 d5 22 06 be 0a bc 39 be 75 70 f3 bc 0f 9e 32 3e
       -0.13099225 -0.18138137 -0.02971671 0.17443107
000040 37 e7 be bd d9 18 55 3d 5b 84 81 3e 0e ea 89 be
       -0.093214445 0.05202565 0.25296292 -0.26936382
000050 29 57 5f be d9 e1 73 be 50 32 c2 3d 1c 17 99 be
       -0.21810593 -0.23816623 0.094822526 -0.29900444
000060 10 c0 17 3f 81 2a 2a be f4 65 c2 bd 4b 35 83 3e
       0.5927744 -0.16617776 -0.09492102 0.25626597
000070 0a fb af 3e 77 65 59 bd 0f 10 34 bd 06 4d 47 be
       0.34371215 -0.05307528 -0.043960627 -0.19462976
000080 3c 20 44 3d 2c 9b 1a 3e 54 75 6b 3e 58 7b b2 bd
       0.047882304 0.15098256 0.22993976 -0.08714932
000090 65 a4 8d 3e a6 68 87 3e 92 80 fe bd 34 78 35 bf
       0.27664486 0.26447028 -0.124268666 -0.7088654
0000a0 ea 11 8a bd cf b0 5f bd 19 c3 7e 3c 8c aa 4e 3d
       -0.06741698 -0.054611977 0.015549445 0.050455615
0000b0 11 42 7c 3d 0a cf 58 bb d5 62 c3 bd d4 22 ab be
       0.061586443 -0.003308239 -0.09540335 -0.3342501
0000c0 8f 83 58 3d 40 5d df 3d 3a e5 0c bd e6 7f 7e 3c
       0.05285984 0.10906458 -0.034398295 0.015533423
0000d0 65 51 a3 be 0d 05 5b 3d 6c 83 aa 3d 13 07 88 be
       -0.31898037 0.053471614 0.08325848 -0.26567897
0000e0 1c ff 58 be 35 ad 6e be 61 bf aa 3e 28 52 37 be
       -0.21191067 -0.2330826 0.33349136 -0.17902434
0000f0 51 8f 9b 3e b7 0f d1 bd 66 11 60 3c 5a da 26 bd
       0.3038278 -0.102080755 0.013676023 -0.04073558
000100 a4 9b f3 3c c5 d1 32 bd 84 e9 d5 bd 87 55 5a bd
       0.029737301 -0.043657083 -0.1044493 -0.05330422
000110 ef 78 a2 bd 8c dc 40 3e 3c 24 4c 3e fa 28 fa 3c
       -0.079332225 0.18834132 0.19935697 0.030537117
000120 d4 65 bd bb da a0 3c 3b d7 fa 4c 3e 13 b8 6e 3d
       -0.005779961 0.0028782398 0.20017563 0.058281016
000130 52 37 0c bc 7c d1 b7 bd fb ec 51 be 97 3f 71 bc
       -0.008558111 -0.08975503 -0.20500557 -0.014724634
000140 c7 d2 e9 3d a1 f2 a8 bd 59 ab 8b be 89 39 44 3d
       0.11417156 -0.08249403 -0.27279165 0.047906432
000150 c3 fd 53 3e 30 4c 01 bf 26 4b f6 3d 7d 55 1c be
       0.20702271 -0.5050688 0.12026052 -0.15266986
000160 e3 7d 2c be 81 9c 68 3e 1e 1e 9c bd b1 89 90 3e
       -0.16844897 0.22715952 -0.07622932 0.2823005
000170 3b 19 90 bc ce 51 1c be 9d 87 f1 be c4 77 3a 3e
       -0.017590156 -0.15265581 -0.47173777 0.1820975
000180 14 6c 52 3e 0e ed 4d 3e e9 ed 40 3e b3 b6 1d 3d
       0.20549041 0.2010996 0.18840756 0.038504314
000190 84 ab b9 be 7c f1 4c 3d 24 ca 0b 3f 18 cc 82 be
       -0.3626367 0.050034985 0.5460532 -0.25546336
0001a0 71 09 5b be 96 9e 5d 3d e1 15 60 bc dd b2 80 3b
       -0.2139032 0.054106317 -0.013677091 0.003927572
0001b0 06 ea bd 3e 35 04 c5 3e 80 23 1d be 59 0a b4 3e
       0.37092608 0.38479772 -0.15345573 0.35164145
0001c0 81 14 52 be 2d a9 0d 3e 56 1e 9b 3e 16 07 d2 3d
       -0.20515634 0.13834067 0.30296582 0.10255258
0001d0 20 8c 2a 3e c3 d9 37 3d dc d5 14 3e ef 2b a3 bd
       0.16655016 0.044885408 0.14534706 -0.07967364
0001e0 5f e0 aa 3d 7a 60 8b bd fe 82 b7 be e9 5d 74 bd
       0.08343577 -0.06805511 -0.35842127 -0.059659872
0001f0 1d f7 5e 3e b0 e4 85 3e 26 17 10 be d8 1a a4 3e
       0.21773954 0.26151037 -0.1407133 0.3205173
000200 54 57 8c be 37 81 94 bd 24 10 0e bc 22 57 55 3e
       -0.27410376 -0.07251208 -0.00867084 0.2083402
000210 db 94 00 3e 02 84 8c bc f5 48 81 3e ba 66 06 be
       0.12556784 -0.01715279 0.25250974 -0.13125125
000220 80 95 01 be 74 15 41 3e 4e 43 8d be c7 61 18 be
       -0.12654686 0.1885584 -0.27590412 -0.14881049
000230 20 68 84 3c 3a f5 42 3c 3b ed 5f be d8 cd a3 3e
       0.016162932 0.011899287 -0.2186784 0.31992984
000240 36 08 78 be 78 b5 da 3e 94 7b d3 3d 0f 78 ca 3e
       -0.24221882 0.42716575 0.10326305 0.39544722
000250 dd 40 90 be 73 4f 5c be d5 97 9c 3e b7 52 1a 3e
       -0.28174487 -0.21514682 0.3058459 0.15070616
000260 3e 8c a7 3e 88 c6 fb bd 36 5c 46 3e 44 5b fb 3d
       0.32724184 -0.12293726 0.19371113 0.12273267
000270 b9 4c d5 be 7c e9 20 be 2a 69 90 3c 7b e6 99 3d
       -0.41660097 -0.15714067 0.017628271 0.07514664
000280 ca a4 a7 3e cb 40 02 3f 69 ab 77 3c d6 98 02 3c
       0.32742912 0.50880116 0.015116551 0.007971009
000290 cf 90 dc 3c b3 dd d2 3d 22 86 3d bd a5 ce c0 3d
       0.026924519 0.10296192 -0.046270497 0.09414414
0002a0 38 2f 28 3d a3 d6 df 3e 9d a7 fe bd be b5 33 3b
       0.041060656 0.43718442 -0.124343134 0.002742156
0002b0 0e 4e 65 bd e2 23 bc 3c 93 64 38 3e 64 23 2e 3e
       -0.055982642 0.022966329 0.18007116 0.17005688
0002c0 73 88 f4 3d e2 23 a6 bd 39 a3 26 be ef 2f 74 be
       0.11940088 -0.08112313 -0.16273202 -0.2384641
0002d0 c7 58 e2 bd be 1f 45 be f6 19 89 3e 18 2b 87 3e
       -0.11052089 -0.1925039 0.2677762 0.26400065
0002e0 5a 12 7d 3e ba 89 f1 bd 92 83 40 3e 4a 65 25 be
       0.24714032 -0.117938474 0.1880019 -0.1615192
0002f0 5d ad 1f be ce f5 c0 3d 55 77 61 3e f8 f5 6b 3e
       -0.15593477 0.094218835 0.22018178 0.23043048
000300 17 84 0d 3d a0 92 aa 3d de d2 86 3e e5 b4 0c be
       0.0345498 0.08328748 0.26332754 -0.13740881
000310 88 19 0f 3e e8 e8 00 3e 4b 1d 15 3c 9f c9 32 3d
       0.13974583 0.12588847 0.009101222 0.043649312
000320 61 61 e6 3e 1e 28 ea 3d af 1b 82 3e e7 1d 09 be
       0.4499617 0.11433433 0.25411746 -0.13390313
000330 f3 ce f7 bd 0a 25 8f 3e 44 25 05 3e 43 a6 51 bd
       -0.12100019 0.27957946 0.13002497 -0.05118395
000340 40 1e a6 3e 64 34 ee 3b 1c b5 ca be d4 3d 21 be
       0.32444954 0.007269429 -0.395913 -0.15746242
000350 57 fb d1 bd d0 62 c1 be 04 5c e8 bd 44 7d 85 be
       -0.102530174 -0.377707 -0.113456756 -0.26072133
000360 69 9b b8 3e a9 1f 98 bb 3f cf 82 be 17 b4 e5 3d
       0.3605607 -0.004642446 -0.2554874 0.1121599
000370 ac fe ad be 9c a9 74 bd 04 c8 b4 3e 98 b8 90 3e
       -0.33983362 -0.059732065 0.3530885 0.28265834
000380 0b 4a c1 bd d0 95 92 3e 2b b7 a9 bd a6 1f 08 3f
       -0.09437951 0.28629923 -0.0828689 0.5317329
000390 2c 8d 47 3e 7f 14 1b be f1 f3 c6 be 23 a2 87 bd
       0.19487447 -0.15144537 -0.38857988 -0.06622722
0003a0 d5 af 14 bd 30 95 3c 3d 2f a8 b7 bd 74 ee 10 be
       -0.0363005 0.046040714 -0.08967625 -0.14153463
0003b0 e9 8e 0d 3b 0f 36 1c 3e 6a 39 c9 3d c3 00 4f 3d
       0.0021600074 0.15254997 0.09825404 0.050537836
0003c0 c4 a5 2d be 6f d2 8a bc 4f 4f 4b be 12 86 ae be
       -0.16957766 -0.016946046 -0.19854473 -0.34086663
0003d0 54 c5 54 3e 6c c7 8d 3e 3e d4 e4 bd a9 54 2a 3e
       0.207784 0.2769121 -0.111732945 0.16633858
0003e0 e8 0a 83 bd e4 46 18 3e 9e 4b 84 be 08 30 04 bd
       -0.063985646 0.14870793 -0.2583894 -0.03227237
0003f0 18 45 a6 3d 57 98 f7 bd 06 f6 40 bd 88 f0 80 be
       0.08118647 -0.120896034 -0.047109626 -0.2518351

base.mlp.fc2.0.0.bias f4 [64]
000000 1d 88 26 39 ff cb f5 b9 ca 85 02 39 f6 ac d4 ba
       0.000158817 -0.0004688203 0.00012447606 -0.0016225863
000010 4e 53 19 39 ed a7 44 ba b2 9a 70 3a cd 95 da b9
       0.0001462225 -0.00075018295 0.0009178325 -0.0004169181
000020 94 0d af 3a 2e 00 e2 b9 86 11 bd b8 87 9f fc b9
       0.0013355487 -0.00043106213 -9.015486e-05 -0.00048184043
000030 77 f3 1a 39 4d b5 c2 39 3e 74 f0 3a 81 48 3d 3a
       0.00014777282 0.00037137643 0.001834519 0.0007220582
000040 3f 29 5b ba a8 fd 6f 3b cb 20 5c b9 1a 74 b7 ba
       -0.0008360333 0.0036619697 -0.00020993051 -0.0013996393
000050 e2 1f 1b 3a bc 0d 8b ba 60 0c 7e bb 70 60 4b b8
       0.00059175317 -0.0010608952 -0.00387647 -4.8488786e-05
000060 c8 fd f2 ba 07 dd 81 bb 96 b0 be 3b 62 d9 54 ba
       -0.0018538767 -0.003963116 0.0058193905 -0.0008119551
000070 96 fe c4 39 4b a7 56 39 83 b9 ab b9 34 f4 8a 3b
       0.00037573715 0.00020470952 -0.0003275388 0.004240537
000080 b1 76 b3 ba dd 5d 74 b9 c7 9d b5 3a 27 7a 52 39
       -0.0013691989 -0.0002330462 0.0013856225 0.00020072666
000090 19 c5 1d ba 38 a9 5a ba 13 69 7d ba 65 4a ee 39
       -0.00060184445 -0.00083412556 -0.00096668414 0.00045450326
0000a0 ed fd 89 bb c3 7e fd ba 3d d3 0d 39 4d 63 a8 b9
       -0.0042111785 -0.0019340146 0.000135255 -0.00032117442
0000b0 1a 0b 89 3a e8 8b 8e 3b df 2f 75 3a 29 25 a9 3a
       0.0010455579 0.004350174 0.00093531416 0.0012904751
0000c0 0d de e5 3a e1 e2 c1 38 72 25 86 38 e7 8a 33 3b
       0.001753749 9.245217e-05 6.396593e-05 0.0027396025
0000d0 86 61 9b b9 d1 9e f7 ba 98 1f 28 3a 0f bd c3 3a
       -0.00029636564 -0.0018891935 0.0006413399 0.0014933663
0000e0 89 4a b3 37 26 d3 c3 39 6b f4 5d 3a ad 96 c4 39
       2.1373171e-05 0.00037350616 0.0008466902 0.00037496295
0000f0 4b 82 49 3b 9f 4f 14 3a da 4e 3a ba c4 d8 7d 3a
       0.0030747827 0.00056576164 -0.0007107087 0.00096834847

base.mlp.fc2.0.2.weight f4 [64]
000000 13 03 80 3f a5 05 80 3f 5a f4 7f 3f f3 ff 7f 3f
       1.0000938 1.0001723 0.99982226 0.9999992
000010 41 27 7f 3f df f4 7f 3f 72 fd 7f 3f ea 3e 80 3f
       0.9966927 0.9998302 0.999961 1.00192
000020 e7 4c 80 3f 6f 23 80 3f ce a5 7f 3f ac 05 80 3f
       1.0023469 1.0010813 0.9986237 1.0001731
000030 5f 0a 80 3f 48 f8 7f 3f ee 14 80 3f 32 da 7f 3f
       1.0003165 0.9998822 1.0006387 0.99942315
000040 cd d1 7f 3f 7b ee 7f 3f da 25 80 3f 82 ba 7f 3f
       0.99929506 0.9997327 1.0011551 0.99893963
000050 9f a9 7f 3f 8d fb 7f 3f 03 01 80 3f b5 56 80 3f
       0.99868196 0.9999321 1.0000309 1.0026461
000060 42 f8 7f 3f dd 27 80 3f d2 45 7f 3f b0 fb 7f 3f
       0.99988186 1.0012165 0.9971591 0.9999342
000070 19 0a 80 3f 5f 87 7f 3f 17 2b 80 3f 45 01 80 3f
       1.0003082 0.99815935 1.001315 1.0000387
000080 90 08 80 3f 1f 96 7e 3f 8a 00 80 3f 23 f6 7f 3f
       1.0002613 0.99447817 1.0000165 0.9998495
000090 69 b0 7f 3f 27 fe 7f 3f fd f0 7f 3f 65 01 80 3f
       0.99878556 0.9999718 0.99977094 1.0000426
0000a0 8d fa 7f 3f 53 14 80 3f e6 18 80 3f 38 19 80 3f
       0.99991685 1.0006202 1.0007598 1.0007696
0000b0 e0 0d 80 3f d8 90 7f 3f 21 f2 7f 3f 4b 05 80 3f
       1.0004234 0.9983039 0.99978834 1.0001615
0000c0 3a d4 7f 3f 67 fe 7f 3f 9b f5 7f 3f 60 8c 7f 3f
       0.9993321 0.9999756 0.9998414 0.9982357
0000d0 a2 fd 7f 3f d2 fb 7f 3f 12 f9 7f 3f 6f de 7f 3f
       0.9999639 0.9999362 0.99989426 0.9994878
0000e0 74 de 7e 3f 3a 00 80 3f f1 fd 7f 3f 92 dc 7f 3f
       0.99558187 1.0000069 0.9999686 0.9994594
0000f0 73 03 80 3f cb c4 7e 3f 90 3c 80 3f f6 bc 7f 3f
       1.0001053 0.9951903 1.0018482 0.99897707

base.mlp.fc2.0.2.bias f4 [64]
000000 38 62 b2 b8 7b 4c 8f 38 07 6b d9 b8 8e c4 82 b8
       -8.505996e-05 6.833017e-05 -0.00010367302 -6.235494e-05
000010 bf 07 41 38 bf 90 01 b9 38 0e 24 38 e2 bb cb 38
       4.6022e-05 -0.00012356321 3.911389e-05 9.71479e-05
000020 a9 93 d3 b8 61 2f dc 38 53 d8 a8 b8 42 75 92 38
       -0.00010088768 0.000104992425 -8.051158e-05 6.9836635e-05
000030 66 48 c5 38 b5 0e ce b7 ef 22 07 39 3d 69 e5 b8
       9.407177e-05 -2.4563962e-05 0.00012887617 -0.00010939173
000040 50 b6 a4 b8 55 b8 25 39 9c b0 c7 b8 63 f9 df 38
       -7.854088e-05 0.00015804295 -9.5219555e-05 0.000106799205
000050 85 72 af 38 5e 42 89 b8 6d 77 b4 b8 4d 07 d3 38
       8.365981e-05 -6.545031e-05 -8.6053136e-05 0.00010062624
000060 d7 57 0d 39 f9 7c cf b8 a0 59 34 bb 8a 60 ce b8
       0.00013479531 -9.893807e-05 -0.002751924 -9.840827e-05
000070 f2 2f d3 b8 47 e1 ab b8 19 13 a2 38 50 c3 93 38
       -0.000100701945 -8.1958766e-05 7.728319e-05 7.045886e-05
000080 b3 d8 7a 38 1e b2 b0 38 a3 15 03 38 f4 f9 d2 b8
       5.980646e-05 8.425511e-05 3.1252985e-05 -0.00010060138
000090 3b 67 ec 38 77 11 6a b8 67 45 a9 b8 82 8e 98 b8
       0.00011272585 -5.5806213e-05 -8.071475e-05 -7.274469e-05
0000a0 58 80 b4 b8 15 87 cf b8 00 f1 d8 b8 cf 9d aa 38
       -8.606975e-05 -9.89569e-05 -0.000103445724 8.135626e-05
0000b0 e9 6c 07 39 45 41 b5 38 e2 bd b1 38 bd 98 8f b8
       0.00012915175 8.64291e-05 8.475386e-05 -6.847221e-05
0000c0 15 d0 b1 38 d6 bc d0 38 2b bc d6 b8 29 64 41 b8
       8.478776e-05 9.953386e-05 -0.00010239364 -4.6108067e-05
0000d0 05 da 93 b8 96 bd 97 b8 99 6b 34 38 c0 01 00 b9
       -7.0501155e-05 -7.235554e-05 4.3015552e-05 -0.00012207683
0000e0 43 b7 8d b8 3e e7 82 38 d8 15 ee 38 f2 c2 a7 38
       -6.757539e-05 6.241955e-05 0.00011352793 7.999492e-05
0000f0 8f ab d3 38 af 0b 9e b8 f1 8f e2 38 c8 07 e4 b8
       0.00010093219 -7.536203e-05 0.00010803331 -0.000108733366

v_out.weight f4 [1, 64]
000000 44 85 47 3e f2 4c 5c bd b3 75 c7 3d 3c 45 2e 3d
       0.1948443 -0.05378432 0.09739246 0.042546496
000010 0b 5f d7 bc 2d 1d 19 3d d6 18 c3 bc c3 88 51 be
       -0.026290437 0.03738134 -0.023815554 -0.20462327
000020 20 1b fe 3d 88 d4 9f bd c5 8f ef 3d c5 c8 6a bd
       0.124075174 -0.07804209 0.11697344 -0.057320375
000030 97 16 e1 be dc b0 2c bc 75 05 06 bd e6 16 89 3d
       -0.43962547 -0.010540213 -0.032720048 0.06693821
000040 cc 34 c3 3d 78 5f a7 3b 14 c5 83 3e 5e 4d 99 bd
       0.095315546 0.0051078163 0.25736296 -0.0748546
000050 ef ad 20 be 83 a1 42 3d 93 46 6b 3e ce a6 32 be
       -0.1569135 0.04751731 0.2297614 -0.17446443
000060 e5 7c e2 bc 91 0d 23 3e 4f 0d 62 b9 fc c6 31 3e
       -0.027647445 0.15923144 -0.00021557997 0.17361063
000070 18 e2 04 3e f7 b0 e9 3d ca 2d 97 bd fa 2c 72 bd
       0.12976873 0.114107065 -0.073817804 -0.059124924
000080 1c 73 20 bd 52 33 d9 bd 2b dd a9 bc 98 81 06 3e
       -0.039172277 -0.10605492 -0.020735344 0.13135374
000090 38 2f 75 bd 3f 91 0e 3d 8b 8d ef 3d 7d 7f 87 3d
       -0.059859484 0.034806486 0.11696919 0.06616113
0000a0 a5 5f 6c 3e 72 2c 25 3e 9c f8 d8 3d 08 9c c8 bd
       0.2308336 0.16130236 0.105942935 -0.097953856
0000b0 28 f3 01 bd 13 ef 75 be ee 46 41 be 35 b0 59 3d
       -0.031726032 -0.24016981 -0.18874714 0.05314656
0000c0 23 b2 45 be 35 83 15 be 3d 5b e1 3d fa e9 fd bb
       -0.19306235 -0.14600833 0.110037304 -0.0077488394
0000d0 7a d4 73 3d 3f e2 84 3d 8c 23 d6 bc 11 2e 19 3d
       0.059528805 0.064884655 -0.026139997 0.037397448
0000e0 66 4d 28 3d ab d4 2d bd d4 73 60 bd a8 75 e6 bd
       0.041089438 -0.042439144 -0.054797962 -0.1125291
0000f0 d3 11 02 be 0b ef 6d 3d dd 6b 91 bd da 9b 84 3d
       -0.12702112 0.058089297 -0.071006514 0.06475039
