results/MyEnv/MyEnv/mappo/check/run85/models/critic_agent1.pt (torch, 89374 bytes, 15 tensors)

base.feature_norm.weight f4 [182]
0	0x3f7f687c	0.99768806
1	0x3f7fe6eb	0.9996173
2	0x3f7fce79	0.9992443
3	0x3f7fe1a9	0.99953705
4	0x3f8017ac	1.0007224
5	0x3f800648	1.0001917
6	0x3f7f9ac7	0.99845546
7	0x3f802f12	1.0014365
8	0x3f8009b7	1.0002965
9	0x3f8057a5	1.0026747
10	0x3f7fe9bd	0.9996603
11	0x3f8020ef	1.001005
12	0x3f802565	1.0011412
13	0x3f7ff6f1	0.9998618
14	0x3f800792	1.000231
15	0x3f7fe7f9	0.9996334
16	0x3f805925	1.0027205
17	0x3f801030	1.000494
18	0x3f800f6c	1.0004706
19	0x3f7fef7e	0.9997481
20	0x3f8053b1	1.002554
21	0x3f7fdd17	0.9994673
22	0x3f800ee0	1.000454
23	0x3f80541d	1.0025669
24	0x3f800903	1.000275
25	0x3f7fc963	0.99916667
26	0x3f7ff3fb	0.9998166
27	0x3f80162e	1.0006769
28	0x3f800103	1.0000309
29	0x3f7fefa8	0.9997506
30	0x3f8000a0	1.0000191
31	0x3f7ff870	0.9998846
32	0x3f80166f	1.0006846
33	0x3f7fd34d	0.99931794
34	0x3f7ff88f	0.99988645
35	0x3f800def	1.0004252
36	0x3f7ff524	0.9998343
37	0x3f7fe667	0.9996094
38	0x3f7ff3e4	0.9998152
39	0x3f809858	1.0046492
40	0x3f8010c7	1.000512
41	0x3f7f9487	0.9983601
42	0x3f80073b	1.0002207
43	0x3f809abb	1.004722
44	0x3f7fdd56	0.99947107
45	0x3f800991	1.000292
46	0x3f800836	1.0002506
47	0x3f7ff38c	0.99981
48	0x3f7fdfb0	0.99950695
49	0x3f7fdecf	0.99949354
50	0x3f802bfa	1.001342
51	0x3f800411	1.0001241
52	0x3f80015e	1.0000417
53	0x3f7fd8e8	0.9994035
54	0x3f7fc9da	0.99917376
55	0x3f8006ea	1.000211
56	0x3f7fdf96	0.9995054
57	0x3f8062b5	1.0030123
58	0x3f8002bb	1.0000833
59	0x3f8016c3	1.0006946
60	0x3f804350	1.0020542
61	0x3f800be1	1.0003625
62	0x3f7feca9	0.9997049
63	0x3f7ffa84	0.9999163
64	0x3f8019ba	1.0007851
65	0x3f802169	1.0010196
66	0x3f8010b4	1.0005097
67	0x3f7fda61	0.99942595
68	0x3f7fde0d	0.999482
69	0x3f7fab00	0.998703
70	0x3f7ff84b	0.9998824
71	0x3f7ffe38	0.9999728
72	0x3f7fb995	0.9989255
73	0x3f8006c9	1.0002071
74	0x3f7ec4aa	0.99518836
75	0x3f7ff1a6	0.999781
76	0x3f80130b	1.0005811
77	0x3f802c46	1.0013511
78	0x3f7faa43	0.99869174
79	0x3f7fd0e7	0.99928135
80	0x3f7f4eb1	0.9972945
81	0x3f803358	1.0015669
82	0x3f7fb80c	0.9989021
83	0x3f7fbe03	0.9989931
84	0x3f7f049c	0.9961641
85	0x3f7ff2ec	0.99980044
86	0x3f801c61	1.000866
87	0x3f7f77b3	0.9979202
88	0x3f7fee09	0.9997259
89	0x3f7fe310	0.99955845
90	0x3f7fb7be	0.99889743
91	0x3f7ed3b4	0.99541783
92	0x3f7fbf57	0.99901336
93	0x3f801fec	1.0009742
94	0x3f800f01	1.0004579
95	0x3f7fe64e	0.9996079
96	0x3f7fbb7b	0.9989545
97	0x3f804a6c	1.0022712
98	0x3f7fbd0b	0.9989783
99	0x3f80158d	1.0006577
100	0x3f7e92eb	0.9944293
101	0x3f7f8881	0.99817663
102	0x3f800d56	1.000407
103	0x3f7fb50c	0.9988563
104	0x3f800689	1.0001994
105	0x3f803eaa	1.0019124
106	0x3f804328	1.0020494
107	0x3f7faf41	0.9987679
108	0x3f800929	1.0002795
109	0x3f80129e	1.0005682
110	0x3f802dda	1.0013993
111	0x3f7fe20d	0.999543
112	0x3f7fd547	0.9993481
113	0x3f801756	1.0007122
114	0x3f7fd9e2	0.9994184
115	0x3f7f9836	0.9984163
116	0x3f801805	1.000733
117	0x3f800a4e	1.0003145
118	0x3f7faec5	0.9987605
119	0x3f7ff2f9	0.9998012
120	0x3f7ff4f8	0.9998317
121	0x3f8000a9	1.0000201
122	0x3f80036f	1.0001048
123	0x3f7ff968	0.9998994
124	0x3f7f98a3	0.9984228
125	0x3f802483	1.0011142
126	0x3f7ff2c8	0.9997983
127	0x3f7fe2f4	0.9995568
128	0x3f8016c9	1.0006953
129	0x3f7ff147	0.99977535
130	0x3f80040b	1.0001234
131	0x3f800f67	1.00047
132	0x3f7f649c	0.9976289
133	0x3f7fdeb8	0.99949217
134	0x3f800e2d	1.0004326
135	0x3f7fff6e	0.9999913
136	0x3f80404a	1.001962
137	0x3f802659	1.0011703
138	0x3f7feb46	0.99968374
139	0x3f800b77	1.0003499
140	0x3f7ef29b	0.99588937
141	0x3f7fff89	0.9999929
142	0x3f7fc88c	0.99915385
143	0x3f7fc50a	0.9991003
144	0x3f7ff615	0.99984866
145	0x3f802136	1.0010135
146	0x3f7fc52a	0.99910223
147	0x3f8005c2	1.0001757
148	0x3f801532	1.0006468
149	0x3f7fcd96	0.99923074
150	0x3f806669	1.0031253
151	0x3f806e67	1.0033692
152	0x3f8002e4	1.0000882
153	0x3f7f6c6f	0.9977483
154	0x3f801a6d	1.0008065
155	0x3f7fe584	0.9995959
156	0x3f7ffc72	0.99994576
157	0x3f8003e9	1.0001193
158	0x3f800f95	1.0004755
159	0x3f7fa785	0.9986499
160	0x3f800ab5	1.0003268
161	0x3f7f86d2	0.99815094
162	0x3f7faf5e	0.99876964
163	0x3f805359	1.0025436
164	0x3f8021d8	1.0010328
165	0x3f800797	1.0002316
166	0x3f7fd877	0.99939674
167	0x3f7fcea8	0.9992471
168	0x3f7f7aea	0.99796927
169	0x3f7feb3b	0.9996831
170	0x3f800320	1.0000954
171	0x3f7fb9a6	0.9989265
172	0x3f7fb687	0.9988789
173	0x3f7feb63	0.99968547
174	0x3f80055d	1.0001637
175	0x3f80200a	1.0009778
176	0x3f7fb4e2	0.9988538
177	0x3f7ffe2a	0.999972
178	0x3f7fa6ee	0.9986409
179	0x3f802023	1.0009807
180	0x3f800bde	1.0003622
181	0x3f7fff05	0.99998504

base.feature_norm.bias f4 [182]
0	0x3b203aee	0.0024449187
1	0x39e80bfd	0.0004425942
2	0x3a424828	0.0007411265
3	0x3a43ae96	0.0007464675
4	0xba2ead25	-0.0006663374
5	0xb97c13f2	-0.00024040023
6	0x399af9d6	0.0002955931
7	0xbac72a84	-0.0015195166
8	0xb9818d35	-0.00024710005
9	0xba123cd5	-0.00055785227
10	0x39d61d46	0.0004083907
11	0xba7d49e7	-0.00096621964
12	0xba9bc710	-0.0011884887
13	0x390fbf26	0.00013708751
14	0x396e8925	0.00022748539
15	0x39b2eb9a	0.00034126343
16	0xbb326631	-0.0027221555
17	0xba3a6c7d	-0.0007111503
18	0xb9b90fc7	-0.00035297705
19	0x3a2f6edc	0.00066922395
20	0xbaf5848e	-0.0018731521
21	0xba0b300a	-0.00053095876
22	0x39ea1e7f	0.0004465468
23	0x3b28499e	0.0025678645
24	0x39865a39	0.00025625693
25	0xba5b90ab	-0.0008375744
26	0xb9497a61	-0.00019214443
27	0x3a2cb89a	0.0006588787
28	0x3777cddd	1.47702785e-05
29	0xb98273bc	-0.0002488176
30	0x37b70398	2.1816973e-05
31	0xb8f64823	-0.000117436306
32	0x3a32e10a	0.00068236946
33	0xba34c36d	-0.0006895576
34	0xb9071641	-0.00012882893
35	0x39db80fe	0.00041867042
36	0xb96b92d9	-0.00022466051
37	0xb9ce0942	-0.0003929828
38	0xb943c38a	-0.00018669493
39	0x3b996564	0.004681276
40	0x3a08b994	0.00052156416
41	0xbad7c58e	-0.0016462074
42	0x3969448c	0.00022246147
43	0x3b9af2b4	0.0047286395
44	0xba05b37e	-0.0005100294
45	0x399cab68	0.00029882346
46	0x398680ff	0.0002565458
47	0xb95b3f40	-0.0002090903
48	0xb9fd17b0	-0.0004827357
49	0xba00d817	-0.00049150124
50	0x3aad4472	0.0013219251
51	0x3901e5c6	0.00012387996
52	0x38bced18	9.008701e-05
53	0xba19c0e3	-0.0005865229
54	0xba59704c	-0.00082946266
55	0x3968d45a	0.00022204351
56	0xba068b9b	-0.0005132497
57	0x3b412a48	0.0029474664
58	0x38c0b5bd	9.189125e-05
59	0x3a33104f	0.0006830738
60	0x3b03e98e	0.0020128223
61	0x39c52340	0.0003760103
62	0xb996d898	-0.00028771604
63	0xb8ad7053	-8.270205e-05
64	0x3a50a94d	0.0007959798
65	0x3a81488e	0.0009863542
66	0x39fdca77	0.00048406768
67	0xba185782	-0.00058113795
68	0xba071f48	-0.00051545026
69	0xbaa90025	-0.001289372
70	0xb8ee1148	-0.00011351943
71	0xb7a7b423	-1.9991834e-05
72	0xba8c6b19	-0.001071307
73	0x39615489	0.00021489164
74	0xbb9ef6d6	-0.0048512025
75	0xb9702efb	-0.00022905685
76	0x3a1a1314	0.00058774767
77	0x3aae0508	0.0013276646
78	0xbaa8138b	-0.0012823207
79	0xba40e5d5	-0.00073584664
80	0xbb2ae55c	-0.002607665
81	0x3accc292	0.0015621951
82	0xba8f0e9f	-0.0010914392
83	0xba841e4e	-0.0010079832
84	0xbb7ec925	-0.0038877216
85	0xb9470d8c	-0.00018983166
86	0x3a62aec0	0.00086472556
87	0xbb0819fc	-0.002076744
88	0xb98f3281	-0.00027312714
89	0xb9ddce0a	-0.00042305916
90	0x3adb0a0b	0.0016711367
91	0x3b8dabaa	0.0043234425
92	0x3a919ba0	0.0011109002
93	0xba94dfc1	-0.0011358188
94	0xb9ab433f	-0.00032665764
95	0x39d7c70e	0.00041156303
96	0x3a70e773	0.0009189762
97	0x3bad1d01	0.0052829986
98	0x3a8926c2	0.0010463821
99	0xba0f064a	-0.0005455954
100	0x3995fa55	0.00028606007
101	0x3b07d449	0.0020725897
102	0xb9c98003	-0.00038433084
103	0x3a9ac49d	0.0011807863
104	0xb939688a	-0.00017681919
105	0x3af1f761	0.0018460565
106	0xbb092b55	-0.002093037
107	0x3aa16e44	0.0012316187
108	0xb99c64c7	-0.00029829724
109	0xba1bd8c8	-0.00059450837
110	0x3ab4e228	0.001380031
111	0xba068fdd	-0.00051331316
112	0xba2a24e6	-0.00064904836
113	0x3a4e5b84	0.0007871913
114	0xba15478c	-0.000569456
115	0xbad3f6aa	-0.0016171534
116	0x3a3f23e6	0.0007291421
117	0x39a5c034	0.00031614455
118	0xbaa247f6	-0.0012381065
119	0xb954fdef	-0.00020312493
120	0xb923a2c0	-0.0001560552
121	0x3760c7d4	1.33979665e-05
122	0x38d168dc	9.985428e-05
123	0xb8cebd1f	-9.858072e-05
124	0xbac7ce3c	-0.0015243958
125	0x3a8d645a	0.0010787353
126	0xb94dfb2c	-0.00019643892
127	0xb9da49ac	-0.0004163509
128	0x3a30af12	0.00067399547
129	0xb96a4791	-0.0002234264
130	0x39028f58	0.00012451166
131	0x39f6450f	0.0004697223
132	0xbb1d47e4	-0.002399915
133	0xba03e6f7	-0.000503167
134	0x39df55fe	0.00042597944
135	0xb72ca86a	-1.0291211e-05
136	0x3b0404cd	0.0020144463
137	0x3a995f79	0.0011701427
138	0xb9a50552	-0.00031475216
139	0x39b97b2f	0.0003537773
140	0xbb869e73	-0.004108244
141	0xb733c811	-1.0715813e-05
142	0xba657394	-0.0008752879
143	0xba6b8203	-0.0008983912
144	0xb9124989	-0.00013951039
145	0x3a2effa5	0.0006675667
146	0x39373086	0.00017470316
147	0xba443718	-0.0007485016
148	0x3a22cc14	0.00062102196
149	0xba33aec8	-0.00068543525
150	0x3b4d566f	0.0031332036
151	0x3b8181ec	0.0039522555
152	0x38a868b5	8.0303675e-05
153	0xbb106957	-0.0022035444
154	0x3a58a901	0.00082649296
155	0xb9d220a0	-0.0004007863
156	0xb84fc876	-4.953934e-05
157	0x389e5fa9	7.551845e-05
158	0x39f55533	0.0004679352
159	0xbab27e3e	-0.0013617945
160	0x39ac5d57	0.0003287594
161	0xbaf3efcf	-0.0018610897
162	0xbaa4267b	-0.0012523675
163	0x3b25fcb0	0.0025327615
164	0x3a82eb04	0.0009988253
165	0x3974b3d2	0.00023336642
166	0xba084d44	-0.0005199502
167	0xba3d8a4b	-0.0007230385
168	0xbb097bb6	-0.0020978278
169	0xb9a84ec2	-0.00032102136
170	0x38aeac3f	8.32905e-05
171	0xba8c3f28	-0.0010699974
172	0xba8b2d78	-0.0010618409
173	0xb9a0a519	-0.00030640585
174	0x3929c5b8	0.00016190752
175	0x3a8051ec	0.000979004
176	0xba9345ae	-0.0011235976
177	0xb836392e	-4.3445434e-05
178	0xbab2f5e8	-0.0013653608
179	0x3a843572	0.0010086729
180	0x39c2ecd5	0.00037179017
181	0xb71beb45	-9.293498e-06

base.mlp.fc1.0.weight f4 [64, 182]
0	0xbe2dad88	-0.16960728
1	0xbdce957d	-0.100871064
2	0xbd9e6de0	-0.07735801
3	0x3da9d366	0.08292274
4	0xbcd85a06	-0.026410114
5	0xbe126a20	-0.14298296
6	0x3e96fdb8	0.29490447
7	0x3e3f5a9f	0.18686913
8	0xbd09b4c3	-0.033619653
9	0xbd67ab38	-0.05655977
10	0x3e2d5d38	0.16930091
11	0x3d9c6464	0.076363355
12	0xbd694c45	-0.056957502
13	0xbd8c6b54	-0.06856409
14	0x3e9f9614	0.31169188
15	0x3dc2b1a0	0.095065355
16	0x3e013596	0.12618098
17	0xbe43401b	-0.19067423
18	0x3d44c8b6	0.048042975
19	0x3dc62b8f	0.09676277
20	0xbe115165	-0.14191206
21	0x3d5f32c5	0.054491777
22	0x3de9f0d8	0.114228904
23	0x3d1e09d5	0.038583595
24	0x3d6fd6df	0.058554526
25	0x3e1670be	0.14691445
26	0xbe90052d	-0.2812895
27	0x3dc2a415	0.095039524
28	0x3bb3364f	0.0054691206
29	0x3e4a341b	0.19746439
30	0xbd79d65c	-0.060995445
31	0x3e6f7828	0.2338568
32	0x3da5eedf	0.08102202
33	0x3e20a73e	0.15688798
34	0x3c093d53	0.008376437
35	0x3c496a49	0.012293407
36	0xbd2c6d4c	-0.04209642
37	0x3e0cf438	0.13765037
38	0x3cc4da2e	0.024029817
39	0x3e5d6cc0	0.21623516
40	0xbde219dc	-0.110400885
41	0xbcac55e5	-0.021037051
42	0xbe09a82b	-0.13443057
43	0x3d34bd55	0.044125874
44	0xbdef96c9	-0.11698682
45	0xbde47880	-0.11155796
46	0x3d62cfeb	0.055374067
47	0x3d044c0b	0.032299083
48	0x3deab3c1	0.114600666
49	0xbc2a8101	-0.0104067335
50	0x3e6adf63	0.22936778
51	0x3e73c20e	0.23804495
52	0xbdd3d9d7	-0.10344284
53	0xbe12567d	-0.14290805
54	0xbdfa0d07	-0.12209516
55	0x3e61fbbf	0.2206869
56	0xbbeb5d8c	-0.0071827825
57	0xbe59273e	-0.21206376
58	0xbe593225	-0.21210535
59	0x3dc4b69a	0.09605141
60	0x3d9f8221	0.07788492
61	0x3d69924f	0.057024296
62	0xbd7569bf	-0.0599153
63	0x3d6dfaa5	0.05810036
64	0xbd8f47d5	-0.06996123
65	0x3c88b4d3	0.016687786
66	0xbd9b3531	-0.07578505
67	0x39c53c7b	0.0003761983
68	0xbdefad76	-0.11703007
69	0xbe06409f	-0.13110588
70	0x3a0acd29	0.00052948535
71	0xbdd99b1d	-0.10625289
72	0xbd569809	-0.052391086
73	0x3cc11fca	0.023574729
74	0x3bd7c699	0.006584954
75	0x3dea94d8	0.11454171
76	0xbe86d1cc	-0.26331937
77	0x3cfaa573	0.03059647
78	0xbc89881b	-0.016788533
79	0x3e4f0fde	0.20220897
80	0x3db9b5e9	0.090679
81	0x3e8f7034	0.28015292
82	0xbd995c0e	-0.07488261
83	0xbce46366	-0.027879428
84	0x3cc260af	0.023727743
85	0xbe595fd1	-0.21227957
86	0x3dd43a39	0.103626676
87	0xbd88869c	-0.066663
88	0xbda65e3b	-0.08123442
89	0x3cf9439f	0.030427752
90	0xbd47fbf9	-0.048824284
91	0xbd75e60f	-0.060033854
92	0x3e890a20	0.26765537
93	0xbd0cbfbd	-0.034362543
94	0x3d5724f5	0.05252548
95	0x3e219100	0.1577797
96	0xbdb37fbe	-0.08764599
97	0xbd96ed3b	-0.07369467
98	0xbe0c8567	-0.13722764
99	0x3b6f0b93	0.0036475405
100	0xbe35faa6	-0.17771396
101	0x3d5ff454	0.05467637
102	0xbda6ec0f	-0.08150493
103	0xbc11c280	-0.00889647
104	0xbded5da0	-0.11590123
105	0x3d4a0380	0.049319744
106	0x3e044e03	0.12920384
107	0xbbbd256f	-0.0057722847
108	0x3c9b91f5	0.018990496
109	0x3e420e19	0.1895069
110	0x3e35de5b	0.17760603
111	0xbd56510a	-0.05232338
112	0x3e960fad	0.29308835
113	0x3c682655	0.014169295
114	0x3e13105a	0.14361706
115	0xbd82a0e9	-0.063783474
116	0xbd77fc03	-0.06054307
117	0x3e3f7919	0.18698539
118	0x3e5f3713	0.21798353
119	0x3e35c115	0.17749436
120	0x3d5ec0b1	0.054382984
121	0x3d675886	0.056480907
122	0x3ca24bce	0.019811537
123	0xbd44c6ea	-0.04804126
124	0xbe062dfd	-0.1310348
125	0x3d6dd9ac	0.058068916
126	0x3bc6ce98	0.0060671084
127	0x3da43d0f	0.080194585
128	0x3d63935c	0.055560455
129	0xbe68702b	-0.22699039
130	0x3e617304	0.22016531
131	0x3e043296	0.12909922
132	0xbc7aea3d	-0.015314636
133	0xbd2adf98	-0.041717142
134	0xbe63dabf	-0.22251414
135	0x3d9d54d7	0.076821975
136	0xbd50ad5c	-0.05094658
137	0x3d56539f	0.05232584
138	0xbe4c3350	-0.19941449
139	0x3e12b351	0.14326216
140	0x3e06bbbc	0.13157552
141	0x3dce7fdf	0.10082983
142	0x3cc3e31a	0.023912001
143	0x3e00b298	0.12568128
144	0x3e15fd7c	0.14647478
145	0x3d2c0928	0.04200092
146	0x3e818ebf	0.2530422
147	0xbdc8f4ca	-0.09812315
148	0xbe128bcc	-0.14311141
149	0xbe280449	-0.16407885
150	0x3cfa14e5	0.030527541
151	0x3c544ba0	0.0129574835
152	0x3c650ff9	0.013980859
153	0xbd6dd055	-0.05806001
154	0xbd330304	-0.043704048
155	0xbde0b64e	-0.10972272
156	0xbd8afd46	-0.06786589
157	0x3df87968	0.121325314
158	0xbdb46c54	-0.088097245
159	0x3c10c7c7	0.008836693
160	0x3de0ea8f	0.109822385
161	0x3e7ded32	0.24797514
162	0xb94660e3	-0.00018918845
163	0x3c9f1d5d	0.019423181
164	0xbd6ac5c2	-0.057317503
165	0xbdb7bee3	-0.089719556
166	0x3c158277	0.0091253435
167	0x3c0f27af	0.008737489
168	0xbd8c9e2c	-0.068661064
169	0xbd2379ce	-0.039911084
170	0xbe43c1fd	-0.1911697
171	0xbbe687cb	-0.0070352308
172	0x3e16d981	0.14731409
173	0xbd96e5ae	-0.07368027
174	0xbc7cb565	-0.015424107
175	0xbdb0ab48	-0.08626419
176	0xbd482eb7	-0.048872676
177	0xbe0a5ffe	-0.1351318
178	0xbe7e55b9	-0.24837388
179	0x3de0c1c9	0.109744616
180	0xbcd18f28	-0.025580958
181	0xbd1ccdbe	-0.03828215
182	0xbe79725d	-0.24360032
183	0x3d30454b	0.043034833
184	0xbc71c499	-0.014756345
185	0x3d96e6ae	0.073682174
186	0xbcd519b9	-0.026013242
187	0xbddda766	-0.10822944
188	0xbe8e1386	-0.2774927
189	0x3d9934b1	0.07480753
190	0x3dfba450	0.122871995
191	0xbe2179ed	-0.15769167
192	0xbe4d71e0	-0.20062971
193	0x3e894808	0.26812768
194	0xbd196279	-0.037447426
195	0x3d96c947	0.07362609
196	0xbde604e9	-0.11231405
197	0xbcc6359c	-0.024195485
198	0xbe01695d	-0.12637849
199	0xbcadf61b	-0.021235516
200	0xbba66e11	-0.005079039
201	0x3db34fda	0.08755465
202	0xbb563e52	-0.0032690954
203	0xbd44739d	-0.04796182
204	0x3dd240ef	0.10266291
205	0xbd4ae0b0	-0.049530685
206	0x3e6ad576	0.22932991
207	0x3dc54c85	0.096337356
208	0xbe56187f	-0.20907782
209	0xbcdff26c	-0.027337275
210	0x3d9e3f87	0.07726961
211	0x3e0f4e2d	0.13994665
212	0x3dfd2acf	0.12361681
213	0xbd42e3e5	-0.04758062
214	0x3de2572d	0.11051784
215	0x3dfce0d6	0.123475716
216	0x3dc77b79	0.097403474
217	0xbcd22d7e	-0.025656458
218	0x3da18a09	0.07887656
219	0x3c2a02c6	0.010376638
220	0xbd07fab7	-0.033198085
221	0x3de99298	0.11404914
222	0x3cf3362d	0.029688919
223	0xbc135bdc	-0.008994069
224	0x3e0f2fe0	0.13983107
225	0x3d5c1fb8	0.053741187
226	0x3d2dd9f5	0.04244419
227	0xbe0c3340	-0.13691425
228	0xbc1e3633	-0.009656477
229	0x3db19c16	0.08672349
230	0xbdecfec2	-0.11572029
231	0xbde61d21	-0.11236025
232	0xbdb3c114	-0.08777061
233	0x3d8585cd	0.06519661
234	0xbd847b70	-0.06468856
235	0xbd5bfd7c	-0.05370854
236	0xbb614e83	-0.0034379072
237	0xbda26afe	-0.079305634
238	0xbc580158	-0.013183914
239	0xbdda20a7	-0.10650759
240	0x3e4c592c	0.19955891
241	0x3e439548	0.19099915
242	0x3e6227ea	0.22085539
243	0xbd9f7219	-0.07785434
244	0x3cb3b28b	0.021935722
245	0x3d943e0d	0.07238398
246	0xbdea2046	-0.11431937
247	0xbd6242fd	-0.055239666
248	0xbd3e4242	-0.046449907
249	0xbe9acd7d	-0.302349
250	0xbe05ccb3	-0.13066368
251	0x3df4362d	0.11924396
252	0x3cf8f709	0.030391233
253	0x3c8b4a85	0.017003307
254	0x3d4532c7	0.04814413
255	0xbd15a369	-0.036532793

base.mlp.fc1.0.bias f4 [64]
0	0x3a63db39	0.00086920295
1	0xba305631	-0.00067267107
2	0xba042fbe	-0.00050425145
3	0xba51495e	-0.000798365
4	0xba2b0910	-0.0006524483
5	0x3aca6dd3	0.0015444107
6	0xbb5e1414	-0.003388648
7	0xb5d4c3a3	-1.5852169e-06
8	0xba658608	-0.0008755629
9	0xba31d59f	-0.0006783846
10	0xb91bd6bc	-0.00014861947
11	0xba8d6ec3	-0.0010790456
12	0xb9f64a4c	-0.00046976132
13	0xba280dd7	-0.00064107537
14	0xbb172b73	-0.002306667
15	0x3aa94cb1	0.0012916533
16	0x39fa0006	0.00047683733
17	0x391c2f97	0.00014895048
18	0xbb5b9d83	-0.0033510632
19	0x3baa6e80	0.005201161
20	0x3a3d740b	0.00072270696
21	0xb9f746fa	-0.00047164393
22	0xbaa74304	-0.0012761061
23	0x3a4fd442	0.0007928052
24	0x3b2e5354	0.002659996
25	0x3b2280a6	0.0024795919
26	0x390e5acf	0.00013576004
27	0x3a3157bd	0.0006765088
28	0xba1b3784	-0.0005921053
29	0x3937103a	0.00017458285
30	0x39e1aaf4	0.00043042714
31	0x3a5050a5	0.0007946587
32	0x3a60fe8a	0.0008582851
33	0xba670499	-0.0008812636
34	0x3a963423	0.001145963
35	0xba603843	-0.00085533055
36	0xb986b100	-0.00025690347
37	0xb925880f	-0.00015786312
38	0x3ac76c50	0.0015214775
39	0x3a0672f5	0.0005128824
40	0x3af1506c	0.0018410808
41	0xba155b19	-0.00056974735
42	0x39cfce72	0.0003963593
43	0x3a35ba46	0.0006932359
44	0x3a1338b1	0.00056160527
45	0x3901c521	0.00012375835
46	0x3a0be328	0.0005336278
47	0x3a1abc68	0.00059027085
48	0x3a6080f6	0.00085641386
49	0x3a69ca75	0.0008918413
50	0x3aa274d7	0.001239444
51	0xbabb0d8f	-0.0014271009
52	0xba15fca1	-0.00057215436
53	0xba94b11a	-0.0011344284
54	0x37eaea40	2.8004055e-05
55	0xb864f650	-5.4588832e-05
56	0x3b250e1f	0.0025185419
57	0xba753433	-0.00093537866
58	0x381724cf	3.6035486e-05
59	0xba96eb6a	-0.0011514251
60	0xbb388b42	-0.0028159176
61	0xbb5963c9	-0.003317105
62	0x39b276fc	0.00034039456
63	0x3ae24b4b	0.0017264871

base.mlp.fc1.2.weight f4 [64]
0	0x3f7fe129	0.9995294
1	0x3f800c9c	1.0003848
2	0x3f7fa666	0.9986328
3	0x3f8014fd	1.0006405
4	0x3f7fed74	0.999717
5	0x3f801cc1	1.0008775
6	0x3f7fcb93	0.99920005
7	0x3f7fe1f0	0.9995413
8	0x3f8039c2	1.0017626
9	0x3f7febe7	0.99969333
10	0x3f7e93a0	0.9944401
11	0x3f802407	1.0010995
12	0x3f8007ad	1.0002342
13	0x3f7ffb83	0.9999315
14	0x3f7f8b7f	0.9982223
15	0x3f7fd308	0.99931383
16	0x3f7f788a	0.99793303
17	0x3f801be9	1.0008518
18	0x3f8056c7	1.0026482
19	0x3f80a0b3	1.0049042
20	0x3f7ff595	0.99984103
21	0x3f800c27	1.0003709
22	0x3f7fef53	0.99974555
23	0x3f7fd504	0.9993441
24	0x3f7ed677	0.99546
25	0x3f807dfd	1.0038449
26	0x3f800528	1.0001574
27	0x3f8008d4	1.0002694
28	0x3f7fe991	0.9996577
29	0x3f8055d3	1.0026191
30	0x3f800499	1.0001403
31	0x3f7fcd01	0.99922186
32	0x3f802231	1.0010434
33	0x3f7feee9	0.9997392
34	0x3f804e0b	1.0023817
35	0x3f7f76a8	0.9979043
36	0x3f7fe5c0	0.99959946
37	0x3f7f334a	0.99687636
38	0x3f805f23	1.0029033
39	0x3f7fdc91	0.9994593
40	0x3f8001ac	1.000051
41	0x3f802678	1.001174
42	0x3f807c8a	1.0038006
43	0x3f7ffb0a	0.9999243
44	0x3f7ffa0b	0.9999091
45	0x3f800014	1.0000024
46	0x3f800efc	1.0004573
47	0x3f8011d9	1.0005447
48	0x3f7fb988	0.99892473
49	0x3f800c62	1.0003779
50	0x3f80092c	1.0002799
51	0x3f80064a	1.0001919
52	0x3f7f6e09	0.99777275
53	0x3f7feb2d	0.99968225
54	0x3f7fe7dc	0.99963164
55	0x3f807412	1.0035422
56	0x3f7f0afa	0.99626124
57	0x3f800422	1.0001261
58	0x3f80018e	1.0000474
59	0x3f801050	1.0004978
60	0x3f8001af	1.0000514
61	0x3f802322	1.0010722
62	0x3f7eacd9	0.99482495
63	0x3f7ffdcc	0.9999664

base.mlp.fc1.2.bias f4 [64]
0	0x3a1d20ea	0.0005993979
1	0x39d8648b	0.0004127364
2	0xb723e4e2	-9.768848e-06
3	0xba308c2b	-0.0006734754
4	0xb9915e17	-0.00027726658
5	0x3a722376	0.00092368515
6	0x3a6f1a84	0.00091210776
7	0xb8bfdbc2	-9.148523e-05
8	0xba7b4c8f	-0.0009586298
9	0x3996848f	0.00028708993
10	0xb9b50084	-0.00034523394
11	0xba4a1556	-0.0007708868
12	0x3902def2	0.0001248082
13	0x38cd6934	9.794757e-05
14	0xba8910de	-0.0010457297
15	0x39bd239f	0.0003607543
16	0x39b993cc	0.00035396067
17	0x3a1ce4e9	0.0005985038
18	0xbb2dc46d	-0.0026514784
19	0x3b9fef52	0.004880824
20	0xb89f4ccd	-7.596016e-05
21	0x39bfe7fb	0.00036603198
22	0xba1719df	-0.0005764048
23	0xba2e2975	-0.0006643751
24	0x3b979ea0	0.004627064
25	0x3b960b46	0.0045789806
26	0x38a43ee7	7.831846e-05
27	0xb969593f	-0.00022253858
28	0xb9b85983	-0.00035161906
29	0xb90dbb2d	-0.00013516536
30	0x3a65cbd1	0.0008766028
31	0xb786b2d7	-1.6057324e-05
32	0x3b32dcdc	0.0027292287
33	0xb9f4ef26	-0.00046717486
34	0x3b1c6c86	0.0023868396
35	0xbb061813	-0.0020461127
36	0xb9242089	-0.00015652379
37	0x38b0d286	8.431547e-05
38	0x3b43ec6f	0.0029895564
39	0x3a0c4972	0.00053515204
40	0xb82564ea	-3.943305e-05
41	0x39ea6933	0.00044710338
42	0x3b74988f	0.0037322377
43	0xb75c80fd	-1.3143054e-05
44	0x38a7270e	7.970455e-05
45	0x37ddee36	2.6456179e-05
46	0x3a016b74	0.0004936971
47	0x3a1888a9	0.0005818704
48	0x3a990233	0.0011673629
49	0xb94f7274	-0.00019783695
50	0x3a06ec00	0.0005146861
51	0xb966da5b	-0.00022015853
52	0xba15e9ce	-0.00057187385
53	0xba20086e	-0.0006104772
54	0x396e6829	0.00022736251
55	0xb954960f	-0.00020273797
56	0x3b2a0c56	0.0025947294
57	0x390aa45a	0.00013221931
58	0xb9e694c1	-0.0004397985
59	0xba2d3ef1	-0.0006608805
60	0xb89b4e59	-7.405569e-05
61	0xbb0c1648	-0.0021375585
62	0x39f8c0e1	0.00047445952
63	0x37df8738	2.6646638e-05

base.mlp.fc_h.0.weight f4 [64, 64]
0	0xbd8ffe4a	-0.07030924
1	0x3e007a17	0.12546574
2	0xbe3544c9	-0.1770202
3	0xbe5e15bc	-0.21687979
4	0xbdca0377	-0.09863942
5	0x3e50885e	0.2036452
6	0xbda3d3ae	-0.07999359
7	0x3b248dd5	0.0025108953
8	0x3d3f2c65	0.046673197
9	0x3d71b0d3	0.059006523
10	0x3d8a5895	0.06755177
11	0x3ebaf174	0.3651234
12	0xbe06debd	-0.13170905
13	0xbe397612	-0.18111446
14	0xbce7b3ad	-0.028283918
15	0x3e329ac5	0.17441852
16	0xbdbe66be	-0.0929694
17	0x3d53b7eb	0.05168907
18	0x3e81c06b	0.25342116
19	0xbe89ff3d	-0.26952544
20	0xbe5f8ffe	-0.21832272
21	0xbe742e21	-0.23845722
22	0x3dc1af9e	0.094573244
23	0xbe9934f0	-0.299232
24	0x3f17ceef	0.5930013
25	0xbe281a6b	-0.16416328
26	0xbdc28cb6	-0.09499495
27	0x3e83bf7c	0.25732028
28	0x3eaf6e8b	0.34264025
29	0xbd4391eb	-0.04774658
30	0xbd3f91e6	-0.04677
31	0xbe45c2a5	-0.19312532
32	0x3d42a17b	0.04751728
33	0x3e1a003e	0.15039155
34	0x3e6bcd24	0.23027474
35	0xbdb19ac4	-0.08672097
36	0x3e8c9d3b	0.27463707
37	0x3e87c1c2	0.26515013
38	0xbdfeff4f	-0.1245104
39	0xbf356b26	-0.7086662
40	0xbd89974f	-0.06718313
41	0xbd60eafc	-0.0549116
42	0x3c7b33e5	0.015332197
43	0x3d4d4e9c	0.050123796
44	0x3d75c526	0.06000247
45	0xbb20de30	-0.0024546497
46	0xbdc3a36c	-0.095526546
47	0xbeab40e8	-0.33447957
48	0x3d582c64	0.05277671
49	0x3de08e00	0.10964584
50	0xbd0e097f	-0.034677025
51	0x3c81d4c4	0.015848525
52	0xbea24f71	-0.31701234
53	0x3d5c7119	0.053818796
54	0x3daa77e3	0.08323648
55	0xbe88319c	-0.2660035
56	0xbe59edbd	-0.21282096
57	0xbe6f0421	-0.23341419
58	0x3ead157b	0.3380545
59	0xbe376192	-0.17908314
60	0x3e9bafbd	0.30407515
61	0xbdd0e13b	-0.10199209
62	0x3c807d3f	0.015684722
63	0xbd27ea0f	-0.0409947
64	0x3cfca0c6	0.030838381
65	0xbd30b7ca	-0.043144025
66	0xbddacca4	-0.10683563
67	0xbd5c02c6	-0.053713582
68	0xbda2e303	-0.07953455
69	0x3e419594	0.18904716
70	0x3e4b91b8	0.19879806
71	0x3cef9d6e	0.029249873
72	0xbbb2b395	-0.0054535368
73	0x3b1a932d	0.0023586259
74	0x3e4e2f8d	0.20135327
75	0x3d74183f	0.059593435
76	0xbc03ad81	-0.008036972
77	0xbdb8e837	-0.090286665
78	0xbe51969b	-0.20467608
79	0xbc740dee	-0.014895899
80	0x3de80b4d	0.113302805
81	0xbda7a2b3	-0.08185329
82	0xbe8bf964	-0.27338707
83	0x3d46216b	0.048371714
84	0x3e548541	0.20753957
85	0xbf0136fa	-0.5047451
86	0x3df75d60	0.12078357
87	0xbe1bcee1	-0.15215637
88	0xbe2d05df	-0.16896771
89	0x3e676524	0.22597176
90	0xbd9b24b0	-0.07575357
91	0x3e90328f	0.28163573
92	0xbc8dbecd	-0.017302895
93	0xbe216cc9	-0.15764154
94	0xbef093b5	-0.46987692
95	0x3e38d921	0.18051578
96	0x3e5281fc	0.20557398
97	0x3e4e9972	0.20175722
98	0x3e40eb89	0.1883985
99	0x3d19b618	0.037527174
100	0xbeb8d310	-0.36098528
101	0x3d4e6efa	0.050398804
102	0x3f0bec0c	0.54657054
103	0xbe830d57	-0.25596115
104	0xbe5b91f6	-0.21442398
105	0x3d60a93c	0.054848894
106	0xbc57d40e	-0.013173116
107	0x3b8dd560	0.004328415
108	0x3ebeaec1	0.37242702
109	0x3ec4cfbc	0.3843974
110	0xbe1cb77b	-0.15304367
111	0x3eb44db7	0.35215542
112	0xbe525738	-0.20541084
113	0x3e0d027c	0.13770479
114	0x3e9b7c2a	0.30368167
115	0x3dd0db57	0.10198086
116	0x3e2d703d	0.16937347
117	0x3d3530aa	0.044235863
118	0x3e1457a6	0.1448656
119	0xbda1d437	-0.07901805
120	0x3dab3680	0.083600044
121	0xbd8a4964	-0.067522794
122	0xbeb97e54	-0.36229193
123	0xbd756d83	-0.05991889
124	0x3e5e6cce	0.21721193
125	0x3e8618b5	0.26190725
126	0xbe15ec29	-0.14640869
127	0x3ea45ef4	0.32103693
128	0xbe8cecf9	-0.27524546
129	0xbd94efd6	-0.072723076
130	0xbc13e0aa	-0.009025732
131	0x3e55769f	0.20846032
132	0x3dfddbc7	0.12395435
133	0xbc8e6814	-0.017383613
134	0x3e819899	0.25311735
135	0xbe046cfe	-0.12932202
136	0xbe0068f3	-0.12540035
137	0x3e414c23	0.188767
138	0xbe8f5541	-0.2799473
139	0xbe1a71ef	-0.15082525
140	0x3c786d49	0.015162774
141	0x3c4715f0	0.012151226
142	0xbe5d3545	-0.21602352
143	0x3ea39ee3	0.31957158
144	0xbe77f752	-0.24215439
145	0x3eda8cd2	0.42685562
146	0x3dd4bdd7	0.103877716
147	0x3eca66b0	0.3953147
148	0xbe905980	-0.28193283
149	0xbe5cac0b	-0.21550004
150	0x3e9c7887	0.30560705
151	0x3e1a1bde	0.15049693
152	0x3ea7a7e3	0.32745275
153	0xbdf72204	-0.12067035
154	0x3e465a48	0.19370377
155	0x3dfdfeea	0.124021366
156	0xbed62aa9	-0.41829422
157	0xbe1b1d47	-0.15147887
158	0x3c6d314d	0.014477086
159	0x3d9d4225	0.07678632
160	0x3ea7894a	0.3272193
161	0x3f021481	0.50812536
162	0x3c7de648	0.015496798
163	0x3c06a57e	0.008218167
164	0x3cccfc2b	0.025022587
165	0x3dd5a499	0.10431785
166	0xbd3e77f6	-0.046501122
167	0x3dc12d69	0.094324894
168	0x3d2917d6	0.041282497
169	0x3edfc672	0.4370609
170	0xbdff1000	-0.12454224
171	0x3b14b326	0.0022689789
172	0xbd6bf3f8	-0.057605714
173	0x3cc6c751	0.024264963
174	0x3e384b79	0.1799754
175	0x3e2dec2f	0.16984628
176	0x3df43c1d	0.11925528
177	0xbda4cd00	-0.08046913
178	0xbe26de4c	-0.16295737
179	0xbe73dd7f	-0.23814963
180	0xbddab232	-0.10678519
181	0xbe44cb62	-0.1921821
182	0x3e88fd76	0.26755875
183	0x3e870ab1	0.26375344
184	0x3e7bbdda	0.24584141
185	0xbdf2450c	-0.11829576
186	0x3e45bd18	0.19310415
187	0xbe257f01	-0.1616173
188	0xbe1f6f06	-0.15569696
189	0x3dc16a28	0.09444076
190	0x3e5f3bd6	0.2180017
191	0x3e6bb462	0.2301803
192	0x3d05a20e	0.03262525
193	0x3dadafc7	0.084807925
194	0x3e853fc7	0.2602522
195	0xbe0e7af2	-0.13914087
196	0x3e0be049	0.13659777
197	0x3e0286a2	0.12746671
198	0x3c187dd0	0.00930734
199	0x3d39dab7	0.0453746
200	0x3ee75217	0.45179817
201	0x3de6e513	0.11274161
202	0x3e80512f	0.25061938
203	0xbe0c04c8	-0.13673699
204	0xbdf6833a	-0.12036748
205	0x3e8e6d3d	0.27817717
206	0x3e0846dd	0.13308282
207	0xbd4ca0f2	-0.049958177
208	0x3ea537a3	0.3226901
209	0x3c0f7071	0.008754835
210	0xbecb6270	-0.3972354
211	0xbe1f8355	-0.15577443
212	0xbdced2e5	-0.10098819
213	0xbec0e70f	-0.37676284
214	0xbde5432c	-0.11194453
215	0xbe84b5f0	-0.25920057
216	0x3eb7cb42	0.3589726
217	0xba802050	-0.0009775255
218	0xbe81fc23	-0.25387678
219	0x3de616f4	0.11234847
220	0xbeaf7628	-0.34269834
221	0xbd67865f	-0.05652463
222	0x3eb2c9de	0.34919637
223	0x3e925e4d	0.2858757
224	0xbdbf586b	-0.09343036
225	0x3e92d2ee	0.28676552
226	0xbda5a078	-0.080872476
227	0x3f07af24	0.5300162
228	0x3e46f5c5	0.19429691
229	0xbe17c42c	-0.14820927
230	0xbec62f4c	-0.3870796
231	0xbd8ae27c	-0.0678148
232	0xbd1b294b	-0.037881177
233	0x3d43bc0f	0.04778677
234	0xbdb48ce9	-0.08815939
235	0xbe1032bb	-0.14081852
236	0xba2a240a	-0.00064903556
237	0x3e1df11f	0.15424012
238	0x3dcc7719	0.099836536
239	0x3d552e90	0.05204636
240	0xbe2fa2fd	-0.17152019
241	0xbc94fff0	-0.018188447
242	0xbe498d08	-0.19682705
243	0xbeaf4b12	-0.34236962
244	0x3e5853e2	0.21125749
245	0x3e8d1252	0.2755304
246	0xbde8ffe2	-0.11376931
247	0x3e2b67ef	0.16738866
248	0xbd88b12d	-0.066744186
249	0x3e19c06c	0.1501481
250	0xbe82d162	-0.2555037
251	0xbd0a8071	-0.033813898
252	0x3da31004	0.07962039
253	0xbdf4ba05	-0.11949543
254	0xbd445483	-0.04793216
255	0xbe802e67	-0.25035402

base.mlp.fc_h.0.bias f4 [64]
0	0x00000000	0.0
1	0x00000000	0.0
2	0x00000000	0.0
3	0x00000000	0.0
4	0x00000000	0.0
5	0x00000000	0.0
6	0x00000000	0.0
7	0x00000000	0.0
8	0x00000000	0.0
9	0x00000000	0.0
10	0x00000000	0.0
11	0x00000000	0.0
12	0x00000000	0.0
13	0x00000000	0.0
14	0x00000000	0.0
15	0x00000000	0.0
16	0x00000000	0.0
17	0x00000000	0.0
18	0x00000000	0.0
19	0x00000000	0.0
20	0x00000000	0.0
21	0x00000000	0.0
22	0x00000000	0.0
23	0x00000000	0.0
24	0x00000000	0.0
25	0x00000000	0.0
26	0x00000000	0.0
27	0x00000000	0.0
28	0x00000000	0.0
29	0x00000000	0.0
30	0x00000000	0.0
31	0x00000000	0.0
32	0x00000000	0.0
33	0x00000000	0.0
34	0x00000000	0.0
35	0x00000000	0.0
36	0x00000000	0.0
37	0x00000000	0.0
38	0x00000000	0.0
39	0x00000000	0.0
40	0x00000000	0.0
41	0x00000000	0.0
42	0x00000000	0.0
43	0x00000000	0.0
44	0x00000000	0.0
45	0x00000000	0.0
46	0x00000000	0.0
47	0x00000000	0.0
48	0x00000000	0.0
49	0x00000000	0.0
50	0x00000000	0.0
51	0x00000000	0.0
52	0x00000000	0.0
53	0x00000000	0.0
54	0x00000000	0.0
55	0x00000000	0.0
56	0x00000000	0.0
57	0x00000000	0.0
58	0x00000000	0.0
59	0x00000000	0.0
60	0x00000000	0.0
61	0x00000000	0.0
62	0x00000000	0.0
63	0x00000000	0.0

base.mlp.fc_h.2.weight f4 [64]
0	0x3f800000	1.0
1	0x3f800000	1.0
2	0x3f800000	1.0
3	0x3f800000	1.0
4	0x3f800000	1.0
5	0x3f800000	1.0
6	0x3f800000	1.0
7	0x3f800000	1.0
8	0x3f800000	1.0
9	0x3f800000	1.0
10	0x3f800000	1.0
11	0x3f800000	1.0
12	0x3f800000	1.0
13	0x3f800000	1.0
14	0x3f800000	1.0
15	0x3f800000	1.0
16	0x3f800000	1.0
17	0x3f800000	1.0
18	0x3f800000	1.0
19	0x3f800000	1.0
20	0x3f800000	1.0
21	0x3f800000	1.0
22	0x3f800000	1.0
23	0x3f800000	1.0
24	0x3f800000	1.0
25	0x3f800000	1.0
26	0x3f800000	1.0
27	0x3f800000	1.0
28	0x3f800000	1.0
29	0x3f800000	1.0
30	0x3f800000	1.0
31	0x3f800000	1.0
32	0x3f800000	1.0
33	0x3f800000	1.0
34	0x3f800000	1.0
35	0x3f800000	1.0
36	0x3f800000	1.0
37	0x3f800000	1.0
38	0x3f800000	1.0
39	0x3f800000	1.0
40	0x3f800000	1.0
41	0x3f800000	1.0
42	0x3f800000	1.0
43	0x3f800000	1.0
44	0x3f800000	1.0
45	0x3f800000	1.0
46	0x3f800000	1.0
47	0x3f800000	1.0
48	0x3f800000	1.0
49	0x3f800000	1.0
50	0x3f800000	1.0
51	0x3f800000	1.0
52	0x3f800000	1.0
53	0x3f800000	1.0
54	0x3f800000	1.0
55	0x3f800000	1.0
56	0x3f800000	1.0
57	0x3f800000	1.0
58	0x3f800000	1.0
59	0x3f800000	1.0
60	0x3f800000	1.0
61	0x3f800000	1.0
62	0x3f800000	1.0
63	0x3f800000	1.0

base.mlp.fc_h.2.bias f4 [64]
0	0x00000000	0.0
1	0x00000000	0.0
2	0x00000000	0.0
3	0x00000000	0.0
4	0x00000000	0.0
5	0x00000000	0.0
6	0x00000000	0.0
7	0x00000000	0.0
8	0x00000000	0.0
9	0x00000000	0.0
10	0x00000000	0.0
11	0x00000000	0.0
12	0x00000000	0.0
13	0x00000000	0.0
14	0x00000000	0.0
15	0x00000000	0.0
16	0x00000000	0.0
17	0x00000000	0.0
18	0x00000000	0.0
19	0x00000000	0.0
20	0x00000000	0.0
21	0x00000000	0.0
22	0x00000000	0.0
23	0x00000000	0.0
24	0x00000000	0.0
25	0x00000000	0.0
26	0x00000000	0.0
27	0x00000000	0.0
28	0x00000000	0.0
29	0x00000000	0.0
30	0x00000000	0.0
31	0x00000000	0.0
32	0x00000000	0.0
33	0x00000000	0.0
34	0x00000000	0.0
35	0x00000000	0.0
36	0x00000000	0.0
37	0x00000000	0.0
38	0x00000000	0.0
39	0x00000000	0.0
40	0x00000000	0.0
41	0x00000000	0.0
42	0x00000000	0.0
43	0x00000000	0.0
44	0x00000000	0.0
45	0x00000000	0.0
46	0x00000000	0.0
47	0x00000000	0.0
48	0x00000000	0.0
49	0x00000000	0.0
50	0x00000000	0.0
51	0x00000000	0.0
52	0x00000000	0.0
53	0x00000000	0.0
54	0x00000000	0.0
55	0x00000000	0.0
56	0x00000000	0.0
57	0x00000000	0.0
58	0x00000000	0.0
59	0x00000000	0.0
60	0x00000000	0.0
61	0x00000000	0.0
62	0x00000000	0.0
63	0x00000000	0.0

base.mlp.fc2.0.0.weight f4 [64, 64]
0	0xbd8deab2	-0.0692953
1	0x3dff35e9	0.124614544
2	0xbe356315	-0.17713578
3	0xbe5d1e03	-0.2159348
4	0xbdcbcae4	-0.09950808
5	0x3e4fb1bd	0.20282646
6	0xbda20e82	-0.079129234
7	0x3a9ef987	0.0012128808
8	0x3d4582eb	0.048220556
9	0x3d753a9a	0.05987034
10	0x3d9707ad	0.07374511
11	0x3ebb006a	0.36523753
12	0xbe07d20f	-0.13263725
13	0xbe389148	-0.1802417
14	0xbcee448a	-0.029085416
15	0x3e30b404	0.1725617
16	0xbdc4421e	-0.09582923
17	0x3d5047bd	0.050849665
18	0x3e823aeb	0.25435576
19	0xbe8a77f9	-0.27044657
20	0xbe605e72	-0.21911028
21	0xbe751142	-0.23932365
22	0x3dc05009	0.093902655
23	0xbe99a6b0	-0.30009985
24	0x3f1807e8	0.59387064
25	0xbe290efe	-0.16509625
26	0xbdc3f056	-0.09567325
27	0x3e843741	0.25823405
28	0x3eaeec86	0.34164828
29	0xbd48d30f	-0.049029406
30	0xbd3984dc	-0.04529272
31	0xbe472bb1	-0.1945026
32	0x3d3e7e0a	0.04650692
33	0x3e191d17	0.14952503
34	0x3e6abc45	0.22923382
35	0xbdb32f9c	-0.08749315
36	0x3e8d4343	0.2759038
37	0x3e8759d9	0.26435736
38	0xbe005d12	-0.12535504
39	0xbf353213	-0.7077953
40	0xbd87ca6d	-0.066304065
41	0xbd645088	-0.055740863
42	0x3c6d04c5	0.014466469
43	0x3d49882d	0.049202133
44	0x3d730572	0.059331365
45	0xbad015ad	-0.00158756
46	0xbdc564fb	-0.09638401
47	0xbeabafbf	-0.3353252
48	0x3d5c0cbf	0.053723093
49	0x3de23421	0.11045099
50	0xbd114870	-0.035469472
51	0x3c88e25a	0.016709495
52	0xbea0cff1	-0.31408647
53	0x3d5e5998	0.054284662
54	0x3dad0955	0.084490456
55	0xbe89b9ef	-0.2689967
56	0xbe58ff67	-0.21191178
57	0xbe6fe42a	-0.23426881
58	0x3eac30cd	0.33630982
59	0xbe365b99	-0.17808379
60	0x3e9c2145	0.30494133
61	0xbdc97569	-0.09836847
62	0x3c29bfa5	0.010360633
63	0xbd2bac8a	-0.041912593
64	0x3cf24646	0.029574525
65	0xbd2c0989	-0.04200128
66	0xbddb48b1	-0.10707224
67	0xbd611ff8	-0.05496213
68	0xbda081be	-0.07837246
69	0x3e42bb02	0.1901665
70	0x3e4a6421	0.19764759
71	0x3d000235	0.031252105
72	0xbbeaff26	-0.0071715293
73	0x3a9e746e	0.0012089142
74	0x3e48fbb6	0.1962727
75	0x3d6e5c39	0.05819342
76	0xbbdfd2b2	-0.0068305368
77	0xbdbb4668	-0.09144288
78	0xbe509cad	-0.20372267
79	0xbc5561f5	-0.013023843
80	0x3ded51dc	0.11587879
81	0xbda55ad9	-0.080739684
82	0xbe8c9606	-0.2745821
83	0x3d4b01f7	0.04956242
84	0x3e55a8e1	0.20865203
85	0xbf00ebb3	-0.5035965
86	0x3df976f5	0.121808924
87	0xbe1a9f86	-0.15099916
88	0xbe2e33c3	-0.17011933
89	0x3e689aed	0.2271535
90	0xbd991418	-0.07474536
91	0x3e8f97b8	0.2804544
92	0xbc836c01	-0.016042711
93	0xbe1f7eb3	-0.15575676
94	0xbef18283	-0.47169885
95	0x3e3a814d	0.18213387
96	0x3e52d5a3	0.20589308
97	0x3e4fc106	0.20288476
98	0x3e425ce2	0.18980744
99	0x3d1e3638	0.038625926
100	0xbeb9c0aa	-0.36279804
101	0x3d51cf9d	0.051223386
102	0x3f0c36e6	0.5477127
103	0xbe83a56a	-0.25712138
104	0xbe5cc15b	-0.21558134
105	0x3d64f8eb	0.05590145
106	0xbc44e883	-0.012018326
107	0x3bb581e3	0.0055391653
108	0x3ebf2cae	0.37338775
109	0x3ec43737	0.38323376
110	0xbe1b8404	-0.15187079
111	0x3eb4e395	0.3532988
112	0xbe539774	-0.20663244
113	0x3e0be267	0.13660584
114	0x3e9c0b44	0.30477345
115	0x3dce8284	0.10083488
116	0x3e2af21b	0.16693918
117	0x3d323bc3	0.043514024
118	0x3e12e05d	0.143434
119	0xbda16499	-0.078805156
120	0x3da8b509	0.08237655
121	0xbd87f04e	-0.06637631
122	0xbeb8a4e1	-0.36063293
123	0xbd7ac4ce	-0.061222844
124	0x3e5d3f06	0.21606073
125	0x3e84c495	0.2593123
126	0xbe10ee77	-0.14153467
127	0x3ea4f9df	0.32221887
128	0xbe8cf834	-0.27533114
129	0xbd947127	-0.072481446
130	0xbc2b4056	-0.010452351
131	0x3e554ca9	0.20830025
132	0x3dfe535d	0.12418244
133	0xbc8c05bf	-0.017092584
134	0x3e8178ff	0.25287625
135	0xbe046599	-0.12929381
136	0xbdffd8fa	-0.12492557
137	0x3e410d3e	0.18852708
138	0xbe8d097f	-0.27546307
139	0xbe1a5ce1	-0.15074493
140	0x3c7a973e	0.015294848
141	0x3c434fb1	0.011920855
142	0xbe5c7124	-0.21527535
143	0x3ea3282c	0.31866586
144	0xbe7a7336	-0.24458012
145	0x3edabced	0.42722264
146	0x3dd4657b	0.10370918
147	0x3eca7c63	0.39548025
148	0xbe902e45	-0.281603
149	0xbe5c7383	-0.21528439
150	0x3e9cbb1b	0.306115
151	0x3e1a57f7	0.15072618
152	0x3ea78987	0.32722113
153	0xbdf6f55e	-0.12058519
154	0x3e46b673	0.19405536
155	0x3dfd9a0c	0.12382898
156	0xbed61868	-0.41815495
157	0xbe1ab3c6	-0.1510764
158	0x3c7228fe	0.014780281
159	0x3d9c8d55	0.076441444
160	0x3ea6b016	0.32556218
161	0x3f0228d3	0.5084354
162	0x3c7ee402	0.015557291
163	0x3c0ca265	0.00858364
164	0x3cd04113	0.025421655
165	0x3dd73005	0.10507206
166	0xbd3d6ade	-0.046244495
167	0x3dc0b35b	0.09409209
168	0x3d283142	0.0410626
169	0x3edff9dd	0.43745318
170	0xbdfe8f5f	-0.124296896
171	0x3b1f5199	0.002431011
172	0xbd6a0a51	-0.057138745
173	0x3cc4d202	0.02402592
174	0x3e388ca1	0.18022396
175	0x3e2e2f14	0.17010146
176	0x3df3dd39	0.11907429
177	0xbda57152	-0.08078255
178	0xbe267cd6	-0.16258559
179	0xbe741deb	-0.23839538
180	0xbdd5b0a0	-0.10434079
181	0xbe45a11a	-0.19299737
182	0x3e88ffcd	0.2675766
183	0x3e84f3c3	0.25967225
184	0x3e7b8df3	0.24565868
185	0xbdf1c470	-0.118050456
186	0x3e44f4bc	0.19233984
187	0xbe259543	-0.1617022
188	0xbe1faee4	-0.15594059
189	0x3dc8be0d	0.09801874
190	0x3e599a0f	0.21250175
191	0x3e6be4e4	0.23036534
192	0x3d0d0981	0.03443289
193	0x3da9ec63	0.0829704
194	0x3e8358ad	0.25653592
195	0xbe0c8420	-0.13722277
196	0x3e09fea4	0.13476044
197	0x3e00ab8e	0.12565443
198	0x3c35bc52	0.011092262
199	0x3d31607b	0.0433049
200	0x3ee868e0	0.45392513
201	0x3dea8a7f	0.11452197
202	0x3e7eabc5	0.24870212
203	0xbe09ea83	-0.13468365
204	0xbdfa72aa	-0.12228902
205	0x3e8f572a	0.27996188
206	0x3e068234	0.13135606
207	0xbd43b740	-0.047782183
208	0x3ea3fc7c	0.32028568
209	0x3c12f046	0.008968418
210	0xbeca6fc1	-0.39538386
211	0xbe2165be	-0.15761468
212	0xbdd2881e	-0.102798685
213	0xbec1d591	-0.3785825
214	0xbde7fe02	-0.11327745
215	0xbe85a6b6	-0.26103753
216	0x3eb8b5b1	0.3607612
217	0xbb3924e0	-0.002825074
218	0xbe82c9a5	-0.25544468
219	0x3de9c0bc	0.11413714
220	0xbeb0511d	-0.34436885
221	0xbd5d27eb	-0.053993147
222	0x3eb14db7	0.34629604
223	0x3e9141e9	0.28370598
224	0xbdc4d35e	-0.096106276
225	0x3e921164	0.28528893
226	0xbda9a42c	-0.082832664
227	0x3f073df2	0.52828896
228	0x3e49041e	0.19630477
229	0xbe15292b	-0.14566486
230	0xbec71ece	-0.3889069
231	0xbd8737ab	-0.06602415
232	0xbd13d5b3	-0.03609247
233	0x3d50b22b	0.050951164
234	0xbdb837a5	-0.08994988
235	0xbe1222d9	-0.14271106
236	0xbb24012b	-0.002502511
237	0x3e1fbf8e	0.15600416
238	0x3dc8e6a1	0.09809614
239	0x3d4db1a7	0.05021825
240	0xbe2e08a9	-0.16995491
241	0xbc873c4d	-0.016508246
242	0xbe4ad08d	-0.19806118
243	0xbeae62c6	-0.34059733
244	0x3e568e69	0.20952763
245	0x3e8d348f	0.27579162
246	0xbde6a741	-0.1126237
247	0x3e2cb03d	0.16864105
248	0xbd8620bb	-0.065492116
249	0x3e17e0fc	0.14831918
250	0xbe818e36	-0.2530381
251	0xbd031784	-0.032004848
252	0x3da692fd	0.081335045
253	0xbdf5dc6a	-0.12004931
254	0xbd3ba9c6	-0.045816205
255	0xbe8122c8	-0.25221848

base.mlp.fc2.0.0.bias f4 [64]
0	0xba66b313	-0.0008800488
1	0x3a99a3d0	0.0011721794
2	0x3969e522	0.0002230597
3	0xbaed3dd0	-0.0018100087
4	0xbaa9e2cb	-0.0012961266
5	0x38c7bd66	9.524338e-05
6	0x39ef8db2	0.00045691204
7	0x39e1c38d	0.0004306104
8	0x3a232746	0.0006223809
9	0x39953b6c	0.00028463767
10	0x386c8a91	5.6395835e-05
11	0x396755cd	0.0002206184
12	0x3a8a53af	0.0010553504
13	0x3a0527d4	0.0005079482
14	0xba241319	-0.0006258949
15	0x3a95c1ac	0.0011425517
16	0xba736d86	-0.00092860346
17	0xbae4bc12	-0.0017451069
18	0x392aea77	0.00016299808
19	0xb7b95a75	-2.209584e-05
20	0xb815eb97	-3.574378e-05
21	0xba61657c	-0.0008598191
22	0xbafe78ff	-0.0019414722
23	0x3931f387	0.00016970756
24	0xba26094c	-0.0006333783
25	0x3b04bb66	0.00202533
26	0x3b279450	0.002557058
27	0x39840686	0.00025181862
28	0x39224890	0.00015476556
29	0xb965609a	-0.00021875129
30	0x3aa66a9e	0.0012696569
31	0x3adbaf75	0.0016760664
32	0x3a45da74	0.00075475057
33	0xba3005d1	-0.0006714734
34	0x3adbab92	0.0016759506
35	0xba8b39cd	-0.0010622084
36	0x3a32f8e0	0.00068272464
37	0xbab3aaae	-0.0013707483
38	0xba394b1d	-0.00070683827
39	0xba55a063	-0.00081492047
40	0x38cfc2de	9.906826e-05
41	0x3a5900a0	0.0008277986
42	0xb962d4d0	-0.00021632318
43	0x391069ce	0.00013772325
44	0xba457675	-0.0007532605
45	0x3a88fcff	0.0010451375
46	0x39685a2d	0.00022158837
47	0x3a29f55d	0.00064834004
48	0x399b291f	0.0002959454
49	0x3928b781	0.00016090089
50	0x3aaf45b3	0.0013372212
51	0xb9b3a37c	-0.00034263346
52	0xba01dbcd	-0.00049537123
53	0xba3fcbef	-0.000731646
54	0x3ab90858	0.0014116867
55	0xbac5dd7e	-0.0015095917
56	0xb9b030be	-0.00033605652
57	0x3a360f90	0.0006945068
58	0x3aebd714	0.0017993175
59	0xb9d3a235	-0.0004036591
60	0xbb01c79b	-0.0019802812
61	0xb898a200	-7.2781e-05
62	0x394728b3	0.0001899328
63	0x39bb11fe	0.00035680825

base.mlp.fc2.0.2.weight f4 [64]
0	0x3f800393	1.0001091
1	0x3f800621	1.000187
2	0x3f7fb198	0.9988036
3	0x3f8000c7	1.0000237
4	0x3f7faa79	0.99869496
5	0x3f7fee7c	0.99973273
6	0x3f800726	1.0002182
7	0x3f7f2d2a	0.9967829
8	0x3f7fb44f	0.99884504
9	0x3f7ff411	0.9998179
10	0x3f7f757e	0.99788654
11	0x3f800e84	1.000443
12	0x3f7ff8c6	0.99988973
13	0x3f8011f5	1.000548
14	0x3f7fd23d	0.99930173
15	0x3f7fe80e	0.9996346
16	0x3f80004c	1.0000091
17	0x3f80007f	1.0000151
18	0x3f7fec61	0.9997006
19	0x3f7fdeee	0.9994954
20	0x3f802955	1.0012614
21	0x3f80068f	1.0002002
22	0x3f800771	1.0002271
23	0x3f802883	1.0012363
24	0x3f7fedd6	0.99972284
25	0x3f7fdcf0	0.999465
26	0x3f7eb385	0.99492675
27	0x3f7fbd6d	0.99898416
28	0x3f7f543b	0.997379
29	0x3f7fceec	0.9992511
30	0x3f800349	1.0001003
31	0x3f800610	1.000185
32	0x3f80038b	1.0001081
33	0x3f7fb292	0.9988185
34	0x3f800371	1.000105
35	0x3f7ffb37	0.999927
36	0x3f7ff431	0.9998198
37	0x3f800623	1.0001873
38	0x3f800300	1.0000916
39	0x3f8006b4	1.0002046
40	0x3f800796	1.0002315
41	0x3f7feb0b	0.9996802
42	0x3f80062d	1.0001885
43	0x3f7ea0c9	0.9946409
44	0x3f7fee06	0.9997257
45	0x3f8005da	1.0001786
46	0x3f7e73bd	0.9939535
47	0x3f800eb9	1.0004493
48	0x3f7fcc81	0.99921423
49	0x3f7fefab	0.9997508
50	0x3f7fe748	0.9996228
51	0x3f7f8d90	0.9982538
52	0x3f7fa23c	0.99856925
53	0x3f8006f5	1.0002123
54	0x3f80055a	1.0001633
55	0x3f7fffb9	0.99999577
56	0x3f802d5a	1.001384
57	0x3f8004fd	1.0001522
58	0x3f7ff213	0.9997875
59	0x3f7fcf89	0.9992605
60	0x3f7fef87	0.99974865
61	0x3f7fb635	0.998874
62	0x3f7f5bb9	0.9974933
63	0x3f7f8030	0.99804974

base.mlp.fc2.0.2.bias f4 [64]
0	0xb98f33d7	-0.0002731371
1	0x39873460	0.0002578823
2	0xb99a0a99	-0.00029381065
3	0xb9839d36	-0.00025103398
4	0x39a67750	0.00031750882
5	0xb9a23f29	-0.00030946106
6	0x3972efaf	0.00023168208
7	0x39902cf3	0.0002749931
8	0xb9977047	-0.00028884617
9	0x399a266c	0.00029401795
10	0xb996b9ea	-0.00028748746
11	0x398701d5	0.00025750572
12	0x3993b259	0.00028170904
13	0x3927f744	0.00016018475
14	0x39a4f0f1	0.00031460033
15	0xb99b2ac9	-0.0002959578
16	0xb98c1269	-0.00026716597
17	0xb887dd54	-6.478527e-05
18	0xb994a0eb	-0.00028348653
19	0x3999e7b1	0.00029355058
20	0x398e611b	0.000271567
21	0xb985945f	-0.00025478282
22	0xb98fa678	-0.00027399114
23	0x398e6ef0	0.00027167005
24	0x39a84f61	0.000321026
25	0xb9961558	-0.00028626132
26	0xbba2e4f1	-0.0049711396
27	0xb9961f51	-0.00028633562
28	0xb99651a9	-0.0002867107
29	0xb9972f18	-0.00028836052
30	0x3989ee6b	0.00026308311
31	0x39882c03	0.00025972733
32	0x3982774e	0.0002488442
33	0x3998b8f1	0.0002912949
34	0x396b546c	0.00022442796
35	0xb996d87e	-0.0002877153
36	0x3988c73c	0.00026088383
37	0xb980f0d0	-0.00024593482
38	0xb98cfbe6	-0.0002689056
39	0xb989213e	-0.00026155444
40	0xb98faa1c	-0.00027401827
41	0xb99611d6	-0.00028623518
42	0xb996e260	-0.00028778892
43	0x3995de1f	0.00028584988
44	0x39a5c08e	0.00031614717
45	0x398fd145	0.00027431003
46	0x399423e7	0.0002825551
47	0xb986c84a	-0.000257077
48	0x398ed823	0.00027245385
49	0x399655cb	0.0002867415
50	0xb997b52a	-0.00028935942
51	0x39812165	0.00024629678
52	0xb9876b51	-0.00025829163
53	0xb988f37d	-0.00026121354
54	0x39776840	0.00023594592
55	0xb9a2af3a	-0.00031029602
56	0xb988dad0	-0.0002610297
57	0x398414ee	0.00025192596
58	0x399d6c2f	0.00030025977
59	0x3997b0ce	0.00028932694
60	0x3997116f	0.00028813953
61	0xb98b33c3	-0.00026550711
62	0x399239c1	0.0002789032
63	0xb99cace6	-0.00029883458

v_out.weight f4 [1, 64]
0	0x3e478941	0.19485952
1	0xbd5c5a73	-0.053797197
2	0x3dc55e62	0.09637143
3	0x3d2e5e32	0.0425703
4	0xbce81418	-0.028329894
5	0x3d18b532	0.037282176
6	0xbcc52ab1	-0.024068208
7	0xbe4c43f9	-0.19947805
8	0x3df6ee0d	0.12057123
9	0xbd9d3efa	-0.076780275
10	0x3dee0ba7	0.11623316
11	0xbd6be2de	-0.057589404
12	0xbee0deb4	-0.4391991
13	0xbc37b847	-0.011213369
14	0xbd0087ef	-0.031379636
15	0x3d8985fb	0.06715008
16	0x3dc4ab61	0.096030004
17	0x3baf8429	0.005356331
18	0x3e8306ce	0.2559113
19	0xbd9a706b	-0.07540973
20	0xbe235200	-0.1594925
21	0x3d43b932	0.047784038
22	0x3e6b79ef	0.22995733
23	0xbe313b86	-0.17307863
24	0xbce12cbc	-0.027487151
25	0x3e214291	0.1574805
26	0x386f22a8	5.7014317e-05
27	0x3e30cd86	0.17265901
28	0x3e01e037	0.12683187
29	0x3debf492	0.115212575
30	0xbd94b337	-0.07260745
31	0xbd72c4e3	-0.059269797
32	0xbd1fd102	-0.039017685
33	0xbde22538	-0.11042255
34	0xbcaa8bae	-0.020818558
35	0x3e0695bf	0.13143061
36	0xbd79675c	-0.060889587
37	0x3d0f70d0	0.035019696
38	0x3df0356a	0.11728938
39	0x3d87d407	0.06632238
40	0x3e6cb20f	0.23114799
41	0x3e243602	0.16036227
42	0x3dd7cb95	0.10536877
43	0xbdbbf88e	-0.091782674
44	0xbcfe2e29	-0.03102787
45	0xbe77dab8	-0.24204528
46	0xbe3b45ae	-0.182883
47	0x3d5adc8a	0.05343298
48	0xbe4592e6	-0.19294319
49	0xbe154805	-0.14578255
50	0x3de0e853	0.10981812
51	0xbbfdaa27	-0.007741231
52	0x3d6e1811	0.05812842
53	0x3d8572a1	0.06516004
54	0xbcd84e81	-0.026404621
55	0x3d1b44a2	0.03790725
56	0x3d400d9f	0.04688799
57	0xbd2e6b61	-0.042582873
58	0xbd5fb536	-0.054616176
59	0xbde60d31	-0.11232985
60	0xbe01b455	-0.12666447
61	0x3d7d2c0c	0.061809584
62	0xbd888282	-0.066655174
63	0x3d82b080	0.06381321
