results/MyEnv/MyEnv/mappo/check/run36/models/actor_agent1.pt (torch, 65932 bytes, 17 tensors)

base.feature_norm.weight f4 [91]
0.99973845 0.9983193 0.9932738 0.9956404 1.000278 1.006738 1.0066979 1.0035993
1.0016706 1.0042115 0.99284476 1.0010169 0.9935492 0.9990315 0.99542314 0.99600035
0.99355155 1.0038012 0.998527 1.0033915 0.99843854 1.0029268 1.0065148 0.9927445
1.0039378 0.99447817 0.99381447 0.99974597 1.0075737 0.9985431 0.9935815 0.9973361
0.99267656 1.0019447 1.0001047 0.9998062 1.0064309 1.0012811 0.9989461 1.0007689
1.0020994 1.0019709 1.0054867 1.0016938 1.0004846 1.0073208 0.9995955 0.9995198
1.0057302 1.0025443 1.0008007 1.0002943 0.9944735 0.99441415 1.0006411 0.99622
1.003515 0.9932107 1.0025096 1.0005999 1.0015802 0.9963577 0.99962246 1.0018301
0.99945074 1.0033572 0.9985754 0.9990034 0.9985574 0.9950057 1.0027238 1.0004495
1.0050395 1.0014433 0.9980117 0.9973054 1.0062662 1.0001688 1.0058022 0.9976574
0.9957352 0.99696225 1.0006794 1.0066316 0.9983403 1.0014064 0.9932957 0.9992825
0.99996597 1.0019854 0.9998597
00000000: dcee 7f3f db91 7f3f 3147 7e3f 4ae2 7e3f
00000010: 1c09 803f cadc 803f 7adb 803f f175 803f
00000020: be36 803f 018a 803f 132b 7e3f 5221 803f
00000030: 3e59 7e3f 87c0 7f3f 0dd4 7e3f e1f9 7e3f
00000040: 6559 7e3f 8f7c 803f 779f 7f3f 226f 803f
00000050: ab99 7f3f e85f 803f 7ad5 803f 8124 7e3f
00000060: 0981 803f 1f96 7e3f a06a 7e3f 5aef 7f3f
00000070: 2df8 803f 85a0 7f3f 5b5b 7e3f 6b51 7f3f
00000080: 0d20 7e3f b93f 803f 6e03 803f 4df3 7f3f
00000090: bad2 803f fb29 803f eeba 7f3f 3219 803f
000000a0: cb44 803f 9540 803f cab3 803f 8137 803f
000000b0: e10f 803f e3ef 803f 7ee5 7f3f 88e0 7f3f
000000c0: c4bb 803f 5f53 803f 3d1a 803f a509 803f
000000d0: d195 7e3f ed91 7e3f 0215 803f 4608 7f3f
000000e0: 2e73 803f 0e43 7e3f 3c52 803f a813 803f
000000f0: c833 803f 4c11 7f3f 42e7 7f3f f83b 803f
00000100: 01dc 7f3f 026e 803f a3a2 7f3f b0be 7f3f
00000110: 75a1 7f3f b2b8 7e3f 4159 803f bb0e 803f
00000120: 22a5 803f 4b2f 803f b27d 7f3f 684f 7f3f
00000130: 55cd 803f 8805 803f 20be 803f 7a66 7f3f
00000140: 81e8 7e3f eb38 7f3f 4316 803f 4ed9 803f
00000150: 3b93 7f3f 162e 803f a148 7e3f fad0 7f3f
00000160: c5fd 7f3f 0f41 803f cef6 7f3f

base.feature_norm.bias f4 [91]
0.00036818738 0.0016210622 0.0068709888 0.0042671864 -0.00018121857 0.0052462495 -0.002048402 -0.0035418791
-0.0017527036 -0.0054949597 0.007210442 -0.0009755988 0.006623909 0.0009885851 -0.0045933793 0.004361714
0.006425873 -0.0036991867 0.00087798055 0.0032415504 -0.0014996354 0.0031248843 0.006536111 -0.00730983
0.004229874 -0.0055121128 -0.006169425 -0.00028522947 -0.000145857 -0.005119517 0.006892802 0.0026034457
0.007292143 -0.0014452977 -9.860605e-05 0.00027877794 -0.0063777445 -0.0012649199 0.0010520626 -0.00048724317
-0.0021648966 -0.0021567752 -0.0056353756 -0.001814401 -0.00044408452 0.0009789142 0.0028206971 -0.00046916396
0.005754412 0.0025475717 0.0006933792 0.00032875725 -0.005611439 -0.0055366107 0.0007293628 -0.0040911916
0.0036391194 -0.006868759 0.0026360152 0.00056773436 0.0015210818 -0.0037060315 -0.0003618204 0.0019565558
-0.0010638549 0.0033396815 -0.0014156374 -0.0011276588 -0.0014889985 -0.0049898587 0.0025430415 0.0007061091
0.005117953 0.0014692306 -0.0019734774 -0.0034046732 0.006609471 0.0002813751 0.0057642586 -0.0023835404
-0.0041864812 -0.0032508266 0.00063834124 0.006700504 -0.0016690807 0.0014432985 -0.006825541 -0.0006430718
2.6346063e-06 0.001629089 -0.0003762435
00000000: 4609 c139 d279 d43a 0826 e13b c1d3 8b3b
00000010: 7d05 3eb9 bbe8 ab3b 7c3e 06bb df1e 68bb
00000020: f9ba e5ba 100f b4bb 9245 ec3b 54bf 7fba
00000030: 600d d93b 6993 813a 0f84 96bb b5ec 8e3b
00000040: 2190 d23b 0e6e 72bb 4728 663a 3170 543b
00000050: 6a8f c4ba dcca 4c3b df2c d63b 4c87 efbb
00000060: c19a 8a3b f49e b4bb e328 cabb da8a 95b9
00000070: 31f1 18b9 9fc1 a7bb 04dd e13b 929e 2a3b
00000080: eef2 ee3b 2570 bdba b8ca ceb8 f128 9239
00000090: 66fc d0bb abcb a5ba 5de5 893a ac74 ffb9
000000a0: f0e0 0dbb af58 0dbb f5a8 b8bb 32d1 edba
000000b0: 04d4 e8b9 e94e 803a 72db 383b 1ffa f5b9
000000c0: 828f bc3b 29f5 263b e4c3 353a 0d5d ac39
000000d0: 29e0 b7bb 756c b5bb b532 3f3a 670f 86bb
000000e0: 4b7e 6e3b 5413 e1bb ffc0 2c3b 02d4 143a
000000f0: 095f c73a e4e0 72bb b6b2 bdb9 8f39 003b
00000100: 0c71 8bba 8fde 5a3b e98c b9ba f3cd 93ba
00000110: 802a c3ba f881 a3bb 28a9 263b 2e1a 393a
00000120: 80b4 a73b 3393 c03a 7555 01bb f020 5fbb
00000130: 4394 d83b 8785 9339 1be2 bc3b 2c35 1cbb
00000140: c02e 89bb d20b 55bb 5b56 273a e78f db3b
00000150: 0ec5 daba 102d bd3a caa8 dfbb d193 28ba
00000160: 31ce 3036 2887 d53a 8c42 c5b9

base.mlp.fc1.0.weight f4 [64, 91]
0.0607574 0.14221698 -0.031132592 -0.114545 -0.17833693 0.1492644 -0.21084794 -0.16686611
0.07148674 0.011117173 -0.06694423 -0.028922478 -0.07425656 0.034220167 -0.110750966 -0.013269231
-0.11282119 -0.14788577 0.07181131 0.06710429 0.020839626 -0.10859932 0.03446653 -0.013721315
-0.19561537 0.4471485 0.098030046 -0.09361643 -0.063263915 -0.24232508 0.064847276 0.038162716
0.22886191 0.23231922 -0.045736548 0.08568459 -0.014402901 -0.13130304 0.09934656 0.32030082
-0.21362554 0.17728469 -0.044454563 -0.22220047 -0.080146104 0.040866982 -0.23821324 -0.11507308
-0.10211332 -0.14409152 0.36729896 0.29443914 -0.117731035 -0.06272586 -0.17205647 0.16123068
0.016713794 0.30527487 0.0380703 -0.22064832 0.11322678 0.2445341 0.15800092 -0.235615
-0.09294559 0.19327632 0.13618368 -0.15453269 -0.21820956 0.30363628 0.15138751 -0.044101868
-0.19754192 0.10306884 0.07409003 -0.092761554 -0.0935826 -0.22213875 -0.09806149 -0.016621474
-0.46974367 0.4200829 0.098862305 0.068250574 0.23800261 0.24024893 0.37191814 -0.11379284
0.02168575 -0.24495357 -0.015585908 0.0542736 -0.1677393 -0.036211416 -0.06919226 0.11773401
-0.091949426 0.22017126 -0.06250926 -0.14545952 0.3819023 0.20814411 -0.2921787 -0.12988043
0.13508068 0.22424951 0.21658954 0.024471764 -0.124652036 0.26850083 -0.11348878 -0.060997043
0.19487323 0.16036658 -0.041880276 -0.115657 0.012383982 0.11570919 -0.11755724 -0.1168162
-0.20533258 -0.25515303 -0.32200244 0.00957059 -0.28980774 0.35743132 0.2706151 -0.17729636
-0.23898154 0.052277293 0.041163422 0.34896433 -0.0029348633 -0.22008236 -0.0562047 0.094613746
0.092897855 -0.049279746 -0.38675612 -0.09667874 -0.033763044 0.050426826 0.21514247 0.033992507
0.25279635 0.052093413 0.16590065 -0.1551938 0.50914305 -0.02473164 -0.211771 0.06558408
-0.08408118 -0.31471956 -0.007894715 0.16426045 -0.10987027 -0.08155638 -0.17096964 0.09037773
-0.03594495 -0.030618478 -0.004764436 0.08622528 -0.34627458 -0.08404002 0.16544579 0.103649095
-0.112625234 0.20442723 0.06966267 0.101601556 -0.11661842 0.0020776126 -0.01832797 0.06573722
-0.15876688 0.059124928 -0.151335 -0.24243183 -0.06143741 0.18392901 0.037217107 -0.10694998
0.32771504 0.22344598 0.19081087 -0.12668088 -0.021728504 0.054753225 -0.05925727 0.12515149
-0.014906844 0.28311485 -0.061578646 -0.12039403 -0.04863631 -0.28303775 0.24799511 0.015999893
0.032610632 0.25676537 0.017220337 0.012212515 -0.03102207 -0.18083648 0.24657428 -0.086570114
0.10176358 0.104726285 -0.03704097 -0.20592277 -0.11397521 0.34364298 0.08676384 -0.055569258
-0.051908776 0.10594468 0.08054468 0.08524278 0.0016624196 -0.20498523 0.13477562 0.12698779
0.08308528 -0.048818473 0.25482786 -0.29267967 0.04943399 0.15541756 0.15083176 0.012501522
0.10209348 0.10760195 0.0530277 -0.061397895 -0.050442282 -0.3213367 -0.12528759 0.52854794
0.19618411 -0.16645424 0.035246704 -0.084642194 0.21696799 -0.35405588 -0.19439766 -0.24791145
0.31399018 -0.069338165 -0.13380103 0.084127985 0.118130155 0.17066826 0.01685825 0.0581885
00000000: c0dc 783d 54a1 113e c709 ffbc 9296 eabd
00000010: f59d 36be c4d8 183e 86e8 57be f3de 2abe
00000020: a467 923d ce24 363c 0e1a 89bd d5ee ecbc
00000030: d313 98bd 722a 0c3d 67d1 e2bd 3067 59bc
00000040: cc0e e7bd 5e6f 17be cf11 933d f96d 893d
00000050: ddb7 aa3c 5269 debd c72c 0d3d 5ecf 60bc
00000060: 654f 48be a6f0 e43e fac3 c83d f9b9 bfbd
00000070: 8390 81bd 1124 78be a6ce 843d 8250 1c3d
00000080: c75a 6a3e 17e5 6d3e 3f56 3bbd 677b af3d
00000090: 25fa 6bbc 4e74 06be 3676 cb3d 78fe a33e
000000a0: a7c0 5abe 1e8a 353e fd15 36bd 8588 63be
000000b0: a423 a4bd 2364 273d 2cee 73be 6fab ebbd
000000c0: ca20 d1bd ba8c 13be 9c0e bc3e bac0 963e
000000d0: f81c f1bd 6a76 80bd 922f 30be a819 253e
000000e0: 5eeb 883c fd4c 9c3e 9aef 1b3d a2f1 61be
000000f0: 71e3 e73d 2667 7a3e feca 213e 0f45 71be
00000100: 425a bebd 3aea 453e bc73 0b3e d13d 1ebe
00000110: 5472 5fbe 3776 9b3e 5405 1b3e 29a4 34bd
00000120: 6e48 4abe c215 d33d 83bc 973d c5f9 bdbd
00000130: 3ca8 bfbd 5778 63be 76d4 c8bd c229 88bc
00000140: 3e82 f0be 1b15 d73e 5278 ca3d f5c6 8b3d
00000150: f5b6 733e d103 763e 0e6c be3e 380c e9bd
00000160: 50a6 b13c 1cd5 7abe 095c 7fbc ff4d 5e3d
00000170: dac3 2bbe 6c52 14bd acb4 8dbd 871e f13d
00000180: fb4f bcbd 9374 613e db04 80bd 57f3 14be
00000190: b388 c33e bb23 553e 7298 95be 60ff 04be
000001a0: 9752 0a3e aaa1 653e a6c9 5d3e 0279 c83c
000001b0: 9149 ffbd f178 893e ce6c e8bd 09d8 79bd
000001c0: d98c 473e 2337 243e a78a 2bbd 94dd ecbd
000001d0: 2fe6 4a3c f1f8 ec3d dac1 f0bd 553d efbd
000001e0: b442 52be 6ba3 82be 81dd a4be f7cd 1c3c
000001f0: ae61 94be 3d01 b73e 108e 8a3e 2d8d 35be
00000200: 94b7 74be b720 563d fa9a 283d 74ab b23e
00000210: d656 40bb 455d 61be e636 66bd dac4 c13d
00000220: 3b41 be3d 8fd9 49bd e604 c6be 81ff c5bd
00000230: 1e4b 0abd 5c8c 4e3d 4f4e 5c3e ba3b 0b3d
00000240: 866e 813e e75f 553d dce1 293e 20eb 1ebe
00000250: 3357 023f 029a cabc 7fda 58be f250 863d
00000260: c132 acbd ec22 a1be d658 01bc e433 283e
00000270: aa03 e1bd 0807 a7bd aa12 2fbe f617 b93d
00000280: 033b 13bd 9ad3 fabc fc1e 9cbb e196 b03d
00000290: e74a b1be 2d1d acbd 9f6a 293e fa45 d43d
000002a0: 0fa8 e6bd 5f55 513e 4dab 8e3d 7a14 d03d
000002b0: a3d5 eebd 8e28 083b 8a24 96bc 3ca1 863d
000002c0: c993 22be fb2c 723d 90f7 1abe 0d40 78be
000002d0: cba5 7bbd e357 3c3e f770 183d 9708 dbbd
000002e0: 44ca a73e 06cf 643e ed63 433e a2b8 01be
000002f0: faff b1bc eb44 603d c0b7 72bd b627 003e
00000300: d63b 74bc 6ef4 903e e439 7cbd 2591 f6bd
00000310: de36 47bd 53ea 90be 6ef2 7d3e 3512 833c
00000320: ba92 053d c076 833e aa11 8d3c 0017 483c
00000330: ff21 febc 332d 39be f87d 7c3e ac4b b1bd
00000340: 6d69 d03d bc7a d63d 46b8 17bd 6bdd 52be
00000350: d66b e9bd f9f1 af3e 3db1 b13d 979c 63bd
00000360: 4c9e 54bd 86f9 d83d 9cf4 a43d c493 ae3d
00000370: 8ce5 d93a a6e7 51be 9f02 0a3e 1609 023e
00000380: 9e28 aa3d e1f5 47bd cc78 823e 1cda 95be
00000390: 4c7b 4a3d c825 1f3e a473 1a3e 2fd3 4c3c
000003a0: 6316 d13d 695e dc3d 9333 593d 5c7c 7bbd
000003b0: 919c 4ebd 3e86 a4be 644b 00be eb4e 073f
000003c0: 7de4 483e fb72 2abe d95e 103d e358 adbd
000003d0: db2c 5e3e d046 b5be 2e10 47be 80dc 7dbe
000003e0: 52c3 a03e 2b01 8ebd 2303 09be 4b4b ac3d
000003f0: 39ee f13d a9c3 2e3e 501a 8a3c 1157 6e3d

base.mlp.fc1.0.bias f4 [64]
-0.00017123087 -0.0021283256 -0.0034635589 0.0001243379 -0.005636953 0.0037647223 -0.0032031643 -0.0069865747
-0.0020266033 0.0061903023 -0.0033152788 -0.0016645984 -0.00036805132 -0.00217568 -0.0010901814 0.00024419138
0.0045568193 -0.0031386034 0.0041754497 0.00045308901 0.001103482 -0.00456147 0.00079710106 0.003954624
0.0055606985 4.6814766e-05 0.005161661 0.0013581394 0.0064542894 -0.000120222765 0.0003244693 -0.0019109931
0.004199548 0.00014636743 -0.0029691544 0.0021195451 -0.001435478 -0.0012624376 0.0003842462 0.0005038413
0.000543588 0.0047115176 -0.0017010368 0.0014063385 -0.0015203207 -0.00039657298 -0.00069483113 -0.0024982067
-0.006843479 -0.0070464374 -0.0062507484 0.0053658695 0.0028100114 -0.0027746581 -0.004143691 0.0066376585
-0.0045972276 0.0038479841 -0.0049145473 -0.005145763 -0.0015027262 0.006350722 -8.559412e-05 0.0057070144
00000000: 708c 33b9 617b 0bbb e0fc 62bb b360 0239
00000010: 30b6 b8bb 8fb9 763b 2eec 51bb a3ef e4bb
00000020: c3d0 04bb 05d8 ca3b 2645 59bb a72e daba
00000030: 03f7 c0b9 da95 0ebb 6be4 8eba d006 8039
00000040: 5f51 953b 07b1 4dbb 36d2 883b 948c ed39
00000050: b6a2 903a 6278 95bb 8cf4 503a ca95 813b
00000060: 8536 b63b f95a 4438 2723 a93b 9903 b23a
00000070: 817e d33b 1b20 fcb8 881d aa39 4a7a faba
00000080: 5d9c 893b 357a 1939 2596 42bb 11e8 0a3b
00000090: a626 bcba 6078 a5ba a774 c939 3814 043a
000000a0: 937f 0e3a 1363 9a3b 53f5 deba e454 b83a
000000b0: 7f45 c7ba 20eb cfb9 5425 36ba f4b8 23bb
000000c0: 433f e0bb cde5 e6bb 14d3 ccbb 2dd4 af3b
000000d0: 2b28 383b 0ad7 35bb cdc7 87bb b780 d93b
000000e0: 57a4 96bb 762e 7c3b 360a a1bb ca9d a8bb
000000f0: 20f7 c4ba b819 d03b fe80 b3b8 e801 bb3b

base.mlp.fc1.2.weight f4 [64]
0.998443 1.0009173 0.99572444 0.9932329 1.0060772 0.9993296 1.002555 1.0032469
1.0028998 1.0000006 0.99339336 0.99275166 1.001613 0.99530154 1.0008304 1.0074917
0.9968521 0.99872005 1.0005581 1.0039096 1.0014131 1.0037955 0.9932628 0.99901354
1.0052316 1.0037079 1.002648 1.0003796 0.99310845 1.0010961 0.9976828 0.9993749
1.0059856 0.99939257 1.0033082 0.9931651 0.99597037 0.99658036 0.99958307 0.9997
1.000032 0.9968786 1.0008088 1.0072266 1.005166 1.0015411 1.0000265 0.99373406
0.9953691 0.9938377 0.99942464 1.0069978 0.99890894 1.0028386 0.9988969 0.99554425
1.0059316 1.0007999 0.99812907 0.99605525 0.9979951 1.0069726 0.9998431 1.005927
00000000: f699 7f3f 0f1e 803f cce7 7e3f 8344 7e3f
00000010: 23c7 803f 11d4 7f3f b953 803f 656a 803f
00000020: 055f 803f 0500 803f 074f 7e3f f924 7e3f
00000030: db34 803f 15cc 7e3f 361b 803f 7df5 803f
00000040: b331 7f3f 1eac 7f3f 4a12 803f 1c80 803f
00000050: 4e2e 803f 5f7c 803f 7946 7e3f 5abf 7f3f
00000060: 6eab 803f 8079 803f c556 803f 700c 803f
00000070: 5b3c 7e3f eb23 803f 2468 7f3f 09d7 7f3f
00000080: 23c4 803f 31d8 7f3f 676c 803f 1140 7e3f
00000090: eaf7 7e3f e41f 7f3f ade4 7f3f 57ec 7f3f
000000a0: 0c01 803f 7033 7f3f 811a 803f cdec 803f
000000b0: 48a9 803f 8032 803f de00 803f 5b65 7e3f
000000c0: 82d0 7e3f 266c 7e3f 4bda 7f3f 4ee5 803f
000000d0: 7fb8 7f3f 045d 803f b5b7 7f3f fddb 7e3f
000000e0: 5ec2 803f 361a 803f 6385 7f3f 7afd 7e3f
000000f0: 9b7c 7f3f 7ae4 803f b8f5 7f3f 37c2 803f

base.mlp.fc1.2.bias f4 [64]
-0.0009782736 -1.3785063e-05 0.0028003175 0.006782178 -0.006183646 0.000843982 -0.0007002424 -0.006719518
-0.0030439263 0.0042866063 0.0064901193 0.0070517994 0.0015945684 0.0018479291 0.00092903135 0.00039487655
0.0030570403 -0.0036101055 0.0004910555 -0.0040188306 0.001260271 -0.0039340747 0.0013929594 0.001933723
0.0055906917 -0.0033854956 0.0040379274 0.0005826662 0.0069137 -0.0008398993 0.00055740605 -0.00050103903
0.0061738524 0.0005055658 -0.003218235 0.006703404 -0.0039122845 0.003337159 0.00052978034 0.00032583837
-9.971623e-05 0.0048308694 -0.0010003479 0.0003647306 0.0005821081 0.001634493 0.00041918273 -0.0061667915
-0.007175322 -0.0068758624 -0.005755481 0.0067801834 0.0025161859 -0.0017748316 -0.002073042 0.0062670955
-0.0047099097 0.00093052984 -0.0020067617 -0.0055870307 -0.0015474819 0.00688589 0.0017446069 0.0058708577
00000000: 6a39 80ba 6546 67b7 8885 373b 083d de3b
00000010: 2fa0 cabb ac3e 5d3a 7990 37ba 672f dcbb
00000020: 9c7c 47bb a976 8c3b 11ab d43b c812 e73b
00000030: d600 d13a 3636 f23a 3d8a 733a 6f07 cf39
00000040: a058 483b 8597 6cbb 2dba 003a 65b0 83bb
00000050: ad2f a53a 69e9 80bb f693 b63a fa74 fd3a
00000060: 1f32 b73b 31df 5dbb 9750 843b 11be 183a
00000070: 528c e23b b02c 5cba e31e 123a 2958 03ba
00000080: 074e ca3b f287 043a 06e9 52bb 3aa8 db3b
00000090: 9f32 80bb 3db4 5a3b f5e0 0a3a 49d5 aa39
000000a0: be1e d1b8 454c 9e3b 1b1e 83ba 5039 bf39
000000b0: 9d98 183a 7c3c d63a c1c5 db39 cc12 cabb
000000c0: f71e ebbb ea4e e1bb 7998 bcbb 4d2c de3b
000000d0: 98e6 243b 77a1 e8ba e0db 07bb 355c cd3b
000000e0: 9655 9abb cdee 733a e083 03bb 6913 b7bb
000000f0: e0d4 caba 08a3 e13b 4bab e43a 5360 c03b

base.mlp.fc_h.0.weight f4 [64, 64]
0.0653698 -0.0009946296 0.1109811 -0.10657542 -0.06793037 -0.430319 0.06546122 0.0135309
-0.40569228 0.10214876 0.10283698 0.28833777 -0.21610992 0.3774704 0.13338411 0.4098967
0.023812952 -0.20986043 0.17426448 0.2046124 -0.16824523 0.20473877 0.10792373 -0.17749617
-0.04031487 0.03762425 -0.004585409 -0.24052516 -0.117000975 -0.4261859 -0.03722738 -0.13426307
-0.029370306 -0.44051483 -0.06675823 -0.22015089 0.0007228316 0.17088145 0.38715005 0.3001411
0.21167071 -0.1701056 -0.16318904 -0.05691998 -0.5158353 -0.24654251 -0.33688357 -0.116549656
-0.27069566 0.19434057 0.22715342 -0.16690941 0.090197355 -0.046969622 0.068909 -0.25513864
-0.034774516 0.034861512 0.107019044 -0.0074563012 -0.015005595 -0.01337488 -0.21524452 -0.0073045846
0.004039687 0.018215377 -0.093741216 -0.067006774 0.27218696 -0.3307622 0.3252597 0.008223422
0.13358782 -0.22390656 0.045338746 -0.09100443 0.01769555 0.21441744 0.767479 -0.1468203
0.042124562 0.20617773 0.08813831 -0.082853 -0.13090323 0.1470696 0.06316461 0.091366604
-0.015031566 -0.14513442 -0.22951522 0.4087166 0.306203 -0.0026207396 0.11203105 -0.10172655
0.3064786 -0.10648525 -0.03888169 0.12966722 0.12787509 -0.20715429 -0.19724935 -0.10718528
0.15178563 -0.020499634 0.2494308 -0.2959274 -0.3371089 -0.24109386 -0.16037844 0.085706435
0.060012195 -0.20431472 -0.16124482 0.113856405 0.027126914 0.037299436 0.13855436 0.05433088
-0.0180838 0.13284288 -0.005486766 -0.4797084 0.15059406 -0.30583844 0.39616144 0.17523351
-0.106998645 0.11449825 0.30641058 -0.07037807 0.12398618 0.547195 -0.36839578 -0.060506113
0.15304236 -0.006549574 -0.32336906 0.4669638 -0.21158086 0.24051884 0.05495595 -0.025315873
0.027069423 -0.13125831 0.056143675 -0.10440186 0.106610306 0.10408925 0.14391573 -0.072177075
-0.13074856 -0.050605386 -0.37444937 0.0761288 0.29833293 0.11904588 -0.32107213 0.13500796
-0.07328155 -0.055111818 0.3710528 0.025891291 0.22826219 0.23743649 0.06499791 0.14153616
0.30812484 0.24148436 0.27459845 0.17946286 0.050716765 -0.22238643 0.18111655 0.107749775
-0.37522522 -0.0009303338 -0.23965545 0.15642378 -0.2518257 0.0045095272 0.3342262 -0.12626393
-0.17315814 -0.21236543 -0.1625957 -0.18279752 0.11756499 -0.10939399 -0.25440937 -0.038977787
0.021825342 0.07640773 -0.22712824 0.3543653 0.059376873 0.16701673 -0.037406575 0.35481295
0.004395503 0.063727416 -0.008471375 -0.29062343 0.15006277 0.40940407 0.1990918 -0.15753198
0.005498256 -0.009135748 0.3806119 -0.010814566 -0.082354024 0.4683512 -0.20649704 -0.087037094
-0.064480364 -0.29700214 -0.09987182 -0.29083458 -0.056810305 -0.15119255 -0.37412438 0.41311327
0.11148157 0.25462046 -0.014577666 -0.347591 0.18344167 0.027798764 0.23916923 -0.09823386
-0.20150584 -0.4273692 0.15923926 -0.08845755 0.32892305 -0.100919314 0.16531324 -0.11552408
-0.007768034 0.109907694 -0.1902359 -0.107435696 -0.034560077 0.19835123 -0.07220763 -0.0007846812
0.057883218 0.15521318 0.27155215 0.104744256 -0.36743826 -0.25234297 0.018589757 -0.12425645
00000000: 9ae0 853d 3b5e 82ba 0f4a e33d 3744 dabd
00000010: 141f 8bbd c652 dcbe 8810 863d b5b0 5d3c
00000020: e6b6 cfbe 5e33 d13d 329c d23d 02a1 933e
00000030: eb4b 5dbe cd43 c13e d895 083e fbdd d13e
00000040: 6113 c33c a7e5 56be 6372 323e ea85 513e
00000050: 7a48 2cbe 0aa7 513e 1e07 dd3d 8ec1 35be
00000060: 3521 25bd e31b 1a3d 3341 96bb 3a4c 76be
00000070: 359e efbd 0a35 dabe bd7b 18bd 427c 09be
00000080: ff99 f0bc 298b e1be 8ab8 88bd 3c6f 61be
00000090: 687c 3d3a 8cfb 2e3e 8838 c63e 18ac 993e
000000a0: 35c0 583e 2a30 2ebe 071b 27be ed24 69bd
000000b0: c80d 04bf a475 7cbe 017c acbe 96b1 eebd
000000c0: 9f98 8abe 3701 473e e89a 683e 4dea 2abe
000000d0: 64b9 b83d 3863 40bd 2920 8d3d 88a1 82be
000000e0: b96f 0ebd f2ca 0e3d cd2c db3d fd53 f4bb
000000f0: 07da 75bc 5022 5bbc 0f69 5cbe 4c5b efbb
00000100: 5a5f 843b 6a38 953c 65fb bfbd d93a 89bd
00000110: 175c 8b3e aa59 a9be 7088 a63e 88bb 063c
00000120: 3fcb 083e c347 65be 1fb5 393d 8860 babd
00000130: 42f6 903c 3f90 5b3e 8179 443f 1058 16be
00000140: ce8a 2c3d 4120 533e dc81 b43d d5ae a9bd
00000150: 7f0b 06be 6a99 163e 725c 813d 6a1e bb3d
00000160: f546 76bc 1e9e 14be 0a06 6bbe 4d43 d13e
00000170: a4c6 9c3e b7c0 2bbb 8970 e53d 0256 d0bd
00000180: c3ea 9c3e f014 dabd 6842 1fbd 7cc7 043e
00000190: b0f1 023e 4120 54be bcfb 49be f583 dbbd
000001a0: b16d 1b3e d9ee a7bc ca6a 7f3e cc83 97be
000001b0: 8a99 acbe 4fe1 76be 3f3a 24be db86 af3d
000001c0: 59cf 753d e137 51be 5d1d 25be 8c2d e93d
000001d0: 4339 de3c 4bc7 183d 32e1 0d3e 0f8a 5e3d
000001e0: 7a24 94bc f707 083e 54ca b3bb 579c f5be
000001f0: 5435 1a3e db96 9cbe acd5 ca3e 6a70 333e
00000200: 1b22 dbbd 0f7e ea3d d9e1 9c3e 6122 90bd
00000210: 77ec fd3d f914 0c3f 5f9e bcbe 42d5 77bd
00000220: 23b7 1c3e cf9d d6bb a190 a5be e115 ef3e
00000230: a7a8 58be 924a 763e 7d19 613d 3c63 cfbc
00000240: b2c0 dd3c 9468 06be e9f6 653d a4d0 d5bd
00000250: 8156 da3d bf2c d53d a55e 133e 93d1 93bd
00000260: f3e2 05be 9847 4fbd d4b7 bfbe 6be9 9b3d
00000270: 18bf 983e 54ce f33d 9163 a4be 873f 0a3e
00000280: a314 96bd eebc 61bd a2fa bd3e f919 d43c
00000290: 90bd 693e 8d22 733e a01d 853d dbee 103e
000002a0: 8ac2 9d3e ad47 773e 2b98 8c3e 1dc5 373e
000002b0: 62bc 4f3d 45b9 63be 9e76 393e eaab dc3d
000002c0: 851d c0be a5e1 73ba 3d68 75be 8e2d 203e
000002d0: 4cef 80be a8c4 933b b21f ab3e 554b 01be
000002e0: 5e50 31be 5376 59be 7d7f 26be 462f 3bbe
000002f0: eac5 f03d f509 e0bd f241 82be 2ca7 1fbd
00000300: 0fcb b23c a87b 9c3d 4e94 68be 5e6f b53e
00000310: 2a35 733d 6f06 2b3e a337 19bd 0baa b53e
00000320: 2708 903b 8583 823d 86cb 0abc 98cc 94be
00000330: 0eaa 193e 699d d13e b9de 4b3e 1050 21be
00000340: b72a b43b 1bae 15bc 90df c23e 942f 31bc
00000350: 3aa9 a8bd bacb ef3e f673 53be 8140 b2bd
00000360: 480e 84bd aa10 98be 9989 ccbd 45e8 94be
00000370: ecb1 68bd 38d2 1abe 3b8d bfbe 9583 d33e
00000380: 7350 e43d 9d5d 823e 2ad7 6ebc 73f7 b1be
00000390: 22d8 3b3e 3cba e33c c7e8 743e d62e c9bd
000003a0: 8c57 4ebe 23d0 dabe 9e0f 233e 3b29 b5bd
000003b0: 9a68 a83e c9ae cebd e047 293e e497 ecbd
000003c0: fe8a febb 4917 e13d 33cd 42be 3f07 dcbd
000003d0: de8e 0dbd 961c 4b3e 98e1 93bd 10b3 4dba
000003e0: f416 6d3d 34f0 1e3e e208 8b3e 2884 d63d
000003f0: de20 bcbe 1933 81be 8c49 983c 2a7a febd

base.mlp.fc_h.0.bias f4 [64]
0.0 0.0 0.0 0.0 0.0 0.0 0.0 0.0
0.0 0.0 0.0 0.0 0.0 0.0 0.0 0.0
0.0 0.0 0.0 0.0 0.0 0.0 0.0 0.0
0.0 0.0 0.0 0.0 0.0 0.0 0.0 0.0
0.0 0.0 0.0 0.0 0.0 0.0 0.0 0.0
0.0 0.0 0.0 0.0 0.0 0.0 0.0 0.0
0.0 0.0 0.0 0.0 0.0 0.0 0.0 0.0
0.0 0.0 0.0 0.0 0.0 0.0 0.0 0.0
00000000: 0000 0000 0000 0000 0000 0000 0000 0000
00000010: 0000 0000 0000 0000 0000 0000 0000 0000
00000020: 0000 0000 0000 0000 0000 0000 0000 0000
00000030: 0000 0000 0000 0000 0000 0000 0000 0000
00000040: 0000 0000 0000 0000 0000 0000 0000 0000
00000050: 0000 0000 0000 0000 0000 0000 0000 0000
00000060: 0000 0000 0000 0000 0000 0000 0000 0000
00000070: 0000 0000 0000 0000 0000 0000 0000 0000
00000080: 0000 0000 0000 0000 0000 0000 0000 0000
00000090: 0000 0000 0000 0000 0000 0000 0000 0000
000000a0: 0000 0000 0000 0000 0000 0000 0000 0000
000000b0: 0000 0000 0000 0000 0000 0000 0000 0000
000000c0: 0000 0000 0000 0000 0000 0000 0000 0000
000000d0: 0000 0000 0000 0000 0000 0000 0000 0000
000000e0: 0000 0000 0000 0000 0000 0000 0000 0000
000000f0: 0000 0000 0000 0000 0000 0000 0000 0000

base.mlp.fc_h.2.weight f4 [64]
1.0 1.0 1.0 1.0 1.0 1.0 1.0 1.0
1.0 1.0 1.0 1.0 1.0 1.0 1.0 1.0
1.0 1.0 1.0 1.0 1.0 1.0 1.0 1.0
1.0 1.0 1.0 1.0 1.0 1.0 1.0 1.0
1.0 1.0 1.0 1.0 1.0 1.0 1.0 1.0
1.0 1.0 1.0 1.0 1.0 1.0 1.0 1.0
1.0 1.0 1.0 1.0 1.0 1.0 1.0 1.0
1.0 1.0 1.0 1.0 1.0 1.0 1.0 1.0
00000000: 0000 803f 0000 803f 0000 803f 0000 803f
00000010: 0000 803f 0000 803f 0000 803f 0000 803f
00000020: 0000 803f 0000 803f 0000 803f 0000 803f
00000030: 0000 803f 0000 803f 0000 803f 0000 803f
00000040: 0000 803f 0000 803f 0000 803f 0000 803f
00000050: 0000 803f 0000 803f 0000 803f 0000 803f
00000060: 0000 803f 0000 803f 0000 803f 0000 803f
00000070: 0000 803f 0000 803f 0000 803f 0000 803f
00000080: 0000 803f 0000 803f 0000 803f 0000 803f
00000090: 0000 803f 0000 803f 0000 803f 0000 803f
000000a0: 0000 803f 0000 803f 0000 803f 0000 803f
000000b0: 0000 803f 0000 803f 0000 803f 0000 803f
000000c0: 0000 803f 0000 803f 0000 803f 0000 803f
000000d0: 0000 803f 0000 803f 0000 803f 0000 803f
000000e0: 0000 803f 0000 803f 0000 803f 0000 803f
000000f0: 0000 803f 0000 803f 0000 803f 0000 803f

base.mlp.fc_h.2.bias f4 [64]
0.0 0.0 0.0 0.0 0.0 0.0 0.0 0.0
0.0 0.0 0.0 0.0 0.0 0.0 0.0 0.0
0.0 0.0 0.0 0.0 0.0 0.0 0.0 0.0
0.0 0.0 0.0 0.0 0.0 0.0 0.0 0.0
0.0 0.0 0.0 0.0 0.0 0.0 0.0 0.0
0.0 0.0 0.0 0.0 0.0 0.0 0.0 0.0
0.0 0.0 0.0 0.0 0.0 0.0 0.0 0.0
0.0 0.0 0.0 0.0 0.0 0.0 0.0 0.0
00000000: 0000 0000 0000 0000 0000 0000 0000 0000
00000010: 0000 0000 0000 0000 0000 0000 0000 0000
00000020: 0000 0000 0000 0000 0000 0000 0000 0000
00000030: 0000 0000 0000 0000 0000 0000 0000 0000
00000040: 0000 0000 0000 0000 0000 0000 0000 0000
00000050: 0000 0000 0000 0000 0000 0000 0000 0000
00000060: 0000 0000 0000 0000 0000 0000 0000 0000
00000070: 0000 0000 0000 0000 0000 0000 0000 0000
00000080: 0000 0000 0000 0000 0000 0000 0000 0000
00000090: 0000 0000 0000 0000 0000 0000 0000 0000
000000a0: 0000 0000 0000 0000 0000 0000 0000 0000
000000b0: 0000 0000 0000 0000 0000 0000 0000 0000
000000c0: 0000 0000 0000 0000 0000 0000 0000 0000
000000d0: 0000 0000 0000 0000 0000 0000 0000 0000
000000e0: 0000 0000 0000 0000 0000 0000 0000 0000
000000f0: 0000 0000 0000 0000 0000 0000 0000 0000

base.mlp.fc2.0.0.weight f4 [64, 64]
0.06535194 -0.00029966087 0.110744655 -0.105581366 -0.0654778 -0.42997655 0.059211772 0.007110656
-0.4047219 0.10431069 0.10377069 0.2893829 -0.21694688 0.37940204 0.1327351 0.4169741
0.024806278 -0.21494447 0.17359202 0.20559189 -0.17086498 0.2052135 0.100467354 -0.17782979
-0.04177648 0.038218744 -0.008257237 -0.24111144 -0.11624942 -0.42523056 -0.03633092 -0.13487399
-0.02827311 -0.43955442 -0.06579682 -0.21896222 0.00013094385 0.17183138 0.3881855 0.30127525
0.21103862 -0.1679483 -0.16219142 -0.05056453 -0.52021515 -0.24712163 -0.33624408 -0.11717135
-0.26363143 0.19251737 0.22557436 -0.1646973 0.09629353 -0.04984342 0.06744419 -0.25134256
-0.04074046 0.03354468 0.106530756 -0.011675748 -0.016770912 -0.014703675 -0.2147728 -0.0075989678
0.005621438 0.018678876 -0.09398922 -0.06828202 0.27083755 -0.3318194 0.32604906 0.013438948
0.13232814 -0.22506802 0.044082575 -0.09235097 0.018880146 0.21285285 0.768625 -0.15315443
0.040816046 0.20679255 0.089306615 -0.08411431 -0.1287799 0.14612454 0.06962263 0.09100569
-0.012048351 -0.1462001 -0.22796397 0.40982378 0.30499122 -0.0040412797 0.1100631 -0.10062449
0.30700514 -0.10784567 -0.04048659 0.12824486 0.12899631 -0.2084353 -0.1985033 -0.10875653
0.15293069 -0.027316038 0.24816146 -0.3010209 -0.33525968 -0.23996735 -0.15989967 0.08683399
0.056111366 -0.20273735 -0.15867357 0.1127991 0.023599133 0.043414604 0.13999964 0.0515553
-0.017539954 0.13297904 -0.004388517 -0.4774201 0.15174584 -0.3045921 0.39515436 0.17617263
-0.10270782 0.11863751 0.30205703 -0.074216254 0.12059017 0.54314923 -0.37264585 -0.06584304
0.1492048 -0.009736334 -0.32719302 0.4632307 -0.20772143 0.23719448 0.058938593 -0.020049887
0.023218442 -0.13398603 0.060094334 -0.10824104 0.10954195 0.1001289 0.1388088 -0.07622134
-0.12720731 -0.054608002 -0.37281382 0.080133386 0.29441783 0.115194745 -0.3246404 0.13900504
-0.0685111 -0.05898009 0.3672371 0.022135358 0.2322694 0.23361504 0.061183907 0.13772574
0.31209671 0.24467912 0.27076444 0.18372068 0.053725015 -0.21837892 0.185422 0.11174294
-0.37062493 0.0025990694 -0.23633578 0.16097485 -0.2494423 0.0048959134 0.3379594 -0.1286478
-0.17676109 -0.2167314 -0.15859535 -0.18026951 0.120396286 -0.10567028 -0.25823388 -0.034873888
0.015808264 0.071545064 -0.22076479 0.3570982 0.060067665 0.1718664 -0.03182554 0.36195907
0.0071435114 0.06560541 -0.006119878 -0.28818277 0.1474244 0.41109404 0.19610065 -0.1647612
0.008258754 -0.007012906 0.3776211 -0.008082605 -0.083333686 0.4713821 -0.19917133 -0.08352236
-0.067406125 -0.29282552 -0.100328 -0.29395396 -0.05398419 -0.14831896 -0.37223694 0.41006592
0.10472266 0.25746378 -0.0118230665 -0.34508735 0.18030125 0.030390618 0.24179426 -0.0955859
-0.20458066 -0.42850742 0.16196403 -0.09531024 0.32959774 -0.10409798 0.15934516 -0.118603624
-0.01506519 0.10782881 -0.19462104 -0.113900006 -0.040752888 0.20111997 -0.07440098 0.00040533862
0.064223394 0.16131727 0.2684559 0.10439365 -0.36989978 -0.2543895 0.021673044 -0.12896654
00000000: 3dd7 853d cd1b 9db9 18ce e23d 0b3b d8bd
00000010: 3a19 86bd e325 dcbe 0b88 723d 8100 e93b
00000020: b537 cfbe d8a0 d53d ba85 d43d ff29 943e
00000030: 5327 5ebe fc40 c23e b6eb 073e a17d d53e
00000040: 8936 cb3c 671a 5cbe 1bc2 313e ae86 523e
00000050: 3bf7 2ebe 7d23 523e d4c1 cd3d 0319 36be
00000060: d01d 2bbd 428b 1c3d 5d49 07bc ebe5 76be
00000070: 2d14 eebd d2b7 d9be bbcf 14bd 681c 0abe
00000080: 029d e7bc 470d e1be 7cc0 86bd a237 60be
00000090: f94d 0939 91f4 2f3e 40c0 c63e c040 9a3e
000000a0: 821a 583e a4fa 2bbe 8215 26be c11c 4fbd
000000b0: d22c 05bf 740d 7dbe 2f28 acbe 88f7 efbd
000000c0: b3fa 86be 4623 453e f7fc 663e 69a6 28be
000000d0: 8b35 c53d 9d28 4cbd 2e20 8a3d f9af 80be
000000e0: 78df 26bd 2566 093d cc2c da3d a34b 3fbc
000000f0: 2763 89bc afe7 70bc 67ed 5bbe c300 f9bb
00000100: 0a34 b83b 7104 993c 6c7d c0bd 72d7 8bbd
00000110: 38ab 8a3e 3be4 a9be e7ef a63e 092f 5c3c
00000120: 0781 073e 3b78 66be ee8f 343d 8122 bdbd
00000130: 89aa 9a3c 19f6 593e 9cc4 443f 84d4 1cbe
00000140: ba2e 273d 6dc1 533e 63e6 b63d 2044 acbd
00000150: e1de 03be aca1 153e 4f96 8e3d 3161 ba3d
00000160: 7266 45bc 7bb5 15be 636f 69be 6cd4 d13e
00000170: cf27 9c3e b66c 84bb c368 e13d 3614 cebd
00000180: c72f 9d3e 31de dcbd 44d5 25bd 9f52 033e
00000190: 9c17 043e 1070 55be 7344 4bbe bebb debd
000001a0: dd99 1c3e e2c5 dfbc 0a1e 7e3e 691f 9abe
000001b0: 28a7 abbe 00ba 75be bdbc 23be 05d6 b13d
000001c0: 08d5 653d 619a 4fbe 537b 22be 3703 e73d
000001d0: f852 c13c 83d3 313d 115c 0f3e a62b 533d
000001e0: f3af 8fbc a82b 083e 8ccd 8fbb 6870 f4be
000001f0: 4363 1b3e 7ff3 9bbe ac51 ca3e 9966 343e
00000200: 7a58 d2bd 39f8 f23d 38a7 9a3e b1fe 97bd
00000210: fbf7 f63d d40b 0b3f 70cb bebe b7d8 86bd
00000220: 25c9 183e 2585 1fbc d885 a7be 932c ed3e
00000230: edb4 54be 1ce3 723e 9869 713d a93f a4bc
00000240: 9a34 be3c a233 09be 7a25 763d 7aad ddbd
00000250: 8857 e03d 6110 cd3d e523 0e3e ef19 9cbd
00000260: a242 02be a4ac 5fbd 74e1 bebe f91c a43d
00000270: efbd 963e 39eb eb3d 4437 a6be 5657 0e3e
00000280: 8c4f 8cbd 1b95 71bd 8006 bc3e 3655 b53c
00000290: 08d8 6d3e c838 6f3e fa9b 7a3d fa07 0d3e
000002a0: 24cb 9f3e 2a8d 7a3e a3a1 8a3e 4621 3c3e
000002b0: c30e 5c3d b99e 5fbe 44df 3d3e 7cd9 e43d
000002c0: 8dc2 bdbe 2655 2a3b 0202 72be 97d6 243e
000002d0: cd6d 7fbe e66d a03b 0409 ad3e 40bc 03be
000002e0: dc00 35be d6ee 5dbe d266 22be 9298 38be
000002f0: 5492 f63d a969 d8bd 3b37 84be ecd7 0ebd
00000300: 5580 813c 3886 923d 2a10 62be 93d5 b63e
00000310: 8309 763d bffd 2f3e 7f5b 02bd b352 b93e
00000320: 1e14 ea3b 215c 863d 4289 c8bb b18c 93be
00000330: 6cf6 163e eb7a d23e 9cce 483e 29b7 28be
00000340: ba4f 073c 85cc e5bb 8e57 c13e e76c 04bc
00000350: daaa aabd ff58 f13e 92f3 4bbe c50d abbd
00000360: 390c 8abd 3aed 95be c478 cdbd 2281 96be
00000370: 871e 5dbd ede0 17be d795 bebe 29f4 d13e
00000380: d578 d63d 4bd2 833e 89b5 41bc 4aaf b0be
00000390: e4a0 383e bff5 f83c ea98 773e 8ac2 c3bd
000003a0: 987d 51be 5365 dbbe e6d9 253e 0432 c3bd
000003b0: 09c1 a83e 5231 d5bd 612b 233e 75e6 f2bd
000003c0: fdd3 76bc 5ad5 dc3d bd4a 47be 6844 e9bd
000003d0: 80ec 26bd 65f2 4d3e 8a5f 98bd a183 d439
000003e0: 8e87 833d 5b30 253e 0d73 893e 57cc d53d
000003f0: 8163 bdbe 573f 82be ab8b b13c ce0f 04be

base.mlp.fc2.0.0.bias f4 [64]
-0.0008061188 0.0011884674 0.0038658301 -0.0029501608 0.007026316 -0.0065989015 -0.001124956 -0.004663213
0.0051099383 0.0008500157 -0.0005626391 -0.0011185793 0.0005077292 -0.0009421692 0.0011930079 0.0015072906
0.0035414195 0.003663803 -0.0037821252 -0.0014787294 -0.00036656295 -0.0023572703 0.0017298778 0.0014994268
0.0060790824 -0.00032428966 -0.00022521624 -0.0040229214 -0.00034127926 0.0035177534 -0.00040996954 -0.005236443
0.0033788807 0.0018191931 -0.0025573468 -0.00037371684 -0.0067181527 -0.002930692 -0.00011118041 0.005253288
0.0032151465 -0.0045023486 0.0038883698 0.002498129 0.0052777864 -0.0042759045 -0.006220164 -0.005293473
0.0019335198 0.0067675547 -0.0045183757 -0.0068673263 0.0032707455 0.0040237796 -0.003562861 -0.002265199
-0.0059514004 -0.0017856584 -0.003756495 0.0041709743 -0.0054171463 -0.0068739876 0.00048014417 -0.000888231
00000000: b851 53ba 59c6 9b3a de59 7d3b 7c57 41bb
00000010: 033d e63b 993b d8bb 4273 93ba decd 98bb
00000020: 4571 a73b 97d3 5e3a 127e 13ba 4b9d 92ba
00000030: 2119 053a e8fb 76ba b45e 9c3a 4890 c53a
00000040: 2917 683b 6a1c 703b 88dd 77bb edd1 c1ba
00000050: 3f2f c0b9 6f7c 1abb 11bd e23a 6a88 c43a
00000060: 0a33 c73b 6c05 aab9 0628 6cb9 b6d2 83bb
00000070: baed b2b9 1c8a 663b 2ef1 d6b9 7896 abbb
00000080: 3670 5d3b fe71 ee3a 2999 27bb 6def c3b9
00000090: f323 dcbb da10 40bb 8729 e9b8 c623 ac3b
000000a0: 35b5 523b 7088 93bb 05d4 7e3b a6b7 233b
000000b0: 48f1 ac3b e31c 8cbb 84d2 cbbb df74 adbb
000000c0: 296e fd3a 5dc2 dd3b e20e 94bb 4f07 e1bb
000000d0: 015a 563b e9d9 833b e37e 69bb bc73 14bb
000000e0: f703 c3bb c10c eaba 872f 76bb abac 883b
000000f0: 5182 b1bb 303f e1bb dcbb fb39 2cd8 68ba

base.mlp.fc2.0.2.weight f4 [64]
1.0017668 0.99975646 1.0007894 1.0048985 0.997139 1.003479 0.99501145 0.99665606
1.0060147 0.9997947 1.0057272 0.9975663 0.9998312 1.0057167 1.0004888 0.9942965
0.99987894 0.9980178 1.0003287 1.0002205 1.0024264 0.99986136 1.0023036 1.0013055
0.998989 1.005363 1.0061607 0.9952871 1.0013102 1.0004281 1.0038946 0.99665135
0.99451226 0.99528646 0.99798787 0.99832886 0.99870765 0.9980556 0.998554 0.9975111
1.0011162 1.0075275 0.9978473 1.0007306 1.004087 1.002843 1.0046045 1.000172
1.0011252 0.9952481 0.99567014 1.0009724 1.0052897 1.000291 0.9971858 0.995966
1.0011897 1.0010042 0.9946699 1.0065064 0.9987174 0.99751997 1.000732 0.9956424
00000000: e539 803f 0af0 7f3f de19 803f 84a0 803f
00000010: 8044 7f3f 0072 803f 12b9 7e3f da24 7f3f
00000020: 17c5 803f 8cf2 7f3f abbb 803f 8160 7f3f
00000030: f0f4 7f3f 53bb 803f 0410 803f 378a 7e3f
00000040: 11f8 7f3f 187e 7f3f c50a 803f 3a07 803f
00000050: 824f 803f eaf6 7f3f 7c4b 803f c72a 803f
00000060: bebd 7f3f bcaf 803f e0c9 803f 23cb 7e3f
00000070: ef2a 803f 070e 803f 9e7f 803f 8b24 7f3f
00000080: 5b98 7e3f 18cb 7e3f 227c 7f3f 7b92 7f3f
00000090: 4eab 7f3f 9280 7f3f 3ca1 7f3f e35c 7f3f
000000a0: 9324 803f a9f6 803f ec72 7f3f f117 803f
000000b0: ec85 803f 295d 803f e196 803f a305 803f
000000c0: df24 803f 94c8 7e3f 3de4 7e3f dd1f 803f
000000d0: 55ad 803f 8909 803f 9247 7f3f a1f7 7e3f
000000e0: fc26 803f e820 803f b0a2 7e3f 34d5 803f
000000f0: f2ab 7f3f 785d 7f3f fc17 803f 6ce2 7e3f

base.mlp.fc2.0.2.bias f4 [64]
-0.0011887884 0.00038811652 -0.0003557697 -0.00018642939 0.0035995627 -0.0050132466 -0.0049999817 -0.0034040401
0.0050432174 0.0013574322 0.00048795875 -0.0024519206 0.00021722258 -0.00070635584 0.00076965743 0.005631658
0.0009892932 0.001987645 -0.0014191198 0.0001742647 -0.00042655747 -0.000642767 -7.860586e-05 -0.0010545843
0.001350266 0.00086812617 -0.00093483477 -0.004865763 -0.0012151093 0.00074068207 -0.0010451395 -0.004933372
0.0054806657 0.003585534 -0.0019586454 -0.0016270883 -0.005670254 -0.0019315811 -0.001390038 0.0049196794
0.001175482 -0.0057029715 0.0023280603 0.000785186 0.0030328343 -0.004223785 -0.005376363 -0.00049339875
-0.00068593136 0.005581537 -0.0044896742 0.00034643186 0.0003996327 0.0008130757 -0.0028537207 -0.003977649
-0.005206719 -0.0009569768 -0.0053292117 0.0003654308 -0.0013295544 -0.0044966177 0.0006994378 -0.0038886636
00000000: 1fd1 9bba 1e7c cb39 9a86 bab9 427c 43b9
00000010: a4e6 6b3b 2946 a4bb e3d6 a3bb 5116 5fbb
00000020: 9341 a53b deeb b13a b7d4 ff39 67b0 20bb
00000030: 3ec6 6339 bd2a 39ba d6c2 493a c589 b83b
00000040: 2cab 813a 2643 023b c201 baba d3ba 3639
00000050: 93a3 dfb9 5d7f 28ba 33d9 a4b8 fa39 8aba
00000060: 69fb b03a f692 633a b30f 75ba fa70 9fbb
00000070: 4d44 9fba 552a 423a 10fd 88ba 20a8 a1bb
00000080: 2897 b33b 47fb 6a3b 9e5c 00bb 0644 d5ba
00000090: 8acd b9bb 1b2d fdba f031 b6ba 4335 a13b
000000a0: a112 9a3a fedf babb 5f92 183b f1d4 4d3a
000000b0: 84c2 463b ad67 8abb 342c b0bb 6e57 01ba
000000c0: 13d0 33ba 53e5 b63b 1e1e 93bb 4ca1 b539
000000d0: cb85 d139 9624 553a 7d05 3bbb f056 82bb
000000e0: 209d aabb a0dd 7aba aba0 aebb 4b97 bf39
000000f0: 7144 aeba 5d58 93bb 7a5a 373a f3d8 7ebb

act.action_out.fc_mean.weight f4 [2, 64]
0.0065308968 -0.0005141164 0.0027294585 -0.006841782 0.003576047 -0.0030017176 -0.0018564162 -0.0026257182
0.008022048 -0.005881984 -0.0048469943 -0.0021830576 -0.0013021176 0.006338486 -0.0036924372 0.0020205963
0.0011304216 0.0023638043 0.0042665713 -0.0031209765 0.0048879366 0.0014498009 0.0042139413 0.0011738492
0.003221885 -0.006708357 0.0071932953 -0.00019283961 0.0038727082 -0.0035249724 0.0054799523 -0.0011149198
0.00060120947 0.0014596655 -0.0014035347 -0.0014581037 -0.00451301 -0.0023841783 -0.0017405589 0.0041491445
-0.0025962323 -0.008553961 0.0007791966 -0.0029968193 0.005716912 0.004795475 -0.0069461353 0.0021052912
0.0035905656 0.002803815 -0.0026182507 -0.004670437 0.005404761 -0.0033168755 -0.0018327541 -0.0022499773
-0.004831667 0.002506523 -0.0009465892 -0.008195114 -0.00056177296 -0.0032852555 -0.0029898726 -0.001743147
-0.00093911594 0.004151845 -0.0035978768 0.0018094347 -0.0011509612 0.007842847 0.0013728067 0.0013474023
0.0050409194 -0.0042372597 0.0064751673 0.0020584278 0.0037591734 -0.0038628222 0.0021802736 -0.00029324007
0.00339979 -0.0022161475 -0.0020274871 0.002244941 -0.003971944 -0.0032124608 -0.0039500087 -0.0054920814
-0.0019289779 -0.0032290043 -0.0026783892 0.0006319346 -0.0041893483 0.0015886525 -0.005447586 0.0044523394
-0.0018776454 -0.0016051953 0.0029988876 0.0029266467 0.0034484216 0.0020814713 0.00279258 -0.003117299
0.0045901155 -0.004201087 -0.0035928064 0.0031805618 -0.005572414 0.004976848 -0.00027428303 -0.002841396
-0.0033257948 -0.0018583923 0.0009782248 0.0018569555 -0.0062719285 0.002097939 0.0023115685 0.0013865893
0.0050730286 -0.004134529 0.0015500123 -0.00035037159 0.003731293 0.0036221896 0.0031449527 0.0015698097
00000000: 2201 d63b c4c5 06ba b7e0 323b 0731 e0bb
00000010: 1d5c 6a3b 77b8 44bb fe52 f3ba 3e14 2cbb
00000020: e86e 033c a8bd c0bb 89d3 9ebb a111 0fbb
00000030: d1ab aaba 13b3 cf3b d1fc 71bb fb6b 043b
00000040: a82a 943a 0eea 1a3b 98ce 8b3b 4c89 4cbb
00000050: fc2a a03b 3f07 be3a 1a15 8a3b d8db 993a
00000060: 4326 533b c7d1 dbbb bcb5 eb3b fd34 4ab9
00000070: 43cd 7d3b 3903 67bb 2c91 b33b 8022 92ba
00000080: 7c9a 1d3a 3f52 bf3a cff6 b7ba d71d bfba
00000090: dfe1 93bb e03f 1cbb 7723 e4ba 8cf5 873b
000000a0: 8d25 2abb ea25 0cbc 0043 4c3a 4966 44bb
000000b0: ef54 bb3b 5c23 9d3b 689c e3bb edf8 093b
000000c0: b24f 6b3b 36c0 373b f596 2bbb 770a 99bb
000000d0: 6c1a b13b f05f 59bb 0639 f0ba 5b74 13bb
000000e0: f652 9ebb 7a44 243b 8724 78ba cd44 06bc
000000f0: f243 13ba 714d 57bb bdf1 43bb 4f7a e4ba
00000100: 012f 76ba 330c 883b 5bca 6bbb 8e2a ed3a
00000110: d9db 96ba 497f 003c c0ef b33a 529b b03a
00000120: 4c2e a53b b6d8 8abb a42d d43b b0e6 063b
00000130: 775c 763b 6727 7dbb ece2 0e3b 04be 99b9
00000140: 03cf 5e3b c93c 11bb 97df 04bb dc1f 133b
00000150: 1527 82bb 2688 52bb 136f 81bb ebf6 b3bb
00000160: c2d5 fcba b49d 53bb ea87 2fbb 6aa8 253a
00000170: cd46 89bb 553a d03a aa81 b2bb eee4 913b
00000180: 531b f6ba 6b65 d2ba fc88 443b fccc 3f3b
00000190: eafe 613b 4b69 083b b803 373b 994b 4cbb
000001a0: ae68 963b 46a9 89bb 4a75 6bbb f970 503b
000001b0: cc98 b6bb d414 a33b a5cd 8fb9 b736 3abb
000001c0: 94f5 59bb 4c95 f3ba c737 803a 1665 f33a
000001d0: c084 cdbb 937d 093b af7d 173b 37be b53a
000001e0: a63b a63b f17a 87bb c829 cb3a 14b2 b7b9
000001f0: b588 743b 4262 6d3b 8d1b 4e3b 13c2 cd3a

act.action_out.fc_mean.bias f4 [2]
-0.0021220783 0.002736975
00000000: 9112 0bbb d25e 333b

act.action_out.logstd._bias f4 [2, 1]
-0.00011344612 0.0075905416
00000000: ece9 edb8 14ba f83b
