results/MyEnv/MyEnv/mappo/check/run36/models/critic_agent0.pt (torch, 89374 bytes, 15 tensors)

base.feature_norm.weight f4 [182]
000000 30 44 7f 3f a2 cb 7f 3f a2 4f 7f 3f 2f 45 80 3f
       0.9971342 0.99920094 0.99730885 1.0021113
000010 b3 3e 80 3f 83 df 7e 3f b4 64 7f 3f f6 4f 7f 3f
       1.0019134 0.995598 0.99763036 0.99731386
000020 18 1f 80 3f 3f 2a 80 3f 63 ff 7f 3f 40 42 80 3f
       1.0009489 1.0012892 0.99999064 1.0020218
000030 c3 6c 80 3f 0a 22 80 3f a8 65 80 3f 37 67 80 3f
       1.0033191 1.0010388 1.0031023 1.0031499
000040 af 6a 7f 3f 42 a3 7f 3f aa 15 80 3f f7 3b 7f 3f
       0.9977216 0.99858487 1.0006611 0.99700874
000050 4e 29 80 3f e3 1f 80 3f 58 b0 7f 3f cf 10 80 3f
       1.0012605 1.0009731 0.99878454 1.000513
000060 d3 81 80 3f f1 52 80 3f 7a 44 7f 3f 09 cd 7f 3f
       1.0039619 1.0025312 0.9971386 0.99922234
000070 5d a3 7f 3f 12 a6 7f 3f 1c 45 7f 3f 43 5e 7f 3f
       0.9985865 0.9986278 0.9971483 0.99753207
000080 bc 58 80 3f a1 4e 80 3f 80 46 80 3f bf 79 7f 3f
       1.002708 1.0023996 1.0021515 0.99795145
000090 c9 55 7f 3f 0d 58 80 3f ee fa 7f 3f a4 24 7f 3f
       0.9974027 1.0026871 0.99992263 0.99665284
0000a0 89 8a 80 3f 75 dc 7e 3f 8b 6e 80 3f fd 4c 80 3f
       1.0042278 0.9955514 1.0033735 1.0023495
0000b0 4c 10 7f 3f fe 4a 80 3f ce ef 7f 3f 64 68 7f 3f
       0.9963424 1.0022886 0.9997529 0.9976866
0000c0 75 66 80 3f 18 98 7f 3f a2 7f 7f 3f af 44 80 3f
       1.0031267 0.9984145 0.9980413 1.002096
0000d0 eb f2 7f 3f 60 62 80 3f 47 55 80 3f e2 2a 7f 3f
       0.9998004 1.0030022 1.0026025 0.9967481
0000e0 83 da 7f 3f 44 28 80 3f e1 b7 7f 3f 3f 70 7f 3f
       0.999428 1.0012288 0.9988995 0.9978065
0000f0 a8 78 7f 3f 5e 62 80 3f 36 50 80 3f e2 a8 7f 3f
       0.9979348 1.0030019 1.0024478 0.9986707
000100 44 26 80 3f e2 fb 7e 3f 16 43 80 3f e7 ea 7f 3f
       1.0011678 0.9960309 1.0020473 0.9996781
000110 fd 1d 80 3f 9c 6d 7f 3f 2e 27 80 3f ef 54 80 3f
       1.0009152 0.99776626 1.0011957 1.002592
000120 0f 74 7f 3f f6 29 80 3f 30 4b 80 3f 29 30 7f 3f
       0.99786466 1.0012805 1.0022945 0.9968286
000130 75 67 80 3f c9 a6 7f 3f 06 63 80 3f b2 35 80 3f
       1.0031573 0.9986387 1.003022 1.0016387
000140 a9 a2 7f 3f eb 2f 80 3f e7 48 80 3f e8 45 7f 3f
       0.99857575 1.0014623 1.0022248 0.99716043
000150 8e 59 7f 3f 05 11 80 3f 0f 7e 80 3f 93 70 80 3f
       0.99746025 1.0005194 1.003847 1.0034355
000160 ec 64 7f 3f 7a 6c 7f 3f 54 88 80 3f 73 39 80 3f
       0.9976337 0.997749 1.0041604 1.0017532
000170 00 50 7f 3f b2 2a 80 3f a6 11 80 3f 85 ef 7f 3f
       0.99731445 1.001303 1.0005386 0.9997485
000180 ac b1 7f 3f ec 15 7f 3f c7 fb 7f 3f 15 5f 7f 3f
       0.9988048 0.99642825 0.99993557 0.9975446
000190 d9 35 80 3f 04 30 80 3f af 4b 80 3f 8d b4 7f 3f
       1.0016433 1.0014653 1.0023097 0.99884874
0001a0 f3 43 7f 3f b0 77 7f 3f 66 7d 80 3f 4f 44 80 3f
       0.9971306 0.99792004 1.0038269 1.0020846
0001b0 48 4b 7f 3f 0f 37 80 3f 85 72 80 3f 3e 41 80 3f
       0.99724245 1.0016803 1.0034949 1.001991
0001c0 f2 e3 7f 3f 6f cf 7e 3f 85 d6 7f 3f e0 ee 7f 3f
       0.9995719 0.9953527 0.99936706 0.9997387
0001d0 d4 80 80 3f c5 2e 80 3f 88 49 7f 3f ec 2f 7f 3f
       1.0039315 1.0014273 0.99721575 0.996825
0001e0 21 d4 7f 3f a4 5b 80 3f da 1c 80 3f 00 57 80 3f
       0.9993306 1.0027966 1.0008805 1.002655
0001f0 60 38 80 3f df 09 80 3f b4 40 80 3f 51 00 80 3f
       1.0017204 1.0003012 1.0019746 1.0000097
000200 01 a6 7f 3f 6e 77 80 3f 90 0b 80 3f 83 06 7f 3f
       0.99862677 1.0036447 1.0003529 0.9961931
000210 a8 26 80 3f 7a 56 80 3f 23 65 80 3f 90 58 7f 3f
       1.0011797 1.002639 1.0030864 0.9974451
000220 03 67 7f 3f b3 4a 7f 3f b3 40 7f 3f af 5e 7f 3f
       0.9976656 0.99723357 0.997081 0.9975385
000230 96 16 80 3f 73 72 80 3f 77 22 7f 3f f5 fb 7f 3f
       1.0006893 1.0034927 0.99661964 0.9999383
000240 e0 25 80 3f 93 12 7f 3f 6f 8e 7f 3f 2d 79 7f 3f
       1.0011559 0.99637717 0.9982671 0.99794275
000250 61 47 7f 3f 7d 6f 7f 3f 71 45 80 3f 4e 40 80 3f
       0.9971829 0.9977949 1.0021192 1.0019624
000260 89 5b 80 3f f4 69 7f 3f db a0 7f 3f 05 55 7f 3f
       1.0027934 0.99771047 0.9985482 0.99739105
000270 85 4f 80 3f 34 2e 80 3f 62 40 80 3f 94 fa 7f 3f
       1.0024267 1.00141 1.0019648 0.99991727
000280 25 7e 7f 3f 57 19 80 3f d5 bc 7f 3f 3f 93 80 3f
       0.99801856 1.0007733 0.9989751 1.0044936
000290 47 7f 7f 3f 37 04 7f 3f d9 4b 80 3f 58 10 80 3f
       0.99803585 0.99615806 1.0023147 1.0004988
0002a0 a9 38 80 3f 84 61 80 3f 05 6e 80 3f 24 4f 80 3f
       1.0017291 1.002976 1.0033575 1.0024152
0002b0 86 2c 80 3f f0 29 80 3f 6f 28 80 3f 9a 4b 80 3f
       1.0013587 1.0012798 1.0012339 1.0023072
0002c0 3c 46 80 3f 62 41 7f 3f 9c 10 80 3f 11 59 7f 3f
       1.0021434 0.9970914 1.0005069 0.9974528
0002d0 cb 63 7f 3f 26 9e 80 3f
       0.99761647 1.0048263

base.feature_norm.bias f4 [182]
000000 8d bb 3a 3b b6 69 c0 ba ea 48 1e 3b c8 7a 03 bb
       0.0028493137 -0.0014679942 0.0024152347 -0.0020062197
000010 dd a4 ea ba 32 63 03 bb e4 b9 21 3b 1e 03 2d 3b
       -0.0017901916 -0.0020048139 0.002467745 0.0026399563
000020 12 2b ef ba 7c 36 fc ba e8 06 10 b9 75 2a 03 bb
       -0.0018247089 -0.0019242312 -0.00013735483 -0.002001432
000030 46 5c 5e bb 19 c7 80 ba 66 0e 4a 3b 94 1e 45 bb
       -0.003392951 -0.0009824961 0.0030831336 -0.003007804
000040 81 6d 13 3b 78 12 b8 3a a5 83 35 ba ea c7 42 bb
       0.002249569 0.001404359 -0.00069242186 -0.002972121
000050 d7 ab ac 3a 7a 00 82 3a b8 70 a0 ba 80 2a 0b 3a
       0.0013173771 0.0009918355 -0.0012240624 0.0005308762
000060 b2 7b 81 3b fb 75 25 3b ce 0f 3d bb 81 5f 4f ba
       0.003951513 0.0025247324 -0.0028848532 -0.00079106545
000070 7f 22 b0 ba 75 8c b7 ba 8e 82 3b bb 5f a6 23 bb
       -0.0013438015 -0.0014003651 -0.0028611752 -0.002497099
000080 ba bc 2e 3b dc b0 1f 3b 47 b0 0e 3b 1f a6 05 bb
       0.0026662783 0.002436689 0.002177255 -0.0020393205
000090 00 56 2a bb 27 c5 2f 3b 34 46 db b8 eb 57 59 bb
       -0.0025991201 0.0026820393 -0.0001045581 -0.0033163975
0000a0 5f 20 8b 3b 47 b5 91 bb 72 3b 59 3b 01 4d 1c 3b
       0.0042458023 -0.004446659 0.0033147004 0.002384961
0000b0 8c c9 72 bb 29 6a 19 3b de 84 67 b9 82 22 18 bb
       -0.00370464 0.0023409224 -0.00022079374 -0.0023213928
0000c0 af bd 4a 3b 84 da d4 ba 75 25 02 bb 25 7b 0a 3b
       0.0030935814 -0.0016239439 -0.0019858752 0.0021130529
0000d0 41 02 38 b9 35 27 44 3b f2 43 2b 3b f3 88 55 bb
       -0.00017548447 0.0029930596 0.0026133028 -0.0032582849
0000e0 37 dc 13 ba 09 82 a5 3a a9 2f 8c ba eb 6f 10 bb
       -0.00056404195 0.0012627254 -0.0010695356 -0.0022039365
0000f0 60 86 05 bb c3 72 45 3b e9 55 20 3b d0 60 a6 ba
       -0.0020374283 0.0030128218 0.002446527 -0.0012693647
000100 33 50 92 3a 67 5f ef ba 04 dd 82 3a d5 ec d7 39
       0.0011162817 -0.0018262685 0.0009984081 0.0004118445
000110 b9 12 6a ba 3b 86 11 3b 75 79 95 ba f0 e7 2a bb
       -0.00089291815 0.0022205252 -0.0011403995 -0.0026078187
000120 42 52 0d 3b 89 52 ad ba 59 1e 15 bb 9c 9c 4e 3b
       0.0021563922 -0.001322345 -0.0022753684 0.0031526452
000130 12 cb 4e bb 5c 0d bd 3a ad 73 45 bb fd a8 d7 ba
       -0.0031554145 0.0014423537 -0.0030128763 -0.0016453561
000140 d6 f5 bf 3a 7e 30 15 3b 0f 62 18 3b 49 33 3b bb
       0.0014645408 0.00227645 0.0023251807 -0.0028564504
000150 25 7a 28 bb 79 f8 f5 39 a8 f6 7d 3b 83 e7 60 3b
       -0.002570757 0.00046915168 0.0038751755 0.003431768
000160 4c 71 1c bb a4 98 14 bb d3 86 88 3b 43 ee e0 ba
       -0.002387124 -0.0022673989 0.004166463 -0.0017160851
000170 39 3c 34 3b 31 a1 6a ba 18 3c 44 ba 9d 74 33 39
       0.0027501716 -0.0008950411 -0.00074857613 0.00017114212
000180 45 6d 5f bb ef e7 07 ba e6 f6 13 39 bb 42 22 3b
       -0.003409223 -0.0005184402 0.0001411099 0.0024759013
000190 9e c5 f2 ba e8 84 c7 ba 53 d9 18 bb e5 7a 9c 3a
       -0.0018522029 -0.0015222104 -0.0023322895 0.0011938481
0001a0 e2 b5 38 3b 14 39 0a bb 99 bb 79 bb 2e f1 06 bb
       0.0028184582 -0.002109115 -0.0038106202 -0.0020590532
0001b0 6f a8 3a 3b e8 20 ea ba 0b e5 66 3b d8 19 02 3b
       0.0028481742 -0.001786259 0.0035231735 0.001985183
0001c0 5c 0b f1 b9 10 05 99 bb c2 5c 35 ba 27 7d 8c b9
       -0.00045975565 -0.004669793 -0.0006918424 -0.00026796127
0001d0 7f 68 81 3b 91 68 ba 3a e4 1b 35 bb b3 f7 16 bb
       0.0039492245 0.0014221837 -0.0027635032 -0.0023035824
0001e0 bc 7e dc ba 77 e0 2c bb d2 41 65 ba c7 94 2c bb
       -0.0016822438 -0.0026378909 -0.0008745465 -0.0026333795
0001f0 f6 3b e4 ba 11 07 93 b9 ba fb 00 bb 16 f7 0e b8
       -0.0017412889 -0.0002804329 -0.001968129 -3.4085555e-05
000200 f9 20 b2 3a c3 63 6e bb 2a 1c 8d b9 9a 5c 79 3b
       0.0013590149 -0.003637538 -0.000269146 0.003804958
000210 29 d0 9a ba f4 69 2d bb 3f 67 4b bb de 5b 31 3b
       -0.0011811304 -0.0026460858 -0.0031036881 0.0027062814
000220 c9 62 2c bb 48 55 1d 3b 0a c0 3f bb c3 e3 20 bb
       -0.0026303998 0.002400713 -0.0029258751 -0.002454982
000230 ed 62 34 3a 51 94 62 3b 44 29 5c bb a0 86 83 b8
       0.0006881196 0.0034573267 -0.0033593932 -6.2716426e-05
000240 46 24 98 3a 5f 79 6d bb e5 05 e5 ba 1c 32 08 bb
       0.001160749 -0.0036235673 -0.001747307 -0.002078182
000250 aa 8d 37 bb 42 eb 12 bb d7 58 0a 3b df b1 01 3b
       -0.0028008022 -0.0022418057 0.0021110082 0.0019789857
000260 99 4b 36 3b de 38 11 bb c2 38 bb ba d1 2c 2b bb
       0.0027816056 -0.002215914 -0.0014283883 -0.0026119242
000270 30 67 1e 3b 5a 14 ba 3a c5 13 00 3b 07 89 06 b9
       0.0024170391 0.0014196739 0.0019543034 -0.00012830283
000280 4e 75 03 bb ff ad 4f 3a 5a 59 84 ba d0 a5 94 3b
       -0.0020058933 0.0007922351 -0.001009743 0.004536368
000290 57 25 fe ba ff 94 7b bb fe e5 17 3b 03 bb cd 39
       -0.001938979 -0.003838837 0.0023177858 0.00039239982
0002a0 e9 0a e8 3a 36 14 43 3b 60 8a 5b 3b e9 2f 1f 3b
       0.0017703447 0.0029766685 0.0033499226 0.0024290031
0002b0 6e 06 b6 3a 25 f4 a3 3a 63 2d 9f 3a cc 7f 12 3b
       0.0013887414 0.0012508674 0.0012144264 0.0022354005
0002c0 b8 cc 0e 3b e7 87 44 bb 31 7f f1 39 e9 4c 28 bb
       0.0021789502 -0.002998823 0.00046061867 -0.0025680608
0002d0 b2 63 1d bb e8 8b 9a 3b
       -0.0024015722 0.004716385

base.mlp.fc1.0.weight f4 [64, 182]
000000 b2 02 ed bd a9 cb 87 3d 1c 8b 9d bd c2 63 00 bd
       -0.1157278 0.06630642 -0.07692549 -0.031345136
000010 25 53 7b be ee ed 85 bd a4 42 23 bd 0a 15 05 be
       -0.24543436 -0.06539522 -0.039858475 -0.12996307
000020 d3 06 26 bd 78 e9 2e 3e b9 00 a5 3d e5 54 16 be
       -0.04053385 0.17081249 0.080567785 -0.14680822
000030 0c 61 78 3d 7c 93 68 3d f4 0f 99 3d 16 ec 0b be
       0.060639426 0.056781277 0.07473746 -0.13664278
000040 e1 bb 93 bb ae 20 18 be 0d 74 ae 3d 4a 6b 8b bc
       -0.004508481 -0.14856216 0.08518229 -0.017018933
000050 d4 23 55 be 49 3e 52 3e 9c a9 68 3c db 5d 38 be
       -0.20814449 0.20531572 0.014200594 -0.18004553
000060 34 b7 8d 3d e4 7c 1c be 25 b1 33 3e de 32 50 be
       0.06919709 -0.15282017 0.17548044 -0.20331904
000070 a9 f6 2b 3e fd 1b 7e 3e 29 3b b1 bd a4 74 a9 bc
       0.16793312 0.24815364 -0.08653862 -0.020685501
000080 bc a7 81 be 9f f2 1b be 69 43 91 bd 97 d8 02 be
       -0.25323284 -0.15229271 -0.070929356 -0.12777935
000090 c8 f2 0c 3e db fe 52 be 19 07 d7 3c 00 14 dd 3d
       0.13764489 -0.20605032 0.026248502 0.1079483
0000a0 a8 64 be bd 94 89 e3 3d 56 68 c2 bc 5f 8e ba bd
       -0.092965424 0.11110225 -0.023731392 -0.091091864
0000b0 73 b3 fb bd f6 b5 90 3e 48 c9 75 3d 2e 97 07 be
       -0.122900866 0.28263825 0.06000641 -0.13241264
0000c0 67 d1 d0 3d eb e4 cf bd 1a 02 63 3d 79 af 73 bc
       0.1019619 -0.101510845 0.055421926 -0.014873379
0000d0 9b e2 32 3d fd b8 57 bd bd ef d4 3d 36 91 9c bc
       0.04367314 -0.052666653 0.10397289 -0.01911221
0000e0 d2 ae 17 be ab b4 33 3d 60 06 f4 3c 31 8c ba 3c
       -0.14812782 0.04387347 0.029788196 0.022771927
0000f0 97 4d 48 3e cf 13 e6 bd aa 7f 49 bc 50 79 37 3c
       0.19560848 -0.11234247 -0.012298504 0.011198357
000100 72 eb 7e 3e 7d fa c4 3b fe 32 7b 3d 82 4c 22 3d
       0.24894503 0.006011306 0.061327927 0.039623745
000110 a7 1f d0 bd a3 8d ca 3c 68 27 9c 3d ca 80 ce bd
       -0.10162287 0.02472574 0.07624704 -0.10083158
000120 dc e8 40 3d a3 bf 8b bd 9a b9 29 3d 3b 2f 97 bb
       0.047097072 -0.06823661 0.04143677 -0.0046137846
000130 a9 78 16 3d 8a a6 59 3e 1c 59 a5 38 34 21 3a bd
       0.036736164 0.21254936 7.884411e-05 -0.04544182
000140 d2 57 ec bd e9 50 e2 3c 66 ff bb 3d ad ce 86 be
       -0.11540188 0.027626472 0.09179573 -0.26329556
000150 00 98 ea bd 21 e4 10 3d 9c 59 22 3b 8a ae ab bd
       -0.11454773 0.03537381 0.002477265 -0.083829
000160 cd 1b e0 3d 39 43 72 3e 5f aa 53 bc a4 ba 93 bd
       0.109428026 0.23658456 -0.012919038 -0.07213333
000170 99 d1 70 bd 70 e9 0a 3b 64 0d 11 3e 09 43 90 bd
       -0.058793638 0.0021196268 0.14165264 -0.07044036
000180 6e 27 3c bc e1 37 1d 3e 4e 72 a7 bc 3d aa ac bd
       -0.01148401 0.15353347 -0.020440247 -0.08430908
000190 0f d6 03 3d 1f c0 84 bc 12 52 39 bd 69 98 05 3e
       0.032186564 -0.016204892 -0.045244284 0.13046421
0001a0 31 60 55 3e 3e 48 13 3e c4 70 4f 3e 1b 32 ff 3d
       0.20837475 0.14383027 0.2025786 0.12460729
0001b0 84 b8 ee bd bb 71 99 be ae 0b 41 3e 83 d4 ca 3d
       -0.11656287 -0.29969582 0.18852112 0.09903815
0001c0 45 2a 2e 3d a9 4f c6 bc 03 18 57 3d e0 0c f6 3d
       0.04252078 -0.024207907 0.052513134 0.120141745
0001d0 c4 0b f5 bc ec e7 61 be b4 02 e9 3d ef 37 d7 3d
       -0.029912837 -0.22061127 0.11377469 0.10508715
0001e0 ac 1c c2 3d e9 3c 92 bd 92 af 3b be b0 c1 03 bd
       0.09478125 -0.07140524 -0.18328694 -0.032167137
0001f0 f5 72 7a 3e af ee 3e 3c f1 22 51 bc 35 85 57 bb
       0.24457915 0.011653586 -0.012764678 -0.0032885794
000200 b2 9a 86 bd de 47 5a bc c5 20 17 be 7d 26 cd 3d
       -0.065724745 -0.013322799 -0.14758594 0.10017107
000210 a1 49 cb 3d a4 47 9f 3e d8 c1 a2 bd c1 7b 7e bc
       0.09926153 0.31109345 -0.07947129 -0.015532435
000220 34 df 23 be 8d cd 09 be bd 32 8b 3d e8 b2 89 3d
       -0.16003114 -0.13457318 0.06796787 0.06723577
000230 37 c6 26 bc 07 18 11 be b2 9c 66 be a1 89 30 3d
       -0.010179094 -0.14169322 -0.22520712 0.043100003
000240 5a f0 1f 3e 83 d6 e1 bd db f5 f6 bc 99 9a 25 3d
       0.1561903 -0.11027243 -0.03014653 0.04043064
000250 58 37 58 bb 0c e7 b6 bd 33 9d b8 bd 04 dd 8f bd
       -0.0032991972 -0.089307874 -0.09014358 -0.07024577
000260 fa b0 80 3d 3e 61 50 bd fa ba 43 be 7d 82 d3 bc
       0.062837556 -0.050873987 -0.19114295 -0.025819058
000270 26 c0 86 3d 49 4a c7 bd 17 6a 1c 3e bf 6f bd 3d
       0.06579618 -0.09730966 0.15274845 0.092498295
000280 94 64 fd 3c a7 52 1f 3e 87 60 19 bd 71 63 93 3e
       0.030931748 0.15558873 -0.03744557 0.28786805
000290 29 95 3d 3e 84 d0 39 3e 7f ad 64 3e ab cb c1 bd
       0.18513931 0.18145949 0.22331809 -0.09462675
0002a0 e7 7a 0f 3e 3e 45 84 bd 2c 6f 78 3e 2a 0b 7e be
       0.14011727 -0.064585194 0.24261159 -0.24808946
0002b0 f5 46 a1 3d 73 93 66 bd cb f4 4d bd 86 40 57 be
       0.07874862 -0.056292962 -0.05028228 -0.21020707
0002c0 ff 24 20 3d 69 d9 eb 3a 2f 9d af 3d bf 92 0f 3e
       0.039097782 0.001799387 0.08574902 0.14020823
0002d0 63 09 51 3d c4 e4 92 bd 70 1a 4f 3d 62 a7 c0 3d
       0.051034342 -0.0717254 0.050562322 0.09406926
0002e0 ce f0 44 bd 21 ed f6 3d 11 c4 f8 3d a6 36 0b 3e
       -0.04808121 0.120569475 0.12146772 0.13595065
0002f0 92 44 56 3d f4 c6 21 3e 75 8c 12 be 13 77 b2 3d
       0.052311487 0.15798551 -0.14311393 0.08714118
000300 8e 51 77 bd f2 0c 20 3d 82 85 21 3d 81 1c 15 bd
       -0.06038051 0.039074846 0.039433964 -0.036404137
000310 26 74 6e 3d d7 3c 1f 3e 94 19 f2 bd 29 a8 f6 bd
       0.058216237 0.15550552 -0.11821285 -0.12043793
000320 9e cf ab be 03 82 db 3d f3 d9 a3 bd 59 37 f5 bd
       -0.33556837 0.10718157 -0.08000555 -0.11973447
000330 de 6c f3 bc 46 1c 53 bc 3d 15 67 be 13 50 14 3e
       -0.029714998 -0.012885159 -0.22566696 0.14483671
000340 3d 4d 7a 3d e0 32 92 bd 5d df e8 3c 71 7f 15 bd
       0.061108816 -0.0713861 0.02842682 -0.03649849
000350 95 60 a5 3d d5 24 33 3d dd 6f b2 3d 60 56 74 3b
       0.08075062 0.043736298 0.087127425 0.0037282929
000360 aa 93 06 3e fd da 9e bd 9e b8 2f be 07 be 21 be
       0.13142267 -0.077566124 -0.1716027 -0.15795146
000370 b8 0d 41 3e 4c 03 4f bd 68 92 15 3e 7c 33 7b 3e
       0.1885289 -0.050540254 0.14606631 0.24531358
000380 bd 6c 2f 3e 15 0f 6e 3d 9c cc 43 be e8 8c ea 3c
       0.17131324 0.058119852 -0.19121021 0.028631642
000390 9f bf 11 3e ab c1 74 3d 44 58 43 bc 56 0b 82 bd
       0.14233254 0.05975501 -0.0119229 -0.063498184
0003a0 df 8a ce bd db f2 79 bd cb 93 b8 3d 1c ae f4 3d
       -0.10085081 -0.06102262 0.09012564 0.11947271
0003b0 f8 ed 19 be c2 ae cb bd 5b fd 67 3b 51 ac a2 3c
       -0.15032184 -0.09945442 0.0035398814 0.019857557
0003c0 7b 64 9d be a9 63 58 3b 55 ea 3f bd 66 e0 27 be
       -0.30740723 0.0033018386 -0.046854336 -0.16394195
0003d0 b2 95 64 3e 36 a1 14 3e 4a 28 81 bd 47 6f 41 3e
       0.22322729 0.14514622 -0.06306513 0.18890105
0003e0 64 0c e5 bc 3d ef b4 3c a7 c0 48 3e 60 3f 0d bd
       -0.02796001 0.022086734 0.19604741 -0.034484267
0003f0 b2 4e 40 bd 4c 4a fb bd 72 f7 89 be 38 ec 84 bd
       -0.04695005 -0.122700304 -0.26946598 -0.06490368

base.mlp.fc1.0.bias f4 [64]
000000 9a a2 15 bb 26 24 98 3a 82 b2 48 3b f3 d3 46 3a
       -0.0022832514 0.0011607453 0.0030623977 0.00075846835
000010 34 31 3f 3b 67 3f 16 3b 42 63 46 3b d7 49 94 bb
       0.0029173614 0.0022925974 0.0030271565 -0.004525404
000020 93 7a 31 bb 65 11 20 39 8d b3 20 bb e6 63 a2 3a
       -0.0027081117 0.00015265269 -0.0024521083 0.0012389391
000030 de db ac 3a 14 59 c9 ba e8 0b 25 bb c7 8d 2d 3b
       0.0013188084 -0.001536163 -0.0025184099 0.002648221
000040 cc 79 41 3b de 3a 30 3b 06 19 ee ba ba fa 2c bb
       0.002952206 0.0026890556 -0.0018165417 -0.0026394562
000050 a9 ef 73 3b f1 c8 6c 3b f0 d1 21 bb 0f 1b 51 bb
       0.0037221706 0.0036130513 -0.0024691783 -0.0031906997
000060 a2 36 02 3b b8 5e ca 3a 92 44 1a bb d7 b0 82 3a
       0.001986899 0.0015439605 -0.0023539406 0.0009970915
000070 fa 67 98 3a 11 56 10 bb bd 63 16 bb d9 fc 66 b8
       0.0011627667 -0.0022023956 -0.0022947632 -5.5071756e-05
000080 d9 35 89 bb 1e 5e d8 3a 56 67 d8 ba e0 2e 2c 3b
       -0.0041873273 0.0016507541 -0.0016510289 0.0026273057
000090 29 64 4a 3b c9 d2 20 bb be c0 05 3b 03 f1 81 ba
       0.0030882454 -0.00245397 0.0020409073 -0.0009913746
0000a0 93 69 4b bb 4f 33 3a bb 50 93 80 ba 5a ef bc ba
       -0.003103827 -0.002841193 -0.0009809528 -0.0014414594
0000b0 05 56 22 3b 10 2f 27 3b 5d 7d d5 ba 27 c9 7d ba
       0.002477051 0.002551023 -0.0016287972 -0.0009681158
0000c0 5f 42 8c ba 37 0b 48 3b fb d1 c3 3a 3e 33 0e bb
       -0.0010700932 0.0030524263 0.0014939898 -0.0021698023
0000d0 5d f5 36 bb 9f 44 35 3b 7d bc 3f bb 02 3b b9 3a
       -0.0027917244 0.002765931 -0.0029256635 0.0014131966
0000e0 1d a7 8b 3b ba 9a 68 bb 52 27 7e 3b 8d da 80 3a
       0.004261865 -0.0035492615 0.003878076 0.0009830758
0000f0 f1 5a 2e 3b 36 5f ea ba d9 6a 06 bb cc 48 8b bb
       0.0026604498 -0.0017881158 -0.0020510464 -0.0042506214

base.mlp.fc1.2.weight f4 [64]
000000 a3 a3 7f 3f 86 49 80 3f 86 4c 7f 3f bf 78 7f 3f
       0.99859065 1.0022438 0.9972614 0.9979362
000010 8f 42 80 3f 88 8f 7f 3f 5e 35 7f 3f 35 be 80 3f
       1.0020312 0.99828386 0.99690807 1.0058047
000020 25 41 80 3f 0c eb 7f 3f bf 1b 7f 3f 2a 26 80 3f
       1.001988 0.9996803 0.9965171 1.0011647
000030 9f 17 80 3f 56 82 7f 3f c2 7f 7f 3f c0 74 80 3f
       1.0007209 0.9980825 0.9980432 1.0035629
000040 d7 0b 7f 3f 26 5b 7f 3f 1c 5d 7f 3f de 9b 7f 3f
       0.9962744 0.99748456 0.9975145 0.9984721
000050 eb 17 7f 3f fa f8 7f 3f 29 6a 7f 3f 21 6e 80 3f
       0.9964587 0.99989283 0.9977136 1.0033609
000060 fc 2c 7f 3f 63 04 80 3f 9e 42 7f 3f 2c b5 7f 3f
       0.99678016 1.0001339 0.99711025 0.9988582
000070 d9 c6 7f 3f 02 96 7f 3f 81 48 80 3f 39 45 7f 3f
       0.9991279 0.9983827 1.0022126 0.99715
000080 fa 55 80 3f 58 46 80 3f 73 47 80 3f 2c 6e 7f 3f
       1.0026238 1.0021467 1.0021805 0.99777484
000090 70 ea 7e 3f fa 2d 80 3f bb 5c 7f 3f ab 90 7f 3f
       0.99576473 1.0014031 0.9975087 0.9983012
0000a0 2a 57 80 3f 5a 1b 7f 3f 75 98 7f 3f 9d 68 80 3f
       1.00266 0.9965111 0.99842006 1.0031925
0000b0 3e 27 80 3f 20 24 80 3f e8 48 80 3f 12 60 7f 3f
       1.0011976 1.0011024 1.0022249 0.99755967
0000c0 8d fc 7e 3f f7 54 80 3f 13 7b 7f 3f fe 8e 7f 3f
       0.9960411 1.0025929 0.9979717 0.99827564
0000d0 01 64 80 3f a9 57 80 3f a7 21 7f 3f 3f 24 7f 3f
       1.0030519 1.0026752 0.99660724 0.9966468
0000e0 28 a3 7e 3f 75 57 80 3f a2 33 7f 3f e9 40 80 3f
       0.99467707 1.002669 0.9968816 1.0019809
0000f0 68 ed 7f 3f e9 13 80 3f 8d 6d 80 3f fb 85 80 3f
       0.9997163 1.0006076 1.0033432 1.0040888

base.mlp.fc1.2.bias f4 [64]
000000 85 de da ba 39 ac df 3a f4 01 3d 3b c7 ab 9a 3a
       -0.0016698396 0.0017064876 0.0028840275 0.0011800461
000010 f0 bf 01 3b be 3f 84 ba 85 df 15 bb 79 19 b0 bb
       0.0019798242 -0.0010089797 -0.0022868824 -0.0053741303
000020 7e 69 0f bb 1a 54 9f 39 8f e4 5a bb 6d e6 a6 3a
       -0.0021882947 0.00030389504 -0.0033400392 0.0012733467
000030 e6 aa 47 3a ee e4 d6 3a 23 f0 01 bb ca d8 65 3b
       0.00076167134 0.0016395131 -0.001982697 0.0035071843
000040 ad be ed 3a 9d 8c 26 3b 05 ab 1d bb 24 78 8e ba
       0.0018138491 0.0025413402 -0.0024058234 -0.0010869545
000050 7a 9b 65 3b 88 92 28 3b 81 33 ce ba d8 51 5e bb
       0.0035035298 0.0025722105 -0.0015731902 -0.0033923294
000060 c4 b2 22 bb 97 96 10 3b 46 2b 3a bb 2c ea a2 3a
       -0.002482579 0.0022062415 -0.002840714 0.0012429408
000070 3b a7 87 3a 82 9f e8 ba e1 f8 c0 ba 82 7f 8a ba
       0.0010349521 -0.0017747732 -0.0014722609 -0.0010566565
000080 55 49 c7 bb b5 23 0d 3b 65 8a 0a 3b 23 8d 12 bb
       -0.00608174 0.0021536176 0.0021139618 -0.0022361956
000090 8b 60 1c 3b cf d3 2b 3a f5 a7 9a 3a e8 85 cd 3a
       0.0023861255 0.0006554694 0.0011799323 0.0015680166
0000a0 2b 69 2f bb b5 54 65 bb d1 8e be ba 00 c0 38 bb
       -0.0026765566 -0.0034993116 -0.0014538412 -0.0028190613
0000b0 d8 5a 2a 3b 4a 8c 05 3b d7 a2 0d 3b 41 70 24 bb
       0.0025994089 0.0020377808 0.0021611953 -0.0025091323
0000c0 cc ad 8d 3a 56 98 3e 3b 21 f1 f1 3a 37 5b e8 ba
       0.0010809242 0.0029082499 0.0018458703 -0.001772738
0000d0 2e 6e 4a bb 40 3b 2c 3b 09 ea 58 bb ef 85 72 b9
       -0.0030888426 0.0026280433 -0.003309848 -0.00023128813
0000e0 bf b0 60 3b f4 58 2c bb 63 11 60 3b 1c 44 ee ba
       0.0034285036 -0.0026298137 0.003419005 -0.0018178257
0000f0 e1 85 30 3b da 20 13 bb 89 e0 59 bb 4c 2b 86 bb
       0.0026935267 -0.002245 -0.0033245406 -0.004094517

base.mlp.fc_h.0.weight f4 [64, 64]
000000 22 89 48 be 27 00 93 be fe 62 9a be ce 18 5d 3e
       -0.19583562 -0.28711054 -0.3015365 0.21591493
000010 3f 3d ca be c4 5e 87 3d 86 10 a2 3e 46 f7 23 be
       -0.39499852 0.06609872 0.3165323 -0.16012296
000020 a9 45 a9 3d 28 92 aa bd c2 87 f7 bc ba 01 29 bc
       0.0826524 -0.08328658 -0.030216102 -0.010315353
000030 e8 56 d4 bc 89 bb f4 3d 5f a7 14 3e c5 c8 a9 3e
       -0.025920346 0.11949832 0.14516972 0.33160987
000040 4d bc d4 bd e3 19 90 3d 88 70 cd 3d f5 55 c2 bc
       -0.10387478 0.070361875 0.10031229 -0.023722628
000050 a1 63 66 3d 33 fc 70 3d 46 29 2c 3e 89 37 42 be
       0.056247357 0.058834266 0.1681262 -0.18966497
000060 d4 0c 84 3c d7 ff 0d 3f 2c 71 da 3d 3f c5 5d be
       0.016119398 0.55468506 0.10666117 -0.21657275
000070 56 04 61 be 83 3f e7 ba 78 6e 08 bd 06 17 fc be
       -0.2197431 -0.0017642829 -0.033308476 -0.49236315
000080 4b a6 a5 bc 5e 81 53 be 7e 0c 0f 3d 63 9c 22 be
       -0.020220896 -0.20654818 0.034924023 -0.1587997
000090 ad c4 8b be 5d 00 c6 be f9 e8 60 bd e2 74 08 3e
       -0.2729849 -0.38672152 -0.05490968 0.13325837
0000a0 69 60 07 3e f9 06 2d 3e fa 1b 81 3d 74 89 11 3d
       0.13220371 0.16897191 0.06304164 0.035531476
0000b0 59 9e 78 3d 24 15 79 be b2 3a c0 be 50 4c 08 bf
       0.060697887 -0.24324471 -0.3754478 -0.53241444
0000c0 46 36 04 bc ab 2c ff bd 55 30 86 be d9 02 2a 3e
       -0.00806958 -0.124596916 -0.2620875 0.16602649
0000d0 e7 4e 56 3e 16 22 32 3e 23 c5 64 3b ca 20 5e be
       0.20928536 0.17395815 0.0034907542 -0.21692196
0000e0 01 b5 3a be 65 c2 ae be 9f 7d ac bd 06 9b 16 bd
       -0.1823311 -0.34132686 -0.08422398 -0.036768936
0000f0 d7 ec cd bd 07 bf c8 bd 0f 33 65 be 81 1a 6b bd
       -0.10054939 -0.098020606 -0.22382759 -0.057398323
000100 93 50 ce be 7a f3 2b be 77 f6 14 3d 29 38 91 3d
       -0.40295848 -0.16792098 0.03636786 0.0709079
000110 55 e3 f6 3e e1 ab a5 be a5 39 ba 3c 7f a8 c8 bc
       0.48220316 -0.32357696 0.022732565 -0.024494408
000120 f0 de 42 3e e5 ab b9 3d 4e fd b1 3c 4d 28 4f be
       0.19030356 0.090659894 0.02172723 -0.20230217
000130 31 7f e3 3d 57 a6 66 3e 5e 2b bc 3d 4a dd 92 bd
       0.11108244 0.22524391 0.09187959 -0.07171114
000140 83 6f 01 bf 25 a7 7e 3e f9 5c 9b bc 49 e6 0e bd
       -0.5056078 0.24868448 -0.018965231 -0.034887586
000150 f6 5d a8 3e 9d 44 48 be ae d7 d3 3d ab 0d 48 bd
       0.32884187 -0.19557424 0.10343872 -0.04884116
000160 29 95 01 3d 99 96 4d 3e 33 48 94 be 80 c7 ce bd
       0.03163639 0.2007698 -0.28961334 -0.10096645
000170 ce 93 b6 be 2e 6e 09 3e c4 e6 a3 3e 00 8a 29 3e
       -0.3565964 0.13420936 0.32011998 0.16556549
000180 20 f2 1d bd 60 f3 9d 3d d0 7f a1 be 4e 9e b9 bd
       -0.038560987 0.07712436 -0.31542826 -0.09063397
000190 b0 49 d1 be df b2 dc 3d d1 36 16 3e 45 6d 8f be
       -0.40876532 0.107763045 0.14669348 -0.28013054
0001a0 7f 9d 4f be 6d 40 29 be e7 1a a6 bc 20 f0 80 3e
       -0.20274924 -0.16528483 -0.0202765 0.251832
0001b0 87 20 1a be 1a f2 cb 3c 39 14 10 be 69 5f a8 3d
       -0.1505147 0.024895716 -0.14070214 0.08221323
0001c0 c1 b6 7a 3e 4d 13 a9 3c bf aa aa 3d d0 50 30 3e
       0.24483778 0.020639086 0.083333485 0.17218328
0001d0 7f cb 94 bd ac 71 7a 3d 43 52 94 be 52 3d 41 3c
       -0.07265376 0.061143562 -0.2896901 0.011794405
0001e0 35 9c fb 3c 7d b1 ec 3c 3d 43 1e bd a6 31 78 bd
       0.030714134 0.028893227 -0.038638342 -0.060594223
0001f0 12 87 19 be 9b 8b 53 be 85 9e ea 3e b6 9d c1 3e
       -0.14992931 -0.20658724 0.45824066 0.37815636
000200 b7 0b 7e 3e 6e 5d a3 be f5 e7 b6 bd 9f 16 a7 3e
       0.24809156 -0.3190722 -0.08930961 0.32634446
000210 47 d2 96 3e 3d 9c c3 3e 12 bb 17 3d 76 2c 60 be
       0.29457304 0.38205138 0.03704364 -0.2189196
000220 42 e6 74 3c 10 7c d7 bc 54 d6 d4 3c 85 1d a2 bd
       0.014947476 -0.026304275 0.025981106 -0.07915787
000230 16 1a 22 be d1 b3 a7 be c0 ba 93 3e 24 a3 e0 be
       -0.15830263 -0.32754377 0.28853416 -0.43874466
000240 c6 7b 80 3d ce f7 92 3e 2e eb 08 3e cf c0 2d 3e
       0.06273608 0.28704685 0.13370964 0.16968082
000250 24 14 24 be 7e e2 87 3e 26 d4 19 3e 96 cb d2 3d
       -0.16023308 0.26539987 0.15022334 0.10292737
000260 33 7b 94 be e3 bd 88 bd 6c 70 f1 3d 8c 01 84 bc
       -0.29000244 -0.06676843 0.11789021 -0.016114019
000270 69 44 7f 3e 78 68 03 3e 2a a0 da 3c 9e 99 6f be
       0.2492844 0.1283282 0.0266877 -0.23398444
000280 e1 8c 93 be fc d0 b5 bd 93 bc 1a be cf 1d ac 3d
       -0.2881842 -0.08877751 -0.15110998 0.08404123
000290 0a a1 19 be f8 b3 0f 3e 67 44 03 be 4d 8b 8e 3e
       -0.15002838 0.14033496 -0.12819062 0.27840653
0002a0 b0 ab 73 be 77 56 88 be 39 47 08 be d0 c8 37 3d
       -0.23795962 -0.26628467 -0.1330842 0.044869244
0002b0 06 d8 8a 3e bf 67 07 3d ac eb 6a be 68 4e f8 bd
       0.27117938 0.033057924 -0.22941464 -0.1212433
0002c0 3f ed a0 3c 47 80 ad 3d 6c c1 49 3e 74 35 7c bd
       0.019644378 0.084717326 0.19702691 -0.061574414
0002d0 be 98 8e be 70 13 b8 bd f1 62 15 bf 5f 73 5a 3c
       -0.27850908 -0.089880824 -0.583541 0.013333171
0002e0 7e 77 1d bd 90 1f 12 3e 3c 4d 07 bd dc 61 db bd
       -0.038444035 0.14269853 -0.03303264 -0.107120246
0002f0 07 37 bd be 63 c3 ca 3d 40 3c c4 3b 37 65 a1 be
       -0.36956045 0.09900548 0.0059886277 -0.31522533
000300 18 92 61 be 23 20 ba 3c aa fe 20 3e ba 21 d9 3d
       -0.22028387 0.022720402 0.15722147 0.10602136
000310 bc e7 95 3d 9b ee c6 3c 8a ea 5d be 68 7e 62 3e
       0.073195904 0.024283698 -0.21671501 0.22118533
000320 79 37 16 bd 36 d9 c0 bd 27 2f ca 3e 0d ad 59 3e
       -0.036673997 -0.0941643 0.394891 0.2125742
000330 d5 b6 f1 be 24 00 6b bd 49 f9 10 3d e5 19 4f 3e
       -0.47209802 -0.05737318 0.035393987 0.20224722
000340 3f b2 1d 3e f0 09 e0 3d 47 5a db 3e 22 82 5e be
       0.15400027 0.109393954 0.42842314 -0.21729329
000350 a7 db 03 be 63 e6 89 be 2f 69 5b be 9d d8 72 be
       -0.1287676 -0.26933584 -0.21426843 -0.23715444
000360 25 20 47 3d 1c c3 7c 3e 46 33 16 3e 84 d0 7f bd
       0.04861464 0.24683803 0.14667997 -0.062454715
000370 c0 f6 66 3e 84 b0 68 3e ce b8 9f 3d 4c b6 ff be
       0.22555065 0.22723585 0.077989206 -0.4994377
000380 75 70 52 be 17 45 9f 3d d5 02 87 be 03 14 0a 3d
       -0.20550711 0.0777685 -0.26369348 0.03371049
000390 fd 3b ba 3d fd 44 34 3e c5 32 71 3d 18 07 11 be
       0.09093473 0.17604442 0.05888631 -0.14162862
0003a0 a5 a6 8e 3b b5 d7 c6 bd 14 a7 95 3e 9f 9c 0a be
       0.0043533617 -0.097091116 0.29229033 -0.13536309
0003b0 57 5f b7 be f4 7c d0 3e 8c 6a ab 3d b4 a6 d2 3d
       -0.35814926 0.40720332 0.083699316 0.10285702
0003c0 9d f5 15 be c3 ff 73 3e eb a5 12 be 77 cf 31 3d
       -0.14644475 0.23828034 -0.14321105 0.043410745
0003d0 d9 01 96 bc 3c 03 8e 3d 50 93 f8 3b 53 7e 04 3f
       -0.018311428 0.06934211 0.0075859204 0.51755255
0003e0 58 bf a4 be 20 f4 11 be ac da f6 bd d5 31 8c 3e
       -0.32177234 -0.14253283 -0.12053427 0.2738177
0003f0 f5 7b c5 bd 18 9f cd bb a6 b8 7a 3d 67 34 17 3c
       -0.096427836 -0.006275069 0.06121125 0.009228802

base.mlp.fc_h.0.bias f4 [64]
000000 00 00 00 00 00 00 00 00 00 00 00 00 00 00 00 00
       0.0 0.0 0.0 0.0
000010 00 00 00 00 00 00 00 00 00 00 00 00 00 00 00 00
       0.0 0.0 0.0 0.0
000020 00 00 00 00 00 00 00 00 00 00 00 00 00 00 00 00
       0.0 0.0 0.0 0.0
000030 00 00 00 00 00 00 00 00 00 00 00 00 00 00 00 00
       0.0 0.0 0.0 0.0
000040 00 00 00 00 00 00 00 00 00 00 00 00 00 00 00 00
       0.0 0.0 0.0 0.0
000050 00 00 00 00 00 00 00 00 00 00 00 00 00 00 00 00
       0.0 0.0 0.0 0.0
000060 00 00 00 00 00 00 00 00 00 00 00 00 00 00 00 00
       0.0 0.0 0.0 0.0
000070 00 00 00 00 00 00 00 00 00 00 00 00 00 00 00 00
       0.0 0.0 0.0 0.0
000080 00 00 00 00 00 00 00 00 00 00 00 00 00 00 00 00
       0.0 0.0 0.0 0.0
000090 00 00 00 00 00 00 00 00 00 00 00 00 00 00 00 00
       0.0 0.0 0.0 0.0
0000a0 00 00 00 00 00 00 00 00 00 00 00 00 00 00 00 00
       0.0 0.0 0.0 0.0
0000b0 00 00 00 00 00 00 00 00 00 00 00 00 00 00 00 00
       0.0 0.0 0.0 0.0
0000c0 00 00 00 00 00 00 00 00 00 00 00 00 00 00 00 00
       0.0 0.0 0.0 0.0
0000d0 00 00 00 00 00 00 00 00 00 00 00 00 00 00 00 00
       0.0 0.0 0.0 0.0
0000e0 00 00 00 00 00 00 00 00 00 00 00 00 00 00 00 00
       0.0 0.0 0.0 0.0
0000f0 00 00 00 00 00 00 00 00 00 00 00 00 00 00 00 00
       0.0 0.0 0.0 0.0

base.mlp.fc_h.2.weight f4 [64]
000000 00 00 80 3f 00 00 80 3f 00 00 80 3f 00 00 80 3f
       1.0 1.0 1.0 1.0
000010 00 00 80 3f 00 00 80 3f 00 00 80 3f 00 00 80 3f
       1.0 1.0 1.0 1.0
000020 00 00 80 3f 00 00 80 3f 00 00 80 3f 00 00 80 3f
       1.0 1.0 1.0 1.0
000030 00 00 80 3f 00 00 80 3f 00 00 80 3f 00 00 80 3f
       1.0 1.0 1.0 1.0
000040 00 00 80 3f 00 00 80 3f 00 00 80 3f 00 00 80 3f
       1.0 1.0 1.0 1.0
000050 00 00 80 3f 00 00 80 3f 00 00 80 3f 00 00 80 3f
       1.0 1.0 1.0 1.0
000060 00 00 80 3f 00 00 80 3f 00 00 80 3f 00 00 80 3f
       1.0 1.0 1.0 1.0
000070 00 00 80 3f 00 00 80 3f 00 00 80 3f 00 00 80 3f
       1.0 1.0 1.0 1.0
000080 00 00 80 3f 00 00 80 3f 00 00 80 3f 00 00 80 3f
       1.0 1.0 1.0 1.0
000090 00 00 80 3f 00 00 80 3f 00 00 80 3f 00 00 80 3f
       1.0 1.0 1.0 1.0
0000a0 00 00 80 3f 00 00 80 3f 00 00 80 3f 00 00 80 3f
       1.0 1.0 1.0 1.0
0000b0 00 00 80 3f 00 00 80 3f 00 00 80 3f 00 00 80 3f
       1.0 1.0 1.0 1.0
0000c0 00 00 80 3f 00 00 80 3f 00 00 80 3f 00 00 80 3f
       1.0 1.0 1.0 1.0
0000d0 00 00 80 3f 00 00 80 3f 00 00 80 3f 00 00 80 3f
       1.0 1.0 1.0 1.0
0000e0 00 00 80 3f 00 00 80 3f 00 00 80 3f 00 00 80 3f
       1.0 1.0 1.0 1.0
0000f0 00 00 80 3f 00 00 80 3f 00 00 80 3f 00 00 80 3f
       1.0 1.0 1.0 1.0

base.mlp.fc_h.2.bias f4 [64]
000000 00 00 00 00 00 00 00 00 00 00 00 00 00 00 00 00
       0.0 0.0 0.0 0.0
000010 00 00 00 00 00 00 00 00 00 00 00 00 00 00 00 00
       0.0 0.0 0.0 0.0
000020 00 00 00 00 00 00 00 00 00 00 00 00 00 00 00 00
       0.0 0.0 0.0 0.0
000030 00 00 00 00 00 00 00 00 00 00 00 00 00 00 00 00
       0.0 0.0 0.0 0.0
000040 00 00 00 00 00 00 00 00 00 00 00 00 00 00 00 00
       0.0 0.0 0.0 0.0
000050 00 00 00 00 00 00 00 00 00 00 00 00 00 00 00 00
       0.0 0.0 0.0 0.0
000060 00 00 00 00 00 00 00 00 00 00 00 00 00 00 00 00
       0.0 0.0 0.0 0.0
000070 00 00 00 00 00 00 00 00 00 00 00 00 00 00 00 00
       0.0 0.0 0.0 0.0
000080 00 00 00 00 00 00 00 00 00 00 00 00 00 00 00 00
       0.0 0.0 0.0 0.0
000090 00 00 00 00 00 00 00 00 00 00 00 00 00 00 00 00
       0.0 0.0 0.0 0.0
0000a0 00 00 00 00 00 00 00 00 00 00 00 00 00 00 00 00
       0.0 0.0 0.0 0.0
0000b0 00 00 00 00 00 00 00 00 00 00 00 00 00 00 00 00
       0.0 0.0 0.0 0.0
0000c0 00 00 00 00 00 00 00 00 00 00 00 00 00 00 00 00
       0.0 0.0 0.0 0.0
0000d0 00 00 00 00 00 00 00 00 00 00 00 00 00 00 00 00
       0.0 0.0 0.0 0.0
0000e0 00 00 00 00 00 00 00 00 00 00 00 00 00 00 00 00
       0.0 0.0 0.0 0.0
0000f0 00 00 00 00 00 00 00 00 00 00 00 00 00 00 00 00
       0.0 0.0 0.0 0.0

base.mlp.fc2.0.0.weight f4 [64, 64]
000000 07 63 49 be cc c1 91 be 49 84 9a be 2a 27 58 3e
       -0.19666682 -0.28468168 -0.3017905 0.2110869
000010 4a c5 ca be 62 a9 83 3d 40 e8 a0 3e 60 8e 23 be
       -0.39603645 0.064287916 0.31427193 -0.1597228
000020 6b 8c ab 3d 98 aa a7 bd 28 7d 02 bd 3c f5 1a bc
       0.08376392 -0.08186835 -0.03185764 -0.0094578825
000030 d9 c7 dd bc e3 be f0 3d 9d 9c 13 3e 68 15 a9 3e
       -0.027072834 0.11755159 0.14415212 0.33024144
000040 37 90 cc bd f3 b4 91 3d 4b 42 cb 3d 86 a2 c3 bc
       -0.09988444 0.071145914 0.09924754 -0.023881208
000050 07 b7 69 3d 95 91 81 3d dd c2 2d 3e c4 65 41 be
       0.057059314 0.06326596 0.16968866 -0.18886477
000060 66 a0 5c 3c b0 38 0e 3f 81 75 d4 3d 2d f7 5c be
       0.013465976 0.5555525 0.103739746 -0.21578665
000070 57 1d 63 be 85 c0 45 bb 77 50 f3 bc 7b 78 fc be
       -0.22179161 -0.0030174565 -0.029701455 -0.4931067
000080 06 ec b7 bc 16 63 54 be 8c 8e 0a 3d e9 be 23 be
       -0.022451412 -0.20740923 0.03382735 -0.15990795
000090 fa 6a 8a be 5f c6 c6 be 7d 31 55 bd 49 36 09 3e
       -0.27034742 -0.3882322 -0.05204915 0.13399614
0000a0 9d 48 08 3e e0 54 29 3e 34 c0 7d 3d 4d 31 1d 3d
       0.1330895 0.16536283 0.061950877 0.038377095
0000b0 36 f9 76 3d f6 7e 7b be 90 54 bf be ba 93 08 bf
       0.06029626 -0.2456015 -0.37369204 -0.5335041
0000c0 cf c2 b3 bb 39 f6 f8 bd c7 e7 85 be 4e dc 28 3e
       -0.0054858695 -0.12156338 -0.26153395 0.1649029
0000d0 38 1e 57 3e a6 fb 30 3e 85 94 35 3b 11 59 5b be
       0.21007621 0.17283496 0.0027706933 -0.21420695
0000e0 03 65 34 be 16 4f ae be 07 bd ab bd ee b9 13 bd
       -0.17616658 -0.34044713 -0.083856635 -0.03606599
0000f0 91 24 cd bd b5 ab cc bd b8 9d 65 be 85 08 67 bd
       -0.1001674 -0.09993688 -0.22423446 -0.05640461
000100 53 01 d0 be 36 53 2f be 32 53 23 3d 4c 61 97 3d
       -0.4062601 -0.17121586 0.039874263 0.07391605
000110 a7 21 f5 3e 95 5d a7 be 9e 98 be 3c 73 7a aa bc
       0.47877237 -0.32688585 0.023266133 -0.020810341
000120 00 82 46 3e ba 82 c1 3d b7 32 94 3c 33 dd 4b be
       0.19385529 0.09448762 0.018090589 -0.199086
000130 84 82 dc 3d 26 1f 6a 3e e8 2d b5 3d 3a 20 9a bd
       0.107670814 0.22863445 0.088466465 -0.07525678
000140 11 79 02 bf 55 28 81 3e 71 9e b7 bc 90 21 00 bd
       -0.5096598 0.25226083 -0.022414418 -0.031282008
000150 49 27 aa 3e df 12 4c be 78 1d db 3d 8a c3 39 bd
       0.33233097 -0.19929074 0.1069898 -0.045352496
000160 ad 2c 0b 3d ca db 4b 3e 4d dc 92 be 4b a3 c7 bd
       0.033978153 0.19908062 -0.286837 -0.097479425
000170 65 de b4 be c3 e3 05 3e 1a 30 a2 3e fc 01 26 3e
       -0.35325924 0.13075165 0.31677324 0.16211694
000180 4f 05 10 bd 01 be 96 3d 7d 41 a3 be 1a a5 c0 bd
       -0.035161313 0.07360459 -0.318859 -0.094064906
000190 28 e3 d2 be 1c 5b d5 3d 77 64 18 3e 7e a2 8d be
       -0.4118893 0.10417768 0.14882074 -0.27663034
0001a0 2c 17 4c be 81 a6 25 be 5c 31 c2 bc 4e ac 7e 3e
       -0.19930714 -0.16176797 -0.023705177 0.24870417
0001b0 48 45 19 be 3f 54 c7 3c e0 17 13 be ab 59 a1 3d
       -0.14967835 0.024332164 -0.14364576 0.07878431
0001c0 6c 89 77 3e 19 e7 8d 3c db 4f b2 3d 93 ce 2c 3e
       0.24173516 0.01732211 0.087066375 0.16875677
0001d0 16 a6 8d bd 94 65 6c 3d 8f 16 96 be bc 4f 02 3c
       -0.06916444 0.05771406 -0.29314086 0.0079535805
0001e0 cc 43 06 3d 84 9c 04 3d 93 24 10 bd 4b e5 69 bd
       0.0327795 0.032375827 -0.03519113 -0.057103436
0001f0 ad 27 16 be 09 f8 51 be 37 5a ec 3e 23 69 c3 3e
       -0.14663573 -0.20504774 0.46162578 0.3816615
000200 17 78 80 3e b2 3c a4 be 4f 6e bb bd 3e 44 a8 3e
       0.2509162 -0.32077557 -0.09151899 0.32864565
000210 a2 71 98 3e da 65 c5 3e 2a 55 25 3d 5c e5 62 be
       0.29774195 0.3855427 0.040364422 -0.22157806
000220 ba 14 41 3c b4 59 ef bc ed 0a ef 3c 05 09 a9 bd
       0.011784727 -0.029217578 0.029180015 -0.082536735
000230 b9 c7 1e be 71 6f a7 be 41 5f 95 3e 25 f3 de be
       -0.15505876 -0.3270221 0.29174235 -0.4354488
000240 cd 5b 74 3d 57 75 91 3e a0 25 0c 3e 90 46 2b 3e
       0.05965786 0.28409836 0.13686228 0.16726136
000250 da 1b 27 be 1b 28 86 3e 07 af 16 3e 23 be cc 3d
       -0.16319218 0.26202473 0.14715205 0.09997203
000260 6d a6 92 be 7d dd 86 bd 4a b6 f8 3d 61 04 9c bc
       -0.28642598 -0.06585214 0.12144144 -0.019045057
000270 85 55 81 3e 3f bc 06 3e f8 fe c2 3c 60 c9 6c be
       0.2526056 0.13157748 0.02380322 -0.23123693
000280 d1 5e 93 be e1 9d af bd 14 76 17 be ab ac b2 3d
       -0.28783277 -0.08575035 -0.14791137 0.0872434
000290 4d 2d 1c be 78 cb 12 3e 58 84 07 be b5 0c 8d 3e
       -0.15251656 0.1433543 -0.13234079 0.27548757
0002a0 5a c1 76 be 80 af 86 be da 02 05 be 95 06 2a 3d
       -0.24097195 -0.2630577 -0.12989369 0.041510183
0002b0 5b f1 8b 3e 61 11 16 3d 90 52 6d be 5b c5 f1 bd
       0.27332577 0.036637668 -0.23176026 -0.11805221
0002c0 00 91 86 3c bb a4 a8 3d e0 c9 46 3e 73 0b 6f bd
       0.016426563 0.08234545 0.19412947 -0.05836053
0002d0 c2 1b 90 be 1f 84 b1 bd 89 a8 14 bf 7a 5f 4a 3c
       -0.28146178 -0.08667778 -0.58069664 0.012351865
0002e0 37 a4 32 bd 01 0d 0f 3e 3a 33 12 bd f1 46 e1 bd
       -0.04361364 0.13969804 -0.035693385 -0.10999859
0002f0 65 80 be be 92 cb d0 3d 08 bb 89 3b e3 f7 a2 be
       -0.37207332 0.10195078 0.004203204 -0.31829748
000300 c1 7d 63 be 56 54 ac 3c 96 fe 22 3e 81 cb dc 3d
       -0.2221594 0.021036308 0.1591743 0.10781003
000310 aa 63 92 3d fb 4d bd 3c 96 83 5c be 50 ac 62 3e
       0.07147916 0.023108473 -0.21534571 0.22136045
000320 42 32 10 bd 60 7f bd bd 83 f1 c8 3e 33 3b 5b 3e
       -0.03520418 -0.092528105 0.3924676 0.21409301
000330 71 96 f2 be 77 d9 63 bd d3 dd 09 3d 37 c4 4d 3e
       -0.47380403 -0.055627313 0.033658814 0.20094381
000340 57 28 1e 3e 27 5d e6 3d 80 6c da 3e 54 df 5c be
       0.15445076 0.11248236 0.42660904 -0.21569568
000350 6a 06 02 be 3b bd 8a be 8d ee 59 be 11 06 71 be
       -0.1269776 -0.27097496 -0.21282406 -0.2353747
000360 62 7d 4f 3d a2 69 7c 3e 15 fa 15 3e f0 6c 78 bd
       0.050656684 0.2464967 0.1464618 -0.060650766
000370 cf d1 65 3e db dc 66 3e 0f 2b 9c 3d 0d 50 00 bf
       0.22443317 0.22545187 0.076254 -0.5012215
000380 b8 a7 50 be 93 74 9b 3d 93 e4 87 be b8 0b 03 3d
       -0.2037648 0.07590594 -0.26541576 0.031993598
000390 63 56 b7 3d 21 45 32 3e d6 89 77 3d 8b 30 0f be
       0.08952024 0.17409183 0.060434185 -0.13983361
0003a0 bb 1b c5 3b e5 ca c2 bd 01 c5 94 3e ba 6e 0d be
       0.0060152686 -0.09511355 0.29056552 -0.1381177
0003b0 db 4a b8 be 69 fa d0 3e 2e 21 a8 3d a4 1e cf 3d
       -0.3599461 0.40816048 0.082094535 0.10113266
0003c0 d4 33 1a be 80 14 72 3e ee 73 10 be 60 bb 2a 3d
       -0.15058833 0.23640633 -0.14106724 0.0416826
0003d0 4c 66 87 bc e3 86 8a 3d 9c 10 bc 3b 00 0f 04 3f
       -0.016528271 0.06764009 0.0057392847 0.5158539
0003e0 38 db a3 be 9a 2c 10 be 70 f1 f2 bd 4f 1a 8d 3e
       -0.32003188 -0.14079514 -0.11862457 0.27559134
0003f0 d6 ac c1 bd 49 14 02 bc d5 f5 80 3d 7f d1 32 3c
       -0.09456794 -0.007939407 0.06296889 0.010914206

base.mlp.fc2.0.0.bias f4 [64]
000000 3b 9b 7e ba d4 21 63 bb 25 da 49 3b 30 96 e0 ba
       -0.0009712462 -0.0034657614 0.003080019 -0.0017134603
000010 1b ca 64 3a cf ca 82 3b 75 75 65 3b 47 bd e3 3a
       0.0008727626 0.003991462 0.0035012637 0.0017375135
000020 37 39 1b bb 6c a2 6f ba 6f 98 22 bb 65 16 36 bb
       -0.0023685226 -0.0009141329 -0.0024810096 -0.0027784344
000030 cc 5c 5b 3b c6 7c d4 3a 94 5f b0 ba c4 41 cf ba
       0.003347206 0.0016211502 -0.0013456219 -0.0015812446
000040 1a 4a 02 bb ff f2 25 3a b8 ee 21 3b 1c 84 62 3b
       -0.0019880594 0.000633046 0.0024708938 0.0034563607
000050 4e a5 1a 3b 08 01 5c 3b 20 56 bb ba 8d 31 fd 3a
       0.0023597064 0.003356995 -0.0014292635 0.0019317135
000060 40 80 af ba 14 03 0b 3b 97 b2 61 3b 1b e3 80 3b
       -0.0013389662 0.0021211552 0.0034438723 0.003933323
000070 fc 5f 9c 3a 3e fa b4 ba e5 c2 5c 3b 84 4f 2c 3b
       0.0011930461 -0.0013807488 0.0033685502 0.0026292512
000080 62 85 55 bb 0c b0 05 bb b7 d4 30 3b 92 99 17 bb
       -0.0032580723 -0.0020399122 0.0026982257 -0.0023132307
000090 e0 82 21 bb ff e3 e6 3a 24 53 15 3b 4a be cf 3a
       -0.0024644658 0.0017615556 0.0022785151 0.0015849557
0000a0 88 83 22 3b 57 55 ba ba f5 c7 bd 3a 64 49 a5 3a
       0.0024797637 -0.0014216107 0.0014479148 0.0012610373
0000b0 0e e0 5b 3a f0 ab 68 bb 4e 65 89 38 99 e3 c1 3a
       0.0008387574 -0.0035502873 6.5515385e-05 0.0014792561
0000c0 f8 88 de ba 8b 8c 17 3a 73 67 f4 ba 98 69 99 3a
       -0.0016978076 0.00057811354 -0.0018646553 0.0011704443
0000d0 80 fb 5b 3b 8b b7 a2 ba 44 4a 2f 3b a9 19 08 ba
       0.0033566654 -0.0012414319 0.0026747147 -0.0005191812
0000e0 30 70 22 3b 8c d4 24 bb c2 d4 5a ba d2 c9 0a 3b
       0.0024786107 -0.0025151102 -0.00083477434 0.0021177423
0000f0 e2 f4 19 3b 91 2f 4e bb 85 69 22 3b 38 3b 6f bb
       0.0023491909 -0.0031461457 0.0024782133 -0.0036503803

base.mlp.fc2.0.2.weight f4 [64]
000000 f5 67 7f 3f 86 2e 80 3f da 7d 7f 3f b5 95 7f 3f
       0.99768 1.0014198 0.9980141 0.9983781
000010 ce 59 7f 3f 2c 8b 7f 3f bb 3b 7f 3f 15 36 80 3f
       0.99746406 0.99821734 0.99700516 1.0016505
000020 d2 58 80 3f 10 5a 80 3f 98 ec 7f 3f fe 31 80 3f
       1.0027106 1.0027485 0.9997039 1.0015256
000030 d4 5a 7f 3f a7 48 80 3f 0b 42 80 3f 46 38 80 3f
       0.9974797 1.0022172 1.0020155 1.0017173
000040 d3 49 7f 3f 99 6e 80 3f c6 33 80 3f 4d 2b 80 3f
       0.9972202 1.0033752 1.00158 1.0013214
000050 12 2f 80 3f 4f 56 80 3f 73 26 80 3f 6a b0 7f 3f
       1.0014365 1.0026339 1.0011734 0.9987856
000060 a0 7e 7f 3f 94 16 80 3f f0 f6 7e 3f f5 5a 7f 3f
       0.9980259 1.000689 0.99595547 0.99748164
000070 da 76 7f 3f 22 1a 80 3f ca 90 7f 3f e3 24 80 3f
       0.9979073 1.0007975 0.99830306 1.0011257
000080 49 19 7f 3f 53 8f 80 3f 90 33 80 3f 9c 6c 7f 3f
       0.9964796 1.0043739 1.0015736 0.997751
000090 08 5a 80 3f db c9 7e 3f 1e 5a 80 3f 50 4b 80 3f
       1.0027475 0.99526757 1.0027502 1.0022984
0000a0 f0 33 7f 3f 38 5a 80 3f 32 50 80 3f b6 80 7f 3f
       0.99688625 1.0027533 1.0024474 0.9980577
0000b0 fe 65 80 3f c9 5f 7f 3f c6 7f 7f 3f e3 61 7f 3f
       1.0031126 0.9975553 0.9980434 0.9975874
0000c0 68 d2 7e 3f 2c 3f 80 3f 46 3d 80 3f 86 53 80 3f
       0.99539804 1.0019279 1.0018699 1.0025489
0000d0 fa 77 7f 3f dd 93 7f 3f 21 6f 7f 3f 87 09 80 3f
       0.99792445 0.99834996 0.99778944 1.0002908
0000e0 9e 44 7f 3f bb 76 7f 3f 4d 54 7f 3f dc 69 7f 3f
       0.99714077 0.99790543 0.9973801 0.99770904
0000f0 89 34 80 3f ef 5a 80 3f e2 87 7f 3f 5a 3e 80 3f
       1.0016032 1.0027751 0.99816716 1.0019028

base.mlp.fc2.0.2.bias f4 [64]
000000 87 51 fc 3a 9f 59 f9 ba 90 02 fe ba 1d 01 ff ba
       0.0019250371 -0.0019023902 -0.0019379426 -0.0019455288
000010 81 b2 fc 3a ed bf fc ba 8c 53 fc ba e4 29 fa 3a
       0.0019279273 -0.0019283273 -0.0019250973 0.0019085971
000020 78 32 fa ba 6b 3a fb 3a 50 27 fd ba 64 61 fa ba
       -0.0019088527 0.001916719 -0.0019314084 -0.0019102511
000030 c5 25 01 bb 41 4c f5 3a b4 3c fa ba 30 dc f9 3a
       -0.001970635 0.0018714742 -0.0019091577 0.0019062813
000040 40 ec fc ba ef 2f f9 3a f8 9e f9 3a 3e f2 f7 3a
       -0.0019296482 0.0019011478 0.0019044569 0.0018916798
000050 d9 60 e0 3a 0f 5f fa 3a d8 96 f7 3a 27 7b fc 3a
       0.0017118707 0.0019101816 0.001888956 0.0019262776
000060 c6 9d 04 3b 7b 78 fa 3a fa b4 fc ba 67 99 fd ba
       0.0020235642 0.0019109392 -0.001928001 -0.0019348086
000070 1a 57 ff ba 04 d1 fb ba d3 60 fe ba 4c e0 f8 3a
       -0.0019480914 -0.0019212072 -0.0019407518 0.0018987744
000080 6d 9e fc ba 59 f0 f6 ba 5d 73 f9 3a 0e 25 fc ba
       -0.0019273289 -0.001883994 0.0019031573 -0.0019237117
000090 80 50 fa 3a f6 76 fc 3a bb 5b fa 3a 1c 78 f9 ba
       0.0019097477 0.0019261527 0.0019100824 -0.0019032988
0000a0 fc 7b 00 3b b3 bf fa ba db 33 f7 ba 24 84 fc 3a
       0.001960515 -0.0019130617 -0.0018860059 0.0019265455
0000b0 6b d8 f8 ba 3b 6b fe 3a a8 98 fe 3a f4 86 fc 3a
       -0.0018985396 0.0019410619 0.0019424157 0.0019266293
0000c0 d3 19 fc ba d7 ca f9 ba 34 3f fb ba e3 2f fb ba
       -0.001923377 -0.0019057643 -0.0019168616 -0.0019164052
0000d0 b4 6f 1d bb 7f d6 fc ba f8 cd fc ba c9 f3 fa 3a
       -0.002402288 -0.0019289999 -0.0019287458 0.001914614
0000e0 d5 0c fd 3a 2b fd fd 3a 27 cc fc ba 72 3a fc 3a
       0.0019306192 0.0019377818 -0.0019286916 0.0019243492
0000f0 64 e1 fa 3a ae da f6 3a 74 fb fc ba 8e 92 fa ba
       0.0019140658 0.0018833482 -0.0019301013 -0.0019117163

v_out.weight f4 [1, 64]
000000 f8 d3 85 3e ca a7 92 bd 2a c6 5d bd be 04 1a bd
       0.26138282 -0.071609095 -0.054144062 -0.03760218
000010 f9 79 37 3e 33 f5 1e be 06 c1 9f be 01 97 da 3d
       0.17917623 -0.15523224 -0.31201953 0.10673333
000020 38 c7 af bd ad 45 45 3e a4 f3 0a bd 06 82 f8 bd
       -0.0858292 0.1926486 -0.03392376 -0.12134175
000030 60 f7 81 bc b6 dc be 3c 95 ea e0 bd 29 3c b9 3d
       -0.015865028 0.023298603 -0.10982243 0.09044678
000040 83 d5 66 bd 40 55 23 3d 5f 4d a6 3d 29 2a 3f 3d
       -0.056355964 0.039876223 0.08120226 0.046671066
000050 68 5c f5 3b 86 90 b8 3d d1 10 19 3d a0 a7 c0 3d
       0.0074878223 0.09011941 0.037369553 0.09406972
000060 50 86 88 3b 58 6d ed 3d a8 76 11 be 2f 3d 93 bd
       0.004166402 0.11593121 -0.1420542 -0.07189404
000070 8f c3 f8 bc ad 6f 70 be 53 13 40 bd 99 ff 83 3d
       -0.030366687 -0.23480101 -0.04689343 0.06445236
000080 2d ea c3 bd 50 44 31 bd f5 04 9a 3d cf ab 55 be
       -0.0956615 -0.04327804 0.07520477 -0.20866321
000090 3c 5e de 3d 3d c9 11 3e 4a 9d cd 3d db 9e 98 bd
       0.108578175 0.14236923 0.10039766 -0.07452174
0000a0 d4 a3 90 3c a2 37 21 be 99 2e 1c bd d5 72 6b 3e
       0.017656244 -0.15743878 -0.038130376 0.22993024
0000b0 bc c7 5d bd 36 ed 3c 3d 9e 1e 37 3d 4a f6 48 3e
       -0.05414556 0.04612466 0.044706933 0.19625202
0000c0 aa a0 77 be 29 ca b5 bd 09 c0 25 be ad 9d 57 be
       -0.24182382 -0.088764496 -0.16186537 -0.21056242
0000d0 62 cf 5a 3a 68 59 f5 bd ed 1c f9 bd 35 c0 05 3e
       0.00083469425 -0.119799435 -0.1216372 0.13061602
0000e0 99 70 cb 3c 6d 0c 6c 3d 7b 13 01 be 2d ed 46 3e
       0.024833964 0.057629038 -0.12605087 0.19426413
0000f0 47 c8 2e 3e 9d 69 01 3d f0 30 f2 bd b4 c8 0b be
       0.17068587 0.03159486 -0.1182574 -0.13650781
