results/MyEnv/MyEnv/mappo/check/run93/models/actor_agent0.pt (torch, 65932 bytes, 17 tensors)

base.feature_norm.weight f4 [91]
0	0x3f7f0ed2	0.9963199
1	0x3f808fa9	1.0043842
2	0x3f816f0f	1.0112017
3	0x3f7e3a03	0.9930727
4	0x3f7d106c	0.9885318
5	0x3f815c39	1.0106269
6	0x3f7f9b3b	0.9984624
7	0x3f7d6aad	0.989909
8	0x3f810fd9	1.0082961
9	0x3f818395	1.0118281
10	0x3f7c5c0a	0.9857794
11	0x3f80996c	1.0046821
12	0x3f8042c3	1.0020374
13	0x3f802b20	1.0013161
14	0x3f80afad	1.0053612
15	0x3f81b5b0	1.0133572
16	0x3f7f11e2	0.9963666
17	0x3f7d9018	0.99047995
18	0x3f807495	1.0035578
19	0x3f80a7c7	1.0051202
20	0x3f804dcf	1.0023745
21	0x3f7eea1e	0.99575984
22	0x3f7e57ad	0.9935253
23	0x3f815629	1.0104419
24	0x3f7fe594	0.99959683
25	0x3f810856	1.0080669
26	0x3f7f2ba5	0.9967597
27	0x3f80b749	1.0055934
28	0x3f7deba2	0.9918767
29	0x3f7fe886	0.9996418
30	0x3f7e9f34	0.99461675
31	0x3f7fe545	0.9995921
32	0x3f7ff327	0.99980396
33	0x3f8028bc	1.0012431
34	0x3f8033aa	1.0015767
35	0x3f7fd819	0.99939114
36	0x3f818432	1.0118468
37	0x3f8195ac	1.0123801
38	0x3f80cd31	1.006262
39	0x3f80133a	1.0005867
40	0x3f8053d5	1.0025584
41	0x3f7e2513	0.9927532
42	0x3f80d86a	1.0066044
43	0x3f7d4520	0.989336
44	0x3f81cbfe	1.0140378
45	0x3f7b7870	0.9823065
46	0x3f7e5418	0.99347067
47	0x3f8136ee	1.0094888
48	0x3f8079db	1.0037187
49	0x3f8037d5	1.0017039
50	0x3f7d6797	0.9898619
51	0x3f806c7e	1.0033109
52	0x3f7e8e63	0.99436015
53	0x3f7b3c71	0.981391
54	0x3f7bb9a6	0.9833015
55	0x3f7fdc04	0.9994509
56	0x3f7ee611	0.99569803
57	0x3f7b9878	0.98279524
58	0x3f8163c5	1.0108572
59	0x3f8116b6	1.0085056
60	0x3f8195ae	1.0123804
61	0x3f80780f	1.0036639
62	0x3f806e63	1.0033687
63	0x3f7f8c3c	0.99823356
64	0x3f7e96d2	0.99448884
65	0x3f8087f8	1.0041494
66	0x3f7e56c4	0.99351144
67	0x3f7d2729	0.9888788
68	0x3f80784a	1.0036709
69	0x3f80371c	1.0016818
70	0x3f7e0ced	0.99238473
71	0x3f7c5ff3	0.98583907
72	0x3f8076a5	1.0036207
73	0x3f7c90cf	0.9865846
74	0x3f8191ed	1.0122658
75	0x3f7d7614	0.990083
76	0x3f7d8c59	0.9904228
77	0x3f7dfe54	0.992162
78	0x3f7e94b4	0.9944565
79	0x3f7ce30d	0.9878395
80	0x3f821d30	1.0165157
81	0x3f80a22e	1.0049493
82	0x3f80621a	1.0029938
83	0x3f801759	1.0007125
84	0x3f7e8fcf	0.99438184
85	0x3f80350d	1.001619
86	0x3f7e321a	0.992952
87	0x3f80801a	1.0039093
88	0x3f806af3	1.0032638
89	0x3f7c679d	0.985956
90	0x3f801a66	1.0008056

base.feature_norm.bias f4 [91]
0	0x3c2f953a	0.010716731
1	0xbb8564c2	-0.004070849
2	0xbc3dd9fc	-0.011587616
3	0x3c2540fa	0.010086292
4	0x3c43fb77	0.011961809
5	0xbc0dce87	-0.008655197
6	0xbbed3d39	-0.0072399643
7	0x3c1fd224	0.009754691
8	0xbc0388cf	-0.008028223
9	0x3c57d7a4	0.013173971
10	0x3c71affa	0.014751429
11	0xbb9325bd	-0.0044905827
12	0xbb2ff62c	-0.002684961
13	0xbacc21f5	-0.0015574085
14	0x3ba673c8	0.00507972
15	0xbc4c9f2c	-0.012489121
16	0x3b846e05	0.0040414357
17	0x3c19715f	0.009365409
18	0xbb7c343c	-0.0038483283
19	0x3c46e1eb	0.012138824
20	0x3b3d86f8	0.002891956
21	0xbb9a026f	-0.004699997
22	0xbbd54a9a	-0.0065091373
23	0x3c297cff	0.010344743
24	0xba39177d	-0.000706069
25	0x3c13db44	0.009024445
26	0xbb6d30a0	-0.0036192313
27	0x3baf725c	0.005354209
28	0xbc16f46b	-0.009213547
29	0xba15b83a	-0.0005711351
30	0xbbbe8916	-0.0058146818
31	0xb8d0bac2	-9.952999e-05
32	0xb5b96a65	-1.3814539e-06
33	0xbb1b8df2	-0.002373573
34	0xbc5ac538	-0.013352685
35	0x3c1a7bc8	0.009428926
36	0xbc3348e3	-0.0109426705
37	0xbc783a80	-0.015150666
38	0xbc7de7e6	-0.015497183
39	0x3b97a47d	0.004627763
40	0x3b40bd30	0.002940964
41	0xbc039740	-0.008031666
42	0x3bdfc83b	0.0068292893
43	0xbc2ff54c	-0.010739636
44	0x3c7393f7	0.014866821
45	0xbc94b310	-0.01815179
46	0xbbcf0608	-0.0063178577
47	0x3c168c0c	0.009188663
48	0x3b815d20	0.003947869
49	0x3ac5f0ca	0.0015101668
50	0xbc29c298	-0.010361336
51	0x3b7b876f	0.0038380285
52	0xbbc19e08	-0.0059087314
53	0xbc9fb481	-0.01949525
54	0xbc8d11f3	-0.017220473
55	0xba1d7ce7	-0.00060076866
56	0xbb8aeafa	-0.004239437
57	0xbc94b8db	-0.018154552
58	0x3c3d13a8	0.011540331
59	0x3c0bfe35	0.008544494
60	0x3c49ca60	0.012316316
61	0x3b7b6edf	0.0038365645
62	0x3b51058b	0.0031894173
63	0xbb00abff	-0.0019633768
64	0xbbb575bc	-0.0055377167
65	0x3b830c2e	0.0039992547
66	0xbbe1f6af	-0.006895862
67	0xbc39bff4	-0.011337269
68	0x3b4bca97	0.0031096095
69	0x3acf8ee3	0.001583543
70	0xbc03b430	-0.0080385655
71	0xbc701278	-0.014652841
72	0x3b6cbf7c	0.0036124876
73	0xbc6b6b8a	-0.014368901
74	0x3c649899	0.013952398
75	0xbc2da009	-0.010597237
76	0xbc220ac1	-0.009890259
77	0xbbf7deee	-0.007564417
78	0xbbb07f1c	-0.0053862464
79	0xbc410910	-0.011781946
80	0x3c9273a6	0.017877411
81	0x3b9ebd70	0.00484436
82	0x3b6a21a1	0.003572561
83	0x3a846fb7	0.0010104094
84	0xbbc74d10	-0.0060821846
85	0x3acf359c	0.0015808824
86	0xbbe0df2a	-0.0068625407
87	0x3b832ee3	0.004003392
88	0x3b59e601	0.0033248665
89	0xbc7cbbf5	-0.015425672
90	0x3a0786a9	0.0005169907

base.mlp.fc1.0.weight f4 [64, 91]
0	0xbe713c1f	-0.2355809
1	0xbe82acce	-0.25522465
2	0x3e00fe21	0.12596942
3	0x3e5d253d	0.21596237
4	0x3c475c79	0.012168043
5	0x3dfe63e3	0.12421396
6	0xbb05e643	-0.0020431436
7	0x3d7860d3	0.060639214
8	0x3d4d3d13	0.050107073
9	0xbeac38f0	-0.3363719
10	0xbe1557af	-0.1458423
11	0x3c831d11	0.01600507
12	0xbe676d0e	-0.22600195
13	0x3d9ba353	0.07599511
14	0xbe19aec5	-0.15008076
15	0x3dac2d7a	0.084071115
16	0x3df45573	0.11930361
17	0x3dad255f	0.084543936
18	0x3e487ae4	0.19578129
19	0x3d478ac3	0.048716318
20	0x3de8f84e	0.11375485
21	0x3e4b4ae5	0.19852789
22	0x3cb753c1	0.022378804
23	0xbeab92e1	-0.33510497
24	0xbd1308d3	-0.035897087
25	0x3b521d36	0.0032060868
26	0x3ebe8d52	0.37217194
27	0xbd77b7fa	-0.060478188
28	0x3ea9cbe5	0.33163372
29	0xbec56d1c	-0.38559806
30	0x3dd9e1d3	0.10638776
31	0x3e2be027	0.16784726
32	0x3cbea244	0.023270734
33	0x3e6e4c78	0.23271358
34	0x3d21f25e	0.03953778
35	0x3def02e6	0.11670475
36	0x3e680762	0.22659066
37	0x3dd13e4e	0.10216962
38	0xbe48801f	-0.19580124
39	0xbe122f6b	-0.14275901
40	0xbdf4dfaf	-0.11956727
41	0xbd8cd3df	-0.06876349
42	0xbdfce5f5	-0.12348548
43	0x3da05391	0.07828439
44	0x3e025144	0.12726313
45	0x3e41a0a3	0.18908934
46	0xbd234e79	-0.03986976
47	0x3cc0a9fd	0.023518557
48	0x3e1a65d7	0.15077911
49	0xbe85e2c5	-0.26149574
50	0x3ea4eb23	0.32210645
51	0x3e5a8360	0.21339178
52	0x3e1bf618	0.15230596
53	0xbe32078e	-0.17385694
54	0x3dc4cc1b	0.096092425
55	0xbdd913e3	-0.10599496
56	0x3e37fb66	0.17966995
57	0x3dc6d66f	0.09708869
58	0x3d88b7fd	0.06675718
59	0xbe669954	-0.22519428
60	0xbe5cf579	-0.21578015
61	0xbd1b0151	-0.037843052
62	0x3e30ecac	0.17277783
63	0x3e061f1b	0.13097803
64	0xbdf50904	-0.1196461
65	0xbebef9db	-0.373
66	0xbed7b17a	-0.4212759
67	0x3e01e7ae	0.12686035
68	0x3e8b5635	0.27214208
69	0x3dd2a9a2	0.10286261
70	0xbd0860cf	-0.03329545
71	0xbd89242a	-0.06696351
72	0x3e69db0c	0.22837466
73	0xbe2a7e88	-0.1664983
74	0xbcb42f33	-0.021995163
75	0xbe7a0a91	-0.24418093
76	0xbdf3badc	-0.11900875
77	0x3e0d849e	0.1382012
78	0xbde9f6ed	-0.114240505
79	0x3df6f84b	0.12059077
80	0x3e1c5375	0.15266211
81	0xbd4d00c3	-0.050049555
82	0x3ba36971	0.004986935
83	0x3e14d74c	0.14535254
84	0x3dba79f6	0.091052935
85	0x3e09b459	0.13447703
86	0x3e8df46e	0.27725548
87	0x3d9d158e	0.07670127
88	0x3e83f7ef	0.25775096
89	0x3b1ceba9	0.0023944175
90	0xbe363493	-0.17793493
91	0x3e86ed5b	0.26352963
92	0xbe1ef805	-0.155243
93	0x3c2fc87d	0.0107289525
94	0xbe68c3c5	-0.2273093
95	0x3d9d3159	0.07675428
96	0x3db9fb4e	0.09081136
97	0x3c44a234	0.012001563
98	0xbd96ae48	-0.0735746
99	0xbeffcfd5	-0.4996325
100	0x3e41dc53	0.18931703
101	0x3c94184f	0.018077997
102	0xbd7f7bfa	-0.062374093
103	0x3e1e8c05	0.154831
104	0xbe47c234	-0.19507676
105	0xbdce0507	-0.10059553
106	0xbc5002df	-0.012695997
107	0xbe5df7ea	-0.21676603
108	0x3e493872	0.19650438
109	0xbd8c708d	-0.06857405
110	0x3ceec0c0	0.029144645
111	0x3df315d9	0.118694015
112	0x3dc63795	0.0967857
113	0xbe26e622	-0.16298726
114	0xbde3d9b9	-0.11125512
115	0xbe13a2bc	-0.14417547
116	0xbed39593	-0.41325054
117	0xbe2c3d59	-0.16820277
118	0xbd88e10d	-0.0668355
119	0x3e8a89aa	0.27058154
120	0xbcb00a8c	-0.021489404
121	0xbd427cf7	-0.047482457
122	0x3c719cae	0.014746828
123	0xbd5af854	-0.05345948
124	0x3e9c4064	0.30517876
125	0xbdf585cb	-0.119884096
126	0xbddd8450	-0.10816252
127	0xbe8533d1	-0.26016095
128	0xbe390839	-0.18069543
129	0xbe2b925a	-0.16755047
130	0xbb54b4d7	-0.0032456422
131	0x3e02bbf1	0.12767006
132	0xbe129bfe	-0.14317319
133	0xbe42c6af	-0.19021104
134	0xbe5579a2	-0.2084718
135	0x3e309ae5	0.17246588
136	0x3e662e3b	0.22478573
137	0xbe29bb5d	-0.1657538
138	0x3e4b2bd1	0.19840933
139	0xbea9f52f	-0.33194873
140	0x3e6aff30	0.22948909
141	0xbe23bbc3	-0.15989594
142	0xbe80e627	-0.25175592
143	0x3e3232d1	0.17402197
144	0xbd01774d	-0.031607915
145	0xbdf3a595	-0.11896817
146	0xbb1cef78	-0.0023946445
147	0x3ddf74f4	0.10910979
148	0x3e2aae08	0.1666795
149	0x3e7e904d	0.24859734
150	0xbe5a91ac	-0.21344632
151	0x3c7e3141	0.015514673
152	0xbd787e18	-0.060667127
153	0x3ea2dc36	0.31808633
154	0xbc5e12f9	-0.013554328
155	0xbde6d410	-0.112709165
156	0xbe853656	-0.26018018
157	0x3bb2318e	0.0054380363
158	0x3ee13c8a	0.439915
159	0xbc481d23	-0.012213978
160	0xbcd841e7	-0.026398612
161	0xbd5c7256	-0.053819977
162	0xbe9fefbf	-0.312376
163	0x3df3cfe8	0.11904889
164	0x3e045239	0.1292199
165	0xbe185430	-0.14875865
166	0x3ce94d9c	0.02847939
167	0x3cec55d7	0.028849525
168	0x3e89f272	0.26942784
169	0x3d5ea23d	0.05435394
170	0xbc97b8ef	-0.0185208
171	0xbea0396b	-0.31293806
172	0xbd222033	-0.03958149
173	0xbd4f3675	-0.050589044
174	0xbdafdd5f	-0.08587145
175	0xbda32893	-0.07966723
176	0xbcb2f9a5	-0.021847555
177	0xbcdb1f9f	-0.026748477
178	0xbe860500	-0.2617569
179	0xbe422ed5	-0.18963178
180	0xbcc9ecfa	-0.024649132
181	0x3d6697db	0.056297164
182	0xbdd88fa5	-0.10574273
183	0xbe3de7fb	-0.18545525
184	0x3e5fd2a4	0.21857697
185	0xbde241b6	-0.110476896
186	0x3cfe9b6e	0.031079974
187	0x3db9b036	0.09066813
188	0xbdba443a	-0.090950444
189	0xbe18d082	-0.1492329
190	0xbd6276ee	-0.0552892
191	0xbe0a2ff6	-0.13494858
192	0xbe27a499	-0.16371383
193	0xbdbf2b1a	-0.09334393
194	0x3e5a277e	0.21304128
195	0xbe1d835d	-0.15382142
196	0x3d03f691	0.032217566
197	0xbe93133f	-0.2872562
198	0x3c37260d	0.011178506
199	0xbb42241e	-0.0029623578
200	0x3db6d043	0.089264415
201	0xbe1ffc79	-0.15623654
202	0xbe553f2f	-0.20824884
203	0xbd5ab75f	-0.053397533
204	0x3ec3d24d	0.38246384
205	0x3e4f333c	0.20234388
206	0x3d6b1444	0.057392374
207	0xbe2b5904	-0.16733176
208	0xbe5b672d	-0.21426077
209	0x3e0bce6b	0.13652961
210	0xbe0b740e	-0.1361849
211	0xbe1923ea	-0.14955106
212	0xbea2a735	-0.31768194
213	0x3e316fe3	0.17327838
214	0xbe7cdbb2	-0.24693182
215	0xbde5c4b6	-0.1121916
216	0xbe4a564f	-0.19759487
217	0xbe2c1121	-0.16803409
218	0x3c031489	0.008000501
219	0x3dd94fd6	0.106109306
220	0xbeb86e21	-0.36021522
221	0x3da9ab04	0.08284572
222	0xbbe27641	-0.0069110696
223	0x3dcd1757	0.10014217
224	0x3d0d7777	0.03453776
225	0xbdfe56fc	-0.12418935
226	0x3d2ff5d6	0.042959057
227	0xbc948225	-0.018128464
228	0x3d362199	0.044465635
229	0x3e6a0fc6	0.2285758
230	0x3e8ce6f7	0.27519962
231	0xbcfabcda	-0.03060763
232	0x3ef3a944	0.47590077
233	0x3dfbfedc	0.1230447
234	0xbecaaf50	-0.39586878
235	0xbe0b6fe0	-0.13616896
236	0x3e1596bc	0.14608282
237	0x3dbef87a	0.09324737
238	0xbdfd35ce	-0.12363778
239	0x3c557d03	0.013030293
240	0x3df6f51c	0.1205847
241	0x3d515c9e	0.051113717
242	0x3e527a54	0.20554477
243	0xbd92ca66	-0.07167511
244	0x3e8e76d1	0.27825025
245	0x3dd6caf6	0.104879305
246	0xbd0ef2eb	-0.034899633
247	0x3e46e82e	0.19424507
248	0xbe493a2b	-0.19651096
249	0xbc2767e2	-0.010217639
250	0xbb793f70	-0.0038032196
251	0x3e67985a	0.22616711
252	0xbe03cb27	-0.12870465
253	0x3d93cac5	0.072164096
254	0xbdd62060	-0.10455394
255	0xbd9cf6f0	-0.07664287

base.mlp.fc1.0.bias f4 [64]
0	0xbbbe7a98	-0.005812954
1	0x3b7fc8e1	0.0039029645
2	0x3b1d5918	0.0024009403
3	0xbb1ac266	-0.0023614406
4	0x3c21924f	0.009861543
5	0x3ab301c4	0.0013657142
6	0xbb9fb779	-0.0048741666
7	0x3c35dd96	0.0111001935
8	0xba9f1616	-0.001213732
9	0x3bc63a90	0.0060494617
10	0x3c053f34	0.008132745
11	0xbc21597a	-0.009847993
12	0x3beb6909	0.007184152
13	0x3c0a5baa	0.008444706
14	0xbc1a4d4c	-0.009417843
15	0xbc62dacb	-0.01384611
16	0xbc5ebacf	-0.013594343
17	0xbc1f7100	-0.009731531
18	0x3a6e80cd	0.00090981723
19	0xbbf43cfd	-0.0074535594
20	0x3c72912b	0.014805119
21	0x3c469d97	0.012122533
22	0x3c6590a7	0.014011539
23	0xbc81ac25	-0.015829155
24	0xbafcc8b2	-0.0019285886
25	0xb9c01dcc	-0.00036643294
26	0xbc44e158	-0.012016617
27	0xbbe5b8aa	-0.007010539
28	0x3b26b936	0.0025439984
29	0x3c35825e	0.011078445
30	0x394608ff	0.00018886103
31	0xbc00461e	-0.007829217
32	0x3c3e60f9	0.0116198
33	0xbbc190d0	-0.0059071556
34	0xb9607c90	-0.00021408708
35	0x3c224390	0.0099038035
36	0xbbe23c00	-0.006904125
37	0x3b447f51	0.0029983113
38	0x3bd203ee	0.00640916
39	0x3b569c4d	0.003274697
40	0x3c2593af	0.010106011
41	0xbaf9fac8	-0.0019071931
42	0xbc165b26	-0.009177005
43	0x3a038483	0.0005016999
44	0xbbee686d	-0.007275632
45	0x3c579744	0.013158623
46	0x3c5ca9ac	0.013468187
47	0x3b8478c4	0.0040427167
48	0x3c68c09b	0.014206077
49	0x3b4d5bae	0.0031335163
50	0x3c2dfe43	0.010619703
51	0xbc14e336	-0.009087374
52	0xbc2784ab	-0.010224502
53	0xbae8c720	-0.0017759539
54	0x3b35e30c	0.0027753739
55	0x3a8c298d	0.0010693535
56	0x3c89ecae	0.01683649
57	0xbc3d5f34	-0.011558343
58	0x3c11fad0	0.008909896
59	0xbc0082e3	-0.007843706
60	0x3c084d06	0.008319145
61	0xbc059e42	-0.008155407
62	0x3a25bf6c	0.00063227746
63	0x3c6f48a3	0.01460472

base.mlp.fc1.2.weight f4 [64]
0	0x3f80ed94	1.0072503
1	0x3f813513	1.0094322
2	0x3f80741a	1.0035431
3	0x3f819397	1.0123166
4	0x3f7d5b8b	0.9896781
5	0x3f7e1819	0.9925552
6	0x3f7e83b7	0.9941973
7	0x3f7f9f0c	0.9985206
8	0x3f800772	1.0002272
9	0x3f80f2fe	1.0074155
10	0x3f7e51b5	0.99343425
11	0x3f81b76e	1.0134103
12	0x3f7d4f6f	0.9894933
13	0x3f823f0e	1.0175493
14	0x3f7d48ae	0.98939025
15	0x3f817436	1.011359
16	0x3f7cb9da	0.98721087
17	0x3f80d5a4	1.0065198
18	0x3f7e2eac	0.99289966
19	0x3f7f3733	0.996936
20	0x3f81a795	1.0129267
21	0x3f807a69	1.0037357
22	0x3f81639c	1.0108523
23	0x3f805ec1	1.0028917
24	0x3f7ee5bc	0.99569297
25	0x3f7b9a8d	0.982827
26	0x3f8164e3	1.0108913
27	0x3f81bb1f	1.013523
28	0x3f8151b9	1.0103065
29	0x3f7c7b77	0.9862589
30	0x3f7f98b1	0.99842364
31	0x3f804750	1.0021763
32	0x3f7ece17	0.9953322
33	0x3f7f3f93	0.9970638
34	0x3f7ef2f7	0.99589485
35	0x3f80d9fd	1.0066525
36	0x3f7d0e92	0.9885036
37	0x3f7dcb07	0.9913792
38	0x3f812759	1.0090133
39	0x3f811999	1.0085937
40	0x3f812d0c	1.0091872
41	0x3f81dcfc	1.0145564
42	0x3f7d5313	0.98954886
43	0x3f80aa94	1.0052056
44	0x3f822be7	1.0169648
45	0x3f7ccc48	0.9874921
46	0x3f826a78	1.0188742
47	0x3f7e00c9	0.9921995
48	0x3f7c5bff	0.98577875
49	0x3f808266	1.0039794
50	0x3f7e1cea	0.9926287
51	0x3f819a05	1.0125128
52	0x3f7ea6b0	0.99473095
53	0x3f808a39	1.0042182
54	0x3f808094	1.0039239
55	0x3f7ed9dc	0.9955118
56	0x3f7dddb0	0.99166393
57	0x3f7e7b38	0.99406767
58	0x3f811e09	1.0087291
59	0x3f8072b5	1.0035006
60	0x3f8107db	1.0080522
61	0x3f807fc5	1.0038992
62	0x3f7fb96d	0.9989231
63	0x3f7f0a75	0.9962533

base.mlp.fc1.2.bias f4 [64]
0	0xbc09fdbe	-0.008422313
1	0x3c201bfc	0.009772297
2	0x3b89422f	0.004188798
3	0x3c0ca80a	0.0085849855
4	0x3c2f1d4f	0.01068814
5	0x3bf231bf	0.007391184
6	0xbbbe083b	-0.005799321
7	0x3c2639c8	0.010145612
8	0x3b7d02c7	0.0038606392
9	0x3aa3ded8	0.0012502326
10	0x3c1e5c72	0.009665595
11	0xbc46acf8	-0.0121262
12	0x3c20960c	0.009801399
13	0x3c51483e	0.012773572
14	0xbc4ae29c	-0.012383129
15	0xbc8c82f3	-0.017152285
16	0xbc583a51	-0.013197497
17	0xbc3e4732	-0.011613654
18	0x3c1833a0	0.009289652
19	0xbbe2ed07	-0.0069252285
20	0x3c86bc7f	0.016447304
21	0x3c510aad	0.012758893
22	0x3c4e7d73	0.012603152
23	0xbc9747df	-0.018466888
24	0x3b8e8711	0.0043495973
25	0x3c8710bb	0.01648747
26	0xbc3e4347	-0.01161272
27	0xbc5b8e2f	-0.013400598
28	0x3bb515cf	0.0055262814
29	0x3c672fbf	0.014110505
30	0x3b16b0f4	0.0022993656
31	0x3aa3b4fb	0.001248985
32	0x3c1eb326	0.009686267
33	0xbb9a1feb	-0.004703512
34	0x3b7e4aac	0.0038801832
35	0x3c4e18c7	0.01257915
36	0xbc408466	-0.011750316
37	0xbbfdcea4	-0.0077455807
38	0x3c175a99	0.009237909
39	0x3b9738e2	0.0046149353
40	0x3c2820b4	0.010261703
41	0xbc0e65e4	-0.008691285
42	0xbc2ec669	-0.010667422
43	0x3adfbebb	0.0017070392
44	0xbc89e5cf	-0.016833214
45	0x3c56f335	0.0131195085
46	0x3ca39d3d	0.019972438
47	0x3bc21bf3	0.005923742
48	0x3c6d7001	0.014492036
49	0x39e44285	0.0004353711
50	0x3bf6a0fe	0.007526516
51	0xbc10410a	-0.008804569
52	0xbc15ada6	-0.009135639
53	0x3b80daec	0.0039323475
54	0xb9e9d267	-0.00044597985
55	0x3b6a2946	0.0035730167
56	0x3c7cc020	0.015426666
57	0xbb96e5ae	-0.0046050167
58	0x3c1c1413	0.00952627
59	0xbb6d9986	-0.0036254837
60	0x3c10cdf1	0.008838163
61	0xbbd2b4cd	-0.0064302445
62	0xb98496d9	-0.00025289392
63	0x3c03cd46	0.0080445465

base.mlp.fc_h.0.weight f4 [64, 64]
0	0xbda7bb7a	-0.08190055
1	0x3c9065fd	0.017626757
2	0xbe3233a9	-0.1740252
3	0xbe34f740	-0.17672443
4	0xbe4e25ee	-0.20131657
5	0x3da8b7aa	0.08238156
6	0x3eb4fac5	0.35347572
7	0xbdba7735	-0.09104768
8	0x3d62490c	0.055245444
9	0xbe210702	-0.1572533
10	0x3e31cadd	0.17362542
11	0xbe01142a	-0.12605348
12	0x3ea68936	0.3252656
13	0x3e7dd965	0.2478996
14	0xbd3a26ce	-0.045447163
15	0x3d4acf16	0.0495139
16	0x3d4f6113	0.050629687
17	0xbd2db011	-0.042404238
18	0x3de7c2af	0.1131643
19	0xbeb8659e	-0.36015028
20	0xbeaa06a5	-0.33208194
21	0x3dac70c9	0.084199496
22	0xbce3e9c8	-0.027821437
23	0xbea82b75	-0.32845655
24	0xbd688173	-0.056764077
25	0x3ea55512	0.32291466
26	0xbe569161	-0.20953895
27	0xbe28e139	-0.16492166
28	0xbc8766ec	-0.01652857
29	0x3d485937	0.048913207
30	0x3d15f5c4	0.036611333
31	0x3cc2f9bc	0.023800723
32	0x3d019ac5	0.03164174
33	0xbe302d06	-0.17204675
34	0xbea84ad0	-0.32869577
35	0xbd95a98b	-0.073077284
36	0xbeabd3d2	-0.33560044
37	0xbe88a263	-0.2668639
38	0x3f0c1f36	0.54735124
39	0x3e11e807	0.14248668
40	0xbe5b0395	-0.21388085
41	0xbea2fad1	-0.31831983
42	0x3c50cda1	0.012744338
43	0xbe068524	-0.13136727
44	0x3df03a5c	0.11729881
45	0x3e6a875c	0.22903198
46	0x3ee7eab5	0.45296255
47	0x3d1c1e3b	0.038114768
48	0x3ef17ac1	0.47163966
49	0xbdf3cbd6	-0.11904113
50	0x3db13ce7	0.08654194
51	0xbe5ac0c1	-0.21362592
52	0xbe258e8e	-0.16167662
53	0x3e775612	0.24153927
54	0xbd1fab08	-0.038981467
55	0xbebf78ed	-0.37396947
56	0x3c077340	0.008267224
57	0xbe9ec7bb	-0.31011757
58	0xbdaceb11	-0.08443273
59	0x3c3a89bc	0.0113853775
60	0xbb10b44c	-0.0022080122
61	0xbd5ab603	-0.053396236
62	0xbdfc0e63	-0.123074315
63	0xbd8f0b89	-0.06984622
64	0xbe14e28f	-0.1453955
65	0x3deec820	0.116592646
66	0xbee804e6	-0.45316237
67	0x3d56806c	0.052368566
68	0xbd823163	-0.06357076
69	0xba8e3b2c	-0.0010851375
70	0x3e74fea0	0.23925257
71	0xbdfc7ad4	-0.12328115
72	0xbe25d50b	-0.1619455
73	0x3d88b617	0.06675356
74	0xbca34891	-0.019932063
75	0x3c11c9ed	0.0088982405
76	0xbdd2e59b	-0.102977
77	0x3f11895e	0.5685023
78	0x3de8d035	0.11367837
79	0x3baa7e41	0.005203039
80	0xbbc37b4a	-0.005965625
81	0x3d143447	0.036182668
82	0x3dd6f0d9	0.10495157
83	0xbe72f399	-0.23725738
84	0x3a236f60	0.0006234553
85	0xbd8f371c	-0.06992933
86	0x3dfdf7e6	0.124007985
87	0x3d54e119	0.051972482
88	0x3d816823	0.06318691
89	0x3e38bcfc	0.18040842
90	0x3ed45dec	0.41477907
91	0x3d213f47	0.039366987
92	0x3e9c672e	0.3054747
93	0xbcbe9ac5	-0.02326716
94	0xbc6f824c	-0.014618468
95	0xbd3c9f7d	-0.046050537
96	0xbe591a08	-0.21201336
97	0x3ea32f3e	0.3187198
98	0x3da3a396	0.07990186
99	0x3ed951b2	0.4244514
100	0xbd9cd146	-0.07657103
101	0xbe7c57e2	-0.246429
102	0x3d9d45e0	0.07679343
103	0xbe6d8767	-0.23196183
104	0xbd442477	-0.047886338
105	0xbe151778	-0.14559734
106	0xbdffe26e	-0.1249436
107	0x3e951a01	0.29121402
108	0x3d908309	0.07056243
109	0x3c1d760a	0.009610662
110	0xbb94a7d5	-0.0045366087
111	0xbe610c38	-0.21977317
112	0xbe1482b2	-0.14502981
113	0xbcc1d6e9	-0.023662047
114	0x3d079afa	0.03310678
115	0x3eb002d1	0.3437715
116	0x3eba5406	0.3639223
117	0xbefe2c7a	-0.49643308
118	0x3eb7d716	0.35906285
119	0xbe4f099b	-0.20218508
120	0x3d092502	0.03348256
121	0x3d837037	0.06417888
122	0x3e1acd6b	0.15117423
123	0x3eac5784	0.3366052
124	0x3ec7fa93	0.3905836
125	0xbe4a5ce6	-0.19762
126	0x3e1c7f22	0.15282872
127	0x3b9b3ca4	0.0047374535
128	0x3e022f46	0.12713346
129	0x3dd2ff6f	0.10302626
130	0x3dd6e375	0.10492603
131	0x3cdc76a2	0.026912037
132	0xbd985ecd	-0.07439957
133	0xbda8c81c	-0.08241293
134	0xbcde72b1	-0.027154298
135	0xbe107177	-0.14105783
136	0xbdc314f8	-0.09525484
137	0x3e55ba40	0.2087183
138	0xbde5f045	-0.112274684
139	0x3e0ff567	0.14058457
140	0xbeb26c41	-0.34848216
141	0x3d931e40	0.07183504
142	0xbd45225a	-0.048128463
143	0xbe9973e1	-0.2997122
144	0xbc39ad78	-0.011332862
145	0xbee6593b	-0.44989952
146	0xbe05cf29	-0.13067307
147	0x3dbcade2	0.09212853
148	0xbe39f538	-0.1815995
149	0x3e267708	0.16256344
150	0xbe8533fd	-0.26016226
151	0xbdf76870	-0.12080467
152	0x3ee4ddb6	0.44700402
153	0xbe2976a9	-0.16549172
154	0xbd61ff0a	-0.055174865
155	0xbcf57cac	-0.029966675
156	0x3c564278	0.013077371
157	0xbdd80f77	-0.10549825
158	0xbec429d4	-0.38313162
159	0xbe47155d	-0.19441743
160	0x3e3ed64f	0.1863644
161	0xbe138202	-0.14405063
162	0xbeb1c413	-0.34719905
163	0x3e68e854	0.22744876
164	0xbe0ac215	-0.13550599
165	0x3e2757ff	0.16342162
166	0xbc9a3705	-0.018825063
167	0x3dc2480a	0.094863966
168	0xbe1fde10	-0.15612054
169	0xbe84ccdc	-0.25937545
170	0xbe9fc520	-0.31205082
171	0x3eaebcb1	0.34128335
172	0xbe123d35	-0.14281161
173	0x3df1964f	0.11796247
174	0x3d94e069	0.07269365
175	0xbe0402ee	-0.12891743
176	0x3ce90093	0.028442657
177	0xbe988b29	-0.2979367
178	0xbe752a68	-0.23941958
179	0x3db84338	0.08997196
180	0x3d970b7e	0.07375239
181	0x3de1f37a	0.110327676
182	0x3e31693c	0.173253
183	0x3e2615b9	0.16219224
184	0x3f2403aa	0.6406809
185	0xbe189634	-0.14901048
186	0xbdc7415c	-0.09729263
187	0xbe3822e3	-0.17982058
188	0xbe662d6c	-0.22478265
189	0x3e24bcff	0.16087721
190	0x3ed68892	0.4190107
191	0xbda495d4	-0.0803639
192	0x3e87990a	0.26483947
193	0x3e21e180	0.15808678
194	0x3d07425a	0.033022262
195	0x3d263a95	0.040583212
196	0x3e914672	0.28374058
197	0x3ea17979	0.3153799
198	0x3be9e536	0.00713792
199	0xbe83e322	-0.25759226
200	0x3e63f52c	0.22261494
201	0xbdbeadd0	-0.09310496
202	0xbe81b7a8	-0.2533543
203	0xbd4f1ce4	-0.05056466
204	0xbe3ddb02	-0.18540576
205	0xbd157fa5	-0.036498684
206	0xbdfec130	-0.12439191
207	0xbe0c5915	-0.13705857
208	0xbe1e27e1	-0.154449
209	0x3cc07156	0.023491543
210	0x3f064eba	0.5246388
211	0x3e41939e	0.18903968
212	0x3e09bef3	0.13451748
213	0x3f171127	0.5901055
214	0x3dbeccf6	0.09316437
215	0xbcc63a36	-0.024197679
216	0x3d9dd076	0.077057764
217	0x3ed9f7d4	0.4257189
218	0x3e8f13e7	0.27944872
219	0x3d0e178e	0.034690432
220	0xbe06f44b	-0.13179128
221	0x3da70937	0.081560545
222	0xbce29c1a	-0.027662326
223	0x3e70f168	0.23529589
224	0x3bcc6e3e	0.006238728
225	0xbe109089	-0.14117636
226	0xbe19d66f	-0.15023206
227	0x3df6ada6	0.120448396
228	0xbdc31c20	-0.09526849
229	0xbe357ecd	-0.17724152
230	0x3c8a0357	0.016847296
231	0x3cca0862	0.0246622
232	0xbc5395a3	-0.012914094
233	0xbe33388a	-0.17502037
234	0xbe920527	-0.28519556
235	0x3ddf78a5	0.10911683
236	0xbd44ed13	-0.048077654
237	0xbe8573ba	-0.26064855
238	0xbe9ef5c1	-0.3104687
239	0x3e05420d	0.13013478
240	0xbd41301e	-0.04716503
241	0x3e0dbc45	0.1384135
242	0x3e212af5	0.15739043
243	0x3e14616c	0.14490288
244	0xbd5b9085	-0.05360462
245	0x3ca5a86c	0.020221911
246	0xbe4c4125	-0.19946726
247	0xbbd0f616	-0.006376992
248	0xbf076201	-0.5288392
249	0xbe8afa85	-0.27144256
250	0xbec58b0d	-0.3858265
251	0x3e271867	0.16317903
252	0xbe21567e	-0.1575565
253	0x3e71bcb5	0.23607142
254	0x3e5e8f67	0.21734391
255	0xbdb7daa4	-0.08977249

base.mlp.fc_h.0.bias f4 [64]
0	0x00000000	0.0
1	0x00000000	0.0
2	0x00000000	0.0
3	0x00000000	0.0
4	0x00000000	0.0
5	0x00000000	0.0
6	0x00000000	0.0
7	0x00000000	0.0
8	0x00000000	0.0
9	0x00000000	0.0
10	0x00000000	0.0
11	0x00000000	0.0
12	0x00000000	0.0
13	0x00000000	0.0
14	0x00000000	0.0
15	0x00000000	0.0
16	0x00000000	0.0
17	0x00000000	0.0
18	0x00000000	0.0
19	0x00000000	0.0
20	0x00000000	0.0
21	0x00000000	0.0
22	0x00000000	0.0
23	0x00000000	0.0
24	0x00000000	0.0
25	0x00000000	0.0
26	0x00000000	0.0
27	0x00000000	0.0
28	0x00000000	0.0
29	0x00000000	0.0
30	0x00000000	0.0
31	0x00000000	0.0
32	0x00000000	0.0
33	0x00000000	0.0
34	0x00000000	0.0
35	0x00000000	0.0
36	0x00000000	0.0
37	0x00000000	0.0
38	0x00000000	0.0
39	0x00000000	0.0
40	0x00000000	0.0
41	0x00000000	0.0
42	0x00000000	0.0
43	0x00000000	0.0
44	0x00000000	0.0
45	0x00000000	0.0
46	0x00000000	0.0
47	0x00000000	0.0
48	0x00000000	0.0
49	0x00000000	0.0
50	0x00000000	0.0
51	0x00000000	0.0
52	0x00000000	0.0
53	0x00000000	0.0
54	0x00000000	0.0
55	0x00000000	0.0
56	0x00000000	0.0
57	0x00000000	0.0
58	0x00000000	0.0
59	0x00000000	0.0
60	0x00000000	0.0
61	0x00000000	0.0
62	0x00000000	0.0
63	0x00000000	0.0

base.mlp.fc_h.2.weight f4 [64]
0	0x3f800000	1.0
1	0x3f800000	1.0
2	0x3f800000	1.0
3	0x3f800000	1.0
4	0x3f800000	1.0
5	0x3f800000	1.0
6	0x3f800000	1.0
7	0x3f800000	1.0
8	0x3f800000	1.0
9	0x3f800000	1.0
10	0x3f800000	1.0
11	0x3f800000	1.0
12	0x3f800000	1.0
13	0x3f800000	1.0
14	0x3f800000	1.0
15	0x3f800000	1.0
16	0x3f800000	1.0
17	0x3f800000	1.0
18	0x3f800000	1.0
19	0x3f800000	1.0
20	0x3f800000	1.0
21	0x3f800000	1.0
22	0x3f800000	1.0
23	0x3f800000	1.0
24	0x3f800000	1.0
25	0x3f800000	1.0
26	0x3f800000	1.0
27	0x3f800000	1.0
28	0x3f800000	1.0
29	0x3f800000	1.0
30	0x3f800000	1.0
31	0x3f800000	1.0
32	0x3f800000	1.0
33	0x3f800000	1.0
34	0x3f800000	1.0
35	0x3f800000	1.0
36	0x3f800000	1.0
37	0x3f800000	1.0
38	0x3f800000	1.0
39	0x3f800000	1.0
40	0x3f800000	1.0
41	0x3f800000	1.0
42	0x3f800000	1.0
43	0x3f800000	1.0
44	0x3f800000	1.0
45	0x3f800000	1.0
46	0x3f800000	1.0
47	0x3f800000	1.0
48	0x3f800000	1.0
49	0x3f800000	1.0
50	0x3f800000	1.0
51	0x3f800000	1.0
52	0x3f800000	1.0
53	0x3f800000	1.0
54	0x3f800000	1.0
55	0x3f800000	1.0
56	0x3f800000	1.0
57	0x3f800000	1.0
58	0x3f800000	1.0
59	0x3f800000	1.0
60	0x3f800000	1.0
61	0x3f800000	1.0
62	0x3f800000	1.0
63	0x3f800000	1.0

base.mlp.fc_h.2.bias f4 [64]
0	0x00000000	0.0
1	0x00000000	0.0
2	0x00000000	0.0
3	0x00000000	0.0
4	0x00000000	0.0
5	0x00000000	0.0
6	0x00000000	0.0
7	0x00000000	0.0
8	0x00000000	0.0
9	0x00000000	0.0
10	0x00000000	0.0
11	0x00000000	0.0
12	0x00000000	0.0
13	0x00000000	0.0
14	0x00000000	0.0
15	0x00000000	0.0
16	0x00000000	0.0
17	0x00000000	0.0
18	0x00000000	0.0
19	0x00000000	0.0
20	0x00000000	0.0
21	0x00000000	0.0
22	0x00000000	0.0
23	0x00000000	0.0
24	0x00000000	0.0
25	0x00000000	0.0
26	0x00000000	0.0
27	0x00000000	0.0
28	0x00000000	0.0
29	0x00000000	0.0
30	0x00000000	0.0
31	0x00000000	0.0
32	0x00000000	0.0
33	0x00000000	0.0
34	0x00000000	0.0
35	0x00000000	0.0
36	0x00000000	0.0
37	0x00000000	0.0
38	0x00000000	0.0
39	0x00000000	0.0
40	0x00000000	0.0
41	0x00000000	0.0
42	0x00000000	0.0
43	0x00000000	0.0
44	0x00000000	0.0
45	0x00000000	0.0
46	0x00000000	0.0
47	0x00000000	0.0
48	0x00000000	0.0
49	0x00000000	0.0
50	0x00000000	0.0
51	0x00000000	0.0
52	0x00000000	0.0
53	0x00000000	0.0
54	0x00000000	0.0
55	0x00000000	0.0
56	0x00000000	0.0
57	0x00000000	0.0
58	0x00000000	0.0
59	0x00000000	0.0
60	0x00000000	0.0
61	0x00000000	0.0
62	0x00000000	0.0
63	0x00000000	0.0

base.mlp.fc2.0.0.weight f4 [64, 64]
0	0xbd9f3cab	-0.07775243
1	0x3ceebaf6	0.029141884
2	0xbe26699f	-0.16251229
3	0xbe23c317	-0.1599239
4	0xbe5a68d8	-0.21329057
5	0x3d8f314d	0.06991825
6	0x3ebaf2c4	0.3651334
7	0xbdba67eb	-0.09101852
8	0x3d8812c9	0.06644208
9	0xbe26cded	-0.16289492
10	0x3e24c1bd	0.1608953
11	0xbe0e6b21	-0.13908054
12	0x3ea2d0fc	0.31800067
13	0x3e872f6f	0.26403376
14	0xbd0a9f12	-0.033843108
15	0x3d26b0d9	0.040696
16	0x3d7b7b6d	0.061397005
17	0xbd3e088f	-0.04639488
18	0x3de2f851	0.11082519
19	0xbeb4fa9a	-0.35347444
20	0xbea04961	-0.31305984
21	0x3dc09a66	0.09404449
22	0xbc62855c	-0.013825741
23	0xbeae4929	-0.34040192
24	0xbd8df53b	-0.069315396
25	0x3e9f018c	0.31055868
26	0xbe678676	-0.22609887
27	0xbe354a2c	-0.17704076
28	0x3b2f0fec	0.002671237
29	0x3d19236a	0.03738729
30	0x3cce2e20	0.025168478
31	0x3d145dac	0.036222145
32	0x3cbc1424	0.022958823
33	0xbe2777b1	-0.16354252
34	0xbeaea539	-0.3411043
35	0xbd5d6a45	-0.054056425
36	0xbea4c534	-0.32181704
37	0xbe828521	-0.25492194
38	0x3f0f1efb	0.5590665
39	0x3e154428	0.14576781
40	0xbe50d91d	-0.20395322
41	0xbeac76d7	-0.33684418
42	0x3cc6f4cb	0.024286648
43	0xbe0de077	-0.13855158
44	0x3dd7d95e	0.105395064
45	0x3e5d6036	0.21618733
46	0x3ef047a7	0.46929666
47	0x3d11df3d	0.035613287
48	0x3eeb717f	0.45985028
49	0xbe07e085	-0.13269241
50	0x3d980be1	0.07424141
51	0xbe65d355	-0.22443898
52	0xbe20995f	-0.15683506
53	0x3e81a3af	0.25320193
54	0xbd465de8	-0.0484294
55	0xbec6a500	-0.3879776
56	0x3a7250a9	0.00092435867
57	0xbea487e6	-0.32134932
58	0xbd943128	-0.07235938
59	0xba956c12	-0.0011400005
60	0x3c4fef0d	0.0126912715
61	0xbd55e4a9	-0.05222002
62	0xbddd2a0a	-0.10799034
63	0xbd9fab8f	-0.07796394
64	0xbe21ca6c	-0.15799874
65	0x3df0411e	0.1173117
66	0xbee7b126	-0.4525234
67	0x3d461785	0.048362274
68	0xbd81e6cf	-0.06342851
69	0xbaa8a372	-0.0012866093
70	0x3e7576de	0.23971125
71	0xbdf33d87	-0.1187697
72	0xbe272929	-0.16324295
73	0x3d916494	0.07099262
74	0xbc97d044	-0.018531926
75	0x3c16a0f9	0.009193652
76	0xbde9b89b	-0.11412164
77	0x3f1086e6	0.5645584
78	0x3dec850b	0.115488134
79	0xba304875	-0.0006724664
80	0xbbb874bf	-0.0056291516
81	0x3d2ce53c	0.042210802
82	0x3dd165d9	0.10224504
83	0xbe73d74e	-0.23812601
84	0xba916d29	-0.0011095154
85	0xbd97d24d	-0.074131586
86	0x3dfc479e	0.123183474
87	0x3d820d32	0.06350173
88	0x3d8119b1	0.06303728
89	0x3e386543	0.18007378
90	0x3ed63186	0.41834658
91	0x3d20a6da	0.039221622
92	0x3e9b1538	0.30289626
93	0xbcbae8fe	-0.022816177
94	0xbc6f6c80	-0.014613271
95	0xbd3e4313	-0.046450686
96	0xbe620380	-0.22071648
97	0x3ea540fd	0.32276145
98	0x3da30eb5	0.079617895
99	0x3ed72a20	0.42024326
100	0xbd984881	-0.07435704
101	0xbe7c32e7	-0.24628793
102	0x3d9ef23a	0.07761045
103	0xbe5f8a5b	-0.21830122
104	0xbd4a98f0	-0.04946226
105	0xbe131931	-0.14365079
106	0xbdfe96bb	-0.12431093
107	0x3e9883c4	0.2978803
108	0x3d8f16bd	0.06986759
109	0x3c0e63b8	0.008690767
110	0xbbc864c7	-0.006115529
111	0xbe61918d	-0.2202818
112	0xbe14ebf3	-0.14543132
113	0xbca5c0a2	-0.020233456
114	0x3d06d0aa	0.03291384
115	0x3eb20d27	0.3477566
116	0x3eb5c161	0.354991
117	0xbefdebbb	-0.4959391
118	0x3eb97741	0.36223796
119	0xbe4d8542	-0.20070365
120	0x3d1a2424	0.037632123
121	0x3d54ea8a	0.051981486
122	0x3e1c5bc4	0.15269381
123	0x3eac5815	0.3366095
124	0x3ec72385	0.38894287
125	0xbe556bc8	-0.20841897
126	0x3e1b9034	0.15191728
127	0x3ba2ed3e	0.004972129
128	0x3dfef897	0.124497585
129	0x3ddfb94c	0.109240144
130	0x3de3ea17	0.111286335
131	0x3d196698	0.037451357
132	0xbda64424	-0.081184655
133	0xbdb7bc42	-0.08971454
134	0xbca8e325	-0.020616123
135	0xbe13a333	-0.14417724
136	0xbdb3d160	-0.087801695
137	0x3e5574f9	0.20845403
138	0xbdf49f1c	-0.1194441
139	0x3e091b07	0.13389216
140	0xbeb31a1d	-0.3498086
141	0x3da8ba4c	0.08238658
142	0xbd2cd884	-0.042198673
143	0xbe97001c	-0.2949227
144	0xbbbcde05	-0.0057637715
145	0xbeec5acf	-0.4616303
146	0xbe00655a	-0.12538663
147	0x3dbbca99	0.09169502
148	0xbe307dd7	-0.17235504
149	0x3e245da5	0.16051348
150	0xbe80f65c	-0.25187957
151	0xbdf5e445	-0.120064296
152	0x3ee10f51	0.43956998
153	0xbe30f8d4	-0.1728242
154	0xbd7d9850	-0.061912835
155	0xbd170d07	-0.03687766
156	0x3cdf7457	0.027277155
157	0xbde50939	-0.111834
158	0xbec7289a	-0.38898164
159	0xbe40a7dc	-0.18814033
160	0x3e3b4906	0.18289575
161	0xbe1210a1	-0.14264156
162	0xbeb58606	-0.35453814
163	0x3e7649ad	0.24051543
164	0xbe01e7db	-0.12686102
165	0x3e2ddef6	0.16979584
166	0xbc490614	-0.012269516
167	0x3db73da8	0.08947307
168	0xbe1a21aa	-0.15051904
169	0xbe8bf5a6	-0.27335852
170	0xbe9c7bf9	-0.30563334
171	0x3eaf186d	0.34198323
172	0xbe191a33	-0.149514
173	0x3de1f940	0.11033869
174	0x3da8546c	0.08219227
175	0xbdfb642b	-0.12274965
176	0x3cb20375	0.021730164
177	0xbe9bf663	-0.30461416
178	0xbe7c55c6	-0.24642095
179	0x3d9bc0d4	0.076051384
180	0x3d93fd8b	0.07226094
181	0x3def5eb3	0.11687984
182	0x3e2c40e8	0.16821635
183	0x3e1d7b37	0.15379034
184	0x3f235bf0	0.6381216
185	0xbe1f64f0	-0.15565848
186	0xbdbaaec1	-0.09115363
187	0xbe3f56e1	-0.18685485
188	0xbe5c56cc	-0.21517485
189	0x3e1fa9c7	0.15592109
190	0x3edafc4d	0.42770615
191	0xbdad6147	-0.0846582
192	0x3e88ffde	0.2675771
193	0x3e2c5928	0.16830885
194	0x3d2ffbf4	0.04296489
195	0x3d4985f6	0.04920002
196	0x3e8c5f16	0.27416295
197	0x3e9c4ab3	0.3052574
198	0x3c8b392b	0.016995033
199	0xbe85d262	-0.26137072
200	0x3e6ccd10	0.231251
201	0xbdc818fa	-0.09770389
202	0xbe8699f5	-0.26289335
203	0xbd6dce26	-0.058057927
204	0xbe424c94	-0.18974525
205	0xbcf6bbcf	-0.030118851
206	0xbdeb4748	-0.11488205
207	0xbe152bff	-0.14567564
208	0xbe14dc82	-0.14537242
209	0x3c9a75b8	0.01885496
210	0x3f05d6e8	0.52281046
211	0x3e4a3fcc	0.19750899
212	0x3e138c3e	0.14408967
213	0x3f183c27	0.59466785
214	0x3dd37809	0.10325629
215	0xbcd5ab62	-0.026082698
216	0x3d89132b	0.06693109
217	0x3ed4c78d	0.41558495
218	0x3e89fb32	0.2694946
219	0x3cd06828	0.02544029
220	0xbdf40a10	-0.11915982
221	0x3d95a866	0.0730751
222	0xbd112a8f	-0.035440978
223	0x3e7a6dc7	0.24455939
224	0xbb8c59a0	-0.004283145
225	0xbe07100f	-0.1318972
226	0xbe244444	-0.16041666
227	0x3e072d18	0.13200796
228	0xbdb5b312	-0.088720456
229	0xbe2b96b2	-0.16756704
230	0x3cda1aea	0.026624162
231	0x3cddc6ae	0.027072277
232	0xbb65c2eb	-0.0035058807
233	0xbe3f6003	-0.1868897
234	0xbe8cfd37	-0.27536938
235	0x3dd8a1a1	0.10577703
236	0xbd6eb5d7	-0.058278885
237	0xbe8b7636	-0.27238625
238	0xbe992756	-0.29912823
239	0x3e03fd27	0.12889539
240	0xbd69c87b	-0.05707596
241	0x3e06d233	0.13166122
242	0x3e16c686	0.14724168
243	0x3e0db177	0.13837229
244	0xbd4e8a50	-0.050424874
245	0x3cf72192	0.030167375
246	0xbe51fe86	-0.20507249
247	0xbc819ca9	-0.015821772
248	0xbf0907c5	-0.5352748
249	0xbe8c9510	-0.27457476
250	0xbec1297d	-0.37726966
251	0x3e1d178c	0.15341014
252	0xbe1851c1	-0.14874937
253	0x3e74f887	0.2392293
254	0x3e6937c5	0.2277518
255	0xbdcc89b7	-0.099872045

base.mlp.fc2.0.0.bias f4 [64]
0	0x3c4afb99	0.012389087
1	0x3989e720	0.00026302878
2	0x3be5d86e	0.007014326
3	0x3c1d260b	0.00959159
4	0x39b6ce86	0.00034867617
5	0xbc28d009	-0.010303506
6	0xbb17d59f	-0.00231681
7	0x3b83d8ac	0.004023632
8	0xbc0c8f10	-0.008579031
9	0xbc259642	-0.010106625
10	0xbb2588e0	-0.0025258586
11	0x3a973a26	0.0011537715
12	0xbb4fe321	-0.0031721073
13	0x396a9ecc	0.00022375135
14	0xba5a5ec4	-0.0008330161
15	0x3b01704b	0.001975077
16	0xbbd630c1	-0.0065365736
17	0xbb74cc1f	-0.003735311
18	0xbc451e16	-0.012031099
19	0xbc3ff36f	-0.011715754
20	0x3c1506f9	0.009095901
21	0xbbe3415b	-0.006935281
22	0xbb7af4ad	-0.003829281
23	0x3c11502a	0.00886921
24	0x3ca4ae66	0.02010269
25	0x3b64021c	0.0034791296
26	0x3b2a0cee	0.0025947648
27	0x38fd69c9	0.00012083684
28	0x3bccf891	0.0062552174
29	0x3b66c178	0.0035210531
30	0x3b85eabc	0.0040868204
31	0x3c0d1af2	0.008612381
32	0x3aa8b33d	0.00128708
33	0x3b0b6826	0.0021271794
34	0xbbe3ca9f	-0.0069516446
35	0xbadcdc25	-0.0016850276
36	0xbc11ea28	-0.008905925
37	0xbb3e4855	-0.0029034812
38	0xbb28d730	-0.0025763027
39	0x3c3c18ff	0.011480569
40	0x3a9e20da	0.0012064234
41	0x3a57c649	0.0008231146
42	0xba9c3dc1	-0.001192026
43	0xbc651a66	-0.013983345
44	0x3bf7a98a	0.0075580524
45	0xba354295	-0.00069145235
46	0xba848a0a	-0.001011194
47	0x3c54567f	0.012960075
48	0xbc81aa9c	-0.015828423
49	0x3aae7c52	0.0013312197
50	0x3b881267	0.0041525844
51	0x3c293764	0.010328148
52	0xbac93da2	-0.0015353451
53	0xbbcb5c28	-0.0062060542
54	0x3bb96f4c	0.0056590196
55	0xbb967346	-0.0045913784
56	0xbbaee8df	-0.005337819
57	0xbb6b2812	-0.0035882038
58	0x3ace756f	0.0015751551
59	0xbaaf6656	-0.0013381939
60	0x3ba55932	0.0050460333
61	0x3c393099	0.0113030905
62	0x3b94ea49	0.0045445305
63	0x3b54ce98	0.0032471772

base.mlp.fc2.0.2.weight f4 [64]
0	0x3f824e62	1.018017
1	0x3f7fb83a	0.9989048
2	0x3f82234a	1.0167019
3	0x3f7d4f70	0.98949337
4	0x3f7e1fc3	0.99267215
5	0x3f7df696	0.99204385
6	0x3f7c4978	0.98549604
7	0x3f7f89c0	0.99819565
8	0x3f7d42b9	0.98929936
9	0x3f82302d	1.0170952
10	0x3f7f3ca2	0.99701893
11	0x3f7fa679	0.9986339
12	0x3f7dcbde	0.991392
13	0x3f7f18e1	0.9964734
14	0x3f7ebbb4	0.9950516
15	0x3f7f42ec	0.9971149
16	0x3f7dc0bf	0.9912223
17	0x3f7ccd41	0.9875069
18	0x3f816ac2	1.0110705
19	0x3f7e7968	0.99404
20	0x3f7f6697	0.99765915
21	0x3f80b029	1.005376
22	0x3f7f0c3c	0.99628043
23	0x3f7ed27c	0.99539924
24	0x3f80c88e	1.0061204
25	0x3f806771	1.0031568
26	0x3f7f18ad	0.9964703
27	0x3f7e53ae	0.99346435
28	0x3f7d6c8e	0.98993766
29	0x3f7f852f	0.998126
30	0x3f8061d0	1.002985
31	0x3f7e8335	0.99418956
32	0x3f7e730e	0.9939431
33	0x3f7fdfdb	0.9995095
34	0x3f7f46d9	0.9971748
35	0x3f7e5852	0.99353516
36	0x3f7f1dc5	0.996548
37	0x3f807578	1.0035849
38	0x3f80157a	1.0006554
39	0x3f805d31	1.002844
40	0x3f7f551f	0.9973926
41	0x3f7f5702	0.9974214
42	0x3f7f1d25	0.99653846
43	0x3f7edf7e	0.9955977
44	0x3f8014e8	1.000638
45	0x3f7f10cc	0.99635005
46	0x3f7f792f	0.99794286
47	0x3f7cb1d8	0.9870887
48	0x3f7e10e1	0.99244505
49	0x3f7e7937	0.9940371
50	0x3f809f1a	1.0048554
51	0x3f7e6e29	0.9938684
52	0x3f7ee782	0.99572
53	0x3f7e2bb2	0.99285424
54	0x3f7f09dd	0.99624425
55	0x3f7f78c0	0.99793625
56	0x3f7fb746	0.9988903
57	0x3f7fd616	0.99936044
58	0x3f7f03b1	0.9961501
59	0x3f7d1c4f	0.9887132
60	0x3f7eff43	0.9960825
61	0x3f7e79b5	0.9940446
62	0x3f7de11b	0.9917161
63	0x3f801f8f	1.0009631

base.mlp.fc2.0.2.bias f4 [64]
0	0x3b84267a	0.004032907
1	0x3b9ceaa8	0.0047887154
2	0x3bf4fed3	0.0074766665
3	0x3c215094	0.0098458715
4	0x3bf8b4d0	0.007589914
5	0xbc046951	-0.00808175
6	0x3bb9ff61	0.0056761955
7	0x3b295dc1	0.0025843235
8	0xbc64b9bc	-0.013960298
9	0xbb709d2d	-0.0036714778
10	0xbb3d075c	-0.0028843498
11	0x3ad4ba6c	0.0016229874
12	0xbc11192d	-0.0088561
13	0xbb729181	-0.0037012997
14	0x3ba7c08d	0.0051193894
15	0x3b2a6fcc	0.0026006578
16	0x3b836e5d	0.004010959
17	0x3b0ffc89	0.002197059
18	0xbb75f3fd	-0.0037529462
19	0xbc02bd24	-0.007979665
20	0x3b8eabfc	0.004353998
21	0xbaecd64d	-0.0018069238
22	0xbb6cfb39	-0.0036160483
23	0x3bc8cfe6	0.006128299
24	0x3bcdafce	0.006277061
25	0x3aed5c16	0.0018109109
26	0xbb5487d0	-0.0032429583
27	0xbbd8362a	-0.0065982537
28	0x3c0fb5c9	0.008771368
29	0x3aeaa8fa	0.0017903142
30	0x3aa6b2fc	0.0012718136
31	0x3bdaf863	0.006682442
32	0x3bd3f77f	0.006468713
33	0x3a835270	0.0010019075
34	0xbb40715b	-0.002936444
35	0xbbe06cd4	-0.006848911
36	0xbb843f60	-0.004035875
37	0xbc499cfc	-0.012305494
38	0xbb9a72d1	-0.004713394
39	0x3bb04056	0.005378763
40	0xb910e179	-0.00013816905
41	0xbb362c91	-0.002779756
42	0xbb56711c	-0.0032721227
43	0xbc5205f4	-0.012818802
44	0x3a145825	0.00056588865
45	0xbb7a8a62	-0.0038229455
46	0x3b02de7d	0.001996904
47	0x3b35f14b	0.002776223
48	0xbc4624e0	-0.012093753
49	0x3bcc22f3	0.006229752
50	0x3b819e92	0.0039556706
51	0x3bd99271	0.0066397716
52	0xbb86fb1b	-0.0041192896
53	0xbb82e3ae	-0.0039944267
54	0xbb4299b0	-0.0029693656
55	0xbb608101	-0.003425658
56	0xbb26e1fe	-0.0025464292
57	0xbb8a718c	-0.0042249616
58	0x3b819235	0.003954197
59	0xbc2e97ef	-0.010656341
60	0x3b3b6f0e	0.002860013
61	0x3bfeb64d	0.007773197
62	0x3c0b4b2f	0.008501812
63	0x3ba765dd	0.0051085786

act.action_out.fc_mean.weight f4 [2, 64]
0	0xbc5aa6b7	-0.013345412
1	0xbb8fd15b	-0.004388971
2	0xbc7e2e2b	-0.015513937
3	0x392c58c2	0.00016436263
4	0x3aad64ae	0.0013228857
5	0x3aa2785d	0.001239549
6	0x3b6a5157	0.0035754049
7	0xbb35a040	-0.0027713925
8	0x3b74a604	0.0037330398
9	0x3c8b0bba	0.016973365
10	0x3b53af41	0.0032300504
11	0x3950a1d2	0.00019896709
12	0x3a0f332b	0.0005462642
13	0xbaf8ef90	-0.0018992294
14	0x3a9d0d18	0.0011982052
15	0x39ff7f3d	0.0004873219
16	0x3b2a3dc9	0.0025976768
17	0xb964d160	-0.00021821773
18	0x3c40e175	0.011772503
19	0x3aa72920	0.0012753345
20	0xbb180526	-0.0023196428
21	0x3b8ee0f3	0.004360312
22	0xbad5e77e	-0.00163196
23	0x38cb840e	9.7043914e-05
24	0xbbf208c5	-0.0073862993
25	0x3bb10150	0.005401768
26	0xbadc7895	-0.0016820604
27	0xbb10430f	-0.0022012626
28	0x3b32c8b8	0.0027280282
29	0xbafedb1d	-0.0019443963
30	0xbbba0a15	-0.0056774714
31	0x390bbe01	0.00013326855
32	0x3a8c71b8	0.0010715043
33	0xbb125022	-0.0022325595
34	0xba753300	-0.0009353608
35	0x3ac33989	0.0014894466
36	0x3aa552b2	0.0012613146
37	0x3c1009db	0.008791412
38	0x3bb1e3c4	0.005428763
39	0xbb6f377d	-0.003650158
40	0xbb9772a2	-0.0046218196
41	0x3a348dc3	0.0006887579
42	0xba9b53db	-0.0011850552
43	0x3a1e3743	0.00060354563
44	0xbc2ae3ef	-0.01043032
45	0x399d12fc	0.00029959518
46	0xbad89288	-0.0016523162
47	0xbb663bdd	-0.0035130896
48	0x3ba09dd9	0.0049016294
49	0xb8cc3efc	-9.73921e-05
50	0xbc10da49	-0.008841106
51	0xb99d0ddc	-0.000299557
52	0x39f3a607	0.00046472272
53	0x3b7d7fe6	0.003868097
54	0xb999bb57	-0.00029322013
55	0x3b7870a5	0.0037908938
56	0x3b8668ab	0.004101833
57	0x3bda17cd	0.0066556693
58	0xb9b5f1b5	-0.00034703096
59	0x3a3597bf	0.0006927214
60	0x3b6c6067	0.0036068202
61	0xb63f657e	-2.8520294e-06
62	0x3a8685b9	0.0010263241
63	0xbbf883aa	-0.007584055
64	0x3c65f356	0.014035067
65	0xbbc2df8b	-0.0059470586
66	0x3c1e31b9	0.0096554095
67	0xb9d2e23d	-0.00040222882
68	0xbbb77089	-0.005598132
69	0x3b5c0b44	0.003357605
70	0xbafcb723	-0.0019280653
71	0xbbb41918	-0.0054961555
72	0x3a814fe3	0.0009865727
73	0xbbc37ade	-0.0059655746
74	0x3b7d4340	0.003864482
75	0xbbe4a93b	-0.0069781817
76	0x3ba33bdc	0.004981501
77	0x3bbd6aa2	0.005780534
78	0xbbcc3678	-0.006232079
79	0xbbc0eeb3	-0.00588783
80	0xbbb45064	-0.0055027474
81	0x38fcae8a	0.00012048807
82	0xbc5b22d4	-0.013375003
83	0x3bab02de	0.0052188477
84	0xbbabe98a	-0.005246346
85	0x3c1a9aff	0.009436368
86	0x3bda5bd7	0.00666378
87	0x3a83e96a	0.001006407
88	0x3bea5208	0.007150892
89	0x3beead3e	0.0072838357
90	0x3be86235	0.0070917853
91	0x3bd48386	0.0064854054
92	0xbbb19159	-0.005418938
93	0xbbae6f58	-0.005323332
94	0xbbdd153c	-0.006746916
95	0xbb387193	-0.0028143867
96	0xbbbdcde6	-0.0057923673
97	0xbbf27cd2	-0.0074001336
98	0x3be36b5c	0.0069402885
99	0x3b510937	0.0031896362
100	0x3b982f02	0.0046442756
101	0xbc25957c	-0.010106441
102	0xbbc077f6	-0.0058736755
103	0xbc10c7a4	-0.0088366605
104	0x395b30ea	0.0002090369
105	0x3bc336de	0.0059574684
106	0x3ba49d83	0.0050236597
107	0x3be1ccc8	0.006890867
108	0xbb578b5f	-0.0032889468
109	0x3bb8421b	0.0056231148
110	0xbbb7c683	-0.0056083812
111	0x3ac81960	0.0015266351
112	0x3b406ca6	0.0029361635
113	0xbb9f618b	-0.004863923
114	0xbbb7b627	-0.005606431
115	0xbb9a42a5	-0.0047076517
116	0x3b943146	0.0045224754
117	0xbb2f5f0b	-0.002675953
118	0x3bbe6f2a	0.0058115916
119	0x3b43aa7a	0.002985625
120	0x3baf05db	0.005341274
121	0xbb21f51b	-0.0024712745
122	0xbba7c6b3	-0.0051201223
123	0x3b4bb4f5	0.00310832
124	0xbbf37d39	-0.007430699
125	0xbbafdafb	-0.0053666807
126	0xbbbd9879	-0.0057859984
127	0x3c0645c9	0.008195349

act.action_out.fc_mean.bias f4 [2]
0	0xb823761b	-3.8972223e-05
1	0x3baf019a	0.005340767

act.action_out.logstd._bias f4 [2, 1]
0	0x3bdab282	0.006674112
1	0x3c3067e4	0.010766957
