results/MyEnv/MyEnv/mappo/check/run93/models/critic_agent0.pt (torch, 89374 bytes, 15 tensors)

base.feature_norm.weight f4 [182]
00000000: ce9b 7f3f 8b90 7f3f 6146 803f aeb1 7f3f
00000010: e33b 813f a790 803f 4500 803f 3e36 803f
00000020: db72 803f a13b 803f b7eb 7f3f 3ef2 7f3f
00000030: 571f 803f ed35 803f 0f8a 7f3f d69a 803f
00000040: c28c 7f3f 910c 7f3f fda8 803f 17bc 7f3f
00000050: efa1 803f c647 803f 9a01 803f 693e 803f
00000060: 9395 803f 5f21 803f cb05 803f ee56 7e3f
00000070: 258e 803f c189 7f3f e2a2 7e3f 075b 803f
00000080: d883 803f d200 7f3f 6771 803f 5b5d 7f3f
00000090: c101 813f 1210 7f3f 25f3 7d3f c361 7e3f
000000a0: dac0 7f3f f15a 803f 1d1a 7f3f c130 7f3f
000000b0: d3fd 803f a379 7f3f 0847 803f 18d2 7e3f
000000c0: e80d 813f b5cb 803f a6e2 7f3f a1c3 803f
000000d0: 3e21 803f 07e3 803f b08e 803f d5b0 7f3f
000000e0: 7bc4 7e3f 7d7e 803f 27f2 7e3f dd2a 7f3f
000000f0: 37cc 7f3f 333b 803f 6d10 803f f686 7f3f
00000100: a181 7f3f 633c 7f3f b6ca 7f3f a6d9 7f3f
00000110: 1dae 7e3f b013 803f 6b80 7e3f c9c2 7f3f
00000120: 0976 7f3f 4d57 7e3f df81 803f 284d 803f
00000130: 2f45 803f 2b9b 7e3f 60ea 7f3f 0701 803f
00000140: a3ae 7d3f ac3b 813f a43c 803f d045 803f
00000150: ae35 7f3f cc41 7e3f d1e5 7f3f beff 7e3f
00000160: a429 7f3f decb 7e3f ee89 803f e675 7e3f
00000170: 73be 7f3f f843 803f b81a 803f 5224 803f
00000180: 9057 803f 66d4 7e3f c728 803f 5770 7f3f
00000190: 2b36 813f f03f 803f 1678 803f d3d9 7e3f
000001a0: 6663 7d3f 7542 803f 4b51 803f 19cd 7f3f
000001b0: 1631 7f3f 906d 803f 0e69 803f 8b91 803f
000001c0: c648 803f 81b4 803f c46d 803f 7f2f 803f
000001d0: 027c 7f3f 6d22 803f 7ed9 7e3f 7573 7e3f
000001e0: 43e3 7f3f c0c9 7e3f 15b6 803f 9311 803f
000001f0: 2419 7f3f 9305 813f 27bd 7f3f f8af 803f
00000200: 3531 803f bf6e 803f 9e34 7e3f 245d 803f
00000210: 32d1 803f 0ab7 7e3f a602 803f 8ac0 7e3f
00000220: 547b 803f 993b 803f 87c5 7e3f 5e91 7e3f
00000230: 3ccf 803f 2d1d 813f f7d3 7f3f 2a69 803f
00000240: 5a93 803f e3af 7d3f ce0d 803f 942c 7f3f
00000250: 1c89 7e3f ba61 7f3f 085f 803f cb86 7e3f
00000260: 2fdb 803f 0c43 803f fc97 7e3f 2a46 803f
00000270: 1f6c 803f df70 803f 735d 803f f48c 7e3f
00000280: dd93 803f 07e1 803f 5e05 803f faff 7e3f
00000290: 5f62 803f 4919 803f eadd 803f 1279 813f
000002a0: 456c 803f 6102 813f d908 803f f19c 7f3f
000002b0: 5aff 7e3f cf04 803f 9bd9 803f 76e4 803f
000002c0: 3b99 7f3f 9a20 803f 7247 803f d979 803f
000002d0: bd24 803f 179c 803f
0.99847114 0.9982993 1.0021478 0.9988049 1.0096401 1.0044144 1.0000082 1.0016553
1.0035051 1.0018197 0.9996905 0.9997901 1.0009564 1.0016457 0.99820036 1.0047252
0.99824154 0.9962855 1.0051571 0.9989638 1.0049418 1.0021904 1.0000489 1.0019046
1.0045646 1.0010184 1.0001768 0.99351394 1.0043379 0.9981957 0.9946729 1.0027779
1.0040236 0.99610627 1.0034608 0.99751824 1.007866 0.99633896 0.99199134 0.9936792
0.99903643 1.0027753 0.9964922 0.9968377 1.0077461 0.9979498 1.0021677 0.9953933
1.0082369 1.0062166 0.99955213 1.0059701 1.0010145 1.0069283 1.0043545 0.998792
0.99518555 1.0038601 0.99588245 0.9967478 0.9992098 1.0018066 1.0005013 0.9981531
0.99807173 0.9970152 0.9991869 0.9994148 0.99484426 1.0006008 0.994147 0.99906594
0.9978948 0.9935196 1.0039634 1.0023546 1.0021113 0.9945552 0.99967 1.0000314
0.990946 1.0096335 1.0018506 1.0021305 0.99691284 0.9931915 0.99960047 0.9960898
0.99672914 0.99529827 1.0042093 0.9939865 0.9989998 1.0020742 1.0008154 1.0011084
1.0026722 0.99542844 1.0012444 0.9978079 1.0094656 1.0019512 1.0036647 0.99551123
0.98979795 1.0020281 1.0024809 0.9992233 0.99684274 1.0033436 1.003206 1.0044416
1.0022209 1.0055085 1.0033498 1.0014495 0.99798596 1.0010506 0.99550617 0.99394923
0.9995615 0.99526596 1.0055567 1.0005363 0.99647737 1.0079826 0.99898 1.0053701
1.0015017 1.0033797 0.9929904 1.0028424 1.0063841 0.99498045 1.0000808 0.9951254
1.0037637 1.0018188 0.9952015 0.9944056 1.0063243 1.0087029 0.9993281 1.0032094
1.0044968 0.99096507 1.0004213 0.99677396 0.9942796 0.99758494 1.0029001 0.9942443
1.006689 1.0020461 0.9945066 1.0021412 1.0032996 1.0034446 1.0028518 0.9943383
1.0045124 1.0068673 1.0001638 0.9960934 1.003002 1.0007716 1.0067723 1.0115073
1.0033041 1.0078851 1.00027 0.9984885 0.99608386 1.0001467 1.0066408 1.0069721
0.99843186 1.0009949 1.0021803 1.0037185 1.0011212 1.0047635

base.feature_norm.bias f4 [182]
00000000: 24fc 9b3b f35d e43a b06f 10bb c094 3a3b
00000010: 4a99 21bc 173c 95bb da68 5fba 3a7a d6ba
00000020: a8ce 5bbb 1c94 afbb 5780 8439 db1e fa39
00000030: bbab 52ba ebbb e3ba fc8d d4ba 13c6 98bb
00000040: 9250 d43a 19c1 753b d312 a9bb 818e 8bbb
00000050: 922a 9f3b 2f41 113b f624 4338 a0d7 0d3b
00000060: 4305 903b 0143 823a 373d 9b39 f242 d8bb
00000070: 2b3e 8c3b b489 e8ba f67d aebb 34ac 323b
00000080: 31b1 803b 3217 43bb 54ad 0c3c c4fc 0cbb
00000090: 42c0 ce38 e1ca 863b d8fe 00bc e0f9 c9bb
000000a0: d183 68ba 07a1 2e3b afa6 67bb fa5b 49bb
000000b0: 0f28 003c e637 09bb 7d8b 093b c1ae 93bb
000000c0: 0741 073c 2b74 cc3b d7aa 2aba 0584 bf3b
000000d0: a7b9 443a ab53 dc3b c56b 873b 7aa1 70ba
000000e0: 1703 9cbb 932a 7b3b 6ea3 80bb 455a 51bb
000000f0: 2d8a 2bba e94c e13a 74fc a139 8e0d d6ba
00000100: 24a2 dfba fefe 42bb 65c9 57ba 95ec 2eba
00000110: 99fb a9bb 1e6a 5a3a cbc8 bebb 3eec 47ba
00000120: 9542 01bb 9ed4 d8bb 6b1e 813b c6d6 153b
00000130: 9510 003b 3960 b3bb 84cf 9fb9 c95f b238
00000140: e648 15bc 4755 1e3c ba05 e23a f478 053b
00000150: fd10 41bb e3a7 e0bb a7ee dfb9 38cf 77bb
00000160: 070b 55bb 4f4b 96bb 7b12 8a3b a2a0 8a3b
00000170: 9799 a33b 44a9 0fbb 18a5 6a3a 7240 82ba
00000180: c391 2fbb e55b 0e3b 18ac a4ba b9b3 033b
00000190: c6af 20bb 6084 00bb c454 70bb 29e5 913b
000001a0: 0807 273c 7ba3 f33a 2f69 0dbb c69f 323a
000001b0: 2dd7 543b 2da0 5fbb 41bf 463b 769c 8d3b
000001c0: 57b7 0a3b 8132 b43b 17d0 693b d6a6 b03a
000001d0: 363a feba 98f1 973a 49b0 8fbb caa9 c5bb
000001e0: 1235 11ba bf56 99bb cae4 b73b 49ca fb39
000001f0: 7d87 60bb ba80 023c 72aa 92ba 4931 ac3b
00000200: 604d bd3a 155c 553b dc63 e4bb 033d 2e3b
00000210: e319 d23b f2ff 9ebb 2ef5 a338 0583 9dbb
00000220: 5b40 703b a5a0 e83a 1d64 98bb c9c8 b5bb
00000230: 3241 da3b cb9b 103c 16bc 40ba c1dd 4a3b
00000240: 4380 903b 8262 17bc 7fde 8abb 0656 46bb
00000250: 1693 b6bb 3654 25bb 7b29 353b e7d2 bdbb
00000260: 6edc da3b ddd0 ed3a 309f b1bb 48c8 113b
00000270: 8a7e 523b 3630 5e3b 5c75 2f3b 4827 b7bb
00000280: bb01 8e3b 8752 1d3c ef82 a1bb bc63 9a3b
00000290: 9fb5 b7bb e8af b7bb b172 9e3b 2f68 3a3c
000002a0: 28f3 4f3b d281 003c d486 8539 455b b9ba
000002b0: 74c5 7fbb d54c 7e38 9319 dc3b 4aad e13b
000002c0: c2d8 b9ba a6e3 8f3a 494d 093b ac8c 6e3b
000002d0: c522 6b3a d229 9b3b
0.004760282 0.0017423019 -0.0022039227 0.002847001 -0.009863207 -0.0045542824 -0.0008522399 -0.0016363331
-0.0033539925 -0.005358232 0.00025272623 0.00047706705 -0.0008036454 -0.001737473 -0.0016216631 -0.004662284
0.0016198328 0.0037499128 -0.0051597147 -0.004258931 0.0048573697 0.0022164097 4.6526045e-05 0.0021643415
0.0043951585 0.0009938182 0.00029609512 -0.0065997774 0.004279872 -0.0017741234 -0.0053250743 0.0027263286
0.003927373 -0.0029768464 0.0085862465 -0.0021512965 9.858656e-05 0.0041135405 -0.0078732595 -0.0061638206
-0.000886974 0.0026646273 -0.0035347154 -0.0030724988 0.007822051 -0.002093786 0.0020987683 -0.0045069163
0.00825525 0.0062394342 -0.00065104425 0.0058445954 0.0007504471 0.006723841 0.00413272 -0.00091793353
-0.0047611105 0.0038324937 -0.0039257323 -0.0031944674 -0.0006543722 0.0017189059 0.00030896405 -0.0016330944
-0.0017061871 -0.0029754038 -0.0008231609 -0.0006672827 -0.0051874635 0.0008331853 -0.005822276 -0.00076264504
-0.0019723524 -0.006617143 0.0039403937 0.002286361 0.0019541134 -0.005474117 -0.00030481454 8.505543e-05
-0.009111619 0.009663886 0.0017244138 0.0020366283 -0.0029459589 -0.006855951 -0.00042711684 -0.003781272
-0.0032507794 -0.004586614 0.004213629 0.0042305747 0.0049926746 -0.0021920959 0.00089509925 -0.0009937419
-0.0026789762 0.0021722254 -0.0012563495 0.0020096137 -0.0024518832 -0.0019610152 -0.0036671618 0.004452367
0.0101945475 0.001858815 -0.0021577587 0.0006813969 0.0032476888 -0.0034122572 0.0030326399 0.00432163
0.0021166408 0.0054991846 0.003567701 0.0013477455 -0.001939601 0.0011592386 -0.0043850285 -0.0060322033
-0.0005539219 -0.0046795304 0.0056119906 0.00048025165 -0.0034260445 0.007965261 -0.0011189713 0.0052548987
0.0014442615 0.0032556106 -0.006969912 0.0026586659 0.0064117773 -0.0048522884 7.818114e-05 -0.0048068785
0.0036659453 0.0017748071 -0.0046506063 -0.005547617 0.006660604 0.008826206 -0.0007352246 0.003095493
0.0044098212 -0.009239795 -0.0042379494 -0.0030263676 -0.005571733 -0.0025227196 0.0027643132 -0.005792964
0.0066791093 0.0018143911 -0.005420588 0.002224462 0.003211888 0.0033903248 0.0026772832 -0.0055893995
0.0043337024 0.009602196 -0.0049289386 0.0047115963 -0.0056063677 -0.0056056865 0.0048354496 0.011377378
0.0031730626 0.007843452 0.00025468192 -0.001414158 -0.0039027603 6.0629874e-05 0.006716916 0.0068871127
-0.0014178979 0.0010977879 0.0020950607 0.0036399765 0.00089697196 0.00473521

base.mlp.fc1.0.weight f4 [64, 182]
00000000: e426 f0bd fab0 803d 9018 a5bd c984 08bd
00000010: ec34 7fbe 490f 8cbd 6a42 31bd e6ea 08be
00000020: 23e0 35bd 309b 2c3e 040c 9d3d 0c41 1abe
00000030: 4fca 683d 84f2 583d 5ed2 a03d 65bb 0fbe
00000040: 4eb9 08bc 6b0b 1cbe 0aa9 a63d 4270 20bc
00000050: e145 51be 8420 563e 266f 933c 837d 34be
00000060: 8f71 953d 099d 18be 0694 373e 874f 4cbe
00000070: 53d5 2f3e d1ff 803e 5b6f a9bd 9663 8abc
00000080: 2472 7fbe fd55 17be 2898 8ebd 45eb 03be
00000090: d081 0c3e 00b6 53be 3f9d db3c 1d15 eb3d
000000a0: 169d b6bd 5449 eb3d 3359 a3bc bfc6 b2bd
000000b0: e2f6 f3bd 92a6 923e a7a2 823d d3b1 03be
000000c0: 8d8a d83d 0328 c8bd f888 723d d6ba 35bc
000000d0: 9870 423d ad39 48bd 2eac dc3d 7efe 7abc
000000e0: 6ac9 13be 9c35 433d 5596 093d 16b6 d93c
000000f0: a332 4c3e 1658 debd 6b98 0bbc 337d 753c
00000100: 8167 813e f339 263c a3cf 773d 0d16 1f3d
00000110: 9aac d1bd 8442 c43c 4799 9a3d 6b11 d0bd
00000120: 99c2 3d3d bc4e 8dbd 237d 263d da14 b1bb
00000130: 2b3d 133d 2cdd 583e 303b 37ba ba4d 3dbd
00000140: 9bed edbd f10f d53c a6b0 b63d a8de 84be
00000150: bccd e2bd c16e 203d 8538 cd3b 6ce7 a3bd
00000160: fcdf e73d 8626 763e 94e5 15bc e0b0 a1bd
00000170: fa78 6fbd 7a4a eaba c80f 0f3e ea26 98bd
00000180: 1574 8fbc 21c7 153e ffca c6bc 617e b5bd
00000190: 198d 123d 2f9c a4bc f1fd 48bd 99ad 013e
000001a0: be74 513e 5630 173e 0d4f 4b3e f656 f73d
000001b0: f98d f6bd 7564 9bbe abe9 443e 5c8f d23d
000001c0: 59a6 3d3d 8658 a7bc fe9e 663d 3eca fd3d
000001d0: 5ef2 d5bc be06 5ebe 91cd f03d 0ec7 d33d
000001e0: 50b6 bd3d d947 95bd 2e7c 3cbe 50fc 06bd
000001f0: b3a9 793e faea 313c bcd1 5dbc 50b7 85bb
00000200: c037 88bd d224 67bc fde7 17be 598a cb3d
00000210: 9dac c93d 2ce4 9e3e 2852 a4bd cf75 85bc
00000220: 72bc 23be de62 05be 05fe 923d ba7e 913d
00000230: 2299 d1bb 5c3b 0dbe 0fb8 62be 3605 403d
00000240: eccd 233e f408 dabd 2c20 bdbc b72d 353d
00000250: 7a88 043a f625 afbd 1ce2 b0bd 6f1b 88bd
00000260: cd6a 883d 17e2 40bd 49d5 3fbe 3381 b4bc
00000270: 897b 8e3d 548f bfbd e747 203e 823a c53d
00000280: 182f 0e3d e244 213e 6dff 0abd ff27 933e
00000290: a01b 3d3e 1e4f 3a3e 3e1d 643e 8a0f babd
000002a0: b458 133e f017 79bd 8d4c 7c3e 5b2b 7abe
000002b0: 930d a93d 8a16 57bd c075 3ebd 9860 53be
000002c0: feb3 2f3d de8e b73b b160 b73d e171 133e
000002d0: 2b8b 603d 5925 8bbd 9dfa 5c3d 2e17 be3d
000002e0: aa8f 4bbd a0d6 f63d 2ce5 f53d 5711 033e
000002f0: 6a39 2f3d 8e31 203e 8225 14be add7 ad3d
00000300: c7f5 7cbd c0b8 1a3d fc32 1c3d 7174 1abd
00000310: 2e2b 743d cf9e 1d3e d2c1 f4bd 644e f9bd
00000320: db79 acbe 3fbb e23d 32f1 a0bd 874c f2bd
00000330: 97c8 e7bc 4ebf 3bbc b9a0 65be 49c4 153e
00000340: 6912 803d fd51 8fbd 9380 f43c 5faa 0fbd
00000350: a647 a83d fbef 383d a358 b53d 573e 9e3b
00000360: e11b 083e 81ae a9bd 7d1e 35be 230f 27be
00000370: d3a0 3b3e 680c 49bd 660a 173e aba5 7c3e
00000380: 4fe0 303e 1eea 733d 4958 42be 943c f63c
00000390: fa33 133e a793 7a3d 36f8 2bbc 9d46 7ebd
000003a0: 32a5 cbbd 3e1b 74bd 2d7e bb3d d29e f73d
000003b0: 2479 18be dec0 c8bd eb97 a23b 3061 ae3c
000003c0: cea9 9cbe 4ecc 9a3b 1810 3abd 7b6c 26be
000003d0: 2308 663e 4c14 163e 0e78 7cbd 313e 413e
000003e0: c361 e3bc 527a d33c 7396 4c3e 3cb2 fbbc
000003f0: 76f3 30bd 4999 f3bd 970a 88be 3b80 7abd
-0.11726168 0.062837556 -0.080613256 -0.03332976 -0.24922532 -0.06838853 -0.043276228 -0.13370857
-0.044403207 0.16856074 0.076683074 -0.15063876 0.05683356 0.052965656 0.07852624 -0.14036329
-0.008344961 -0.1523873 0.081377104 -0.009792389 -0.20436813 0.20910841 0.017997336 -0.17626004
0.0729705 -0.14903654 0.1792756 -0.19952212 0.1717122 0.25195172 -0.082731925 -0.01689319
-0.24945885 -0.14778896 -0.06962615 -0.12882717 0.13721395 -0.20674896 0.02680838 0.114786364
-0.089166805 0.114885956 -0.019939994 -0.08729314 -0.119123235 0.28642708 0.0637868 -0.12860803
0.105733015 -0.09773257 0.059212655 -0.011091908 0.04747066 -0.04888313 0.10775028 -0.015319465
-0.14432302 0.047658548 0.033590633 0.026576083 0.19941191 -0.10856645 -0.008520226 0.014983463
0.2527428 0.010145652 0.060500752 0.03883939 -0.10237999 0.023957498 0.075487666 -0.10159572
0.04632816 -0.06899783 0.040646683 -0.005404097 0.035947006 0.2117812 -0.00069897156 -0.046216704
-0.11617585 0.026008578 0.08920412 -0.25951123 -0.11074397 0.039168123 0.006262841 -0.080031246
0.113220185 0.24038133 -0.009148974 -0.07895064 -0.05846498 -0.0017874979 0.13970864 -0.07429297
-0.017511407 0.14626743 -0.024266718 -0.088619955 0.035779092 -0.020094005 -0.049070302 0.12663879
0.2045469 0.14764532 0.19854374 0.12077133 -0.12038798 -0.3035008 0.19229762 0.1028125
0.04630122 -0.020427953 0.05630397 0.1239209 -0.026116546 -0.2168226 0.11757959 0.10340701
0.09263289 -0.072890945 -0.18406746 -0.032955468 0.24381141 0.010859245 -0.013538774 -0.0040806904
-0.066512585 -0.0141079 -0.1483459 0.09938497 0.098473765 0.31033456 -0.080234826 -0.016291527
-0.15989855 -0.13025996 0.07177357 0.07104249 -0.0063964287 -0.13792175 -0.22140525 0.04687997
0.15996522 -0.10646239 -0.02308663 0.04423305 0.0005055737 -0.08552162 -0.08636877 -0.066458575
0.06660996 -0.047090616 -0.18733706 -0.022034263 0.06957156 -0.093535095 0.15652429 0.096303
0.03471288 0.15748933 -0.033935 0.28741452 0.1846757 0.18194243 0.2227678 -0.09084995
0.14389306 -0.060813844 0.24638577 -0.24430601 0.08254542 -0.05251173 -0.046499014 -0.20642316
0.042896263 0.005601748 0.08953989 0.1439891 0.05482022 -0.06794233 0.05394994 0.09281765
-0.049697556 0.12052655 0.12006602 0.12799583 0.042779364 0.15643904 -0.14467433 0.084884025
-0.06175783 0.037773848 0.03813456 -0.037708703 0.05961149 0.15392612 -0.11951031 -0.12173155
-0.33686718 0.110708706 -0.07858504 -0.11831003 -0.02829389 -0.011459185 -0.22424592 0.14625658
0.062535115 -0.0699806 0.029846465 -0.035074588 0.08216791 0.04515074 0.08854797 0.004829209
0.13291885 -0.08285237 -0.17687412 -0.16314368 0.18323068 -0.049084097 0.1475006 0.24672572
0.17273067 0.059549443 -0.1897899 0.030058183 0.14375296 0.06117597 -0.01049619 -0.06207906
-0.09943618 -0.059596293 0.091549255 0.120908394 -0.14889961 -0.098024115 0.0049619577 0.021286577
-0.305983 0.004724062 -0.045425504 -0.1625232 0.22464041 0.1465618 -0.06163793 0.1887138
-0.027756577 0.025815163 0.19979267 -0.030724637 -0.043200932 -0.11894471 -0.2657058 -0.061157446

base.mlp.fc1.0.bias f4 [64]
00000000: 410c c03a ed4b 223b 6312 43bb ab00 423c
00000010: 5a45 04bb 3ff9 4abb 819b 873b be15 823b
00000020: c3e4 a0bb f10d 553b 3edf d939 3430 85ba
00000030: d530 d8ba c37a bf39 d5e7 bcb8 fb63 a73b
00000040: 2c3e b63a e0ae 00bb 4d77 583b da9f c73b
00000050: 0ad9 1d3c 1652 013c b767 9dbb 8305 1a3b
00000060: 071a 9bba b7a5 5d3b a803 c73b d6de 4eba
00000070: 1c26 9dbb 6957 03bb 6a94 7e3a 90f1 f8bb
00000080: 760b 7c3a 92e0 3fbb 21bf 83ba 3f0b 103b
00000090: ec4d 303b 90d4 bbba 57fa 0d3b 9459 713a
000000a0: d255 edbb 02f1 23bb 95db 01bc d90e 36bc
000000b0: 8ce2 113b f091 a43b c250 be3a a072 68bb
000000c0: 5d14 94bb be78 353b a5ae 8d3b 4e53 933a
000000d0: bb50 65ba d32e 7d3b 931a 9e3b 711a 5fbb
000000e0: e9a9 74bb d5cd b3bb 0e5e d7ba ce99 04bc
000000f0: e75f 1bba 4c04 21bb 0155 b8bb 5943 a63b
0.001465209 0.0024764494 -0.0029765598 0.01184098 -0.0020182938 -0.0030971316 0.0041384106 0.003969877
-0.004910083 0.003250953 0.00041555794 -0.001016146 -0.0016494045 0.00036521823 -9.007721e-05 0.005108354
0.0013904027 -0.0019635484 0.0033030093 0.006092054 0.009634266 0.007893106 -0.0048036235 0.002350182
-0.0011833318 0.0033820698 0.006073434 -0.00078914815 -0.0047958028 -0.0020041114 0.00097114465 -0.007597156
0.0009614745 -0.0029278141 -0.0010051468 0.002197936 0.0026901914 -0.0014330316 0.0021664107 0.00092067686
-0.0072428966 -0.0025015478 -0.007925888 -0.011111938 0.0022260277 0.00502228 0.0014519917 -0.0035468712
-0.004519029 0.0027690376 0.0043237978 0.0011240037 -0.00087476865 0.0038632646 0.0048249452 -0.003404286
-0.003733272 -0.0054871836 -0.0016431229 -0.0080933105 -0.00059270713 -0.0024569212 -0.0056253676 0.0050739464

base.mlp.fc1.2.weight f4 [64]
00000000: f6ec 7e3f d337 803f 8e63 803f 2dda 7d3f
00000010: 1557 7e3f 2c0c 7f3f 00ce 7f3f 0721 803f
00000020: 89e7 7f3f 3e88 803f e809 803f 546a 7f3f
00000030: 0e45 7f3f 6272 7f3f c5d4 7f3f acaf 803f
00000040: cca5 7f3f 001d 803f 0108 803f bea3 803f
00000050: c2f5 7e3f 2e8c 7f3f 5c47 803f e8df 7e3f
00000060: 9ef8 803f fc28 803f ac75 7f3f 2d93 803f
00000070: 2279 803f f1e6 7e3f 05e2 7f3f b044 803f
00000080: 6c4f 7f3f 4184 803f ed08 813f 4217 803f
00000090: ee7b 7d3f 035e 803f ec05 803f 11f9 7f3f
000000a0: 2698 803f 0a3e 803f 97e2 7f3f 22d9 803f
000000b0: 0d28 813f 8284 7e3f 3c63 803f a70c 7f3f
000000c0: 382a 803f 5ae3 7f3f dda9 7f3f 8b3a 7f3f
000000d0: 851d 803f 51a0 803f 1473 803f 26b1 7f3f
000000e0: efd5 7e3f 5938 803f 0071 803f 0718 7e3f
000000f0: bc18 7f3f e399 7f3f 6396 803f 8418 803f
0.99580324 1.0017036 1.0030382 0.99161035 0.99351627 0.9962795 0.99923706 1.0010079
0.9996267 1.0041578 1.0003023 0.9977162 0.99714744 0.9978391 0.99934036 1.0053611
0.9986236 1.000885 1.0002443 1.004997 0.99593747 0.9982327 1.0021777 0.99560404
1.0075872 1.0012507 0.9978893 1.0044914 1.0036967 0.9957114 0.99954253 1.0020962
0.99730563 1.0040361 1.0080849 1.0007098 0.99017227 1.002869 1.0001807 0.9998942
1.0046432 1.0018933 0.99955124 1.0066264 1.0090348 0.9942094 1.0030284 0.9962868
1.0012884 0.99956286 0.99868566 0.99698704 1.0009009 1.0048925 1.0035119 0.9987968
0.99545187 1.0017196 1.0034485 0.9925541 0.99647117 0.9984419 1.0045894 1.0007482

base.mlp.fc1.2.bias f4 [64]
00000000: 7519 33bb 70fe 9a3a f221 3dbb c3d9 0b3c
00000010: c9e4 d4bb b5b7 6bbb af07 903b 8152 2d3b
00000020: 3012 69bb a07d 693b 7813 8d39 a3a8 03bb
00000030: 0149 2fbb 8b66 ef3a 137a 973a 4561 c33b
00000040: 17c0 8f3a 473e 90ba acf7 f53a 0dd4 a93b
00000050: 7fe8 fc3b 21b8 a83b 58d7 3cbb 5364 7b3b
00000060: a8a3 febb a31e 933b 1a84 b1ba 846f f23a
00000070: 87dc 5fbb cf9f 86bb acd4 e83a 25f9 94bb
00000080: 2d80 283b 527e 38ba fab0 51ba 2ea8 983a
00000090: d419 98ba 5197 39bb 5642 373a f587 f3b8
000000a0: 3294 a8bb bad6 08bb 1d06 d4bb 1fd1 d8bb
000000b0: a4ac 0a3c 11d2 cf3b b42c 393b faee 69bb
000000c0: 1e22 e3ba a063 d839 a7f3 9b3b eee3 34bb
000000d0: d13b 72ba 0ba0 a93b 9539 633b e713 11bb
000000e0: 2ba9 8dbb b3cb 45bb 9226 52bb a139 efbb
000000f0: 1b68 3dbb 4612 1fbb 29ca 93bb 7078 e93a
-0.0027328406 0.0011825096 -0.0028859344 0.008535805 -0.006497 -0.0035967652 0.004395447 0.0026446881
-0.003556382 0.0035627857 0.0002690812 -0.002008953 -0.0026746395 0.0018264813 0.0011556767 0.005962523
0.0010967281 -0.0011004888 0.0018765829 0.005182749 0.0077181454 0.005148903 -0.0028814878 0.0038359358
-0.007770974 0.004489736 -0.0013543398 0.0018496369 -0.0034158544 -0.004108406 0.0017763576 -0.004546302
0.0025711164 -0.0007037866 -0.0007999089 0.0011646801 -0.0011604377 -0.0028318951 0.0006990781 -0.00011612467
-0.0051446194 -0.002087994 -0.0064704553 -0.006616726 0.008464012 0.0063421805 0.0028255405 -0.003569542
-0.0017328893 0.00041272957 0.00475927 -0.0027601677 -0.0009240481 0.0051765493 0.0034671773 -0.0022137107
-0.004323145 -0.0030181229 -0.0032066447 -0.007300571 -0.0028901163 -0.0024272366 -0.0045101834 0.0017812382

base.mlp.fc_h.0.weight f4 [64, 64]
00000000: 2289 48be 2700 93be fe62 9abe ce18 5d3e
00000010: 3f3d cabe c45e 873d 8610 a23e 46f7 23be
00000020: a945 a93d 2892 aabd c287 f7bc ba01 29bc
00000030: e856 d4bc 89bb f43d 5fa7 143e c5c8 a93e
00000040: 4dbc d4bd e319 903d 8870 cd3d f555 c2bc
00000050: a163 663d 33fc 703d 4629 2c3e 8937 42be
00000060: d40c 843c d7ff 0d3f 2c71 da3d 3fc5 5dbe
00000070: 5604 61be 833f e7ba 786e 08bd 0617 fcbe
00000080: 4ba6 a5bc 5e81 53be 7e0c 0f3d 639c 22be
00000090: adc4 8bbe 5d00 c6be f9e8 60bd e274 083e
000000a0: 6960 073e f906 2d3e fa1b 813d 7489 113d
000000b0: 599e 783d 2415 79be b23a c0be 504c 08bf
000000c0: 4636 04bc ab2c ffbd 5530 86be d902 2a3e
000000d0: e74e 563e 1622 323e 23c5 643b ca20 5ebe
000000e0: 01b5 3abe 65c2 aebe 9f7d acbd 069b 16bd
000000f0: d7ec cdbd 07bf c8bd 0f33 65be 811a 6bbd
00000100: 9350 cebe 7af3 2bbe 77f6 143d 2938 913d
00000110: 55e3 f63e e1ab a5be a539 ba3c 7fa8 c8bc
00000120: f0de 423e e5ab b93d 4efd b13c 4d28 4fbe
00000130: 317f e33d 57a6 663e 5e2b bc3d 4add 92bd
00000140: 836f 01bf 25a7 7e3e f95c 9bbc 49e6 0ebd
00000150: f65d a83e 9d44 48be aed7 d33d ab0d 48bd
00000160: 2995 013d 9996 4d3e 3348 94be 80c7 cebd
00000170: ce93 b6be 2e6e 093e c4e6 a33e 008a 293e
00000180: 20f2 1dbd 60f3 9d3d d07f a1be 4e9e b9bd
00000190: b049 d1be dfb2 dc3d d136 163e 456d 8fbe
000001a0: 7f9d 4fbe 6d40 29be e71a a6bc 20f0 803e
000001b0: 8720 1abe 1af2 cb3c 3914 10be 695f a83d
000001c0: c1b6 7a3e 4d13 a93c bfaa aa3d d050 303e
000001d0: 7fcb 94bd ac71 7a3d 4352 94be 523d 413c
000001e0: 359c fb3c 7db1 ec3c 3d43 1ebd a631 78bd
000001f0: 1287 19be 9b8b 53be 859e ea3e b69d c13e
00000200: b70b 7e3e 6e5d a3be f5e7 b6bd 9f16 a73e
00000210: 47d2 963e 3d9c c33e 12bb 173d 762c 60be
00000220: 42e6 743c 107c d7bc 54d6 d43c 851d a2bd
00000230: 161a 22be d1b3 a7be c0ba 933e 24a3 e0be
00000240: c67b 803d cef7 923e 2eeb 083e cfc0 2d3e
00000250: 2414 24be 7ee2 873e 26d4 193e 96cb d23d
00000260: 337b 94be e3bd 88bd 6c70 f13d 8c01 84bc
00000270: 6944 7f3e 7868 033e 2aa0 da3c 9e99 6fbe
00000280: e18c 93be fcd0 b5bd 93bc 1abe cf1d ac3d
00000290: 0aa1 19be f8b3 0f3e 6744 03be 4d8b 8e3e
000002a0: b0ab 73be 7756 88be 3947 08be d0c8 373d
000002b0: 06d8 8a3e bf67 073d aceb 6abe 684e f8bd
000002c0: 3fed a03c 4780 ad3d 6cc1 493e 7435 7cbd
000002d0: be98 8ebe 7013 b8bd f162 15bf 5f73 5a3c
000002e0: 7e77 1dbd 901f 123e 3c4d 07bd dc61 dbbd
000002f0: 0737 bdbe 63c3 ca3d 403c c43b 3765 a1be
00000300: 1892 61be 2320 ba3c aafe 203e ba21 d93d
00000310: bce7 953d 9bee c63c 8aea 5dbe 687e 623e
00000320: 7937 16bd 36d9 c0bd 272f ca3e 0dad 593e
00000330: d5b6 f1be 2400 6bbd 49f9 103d e519 4f3e
00000340: 3fb2 1d3e f009 e03d 475a db3e 2282 5ebe
00000350: a7db 03be 63e6 89be 2f69 5bbe 9dd8 72be
00000360: 2520 473d 1cc3 7c3e 4633 163e 84d0 7fbd
00000370: c0f6 663e 84b0 683e ceb8 9f3d 4cb6 ffbe
00000380: 7570 52be 1745 9f3d d502 87be 0314 0a3d
00000390: fd3b ba3d fd44 343e c532 713d 1807 11be
000003a0: a5a6 8e3b b5d7 c6bd 14a7 953e 9f9c 0abe
000003b0: 575f b7be f47c d03e 8c6a ab3d b4a6 d23d
000003c0: 9df5 15be c3ff 733e eba5 12be 77cf 313d
000003d0: d901 96bc 3c03 8e3d 5093 f83b 537e 043f
000003e0: 58bf a4be 20f4 11be acda f6bd d531 8c3e
000003f0: f57b c5bd 189f cdbb a6b8 7a3d 6734 173c
-0.19583562 -0.28711054 -0.3015365 0.21591493 -0.39499852 0.06609872 0.3165323 -0.16012296
0.0826524 -0.08328658 -0.030216102 -0.010315353 -0.025920346 0.11949832 0.14516972 0.33160987
-0.10387478 0.070361875 0.10031229 -0.023722628 0.056247357 0.058834266 0.1681262 -0.18966497
0.016119398 0.55468506 0.10666117 -0.21657275 -0.2197431 -0.0017642829 -0.033308476 -0.49236315
-0.020220896 -0.20654818 0.034924023 -0.1587997 -0.2729849 -0.38672152 -0.05490968 0.13325837
0.13220371 0.16897191 0.06304164 0.035531476 0.060697887 -0.24324471 -0.3754478 -0.53241444
-0.00806958 -0.124596916 -0.2620875 0.16602649 0.20928536 0.17395815 0.0034907542 -0.21692196
-0.1823311 -0.34132686 -0.08422398 -0.036768936 -0.10054939 -0.098020606 -0.22382759 -0.057398323
-0.40295848 -0.16792098 0.03636786 0.0709079 0.48220316 -0.32357696 0.022732565 -0.024494408
0.19030356 0.090659894 0.02172723 -0.20230217 0.11108244 0.22524391 0.09187959 -0.07171114
-0.5056078 0.24868448 -0.018965231 -0.034887586 0.32884187 -0.19557424 0.10343872 -0.04884116
0.03163639 0.2007698 -0.28961334 -0.10096645 -0.3565964 0.13420936 0.32011998 0.16556549
-0.038560987 0.07712436 -0.31542826 -0.09063397 -0.40876532 0.107763045 0.14669348 -0.28013054
-0.20274924 -0.16528483 -0.0202765 0.251832 -0.1505147 0.024895716 -0.14070214 0.08221323
0.24483778 0.020639086 0.083333485 0.17218328 -0.07265376 0.061143562 -0.2896901 0.011794405
0.030714134 0.028893227 -0.038638342 -0.060594223 -0.14992931 -0.20658724 0.45824066 0.37815636
0.24809156 -0.3190722 -0.08930961 0.32634446 0.29457304 0.38205138 0.03704364 -0.2189196
0.014947476 -0.026304275 0.025981106 -0.07915787 -0.15830263 -0.32754377 0.28853416 -0.43874466
0.06273608 0.28704685 0.13370964 0.16968082 -0.16023308 0.26539987 0.15022334 0.10292737
-0.29000244 -0.06676843 0.11789021 -0.016114019 0.2492844 0.1283282 0.0266877 -0.23398444
-0.2881842 -0.08877751 -0.15110998 0.08404123 -0.15002838 0.14033496 -0.12819062 0.27840653
-0.23795962 -0.26628467 -0.1330842 0.044869244 0.27117938 0.033057924 -0.22941464 -0.1212433
0.019644378 0.084717326 0.19702691 -0.061574414 -0.27850908 -0.089880824 -0.583541 0.013333171
-0.038444035 0.14269853 -0.03303264 -0.107120246 -0.36956045 0.09900548 0.0059886277 -0.31522533
-0.22028387 0.022720402 0.15722147 0.10602136 0.073195904 0.024283698 -0.21671501 0.22118533
-0.036673997 -0.0941643 0.394891 0.2125742 -0.47209802 -0.05737318 0.035393987 0.20224722
0.15400027 0.109393954 0.42842314 -0.21729329 -0.1287676 -0.26933584 -0.21426843 -0.23715444
0.04861464 0.24683803 0.14667997 -0.062454715 0.22555065 0.22723585 0.077989206 -0.4994377
-0.20550711 0.0777685 -0.26369348 0.03371049 0.09093473 0.17604442 0.05888631 -0.14162862
0.0043533617 -0.097091116 0.29229033 -0.13536309 -0.35814926 0.40720332 0.083699316 0.10285702
-0.14644475 0.23828034 -0.14321105 0.043410745 -0.018311428 0.06934211 0.0075859204 0.51755255
-0.32177234 -0.14253283 -0.12053427 0.2738177 -0.096427836 -0.006275069 0.06121125 0.009228802

base.mlp.fc_h.0.bias f4 [64]
00000000: 0000 0000 0000 0000 0000 0000 0000 0000
00000010: 0000 0000 0000 0000 0000 0000 0000 0000
00000020: 0000 0000 0000 0000 0000 0000 0000 0000
00000030: 0000 0000 0000 0000 0000 0000 0000 0000
00000040: 0000 0000 0000 0000 0000 0000 0000 0000
00000050: 0000 0000 0000 0000 0000 0000 0000 0000
00000060: 0000 0000 0000 0000 0000 0000 0000 0000
00000070: 0000 0000 0000 0000 0000 0000 0000 0000
00000080: 0000 0000 0000 0000 0000 0000 0000 0000
00000090: 0000 0000 0000 0000 0000 0000 0000 0000
000000a0: 0000 0000 0000 0000 0000 0000 0000 0000
000000b0: 0000 0000 0000 0000 0000 0000 0000 0000
000000c0: 0000 0000 0000 0000 0000 0000 0000 0000
000000d0: 0000 0000 0000 0000 0000 0000 0000 0000
000000e0: 0000 0000 0000 0000 0000 0000 0000 0000
000000f0: 0000 0000 0000 0000 0000 0000 0000 0000
0.0 0.0 0.0 0.0 0.0 0.0 0.0 0.0
0.0 0.0 0.0 0.0 0.0 0.0 0.0 0.0
0.0 0.0 0.0 0.0 0.0 0.0 0.0 0.0
0.0 0.0 0.0 0.0 0.0 0.0 0.0 0.0
0.0 0.0 0.0 0.0 0.0 0.0 0.0 0.0
0.0 0.0 0.0 0.0 0.0 0.0 0.0 0.0
0.0 0.0 0.0 0.0 0.0 0.0 0.0 0.0
0.0 0.0 0.0 0.0 0.0 0.0 0.0 0.0

base.mlp.fc_h.2.weight f4 [64]
00000000: 0000 803f 0000 803f 0000 803f 0000 803f
00000010: 0000 803f 0000 803f 0000 803f 0000 803f
00000020: 0000 803f 0000 803f 0000 803f 0000 803f
00000030: 0000 803f 0000 803f 0000 803f 0000 803f
00000040: 0000 803f 0000 803f 0000 803f 0000 803f
00000050: 0000 803f 0000 803f 0000 803f 0000 803f
00000060: 0000 803f 0000 803f 0000 803f 0000 803f
00000070: 0000 803f 0000 803f 0000 803f 0000 803f
00000080: 0000 803f 0000 803f 0000 803f 0000 803f
00000090: 0000 803f 0000 803f 0000 803f 0000 803f
000000a0: 0000 803f 0000 803f 0000 803f 0000 803f
000000b0: 0000 803f 0000 803f 0000 803f 0000 803f
000000c0: 0000 803f 0000 803f 0000 803f 0000 803f
000000d0: 0000 803f 0000 803f 0000 803f 0000 803f
000000e0: 0000 803f 0000 803f 0000 803f 0000 803f
000000f0: 0000 803f 0000 803f 0000 803f 0000 803f
1.0 1.0 1.0 1.0 1.0 1.0 1.0 1.0
1.0 1.0 1.0 1.0 1.0 1.0 1.0 1.0
1.0 1.0 1.0 1.0 1.0 1.0 1.0 1.0
1.0 1.0 1.0 1.0 1.0 1.0 1.0 1.0
1.0 1.0 1.0 1.0 1.0 1.0 1.0 1.0
1.0 1.0 1.0 1.0 1.0 1.0 1.0 1.0
1.0 1.0 1.0 1.0 1.0 1.0 1.0 1.0
1.0 1.0 1.0 1.0 1.0 1.0 1.0 1.0

base.mlp.fc_h.2.bias f4 [64]
00000000: 0000 0000 0000 0000 0000 0000 0000 0000
00000010: 0000 0000 0000 0000 0000 0000 0000 0000
00000020: 0000 0000 0000 0000 0000 0000 0000 0000
00000030: 0000 0000 0000 0000 0000 0000 0000 0000
00000040: 0000 0000 0000 0000 0000 0000 0000 0000
00000050: 0000 0000 0000 0000 0000 0000 0000 0000
00000060: 0000 0000 0000 0000 0000 0000 0000 0000
00000070: 0000 0000 0000 0000 0000 0000 0000 0000
00000080: 0000 0000 0000 0000 0000 0000 0000 0000
00000090: 0000 0000 0000 0000 0000 0000 0000 0000
000000a0: 0000 0000 0000 0000 0000 0000 0000 0000
000000b0: 0000 0000 0000 0000 0000 0000 0000 0000
000000c0: 0000 0000 0000 0000 0000 0000 0000 0000
000000d0: 0000 0000 0000 0000 0000 0000 0000 0000
000000e0: 0000 0000 0000 0000 0000 0000 0000 0000
000000f0: 0000 0000 0000 0000 0000 0000 0000 0000
0.0 0.0 0.0 0.0 0.0 0.0 0.0 0.0
0.0 0.0 0.0 0.0 0.0 0.0 0.0 0.0
0.0 0.0 0.0 0.0 0.0 0.0 0.0 0.0
0.0 0.0 0.0 0.0 0.0 0.0 0.0 0.0
0.0 0.0 0.0 0.0 0.0 0.0 0.0 0.0
0.0 0.0 0.0 0.0 0.0 0.0 0.0 0.0
0.0 0.0 0.0 0.0 0.0 0.0 0.0 0.0
0.0 0.0 0.0 0.0 0.0 0.0 0.0 0.0

base.mlp.fc2.0.0.weight f4 [64, 64]
00000000: d1cb 44be a0a8 92be 1896 9cbe afdc 583e
00000010: d005 c8be d251 903d 4ed7 a13e 1f98 22be
00000020: fd27 ac3d 8d57 a1bd 06e1 d4bc 56cd c1bb
00000030: 4084 b0bc 555d eb3d 05e1 113e b2db ab3e
00000040: bd0f ddbd 27b8 873d bdbe cb3d 8efc a0bc
00000050: 4e88 683d 2f3b 823d d87e 283e 2d43 47be
00000060: 52ea 833c 7148 0e3f 6a4f e43d 9221 5dbe
00000070: bf81 65be 4b07 333b 83da b4bc 0b74 fcbe
00000080: 20e9 c8bc 1c03 58be e004 ed3c 61ec 1fbe
00000090: f05a 8dbe d448 c8be 8cba 60bd baec 0c3e
000000a0: 11d0 033e 899e 283e 9ceb 833d 1d78 fe3c
000000b0: a762 853d 220f 7ebe d6fd bdbe 3626 07bf
000000c0: 38ca 1abc 7d7a 02be bc46 88be 3a8e 2e3e
000000d0: b4eb 513e 84a0 363e 539c 003c 3c1d 5dbe
000000e0: f02d 36be 8ff1 afbe a75e b5bd 5a6f 04bd
000000f0: b99f c3bd d95f c2bd 8199 69be 1666 5dbd
00000100: 2fab d0be c55a 2dbe e9be 2a3d f26d 9c3d
00000110: d833 f43e 6c5e a8be c237 b73c 5c39 e2bc
00000120: f23d 403e 317b b03d fbef 863c 5894 54be
00000130: 3bb7 d83d c037 6c3e 2eb6 c13d 101a 9dbd
00000140: 3921 00bf 1b06 823e 9034 aebc cbdc 23bd
00000150: 18da a73e ee1b 4dbe 109e dd3d 2bf1 31bd
00000160: 3b3e f93c efc1 4d3e bf04 97be 18fb d2bd
00000170: 78b9 b3be 4dfd 033e d1fb 9e3e 100b 2b3e
00000180: 194c 08bd a387 a53d 40f8 9ebe 17af c1bd
00000190: 25ac cfbe c34a e73d 9e37 153e 751e 92be
000001a0: 91a7 4abe d0da 23be 8eab b6bc 0cae 833e
000001b0: cf67 1fbe 1bca f73c 8877 15be 7e82 9d3d
000001c0: 826c 7c3e 3038 cb3c 3340 b33d d8e3 2a3e
000001d0: 21e8 89bd ddf2 643d e902 97be 4cda ef3b
000001e0: 4e14 cf3c d3a0 063d dae9 08bd 67fc 86bd
000001f0: 7153 1fbe 1465 55be 5757 ed3e 7136 bf3e
00000200: 2afe 7d3e 8e7c a3be d1a6 b4bd 14bb a73e
00000210: c03c 963e a604 c33e 7ffb 253d c649 5dbe
00000220: 809e 203c f5c4 d5bc c53f cc3c cf9e a4bd
00000230: 2147 23be 0b07 a7be 2832 953e 4e1a e1be
00000240: c0f6 813d b854 933e 55f7 0a3e 1512 2d3e
00000250: 677d 26be 3206 853e e7a4 193e 1080 d53d
00000260: a76d 95be 559b 8abd f013 ed3d 37b3 78bc
00000270: f975 803e b722 023e e965 7c3c 3c25 6cbe
00000280: 58f5 92be 3975 aabd a666 12be eb43 ad3d
00000290: 0bec 19be aeac 103e a05e 08be 86f6 8d3e
000002a0: 0663 73be b2b7 87be f08e 0bbe d115 3d3d
000002b0: b853 8a3e 8145 133d ce1d 6cbe a10c fbbd
000002c0: 46a0 b93c 4bac ad3d 1e68 4f3e af9c 80bd
000002d0: 3a0c 8ebe 907c babd 41ad 15bf 667f 523c
000002e0: 0104 22bd 68fd 113e 51ad 02bd 74c1 ddbd
000002f0: 1f5f bebe b461 cb3d 5166 e83b 1b38 a1be
00000300: 746c 63be 0142 c53c e53c 233e e8ef dd3d
00000310: 236f 913d 55e1 b43c 36b2 5abe 7a91 633e
00000320: 72ee 1dbd 0315 c3bd c61a c93e bc55 573e
00000330: 05d7 f2be f841 61bd a554 143d 712b 4d3e
00000340: 1796 1f3e 4208 e43d b5a9 db3e 1d5e 60be
00000350: 0899 03be 42f5 8bbe c12f 5abe 5224 70be
00000360: db25 493d 3a38 7d3e 0761 133e 2893 81bd
00000370: 309b 693e 0755 663e e8d4 893d e1b4 ffbe
00000380: 802b 50be ccc4 a53d ba05 84be 78ed 053d
00000390: b465 bd3d 0f75 363e 68f4 6a3d 9844 13be
000003a0: fdb9 bc3b ad2e c2bd c33c 953e 123b 08be
000003b0: dd7e b8be a144 d23e 72e6 a63d 96da cd3d
000003c0: 86a9 15be 6008 753e faed 0fbe 8c8b 283d
000003d0: 7742 84bc fc77 893d da0d b13b 3019 043f
000003e0: e5ea a5be 4421 11be be63 f2bd b206 8b3e
000003f0: 209f cbbd 24f5 03bc 5cd8 813d dd1b 053c
-0.19218375 -0.28644276 -0.30583262 0.21177934 -0.39066935 0.07046856 0.31609577 -0.15878342
0.08406065 -0.07878027 -0.025986206 -0.0059143705 -0.021547437 0.11492411 0.14245994 0.33566052
-0.107940175 0.06626921 0.0994849 -0.019651677 0.056770615 0.063589446 0.16454637 -0.1945922
0.016102944 0.55579287 0.111479595 -0.21594837 -0.22412775 0.002731758 -0.02207685 -0.49307284
-0.024525225 -0.21094936 0.028932989 -0.15617515 -0.27608442 -0.39118063 -0.054865405 0.13762179
0.1287234 0.16466726 0.06441423 0.031063134 0.06512957 -0.2481046 -0.37107724 -0.5279268
-0.009447627 -0.12742038 -0.26616466 0.17046443 0.2050007 0.1783467 0.007849771 -0.21593183
-0.17790961 -0.34363982 -0.08855944 -0.032332756 -0.09551949 -0.09490938 -0.22812463 -0.054052435
-0.40755603 -0.16929157 0.041685972 0.07638158 0.47695804 -0.32884538 0.022365455 -0.027615242
0.1877363 0.08617247 0.016471853 -0.20759714 0.105818234 0.23068142 0.09458576 -0.07670987
-0.50050694 0.25395283 -0.021265298 -0.040005486 0.3278358 -0.20030186 0.10821164 -0.043442886
0.030425182 0.20093511 -0.29495808 -0.103017986 -0.3510244 0.12889595 0.31051496 0.16703439
-0.033275697 0.08082511 -0.31048775 -0.09457224 -0.40561023 0.112935565 0.14571998 -0.28538862
-0.19790484 -0.16001439 -0.0222986 0.25718725 -0.15566944 0.030247739 -0.14596379 0.07690905
0.24650767 0.024807066 0.087524794 0.16688478 -0.06733728 0.055895675 -0.29494408 0.007319724
0.025278237 0.032868218 -0.033426143 -0.06591111 -0.15559174 -0.2083934 0.46355698 0.37346223
0.24803987 -0.31930965 -0.0882088 0.32759917 0.29343224 0.38089484 0.04052305 -0.21610174
0.009803414 -0.026094893 0.024932751 -0.08038103 -0.15945102 -0.3262256 0.2913983 -0.4396538
0.06345892 0.28775573 0.13570912 0.16901429 -0.16258775 0.2598129 0.15004312 0.104248166
-0.2918522 -0.067679085 0.115760684 -0.015179447 0.25090006 0.12708555 0.015405157 -0.23061079
-0.28702807 -0.0832314 -0.1429697 0.0846022 -0.1503145 0.14128372 -0.13317347 0.27727145
-0.23768243 -0.26507336 -0.13628745 0.046163384 0.27016997 0.035954956 -0.23058245 -0.12258268
0.022659432 0.08480128 0.20254561 -0.06279885 -0.27743703 -0.0910579 -0.5846749 0.012847757
-0.0395546 0.14256823 -0.03190357 -0.10827914 -0.37181947 0.09930745 0.007092275 -0.31488118
-0.2220934 0.024079325 0.15941198 0.10836774 0.07101276 0.022080103 -0.21357045 0.22223464
-0.038557477 -0.09525492 0.3927824 0.21028799 -0.47429672 -0.054994553 0.036213536 0.20036103
0.15584598 0.111343876 0.42902914 -0.21910901 -0.12851346 -0.27335554 -0.21307279 -0.23451355
0.049108367 0.2472848 0.14392482 -0.06326896 0.22813106 0.22493373 0.06730062 -0.49942687
-0.20329094 0.08094177 -0.2578562 0.03269717 0.09247914 0.17818092 0.05736199 -0.14381635
0.005759476 -0.09481559 0.2914792 -0.13303784 -0.3603429 0.41067985 0.08149423 0.100514576
-0.1461545 0.23928976 -0.14055625 0.041148707 -0.016144974 0.06712338 0.0054032626 0.51600933
-0.32405773 -0.14172846 -0.118354306 0.27153546 -0.0994246 -0.008054052 0.063400954 0.008124319

base.mlp.fc2.0.0.bias f4 [64]
00000000: f92e 893b 3369 aabb d2b1 75ba a2c6 04bb
00000010: b0e1 133b e698 5b38 50a8 0539 dcfe 573b
00000020: 3acd 1bbb be20 043b 8b10 52bb b6a4 68b8
00000030: e6d1 01bb a89a 823b 2eeb 34bb be1f c4ba
00000040: e8fc 423b e2ca 8a3b d3ad a63a 759d 6f3b
00000050: 018a 06bb 7001 353b 4e54 9a3b 4bfc 8c3a
00000060: d82d 44bb 113a 3f3b 4124 15bb 22b6 1bbb
00000070: 01ea 1d3b acca 5abb 418e 123b e240 b7ba
00000080: 5883 04bb 4ddf a1ba eccb d0ba e034 9cbb
00000090: 117d 3f3b d3d8 4d3b 8d7d af3a 28ec 1ebb
000000a0: 98b6 103b 039e 1fbb fc74 daba 7d06 0c3b
000000b0: 7444 ca39 1242 65b9 617d 1e39 0457 4ab9
000000c0: a746 44bb bec7 b3ba 7e55 0cbb 2145 913b
000000d0: 0a42 7d3b b9b5 9dbb b388 9eb9 7522 12ba
000000e0: c7fe a13b b00d 733b bfd5 10ba 3654 243b
000000f0: 159f a73b eee2 3d3b 8b13 72bb 4f9b 50bb
0.004186508 -0.005200529 -0.00093725056 -0.0020259996 0.002256494 5.2356067e-05 0.0001274657 0.0032958305
-0.0023773448 0.0020161117 -0.0032053317 -5.546651e-05 -0.0019808947 0.0039857216 -0.0027605998 -0.0014963073
0.0029752795 0.0042356113 0.0012716599 0.0036562358 -0.0020529034 0.0027619265 0.004709757 0.0010756342
-0.0029934552 0.0029178897 -0.0022757205 -0.0023759683 0.0024095776 -0.0033384962 0.0022362622 -0.0013981129
-0.0020219889 -0.0012349874 -0.0015929914 -0.0047670454 0.0029218832 0.0031409755 0.0013388857 -0.0024249647
0.002208149 -0.0024355657 -0.0016666944 0.0021366172 0.00038579444 -0.00021863755 0.00015114761 -0.00019296637
-0.0029949339 -0.0013716144 -0.0021413262 0.0044332896 0.0038644099 -0.004812923 -0.00030237957 -0.00055745925
0.004943702 0.0037087016 -0.0005525015 0.0025074608 0.0051153996 0.0028974372 -0.0036937918 -0.0031830852

base.mlp.fc2.0.2.weight f4 [64]
00000000: 262c 803f 1540 803f 6af6 7f3f 18f2 7f3f
00000010: bd2f 803f 6363 7f3f 0659 7f3f ab44 803f
00000020: 6176 7f3f c750 803f ea93 803f d458 803f
00000030: d0f7 7f3f 51ac 7f3f 8922 803f 7c32 7f3f
00000040: adfc 7e3f 2beb 7f3f 068d 7f3f d848 803f
00000050: 67a4 7f3f 4a63 7f3f 5c2c 803f 9858 7f3f
00000060: 18a9 7f3f 8ab6 7f3f da09 803f bd6b 7f3f
00000070: 505b 7f3f 6066 7f3f 885d 7f3f 474f 7f3f
00000080: ed51 803f fb6c 7f3f 8054 803f 5f2d 803f
00000090: 084c 803f 40aa 7f3f 39b9 7f3f 8c9d 803f
000000a0: da80 803f 94ce 7f3f 087c 803f 8f59 7f3f
000000b0: 1d28 803f ea34 7f3f 0328 803f c2d3 7e3f
000000c0: 4db6 7c3f f477 803f cf76 803f 8969 803f
000000d0: a5d2 7e3f 407d 7f3f 4980 803f 8e53 7f3f
000000e0: 594a 803f 263b 803f 9453 7e3f e88c 7e3f
000000f0: 4709 803f ba19 803f ed59 7f3f bbff 7e3f
1.0013473 1.0019556 0.99985373 0.9997878 1.0014569 0.9976103 0.99745214 1.0020956
0.99790007 1.0024651 1.004514 1.0027108 0.99987507 0.9987231 1.0010539 0.9968641
0.996043 0.9996821 0.9982456 1.002223 0.99860233 0.9976088 1.0013537 0.9974456
0.9986739 0.9988791 1.0003006 0.9977377 0.99748707 0.99765587 0.9975209 0.9973034
1.0025002 0.99775666 1.0025787 1.0013846 1.0023203 0.99869156 0.99892 1.004808
1.0039322 0.9992459 1.0037851 0.9974603 1.0012242 0.99690115 1.0012211 0.99541867
0.9871567 1.0036607 1.0036258 1.0032207 0.9954017 0.9980049 1.003915 0.9973687
1.0022689 1.0018051 0.9934628 0.99433756 1.0002831 1.0007851 0.9974659 0.99608964

base.mlp.fc2.0.2.bias f4 [64]
00000000: b63c 1d3b ec75 1abb 1603 1dbb 2004 1abb
00000010: b1ab 1c3b e3f4 1dbb 8268 1dbb 282d 1b3b
00000020: 733d 1fbb 29e0 1b3b 0802 1bbb 617f 1bbb
00000030: cdeb 17bb 2db9 123b 53ab 1bbb b3ae 1e3b
00000040: f82e 1fbb f514 213b bfab 1c3b 5816 193b
00000050: 5bb6 333b 22d0 1e3b c3b1 183b 81aa 1e3b
00000060: 8e35 343b a605 1c3b d614 1dbb dbf3 1ebb
00000070: cd0d 22bb 2f9e 1dbb 413e 20bb 8283 1f3b
00000080: 172a 1bbb 3b5a 21bb fc9c 1a3b 5be5 1bbb
00000090: 705b 1b3b 55a2 1d3b 346c 1d3b 3e23 1cbb
000000a0: c842 273b a069 1dbb 2126 18bb 1da3 1d3b
000000b0: cde4 1abb 983d 203b 6ced 1c3b ad77 1d3b
000000c0: 992b 1cbb 2aba 1bbb 318d 1dbb 952d 1cbb
000000d0: 7ff3 023b 9058 1bbb 73bd 1bbb 6e30 1e3b
000000e0: edd4 163b 635f 1a3b fa22 1dbb 6a74 1d3b
000000f0: b1ee 1b3b 015f 183b 3928 1ebb 6ee8 1bbb
0.0023992485 -0.0023568822 -0.0023958138 -0.0023500994 0.0023906047 -0.0024102263 -0.002401859 0.0023678038
-0.0024298101 0.0023784733 -0.0023652334 -0.0023727047 -0.002318132 0.0022388205 -0.002375324 0.0024213016
-0.002428947 0.0024579142 0.002390608 0.0023359265 0.0027421925 0.0024232944 0.0023299314 0.0024210515
0.0027497741 0.0023807078 -0.0023968718 -0.0024254236 -0.0024727464 -0.0024050584 -0.0024451169 0.002433986
-0.002367621 -0.0024620432 0.0023592105 -0.002378783 0.0023705624 0.0024053056 0.0024020793 -0.0023824717
0.0025521982 -0.0024019256 -0.0023216086 0.0024053522 -0.002363491 0.0024450775 0.0023945225 0.002402763
-0.0023829697 -0.0023762085 -0.0024040455 -0.002383088 0.001998156 -0.002370391 -0.0023764044 0.0024137753
0.0023015097 0.002355539 -0.0023977146 0.0024025687 0.0023793394 0.0023249986 -0.0024132861 -0.0023789662

v_out.weight f4 [1, 64]
00000000: 36b5 873e 15cb 93bd 2f82 65bd 8bfa 1fbd
00000010: 9090 3b3e 2758 1ebe fdfb 9fbe ef86 db3d
00000020: 48ee a5bd 9ffb 443e 1ebb 1ebd e3f2 fabd
00000030: a881 96bc 2835 a33c f3f8 debd 3250 af3d
00000040: 8505 62bd f546 143d 5d7b 9f3d e5fa 423d
00000050: 6907 a23b b346 ae3d 1fd3 193d d5eb bd3d
00000060: 7c21 a13b 5ab9 e93d 5bf1 15be f5c7 93bd
00000070: 44ac f5bc 7f37 6dbe bf00 3dbd ce61 783d
00000080: 3848 d0bd 033e 16bd b719 9c3d 5066 59be
00000090: f183 dd3d cc55 153e 8dc9 c53d 1dc0 9dbd
000000a0: eee9 ca3c 04a2 1dbe bac4 21bd 40d7 6a3e
000000b0: a22d 56bd 2d5e 3a3d ee4b 443d 08bf 463e
000000c0: ac22 6fbe 494b b9bd c78d 27be 564e 58be
000000d0: 31c8 593b 05ab f4bd 37d5 02be 1ec2 023e
000000e0: ff6b f63c cc21 7c3d 5420 fabd 746f 433e
000000f0: 1070 2d3e 89c7 f23c d3c2 f0bd ded3 05be
0.2650544 -0.07216469 -0.056032356 -0.039057296 0.18316865 -0.15463315 -0.3124694 0.10719096
-0.08102089 0.19236611 -0.038752668 -0.12253358 -0.018372372 0.019922808 -0.10887327 0.08560218
-0.055181045 0.036200482 0.077872016 0.047602553 0.004944731 0.085095786 0.037554856 0.09273497
0.0049173217 0.11412306 -0.14642851 -0.07215873 -0.02998937 -0.23165701 -0.04614329 0.06064015
-0.10170025 -0.036680233 0.07622092 -0.21230435 0.108161815 0.1458351 0.096575834 -0.07702658
0.02476975 -0.15393835 -0.039494254 0.22933674 -0.052289613 0.04549997 0.047923975 0.1940881
-0.2335307 -0.09047563 -0.16362678 -0.21123633 0.0033230896 -0.11946682 -0.12776648 0.12769362
0.030080793 0.06155567 -0.12213197 0.19085485 0.1693728 0.029636161 -0.1175591 -0.13069102
