results/MyEnv/MyEnv/mappo/check/run5/models/critic_agent0.pt (torch, 48670 bytes, 15 tensors)

base.feature_norm.weight f4 [28]
000000 b8 3e 90 3f f9 a7 7a 3f 58 ee 6f 3f b3 47 7f 3f
       1.126914 0.97912556 0.9372306 0.9971878
000010 7f a8 7a 3f 11 97 77 3f c0 85 71 3f 7c 6d 71 3f
       0.97913355 0.96714884 0.9434471 0.94307685
000020 97 57 84 3f fb 25 81 3f a1 8f 76 3f 8b 2b 77 3f
       1.033923 1.0089716 0.9631291 0.96550816
000030 a1 7a 76 3f c0 d5 5d 3f 88 1d 87 3f 94 54 82 3f
       0.96280867 0.8665428 1.0555887 1.0182061
000040 db fc 75 3f b9 a0 74 3f 6c 4a 85 3f e9 f9 83 3f
       0.9608895 0.95557743 1.0413337 1.0310642
000050 ca ec 78 3f 19 2c 83 3f 1d 94 75 3f 3b f7 73 3f
       0.9723631 1.0247833 0.9592913 0.9529912
000060 fa 1a 79 3f b8 ad 84 3f 04 d9 78 3f d8 7e 7c 3f
       0.9730679 1.0365515 0.9720614 0.9863105

base.feature_norm.bias f4 [28]
000000 05 38 2b be 12 1b 79 3c d6 50 f0 3d 76 ca d1 3c
       -0.16720589 0.015204208 0.11734168 0.025609236
000010 ff 74 f3 3b 8a f5 da bb ce 7b ff bc a4 95 e2 b9
       0.0074297185 -0.0066821026 -0.031186964 -0.0004321757
000020 05 bc f5 bc 86 61 35 bd bb ff 0e bd 75 87 99 3c
       -0.029996881 -0.04428246 -0.034911852 0.018741349
000030 3e 4e 81 bd 2d c1 09 bd 5c 8a 08 bc c6 37 25 3d
       -0.06313752 -0.033631492 -0.008333769 0.040336393
000040 93 bc 34 3d cb 87 80 bb 62 17 76 bc 87 57 08 bd
       0.04412515 -0.003922438 -0.015020223 -0.033286598
000050 4d 8a a1 3c 56 1f 71 bc dc 9f e5 3c ae d3 21 3c
       0.019719267 -0.014716944 0.028030328 0.0098771285
000060 4d 11 2e 3b d9 d7 0d bd 3b 51 04 bd 51 b6 c1 bb
       0.0026560605 -0.034629676 -0.03230403 -0.0059116264

base.mlp.fc1.0.weight f4 [64, 28]
000000 cf e2 2e 3e 81 4f 85 3d a1 13 5b 3d 57 28 fc 3c
       0.17078708 0.06509305 0.053485516 0.030780954
000010 89 2a 03 3e 47 ed b0 3d 1f a2 23 be 50 e8 85 bc
       0.12809195 0.08639007 -0.15979813 -0.016346127
000020 95 4c bd 3c 71 82 86 bb 1d fa de bd b2 d8 ad 3e
       0.023107806 -0.0041049053 -0.10887549 0.33954388
000030 9f c3 83 3c db 76 4b be e1 bf 0c 3e 49 4d 47 3e
       0.01608449 -0.19869559 0.13745071 0.19463076
000040 bc a3 bd bc e1 eb 8f 3e 90 ec 8f 3d 9e 2c 8b bd
       -0.023149364 0.2810965 0.070275426 -0.067956194
000050 f6 eb 16 be 3e 4a 5b 3c ed 6e 9b be c6 5b 95 bc
       -0.1473845 0.0133844 -0.30358067 -0.018232238
000060 93 49 92 3c bc e7 4d 3e d3 81 0b be 35 57 d8 3d
       0.017857349 0.20107931 -0.13623743 0.105635084
000070 34 71 4f 3e 9f aa 11 3d e0 4a 90 bc 37 56 df bd
       0.20258027 0.035563108 -0.017613828 -0.10905116
000080 1e 99 dd 3e 09 6f 76 3e a9 53 c8 3e f5 3e bf 3e
       0.43280882 0.24065794 0.39126328 0.3735272
000090 19 4b 27 3a 18 b2 54 be 08 67 be bc 7f 3b d7 bd
       0.0006381735 -0.20771062 -0.023242489 -0.10509395
0000a0 4b 6a 26 be 93 ab f4 3d e7 c7 21 3e 1d d3 a4 bd
       -0.16251485 0.11946788 0.15798913 -0.08048079
0000b0 57 24 4f be 05 4a 4c be fe c1 f9 be 54 aa 00 be
       -0.20228706 -0.19950111 -0.48780817 -0.12564975
0000c0 a8 ba a4 be 08 70 9a be 81 62 fa bd 90 92 94 3e
       -0.32173657 -0.30163598 -0.122258194 0.29018068
0000d0 f6 89 1f 3e 52 67 c2 bd 5e 89 5f be 16 b0 a2 be
       0.15579972 -0.09492363 -0.21829745 -0.31774968
0000e0 32 4e 99 3d 38 de 2c 3e 7c 8f ac 3c b5 ef 59 bd
       0.07485618 0.16881645 0.021064512 -0.053207118
0000f0 98 92 47 bd 6e 31 63 bc 6f 38 06 bc 2b 55 8f 3d
       -0.048723787 -0.013866765 -0.008192166 0.069986664
000100 02 2f 02 3e 4a 77 f1 3d b8 61 fd bd 0b bf 67 3d
       0.12713245 0.11790331 -0.12372154 0.056578677
000110 3c 98 a4 3e 0e 3d 90 3e 92 ae d1 bd 60 bd e3 3d
       0.32147396 0.2817158 -0.10238375 0.11120105
000120 c9 86 9d 3d 46 68 80 bc f2 cc 3c 3e c0 b0 51 be
       0.07691724 -0.015674721 0.18437555 -0.20477581
000130 ca dc 30 3b d7 0f ec bd bb db 04 be 73 d2 f2 3d
       0.002698707 -0.11526459 -0.12974446 0.11856546
000140 d0 be 3e 3c 2f 78 ac 3a 0c 85 d7 3b 09 d9 b9 bb
       0.011642173 0.0013158376 0.0065771397 -0.0056716246
000150 d2 30 af 3e 0f 81 68 bd 46 0b 76 bd e6 68 df be
       0.34216934 -0.056763705 -0.060069345 -0.4363472
000160 14 b2 4f be 29 c4 6d bd 0a bf 31 be a6 29 f2 3d
       -0.20282775 -0.0580484 -0.17358032 0.1182435
000170 08 c1 5f be 7a bc 6b be 24 45 c5 3c d4 b8 1e 3d
       -0.2185098 -0.23021117 0.02408082 0.038750485
000180 3c ad 40 be 35 3a 3d 3e 45 96 ef bd d9 5c e2 3d
       -0.18816084 0.18479235 -0.116985835 0.110528655
000190 52 1e 7d 3d 44 58 96 bd a1 e3 84 3e ca b4 75 3e
       0.061796494 -0.07341054 0.25954917 0.23994747
0001a0 e0 76 29 3e 2b de 19 be ed 5a ca bc c9 63 4e 3d
       0.16549253 -0.15026157 -0.02470156 0.05038813
0001b0 33 8d 4e 3e 5d 42 00 bd e1 81 8c 3c 0f 7a cc 3e
       0.2017105 -0.03131329 0.017151775 0.39936873
0001c0 49 07 04 be 7f f3 82 bc 0f 41 2c be 26 a3 9d bd
       -0.12893404 -0.015985249 -0.16821693 -0.07697134
0001d0 61 89 c7 bd d0 55 1f be 9a f8 3c 3e ed 3d f2 be
       -0.09743 -0.15560079 0.18454209 -0.4731287
0001e0 47 d5 96 bd cf 36 fb 3d e2 b1 96 3d 52 0f 3d be
       -0.07364898 0.12266313 0.07358147 -0.18462875
0001f0 9b ba a9 be 0c 54 4a bd 08 d8 86 3d dd ad 92 3e
       -0.3315018 -0.04939656 0.065841734 0.28648272
000200 9d 10 13 bb dd 7c c8 bd 3d b8 9e 3c 39 d9 95 bd
       -0.0022440322 -0.09789441 0.019374961 -0.073168226
000210 76 a6 5d be 2f 34 52 3b fa 25 85 bd ed 8d 3c be
       -0.21645531 0.003207456 -0.06501384 -0.18413515
000220 91 f0 22 3e 19 1d f4 bd a1 79 01 be 2d b4 42 3b
       0.15912081 -0.119196124 -0.12644054 0.0029709444
000230 a7 02 b8 3d 25 21 a9 bd bd dc af bd d3 2f c2 bc
       0.08984881 -0.08258275 -0.08587024 -0.023704445
000240 15 12 36 3d 61 27 c1 bd 48 f8 ce 3d 33 78 b6 bd
       0.044450838 -0.09431339 0.1010595 -0.08909645
000250 a0 40 84 3e b2 7e a4 be 59 4f 57 3e 29 0d 8f 3d
       0.25830555 -0.3212791 0.21026362 0.06984932
000260 7c 09 03 bd c8 1d 48 be 6c f4 8f bd 91 ae 14 3e
       -0.031991467 -0.1954261 -0.07029042 0.14519717
000270 64 e0 85 bd cd 4a a8 be 9b 3a 2e 3d 2c fe a4 be
       -0.0653694 -0.32869568 0.04253636 -0.32225168
000280 3f 95 91 3e 48 fb 86 bd 92 bd df 3d 17 ae 23 3e
       0.28434178 -0.06590897 0.109248295 0.15984379
000290 cf 52 a9 bc 06 ad 79 be 60 3a 1e 3d 08 c9 fd bc
       -0.020669369 -0.2438241 0.03862989 -0.030979648
0002a0 52 d0 2d be c7 b0 3c 3e 72 bd ab bd ca 10 0c 3e
       -0.16973999 0.1842681 -0.08385743 0.1367828
0002b0 14 9e 56 3d 8f ac 3e bb a0 de ed bc 5d 0d 25 bd
       0.05239685 -0.0029094552 -0.02903682 -0.040295947
0002c0 66 82 92 3d e7 af 61 3d dc c5 b9 bd a0 c5 21 be
       0.07153778 0.055099394 -0.09070942 -0.15798044
0002d0 8c 99 c8 3d 08 9f d2 bd fa 50 90 3d c9 55 9b be
       0.09794912 -0.10284239 0.07046695 -0.30338886
0002e0 40 0d d0 3d 88 8a 4f bd 12 64 4f 3c 21 6e 5f 3d
       0.10158777 -0.050669223 0.012658136 0.054548386
0002f0 aa bb 90 be a9 9d 57 bd 09 7e 9c bd b1 3e 6d be
       -0.28268176 -0.05264059 -0.07641227 -0.23168446
000300 c1 48 21 3e da 18 bc 3d b6 87 82 be ef b2 75 3c
       0.1575041 0.091844276 -0.25494164 0.014996274
000310 e8 f7 9e 3e b7 fa dc bd bc 4d 37 bd 51 aa d5 3e
       0.31048512 -0.107900076 -0.044751868 0.41731504
000320 8e 41 ee bd ae 51 18 be 85 f4 ba bd 31 f5 89 bd
       -0.11633597 -0.14874908 -0.0912867 -0.0673622
000330 f9 69 d5 3d cb 93 96 be 79 b8 42 be 6b 72 18 bd
       0.10420603 -0.29409632 -0.19015683 -0.037218492
000340 71 81 8f 3e d3 47 2e be 84 f9 25 be d2 ee 09 3e
       0.28028443 -0.17019586 -0.16208464 0.13470009
000350 58 18 15 be c0 5e 58 be aa a8 a5 be a3 42 40 3e
       -0.14560068 -0.21129894 -0.32355243 0.1877542
000360 99 94 15 bb 26 79 c6 3d c2 9c e5 3d 42 1c 5a be
       -0.0022824167 0.09691076 0.1121154 -0.21299842
000370 7c 87 0b 3e e2 63 09 3f 0d 83 ff 3c 86 05 3e 3c
       0.13625902 0.53668034 0.03119042 0.011597997
000380 e0 1d 60 be 41 1b b7 3e 4f 3d 90 bd 37 18 25 3e
       -0.21886396 0.3576298 -0.07042944 0.16122518
000390 f2 fa 79 3d fc ad 06 3e 24 58 24 be b9 79 85 3d
       0.061030336 0.13152307 -0.16049248 0.065173574
0003a0 21 90 d4 be 49 18 31 be 04 04 ae 3d f0 6d 9d 3e
       -0.41516212 -0.1729442 0.0849686 0.30747938
0003b0 f9 7b 51 3e a5 fb 85 39 a7 f0 30 3d 65 03 44 be
       0.20457448 0.00025555227 0.043198254 -0.1914192
0003c0 f6 0c 3f bd 33 73 9e 3d 0e 36 9a be ed 17 86 3e
       -0.04664322 0.07736816 -0.30119365 0.2619013
0003d0 2a b6 bb 3d 05 a0 8b be c8 bb d0 be bf 45 1a 3e
       0.091656044 -0.27270523 -0.40768266 0.15065669
0003e0 50 ef ab be ab 6c 2c 3e 18 4c 52 bb dd 84 94 3d
       -0.33581018 0.16838329 -0.0032088812 0.07251904
0003f0 9e ed cf be d5 06 c5 3e f9 2e 33 3e 4d 85 a5 3d
       -0.40610975 0.38481775 0.17498387 0.08082066

base.mlp.fc1.0.bias f4 [64]
000000 ee 4b 8f bd 1d 95 1f 3b 22 f3 b0 bd ac 06 17 3d
       -0.06996904 0.0024350353 -0.08640124 0.036871597
000010 f6 a7 8a bc 27 24 f9 3c 5e b0 ba bc 0b 3b 64 3d
       -0.016925793 0.030412747 -0.022789177 0.05572037
000020 bd 59 f2 3c 33 66 b5 3d d9 89 f5 bb 6b 2d c2 bc
       0.029583806 0.088573836 -0.0074932394 -0.023703298
000030 9b 82 51 bd fa 63 1f bd 36 75 fb bc 28 66 e3 bc
       -0.051149946 -0.038913704 -0.030695539 -0.027758673
000040 22 fa d0 3b 00 81 97 3d d5 fa 7e 3d 0b 74 b2 bc
       0.0063774744 0.07397652 0.06225093 -0.02178385
000050 ec f8 10 3d 61 8e dd bc 00 a3 ae 3d f9 1e 13 3c
       0.03539364 -0.02704543 0.085271835 0.008979552
000060 a6 58 1f bd 53 67 23 3d 01 1f 93 3c 7b 89 84 bd
       -0.0389029 0.03989346 0.01795912 -0.06471535
000070 88 56 26 3e d3 12 29 bc 61 2b fd bc 4a 70 90 bd
       0.16243947 -0.010319429 -0.030904474 -0.070526674
000080 9f 50 0b bd 5e 70 db 3c a4 4c 26 bd b6 dd b3 3d
       -0.034012433 0.02678698 -0.040600434 0.087825224
000090 1c d4 9e 3c 57 5c b9 bc 46 7b 0f bb 0c 99 14 3d
       0.019388251 -0.022627039 -0.0021893545 0.03627877
0000a0 7f 66 6b 3c c6 c7 26 3d ea a5 0d 3c 50 f8 a6 3c
       0.014367699 0.040717863 0.008645514 0.020382077
0000b0 21 5b 5a 3e 17 63 b0 3c 05 4e cd 3d c7 74 af 3d
       0.21323825 0.021531625 0.10024647 0.085671954
0000c0 a1 24 0c bd 7d 21 12 bd b7 6e 67 3d 1f ae 86 3c
       -0.03421462 -0.03567647 0.05650207 0.01644045
0000d0 6f d0 9f bc 1f ec 95 3c 31 40 9b bc 3c 77 da 3c
       -0.019508569 0.018301068 -0.018951507 0.026668184
0000e0 33 be 21 3d b3 7e 16 bd ad 26 15 3d ad f4 8a bc
       0.03948803 -0.036741924 0.036413837 -0.016962374
0000f0 08 6f 2a bd 9a ce f1 3c 3e 8d 60 3d 63 60 c0 3c
       -0.041609794 0.02951746 0.0548222 0.02348346

base.mlp.fc1.2.weight f4 [64]
000000 d6 01 82 3f db 23 80 3f 72 8f 8d 3f 05 21 84 3f
       1.015681 1.0010942 1.1059401 1.0322577
000010 a3 35 72 3f 04 a0 83 3f f3 26 82 3f c4 e8 82 3f
       0.94613093 1.0283208 1.0168136 1.0227284
000020 8a 20 7c 3f 0e 21 88 3f 72 da 79 3f c1 18 81 3f
       0.9848715 1.0635087 0.97598946 1.0085679
000030 d0 74 84 3f 1b 82 84 3f 50 48 81 3f 18 3e 83 3f
       1.0348148 1.0352205 1.0100193 1.0253325
000040 ee 47 7d 3f e3 16 80 3f 3d e8 85 3f 30 27 81 3f
       0.9893788 1.0006984 1.0461498 1.0090084
000050 3a 1e 80 3f 24 93 7b 3f a6 24 8d 3f de 3d 79 3f
       1.0009224 0.98271394 1.1026809 0.97360027
000060 85 a8 80 3f 2f 7f 75 3f ce 75 75 3f 45 0c 87 3f
       1.0051428 0.9589719 0.9588288 1.0550619
000070 d4 26 86 3f b3 17 83 3f 04 bb 8a 3f ee 80 81 3f
       1.0480599 1.0241607 1.0838323 1.0117471
000080 f2 d4 78 3f 25 cc 75 3f 41 4c 8a 3f 66 d7 86 3f
       0.9719993 0.96014625 1.0804521 1.0534484
000090 74 37 79 3f 53 14 79 3f 6e 46 78 3f a4 98 80 3f
       0.9735024 0.9729664 0.9698247 1.0046582
0000a0 b1 7b 6a 3f 3e b9 82 3f 22 ef 72 3f 21 b3 84 3f
       0.9159499 1.0212781 0.9489614 1.0367166
0000b0 7d 8c 7b 3f e3 34 81 3f a8 de 79 3f 76 f2 79 3f
       0.98261243 1.0094265 0.9760537 0.9763559
0000c0 06 16 79 3f 4e 67 83 3f 12 1f 82 3f 55 a1 75 3f
       0.9729923 1.0265901 1.0165732 0.959493
0000d0 09 e7 75 3f 30 e2 83 3f 97 7f 7d 3f b8 3c 78 3f
       0.96055657 1.0303402 0.9902281 0.9696765
0000e0 e5 a0 7b 3f 83 27 76 3f 10 50 78 3f 50 80 7b 3f
       0.9829238 0.9615404 0.96997166 0.98242664
0000f0 0f a3 7e 3f c9 62 88 3f 68 63 84 3f 81 20 77 3f
       0.9946756 1.0655147 1.0342836 0.9653397

base.mlp.fc1.2.bias f4 [64]
000000 3e f2 97 bd 26 08 74 b9 ec 51 f6 bd 36 0b 00 3d
       -0.07419251 -0.00023272689 -0.12027344 0.03126069
000010 c7 ab 84 bc 52 c9 b9 3c 98 0e da bc 71 1a 4a 3d
       -0.016195191 0.022679005 -0.026618287 0.049341623
000020 ee 54 fe 3c bb ac 8e 3d 96 16 f5 bb 9d 2d c9 bc
       0.031046357 0.069665395 -0.007479499 -0.024557883
000030 68 4c 82 bd 2c 53 40 bd ce 34 12 bd e3 b8 48 bd
       -0.063622296 -0.04695432 -0.03569489 -0.049004447
000040 5d ba 7d 3c 9b c5 69 3d e1 36 4c 3d 43 bd 9c bc
       0.015486327 0.057073217 0.049857024 -0.019133216
000050 a0 d4 11 3d 7a 14 60 bc 5e 04 28 3d ad d0 4a 3c
       0.035603166 -0.013676757 0.04101979 0.012378854
000060 5b 75 b5 bd 85 26 e8 3c cb a2 a3 3c 2b 2e a5 bd
       -0.088602744 0.02833868 0.019975087 -0.080654465
000070 6f 15 1f 3e d4 84 97 bc 48 9e 3d bd 89 2a 11 be
       0.1553552 -0.018495955 -0.046293527 -0.14176382
000080 9a bf f3 bc 52 24 72 3c b3 19 7e bd 60 7b 5d 3d
       -0.029754449 0.014779167 -0.062036227 0.054072738
000090 cb a6 89 3c c1 02 d0 bc bf f7 b9 ba 72 11 f1 3c
       0.016803166 -0.025391938 -0.0014188214 0.029427264
0000a0 a6 f2 98 3c 43 a3 11 3d 6e e6 a0 3c 62 57 0a bd
       0.018670391 0.03555609 0.019641127 -0.03377474
0000b0 d4 c6 cb 3d da 46 9a 3c d3 4c e3 3d c0 ed 2e 3d
       0.09950033 0.018832613 0.110986374 0.042707205
0000c0 15 3a 17 bd a2 0b f8 bc f4 2f 5a 3d 75 a6 85 3c
       -0.036920626 -0.030278984 0.053268388 0.016314724
0000d0 19 22 bb bc 5e 60 be 3b 41 1f e8 bc 56 b4 f4 3c
       -0.022843407 0.0058098277 -0.028335216 0.029871147
0000e0 68 71 f6 3c 25 77 3f bd c6 0d 11 3d e4 b3 02 bd
       0.030083373 -0.046744484 0.035413526 -0.03190984
0000f0 86 bc 19 bd 73 67 97 3c 1f 1e 27 3d 56 60 f0 3c
       -0.037533306 0.018481946 0.04080021 0.029342812

base.mlp.fc_h.0.weight f4 [64, 64]
000000 e9 4d 03 3d 2a 18 00 3c ef 44 86 3d 94 ed d4 3e
       0.032056723 0.007818261 0.06556117 0.41587508
000010 3a 5a 84 3d 51 05 c3 be 77 a9 e9 3d 7a 3e b3 3d
       0.06462522 -0.38089994 0.11409276 0.08752151
000020 ee d0 54 3d 70 42 9d 3d 0c d0 01 3e 79 32 5c be
       0.051957063 0.076786876 0.1267702 -0.21503629
000030 47 57 8a 3d 4e e5 58 3e 2a a2 90 3e 79 89 a9 be
       0.06754928 0.21181223 0.2824872 -0.33112696
000040 07 4d 5a be 94 74 a9 3c df 20 75 bd 46 8b a2 3d
       -0.21318446 0.020685472 -0.0598458 0.079367206
000050 56 ea 52 bd 56 3b 86 3e 63 b3 a1 bd 92 90 e3 be
       -0.05149301 0.26217145 -0.078955434 -0.44446236
000060 eb b4 53 3e ef 13 8e be c2 51 1d 3e 20 ea 68 be
       0.20674483 -0.27749583 0.1536322 -0.22745562
000070 92 d2 bc 3e ea 86 e3 3c 4e 9d 2d be 98 1c 9f bd
       0.36879402 0.027774293 -0.16954538 -0.07769126
000080 63 c8 cd bd ca 11 df bd 8e 8e 8f 3e 81 56 db bd
       -0.10047986 -0.10892065 0.28038448 -0.10709859
000090 8e 03 83 3d bb 92 fa 3c c8 a0 d1 3d b2 76 88 3b
       0.063971624 0.030587545 0.10235745 0.00416454
0000a0 42 8c 94 bd ba 2a 93 bd a9 5f 83 3d 61 ab ba bc
       -0.072533146 -0.07185884 0.0641473 -0.022786798
0000b0 ea cb e8 bd 60 97 44 3e 9e 03 07 3d 78 4f 8d 3d
       -0.113670185 0.1919837 0.032962434 0.06899923
0000c0 78 dd 2d be 6d 50 db bd 0c 22 d3 3c ca 99 70 3b
       -0.16979015 -0.107086994 0.02577307 0.003671276
0000d0 a1 29 16 3e 8f 8d 91 3e b1 7a 7a 3e 81 2c 33 be
       0.14664318 0.28428313 0.24460866 -0.17497446
0000e0 60 ec 98 bd 8d b0 ce 3a 8d 49 2d bd ec f7 c0 bd
       -0.0746696 0.0015769169 -0.04230647 -0.09422287
0000f0 a0 0d f8 3b 46 14 c2 bd da 8b dc 3e ae e7 20 bd
       0.0075699836 -0.09476523 0.43075448 -0.039283447
000100 b1 5e 46 be dd d4 97 3d d1 73 8b 3e 8b 3e 7c be
       -0.1937206 0.07413647 0.27236798 -0.24633233
000110 a5 4e 9a bc 8a bd 9d be ff a2 86 be 93 de 7b be
       -0.018836329 -0.3080867 -0.2629623 -0.24596624
000120 05 b3 ab 3c e2 f3 b2 3d 4c 64 97 3e 17 6d e6 bd
       0.020959387 0.08737923 0.29568708 -0.11251276
000130 8d 38 99 bd 47 d5 a1 be 5b 73 c7 3d 31 70 f5 3d
       -0.07481489 -0.3160803 0.09738799 0.119842894
000140 5d 36 f1 3d 18 7d 93 3e d3 1f 44 3e ae b9 99 bb
       0.11777947 0.28806376 0.19152765 -0.004691324
000150 aa 80 a9 3e d7 39 d4 bb 65 db e7 bc 8c f9 da bd
       0.33105975 -0.0064766216 -0.028302858 -0.106921285
000160 18 d4 9d be 0a 01 f4 bd bf 36 ab 3c 42 55 d7 3c
       -0.30825877 -0.11914261 0.020900128 0.026285771
000170 ba 06 82 3d aa 74 05 bc 8e fd 1a be b5 85 a0 be
       0.06348939 -0.008145491 -0.15135786 -0.3135201
000180 69 21 a4 3d 18 d2 28 3e 9d 2c ba 3d 27 ee 72 3e
       0.08014185 0.16486394 0.090905406 0.2372366
000190 a4 5a 4c be da d0 f5 bc c3 e8 d0 bd 16 fb 68 3e
       -0.19956452 -0.030006815 -0.10200646 0.22752032
0001a0 30 9a 72 bd 6e 8f 8a be b7 2d 78 bc ff 54 d8 bc
       -0.059229076 -0.27062553 -0.015147618 -0.026407717
0001b0 4a 7e 8e be 4e fc 45 3d eb 0f a4 3d 2a a3 a6 3e
       -0.27830726 0.04833632 0.080108486 0.3254636
0001c0 be 67 1f 3e cf ad 27 be a9 e3 09 3d 56 18 51 bd
       0.15566918 -0.16374896 0.03366438 -0.0510486
0001d0 e8 38 a7 ba 55 37 00 be f6 ef a1 3e ca 43 f7 3d
       -0.0012758048 -0.12521107 0.31628388 0.120734766
0001e0 13 12 25 be f0 bc 00 3d 79 9f 7a 3c 75 20 54 be
       -0.16120176 0.031430185 0.01529681 -0.20715506
0001f0 f3 19 a5 be 2a 78 d2 3d 34 21 2a be c2 02 a3 bc
       -0.3224636 0.10276826 -0.16614228 -0.019898776
000200 6a c3 0d bd 8f 99 bd bb cc a6 1e bd 3a 2a f4 3d
       -0.03461019 -0.005786128 -0.03873329 0.119221166
000210 7d d8 db 3d a6 57 53 bd 86 5c a9 be 5a 15 61 be
       0.10734651 -0.05159726 -0.33078402 -0.21980801
000220 e5 e0 85 3d e6 9e 01 3f c6 18 8b bc 26 79 00 3d
       0.06537036 0.50633085 -0.016979586 0.031365536
000230 8d 5a 3c be 72 88 55 be 09 32 c0 bd ac b5 5f 3e
       -0.18393917 -0.20852831 -0.093845434 0.21846646
000240 da 7d 81 bd fb cb 32 3e 69 bb c7 bd 9c bd 92 be
       -0.063228324 0.17460625 -0.097525425 -0.28660285
000250 03 51 86 3d 27 e7 14 3e a6 15 0f be f2 4d 49 3e
       0.065584205 0.14541303 -0.13973102 0.1965864
000260 fe cd 3e 3e 4a 97 05 bd b0 36 0b 3e 79 39 70 be
       0.18633267 -0.032614984 0.1359508 -0.23459424
000270 f5 ee 23 3e 18 26 5b 3e 59 cb f1 3d ba cc 1d be
       0.16009124 0.2140125 0.118063636 -0.15410128
000280 27 1a 3b be 93 44 88 be a9 5f bc bc 70 eb 90 be
       -0.18271695 -0.26614818 -0.022994833 -0.28304625
000290 71 f3 34 3e 93 74 1c 3e a8 3b e3 bc 06 50 85 bd
       0.1767099 0.15278845 -0.027738407 -0.06509404
0002a0 cd 3d 61 be ec c6 33 3e 4d 9a fd 3d b8 d9 3a 3e
       -0.21996231 0.17556351 0.12382946 0.18247116
0002b0 c0 ff 29 3e f2 b9 47 be 3c c2 c0 3b b8 4a 87 3c
       0.16601467 -0.19504526 0.0058825295 0.01651512
0002c0 58 e6 82 be 3f eb 9e 3d 7a 66 9a be 0f 92 58 be
       -0.25566363 0.077597134 -0.30156308 -0.21149467
0002d0 ea 49 4a be 45 26 87 be ed fc fd bd bc ab 91 be
       -0.19754758 -0.26396385 -0.124017574 -0.28451335
0002e0 54 1d 2c 3d a6 81 5d 3e 9d 37 88 3d c2 f1 83 bc
       0.042020157 0.21631488 0.066512324 -0.01610649
0002f0 2c 7c 92 be 24 73 02 bd 86 52 7e bc ec 5d c3 bc
       -0.2861036 -0.031848088 -0.015522605 -0.023848496
000300 7a 22 4e 3d 84 26 bf 3e eb 1b fe 3c 25 89 8d 3e
       0.05032585 0.37334073 0.031019172 0.27643695
000310 df 69 47 bc 27 83 79 3e dd fc b4 be 6a 5c e0 bd
       -0.012171238 0.24366437 -0.3534917 -0.109551266
000320 e7 0b 19 3d 22 37 28 be 19 5f 1d 3d 83 be 9c be
       0.037364867 -0.16427281 0.03842077 -0.306141
000330 58 a2 07 3d fe ae 8d 3e e2 88 97 bd 0f ba 65 3e
       0.033113807 0.2767257 -0.07399155 0.22434257
000340 e6 95 82 3e 92 80 33 3e 9c 12 fe 3d 6a 2e 89 3e
       0.25504988 0.17529514 0.12405893 0.26793224
000350 a5 1d 14 3e e0 70 c3 be 56 68 30 bc b5 fe 2a be
       0.14464433 -0.38172054 -0.010767063 -0.16698726
000360 4a b3 86 bd 1a cb 60 be c1 c5 74 3d 44 08 4a 3b
       -0.065771654 -0.21952477 0.059758905 0.003082768
000370 37 cb a2 bd 0a aa 68 3c ca f4 09 3e ea b0 9a 3d
       -0.079489164 0.014200697 0.13472286 0.07553275
000380 67 bd 8b bd 47 61 11 be 38 ad 00 bd ea 50 c5 be
       -0.06823235 -0.14197265 -0.031415194 -0.38538295
000390 2d ca df bd 4b 29 8f bc 73 2c b5 bd 4c 95 07 be
       -0.10927234 -0.017475745 -0.08846369 -0.13240546
0003a0 0d ee a4 3c c4 89 3f 3e 63 47 0d 3e 4f 25 d4 3e
       0.020133043 0.18704897 0.13796763 0.41434714
0003b0 27 85 fe 3d 2d 6a dd 3d c6 90 ed bd d8 ff 2c be
       0.124277405 0.10811267 -0.11599879 -0.16894472
0003c0 d5 53 89 bd 47 c5 a4 be 59 48 9b 3d a4 bf 8b 3d
       -0.06705443 -0.3218176 0.075821586 0.06823662
0003d0 6c 92 12 be 11 da 6a 3e d9 9b e5 3d 4e 83 ff 3d
       -0.14313668 0.22934748 0.11211366 0.12476216
0003e0 51 4b 0a be e8 e7 2d be 3c fc b0 3d 29 db 66 be
       -0.13505293 -0.16982996 0.0864186 -0.2254454
0003f0 f7 68 de 3c 27 54 95 3c 0a 27 1e be 00 f9 9d 3d
       0.02714966 0.018228604 -0.1544458 0.077135086

base.mlp.fc_h.0.bias f4 [64]
000000 00 00 00 00 00 00 00 00 00 00 00 00 00 00 00 00
       0.0 0.0 0.0 0.0
000010 00 00 00 00 00 00 00 00 00 00 00 00 00 00 00 00
       0.0 0.0 0.0 0.0
000020 00 00 00 00 00 00 00 00 00 00 00 00 00 00 00 00
       0.0 0.0 0.0 0.0
000030 00 00 00 00 00 00 00 00 00 00 00 00 00 00 00 00
       0.0 0.0 0.0 0.0
000040 00 00 00 00 00 00 00 00 00 00 00 00 00 00 00 00
       0.0 0.0 0.0 0.0
000050 00 00 00 00 00 00 00 00 00 00 00 00 00 00 00 00
       0.0 0.0 0.0 0.0
000060 00 00 00 00 00 00 00 00 00 00 00 00 00 00 00 00
       0.0 0.0 0.0 0.0
000070 00 00 00 00 00 00 00 00 00 00 00 00 00 00 00 00
       0.0 0.0 0.0 0.0
000080 00 00 00 00 00 00 00 00 00 00 00 00 00 00 00 00
       0.0 0.0 0.0 0.0
000090 00 00 00 00 00 00 00 00 00 00 00 00 00 00 00 00
       0.0 0.0 0.0 0.0
0000a0 00 00 00 00 00 00 00 00 00 00 00 00 00 00 00 00
       0.0 0.0 0.0 0.0
0000b0 00 00 00 00 00 00 00 00 00 00 00 00 00 00 00 00
       0.0 0.0 0.0 0.0
0000c0 00 00 00 00 00 00 00 00 00 00 00 00 00 00 00 00
       0.0 0.0 0.0 0.0
0000d0 00 00 00 00 00 00 00 00 00 00 00 00 00 00 00 00
       0.0 0.0 0.0 0.0
0000e0 00 00 00 00 00 00 00 00 00 00 00 00 00 00 00 00
       0.0 0.0 0.0 0.0
0000f0 00 00 00 00 00 00 00 00 00 00 00 00 00 00 00 00
       0.0 0.0 0.0 0.0

base.mlp.fc_h.2.weight f4 [64]
000000 00 00 80 3f 00 00 80 3f 00 00 80 3f 00 00 80 3f
       1.0 1.0 1.0 1.0
000010 00 00 80 3f 00 00 80 3f 00 00 80 3f 00 00 80 3f
       1.0 1.0 1.0 1.0
000020 00 00 80 3f 00 00 80 3f 00 00 80 3f 00 00 80 3f
       1.0 1.0 1.0 1.0
000030 00 00 80 3f 00 00 80 3f 00 00 80 3f 00 00 80 3f
       1.0 1.0 1.0 1.0
000040 00 00 80 3f 00 00 80 3f 00 00 80 3f 00 00 80 3f
       1.0 1.0 1.0 1.0
000050 00 00 80 3f 00 00 80 3f 00 00 80 3f 00 00 80 3f
       1.0 1.0 1.0 1.0
000060 00 00 80 3f 00 00 80 3f 00 00 80 3f 00 00 80 3f
       1.0 1.0 1.0 1.0
000070 00 00 80 3f 00 00 80 3f 00 00 80 3f 00 00 80 3f
       1.0 1.0 1.0 1.0
000080 00 00 80 3f 00 00 80 3f 00 00 80 3f 00 00 80 3f
       1.0 1.0 1.0 1.0
000090 00 00 80 3f 00 00 80 3f 00 00 80 3f 00 00 80 3f
       1.0 1.0 1.0 1.0
0000a0 00 00 80 3f 00 00 80 3f 00 00 80 3f 00 00 80 3f
       1.0 1.0 1.0 1.0
0000b0 00 00 80 3f 00 00 80 3f 00 00 80 3f 00 00 80 3f
       1.0 1.0 1.0 1.0
0000c0 00 00 80 3f 00 00 80 3f 00 00 80 3f 00 00 80 3f
       1.0 1.0 1.0 1.0
0000d0 00 00 80 3f 00 00 80 3f 00 00 80 3f 00 00 80 3f
       1.0 1.0 1.0 1.0
0000e0 00 00 80 3f 00 00 80 3f 00 00 80 3f 00 00 80 3f
       1.0 1.0 1.0 1.0
0000f0 00 00 80 3f 00 00 80 3f 00 00 80 3f 00 00 80 3f
       1.0 1.0 1.0 1.0

base.mlp.fc_h.2.bias f4 [64]
000000 00 00 00 00 00 00 00 00 00 00 00 00 00 00 00 00
       0.0 0.0 0.0 0.0
000010 00 00 00 00 00 00 00 00 00 00 00 00 00 00 00 00
       0.0 0.0 0.0 0.0
000020 00 00 00 00 00 00 00 00 00 00 00 00 00 00 00 00
       0.0 0.0 0.0 0.0
000030 00 00 00 00 00 00 00 00 00 00 00 00 00 00 00 00
       0.0 0.0 0.0 0.0
000040 00 00 00 00 00 00 00 00 00 00 00 00 00 00 00 00
       0.0 0.0 0.0 0.0
000050 00 00 00 00 00 00 00 00 00 00 00 00 00 00 00 00
       0.0 0.0 0.0 0.0
000060 00 00 00 00 00 00 00 00 00 00 00 00 00 00 00 00
       0.0 0.0 0.0 0.0
000070 00 00 00 00 00 00 00 00 00 00 00 00 00 00 00 00
       0.0 0.0 0.0 0.0
000080 00 00 00 00 00 00 00 00 00 00 00 00 00 00 00 00
       0.0 0.0 0.0 0.0
000090 00 00 00 00 00 00 00 00 00 00 00 00 00 00 00 00
       0.0 0.0 0.0 0.0
0000a0 00 00 00 00 00 00 00 00 00 00 00 00 00 00 00 00
       0.0 0.0 0.0 0.0
0000b0 00 00 00 00 00 00 00 00 00 00 00 00 00 00 00 00
       0.0 0.0 0.0 0.0
0000c0 00 00 00 00 00 00 00 00 00 00 00 00 00 00 00 00
       0.0 0.0 0.0 0.0
0000d0 00 00 00 00 00 00 00 00 00 00 00 00 00 00 00 00
       0.0 0.0 0.0 0.0
0000e0 00 00 00 00 00 00 00 00 00 00 00 00 00 00 00 00
       0.0 0.0 0.0 0.0
0000f0 00 00 00 00 00 00 00 00 00 00 00 00 00 00 00 00
       0.0 0.0 0.0 0.0

base.mlp.fc2.0.0.weight f4 [64, 64]
000000 1b ef 94 3a ad cb 3b 3c d4 3a 2c 3c 86 14 ef 3e
       0.0011362763 0.011462134 0.010512073 0.46695346
000010 5d d5 d9 3d e9 e6 e2 be 58 de 93 3d db fb fc 3c
       0.10636399 -0.44316795 0.07220143 0.030881813
000020 d8 95 84 3d d6 72 c1 3d e2 89 35 3e 5c 10 78 be
       0.06473893 0.09445731 0.1772838 -0.2422499
000030 f5 2b 10 3e f3 af 86 3e a7 60 7b 3e 00 0e b8 be
       0.14079268 0.26306114 0.24548589 -0.3594818
000040 6e 91 88 be 91 55 b7 bc fe 12 a1 bd 0f 21 9f 3d
       -0.26673454 -0.022379668 -0.078649506 0.07769977
000050 70 cc a9 bd cd fc 72 3e 9b 81 fb bd 39 5f f4 be
       -0.082909465 0.23729248 -0.1228058 -0.477289
000060 28 ef 85 3e eb e8 a6 be 35 a7 67 3e fa 74 87 be
       0.26159024 -0.32599577 0.22622378 -0.26456434
000070 33 3c d9 3e d5 19 0f bd 4b 1a 46 be c7 e3 d2 bd
       0.4242874 -0.034936745 -0.19345967 -0.10297351
000080 bb d8 e3 bd 88 60 9f bd b1 ab 54 3e 6d b3 b1 bd
       -0.111253224 -0.07782084 0.2076862 -0.08676801
000090 d3 57 46 ba dc ee 11 3b 3c 22 2f 3e fe 87 14 3d
       -0.00075661874 0.0022267615 0.17102903 0.036262505
0000a0 44 43 bb bd 9b b0 82 bd 08 58 fa 3c 5d 99 72 bd
       -0.09143689 -0.06381341 0.030559555 -0.05922829
0000b0 9a 81 0e be f9 ba 22 3e ae 3d 80 3d 18 c5 04 3e
       -0.13916627 0.15891637 0.062617645 0.1296581
0000c0 7b 74 66 be 8a 57 13 be b1 1a 13 bc 56 8f 06 bd
       -0.22505371 -0.14388862 -0.008978532 -0.03285154
0000d0 b1 a8 46 3e bf 0d ab 3e b1 98 8f 3e 40 73 46 be
       0.19400288 0.33408925 0.28046182 -0.19379902
0000e0 c7 ba e6 bd 77 fa 48 3d e6 83 05 be b5 0a 04 be
       -0.11266094 0.049066987 -0.13038597 -0.1289471
0000f0 a9 63 77 bd fa 45 11 be 44 cb fa 3e d1 9c 08 bd
       -0.060397778 -0.1418685 0.48983204 -0.033352677
000100 76 77 4b be ba f1 39 3d 38 55 9d 3e 7e 39 4d be
       -0.1986979 0.045396544 0.3072908 -0.20041463
000110 4b 57 f3 bd c8 8c 41 be f1 aa 88 be d8 75 7d be
       -0.11881884 -0.1890136 -0.26692918 -0.24751985
000120 fd c9 bf 3d 06 b0 ae 3d 8f 5d 98 3e a8 1b 17 be
       0.09364698 0.085296676 0.2975888 -0.14756644
000130 c3 c2 2a be 3f d6 aa be 7e ec ac 3d e5 32 c2 3d
       -0.16675858 -0.33366582 0.08443545 0.094823636
000140 67 d2 2e 3e 62 52 99 3e 5d eb 32 3e b8 68 d2 bc
       0.1707245 0.29945666 0.17472596 -0.0256847
000150 f2 1b a5 3e 5e fe 9c 3c 68 2e 03 bd 52 d7 54 bd
       0.32247883 0.01916426 -0.03202668 -0.051963158
000160 d1 02 a0 be f4 70 e5 bc 2b ce 7e 3d fc 44 10 3b
       -0.3125215 -0.028007962 0.062208336 0.0022013774
000170 fb 92 14 3d 62 59 a2 bc c7 13 2e be 90 72 c9 be
       0.036272984 -0.019818012 -0.16999732 -0.39345217
000180 46 d5 7a 3c 8b 1e 96 3d 0e dc cc 3d 4f c1 69 3e
       0.015309637 0.07330044 0.100029096 0.22827648
000190 05 d9 1d be ae b1 a3 bd e4 85 1b be 70 00 78 3e
       -0.15414818 -0.07992874 -0.15187794 0.24218917
0001a0 74 2c e0 bc 45 52 7b be da 21 e6 3c 9a 3d 08 bd
       -0.027364947 -0.24543102 0.028092314 -0.033261873
0001b0 a1 a8 92 be 80 17 02 3e 1b cb 9c 3d 34 56 b2 3e
       -0.2864428 0.12704277 0.07655927 0.34831393
0001c0 c6 c3 ce 3d a2 3b 54 be 57 16 9f 3d 47 40 4f bd
       0.100959346 -0.20725873 0.07767933 -0.05059841
0001d0 9f e3 96 bd 53 57 f6 bd 9e b1 8a 3e df 8a 0c 3e
       -0.07367634 -0.120283745 0.27088636 0.1372485
0001e0 ce 8a 05 be ac 52 ec 3c 79 9e 3e 3d c4 1e 21 be
       -0.13041231 0.028848015 0.04653785 -0.15734392
0001f0 50 ab bb be 52 da 1c 3e 96 8f 1b be 58 c8 54 bb
       -0.3665414 0.15317658 -0.15191492 -0.0032468047
000200 6f 38 7f bd 41 5f e1 3c 95 d6 bd bd 03 9f 12 3e
       -0.06230968 0.02751124 -0.09269444 0.1431847
000210 9f 69 1d 3e 96 4f 59 bd 68 fb b0 be c3 18 7f be
       0.15372322 -0.053054415 -0.34566808 -0.2491179
000220 5c 0b a0 3c cc 23 0c 3f e0 05 6c 3c 51 cf d9 3c
       0.019536667 0.5474212 0.014405698 0.026588114
000230 12 d7 64 be 1c 3f 6d be cf 12 f3 bd 97 1c 83 3e
       -0.22347668 -0.23168606 -0.11868822 0.2560775
000240 88 09 52 bd 3e da 54 3e e7 4c 07 be 5e 85 9c be
       -0.05127862 0.20786378 -0.1321293 -0.305705
000250 a7 d5 a5 3d ab 32 dd 3d f0 15 0d be dd 1f 5c 3e
       0.080973916 0.1080068 -0.137779 0.2149653
000260 56 0a 69 3e 35 51 99 bc 21 a0 98 3d 71 47 88 be
       0.22757849 -0.01871548 0.07452417 -0.26617005
000270 ef df 32 3e a0 85 7a 3e d2 a5 c3 3d ca 24 40 be
       0.17468236 0.24465036 0.09553112 -0.18764034
000280 fe db 35 be e3 b2 8d be b8 31 80 bd 8a 91 9a be
       -0.17759702 -0.27675542 -0.06259483 -0.30189162
000290 11 f9 28 3e 46 92 47 3e 1d 17 d2 bd 50 2d d0 bd
       0.16501261 0.19489393 -0.10258315 -0.10164893
0002a0 7d 1d 65 be 48 de 54 3e 57 a2 96 3d ed 3e 72 3e
       -0.2237453 0.20787919 0.073551826 0.23656817
0002b0 26 e8 78 3e 1c c0 68 be c5 dc 04 3d cb cf 56 3d
       0.24307308 -0.22729534 0.032437105 0.05244426
0002c0 7d 5e 7e be e9 76 db 3d 71 4e af be f9 b8 33 be
       -0.24840732 0.1071604 -0.34239534 -0.1755103
0002d0 19 38 61 be ef fd 3b be 62 93 ad bd 7a 90 a1 be
       -0.21994056 -0.18358587 -0.08475377 -0.3155554
0002e0 3e 27 81 3d e0 5c 81 3e 64 7c d3 3d cb 67 0f bd
       0.06306313 0.2526617 0.1032646 -0.035011094
0002f0 7f 11 99 be 91 d4 86 bd cb da 21 bc 80 fa 66 bd
       -0.2989616 -0.065835126 -0.009878824 -0.05639124
000300 de e6 62 3d 87 0a d0 3e 2c 9a 38 bb 7b a3 93 3e
       0.055395953 0.40633032 -0.0028168065 0.28835663
000310 10 c9 50 ba 12 3d 88 3e 6a 9a c0 be 68 bf 29 be
       -0.0007964531 0.26609093 -0.3761781 -0.16576922
000320 68 1e 57 3a 81 57 0a be 6b d9 88 3d b2 62 a4 be
       0.000820613 -0.13509943 0.06682094 -0.3210655
000330 12 7a 79 3b b2 0a a6 3e 67 c2 a5 bd c6 15 8c 3e
       0.0038067144 0.32430035 -0.0809372 0.27360362
000340 c8 d7 8c 3e 21 29 5b 3e 4c fc 0c 3e bc d0 98 3e
       0.27508378 0.21402408 0.13768119 0.29846752
000350 ac b4 2d 3e 41 7e d5 be 9b 05 9c bc 36 1c 31 be
       0.16963452 -0.41697887 -0.019045642 -0.17295918
000360 14 a6 c4 3c 3e 9b 70 be b1 61 1b 3c fa d0 b5 bc
       0.024004973 -0.2349672 0.009483741 -0.022194374
000370 33 e8 9f bd 01 ae ac 3c 20 80 04 3e 2e ee e5 3d
       -0.0780796 0.021079065 0.12939501 0.1122707
000380 f1 bd 38 bd 32 ca ea bd fc a4 a3 bd 83 44 d4 be
       -0.045103017 -0.11464347 -0.07990453 -0.4145852
000390 2b 5e 19 be 98 7c 69 3d e3 39 8e bd d5 79 3c be
       -0.14977328 0.057003587 -0.06944635 -0.1840585
0003a0 d5 1c 9e bb 6e 89 43 3e 6f a3 a9 3d ff e6 df 3e
       -0.0048252144 0.19095394 0.082831256 0.43730924
0003b0 45 e3 2f 3e 66 6a ba 3d 44 15 19 be 58 a0 a0 bd
       0.1717654 0.09102325 -0.14949518 -0.07843083
0003c0 48 98 a4 bc 74 60 a9 be eb 08 c8 3c 8b 38 e6 3d
       -0.020092145 -0.330814 0.024418315 0.112412535
0003d0 57 dc f9 bd de c6 84 3e 99 9c 19 3e 29 65 d4 3d
       -0.122002296 0.25932974 0.15001144 0.10370857
0003e0 03 43 28 be 3d a6 55 be ef 03 b6 3d b2 c4 81 be
       -0.16431813 -0.20864196 0.08887469 -0.2534538
0003f0 5a 45 62 bc ff ef ca bb 66 08 47 be 56 38 db 3d
       -0.01381048 -0.0061931605 -0.19436797 0.107041046

base.mlp.fc2.0.0.bias f4 [64]
000000 61 a9 14 3d 3a f5 32 bb 40 c5 e8 3c a1 a6 05 3d
       0.036294345 -0.002730681 0.028414369 0.032629613
000010 55 84 72 3d 8b c5 b3 bc 6d c2 cd bc 1c 60 80 3c
       0.059208233 -0.021944782 -0.025117123 0.015670829
000020 61 c7 b3 bc c6 4b cf bc ce 50 34 bd 3d 4a 2c 3b
       -0.021945657 -0.025304686 -0.044022374 0.0026289367
000030 ec 07 07 bd df 0e 88 3d 7c 01 94 3c d3 9e 5e bc
       -0.03296654 0.066434614 0.018067114 -0.013587671
000040 df 21 b4 3c de da c3 bc 4b 58 5a bc 10 97 14 3d
       0.021988807 -0.023908075 -0.013326715 0.036276877
000050 74 e4 05 3d 3a 89 f6 ba 77 6a 13 3b 8b 2e 8f 3c
       0.032688573 -0.0018809207 0.0022493878 0.017478248
000060 94 e4 12 bc 75 02 01 3d 4a 13 26 3d e7 e6 97 3b
       -0.00896563 0.031496484 0.04054574 0.00463568
000070 ec 94 39 3e 26 fb 9c 3a 63 93 6e 3c c2 8c d0 bc
       0.18123215 0.0011976704 0.014561507 -0.025457744
000080 7c 7a f7 3c 94 65 ea 3c a5 df 79 3d bc 37 41 bc
       0.030209772 0.02861289 0.0610043 -0.011793073
000090 19 32 a3 3c e3 41 34 3e d7 c9 6d 3d e0 65 95 bc
       0.01992135 0.17603259 0.058053818 -0.018237054
0000a0 95 d2 35 bd a7 21 98 3c 57 98 43 bc bc 7d e7 3c
       -0.04439028 0.018570734 -0.011938176 0.028258197
0000b0 18 81 94 3c 7d 49 8e bc 22 cf 17 3e 32 b9 f5 3c
       0.018127963 -0.017369026 0.14825109 0.029995535
0000c0 9f 34 e4 3d 67 fd 11 3d ec 56 fa bb 06 b6 91 3d
       0.11142849 0.035642054 -0.0076397564 0.07114796
0000d0 8d 8a bf bc f2 52 f3 3c 99 c2 88 39 50 72 99 bc
       -0.023381496 0.029702637 0.00026084928 -0.018731266
0000e0 db e9 3a bc 98 84 ee 3c 60 2a 93 3d 84 6b 9f 3d
       -0.011408295 0.02911596 0.07185817 0.07784179
0000f0 d7 c0 7a 3c 30 55 e4 3c 5a b5 16 3d e8 70 ee 3c
       0.015304766 0.027872652 0.036794044 0.029106572

base.mlp.fc2.0.2.weight f4 [64]
000000 c3 7f 79 3f 50 44 79 3f 73 14 70 3f da 56 74 3f
       0.97460574 0.9736986 0.93781203 0.95445025
000010 b6 3b 81 3f b1 fc 5b 3f 5e 25 65 3f 01 b0 6b 3f
       1.0096347 0.8593245 0.8951014 0.92065436
000020 63 19 6a 3f 39 4b 65 3f 09 90 6d 3f 5e c1 7e 3f
       0.9144499 0.89567906 0.92797905 0.99513805
000030 2a 23 5c 3f e3 60 80 3f 51 44 67 3f 07 03 78 3f
       0.85991156 1.0029567 0.9033862 0.9687962
000040 57 00 76 3f b6 d4 5e 3f 6f 87 74 3f 67 f2 78 3f
       0.9609427 0.8704332 0.95519155 0.97244877
000050 76 24 74 3f 39 a3 77 3f c8 f4 78 3f 6f 12 66 3f
       0.95368135 0.96733433 0.97248507 0.8987188
000060 e6 4c 70 3f 45 2d 71 3f a3 97 79 3f 7a 7e 7c 3f
       0.9386734 0.942097 0.97497004 0.9863049
000070 08 21 6d 3f 60 a8 6c 3f e9 b8 65 3f 3f ff 5f 3f
       0.92628527 0.9244442 0.89735276 0.8749885
000080 84 40 78 3f d5 5c 6d 3f fd 92 80 3f 3d aa 74 3f
       0.96973443 0.92719775 1.0044857 0.95572263
000090 7b e1 67 3f dd 18 7a 3f 04 af 79 3f 37 ba 70 3f
       0.9057843 0.9769419 0.9753268 0.9403414
0000a0 7c 13 65 3f 65 c3 66 3f ba 6e 73 3f f2 6c 70 3f
       0.89482856 0.901419 0.9509083 0.9391624
0000b0 8d af 6e 3f 53 59 6f 3f 8e 7d 7e 3f 3c 0d 77 3f
       0.9323662 0.9349567 0.9941033 0.9650457
0000c0 74 7e 7f 3f 9d f9 73 3f 99 7f 74 3f e8 41 81 3f
       0.9980233 0.95302755 0.955072 1.0098238
0000d0 cd 69 71 3f ac 7a 76 3f 2b 5a 78 3f 91 88 6b 3f
       0.94302064 0.9628093 0.97012585 0.9200526
0000e0 c1 61 72 3f 88 54 6c 3f 20 17 82 3f 0c 51 81 3f
       0.9468041 0.92316484 1.0163307 1.0102859
0000f0 ae c6 57 3f 3a 32 6c 3f 1a de 79 3f 55 b6 72 3f
       0.84287536 0.9226414 0.97604525 0.94809467

base.mlp.fc2.0.2.bias f4 [64]
000000 fd 84 4b 3c d9 56 81 bc 74 02 84 3c 99 b0 83 3c
       0.012421844 -0.015788483 0.016114451 0.01607542
000010 23 f6 75 3c 7b ad 65 bc 0b 75 75 bc c0 5c 62 3c
       0.015012297 -0.014018412 -0.0149815185 0.013816059
000020 53 9c 70 bc 1b 6c 78 bc ca 16 5d bc b5 2d 60 bc
       -0.014685708 -0.015162493 -0.013494203 -0.013682772
000030 3a a5 68 bc 4b 31 a8 3c 48 ef 7a 3c 9b 78 81 bc
       -0.014199549 0.020531317 0.015315838 -0.01580458
000040 c3 c9 42 3c d2 4d 64 bc fd 7b 7a bc 8f 7b 75 3c
       0.011888924 -0.013934569 -0.01528835 0.014983072
000050 2a 79 72 3c 2f 61 76 bc 69 f0 58 bc 54 e3 72 3c
       0.014799396 -0.015037819 -0.013240912 0.014824707
000060 bb de 7f bc ee 30 87 3c e5 88 37 3c c8 63 77 bc
       -0.015617068 0.016502824 0.011202072 -0.015099473
000070 c1 0b 1b 3d d5 71 54 3c 16 13 68 3c 73 31 5c bc
       0.037853006 0.012966593 0.014164707 -0.013439524
000080 a6 2e 76 3c ca c2 80 3c c7 b3 82 3c 09 e9 80 bc
       0.01502577 0.015717883 0.015954865 -0.01573612
000090 06 89 6b 3c 51 33 a5 bb d5 30 6d 3c 95 ad 7c bc
       0.014375931 -0.005041518 0.0144769745 -0.015422245
0000a0 d2 67 61 bc 7c 46 7b 3c ab b3 84 bc aa a7 74 3c
       -0.013757663 0.015336629 -0.016198954 0.014932552
0000b0 61 63 59 3c b3 c4 76 bc 90 0a db 3c a7 fc 3e 3c
       0.013268323 -0.015061545 0.026738435 0.011656917
0000c0 0a 5e e5 3c 2a 5b 82 3c 15 1f 82 bc e2 46 8d 3c
       0.027998943 0.015912611 -0.015883962 0.017245714
0000d0 49 02 66 bc e4 74 5e 3c 99 7e 6f bc 1a 9b 87 bc
       -0.014038631 0.013577674 -0.014617586 -0.01655345
0000e0 2d 3a 8c bc ca 0a 83 3c c6 7a 64 3c c5 6c be 3c
       -0.017117584 0.015996356 0.013945287 0.023245225
0000f0 16 6c 63 3c 91 f9 76 3c c7 37 84 3c c0 31 74 3c
       0.01388075 0.01507415 0.016139878 0.014904439

v_out.weight f4 [1, 64]
000000 d9 3e ff 3b 10 da 76 3b 1f aa 2c 3c 97 47 1f 3c
       0.0077894744 0.0037666596 0.010538607 0.009721658
000010 b7 c6 2a 3c b5 bd f3 bc b6 7b 2e bc 41 2e 89 3c
       0.010423354 -0.029753545 -0.010649612 0.016745688
000020 69 17 18 bc d0 6c 12 bc 14 33 28 be a7 96 94 bb
       -0.009282925 -0.008937076 -0.16425735 -0.0045345607
000030 5b 66 36 bd c5 cb c6 3b 7e 09 7b 3c 21 ef d0 bb
       -0.044531208 0.0060667717 0.015322087 -0.0063761626
000040 e6 3c e7 3b af eb f3 bc c0 e5 aa bb bd 03 2a 3c
       0.00705682 -0.029775469 -0.0052153766 0.010376868
000050 8f be ca 3b c2 46 3b 3a 15 37 ef b9 9c d8 8b 3c
       0.006187267 0.00071440276 -0.00045626672 0.01707106
000060 a0 c5 da 3a 05 8a de 3b a8 20 ac 3b b5 20 fc bb
       0.0016690977 0.0067913556 0.0052529164 -0.0076943287
000070 09 26 56 3b 76 79 ac 3d 1a 7f 91 3c ad 93 57 bd
       0.003267648 0.08421604 0.017760802 -0.05263107
000080 5d ce 57 3c 1a cb 1a 3c d9 a7 b1 3b f5 06 4b bb
       0.013171759 0.009447837 0.0054216203 -0.0030979489
000090 65 04 96 3c 25 8d 0b 3c 75 19 0b 3c a9 33 a8 bb
       0.018312642 0.008517538 0.008489956 -0.0051331115
0000a0 2b 29 16 be ef 04 3a 3c 3c bd b7 ba 3f cf 03 3c
       -0.14664142 0.011353715 -0.0014018188 0.008045017
0000b0 cc 44 83 3c 01 bb b2 bb ce cf e8 3b 2e 85 2d 3c
       0.016024016 -0.0054544215 0.0071048504 0.010590835
0000c0 84 15 db 3b ff d9 41 3c 37 fb 8e bb 22 cb 13 3c
       0.0066859145 0.0118317595 -0.0043634432 0.009020599
0000d0 0c 8e a8 bc 4f 0d 56 3c 6a 8f c4 ba a3 69 64 ba
       -0.020575546 0.013064696 -0.0014996354 -0.0008713251
0000e0 b9 c8 e4 ba bd 9d ef 3b 6b 77 17 3c 12 95 a7 3b
       -0.001745484 0.007312505 0.00924478 0.005114206
0000f0 1a 47 82 3d 4f 4e 95 3c d6 22 1d 3c 82 cc f5 3b
       0.06361218 0.018225817 0.009590825 0.007501186
