results/MyEnv/MyEnv/mappo/check/run73/models/actor_agent0.pt (torch, 65932 bytes, 17 tensors)

base.feature_norm.weight f4 [91]
000000 92 c1 7e 3f ab 41 80 3f 16 27 80 3f 3e b0 80 3f
       0.99514115 1.002004 1.0011928 1.0053785
000010 94 31 7e 3f d9 3f 7f 3f 5c 48 7e 3f ea 5e 80 3f
       0.992944 0.997068 0.9932916 1.0028965
000020 2c 67 7e 3f a5 84 7d 3f a8 ef 7e 3f f0 77 7f 3f
       0.9937618 0.99030524 0.99584436 0.99792385
000030 8c ec 80 3f de 00 7e 3f 05 31 80 3f 8e 3e 80 3f
       1.0072188 0.99220073 1.001496 1.001909
000040 13 2c 81 3f 0d 9e 7f 3f f9 32 7f 3f 6e 07 80 3f
       1.0091575 0.9985054 0.99687153 1.0002267
000050 6e 08 7f 3f 41 53 7e 3f ad c7 80 3f 14 a6 80 3f
       0.9962224 0.99345785 1.0060936 1.0050683
000060 de 67 80 3f 33 f0 7d 3f 21 48 7f 3f 3f c5 80 3f
       1.0031698 0.9919464 0.99719435 1.0060195
000070 a7 c9 7e 3f 04 3e 7f 3f 81 f8 7f 3f b3 c8 7f 3f
       0.9952645 0.99704003 0.9998856 0.9991562
000080 57 58 80 3f aa b5 80 3f 07 62 80 3f 7d de 80 3f
       1.0026959 1.005544 1.0029916 1.0067898
000090 42 5d 7f 3f 97 a8 7f 3f c5 65 80 3f 3f aa 7e 3f
       0.99751675 0.9986662 1.0031058 0.99478525
0000a0 6d 12 7e 3f f8 b5 7f 3f 80 27 7f 3f f3 31 7f 3f
       0.99246866 0.9988704 0.9966965 0.9968559
0000b0 65 d9 7d 3f f2 f2 7d 3f 60 44 7f 3f 1e c0 7f 3f
       0.9915984 0.9919883 0.99713707 0.9990252
0000c0 d7 c4 7f 3f 60 0d 80 3f 98 8d 7f 3f c3 a7 80 3f
       0.9990973 1.0004082 0.9982543 1.0051197
0000d0 3d 45 81 3f 21 97 80 3f b0 36 7f 3f fd 56 80 3f
       1.0099255 1.0046121 0.9969282 1.0026547
0000e0 03 2b 7e 3f cf 55 81 3f a2 93 7e 3f 02 66 7d 3f
       0.9928438 1.0104312 0.9944402 0.98983777
0000f0 d0 b4 7e 3f 4e cc 7d 3f ac b5 7e 3f bb 8f 80 3f
       0.9949465 0.9913987 0.9949596 1.0043863
000100 f7 09 7f 3f 34 6e 80 3f 76 2c 80 3f 06 6f 7d 3f
       0.9962458 1.0033631 1.0013568 0.98997533
000110 69 68 7e 3f da 30 80 3f 50 c9 7e 3f a5 ef 80 3f
       0.9937807 1.0014908 0.9952593 1.0073134
000120 3f 6d 7d 3f 66 06 80 3f 7b 23 80 3f 6a fa 7e 3f
       0.9899482 1.0001953 1.0010828 0.9960085
000130 79 74 80 3f 82 28 80 3f 2b a9 7d 3f 08 2a 80 3f
       1.0035545 1.0012362 0.99086255 1.0012827
000140 ed c6 7d 3f e6 00 80 3f 28 3e 81 3f d1 4e 7e 3f
       0.9913166 1.0000274 1.0097094 0.99339014
000150 7b db 7f 3f 7c 6a 80 3f fd 07 7d 3f 34 e9 80 3f
       0.99944276 1.0032496 0.98840314 1.0071168
000160 4c 6d 80 3f 26 f3 80 3f 4c f6 7f 3f
       1.0033355 1.0074203 0.99985194

base.feature_norm.bias f4 [91]
000000 e2 af 95 3b ea 31 d1 ba 6d 84 d1 ba f9 ac a5 bb
       0.004568086 -0.001596031 -0.00159849 -0.0050560203
000010 4f 8a e5 3b f7 20 9c 3b 07 0b c7 3b ed 7d 2e bb
       0.007005013 0.004764672 0.0060743126 -0.002662535
000020 60 f6 d4 3b 35 4b 1b 3c 2c 19 89 3b 20 38 01 3b
       0.0064990968 0.00947838 0.004183909 0.001971729
000030 55 b8 e0 bb a5 06 f4 3b 12 eb b7 3a b7 18 ee ba
       -0.0068579116 0.007447081 0.0014031848 -0.0018165325
000040 4b 84 11 bc ea 61 f1 3a 42 92 2f 3b 54 3c 5e 38
       -0.008881639 0.0018416021 0.0026790057 5.298511e-05
000050 e6 aa 77 bb d3 8c dc bb 9d 9a ce 3b 38 ad a5 3b
       -0.0037791072 -0.0067306547 0.0063050524 0.0050560497
000060 9c 90 75 3b 8a 87 08 bc d8 83 3d bb b8 c1 cc 3b
       0.0037470227 -0.008333096 -0.0028917696 0.006248679
000070 6d b4 a6 bb 0b a9 53 bb 37 56 e4 39 40 02 a6 ba
       -0.0050874264 -0.0032296802 0.00043551784 -0.0012665465
000080 2f 1d 34 3b c9 05 bc 3b 4f 64 4b 3b 07 fa e5 3b
       0.0027483215 0.0057379943 0.003103513 0.007018331
000090 eb b1 2a bb 7c 13 c5 ba 3b 76 5a 3b a7 56 b2 bb
       -0.0026045989 -0.0015035714 0.003333463 -0.0054424587
0000a0 3f 3b fe bb 0c 67 95 ba 44 03 5a bb 76 8e 52 bb
       -0.0077585275 -0.0011398508 -0.0033266107 -0.003212837
0000b0 2b 93 0e bc 17 2c 05 bc 92 92 3e bb e9 d7 85 ba
       -0.00870208 -0.008128188 -0.0029079062 -0.0010211441
0000c0 08 5c 41 ba e4 3e 36 39 73 1b dd ba b1 e0 ac 3b
       -0.00073760794 0.00017380301 -0.0016869142 0.0052758087
0000d0 62 d8 26 3c ce 30 9a 3b 30 19 4e bb cf ba 3e 3b
       0.010183426 0.004705525 -0.0031448118 0.0029103046
0000e0 86 87 f7 bb 52 f5 76 bb e4 3d ba 3b e3 df 0d 3a
       -0.0075539974 -0.0037682843 0.0056836475 0.0005412085
0000f0 2c 7b ab bb 71 96 0f bc 13 ff ae bb 4d c1 96 3b
       -0.005233189 -0.008763895 -0.005340466 0.00460068
000100 a5 eb 84 bb c2 32 62 3b a6 ba b0 3a a6 39 28 bc
       -0.0040564113 0.0034515117 0.001348336 -0.010267651
000110 c0 ff d2 bb d6 0f c3 3a a9 48 a3 bb df b1 f5 3b
       -0.006439179 0.0014882039 -0.004983027 0.0074980105
000120 96 47 28 bc 9f e2 0f 39 89 77 8b 3a 26 c3 88 bb
       -0.010270974 0.00013721966 0.0010640483 -0.004173654
000130 c2 a8 6d 3b 2d 51 8a 3a 59 fe 1d bc 18 3e b7 3a
       0.0036263918 0.0010552757 -0.009643161 0.0013980297
000140 3e 7c 11 bc 11 5c 75 b8 82 9e 22 3c ed 3e dc bb
       -0.008879719 -5.8498295e-05 0.0099254865 -0.0067213685
000150 9f 42 15 ba a6 a6 5b 3b ec fa 43 bc c6 ec ee 3b
       -0.0005693826 0.0033516078 -0.01196168 0.007291409
000160 a4 35 5c 3b 0a 51 f9 3b b3 47 1b b9
       0.0033601308 0.0076085376 -0.00014808662

base.mlp.fc1.0.weight f4 [64, 91]
000000 57 6e 67 be e0 2c 82 be 0d c5 01 3e 35 b0 5e 3e
       -0.22600685 -0.25424862 0.12672825 0.21746905
000010 d6 57 56 3c 9c 49 00 3e f7 04 8a bb 80 2f 7c 3d
       0.013082465 0.1252808 -0.0042120176 0.061568737
000020 71 49 4b 3d 4c e2 a5 be 92 64 14 be 5d 41 8a 3c
       0.049630586 -0.32399213 -0.1449149 0.01687687
000030 f2 80 66 be 34 66 9d 3d 2f 49 1a be ce 6e ad 3d
       -0.22510126 0.07685509 -0.1506698 0.084684
000040 e4 2a f6 3d ca 07 af 3d 87 60 49 3e 3e 1a 4d 3d
       0.120198995 0.085464075 0.19665729 0.050073855
000050 dc ad e7 3d 59 a4 4a 3e 75 ba b1 3c e0 e5 ab be
       0.11312458 0.19789256 0.021695355 -0.33573818
000060 79 ca 15 bd a0 0c 2d 3b a5 32 be 3e 84 64 7a bd
       -0.036570046 0.002640523 0.37148014 -0.061131015
000070 bb 6d a9 3e 8b c0 c5 be 65 78 d8 3d 69 35 2b 3e
       0.3309153 -0.3862346 0.105698384 0.16719593
000080 99 2f b9 3c 7e 54 6b 3e 7c ec f6 3c ab f6 c1 3d
       0.022605704 0.2298145 0.030142061 0.09470876
000090 fe 1c 52 3e fd 63 a9 3d 10 b6 5a be 41 c2 16 be
       0.20518872 0.082710244 -0.21358514 -0.1472254
0000a0 46 2a f6 bd 59 37 8e bd e9 33 fe bd 67 e5 9e 3d
       -0.12019782 -0.069441505 -0.12412245 0.07758599
0000b0 a9 b9 01 3e f2 e4 40 3e 39 0f 26 bd b9 b2 bb 3c
       0.1266848 0.18837336 -0.04054186 0.02291237
0000c0 7d b4 19 3e e3 37 86 be a8 8e a4 3e 38 db 59 3e
       0.15010257 -0.26214513 0.32140088 0.21275032
0000d0 19 45 1b 3e 8e c8 32 be ad 53 c3 3d 01 6d da bd
       0.15163077 -0.17459318 0.09537444 -0.10665322
0000e0 42 4e 37 3e f3 f8 d3 3d f8 3a a2 3d 5a 80 5b be
       0.17900947 0.10350218 0.07921404 -0.21435681
0000f0 44 92 5d be 2e 7f 1d bd 7c 4d 30 3e b3 73 05 3e
       -0.21637827 -0.038451366 0.17217058 0.13032417
000100 64 5f f6 bd b1 4c bf be e9 06 d8 be 8c 35 01 3e
       -0.12029913 -0.37363198 -0.42192772 0.12618083
000110 6b 00 8b 3e 06 40 d1 3d c1 39 0b bd 97 ac 8a bd
       0.27148756 0.102172896 -0.033990625 -0.067712
000120 91 39 69 3e 4e 39 2b be 70 16 b9 bc cb be 7a be
       0.22775866 -0.16721079 -0.022593707 -0.24486844
000130 75 2d f5 bd be d7 0c 3e 3f 4a eb bd 85 89 f5 3d
       -0.11971561 0.13754174 -0.11488771 0.119891204
000140 6f c0 1b 3e ea 90 4f bd 94 3c 8d 3b 2a 28 14 3e
       0.15210126 -0.05067531 0.0043102 0.14468446
000150 29 14 b9 3d ea 08 09 3e 05 9f 8d 3e 60 b4 9b 3d
       0.09037048 0.13382307 0.27660385 0.07602763
000160 60 a2 83 3e 95 ca d7 3a 85 da 36 be 14 d1 8b 3e
       0.2570982 0.0016463572 -0.17856796 0.2730795
000170 99 f0 12 be 37 07 b3 3c 96 cd 61 be d3 81 b4 3d
       -0.14349593 0.021854026 -0.22051081 0.088138245
000180 a3 1d c3 3d 75 25 6e 3c 2d 93 7e bd 40 4e fa be
       0.09527137 0.014535298 -0.062152077 -0.48887825
000190 63 bf 43 3e 96 91 f2 3c 6d c3 4f bd 28 45 2a 3e
       0.19115977 0.029610436 -0.050723482 0.16627944
0001a0 2e 05 3c be 82 c5 e3 bd 8c cf d9 ba bf 0c 52 be
       -0.18361351 -0.11121656 -0.001661764 -0.20512675
0001b0 7d eb 54 3e ba fe 69 bd 33 c0 6a 3c 82 1a dd 3d
       0.20792957 -0.05712769 0.01432805 0.107960716
0001c0 a2 44 b0 3d 00 da 31 be 48 dd f9 bd 14 97 1e be
       0.08606841 -0.17368317 -0.12200409 -0.15487319
0001d0 0f 1f d9 be 8f 22 37 be 96 d4 9e bd 44 1a 85 3e
       -0.42406508 -0.17884277 -0.07755391 0.25996602
0001e0 04 ea 03 bd 2c 32 6e bd e0 f4 84 3b ae 68 83 bd
       -0.032205597 -0.058153316 0.0040575117 -0.064164504
0001f0 e4 d1 9a 3e 39 c0 fb bd 0a ea e0 bd e0 ae 84 be
       0.3023826 -0.12292523 -0.109821394 -0.2591467
000200 d7 c0 3f be 2f 18 31 be 04 49 2a bc 28 8a ef 3d
       -0.18725906 -0.17294382 -0.010393385 0.11696273
000210 65 8d 1d be 7b c2 4d be 68 66 60 be 17 90 25 3e
       -0.15385969 -0.2009372 -0.21914065 0.16168247
000220 02 4f 5b 3e 67 b4 34 be 4a 2c 40 3e ad 70 af be
       0.21416858 -0.17646943 0.18766895 -0.34265652
000230 b6 0a 60 3e dd ab 2e be 00 69 86 be 05 3c 27 3e
       0.21879086 -0.17057748 -0.26251984 0.1633149
000240 0e fe 2c bd 2b b3 04 be 79 1a 57 bc c8 8c c9 3d
       -0.042234473 -0.12958972 -0.01312887 0.09841305
000250 4c 0e 27 3e e9 15 81 3e e2 2f 5d be f2 97 9b 3b
       0.16314048 0.2521203 -0.21600297 0.004748338
000260 42 41 92 bd 36 5c 9d 3e ce ec c6 bc 29 be fc bd
       -0.07141353 0.30734414 -0.02428284 -0.12340958
000270 21 b4 8a be d0 b6 ac bb e5 c6 db 3e 80 9e bb bc
       -0.27090552 -0.0052708164 0.42925182 -0.022902727
000280 01 f9 17 bd 05 0a 84 bd 37 63 a5 be f8 db dd 3d
       -0.037102703 -0.064472236 -0.32302257 0.10832971
000290 af da f2 3d 6e 60 23 be e9 fd 91 3c cc b3 94 3c
       0.11858117 -0.15954754 0.01782127 0.01815214
0002a0 b6 75 84 3e ee c0 32 3d fd 2e ef bc 00 c2 a5 be
       0.25871056 0.043641023 -0.02919721 -0.32374573
0002b0 c8 2b 4e bd bd 21 7b bd e1 c6 c5 bd 94 01 b9 bd
       -0.05033472 -0.061311472 -0.09657074 -0.09033504
0002c0 af 6f 05 bd 6f 6a 19 bd 52 83 8b be 04 2e 4d be
       -0.032577213 -0.03745502 -0.27248627 -0.20037085
0002d0 08 7d 10 bd f8 a8 3a 3d bb 78 d3 bd 4f c5 36 be
       -0.03527549 0.045571297 -0.10325762 -0.17848705
0002e0 7f 4c 65 3e dd 2c e5 bd 83 a3 16 3d 9f 9d c6 3d
       0.22392462 -0.111901976 0.03677703 0.096980326
0002f0 4a a2 a8 bd 62 a2 10 be 77 ba 4a bd 77 30 07 be
       -0.08234079 -0.14124444 -0.049494233 -0.13202082
000300 33 9d 22 be ed 4b b0 bd 13 01 60 3e 7c b5 17 be
       -0.15880279 -0.08608232 0.2187541 -0.14815325
000310 43 39 e9 3c 53 4e 90 be e2 61 97 3c 02 35 33 3b
       0.028469687 -0.28184757 0.018479291 0.0027344828
000320 d6 6b c2 3d 5a 70 24 be d6 14 59 be cf 05 6a bd
       0.09493224 -0.16058484 -0.21199355 -0.057134446
000330 dd dd c1 3e 8a 48 4b 3e 57 88 5b 3d 78 2c 2f be
       0.3786458 0.1985189 0.05359682 -0.17106807
000340 07 40 5f be 06 ec 07 3e 75 51 0f be a2 f7 1c be
       -0.21801768 0.1327363 -0.13995917 -0.1532884
000350 ce 9a a4 be f5 9a 2d 3e e1 63 80 be fc 80 f6 bd
       -0.32149357 0.16953643 -0.25076202 -0.120363206
000360 7e c8 4a be a8 fc 2a be f9 b0 a7 3b 85 3a db 3d
       -0.19803044 -0.16697943 0.0051175323 0.10704521
000370 b9 6d bb be 62 3d 99 3d 0e d7 2e bc 1a 75 c5 3d
       -0.3660715 0.07482411 -0.01067139 0.09641476
000380 62 2a fc 3c a2 00 03 be b4 93 20 3d d2 ee b2 bc
       0.030781928 -0.1279321 0.03920336 -0.021842394
000390 20 b4 26 3d 55 38 66 3e 37 f2 8a 3e 18 b4 0c bd
       0.040699124 0.22482426 0.2713792 -0.03435144
0003a0 21 b9 f1 3e 56 26 f4 3d da a1 cc be 7e 4c 0f be
       0.47211555 0.119213745 -0.39967233 -0.13994023
0003b0 e8 c8 11 3e 1a 3a b7 3d 9d 72 02 be b7 d8 8f 3b
       0.14236796 0.08946629 -0.12739034 0.004389848
0003c0 e8 32 f8 3d 3e 67 6b 3d db 9d 4e 3e 41 75 9a bd
       0.121190846 0.057471506 0.20177405 -0.07541896
0003d0 7b 89 8c 3e c8 fa ce 3d 5a 56 1e bd e9 0c 43 3e
       0.2744864 0.101064265 -0.03865657 0.19047894
0003e0 08 0d 4d be dc 6c 64 bc 6f 66 f7 bb ea af 63 3e
       -0.20024502 -0.01394197 -0.007550053 0.22235075
0003f0 a5 9c 07 be 12 04 8c 3d 74 c8 dd bd 1f a2 a4 bd
       -0.13243349 0.06836714 -0.10829249 -0.08038735

base.mlp.fc1.0.bias f4 [64]
000000 09 9e d8 bb e2 36 ea bb f5 a8 16 bb 68 19 4b 3b
       -0.006610636 -0.007147656 -0.002298889 0.0030990485
000010 8a 7c 11 3a 84 e3 39 3b 3b 97 53 3a 4d 18 70 3a
       0.0005549869 0.002836437 0.00080715463 0.00091588945
000020 f0 62 88 ba 78 df cb 3b 79 c9 42 bb 7b 16 07 ba
       -0.0010405462 0.006221708 -0.0029722138 -0.0005153191
000030 fb 6b 7b 3b a0 f3 26 b8 0b c5 01 bc e9 9a aa ba
       0.0038363922 -3.9804378e-05 -0.007920514 -0.0013016138
000040 6a 08 dc 3b d1 52 31 3a 33 fa ee bb 65 b4 22 bb
       0.00671487 0.0006764355 -0.0072930097 -0.0024826762
000050 de 7a 0f bc ec 01 90 3b 82 fa 7c 3b 66 e7 ea bb
       -0.008757321 0.0043947604 0.0038601463 -0.007168698
000060 94 25 22 3c bd 0b e8 3a 07 76 03 3c 30 d6 fa bb
       0.009896655 0.0017703694 0.008023745 -0.0076549277
000070 84 84 79 ba 7e 38 59 3b 4f 8c 0e bc 2a 60 4d 3b
       -0.00095183426 0.0033145244 -0.008700444 0.0031337836
000080 5f 32 83 3b 29 f8 38 bc ec 46 ee 3a 0f fc 41 bb
       0.0040038074 -0.011289635 0.0018179095 -0.0029599702
000090 c2 80 71 3b 34 01 c7 ba 26 e0 41 3b ba 8e 73 3a
       0.0036850427 -0.0015182854 0.0029583066 0.0009290982
0000a0 38 99 9a b9 81 c2 2f 3b 15 32 ca 3b 17 78 ce bb
       -0.00029487326 0.0026818814 0.006170521 -0.006300937
0000b0 73 e0 03 3a 82 0e e5 bb 23 ad 98 ba 69 80 cb bb
       0.0005030699 -0.006990255 -0.0011648278 -0.006210376
0000c0 62 cd f5 bb 56 f3 0e bb 04 8e 5c 3b 6d b9 21 bb
       -0.00750129 -0.002181252 0.0033653984 -0.0024677173
0000d0 06 c9 0f 3b 32 af 63 b7 d5 e6 37 3a a2 db 1a b9
       0.0021939888 -1.3571045e-05 0.00070152926 -0.00014768404
0000e0 cb 53 dd b8 87 ce 1a bc e8 e6 e1 bb 5c a7 0f 3b
       -0.00010553709 -0.009448654 -0.0068939812 0.0021919822
0000f0 1c 38 90 ba 41 0f d8 3b 4d 45 ee 3b f5 a9 df 3a
       -0.001100305 0.0065936153 0.007271445 0.0017064201

base.mlp.fc1.2.weight f4 [64]
000000 1f ee 7e 3f 4f d7 7c 3f d8 d2 7f 3f 47 86 80 3f
       0.99582094 0.98766035 0.999311 1.0040978
000010 ab 53 7f 3f ea 8b 7f 3f e7 80 7f 3f 93 45 80 3f
       0.9973704 0.99822867 0.99806064 1.0021232
000020 ce 0f 80 3f 83 32 7e 3f 18 6c 7f 3f a2 82 80 3f
       1.0004823 0.99295825 0.9977431 1.0039866
000030 e1 7d 7f 3f 30 8e 80 3f 60 3a 7e 3f d6 8f 7d 3f
       0.9980145 1.0043392 0.99307823 0.990476
000040 7a 1c 81 3f 03 4a 80 3f 50 fc 7e 3f a3 0d 80 3f
       1.0086815 1.0022587 0.9960375 1.0004162
000050 8e 46 81 3f 7a f7 7e 3f ef cd 80 3f 6a da 7d 3f
       1.0099657 0.9959637 1.0062846 0.991614
000060 24 0a 7d 3f 2d 48 80 3f 3f fa 7f 3f 2f 20 81 3f
       0.988436 1.0022026 0.9999122 1.0087947
000070 40 4b 7e 3f b5 1e 7e 3f dc bd 7f 3f 2c 9c 80 3f
       0.9933357 0.99265605 0.9989908 1.004766
000080 fd 6e 7f 3f 58 6b 7d 3f a3 7e 7d 3f 40 52 81 3f
       0.9977873 0.9899192 0.9902136 1.0103226
000090 97 f3 80 3f 76 85 7f 3f 2f 14 81 3f 9e 2e 7d 3f
       1.0074338 0.9981302 1.0084285 0.9889926
0000a0 73 5b 80 3f 7e 69 80 3f b9 f7 80 3f ad ac 80 3f
       1.0027908 1.0032194 1.0075599 1.0052696
0000b0 cc e1 7e 3f 69 fd 7f 3f 2b 5c 7f 3f 6b a6 7f 3f
       0.9956329 0.9999605 0.9975001 0.9986331
0000c0 de 4f 81 3f ca 44 80 3f d2 29 7f 3f 1e 60 80 3f
       1.0102499 1.0020993 0.9967319 1.0029333
0000d0 3c c6 80 3f ab 8f 80 3f f9 56 7f 3f fe 02 80 3f
       1.0060496 1.0043844 0.99742085 1.0000913
0000e0 c4 00 7f 3f 25 ec 80 3f 42 52 7d 3f 1b d8 7d 3f
       0.99610543 1.0072066 0.9895364 0.99157876
0000f0 4f 7d 80 3f cb ee 80 3f 18 31 81 3f 68 44 80 3f
       1.0038241 1.0072874 1.0093107 1.0020876

base.mlp.fc1.2.bias f4 [64]
000000 ff 3a ae bb 96 2d a5 bb 11 31 46 ba 4f cd 81 3b
       -0.0053170915 -0.0050408347 -0.0007560412 0.0039612423
000010 1b 8a 0a 3b c2 b1 19 3b 5d d7 e3 ba 75 0a f9 3a
       0.0021139446 0.00234519 -0.0017382909 0.0019000309
000020 12 f1 1c ba 12 09 f7 3b 51 31 01 3b d5 c6 58 bb
       -0.000598685 0.007538923 0.0019713233 -0.0033077498
000030 a5 cb 3f 3b f0 26 ff 3a be f7 ed bb 96 89 0c ba
       0.0029265669 0.001946656 -0.007262199 -0.0005361078
000040 d8 38 10 3c 3a 1b b6 ba d5 be b1 bb cd 94 c3 ba
       0.008802615 -0.0013893612 -0.0054243603 -0.0014921665
000050 69 67 20 bc bf 5d 89 3b 5a 20 e5 3b 24 68 0b bc
       -0.00979028 0.0041920836 0.006992382 -0.008508716
000060 04 53 3d 3c 0e 4a 15 bb 25 62 ff 3b f0 90 0f bc
       0.011555437 -0.0022779736 0.007793682 -0.008762583
000070 3f db 0e 3b cd 90 ee 3b 69 94 10 bc 7d b1 98 3b
       0.0021798161 0.007280445 -0.008824446 0.00465983
000080 d2 e7 29 3b 9f c1 1e bc e1 51 21 3c 43 10 4f bb
       0.002592553 -0.009689718 0.009846182 -0.0031595386
000090 96 26 e1 3b e1 6d ac ba 3d cf 09 3c 12 49 c0 3a
       0.006871055 -0.0013155305 0.008411226 0.0014670214
0000a0 56 3f 7c 3b b2 29 50 3b 3f 50 fd 3b 9d d8 b2 bb
       0.00384899 0.0031763134 0.0077305133 -0.005457951
0000b0 43 df 8c 3b 3a 5b a2 bb 37 eb 57 3a 7c 32 13 bb
       0.004299076 -0.0049547227 0.0008236649 -0.002246051
0000c0 28 9c 2b bc 96 ff 10 bb 96 33 52 3b d7 a4 a9 ba
       -0.010474242 -0.0022124997 0.0032074205 -0.0012942803
0000d0 0a 5c c3 3b e0 08 92 3b 7f 72 27 3b 02 ae fb 38
       0.0059618996 0.0044566244 0.0025550423 0.00012001024
0000e0 4b 70 78 3b 59 2c 14 bc 86 35 2c bc 78 29 08 3c
       0.0037908729 -0.009043776 -0.010510808 0.008310668
0000f0 99 73 60 3b be 3f f4 3b d0 dd 10 3c ad 6e e8 3a
       0.003424859 0.0074538877 0.008841947 0.0017733179

base.mlp.fc_h.0.weight f4 [64, 64]
000000 7a bb a7 bd fd 65 90 3c a9 33 32 be 40 f7 34 be
       -0.08190055 0.017626757 -0.1740252 -0.17672443
000010 ee 25 4e be aa b7 a8 3d c5 fa b4 3e 35 77 ba bd
       -0.20131657 0.08238156 0.35347572 -0.09104768
000020 0c 49 62 3d 02 07 21 be dd ca 31 3e 2a 14 01 be
       0.055245444 -0.1572533 0.17362542 -0.12605348
000030 36 89 a6 3e 65 d9 7d 3e ce 26 3a bd 16 cf 4a 3d
       0.3252656 0.2478996 -0.045447163 0.0495139
000040 13 61 4f 3d 11 b0 2d bd af c2 e7 3d 9e 65 b8 be
       0.050629687 -0.042404238 0.1131643 -0.36015028
000050 a5 06 aa be c9 70 ac 3d c8 e9 e3 bc 75 2b a8 be
       -0.33208194 0.084199496 -0.027821437 -0.32845655
000060 73 81 68 bd 12 55 a5 3e 61 91 56 be 39 e1 28 be
       -0.056764077 0.32291466 -0.20953895 -0.16492166
000070 ec 66 87 bc 37 59 48 3d c4 f5 15 3d bc f9 c2 3c
       -0.01652857 0.048913207 0.036611333 0.023800723
000080 c5 9a 01 3d 06 2d 30 be d0 4a a8 be 8b a9 95 bd
       0.03164174 -0.17204675 -0.32869577 -0.073077284
000090 d2 d3 ab be 63 a2 88 be 36 1f 0c 3f 07 e8 11 3e
       -0.33560044 -0.2668639 0.54735124 0.14248668
0000a0 95 03 5b be d1 fa a2 be a1 cd 50 3c 24 85 06 be
       -0.21388085 -0.31831983 0.012744338 -0.13136727
0000b0 5c 3a f0 3d 5c 87 6a 3e b5 ea e7 3e 3b 1e 1c 3d
       0.11729881 0.22903198 0.45296255 0.038114768
0000c0 c1 7a f1 3e d6 cb f3 bd e7 3c b1 3d c1 c0 5a be
       0.47163966 -0.11904113 0.08654194 -0.21362592
0000d0 8e 8e 25 be 12 56 77 3e 08 ab 1f bd ed 78 bf be
       -0.16167662 0.24153927 -0.038981467 -0.37396947
0000e0 40 73 07 3c bb c7 9e be 11 eb ac bd bc 89 3a 3c
       0.008267224 -0.31011757 -0.08443273 0.0113853775
0000f0 4c b4 10 bb 03 b6 5a bd 63 0e fc bd 89 0b 8f bd
       -0.0022080122 -0.053396236 -0.123074315 -0.06984622
000100 8f e2 14 be 20 c8 ee 3d e6 04 e8 be 6c 80 56 3d
       -0.1453955 0.116592646 -0.45316237 0.052368566
000110 63 31 82 bd 2c 3b 8e ba a0 fe 74 3e d4 7a fc bd
       -0.06357076 -0.0010851375 0.23925257 -0.12328115
000120 0b d5 25 be 17 b6 88 3d 91 48 a3 bc ed c9 11 3c
       -0.1619455 0.06675356 -0.019932063 0.0088982405
000130 9b e5 d2 bd 5e 89 11 3f 35 d0 e8 3d 41 7e aa 3b
       -0.102977 0.5685023 0.11367837 0.005203039
000140 4a 7b c3 bb 47 34 14 3d d9 f0 d6 3d 99 f3 72 be
       -0.005965625 0.036182668 0.10495157 -0.23725738
000150 60 6f 23 3a 1c 37 8f bd e6 f7 fd 3d 19 e1 54 3d
       0.0006234553 -0.06992933 0.124007985 0.051972482
000160 23 68 81 3d fc bc 38 3e ec 5d d4 3e 47 3f 21 3d
       0.06318691 0.18040842 0.41477907 0.039366987
000170 2e 67 9c 3e c5 9a be bc 4c 82 6f bc 7d 9f 3c bd
       0.3054747 -0.02326716 -0.014618468 -0.046050537
000180 08 1a 59 be 3e 2f a3 3e 96 a3 a3 3d b2 51 d9 3e
       -0.21201336 0.3187198 0.07990186 0.4244514
000190 46 d1 9c bd e2 57 7c be e0 45 9d 3d 67 87 6d be
       -0.07657103 -0.246429 0.07679343 -0.23196183
0001a0 77 24 44 bd 78 17 15 be 6e e2 ff bd 01 1a 95 3e
       -0.047886338 -0.14559734 -0.1249436 0.29121402
0001b0 09 83 90 3d 0a 76 1d 3c d5 a7 94 bb 38 0c 61 be
       0.07056243 0.009610662 -0.0045366087 -0.21977317
0001c0 b2 82 14 be e9 d6 c1 bc fa 9a 07 3d d1 02 b0 3e
       -0.14502981 -0.023662047 0.03310678 0.3437715
0001d0 06 54 ba 3e 7a 2c fe be 16 d7 b7 3e 9b 09 4f be
       0.3639223 -0.49643308 0.35906285 -0.20218508
0001e0 02 25 09 3d 37 70 83 3d 6b cd 1a 3e 84 57 ac 3e
       0.03348256 0.06417888 0.15117423 0.3366052
0001f0 93 fa c7 3e e6 5c 4a be 22 7f 1c 3e a4 3c 9b 3b
       0.3905836 -0.19762 0.15282872 0.0047374535
000200 46 2f 02 3e 6f ff d2 3d 75 e3 d6 3d a2 76 dc 3c
       0.12713346 0.10302626 0.10492603 0.026912037
000210 cd 5e 98 bd 1c c8 a8 bd b1 72 de bc 77 71 10 be
       -0.07439957 -0.08241293 -0.027154298 -0.14105783
000220 f8 14 c3 bd 40 ba 55 3e 45 f0 e5 bd 67 f5 0f 3e
       -0.09525484 0.2087183 -0.112274684 0.14058457
000230 41 6c b2 be 40 1e 93 3d 5a 22 45 bd e1 73 99 be
       -0.34848216 0.07183504 -0.048128463 -0.2997122
000240 78 ad 39 bc 3b 59 e6 be 29 cf 05 be e2 ad bc 3d
       -0.011332862 -0.44989952 -0.13067307 0.09212853
000250 38 f5 39 be 08 77 26 3e fd 33 85 be 70 68 f7 bd
       -0.1815995 0.16256344 -0.26016226 -0.12080467
000260 b6 dd e4 3e a9 76 29 be 0a ff 61 bd ac 7c f5 bc
       0.44700402 -0.16549172 -0.055174865 -0.029966675
000270 78 42 56 3c 77 0f d8 bd d4 29 c4 be 5d 15 47 be
       0.013077371 -0.10549825 -0.38313162 -0.19441743
000280 4f d6 3e 3e 02 82 13 be 13 c4 b1 be 54 e8 68 3e
       0.1863644 -0.14405063 -0.34719905 0.22744876
000290 15 c2 0a be ff 57 27 3e 05 37 9a bc 0a 48 c2 3d
       -0.13550599 0.16342162 -0.018825063 0.094863966
0002a0 10 de 1f be dc cc 84 be 20 c5 9f be b1 bc ae 3e
       -0.15612054 -0.25937545 -0.31205082 0.34128335
0002b0 35 3d 12 be 4f 96 f1 3d 69 e0 94 3d ee 02 04 be
       -0.14281161 0.11796247 0.07269365 -0.12891743
0002c0 93 00 e9 3c 29 8b 98 be 68 2a 75 be 38 43 b8 3d
       0.028442657 -0.2979367 -0.23941958 0.08997196
0002d0 7e 0b 97 3d 7a f3 e1 3d 3c 69 31 3e b9 15 26 3e
       0.07375239 0.110327676 0.173253 0.16219224
0002e0 aa 03 24 3f 34 96 18 be 5c 41 c7 bd e3 22 38 be
       0.6406809 -0.14901048 -0.09729263 -0.17982058
0002f0 6c 2d 66 be ff bc 24 3e 92 88 d6 3e d4 95 a4 bd
       -0.22478265 0.16087721 0.4190107 -0.0803639
000300 0a 99 87 3e 80 e1 21 3e 5a 42 07 3d 95 3a 26 3d
       0.26483947 0.15808678 0.033022262 0.040583212
000310 72 46 91 3e 79 79 a1 3e 36 e5 e9 3b 22 e3 83 be
       0.28374058 0.3153799 0.00713792 -0.25759226
000320 2c f5 63 3e d0 ad be bd a8 b7 81 be e4 1c 4f bd
       0.22261494 -0.09310496 -0.2533543 -0.05056466
000330 02 db 3d be a5 7f 15 bd 30 c1 fe bd 15 59 0c be
       -0.18540576 -0.036498684 -0.12439191 -0.13705857
000340 e1 27 1e be 56 71 c0 3c ba 4e 06 3f 9e 93 41 3e
       -0.154449 0.023491543 0.5246388 0.18903968
000350 f3 be 09 3e 27 11 17 3f f6 cc be 3d 36 3a c6 bc
       0.13451748 0.5901055 0.09316437 -0.024197679
000360 76 d0 9d 3d d4 f7 d9 3e e7 13 8f 3e 8e 17 0e 3d
       0.077057764 0.4257189 0.27944872 0.034690432
000370 4b f4 06 be 37 09 a7 3d 1a 9c e2 bc 68 f1 70 3e
       -0.13179128 0.081560545 -0.027662326 0.23529589
000380 3e 6e cc 3b 89 90 10 be 6f d6 19 be a6 ad f6 3d
       0.006238728 -0.14117636 -0.15023206 0.120448396
000390 20 1c c3 bd cd 7e 35 be 57 03 8a 3c 62 08 ca 3c
       -0.09526849 -0.17724152 0.016847296 0.0246622
0003a0 a3 95 53 bc 8a 38 33 be 27 05 92 be a5 78 df 3d
       -0.012914094 -0.17502037 -0.28519556 0.10911683
0003b0 13 ed 44 bd ba 73 85 be c1 f5 9e be 0d 42 05 3e
       -0.048077654 -0.26064855 -0.3104687 0.13013478
0003c0 1e 30 41 bd 45 bc 0d 3e f5 2a 21 3e 6c 61 14 3e
       -0.04716503 0.1384135 0.15739043 0.14490288
0003d0 85 90 5b bd 6c a8 a5 3c 25 41 4c be 16 f6 d0 bb
       -0.05360462 0.020221911 -0.19946726 -0.006376992
0003e0 01 62 07 bf 85 fa 8a be 0d 8b c5 be 67 18 27 3e
       -0.5288392 -0.27144256 -0.3858265 0.16317903
0003f0 7e 56 21 be b5 bc 71 3e 67 8f 5e 3e a4 da b7 bd
       -0.1575565 0.23607142 0.21734391 -0.08977249

base.mlp.fc_h.0.bias f4 [64]
000000 00 00 00 00 00 00 00 00 00 00 00 00 00 00 00 00
       0.0 0.0 0.0 0.0
000010 00 00 00 00 00 00 00 00 00 00 00 00 00 00 00 00
       0.0 0.0 0.0 0.0
000020 00 00 00 00 00 00 00 00 00 00 00 00 00 00 00 00
       0.0 0.0 0.0 0.0
000030 00 00 00 00 00 00 00 00 00 00 00 00 00 00 00 00
       0.0 0.0 0.0 0.0
000040 00 00 00 00 00 00 00 00 00 00 00 00 00 00 00 00
       0.0 0.0 0.0 0.0
000050 00 00 00 00 00 00 00 00 00 00 00 00 00 00 00 00
       0.0 0.0 0.0 0.0
000060 00 00 00 00 00 00 00 00 00 00 00 00 00 00 00 00
       0.0 0.0 0.0 0.0
000070 00 00 00 00 00 00 00 00 00 00 00 00 00 00 00 00
       0.0 0.0 0.0 0.0
000080 00 00 00 00 00 00 00 00 00 00 00 00 00 00 00 00
       0.0 0.0 0.0 0.0
000090 00 00 00 00 00 00 00 00 00 00 00 00 00 00 00 00
       0.0 0.0 0.0 0.0
0000a0 00 00 00 00 00 00 00 00 00 00 00 00 00 00 00 00
       0.0 0.0 0.0 0.0
0000b0 00 00 00 00 00 00 00 00 00 00 00 00 00 00 00 00
       0.0 0.0 0.0 0.0
0000c0 00 00 00 00 00 00 00 00 00 00 00 00 00 00 00 00
       0.0 0.0 0.0 0.0
0000d0 00 00 00 00 00 00 00 00 00 00 00 00 00 00 00 00
       0.0 0.0 0.0 0.0
0000e0 00 00 00 00 00 00 00 00 00 00 00 00 00 00 00 00
       0.0 0.0 0.0 0.0
0000f0 00 00 00 00 00 00 00 00 00 00 00 00 00 00 00 00
       0.0 0.0 0.0 0.0

base.mlp.fc_h.2.weight f4 [64]
000000 00 00 80 3f 00 00 80 3f 00 00 80 3f 00 00 80 3f
       1.0 1.0 1.0 1.0
000010 00 00 80 3f 00 00 80 3f 00 00 80 3f 00 00 80 3f
       1.0 1.0 1.0 1.0
000020 00 00 80 3f 00 00 80 3f 00 00 80 3f 00 00 80 3f
       1.0 1.0 1.0 1.0
000030 00 00 80 3f 00 00 80 3f 00 00 80 3f 00 00 80 3f
       1.0 1.0 1.0 1.0
000040 00 00 80 3f 00 00 80 3f 00 00 80 3f 00 00 80 3f
       1.0 1.0 1.0 1.0
000050 00 00 80 3f 00 00 80 3f 00 00 80 3f 00 00 80 3f
       1.0 1.0 1.0 1.0
000060 00 00 80 3f 00 00 80 3f 00 00 80 3f 00 00 80 3f
       1.0 1.0 1.0 1.0
000070 00 00 80 3f 00 00 80 3f 00 00 80 3f 00 00 80 3f
       1.0 1.0 1.0 1.0
000080 00 00 80 3f 00 00 80 3f 00 00 80 3f 00 00 80 3f
       1.0 1.0 1.0 1.0
000090 00 00 80 3f 00 00 80 3f 00 00 80 3f 00 00 80 3f
       1.0 1.0 1.0 1.0
0000a0 00 00 80 3f 00 00 80 3f 00 00 80 3f 00 00 80 3f
       1.0 1.0 1.0 1.0
0000b0 00 00 80 3f 00 00 80 3f 00 00 80 3f 00 00 80 3f
       1.0 1.0 1.0 1.0
0000c0 00 00 80 3f 00 00 80 3f 00 00 80 3f 00 00 80 3f
       1.0 1.0 1.0 1.0
0000d0 00 00 80 3f 00 00 80 3f 00 00 80 3f 00 00 80 3f
       1.0 1.0 1.0 1.0
0000e0 00 00 80 3f 00 00 80 3f 00 00 80 3f 00 00 80 3f
       1.0 1.0 1.0 1.0
0000f0 00 00 80 3f 00 00 80 3f 00 00 80 3f 00 00 80 3f
       1.0 1.0 1.0 1.0

base.mlp.fc_h.2.bias f4 [64]
000000 00 00 00 00 00 00 00 00 00 00 00 00 00 00 00 00
       0.0 0.0 0.0 0.0
000010 00 00 00 00 00 00 00 00 00 00 00 00 00 00 00 00
       0.0 0.0 0.0 0.0
000020 00 00 00 00 00 00 00 00 00 00 00 00 00 00 00 00
       0.0 0.0 0.0 0.0
000030 00 00 00 00 00 00 00 00 00 00 00 00 00 00 00 00
       0.0 0.0 0.0 0.0
000040 00 00 00 00 00 00 00 00 00 00 00 00 00 00 00 00
       0.0 0.0 0.0 0.0
000050 00 00 00 00 00 00 00 00 00 00 00 00 00 00 00 00
       0.0 0.0 0.0 0.0
000060 00 00 00 00 00 00 00 00 00 00 00 00 00 00 00 00
       0.0 0.0 0.0 0.0
000070 00 00 00 00 00 00 00 00 00 00 00 00 00 00 00 00
       0.0 0.0 0.0 0.0
000080 00 00 00 00 00 00 00 00 00 00 00 00 00 00 00 00
       0.0 0.0 0.0 0.0
000090 00 00 00 00 00 00 00 00 00 00 00 00 00 00 00 00
       0.0 0.0 0.0 0.0
0000a0 00 00 00 00 00 00 00 00 00 00 00 00 00 00 00 00
       0.0 0.0 0.0 0.0
0000b0 00 00 00 00 00 00 00 00 00 00 00 00 00 00 00 00
       0.0 0.0 0.0 0.0
0000c0 00 00 00 00 00 00 00 00 00 00 00 00 00 00 00 00
       0.0 0.0 0.0 0.0
0000d0 00 00 00 00 00 00 00 00 00 00 00 00 00 00 00 00
       0.0 0.0 0.0 0.0
0000e0 00 00 00 00 00 00 00 00 00 00 00 00 00 00 00 00
       0.0 0.0 0.0 0.0
0000f0 00 00 00 00 00 00 00 00 00 00 00 00 00 00 00 00
       0.0 0.0 0.0 0.0

base.mlp.fc2.0.0.weight f4 [64, 64]
000000 87 ba aa bd 3f 3c a1 3c e9 9c 37 be dd 4c 3a be
       -0.083363585 0.019682048 -0.1793095 -0.18193384
000010 34 9d 48 be 12 0d b5 3d 94 36 b2 3e e5 a9 c4 bd
       -0.19591218 0.088403836 0.34807265 -0.09602717
000020 1d 91 61 3d 31 ef 1b be 2d 26 37 3e ec ac f7 bd
       0.05507003 -0.15227963 0.17885657 -0.12093529
000030 98 e2 a9 3e c7 56 79 3e a7 f4 4f bd d1 67 4d 3d
       0.3318069 0.24349509 -0.050770428 0.050147835
000040 8d 7b 39 3d 97 bd 3a bd 97 39 e8 3d 47 73 bc be
       0.045283843 -0.045590963 0.113391094 -0.368067
000050 2b ef a6 be 66 37 b9 3d 65 ff 04 bd 6b fc aa be
       -0.32604346 0.090437695 -0.032470126 -0.33395705
000060 ef 4f 52 bd e8 17 a8 3e ee e1 53 be f3 6a 23 be
       -0.051345762 0.3283074 -0.20691654 -0.15958767
000070 76 79 a4 bc 2c 82 5e 3d c6 f0 21 3d e9 15 97 3c
       -0.020077448 0.05432336 0.03953626 0.018443065
000080 34 16 1b 3d 53 14 38 be 0d 87 a5 be 89 a2 85 bd
       0.03786297 -0.17976503 -0.32329598 -0.06525142
000090 83 8b ae be 29 08 8b be fe bc 0a 3f 29 7d 0f 3e
       -0.34090814 -0.27154663 0.5419463 0.14012589
0000a0 76 6e 60 be e3 99 a5 be 43 c3 f0 3b 09 71 01 be
       -0.21917138 -0.3234397 0.0073474958 -0.12640776
0000b0 06 56 fb 3d a1 4e 6f 3e fe d5 e5 3e 92 ad 07 3d
       0.12272267 0.23369838 0.44889826 0.033124514
0000c0 a2 3b f4 3e 5d 4d ea bd 4b 30 bc 3d bd 37 57 be
       0.47701746 -0.11440537 0.09188899 -0.21017356
0000d0 b6 26 2b be 9a cc 71 3e 34 84 09 bd 65 f4 bc be
       -0.16713986 0.23613206 -0.033573344 -0.36905208
0000e0 8a f4 5f 3c 94 7c 9b be 2a fe b7 bd 39 56 89 3c
       0.0136691425 -0.30368483 -0.08984025 0.016764747
0000f0 ba c2 f2 bb a5 b1 70 bd 92 b6 03 be e6 d7 79 bd
       -0.007408467 -0.058763165 -0.12862614 -0.060996912
000100 25 e6 10 be f6 9c fb 3d 88 c8 ea be c9 09 3f 3d
       -0.14150293 0.12285797 -0.45856118 0.04664019
000110 a1 a5 6e bd 7e 75 83 3b 8e 34 6f 3e cb 1e 03 be
       -0.058263425 0.004011809 0.23359892 -0.12804715
000120 8b bc 1f be eb a2 90 3d 29 02 75 bc 67 15 6a 3c
       -0.15599267 0.07062324 -0.014954128 0.014287329
000130 9d e9 c8 bd 47 f7 12 3f ae d7 db 3d de 8e 97 3b
       -0.09810183 0.57408565 0.10734497 0.0046251854
000140 9f ad 3e bc 0e 43 2a 3d ac 3b d9 3d c0 11 76 be
       -0.011638074 0.041567855 0.10607085 -0.24030209
000150 e6 7f 9a 3b 87 97 85 bd ff 22 f2 3d 8b fe 3d 3d
       0.0047149537 -0.06523042 0.11823081 0.04638533
000160 65 12 8c 3d e8 2a 3e 3e ae 0b d7 3e f8 12 37 3d
       0.06839446 0.18571055 0.42001098 0.044695824
000170 c9 10 9a 3e 2e 63 93 bc 31 d0 8c bc c7 e5 54 bd
       0.3009093 -0.017991628 -0.017189117 -0.051976945
000180 e5 45 54 be da f0 a0 3e d8 a5 ae 3d 6c bd d9 3e
       -0.20729788 0.31433755 0.08527726 0.4252733
000190 d2 8b a6 bd ed 63 80 be 81 8b 91 3d e4 76 6b be
       -0.08132137 -0.25076237 0.071066864 -0.22994572
0001a0 f6 b4 5a bd 8e 30 1b be 72 c9 05 be 54 cc 97 3e
       -0.053395234 -0.15155241 -0.13065127 0.29648077
0001b0 46 6b 9b 3d 56 b4 71 3c 63 f5 16 bc 3a 1d 67 be
       0.0758882 0.014752468 -0.009213778 -0.22569743
0001c0 6e 07 0f be 0b de 9a bc cb b6 1d 3d 21 4f b2 3e
       -0.13967678 -0.018904706 0.038504403 0.34825996
0001d0 be 8e b7 3e bf 8b 00 bf f5 8e ba 3e 51 1c 4a be
       0.3585109 -0.50213236 0.36437193 -0.19737364
0001e0 88 cd 1e 3d bd 6e 8b 3d e3 f9 14 3e 59 0f af 3e
       0.03877023 0.06808231 0.14548449 0.34191397
0001f0 24 08 c5 3e b8 08 50 be 94 01 17 3e e6 64 08 3c
       0.38482773 -0.20315826 0.14746696 0.008324837
000200 53 f8 02 3e 46 e9 c8 3d c7 fd e9 3d a7 74 14 3d
       0.1279004 0.098101184 0.11425357 0.03624406
000210 55 77 ab bd 52 87 bb bd cb 4d 92 bc 3d c8 07 be
       -0.0837237 -0.0915667 -0.01785936 -0.13259979
000220 ef 22 cb bd 6f 93 4c 3e b3 15 f9 bd 7b c8 06 3e
       -0.099187724 0.19978116 -0.12162342 0.13162415
000230 f5 09 b7 be 78 df 8c 3d d1 85 22 bd 90 27 9a be
       -0.35749784 0.06878561 -0.0396784 -0.3010831
000240 20 b8 03 bb 2f 3b e7 be dc dd 08 be a9 11 ce 3d
       -0.002009876 -0.4516234 -0.13365883 0.10061962
000250 30 31 43 be 02 08 1d 3e 41 48 80 be ce 74 e4 bd
       -0.19061732 0.15335086 -0.25055125 -0.11155091
000260 ec 09 e0 3e 12 03 33 be d1 73 5f bd ae 8c 20 bd
       0.4375757 -0.1748164 -0.05455381 -0.039196663
000270 39 44 94 3c 2a 21 eb bd 56 87 c5 be 01 ac 3d be
       0.018098937 -0.11480935 -0.38579816 -0.18522646
000280 2c 5a 35 3e b9 0c 0a be 95 82 b6 be f2 e2 60 3e
       0.17710179 -0.13481416 -0.356465 0.21961573
000290 14 12 01 be 92 c1 30 3e bc 21 1c bc 10 4b c0 3d
       -0.12604553 0.17261341 -0.009529527 0.09389317
0002a0 f4 67 16 be f7 1a 80 be 78 00 9b be c5 f1 a9 3e
       -0.14688092 -0.25020573 -0.30273795 0.33192268
0002b0 07 c8 1b be 96 e1 de 3d 8c ee a5 3d 6d f3 f4 bd
       -0.15213023 0.10882871 0.0810214 -0.11960492
0002c0 f6 15 9d 3c 69 44 9d be a2 b2 7e be a3 59 a6 3d
       0.01917551 -0.30716255 -0.2487283 0.081225656
0002d0 aa 22 aa 3d 06 0a f5 3d f4 e9 27 3e 16 d6 1c 3e
       0.08307393 0.119648024 0.1639784 0.15316042
0002e0 bd a2 21 3f 09 5e 20 be f1 2e b4 bd 53 b0 41 be
       0.63138944 -0.15660872 -0.08798016 -0.18914919
0002f0 4c d2 5c be d6 0c 2e 3e fd 31 db 3e b0 49 b6 bd
       -0.21564597 0.16997084 0.42811576 -0.089007735
000300 08 52 88 3e b9 81 1c 3e fb 15 34 3d d4 2b 53 3d
       0.26625085 0.1528386 0.043966275 0.05155547
000310 5e bd 8b 3e 4b 12 9c 3e 9c c9 94 3c 09 32 7d be
       0.27292913 0.30482706 0.018162541 -0.24726118
000320 80 a6 64 3e 50 5d d2 bd 1f 3a 87 be 27 ab 7c bd
       0.2232914 -0.10271704 -0.2641153 -0.06168666
000330 90 c7 48 be 43 09 0f bd 40 42 e8 bd 4f 8b 0c be
       -0.19607377 -0.034920942 -0.11340761 -0.13725017
000340 aa d9 12 be a0 ad c9 3c a3 f7 05 3f cc 3d 4b 3e
       -0.14340845 0.024618924 0.5233099 0.19847792
000350 63 4e fe 3d 45 7b 14 3f bc 6d d4 3d e3 e7 57 bc
       0.12417295 0.58000594 0.10372493 -0.013177845
000360 0a 9d 87 3d bf 6b d4 3e 81 70 8f 3e eb 7a c3 3c
       0.0662175 0.41488454 0.2801552 0.023862323
000370 4b 02 00 be 31 f3 90 3d 3f 50 08 bd ee 46 7c 3e
       -0.12500875 0.07077635 -0.033279654 0.24636433
000380 f6 02 95 bb 9d d1 06 be f2 01 25 be 9d 83 e2 3d
       -0.004547472 -0.13165899 -0.16114023 0.110602595
000390 6e 11 ad bd c8 89 2a be 67 c2 e4 3c c3 9a e7 3c
       -0.0845059 -0.16654122 0.02792473 0.028272038
0003a0 26 d9 f1 ba 12 14 28 be e9 5c 8c be 98 a6 c9 3d
       -0.0018451556 -0.16413906 -0.27414635 0.09846228
0003b0 2c 1d 71 bd 95 f5 8a be fe d9 9a be b7 1f 10 3e
       -0.05886571 -0.2714049 -0.3024444 0.14074598
0003c0 da 7c 6d bd 43 45 03 3e 35 21 16 3e 99 31 0b 3e
       -0.057980396 0.1281939 0.14661105 0.13593139
0003d0 f7 67 2e bd 06 1f 00 3d cc 49 57 be 3b ec 88 bc
       -0.042579617 0.031279586 -0.21024245 -0.016714206
0003e0 ba 25 0a bf c8 4e 90 be 08 e2 bf be 6d 08 1c 3e
       -0.53963816 -0.28185105 -0.37477136 0.15237589
0003f0 7e 15 16 be 4b f5 7c 3e 1c c3 69 3e 41 d1 cc bd
       -0.14656636 0.24702947 0.22828335 -0.100008495

base.mlp.fc2.0.0.bias f4 [64]
000000 2a 88 ae bb 23 20 ab bb 6d f0 16 3c ce 55 30 3c
       -0.0053262906 -0.005222337 0.009212595 0.010762645
000010 c0 45 aa 3a 7a af dd b9 bd cb a2 bb 77 47 52 3b
       0.0012990758 -0.00042283145 -0.004968135 0.0032086053
000020 f9 51 38 bc 62 2a fb ba 5c 1b a0 3b 28 23 8e bb
       -0.011250013 -0.0019162411 0.004886074 -0.004337687
000030 1d d5 20 3c 6d fd 2d 3b ce f5 58 ba 1b df e3 bb
       0.009816435 0.0026548759 -0.0008276374 -0.0069540865
000040 5f 02 03 3c 58 fa 0e 3c 2f a0 c1 3b 49 9e ff bb
       0.007996171 0.008726679 0.005908988 -0.0078008515
000050 65 ae 03 3a dc 08 f1 3b 6b e6 a4 bb f7 e4 23 3b
       0.000502324 0.0073557924 -0.005032351 0.00250083
000060 1a 6d 22 3b 7e 4d 05 3c a3 fc a8 3b d6 36 20 3a
       0.0024784268 0.008136151 0.00515707 0.0006111687
000070 ea 81 46 3b a1 ec 0d bc a0 6b 2a bc 31 40 31 ba
       0.0030289837 -0.008662374 -0.010401636 -0.00067615794
000080 d0 1d 3b 3a c4 a7 10 bc bf ed 25 3c c5 d7 59 bb
       0.00071379263 -0.008829061 0.010127484 -0.003324018
000090 04 55 27 3a f5 0a f0 bb 25 ec c9 3b af 06 a4 3a
       0.0006383213 -0.007325525 0.006162184 0.0012514199
0000a0 9e 7a dd bb f9 4c 80 3a a6 47 22 3c 19 52 e1 bb
       -0.006759002 0.0009788565 0.009904778 -0.006876242
0000b0 05 f7 0b 3b ca 5c b0 ba e6 44 c9 39 09 6c be 3b
       0.0021356952 -0.0013455388 0.0003838904 0.0058112186
0000c0 bd 09 f2 3a e8 5a 3b 3b 70 cb 13 bb 81 06 b4 3b
       0.0018466037 0.002858812 -0.0022551678 0.0054939394
0000d0 13 0b e1 3b 4f 34 91 3b a8 d5 80 3b 0c 46 ef 3b
       0.006867775 0.0044312845 0.00393172 0.0073020514
0000e0 37 2d b4 bb 01 9b c9 3b 97 bf 06 bc 9f 26 30 bc
       -0.005498554 0.006152511 -0.0082243895 -0.0107513955
0000f0 f8 88 35 3c 76 0d 7c 3b 35 e0 cd 3b 99 5c e4 bb
       0.011080019 0.0038460172 0.006282831 -0.0069690463

base.mlp.fc2.0.2.weight f4 [64]
000000 2c 50 81 3f 71 69 81 3f fd b1 7f 3f e5 f9 7f 3f
       1.0102592 1.0110303 0.99880964 0.99990684
000010 8c 33 81 3f 87 bc 80 3f 61 c6 80 3f 4f f5 80 3f
       1.0093856 1.0057534 1.006054 1.0074862
000020 bd 3d 80 3f ac 84 80 3f d0 0e 81 3f 2f 5c 81 3f
       1.0018841 1.0040488 1.0082645 1.0106257
000030 75 e2 80 3f 76 22 81 3f 65 65 81 3f de 80 81 3f
       1.0069109 1.0088642 1.0109068 1.0117452
000040 5f be 80 3f 78 ad 7f 3f 50 56 81 3f 54 e0 80 3f
       1.0058097 0.9987407 1.0104465 1.006846
000050 cc a4 81 3f fa 55 81 3f 06 4f 81 3f ff 1c 7f 3f
       1.0128417 1.0104363 1.0102241 0.9965362
000060 07 a0 80 3f 79 4b 81 3f 4b 13 81 3f 96 6f 81 3f
       1.0048836 1.0101157 1.0084013 1.0112178
000070 34 d1 80 3f 8e 51 81 3f 5d 11 81 3f 96 de 80 3f
       1.0063844 1.0103014 1.0083424 1.0067928
000080 fa 57 81 3f 5f 4e 81 3f dc 61 81 3f 37 d1 7e 3f
       1.0104973 1.0102042 1.0107989 0.99537987
000090 f0 16 81 3f 2e 67 81 3f e6 4f 81 3f c1 17 81 3f
       1.0085125 1.0109613 1.0102508 1.0085374
0000a0 c4 4c 81 3f ee 43 81 3f 56 4d 81 3f b7 42 80 3f
       1.0101552 1.0098855 1.0101726 1.002036
0000b0 e4 19 80 3f c2 91 80 3f 02 3b 81 3f a0 28 81 3f
       1.0007901 1.0044482 1.0096133 1.0090523
0000c0 91 cf 7f 3f 7f c9 80 3f 88 7f 81 3f ae 0a 81 3f
       0.99926096 1.0061492 1.0117044 1.0081384
0000d0 a2 ff 80 3f 06 6a 80 3f 8e de 80 3f a8 4c 81 3f
       1.0078013 1.0032356 1.0067918 1.0101519
0000e0 84 fd 80 3f a8 5c 81 3f 58 80 80 3f 92 19 7f 3f
       1.0077367 1.0106401 1.0039167 0.9964839
0000f0 c4 64 81 3f 9e 95 80 3f 7a 54 81 3f 60 5b 81 3f
       1.0108876 1.004566 1.0103905 1.010601

base.mlp.fc2.0.2.bias f4 [64]
000000 25 93 1f bc 51 69 34 bc 06 46 80 3a 19 8f f8 b8
       -0.009739672 -0.0110114375 0.0009786494 -0.000118522155
000010 33 bb 18 bc fb 3a c7 3b 10 47 cb bb 3a 0b f9 bb
       -0.0093219755 0.006080029 -0.0062035397 -0.0076002153
000020 bc 84 f4 3a 94 9a 71 3b 6c 0b f8 3b 71 67 2d bc
       0.0018655281 0.0036865817 0.007569721 -0.010583744
000030 dd a4 02 3c e7 92 12 3c 62 b8 31 bc 4e ca 16 bc
       0.007973877 0.008946157 -0.010847183 -0.009203507
000040 ea 3e 71 bb b0 d5 bf 3a c2 d9 29 3c b1 e2 d5 3b
       -0.0036811181 0.0014635827 0.010366859 0.006527268
000050 a8 5c ca bb e6 dd 2a 3c 6f db ed bb 27 4c 04 3b
       -0.0061755963 0.010428881 -0.0072588245 0.0020186992
000060 14 2c 84 3a 01 ef 27 3c 7a 6e 05 3c a6 c5 36 3c
       0.0010083937 0.010249854 0.008144015 0.0111555215
000070 bd ea 7a bb 75 bd 2a bc 89 12 22 bc 3d 37 f0 bb
       -0.0038286888 -0.010421147 -0.009892114 -0.0073308037
000080 bb f5 2a bc f8 2f 29 bc 67 5c 31 3c 15 66 24 bb
       -0.010434563 -0.010326378 0.010825253 -0.002508526
000090 2d 34 0b 3c c2 af 34 bc e2 9b 25 3c 56 84 b5 ba
       0.008496326 -0.011028232 0.010107966 -0.0013848643
0000a0 ce 37 21 bc e5 09 20 3c a7 b5 30 3c a6 66 07 3b
       -0.009839965 0.009767984 0.010785497 0.0020660548
0000b0 71 c3 a2 3b 24 b0 91 3b d3 6c 1d bc 31 80 16 bc
       0.004967146 0.0044460464 -0.009608465 -0.009185837
0000c0 2e 40 62 3b 73 d4 c8 bb d6 1d c1 bb 53 08 02 bc
       0.0034523117 -0.0061288415 -0.0058934493 -0.007936555
0000d0 4e 55 04 3c 48 90 e5 3b 9c fd ea 3b 7b ed 24 3c
       0.008076979 0.007005725 0.007171346 0.010066385
0000e0 79 b4 e3 3b f1 72 24 3c 50 6d e6 bb aa 56 65 bb
       0.0069490043 0.01003717 -0.007032074 -0.0034994283
0000f0 9c b5 38 3c 8b d6 93 bb 84 7c 1e 3c 1f 2d 30 bc
       0.011273768 -0.0045116595 0.0096732415 -0.010752945

act.action_out.fc_mean.weight f4 [2, 64]
000000 6c dc e4 ba ba ab 85 b8 7f 52 05 bb ca ad 96 39
       -0.001746071 -6.373921e-05 -0.002034336 0.00028739712
000010 a4 93 2f b8 c2 18 a2 38 54 ab 4a 3b 59 5c 63 bb
       -4.1860752e-05 7.7293735e-05 0.0030924873 -0.0034692495
000020 9c 6b 1f bb 3d 62 c1 3a 21 25 c4 3b 09 15 bd ba
       -0.0024325615 0.0014754009 0.0059858714 -0.0014425825
000030 97 76 f8 3a d1 f4 dd 3a f2 87 2a b9 de bf f3 bb
       0.0018956241 0.0016933923 -0.00016263107 -0.007438644
000040 2d 43 1a 3c d5 9f b1 3b 7b 68 dd 3a fc cc 95 3a
       0.00941543 0.005420665 0.00168921 0.0011428888
000050 3a f3 60 bc e4 b9 71 3a 38 1b 2e bc fc c1 e6 ba
       -0.013729865 0.000922112 -0.010626607 -0.0017605419
000060 60 5f 32 bc a9 8f b3 3a 65 d2 d5 3a f7 6c 32 ba
       -0.010886997 0.001369943 0.0016313313 -0.0006806398
000070 4b 89 07 bc 14 b0 ed ba e4 5a 1b ba c9 a0 57 3a
       -0.008272479 -0.001813414 -0.00059263245 0.0008225558
000080 76 d6 97 b9 e5 0c 0c bb 1f 71 19 3a e9 44 f5 3b
       -0.0002896075 -0.002136999 0.0005853343 0.0074850214
000090 4b 1a ff 3a 0a 40 7e 3a 9c 4f 1c 3b b3 86 50 bc
       0.0019462792 0.00096988736 0.0023851162 -0.012727427
0000a0 5d c2 18 bb 0d 74 14 3b 6a bb 13 bb 4e 04 a1 39
       -0.002330921 0.002265218 -0.0022542127 0.0003071152
0000b0 f8 5b 61 bb ec 7c 22 3b 12 b3 44 bb d5 b6 bd 39
       -0.0034387093 0.0024793698 -0.003001396 0.0003618511
0000c0 86 19 91 3b 0e 88 b9 ba ab e3 6b bc d8 0e 91 ba
       0.0044280915 -0.0014154927 -0.014397542 -0.0011067046
0000d0 50 8b bb 3a 82 0c 27 3c ce c0 c2 3a bd 22 a8 3a
       0.0014308486 0.010195853 0.0014858486 0.0012827736
0000e0 37 d1 a7 3b dd e0 a2 3b 7a 01 85 3b fb 97 3e 3b
       0.005121376 0.0049706534 0.004059014 0.0029082287
0000f0 61 0d 53 bb 66 b7 ac ba 5f 75 b4 3b 31 19 4a ba
       -0.003220402 -0.0013177216 0.005507156 -0.0007709442
000100 ee bc 30 bc 7e cb 48 bc ba c8 09 bc 55 a9 0f bc
       -0.010787232 -0.012255548 -0.008409673 -0.008768399
000110 fd e7 31 bc 0d ce 15 3c 59 8f 25 bc 07 87 2c bc
       -0.010858533 0.009143365 -0.0101049775 -0.01053024
000120 55 15 0e 3c f5 a9 21 3c 4a 7a 37 3c 6b d3 46 bc
       0.008672078 0.009867181 0.01119859 -0.012135367
000130 05 e0 2d 3c 22 35 2e 3c 62 fd 3e bc de 9f 42 bc
       0.010612492 0.010632785 -0.011657091 -0.011878936
000140 5f 8e 08 bc 8d 9f d7 bb a1 f7 3b 3c 3d f2 25 3c
       -0.008334725 -0.006580299 0.011472614 0.010128555
000150 6c 04 14 bc 68 1e 3d 3c 5b 54 0d bc 26 23 ed bb
       -0.009034257 0.011542894 -0.008626069 -0.007236856
000160 f1 e8 c0 bb 6a aa 40 3c ba 68 41 3c 92 d1 3c 3c
       -0.005887144 0.01175938 0.011804754 0.011524575
000170 e9 ba 19 bc 70 cf 48 bc 09 b7 23 bc 1e 4e 1c bc
       -0.009382942 -0.012256488 -0.009992369 -0.009540109
000180 35 18 36 bc 47 ec 50 bc 0e 63 40 3c 1b 85 6a 3b
       -0.01111417 -0.012751645 0.0117423665 0.0035784903
000190 f9 6d 29 3c a9 0e 66 bc 9e 33 39 3c a3 5b 11 bc
       0.010341161 -0.014041581 0.01130381 -0.008871946
0001a0 7e de 43 bc db 5e 34 3c 71 99 38 3c c2 f9 13 3c
       -0.011954902 0.011008943 0.011267052 0.009031715
0001b0 c2 e6 df 3b 49 0c 25 3c 0d 29 3d bc 47 65 2b bc
       0.0068329284 0.01007373 -0.011545432 -0.010461158
0001c0 c6 61 d6 3b e4 c8 26 bc ad 57 47 bc 21 ab 2b bc
       0.006542417 -0.010179732 -0.0121669 -0.010477812
0001d0 c2 3b 35 3c bf 01 c1 3b 77 4e 2b 3c 94 58 31 3c
       0.011061611 0.0058901007 0.010455719 0.010824341
0001e0 dc 18 2a 3c d0 16 3f 3c 14 f0 19 bc 0a c9 e3 3b
       0.0103819035 0.011663154 -0.009395618 0.006951456
0001f0 50 1e 44 3c d3 e1 21 bc 50 0f 37 3c e7 57 51 bc
       0.011970118 -0.009880501 0.011173084 -0.012777305

act.action_out.fc_mean.bias f4 [2]
000000 24 7a b5 3a 4e ac 2d 3c
       0.0013845605 0.010600163

act.action_out.logstd._bias f4 [2, 1]
000000 a3 6f 21 3b d1 c1 b3 bb
       0.002463319 -0.005485751
