results/MyEnv/MyEnv/mappo/check/run73/models/critic_agent1.pt (torch, 89374 bytes, 15 tensors)

base.feature_norm.weight f4 [182]
0.9993768 0.9994859 0.99662435 1.0059543 1.0036132 0.99734044 1.0034231 1.0080432
0.99931717 0.99100095 0.99729013 0.9986789 1.0031444 1.0010298 1.0014974 0.99989915
0.9991199 0.9923688 1.0004532 0.9979416 1.003119 0.99897623 1.0011836 1.0005835
0.9982745 0.99782354 1.003545 0.9984549 0.9990635 1.0002514 1.0021119 0.99908936
0.99258655 0.99609846 0.99879754 0.99773204 0.99729514 1.0056878 1.0002073 1.0006951
1.0015 1.0075482 0.99551797 1.0081873 0.9985196 1.0023403 0.9990128 1.0006093
1.0020761 1.0049878 1.0055767 1.0008613 0.9935703 1.0020993 1.000467 1.0011871
0.9992597 0.9959333 1.0086972 0.99645597 1.0020052 1.0003802 1.0007939 0.9997112
1.0018892 0.9981344 1.0002717 1.0024215 0.99728674 1.0006434 0.99492395 0.9996746
1.0005037 0.99632984 0.99559444 0.9993183 0.9985285 0.9973378 0.9961364 1.002864
1.0028272 0.9963268 1.0070018 1.005962 1.0031726 1.0019107 0.9980355 1.0098653
1.0011225 1.0011781 1.0040137 1.0008706 1.0013595 1.0008708 1.0001656 1.0020092
0.99891585 1.0023936 1.0024707 1.0006799 1.000202 1.0014147 0.9979281 0.9967571
1.0000767 0.99920356 1.0050582 0.99929005 0.99351126 1.0007685 0.99939793 0.99732697
0.99747324 1.0029638 1.0022408 0.99686086 1.000089 0.9993786 0.99906564 0.9998634
0.9981944 0.9990293 0.9997706 0.9985329 1.0022668 0.9888591 1.0014153 1.0001438
0.9995706 0.9993468 0.9993859 0.99838614 0.99807286 0.9984867 1.0000823 1.0002073
0.9985552 0.99631906 1.0009034 0.9984322 0.996821 0.99941593 0.9994532 0.9915594
1.0017072 1.007048 1.0001138 0.9999673 0.99622315 1.0003455 0.99981904 1.0049504
0.9969154 0.9995758 1.0007926 1.001277 0.9978223 1.0017803 0.99827456 0.9974799
0.9998139 0.9932632 1.0059054 1.0069317 0.9963684 1.0092729 1.0011492 0.9996805
0.99766237 0.999501 0.99950695 0.9994629 1.0073375 0.99931544 1.0022265 1.0036086
1.0011209 0.99801266 1.0018158 1.0076439 1.0007967 1.0030719
00000000: 28d7 7f3f 4fde 7f3f c622 7f3f 1cc3 803f
00000010: 6676 803f b451 7f3f 2b70 803f 8f07 813f
00000020: 40d3 7f3f 3db2 7d3f 684e 7f3f 6ca9 7f3f
00000030: 0967 803f bf21 803f 1131 803f 64f9 7f3f
00000040: 52c6 7f3f e20b 7e3f da0e 803f 1a79 7f3f
00000050: 3466 803f e8bc 7f3f c926 803f 1f13 803f
00000060: eb8e 7f3f 5d71 7f3f 2a74 803f be9a 7f3f
00000070: a0c2 7f3f 3d08 803f 3445 803f 52c4 7f3f
00000080: 271a 7e3f 4f00 7f3f 32b1 7f3f 5e6b 7f3f
00000090: bc4e 7f3f 61ba 803f cb06 803f c716 803f
000000a0: 2731 803f 57f7 803f 44da 7e3f 480c 813f
000000b0: fb9e 7f3f b04c 803f 4ebf 7f3f f713 803f
000000c0: 0844 803f 71a3 803f bdb6 803f 391c 803f
000000d0: a05a 7e3f ca44 803f 4d0f 803f e626 803f
000000e0: 7ccf 7f3f 7cf5 7e3f fd1c 813f bd17 7f3f
000000f0: b541 803f 750c 803f 041a 803f 13ed 7f3f
00000100: e83d 803f bc85 7f3f e708 803f 594f 803f
00000110: 2f4e 7f3f 1515 803f 56b3 7e3f adea 7f3f
00000120: 8110 803f 790f 7f3f 47df 7e3f 53d3 7f3f
00000130: 909f 7f3f 8851 7f3f cc02 7f3f d95d 803f
00000140: a45c 803f 460f 7f3f 6fe5 803f 5dc3 803f
00000150: f667 803f 9c3e 803f 417f 7f3f 4443 813f
00000160: c824 803f 9b26 803f 8583 803f 871c 803f
00000170: 8c2c 803f 891c 803f 6d05 803f d641 803f
00000180: f3b8 7f3f 6f4e 803f f650 803f 4716 803f
00000190: 9e06 803f 5b2e 803f 3778 7f3f 792b 7f3f
000001a0: 8302 803f cecb 7f3f bfa5 803f 79d1 7f3f
000001b0: c156 7e3f 2f19 803f 8bd8 7f3f d250 7f3f
000001c0: 685a 7f3f 1e61 803f 6d49 803f 4632 7f3f
000001d0: eb02 803f 47d7 7f3f c4c2 7f3f 0cf7 7f3f
000001e0: ab89 7f3f 62c0 7f3f f7f0 7f3f da9f 7f3f
000001f0: 474a 803f df25 7d3f 602e 803f b604 803f
00000200: dce3 7f3f 31d5 7f3f c1d7 7f3f 3c96 7f3f
00000210: b481 7f3f d39c 7f3f b202 803f cb06 803f
00000220: 50a1 7f3f c40e 7f3f 9a1d 803f 4199 7f3f
00000230: a92f 7f3f b9d9 7f3f 2adc 7f3f d6d6 7d3f
00000240: f137 803f f3e6 803f bb03 803f dbfd 7f3f
00000250: 7b08 7f3f 520b 803f 24f4 7f3f 37a2 803f
00000260: d935 7f3f 33e4 7f3f f919 803f d829 803f
00000270: 4871 7f3f 563a 803f ec8e 7f3f d85a 7f3f
00000280: cef3 7f3f 7f46 7e3f 82c1 803f 23e3 803f
00000290: 0012 7f3f db2f 813f a825 803f 10eb 7f3f
000002a0: cd66 7f3f 4cdf 7f3f b0df 7f3f cddc 7f3f
000002b0: 6ff0 803f 23d3 7f3f f548 803f 3f76 803f
000002c0: bb24 803f c27d 7f3f 803b 803f 7afa 803f
000002d0: 1b1a 803f a964 803f

base.feature_norm.bias f4 [182]
0.0005739712 0.0005443439 0.0032840148 -0.005925505 -0.003646675 -0.0013480806 -0.0027813164 -0.007999737
0.0005755789 0.008749891 0.0026904487 0.001354025 -0.0030246547 -0.0009453988 0.0015243824 3.789654e-05
0.00078530534 0.007818845 -0.00039392035 -0.0020468046 0.0031124572 -0.0010090393 0.0011843903 0.0005875006
-0.001731724 -0.002192027 0.003589673 -0.0015500265 -0.00095305196 0.00024243296 0.002122911 -0.00092650414
-0.0074216705 -0.0038963326 -0.0012106686 -0.0022464604 -0.0027169236 0.005823538 0.00019995595 0.0006733607
0.0015022786 0.007553509 -0.004538119 0.0081098415 -0.0014859942 0.0023443308 -0.0009755895 0.00058466627
0.0020856436 0.0050944444 0.0056172847 0.0008723624 -0.0064275097 0.002122351 0.0005034257 0.0011919425
-0.0007562292 -0.0039690393 -0.0087688165 -9.97644e-06 0.0020547847 0.00039147833 0.0008023514 -0.00029991704
0.0018608919 -0.0018657 0.0002507907 0.0024110107 -0.0026785815 0.00065589516 -0.005057543 -0.00032893082
0.00049417367 -0.0036742818 -0.004418008 -0.00069672003 -0.0014860127 -0.0026623071 -0.003889655 0.0028852646
0.0029338931 -0.0036722093 0.007016555 0.0059974585 0.003188411 0.0019357266 -0.0019620676 0.009900474
0.0011491332 0.0011973479 0.0040138876 -0.0006600456 -0.0012957056 -0.0011124595 -0.00019366876 -0.0020258962
0.0015200654 -0.0046579256 -0.0024429003 -0.00094226847 0.0021080768 -0.0016192609 0.0021050265 0.0033021742
-1.4355994e-05 -0.00078481797 -0.005100715 0.000636031 0.0065093604 -0.00086755335 -0.000599697 -0.0027295118
0.0024698023 -0.003202243 0.0020496869 -0.0031603482 7.340456e-05 -0.0006357745 -0.0009615268 -0.0001294102
-0.001815213 -0.0009836614 -0.00023028269 -0.0014846356 0.0022738208 -0.01126998 0.0014125484 0.00012688631
-0.00046321936 -0.0006733788 -0.0006299173 -0.001635906 -0.0019335138 -0.0015271954 6.8178466e-05 0.00021286425
-0.0014097268 -0.0037594265 0.0008995198 -0.0015755434 -0.0031930476 -0.0005906638 -0.0005809471 -0.008464558
0.0017056059 0.00709382 0.00011602727 -3.5215406e-05 -0.0037826523 0.00032972082 4.6598365e-05 0.0049559106
-0.0031053727 -0.0003457815 0.0008125306 0.0012787058 -0.0021885755 0.0017980463 -0.0017381982 -0.0025268004
-0.00017456709 -0.0067548496 0.0059443167 0.0069502788 -0.0036516397 0.009326698 0.0011354432 -0.00030705586
-0.0023198833 -0.00050229486 -0.0005088557 -0.0005526051 0.0073614065 -0.0006728237 0.0022316775 0.0037058953
0.0011363059 -0.0019631975 0.0018208283 0.0076547647 0.0008009256 0.0030830659
00000000: 8e76 163a 4db2 0e3a a038 573b bd2a c2bb
00000010: 0efd 6ebb 14b2 b0ba bf46 36bb 5411 03bc
00000020: 72e2 163a b45b 0f3c 3d52 303b 8a79 b13a
00000030: 4939 46bb a4d4 77ba c9cd c73a 1af3 1e38
00000040: f3dc 4d3a 9d1a 003c 1887 ceb9 af23 06bb
00000050: 5efa 4b3b be41 84ba 8b3d 9b3a 7f02 1a3a
00000060: 04fb e2ba 1ca8 0fbb b840 6b3b 422a cbba
00000070: 3cd6 79ba 9a35 7e39 8920 0b3b a4e0 72ba
00000080: 7c31 f3bb 9d59 7fbb 4caf 9eba 5a39 13bb
00000090: 6a0e 32bb 61d3 be3b 44ab 5139 7984 303a
000000a0: 1be8 c43a 6d83 f73b 80b4 94bb 24df 043c
000000b0: b1c5 c2ba 58a3 193b b4be 7fba 4a44 193a
000000c0: 4baf 083b 4cef a63b 3311 b83b 40af 643a
000000d0: dc9d d2bb 2417 0b3b 54f8 033a f43a 9c3a
000000e0: af3d 46ba b70e 82bb 15ab 0fbc 7c60 27b7
000000f0: 91a9 063b 553f cd39 e454 523a 2f3e 9db9
00000100: 2ce9 f33a 818a f4ba 8f7c 8339 0c02 1e3b
00000110: 248b 2fbb 61f0 2b3a bfb9 a5bb 5974 acb9
00000120: 6f8b 013a 38cc 70bb f0c4 90bb 17a4 36ba
00000130: 50c6 c2ba 1a7a 2ebb 95e9 7ebb b516 3d3b
00000140: 8f46 403b 73a9 70bb 21eb e53b 5486 c43b
00000150: a9f4 503b 35b8 fd3a 0896 00bb 9935 223c
00000160: 839e 963a 54f0 9c3a ee86 833b e906 2dba
00000170: aad4 a9ba f2cf 91ba 9013 4bb9 e6c4 04bb
00000180: ee3c c73a 83a1 98bb 1119 20bb 9102 77ba
00000190: a927 0a3b 613d d4ba 7cf4 093b 4a69 583b
000001a0: 86da 70b7 3ebc 4dba e623 a7bb 51bb 263a
000001b0: 794c d53b 856c 63ba fc34 1dba 9ce1 32bb
000001c0: 68dc 213b b9dc 51bb 0a54 063b d81d 4fbb
000001d0: c6f0 9938 1baa 26ba f90e 7cba 49b2 07b9
000001e0: 71ec edba 33ee 80ba 0a78 71b9 1b98 c2ba
000001f0: 6204 153b b9a5 38bc 4225 b93a c90c 0539
00000200: 40dc f2b9 b085 30ba 0921 25ba e66b d6ba
00000210: f56d fdba 2d2c c8ba 09fb 8e38 5034 5f39
00000220: 95c6 b8ba b660 76bb c0cd 6b3a 7782 ceba
00000230: 7342 51bb c7d6 1aba b34a 18ba eeae 0abc
00000240: a38e df3a 4673 e83b ab53 f338 41b4 13b8
00000250: 60e6 77bb 61de ac39 9d72 4338 3165 a23b
00000260: 8283 4bbb 024a b5b9 0100 553a 3f9a a73a
00000270: 346e 0fbb 6cac eb3a 41d4 e3ba ad98 25bb
00000280: ff0b 37b9 c957 ddbb 8bc8 c23b 2abf e33b
00000290: 5950 6fbb 02cf 183c 27d3 943a 57fc a0b9
000002a0: 2f09 18bb 70ac 03ba ba64 05ba b3dc 10ba
000002b0: f437 f13b 6f60 30ba 5641 123b 9bde 723b
000002c0: 19f0 943a fda8 00bb dca8 ee3a d2d4 fa3b
000002d0: 35f5 513a 430d 4a3b

base.mlp.fc1.0.weight f4 [64, 182]
-0.16695076 -0.09810053 -0.07452904 0.0863344 -0.023622487 -0.13803759 0.29821447 0.18980421
-0.031044906 -0.05309951 0.1719912 0.079135 -0.054212905 -0.06582332 0.3087837 0.097875394
0.1289456 -0.18794048 0.0507839 0.0969124 -0.14456306 0.051566932 0.1113037 0.035667516
0.055643115 0.1440031 -0.284204 0.09211435 0.0025571452 0.19454981 -0.063920945 0.23094492
0.07810529 0.15396982 0.005476098 0.009379819 -0.045025326 0.13473438 0.021103954 0.21332298
-0.11331549 -0.02395969 -0.13735142 0.04119684 -0.119899146 -0.11448361 0.05245566 0.02939162
0.111675054 -0.013341451 0.22645459 0.23511891 -0.106364936 -0.14583883 -0.1250189 0.21776123
-0.010095655 -0.2151936 -0.21099181 0.09484533 0.07495563 0.054111715 -0.06284138 0.055187233
-0.07288777 0.013774277 -0.0786988 -0.0025465486 -0.11994172 -0.13403158 -0.0023802028 -0.10916469
-0.05530321 0.020660548 0.003660696 0.11162988 -0.26623106 0.027684296 -0.019699564 0.19928347
0.08777099 0.27722245 -0.07779069 -0.030788297 0.020823302 -0.21519078 0.100716166 -0.06958685
-0.08416065 0.027502423 -0.05132454 -0.057485607 0.2704642 -0.031726055 0.05536281 0.1604849
-0.08768881 -0.06900369 -0.13443254 0.006081331 -0.17260626 0.05732012 -0.07873424 -0.0061566266
-0.11316097 0.046430215 0.13178386 -0.0030077102 0.0217218 0.19223583 0.17469521 -0.055235673
0.29427835 0.015317062 0.14060047 -0.066695526 -0.06345518 0.18407351 0.2150763 0.17456838
0.051471245 0.05356917 0.016897958 -0.050945386 -0.13396396 0.05516146 0.0031410132 0.07728117
0.052645855 -0.22991727 0.21725345 0.12618837 -0.01824835 -0.044629987 -0.22542693 0.07389587
-0.053864446 0.049402602 -0.20234045 0.14035048 0.12864384 0.09791617 0.021005979 0.12276145
0.1435487 0.03957851 0.25310624 -0.100257196 -0.14603688 -0.16699071 0.027618239 0.010038077
0.0110683665 -0.06096934 -0.04662909 -0.11263632 -0.07077805 0.118397996 -0.0910121 0.005931904
0.106897034 0.24505056 -0.003109792 0.016493795 -0.060223907 -0.092644595 0.006215742 0.005811644
-0.07157459 -0.04282212 -0.19408295 -0.009947603 0.14439566 -0.07660581 -0.018350841 -0.08919686
-0.051798996 -0.13804172 -0.25127816 0.106828265 -0.028508175 -0.04120926 -0.23811492 0.048548277
-0.009419588 0.07848402 -0.020548848 -0.106171474 -0.26947477 0.080230765 0.12817274 -0.15171175
-0.19513673 0.27361494 -0.03197055 0.079105824 -0.11770189 -0.018851172 -0.12088848 -0.015761696
0.00040036524 0.079302825 -0.008008764 -0.05336112 0.0972615 -0.054930322 0.22393177 0.09093999
-0.2144778 -0.03273621 0.07187089 0.13454778 0.11821434 -0.05297931 0.10513107 0.11807823
0.091999255 -0.03105197 0.073476344 0.004971267 -0.03859853 0.10864943 0.02428869 -0.014405387
0.13443302 0.048338067 0.037046827 -0.14231694 -0.015057234 0.08131691 -0.121121705 -0.11775716
-0.09317163 0.0597957 -0.07008469 -0.05910338 -0.00883967 -0.084707 -0.01858229 -0.103343554
0.2062423 0.19467068 0.2154604 -0.083253555 0.016534688 0.06698519 -0.1197214 -0.060636647
-0.05184935 -0.30775124 -0.13605966 0.11384293 0.024996454 0.011604362 0.042744376 -0.041928716
00000000: 24f5 2abe eee8 c8bd aea2 98bd 17d0 b03d
00000010: f283 c1bc ba59 0dbe 91af 983e 095c 423e
00000020: e351 febc df7e 59bd 761e 303e 8811 a23d
00000030: 5a0e 5ebd 60ce 86bd e618 9e3e e572 c83d
00000040: 510a 043e 7873 40be c702 503d 027a c63d
00000050: 5708 14be d937 533d 32f3 e33d 1a18 123d
00000060: 09ea 633d 8c75 133e 3083 91be 73a6 bc3d
00000070: c795 273b 1138 473e fce8 82bd d37c 6c3e
00000080: abf5 9f3d 44aa 1d3e d770 b33b d0ad 193c
00000090: 7a6c 38bd cff7 093e 33e2 ac3c 5771 5a3e
000000a0: f411 e8bd 1d47 c4bc daa5 0cbe 05be 283d
000000b0: af8d f5bd 6276 eabd bfdb 563d b2c6 f03c
000000c0: e4b5 e43d 1a96 5abc b6e3 673e 03c3 703e
000000d0: dcd5 d9bd c656 15be f404 00be cdfc 5e3e
000000e0: 3f68 25bc b65b 5cbe 3d0e 58be 453e c23d
000000f0: 5682 993d 3fa4 5d3d fbb2 80bd 020c 623d
00000100: 2f46 95bd 81ad 613c d62c a1bd ffe3 26bb
00000110: 01a4 f5bd 933f 09be 2dfd 1bbb bd91 dfbd
00000120: 9e85 62bd 4f40 a93c 4ae8 6f3b 359e e43d
00000130: 704f 88be 2dca e23c fb60 a1bc f710 4c3e
00000140: 47c1 b33d 1af0 8d3e ba50 9fbd bd37 fcbc
00000150: a195 aa3c f95a 5cbe 4744 ce3d 8d83 8ebd
00000160: 6b5c acbd c34c e13c ae39 52bd 0776 6bbd
00000170: 497a 8a3e 2ef3 01bd 1dc4 623d 2756 243e
00000180: 3196 b3bd ce51 8dbd afa8 09be e745 c73b
00000190: b2bf 30be 81c8 6a3d 6b3f a1bd 87bd c9bb
000001a0: f0c0 e7bd 9c2d 3e3d 59f2 063e 011d 45bb
000001b0: ebf1 b13c 78d9 443e 4de3 323e cd3e 62bd
000001c0: a7ab 963e 6af4 7a3c 92f9 0f3e aa97 88bd
000001d0: caf4 81bd c47d 3c3e f63c 5c3e 0ec2 323e
000001e0: 83d3 523d 596b 5b3d 966d 8a3c 1cac 50bd
000001f0: d92d 09be fcf0 613d 75d9 4d3b 9745 9e3d
00000200: 2ea3 573d 6f6f 6bbe b077 5e3e 8637 013e
00000210: 907d 95bc efcd 36bd 51d6 66be b856 973d
00000220: f7a0 5cbd 625a 4a3d 5632 4fbe 09b8 0f3e
00000230: 36bb 033e 4688 c83d bb14 ac3c 5b6a fb3d
00000240: 6efe 123e 131d 223d 2497 813e a553 cdbd
00000250: b18a 15be 9dff 2abe a53f e23c bf76 243c
00000260: 1858 353c fdba 79bd 25fe 3ebd dfad e6bd
00000270: 15f4 90bd a67a f23d 8d64 babd 6b60 c23b
00000280: d5ec da3d 89ee 7a3e a7cd 4bbb ff1d 873c
00000290: 58ad 76bd 73bc bdbd 6cad cb3b 9a6f be3b
000002a0: b395 92bd 3f66 2fbd aebd 46be 45fb 22bc
000002b0: 75dc 133e 82e3 9cbd 8154 96bc d8ac b6bd
000002c0: 2f2b 54bd cf5a 0dbe 88a7 80be c7c8 da3d
000002d0: fa89 e9bc 0acb 28bd 66d4 73be 8fda 463d
000002e0: 9e54 1abc 3bbc a03d 0f56 a8bc 6e70 d9bd
000002f0: 99f8 89be 0750 a43d b73f 033e 535a 1bbe
00000300: ecd1 47be 4217 8c3e 8df3 02bd 3c02 a23d
00000310: b00d f1bd c66d 9abc 6194 f7bd ac1e 81bc
00000320: 1de8 d139 8569 a23d 3137 03bc 3191 5abd
00000330: 0a31 c73d 9efe 60bd 5f4e 653e bf3e ba3d
00000340: 12a0 5bbe 6716 06bd 0c31 933d e5c6 093e
00000350: 5c1a f23d d500 59bd f54e d73d 00d3 f13d
00000360: 1b6a bc3d b360 febc c47a 963d 03e6 a23b
00000370: 7e19 1ebd 9883 de3d 13f9 c63c 9304 6cbc
00000380: cfa8 093e 23fe 453d 6abe 173d 88bb 11be
00000390: 9eb2 76bc 7b89 a63d a80e f8bd aa2a f1bd
000003a0: c4d0 bebd 56ec 743d 9088 8fbd 6316 72bd
000003b0: 43d4 10bc dd7a adbd e339 98bc c9a5 d3bd
000003c0: 2e31 533e c057 473e a7a1 5c3e d780 aabd
000003d0: c173 873c 882f 893d 7e30 f5bd 225e 78bd
000003e0: fc5f 54bd 9291 9dbe 3953 0bbe 7b26 e93d
000003f0: 5dc5 cc3c 3920 3e3c ba14 2f3d 72bd 2bbd

base.mlp.fc1.0.bias f4 [64]
-0.0020236748 -0.0060952595 0.000112324844 0.006242706 0.00029251323 0.0015255769 -0.0005856805 -0.00033144702
-0.0012218722 -0.00096218596 0.0021593107 0.0019538351 0.0013671798 0.00026679735 -0.005665392 0.002192142
-0.00051650836 -9.0820955e-05 -0.005461124 -0.0015513975 0.0075147343 -0.0021091292 0.002592177 0.00029597108
-0.0072027226 0.0024912488 -0.0010595144 -0.002851691 0.0033579723 0.002972239 -3.3203767e-05 0.0001962637
0.0025761158 0.002570449 -0.008912484 0.0029151614 -0.000467534 0.00037298395 0.00429091 -0.00048710662
-0.002168421 -0.00069644133 -0.003442315 0.0017921629 -0.0037874216 -0.0016376277 0.0012974238 0.0025361998
0.0026211452 -0.0024495404 0.004402995 -0.004650438 -0.001939668 0.0009284989 -0.003008673 -0.0009607173
-0.002310864 9.750644e-05 0.0022003914 -0.0029092552 -0.0031738146 -0.0014165192 0.0028667988 0.002945623
00000000: a19f 04bb beba c7bb f18f eb38 9d8f cc3b
00000010: 765c 9939 def5 c73a 5a88 19ba 11c6 adb9
00000020: 3a27 a0ba 353b 7cba 3983 0d3b ea0b 003b
00000030: f132 b33a efe0 8b39 c1a4 b9bb 0aaa 0f3b
00000040: 4a66 07ba 2177 beb8 3af3 b2bb 4358 cbba
00000050: 293e f63b 5139 0abb 83e1 293b 912c 9b39
00000060: d104 ecbb 3844 233b 67df 8aba 70e3 3abb
00000070: 6d11 5c3b e5c9 423b 4644 0bb8 23cc 4d39
00000080: 0dd4 283b fa74 283b ab05 12bc 4b0c 3f3b
00000090: 5a1f f5b9 0f8d c339 c39a 8c3b 5862 ffb9
000000a0: 111c 0ebb 6391 36ba 7698 61bb 02e7 ea3a
000000b0: 6436 78bb aba5 d6ba 520e aa3a 5f36 263b
000000c0: 85c7 2b3b 7888 20bb 0047 903b b462 98bb
000000d0: 753c feba 8266 733a 282d 45bb a6d8 7bba
000000e0: dd71 17bb 5f7c cc38 7134 103b 34a9 3ebb
000000f0: c6ff 4fbb 7faa b9ba e7e0 3b3b 5a0b 413b

base.mlp.fc1.2.weight f4 [64]
1.0024183 0.99382144 0.9973096 0.99290234 1.0025736 1.0021775 0.9953099 0.9988873
1.0022463 0.9995216 1.0004315 0.9983311 1.001351 0.99941856 0.9975736 0.9930247
0.9953984 0.9983904 1.0039281 0.99879175 1.0049767 0.99977356 1.0087525 0.99888915
1.00932 1.0001448 0.9968514 1.0053109 1.0056666 1.0006496 0.99932635 1.001086
0.99559045 1.0004127 0.993112 1.0031018 0.99750686 0.99854535 1.0124024 0.99890924
1.0024927 0.99991745 0.9988014 0.999198 0.9997581 0.9976573 1.0029843 1.0021362
0.9914227 0.9987759 0.99883944 1.0064722 0.9968483 0.99852836 1.000659 1.0013025
0.99952245 1.0022326 0.99673474 1.0012639 1.004073 0.99213463 1.0030463 1.0020312
00000000: 3e4f 803f 156b 7e3f af4f 7f3f d92e 7e3f
00000010: 5554 803f 5a47 803f a1cc 7e3f 14b7 7f3f
00000020: 9b49 803f a6e0 7f3f 240e 803f a192 7f3f
00000030: 452c 803f e5d9 7f3f fc60 7f3f de36 7e3f
00000040: 6ed2 7e3f 8396 7f3f b780 803f d1b0 7f3f
00000050: 14a3 803f 29f1 7f3f cd1e 813f 33b7 7f3f
00000060: 6631 813f bf04 803f a731 7f3f 07ae 803f
00000070: afb9 803f 4915 803f dad3 7f3f 9623 803f
00000080: 04df 7e3f 860d 803f 973c 7e3f a465 803f
00000090: 9c5c 7f3f aba0 7f3f 6796 813f 84b8 7f3f
000000a0: ae51 803f 97fa 7f3f 73b1 7f3f 71cb 7f3f
000000b0: 26f0 7f3f 7866 7f3f ca61 803f 0046 803f
000000c0: e1cd 7d3f c7af 7f3f f1b3 7f3f 15d4 803f
000000d0: 7331 7f3f 8e9f 7f3f 9815 803f ae2a 803f
000000e0: b4e0 7f3f 2849 803f 022a 7f3f 6a29 803f
000000f0: 7785 803f 89fc 7d3f d263 803f 8f42 803f

base.mlp.fc1.2.bias f4 [64]
-0.0022640068 -0.0062602684 0.00060159917 0.007254969 0.0022124853 0.0023206677 0.004490279 0.00023372618
-0.0015320701 0.0004750817 0.002644002 0.0018491298 0.0018752116 0.0005907787 -0.0039804815 0.0010965742
-0.0014598815 -0.0010735476 -0.003979934 -0.0013301199 0.0063020266 -0.00026737803 0.008315274 -0.00095095974
-0.009338245 0.0003147661 -0.0025231903 -0.0039906916 0.0054941764 0.0010147162 0.00031943104 0.0001643823
0.003622143 0.00060833717 -0.0077404496 0.0032605599 -0.0007364648 -4.7320766e-05 0.0123096695 0.0010330201
-0.002503651 -6.601166e-05 -0.0015902417 -0.0002672545 -0.0026112343 0.00014008099 0.002880035 0.0030966233
0.0027554068 0.0011421873 -0.00017659832 -0.0064436374 -0.0019269129 0.001235619 -0.0012981832 -0.0011792295
0.00033444047 0.0023271122 0.0005132884 -0.001656678 -0.004235708 -0.0011256471 0.0029587871 0.0019789564
00000000: bb5f 14bb f022 cdbb a3b4 1d3a 17bb ed3b
00000010: 58ff 103b 5816 183b 3123 933b 6514 7539
00000020: becf c8ba 6314 f939 fe46 2d3b 805e f23a
00000030: a9c9 f53a 7dde 1a3a b36e 82bb edba 8f3a
00000040: 7f59 bfba 48b6 8cba 1b6a 82bb 6b57 aeba
00000050: 3b81 ce3b df2e 8cb9 c93c 083c d449 79ba
00000060: 70ff 18bc 3107 a539 1c5c 25bb 59c4 82bb
00000070: 7e08 b43b 3a00 853a 4f79 a739 0a5e 2c39
00000080: 7a61 6d3b d178 1f3a 99a3 fdbb 1eaf 553b
00000090: 510f 41ba 497a 46b8 7fae 493c 6766 873a
000000a0: 4b14 24bb bd6f 8ab8 a86f d0ba 4b1e 8cb9
000000b0: 3e21 2bbb b4e2 1239 f8be 3c3b b8f0 4a3b
000000c0: 0e94 343b 72b5 953a 402d 39b9 2625 d3bb
000000d0: 7890 fcba 7ef4 a13a cd27 aaba 6090 9aba
000000e0: d757 af39 7782 183b 348e 063a e424 d9ba
000000f0: b2cb 8abb 738a 93ba 36e8 413b 61b1 013b

base.mlp.fc_h.0.weight f4 [64, 64]
-0.07030924 0.12546574 -0.1770202 -0.21687979 -0.09863942 0.2036452 -0.07999359 0.0025108953
0.046673197 0.059006523 0.06755177 0.3651234 -0.13170905 -0.18111446 -0.028283918 0.17441852
-0.0929694 0.05168907 0.25342116 -0.26952544 -0.21832272 -0.23845722 0.094573244 -0.299232
0.5930013 -0.16416328 -0.09499495 0.25732028 0.34264025 -0.04774658 -0.04677 -0.19312532
0.04751728 0.15039155 0.23027474 -0.08672097 0.27463707 0.26515013 -0.1245104 -0.7086662
-0.06718313 -0.0549116 0.015332197 0.050123796 0.06000247 -0.0024546497 -0.095526546 -0.33447957
0.05277671 0.10964584 -0.034677025 0.015848525 -0.31701234 0.053818796 0.08323648 -0.2660035
-0.21282096 -0.23341419 0.3380545 -0.17908314 0.30407515 -0.10199209 0.015684722 -0.0409947
0.030838381 -0.043144025 -0.10683563 -0.053713582 -0.07953455 0.18904716 0.19879806 0.029249873
-0.0054535368 0.0023586259 0.20135327 0.059593435 -0.008036972 -0.090286665 -0.20467608 -0.014895899
0.113302805 -0.08185329 -0.27338707 0.048371714 0.20753957 -0.5047451 0.12078357 -0.15215637
-0.16896771 0.22597176 -0.07575357 0.28163573 -0.017302895 -0.15764154 -0.46987692 0.18051578
0.20557398 0.20175722 0.1883985 0.037527174 -0.36098528 0.050398804 0.54657054 -0.25596115
-0.21442398 0.054848894 -0.013173116 0.004328415 0.37242702 0.3843974 -0.15304367 0.35215542
-0.20541084 0.13770479 0.30368167 0.10198086 0.16937347 0.044235863 0.1448656 -0.07901805
0.083600044 -0.067522794 -0.36229193 -0.05991889 0.21721193 0.26190725 -0.14640869 0.32103693
-0.27524546 -0.072723076 -0.009025732 0.20846032 0.12395435 -0.017383613 0.25311735 -0.12932202
-0.12540035 0.188767 -0.2799473 -0.15082525 0.015162774 0.012151226 -0.21602352 0.31957158
-0.24215439 0.42685562 0.103877716 0.3953147 -0.28193283 -0.21550004 0.30560705 0.15049693
0.32745275 -0.12067035 0.19370377 0.124021366 -0.41829422 -0.15147887 0.014477086 0.07678632
0.3272193 0.50812536 0.015496798 0.008218167 0.025022587 0.10431785 -0.046501122 0.094324894
0.041282497 0.4370609 -0.12454224 0.0022689789 -0.057605714 0.024264963 0.1799754 0.16984628
0.11925528 -0.08046913 -0.16295737 -0.23814963 -0.10678519 -0.1921821 0.26755875 0.26375344
0.24584141 -0.11829576 0.19310415 -0.1616173 -0.15569696 0.09444076 0.2180017 0.2301803
0.03262525 0.084807925 0.2602522 -0.13914087 0.13659777 0.12746671 0.00930734 0.0453746
0.45179817 0.11274161 0.25061938 -0.13673699 -0.12036748 0.27817717 0.13308282 -0.049958177
0.3226901 0.008754835 -0.3972354 -0.15577443 -0.10098819 -0.37676284 -0.11194453 -0.25920057
0.3589726 -0.0009775255 -0.25387678 0.11234847 -0.34269834 -0.05652463 0.34919637 0.2858757
-0.09343036 0.28676552 -0.080872476 0.5300162 0.19429691 -0.14820927 -0.3870796 -0.0678148
-0.037881177 0.04778677 -0.08815939 -0.14081852 -0.00064903556 0.15424012 0.099836536 0.05204636
-0.17152019 -0.018188447 -0.19682705 -0.34236962 0.21125749 0.2755304 -0.11376931 0.16738866
-0.066744186 0.1501481 -0.2555037 -0.033813898 0.07962039 -0.11949543 -0.04793216 -0.25035402
00000000: 4afe 8fbd 177a 003e c944 35be bc15 5ebe
00000010: 7703 cabd 5e88 503e aed3 a3bd d58d 243b
00000020: 652c 3f3d d3b0 713d 9558 8a3d 74f1 ba3e
00000030: bdde 06be 1276 39be adb3 e7bc c59a 323e
00000040: be66 bebd ebb7 533d 6bc0 813e 3dff 89be
00000050: fe8f 5fbe 212e 74be 9eaf c13d f034 99be
00000060: efce 173f 6b1a 28be b68c c2bd 7cbf 833e
00000070: 8b6e af3e eb91 43bd e691 3fbd a5c2 45be
00000080: 7ba1 423d 3e00 1a3e 24cd 6b3e c49a b1bd
00000090: 3b9d 8c3e c2c1 873e 4fff febd 266b 35bf
000000a0: 4f97 89bd fcea 60bd e533 7b3c 9c4e 4d3d
000000b0: 26c5 753d 30de 20bb 6ca3 c3bd e840 abbe
000000c0: 642c 583d 008e e03d 7f09 0ebd c4d4 813c
000000d0: 714f a2be 1971 5c3d e377 aa3d 9c31 88be
000000e0: bded 59be 2104 6fbe 7b15 ad3e 9261 37be
000000f0: bdaf 9b3e 3be1 d0bd 3f7d 803c 0fea 27bd
00000100: c6a0 fc3c cab7 30bd a4cc dabd c602 5cbd
00000110: 03e3 a2bd 9495 413e b891 4b3e 6e9d ef3c
00000120: 95b3 b2bb 2d93 1a3b 8d2f 4e3e 3f18 743d
00000130: 81ad 03bc 37e8 b8bd 9b96 51be ee0d 74bc
00000140: 4d0b e83d b3a2 a7bd 64f9 8bbe 6b21 463d
00000150: 4185 543e fa36 01bf 605d f73d e1ce 1bbe
00000160: df05 2dbe 2465 673e b024 9bbd 8f32 903e
00000170: cdbe 8dbc c96c 21be b593 f0be 21d9 383e
00000180: fc81 523e 7299 4e3e 89eb 403e 18b6 193d
00000190: 10d3 b8be fa6e 4e3d 0cec 0b3f 570d 83be
000001a0: f691 5bbe 3ca9 603d 0ed4 57bc 60d5 8d3b
000001b0: c1ae be3e bccf c43e 7bb7 1cbe b74d b43e
000001c0: 3857 52be 7c02 0d3e 2a7c 9b3e 57db d03d
000001d0: 3d70 2d3e aa30 353d a657 143e 37d4 a1bd
000001e0: 8036 ab3d 6449 8abd 547e b9be 836d 75bd
000001f0: ce6c 5e3e b518 863e 29ec 15be f45e a43e
00000200: f9ec 8cbe d6ef 94bd aae0 13bc 9f76 553e
00000210: c7db fd3d 1468 8ebc 9998 813e fe6c 04be
00000220: f368 00be 234c 413e 4155 8fbe ef71 1abe
00000230: 496d 783c f015 473c 4535 5dbe e39e a33e
00000240: 52f7 77be d28c da3e d7bd d43d b066 ca3e
00000250: 8059 90be 0bac 5cbe 8778 9c3e de1b 1a3e
00000260: e3a7 a73e 0422 f7bd 485a 463e eafe fd3d
00000270: a92a d6be 471d 1bbe 4d31 6d3c 2542 9d3d
00000280: 4a89 a73e 8114 023f 48e6 7d3c 7ea5 063c
00000290: 2bfc cc3c 99a4 d53d f677 3ebd 692d c13d
000002a0: d617 293d 72c6 df3e 0010 ffbd 26b3 143b
000002b0: f8f3 6bbd 51c7 c63c 794b 383e 2fec 2d3e
000002c0: 1d3c f43d 00cd a4bd 4cde 26be 7fdd 73be
000002d0: 32b2 dabd 62cb 44be 76fd 883e b10a 873e
000002e0: dabd 7b3e 0c45 f2bd 18bd 453e 017f 25be
000002f0: 066f 1fbe 286a c13d d63b 5f3e 62b4 6b3e
00000300: 0ea2 053d c7af ad3d c73f 853e f27a 0ebe
00000310: 49e0 0b3e a286 023e d07d 183c b7da 393d
00000320: 1752 e73e 13e5 e63d 2f51 803e c804 0cbe
00000330: 3a83 f6bd 3d6d 8e3e dd46 083e f2a0 4cbd
00000340: a337 a53e 7170 0f3c 7062 cbbe 5583 1fbe
00000350: e5d2 cebd 0fe7 c0be 2c43 e5bd f0b5 84be
00000360: 42cb b73e 5020 80ba 23fc 81be f416 e63d
00000370: 2876 afbe 5f86 67bd dec9 b23e 4d5e 923e
00000380: 6b58 bfbd eed2 923e 78a0 a5bd 24af 073f
00000390: c5f5 463e 2cc4 17be 4c2f c6be 7ce2 8abd
000003a0: 4b29 1bbd 0fbc 433d e98c b4bd bb32 10be
000003b0: 0a24 2aba 1ff1 1d3e 1977 cc3d 902e 553d
000003c0: fda2 2fbe f0ff 94bc 088d 49be 124b afbe
000003d0: e253 583e 5212 8d3e e2ff e8bd ef67 2b3e
000003e0: 2db1 88bd 6cc0 193e 62d1 82be 7180 0abd
000003f0: 0410 a33d 05ba f4bd 8354 44bd 672e 80be

base.mlp.fc_h.0.bias f4 [64]
0.0 0.0 0.0 0.0 0.0 0.0 0.0 0.0
0.0 0.0 0.0 0.0 0.0 0.0 0.0 0.0
0.0 0.0 0.0 0.0 0.0 0.0 0.0 0.0
0.0 0.0 0.0 0.0 0.0 0.0 0.0 0.0
0.0 0.0 0.0 0.0 0.0 0.0 0.0 0.0
0.0 0.0 0.0 0.0 0.0 0.0 0.0 0.0
0.0 0.0 0.0 0.0 0.0 0.0 0.0 0.0
0.0 0.0 0.0 0.0 0.0 0.0 0.0 0.0
00000000: 0000 0000 0000 0000 0000 0000 0000 0000
00000010: 0000 0000 0000 0000 0000 0000 0000 0000
00000020: 0000 0000 0000 0000 0000 0000 0000 0000
00000030: 0000 0000 0000 0000 0000 0000 0000 0000
00000040: 0000 0000 0000 0000 0000 0000 0000 0000
00000050: 0000 0000 0000 0000 0000 0000 0000 0000
00000060: 0000 0000 0000 0000 0000 0000 0000 0000
00000070: 0000 0000 0000 0000 0000 0000 0000 0000
00000080: 0000 0000 0000 0000 0000 0000 0000 0000
00000090: 0000 0000 0000 0000 0000 0000 0000 0000
000000a0: 0000 0000 0000 0000 0000 0000 0000 0000
000000b0: 0000 0000 0000 0000 0000 0000 0000 0000
000000c0: 0000 0000 0000 0000 0000 0000 0000 0000
000000d0: 0000 0000 0000 0000 0000 0000 0000 0000
000000e0: 0000 0000 0000 0000 0000 0000 0000 0000
000000f0: 0000 0000 0000 0000 0000 0000 0000 0000

base.mlp.fc_h.2.weight f4 [64]
1.0 1.0 1.0 1.0 1.0 1.0 1.0 1.0
1.0 1.0 1.0 1.0 1.0 1.0 1.0 1.0
1.0 1.0 1.0 1.0 1.0 1.0 1.0 1.0
1.0 1.0 1.0 1.0 1.0 1.0 1.0 1.0
1.0 1.0 1.0 1.0 1.0 1.0 1.0 1.0
1.0 1.0 1.0 1.0 1.0 1.0 1.0 1.0
1.0 1.0 1.0 1.0 1.0 1.0 1.0 1.0
1.0 1.0 1.0 1.0 1.0 1.0 1.0 1.0
00000000: 0000 803f 0000 803f 0000 803f 0000 803f
00000010: 0000 803f 0000 803f 0000 803f 0000 803f
00000020: 0000 803f 0000 803f 0000 803f 0000 803f
00000030: 0000 803f 0000 803f 0000 803f 0000 803f
00000040: 0000 803f 0000 803f 0000 803f 0000 803f
00000050: 0000 803f 0000 803f 0000 803f 0000 803f
00000060: 0000 803f 0000 803f 0000 803f 0000 803f
00000070: 0000 803f 0000 803f 0000 803f 0000 803f
00000080: 0000 803f 0000 803f 0000 803f 0000 803f
00000090: 0000 803f 0000 803f 0000 803f 0000 803f
000000a0: 0000 803f 0000 803f 0000 803f 0000 803f
000000b0: 0000 803f 0000 803f 0000 803f 0000 803f
000000c0: 0000 803f 0000 803f 0000 803f 0000 803f
000000d0: 0000 803f 0000 803f 0000 803f 0000 803f
000000e0: 0000 803f 0000 803f 0000 803f 0000 803f
000000f0: 0000 803f 0000 803f 0000 803f 0000 803f

base.mlp.fc_h.2.bias f4 [64]
0.0 0.0 0.0 0.0 0.0 0.0 0.0 0.0
0.0 0.0 0.0 0.0 0.0 0.0 0.0 0.0
0.0 0.0 0.0 0.0 0.0 0.0 0.0 0.0
0.0 0.0 0.0 0.0 0.0 0.0 0.0 0.0
0.0 0.0 0.0 0.0 0.0 0.0 0.0 0.0
0.0 0.0 0.0 0.0 0.0 0.0 0.0 0.0
0.0 0.0 0.0 0.0 0.0 0.0 0.0 0.0
0.0 0.0 0.0 0.0 0.0 0.0 0.0 0.0
00000000: 0000 0000 0000 0000 0000 0000 0000 0000
00000010: 0000 0000 0000 0000 0000 0000 0000 0000
00000020: 0000 0000 0000 0000 0000 0000 0000 0000
00000030: 0000 0000 0000 0000 0000 0000 0000 0000
00000040: 0000 0000 0000 0000 0000 0000 0000 0000
00000050: 0000 0000 0000 0000 0000 0000 0000 0000
00000060: 0000 0000 0000 0000 0000 0000 0000 0000
00000070: 0000 0000 0000 0000 0000 0000 0000 0000
00000080: 0000 0000 0000 0000 0000 0000 0000 0000
00000090: 0000 0000 0000 0000 0000 0000 0000 0000
000000a0: 0000 0000 0000 0000 0000 0000 0000 0000
000000b0: 0000 0000 0000 0000 0000 0000 0000 0000
000000c0: 0000 0000 0000 0000 0000 0000 0000 0000
000000d0: 0000 0000 0000 0000 0000 0000 0000 0000
000000e0: 0000 0000 0000 0000 0000 0000 0000 0000
000000f0: 0000 0000 0000 0000 0000 0000 0000 0000

base.mlp.fc2.0.0.weight f4 [64, 64]
-0.069066 0.12414651 -0.17881966 -0.21555385 -0.10025978 0.20231298 -0.07852779 0.0032915433
0.047704626 0.060447376 0.06582368 0.3675728 -0.13142227 -0.17965347 -0.027705615 0.16776812
-0.09794359 0.049578108 0.2548 -0.2709181 -0.21935427 -0.23990051 0.09339398 -0.3006198
0.5944593 -0.16549315 -0.0970897 0.25856727 0.34121007 -0.04947225 -0.04505579 -0.19345824
0.046722032 0.14879404 0.22960465 -0.08790754 0.27544525 0.26577163 -0.12592772 -0.7074373
-0.06573876 -0.056323476 0.0133779235 0.047568932 0.0643141 0.0013684995 -0.097935006 -0.33587116
0.05831261 0.1111793 -0.03537414 0.017297434 -0.3155121 0.054769907 0.08646466 -0.26427814
-0.2113442 -0.23482253 0.33348006 -0.17721042 0.30552697 -0.10038398 0.0143332705 -0.04246614
0.028846728 -0.039672595 -0.106938876 -0.057249226 -0.076003075 0.19258508 0.19539069 0.026515825
-0.00916431 -0.0012977208 0.20318934 0.05689813 -0.0063480935 -0.09395164 -0.2002606 -0.00931767
0.11792017 -0.07811497 -0.27695057 0.051962953 0.21132351 -0.50103813 0.12419677 -0.14857712
-0.17262883 0.22950749 -0.07182266 0.27819407 -0.01355955 -0.15381211 -0.4747621 0.18231267
0.20349662 0.20567535 0.19109067 0.041176103 -0.35777068 0.052785285 0.5501701 -0.25917736
-0.2180816 0.05876206 -0.008895598 0.00806398 0.36763424 0.38013825 -0.14957169 0.35573798
-0.21238025 0.13396092 0.30615932 0.098309115 0.17186023 0.041421063 0.14090474 -0.0846127
0.07976936 -0.06393421 -0.35708496 -0.06397167 0.21354333 0.26191276 -0.14305541 0.32462105
-0.27609894 -0.07251498 -0.011825063 0.20837127 0.1238923 -0.01720426 0.2529746 -0.12999505
-0.12573 0.18874867 -0.28099382 -0.15136898 0.016639277 0.012149093 -0.2155232 0.31312743
-0.24592902 0.426434 0.103792496 0.39543822 -0.2816736 -0.21548776 0.30591032 0.15063734
0.3274503 -0.12048644 0.19330923 0.12398723 -0.4182558 -0.15176381 0.014718727 0.07796321
0.32541242 0.50795156 0.016329695 0.008433619 0.026511455 0.10604517 -0.04638773 0.09384579
0.04126788 0.43700787 -0.1251898 0.0017273069 -0.053840257 0.02552694 0.17997946 0.16998374
0.12560426 -0.08036627 -0.16200513 -0.23815042 -0.10464945 -0.19290759 0.2683438 0.26456565
0.24592422 -0.11818057 0.1895603 -0.16118723 -0.15570271 0.09654447 0.21821003 0.23024035
0.03368572 0.08177046 0.25844255 -0.13593456 0.13344014 0.124420725 0.0123339025 0.04765567
0.4538154 0.11599862 0.24972703 -0.13399355 -0.120779656 0.28144613 0.12992406 -0.05647495
0.31813687 0.005356936 -0.3940574 -0.15887639 -0.10382209 -0.37998202 -0.11486054 -0.26228324
0.36223635 -0.0040254826 -0.25730175 0.11547718 -0.3458542 -0.06006944 0.3519852 0.28543556
-0.09298852 0.28331813 -0.083151065 0.52700365 0.192145 -0.1490791 -0.3901865 -0.06600388
-0.034621898 0.044405673 -0.09199989 -0.14419296 0.004699664 0.1583342 0.09657654 0.04896068
-0.1642119 -0.014831721 -0.19810033 -0.3390936 0.21102569 0.27794814 -0.10992879 0.17196931
-0.06335917 0.1470381 -0.26107514 -0.030248221 0.082888715 -0.119247794 -0.05093694 -0.25347728
00000000: 7a72 8dbd 8740 fe3d 801c 37be 26ba 5cbe
00000010: 0055 cdbd 222b 4f3e 2ed3 a0bd efb6 573b
00000020: ed65 433d ab97 773d 91ce 863d 8132 bc3e
00000030: 8f93 06be 14f7 37be e3f6 e2bc 68cb 2b3e
00000040: a696 c8bd 6a12 4b3d 2575 823e c7b5 8abe
00000050: 689e 60be 7ba8 75be 5845 bf3d d7ea 99be
00000060: 7c2e 183f 0977 29be f7d6 c6bd ee62 843e
00000070: 16b3 ae3e 6aa3 4abd 6c8c 38bd eb19 46be
00000080: 9a5f 3f3d 775d 183e 7b1d 6b3e de08 b4bd
00000090: 2907 8d3e 3813 883e 32f3 00be 9c1a 35bf
000000a0: 0ba2 86bd 72b3 66bd 142f 5b3c a4d7 423d
000000b0: 1cb7 833d 395f b33a 2692 c8bd 4ef7 abbe
000000c0: 34d9 6e3d f9b1 e33d 79e4 10bd 59b3 8d3c
000000d0: cd8a a1be 6956 603d 6214 b13d 774f 87be
000000e0: 9d6a 58be 5175 70be e6bd aa3e a676 35be
000000f0: 086e 9c3e 1e96 cdbd 18d6 6a3c faf0 2dbd
00000100: f94f ec3c bb7f 22bd c502 dbbd 2a7e 6abd
00000110: 80a7 9bbd 0635 453e 7f14 483e b737 d93c
00000120: e725 16bc 4918 aaba de10 503e 030e 693d
00000130: ab03 d0bb b869 c0bd 1d11 4dbe 24a9 18bc
00000140: 2180 f13d befa 9fbd 77cc 8dbe 1bd7 543d
00000150: 3165 583e 0944 00bf e05a fe3d 9a24 18be
00000160: 9dc5 30be 0304 6b3e c217 93bd 746f 8e3e
00000170: e028 5ebc ec80 1dbe 0514 f3be 2cb0 3a3e
00000180: 6b61 503e 8f9c 523e 46ad 433e 46a8 283d
00000190: b82d b7be 6235 583d f3d7 0c3f e5b2 84be
000001a0: c850 5fbe 7cb0 703d d8be 11bc c91e 043c
000001b0: 8e3a bc3e 7ba1 c23e 5229 19be 4a23 b63e
000001c0: 357a 59be 0d2d 093e eac0 9c3e 4a56 c93d
000001d0: 21fc 2f3e 22a9 293d 5549 103e 6c49 adbd
000001e0: 1e5e a33d f0ef 82bd d7d3 b6be 9403 83bd
000001f0: 1aab 5a3e 6e19 863e 1e7d 12be bb34 a63e
00000200: d75c 8dbe bc82 94bd e9bd 41bc 475f 553e
00000210: 3fbb fd3d f3ef 8cbc e385 813e 6c1d 05be
00000220: 5dbf 00be 5547 413e 6cde 8fbe 7800 1bbe
00000230: 184f 883c fd0c 473c 1db2 5cbe 3d52 a03e
00000240: d1d4 7bbe 8f55 da3e 2991 d43d e176 ca3e
00000250: 8637 90be d3a8 5cbe 47a0 9c3e ad40 1a3e
00000260: 91a7 a73e 98c1 f6bd dbf2 453e 04ed fd3d
00000270: a025 d6be f967 1bbe d126 713c 2dab 9f3d
00000280: 759c a63e 1d09 023f dac5 853c 292d 0a3c
00000290: 8d2e d93c 362e d93d 0f01 3ebd 3932 c03d
000002a0: 8208 293d 7fbf df3e c131 00be cd66 e23a
000002b0: 9a87 5cbd e01d d13c 894c 383e 3810 2e3e
000002c0: 679e 003e 1297 a4bd ace4 25be b4dd 73be
000002d0: 7352 d6bd 9189 45be 5c64 893e 2675 873e
000002e0: 8fd3 7b3e a808 f2bd 181c 423e 440e 25be
000002f0: 8870 1fbe 1bb9 c53d 7372 5f3e 20c4 6b3e
00000300: 0afa 093d 4577 a73d 9552 843e 6e32 0bbe
00000310: 88a4 083e 4bd0 fe3d 2314 4a3c 9832 433d
00000320: 7e5a e83e af90 ed3d 71b8 7f3e 9b35 09be
00000330: 535b f7bd b519 903e d00a 053e 4752 67bd
00000340: d6e2 a23e 3c89 af3b e4c1 c9be 7eb0 22be
00000350: ada0 d4bd 018d c2be 013c ebbd fd49 86be
00000360: 0b77 b93e 32e8 83bb 0ebd 83be 4d7f ec3d
00000370: cd13 b1be 600b 76bd 6737 b43e 9c24 923e
00000380: c470 bebd 130f 913e 1b4b aabd b6e9 063f
00000390: a9c1 443e 31a8 18be 86c6 c7be 0b2d 87bd
000003a0: b1cf 0dbd b9e2 353d 706a bcbd 52a7 13be
000003b0: a4ff 993b 5c22 223e ecc9 c53d fe8a 483d
000003c0: 2a27 28be bf00 73bc d0da 4abe ad9d adbe
000003d0: 1e17 583e 384f 8e3e 5822 e1bd b918 303e
000003e0: 74c2 81bd 2891 163e a4ab 85be 1ecb f7bc
000003f0: 8fc1 a93d 3038 f4bd 41a3 50bd c6c7 81be

base.mlp.fc2.0.0.bias f4 [64]
-0.0014670145 0.0036652137 1.2962727e-05 -0.0032245202 -0.0033215838 0.00019862955 0.0045576054 -0.0019274087
0.0008898377 -0.001168531 0.00096815784 -0.00027993383 -0.001643294 0.004507436 0.00090913277 0.0020454293
-0.0013661538 -0.005431745 -0.0002792013 -0.0027556238 0.00034990214 -0.0047732037 0.0013503075 0.0013974167
-0.004397736 0.0023467059 0.0081888195 0.0015068611 -0.003136223 0.0015361883 -0.00050014287 0.0031316883
0.0044956133 -0.0026166392 0.002828417 -0.001128227 0.001288943 0.00033176795 -0.0041792127 -0.0013157618
-0.003929288 0.0015184528 -0.00123192 0.0014976608 -0.0017257838 0.00075771555 0.0017451152 -0.001819553
-0.00128038 -0.00067937595 0.0021177742 -0.005410281 0.00045713448 -0.0033392182 0.0028624996 0.0013581398
-0.000567349 0.0043329075 -0.001890254 0.0008557044 -0.0023079922 0.0022500872 -0.00033190078 7.561974e-05
00000000: d748 c0ba 1534 703b 7d7a 5937 7952 53bb
00000010: eeae 59bb 3747 5039 f757 953b 1ba1 fcba
00000020: ff43 693a 6529 99ba f9cb 7d3a 15c4 92b9
00000030: cc63 d7ba 1db3 933b de52 6e3a 9c0c 063b
00000040: 8410 b3ba c8fc b1bb c461 92b9 b297 34bb
00000050: 1273 b739 8968 9cbb cdfc b03a 8629 b73a
00000060: e21a 90bb 31cb 193b 662a 063c de81 c53a
00000070: 1789 4dbb ed59 c93a 051c 03ba 033d 4d3b
00000080: f04f 933b ec7b 2bbb f75c 393b 04e1 93ba
00000090: c0f1 a83a 24f1 ad39 c7f1 88bb a475 acba
000000a0: 42c1 80bb d206 c73a 6078 a1ba 284d c43a
000000b0: b233 e2ba 6ea1 463a 59bc e43a 117e eeba
000000c0: 6cd2 a7ba 2618 32ba 5bca 0a3b ba48 b1bb
000000d0: 8dab ef39 c9d6 5abb c698 3b3b 9c03 b23a
000000e0: 26ba 14ba 10fb 8d3b 66c2 f7ba 5a51 603a
000000f0: af41 17bb 3376 133b f802 aeb9 0a96 9e38

base.mlp.fc2.0.2.weight f4 [64]
0.9997257 0.9991058 0.9951463 0.9999415 0.99895555 0.9997929 0.9998665 0.9955163
0.99619377 0.99978566 0.99601376 1.0032592 0.99982303 0.99956334 0.99481183 0.9998205
0.9997543 0.99931353 0.999925 0.99959016 0.9995746 0.9997343 1.0000412 0.9996258
0.99966735 0.9977838 0.99314356 0.9994389 0.99686575 0.9996459 1.0001321 0.9999572
0.999732 0.9998011 0.99991304 1.0000098 0.99883795 1.0004245 0.9996165 0.999496
1.0000254 0.9976053 0.99948233 0.99906456 0.9998453 0.9993302 0.999484 0.9996068
0.9949769 0.999826 0.9945363 0.99604696 1.0015825 0.99992996 0.9999629 0.99981284
0.995334 0.9984232 0.9998741 0.9949992 0.99980456 0.9983066 1.0003557 0.99688524
00000000: 06ee 7f3f 66c5 7f3f e8c1 7e3f 2bfc 7f3f
00000010: 8dbb 7f3f 6df2 7f3f 40f7 7f3f 28da 7e3f
00000020: 8e06 7f3f f4f1 7f3f c2fa 7e3f cc6a 803f
00000030: 67f4 7f3f 62e3 7f3f fdab 7e3f 3cf4 7f3f
00000040: e6ef 7f3f 03d3 7f3f 16fb 7f3f 24e5 7f3f
00000050: 1fe4 7f3f 96ee 7f3f 5a01 803f 7ae7 7f3f
00000060: 33ea 7f3f c26e 7f3f a83e 7e3f 3adb 7f3f
00000070: 9832 7f3f cbe8 7f3f 5404 803f 32fd 7f3f
00000080: 70ee 7f3f f7f2 7f3f 4dfa 7f3f 5200 803f
00000090: d8b3 7f3f e90d 803f dee6 7f3f f8de 7f3f
000000a0: d500 803f 1063 7f3f 13de 7f3f b2c2 7f3f
000000b0: ddf5 7f3f 1bd4 7f3f 2fde 7f3f 3be6 7f3f
000000c0: ceb6 7e3f 99f4 7f3f ee99 7e3f effc 7e3f
000000d0: db33 803f 69fb 7f3f 92fd 7f3f bcf3 7f3f
000000e0: 36ce 7e3f aa98 7f3f c0f7 7f3f 44b8 7e3f
000000f0: 31f3 7f3f 0591 7f3f a80b 803f df33 7f3f

base.mlp.fc2.0.2.bias f4 [64]
-0.000105946085 5.696337e-05 -0.00013863394 -4.0610208e-05 0.00023488377 -0.00022197019 -2.6716707e-05 0.00013930601
-0.00015381348 0.00017273528 -0.00015208326 6.9483096e-05 0.00013306586 -0.00023046846 5.095394e-05 -0.00017882985
-8.579789e-05 0.0006022953 -0.00013884503 0.00017308784 9.706292e-05 -4.8072772e-05 -0.0001091791 0.00010239379
0.00025615163 -0.00014729005 -0.0067973086 -0.00014544361 -8.8486995e-05 -0.0001556912 7.570409e-05 6.4221415e-05
3.1426804e-05 0.00015754483 -4.978019e-05 -0.00014798147 6.389496e-05 -2.1885913e-05 -9.293365e-05 -6.8349655e-05
-0.00010925215 -0.00014143209 -0.00015173157 8.392229e-05 0.00024124167 0.00010699486 0.000104054656 -5.53699e-05
0.00013417545 0.00014879084 -0.00014986316 0.00053484045 -6.7029745e-05 -6.9534966e-05 -1.1110633e-05 -0.00022115205
-0.0001871978 3.368571e-05 0.00019127934 9.023871e-05 0.00015349216 -0.00017952797 7.2548435e-05 -4.5552366e-05
00000000: 5f2f deb8 f4eb 6e38 445e 11b9 e154 2ab8
00000010: 224b 7639 abc0 68b9 b11d e0b7 ac12 1239
00000020: fe48 21b9 4620 3539 8a78 1fb9 74b7 9138
00000030: 9887 0b39 e8a9 71b9 60b7 5538 4684 3bb9
00000040: 64ee b3b8 5ae3 1d3a ee96 11b9 ea7e 3539
00000050: 428e cb38 bfa1 49b8 15f7 e4b8 3fbc d638
00000060: 174c 8639 df71 1ab9 f5bb debb 3982 18b9
00000070: 1892 b9b8 0a41 23b9 53c3 9e38 9cae 8638
00000080: 46d0 0338 9e32 2539 12cb 50b8 792b 1bb9
00000090: 58ff 8538 a497 b7b7 60e5 c2b8 f156 8fb8
000000a0: 4d1e e5b8 634d 14b9 221a 1fb9 70ff af38
000000b0: d1f5 7c39 6e62 e038 eb37 da38 fa3c 68b8
000000c0: 73b1 0c39 bd04 1c39 9624 1db9 8934 0c3a
000000d0: 5292 8cb8 4dd3 91b8 ce67 3ab7 0de5 67b9
000000e0: 874a 44b9 c149 0d38 2892 4839 8a3e bd38
000000f0: bdf2 2039 ac3f 3cb9 2525 9838 7b0f 3fb8

v_out.weight f4 [1, 64]
0.19448327 -0.052756235 0.0926805 0.04254004 -0.028664147 0.03740418 -0.023816139 -0.1982238
0.11792157 -0.07677682 0.11437553 -0.060445398 -0.43913397 -0.010457705 -0.026985412 0.0673685
0.095796175 0.005169869 0.25614044 -0.07553526 -0.15780936 0.04736497 0.22977789 -0.17147861
-0.027516073 0.15580934 0.00010551836 0.17312463 0.12632592 0.115627944 -0.07266756 -0.059078425
-0.038701378 -0.111423574 -0.020741465 0.13152109 -0.059940636 0.035317924 0.11683056 0.06564242
0.23094796 0.1582898 0.104676366 -0.09626293 -0.031222234 -0.24119987 -0.18845037 0.05263455
-0.18868405 -0.14587012 0.104733445 -0.0058048368 0.06120459 0.06491051 -0.026292693 0.037784327
0.040774107 -0.040914983 -0.054743618 -0.10806304 -0.12673546 0.06147254 -0.069527045 0.06266915
00000000: 9f26 473e ec16 58bd 46cf bd3d 773e 2e3d
00000010: 13d1 eabc 2035 193d 101a c3bc 2efb 4abe
00000020: dd80 f13d 2a3d 9dbd b83d ea3d 9895 77bd
00000030: 2bd6 e0be cb56 2bbc 8310 ddbc 7ff8 893d
00000040: c930 c43d 0168 a93b d724 833e 3bb2 9abd
00000050: c798 21be c501 423d e54a 6b3e 1798 2fbe
00000060: 6369 e1bc 7c8c 1f3e bd49 dd38 9547 313e
00000070: 955b 013e 58ce ec3d bbd2 94bd 38fc 71bd
00000080: 5685 1ebd 0b32 e4bd 01ea a9bc 77ad 063e
00000090: 5084 75bd 87a9 103d dc44 ef3d 886f 863d
000000a0: 9f7d 6c3e b916 223e 9060 d63d 8025 c5bd
000000b0: c5c5 ffbc 19fd 76be 22f9 40be 5397 573d
000000c0: 6436 41be fa5e 15be 7d7e d63d 8036 bebb
000000d0: aab1 7a3d cdef 843d c663 d7bc bdc3 1a3d
000000e0: c002 273d 7896 27bd d83a 60bd 2850 ddbd
000000f0: f1c6 01be a1ca 7b3d 3264 8ebd af58 803d
