results/MyEnv/MyEnv/mappo/check/run7/models/actor_agent0.pt (torch, 46348 bytes, 17 tensors)

base.feature_norm.weight f4 [14]
000000 0a b0 7b 3f 3d 22 7c 3f b1 43 7d 3f 34 ec 79 3f
       0.9831549 0.98489743 0.98931414 0.9762604
000010 75 11 81 3f 30 b6 81 3f a0 82 79 3f 9d 45 82 3f
       1.0083452 1.0133724 0.9746494 1.0177494
000020 84 a6 81 3f 55 b7 81 3f 83 33 81 3f 7e 61 81 3f
       1.0128942 1.0134073 1.0093845 1.0107877
000030 d3 f5 82 3f 34 90 79 3f
       1.023127 0.9748566

base.feature_norm.bias f4 [14]
000000 1f 7d 54 bd 42 3d 38 bc ac 52 99 3c 5f d1 26 3c
       -0.051877137 -0.011245074 0.018716179 0.010181754
000010 51 8e 3b bb a9 cc 5f bc 2e c5 7f 3c 72 3c 73 3c
       -0.0028618763 -0.013659635 0.015610976 0.014845954
000020 d2 44 ce 3c 4f 6a 53 bd 36 2f 77 3b 56 53 1d 3d
       0.0251793 -0.051615056 0.003771735 0.038409553
000030 70 35 d6 bc 94 ae 46 bc
       -0.026148528 -0.012126584

base.mlp.fc1.0.weight f4 [64, 14]
000000 8d 7f 41 3e a9 75 3b bd 0b 53 93 3d 4c 5b b3 bd
       0.18896313 -0.045766506 0.071935736 -0.08757648
000010 c2 8e d1 ba d9 a4 76 be bd b4 74 be 8b 23 4a 3e
       -0.001598798 -0.24086322 -0.23897071 0.19740121
000020 bb 7d 32 be 65 64 84 ba 8a 16 de bc ea 64 78 3d
       -0.17430775 -0.0010100721 -0.027110357 0.060643114
000030 d5 1b bf 3e 26 6e 98 3e 8f af 40 3e 44 7c 8b 3d
       0.37325922 0.29771537 0.1881697 0.06810811
000040 cb 1c 22 3e b8 f4 f5 bd 89 0d bf bd 91 a1 7e 3e
       0.15831296 -0.12009567 -0.093287535 0.2486632
000050 7f 0d a1 3d b0 21 14 3d d9 9d 20 be 2c 3a 27 3e
       0.07863902 0.03616494 -0.15685214 0.16330785
000060 1b 83 1d 3e 86 33 3e 3c a8 2d d4 3e 51 ce 26 be
       0.15382044 0.011608964 0.41441083 -0.16289641
000070 48 65 93 3d fa 2a 80 3e d2 ec 3a bd 55 28 c7 bd
       0.07197052 0.2503279 -0.045636006 -0.097244896
000080 38 2e 42 be 53 c0 39 bd 99 70 73 3d 96 57 ad bd
       -0.18962944 -0.04534943 0.059433553 -0.08463971
000090 12 0d 30 be f8 ac 48 bd 92 20 47 bd d0 30 85 bd
       -0.17192486 -0.04899308 -0.048615046 -0.06503451
0000a0 eb d9 4f 3e e9 0c ee 3c af 9f 9b 3d 92 23 ea 3e
       0.20297973 0.02905889 0.075988166 0.45730263
0000b0 2d f8 01 3d b7 dc 2d 3d a5 32 9d bd ef 3d f9 3d
       0.03173082 0.04244682 -0.07675675 0.12170016
0000c0 fa af 4b b8 61 b9 8a bc 83 b5 b9 be b3 25 b0 3e
       -4.8562863e-05 -0.016934099 -0.36271295 0.34403762
0000d0 5e 44 a0 3e ea 7a 47 be 89 e6 5f bc 8d 54 82 3d
       0.3130216 -0.19480482 -0.013665804 0.06363783
0000e0 9f 14 33 be 18 54 7e 3d ef 06 fb bd 1b e9 ab 3e
       -0.17488335 0.062091917 -0.12257182 0.33576283
0000f0 72 64 b2 bd 31 b9 57 3d 8f a5 5d 3e 20 9f 19 3e
       -0.08710565 0.052666847 0.21645187 0.15002108
000100 da 60 54 3e 10 07 0b be b9 b5 82 3d 3f 56 38 be
       0.20740071 -0.13576913 0.06382317 -0.1800165
000110 6a a4 80 3d d7 11 bb bd 05 fa 48 3d 9e 86 09 be
       0.062813595 -0.09134262 0.049066562 -0.13430259
000120 98 f1 38 be f8 59 04 be ff 77 81 be 59 05 f1 3d
       -0.1806091 -0.12924945 -0.25286862 0.11768598
000130 38 9b 37 bb 97 9f 1d be 35 5b 90 3e d5 ec 23 3d
       -0.0028016102 -0.1539291 0.28194585 0.040020783
000140 fc 79 f1 bd 20 56 ce be fb 1f 9e bc ac ba 89 3e
       -0.11790845 -0.40300083 -0.019302359 0.26900232
000150 c6 e5 ae 3e b8 64 a8 be 96 4a fc b9 fa bf 9a be
       0.34159678 -0.32889342 -0.00048120756 -0.30224591
000160 99 56 0d 3d 8a c5 51 3d 5b 13 8f 3c 3d 3e 4d 3e
       0.034506414 0.05121378 0.017465284 0.20043273
000170 c7 9a d7 bd 17 2e 38 bd 12 9d 85 be 8a 63 2a 3d
       -0.10527568 -0.04496583 -0.26096398 0.041598834
000180 19 64 15 3e b9 a3 37 be 89 05 8f bd 80 fa 40 3e
       0.14588965 -0.17933549 -0.069834776 0.18845558
000190 a7 a6 a1 3e 64 92 42 be ca 22 b9 3d 40 31 38 3e
       0.31572458 -0.19001156 0.090398386 0.17987537
0001a0 52 0a 18 3d 86 b4 35 3c 25 f0 68 bd 70 68 3c 3e
       0.037119217 0.011090403 -0.056869645 0.18399215
0001b0 9e e6 06 be 97 17 d7 3d 45 d6 8b 3d 4c db d8 bd
       -0.13173911 0.10502546 0.06827978 -0.105887026
0001c0 2f 95 c2 3d 71 f2 1b be d4 9d cf 3d 64 b7 91 3c
       0.09501111 -0.15229203 0.10137525 0.017787643
0001d0 17 b1 48 3e ee 31 e9 be 01 d8 00 3e 4f 13 6c 3e
       0.19598804 -0.45545906 0.12582399 0.2305424
0001e0 6d 17 5a be 2d 11 86 bd 09 eb 1f 3e c8 6e 0d be
       -0.21297999 -0.06546245 0.15617003 -0.13811791
0001f0 cb fd 79 be 32 50 4b bd f9 98 cc 3d 28 34 b2 3d
       -0.2441322 -0.049637027 0.09990115 0.08701354
000200 10 7b 1a 3e a8 58 af be de 71 26 be bc fc 8a be
       0.15086007 -0.34247327 -0.16254374 -0.27145946
000210 1b e6 02 bb 67 6f ae bd 77 f2 3d 3e c0 d9 16 be
       -0.001997358 -0.08517342 0.18549524 -0.14731503
000220 71 6f 08 3e 42 e0 fa 3d b2 88 42 3d 11 f4 05 3e
       0.13323762 0.12249805 0.047493644 0.13081385
000230 01 cf b1 bd 8a 43 d0 bd 6d 1b 6f 3e 5f b7 75 3d
       -0.08682061 -0.10169132 0.23350306 0.05998933
000240 1f 27 fa 3d e7 e6 8b be 7a dd ad be e4 24 d0 3e
       0.12214493 -0.27324602 -0.33958036 0.40653145
000250 aa db bc 3d ef 90 37 3e d9 ab 00 bd 00 45 9d bc
       0.09221585 0.17926382 -0.031413887 -0.01919794
000260 15 b6 f4 bc d8 1e 3a be 78 cf d5 bc 93 14 16 bd
       -0.02987198 -0.18175828 -0.026099905 -0.036640715
000270 20 55 b9 3e 56 05 c6 3d b9 cd 1c 3d 7b 1e e6 bd
       0.36197758 0.096689865 0.03828213 -0.112362824
000280 1f 59 0b 3e 4b be 2f be 1e 39 26 3d 80 11 16 3e
       0.13608216 -0.17162435 0.040581815 0.14655113
000290 9c 34 6e 3e e5 8d ae 3d 6c 06 46 3e f6 5e 2e be
       0.23262256 0.08523158 0.19338387 -0.17028412
0002a0 4e 3e 9c 3e 56 a7 98 be 6a ac 86 be 94 11 7f be
       0.30516285 -0.29815167 -0.26303416 -0.2490905
0002b0 76 a4 58 bd eb a8 b5 bc fa 9b 74 3d e1 46 0f 3e
       -0.052891217 -0.022175273 0.059719063 0.13991882
0002c0 89 1f bf be de ef e2 bd 26 bf 3a 3e 7f b9 ee bd
       -0.37328747 -0.11080907 0.1823698 -0.11656474
0002d0 52 08 ee bd fd c3 93 3e 40 28 d0 3e be bf 22 be
       -0.11622681 0.28860465 0.40655708 -0.15893456
0002e0 8a 4a 2c be 0d 4a 09 3e 8d 0f 77 3d 5c bd 9b 3e
       -0.1682531 0.13407154 0.060317565 0.30417907
0002f0 48 27 bf bd 6d a5 a5 3e 55 31 da 3e 22 84 5a bd
       -0.09333664 0.32352772 0.42615762 -0.053348668
000300 62 26 e5 3d 25 10 47 3d 18 30 42 3e 88 1d 1d 3c
       0.111889616 0.04859938 0.18963659 0.00958956
000310 17 8e 34 be 27 1b 28 3e 2e c2 03 bb e5 6c 80 bd
       -0.17632328 0.16416608 -0.0020104754 -0.0627077
000320 02 52 0d 3e 8d 92 16 be 4b 9c 44 bd 7a 9a 12 3e
       0.13800815 -0.14704342 -0.048000615 0.1431674
000330 13 ce ce 3e 62 64 d5 3c cd 5b 0c 3e 74 68 c6 bd
       0.40391597 0.026048843 0.13706894 -0.096878916
000340 f8 cc 07 be 8a 33 0f 3e c1 89 29 be 46 af 64 3b
       -0.13261783 0.13984504 -0.16556455 0.003489451
000350 85 2d a3 3e d4 81 4e 3e 06 00 02 bd 26 99 c7 bc
       0.31870666 0.20166713 -0.031738304 -0.024365019
000360 e0 e8 10 be 54 a3 e1 bc d0 70 39 3d 20 06 ae 3b
       -0.14151335 -0.027543701 0.045273602 0.0053107888
000370 cf a4 87 bb 03 cd 1f bc ae 9e 51 be 36 9a 74 bd
       -0.0041395198 -0.009753468 -0.20470688 -0.05971738
000380 3a c3 86 be ac fd 9e bd 7b 65 99 be 72 c6 30 3e
       -0.2632082 -0.07763228 -0.29960236 0.17263201
000390 8b 13 bb 3c 65 36 a5 bb 7f 19 3c be 79 00 08 be
       0.022836467 -0.0050418847 -0.18369101 -0.1328143
0003a0 17 0d 13 3d b7 06 d8 3e bc a3 7e be ef 4c 84 bd
       0.035901155 0.42192623 -0.24867147 -0.064599864
0003b0 c0 e8 37 be 8b 1f 2c bd a3 75 59 3e 19 31 84 be
       -0.17959881 -0.04202227 0.21236281 -0.2581871
0003c0 18 fb 47 3e 8d 90 d8 3e de 89 d7 3d 47 01 8c bd
       0.19529378 0.42297783 0.10524343 -0.06836181
0003d0 bb 5f 8e 3d 4c a3 ce 3c f6 ee 0b bd d5 57 66 bd
       0.06951853 0.02522435 -0.034163438 -0.056236107
0003e0 60 5d bf 3e 9b a4 cc 3d 29 96 80 be c4 fd 47 bd
       0.37375927 0.099923335 -0.25114563 -0.048825994
0003f0 3b 65 2f 3e a3 a8 9c bc cc 91 29 be 58 ca 41 be
       0.1712846 -0.019123381 -0.16559523 -0.18924844

base.mlp.fc1.0.bias f4 [64]
000000 81 e9 38 bc 38 60 b0 bc 87 cc 3d bd da 4d 4a bd
       -0.01128614 -0.021530256 -0.04633763 -0.04939065
000010 5d 39 4d 3d 08 f1 f1 bc 0b 30 b4 bc 63 d3 3d 3d
       0.050103534 -0.029533878 -0.021995565 0.046344172
000020 da 9f b3 3c 3f 49 e7 3c 44 d3 5c 3b 0f 49 88 bc
       0.02192681 0.028233169 0.003369526 -0.0166364
000030 59 d0 d6 3b cc b0 ef bb 9c a6 9c 3c b0 26 d9 3b
       0.0065555987 -0.007314777 0.019122414 0.0066269264
000040 7f 8e ce 3b 6a 99 a2 3c b8 6a 0a bd 9e 2b 2e bd
       0.006303608 0.019848544 -0.03379318 -0.042522065
000050 09 22 91 3c d5 3c 76 3c 42 66 23 3c 54 c6 1d 3c
       0.017716425 0.015029152 0.009973111 0.009629805
000060 98 c5 3f 3b c3 d3 63 bb 6c bf d9 bb c2 13 02 bc
       0.0029262062 -0.003476367 -0.0066451337 -0.007939281
000070 9d 45 ef 3b 52 9c 81 bb 46 81 3e ba 93 7b e9 3b
       0.0073019997 -0.0039554024 -0.0007267188 0.007125327
000080 c8 15 6f 3c 83 b0 40 bd 0b cf 29 bd c5 1d 41 3b
       0.014592595 -0.047043335 -0.041457217 0.0029467207
000090 cd bd bd bb ec 5a 03 3d c8 8b 17 bc bc f2 7b 3c
       -0.0057904483 0.03206913 -0.009249635 0.015377697
0000a0 78 ce b7 bb cb b6 5f 3c 91 85 20 3d 38 6a df bc
       -0.00560933 0.013654421 0.03918988 -0.027272329
0000b0 09 0e 38 3d 3b ad 22 bd ef 9b 9f 3b c0 63 f0 bc
       0.04493526 -0.039715987 0.0048708837 -0.02934444
0000c0 16 a0 a6 3a ac d9 07 bc 9c 41 b6 bc 7d 71 8b 3c
       0.0012712504 -0.008291643 -0.022248082 0.017021889
0000d0 1e 8c 85 3c 2f 6b 30 bc a8 01 08 3d 1e e2 94 ba
       0.016302165 -0.010767742 0.033204705 -0.0011358892
0000e0 d4 45 31 3b c6 e1 d7 bc f8 98 4b 3d 1d 67 1e bc
       0.0027049677 -0.026352774 0.04970643 -0.009668139
0000f0 8e 5b 4f 3b aa 7a 5d 3c ce f2 e8 3c 79 41 07 3c
       0.0031640264 0.013518015 0.02843609 0.008255356

base.mlp.fc1.2.weight f4 [64]
000000 8a 89 7b 3f 99 ef 7d 3f f7 a3 74 3f 2f bf 7d 3f
       0.9825674 0.9919372 0.9556269 0.9911985
000010 c4 d8 80 3f db d4 82 3f 52 fc 82 3f ec f6 80 3f
       1.0066152 1.0221208 1.0233252 1.0075355
000020 45 c2 85 3f e0 a8 7b 3f d2 42 86 3f 57 f3 7a 3f
       1.0449911 0.9830456 1.0489142 0.9802756
000030 14 1b 82 3f 9a 38 80 3f ec f0 84 3f c9 56 83 3f
       1.0164514 1.0017273 1.0386024 1.026086
000040 48 89 78 3f 94 2a 7a 3f 3f de 78 3f eb 3f 80 3f
       0.97084475 0.9772122 0.9721412 1.0019506
000050 57 48 82 3f ef 79 80 3f 7c 85 85 3f 24 b9 7f 3f
       1.0178326 1.0037211 1.0431361 0.9989188
000060 b7 2a 7e 3f f7 65 73 3f 68 8f 7e 3f 73 55 7b 3f
       0.9928393 0.9507746 0.9943757 0.9817726
000070 aa 27 80 3f 5a bf 7f 3f 77 9e 7c 3f ee 96 73 3f
       1.0012105 0.99901354 0.986793 0.95152175
000080 89 c3 83 3f e4 7d 80 3f c5 77 80 3f 67 7d 7d 3f
       1.0294048 1.0038419 1.0036551 0.99019474
000090 5f 1b 82 3f 00 72 80 3f b5 46 79 3f a2 37 80 3f
       1.0164603 1.003479 0.97373515 1.0016978
0000a0 09 1e 7c 3f 63 1f 83 3f 18 0d 81 3f 2f 67 7c 3f
       0.9848333 1.0243953 1.0082121 0.98594946
0000b0 79 ee 80 3f f5 aa 75 3f dd 55 74 3f b0 2d 7f 3f
       1.0072776 0.95963985 0.95443517 0.9967909
0000c0 55 bf 7d 3f a7 26 81 3f 1a 5f 76 3f 8a e3 82 3f
       0.99120075 1.0089921 0.96238863 1.022569
0000d0 65 f7 84 3f f8 e8 76 3f bf 83 83 3f 9f f9 7b 3f
       1.0387999 0.9644923 1.0274581 0.98427767
0000e0 52 f4 79 3f 2c e7 76 3f 58 4c 83 3f 63 dd 81 3f
       0.9763843 0.9644649 1.0257673 1.0145687
0000f0 e2 41 7d 3f 9f 07 81 3f fe 21 81 3f 70 9f 81 3f
       0.98928654 1.0080451 1.0088499 1.0126781

base.mlp.fc1.2.bias f4 [64]
000000 99 e5 14 ba f0 12 63 bc fd a7 3c bd 0f 2b 45 bd
       -0.00056799647 -0.0138594955 -0.046058644 -0.048136767
000010 c4 56 4e 3c bd ab 0e bd 46 e2 0a bd 53 f1 1f 3d
       0.012593929 -0.03483175 -0.033907197 0.039048504
000020 aa b9 0e 3d b0 43 9c 3c dc 3e 3f 3b b0 3a e6 3c
       0.03484503 0.019075245 0.0029181754 0.028104156
000030 1e 16 34 bc a0 02 02 bc 84 1c 08 bd 01 00 68 3c
       -0.010991601 -0.007935196 -0.03323032 0.014160157
000040 8b d9 e3 3b 17 7f 20 bb 8d 8b af bc 03 d2 0a bd
       0.0069534234 -0.0024489814 -0.021428848 -0.03389169
000050 87 d5 9a 3b 08 74 d5 bc 14 69 98 bc a8 da f0 3a
       0.0047251615 -0.026056305 -0.018604793 0.0018375712
000060 e1 d9 17 3d 17 f6 c7 3c 25 08 98 3a 03 8d db 3b
       0.03707302 0.024409337 0.0011599107 0.0067001595
000070 8e ff c8 3c f1 24 8e bb bb 1f 81 bc 31 cc 4e 3d
       0.02453592 -0.0043379 -0.0157622 0.0504877
000080 2f c7 ad 3a 1b e2 40 bd e9 cf f0 bc 6a f6 25 3c
       0.0013258214 -0.04709063 -0.029396014 0.0101295505
000090 ac f8 b9 bb b2 58 ab 3b 9b 34 6f ba 91 2a b1 3c
       -0.005675396 0.005229079 -0.0009124965 0.021626743
0000a0 a1 fe ee 3b e7 97 8b bb 21 2e 8a bc 46 02 e7 bc
       0.0072935377 -0.0042600515 -0.0168677 -0.028199326
0000b0 9c 30 de 3c 23 35 60 bc 99 8b e2 b9 8b 1d d8 bc
       0.027122788 -0.013684544 -0.00043210087 -0.026381275
0000c0 0d 09 ac 3b a4 fd 79 bc 25 a1 89 3c 08 cb 05 bd
       0.0052501024 -0.015258227 0.016800473 -0.03266433
0000d0 c6 dc 5c bc 11 82 a0 3a 99 71 84 3c 14 c9 ce ba
       -0.013480371 0.0012245794 0.016167449 -0.0015776479
0000e0 86 1c 16 3c 9e ef aa bc e4 60 c7 3c e8 71 a4 ba
       0.009162074 -0.020866212 0.024338193 -0.0012546154
0000f0 e0 fb 1e bb ba 4c af 3a 62 e3 2c 3c c8 f4 a2 3c
       -0.0024259016 0.0013374307 0.010552259 0.019892111

base.mlp.fc_h.0.weight f4 [64, 64]
000000 2d e0 39 be 56 42 20 be 71 7f e6 3b da 3e 2d 3e
       -0.18151923 -0.15650305 0.007034235 0.16918507
000010 a5 7a 00 be 7f dd 27 be dc 6b 80 be 24 8f b6 3d
       -0.12546785 -0.16393088 -0.2508229 0.08914021
000020 94 cc 9d 3e 8e d2 ef bd 89 79 89 3e e1 f7 24 be
       0.30820143 -0.11710082 0.26850536 -0.16110183
000030 1f d1 26 3e 00 ed 3c be ef 11 6d be f6 df 03 3e
       0.16290711 -0.18449783 -0.23151372 0.12878403
000040 f1 9e d3 bc 7a cc 2e be 87 fc 7d 3d 4b 1a ea 3d
       -0.025832625 -0.17070189 0.062008407 0.11430796
000050 00 d5 4a 3e 2c 0a b7 3d cc f8 3a be aa be 63 bd
       0.19807816 0.08937487 -0.18258971 -0.055601753
000060 6b 09 0e 3d d6 5d b9 3e 88 e6 87 3d 18 cc b5 3a
       0.03467695 0.36204404 0.06635767 0.0013870029
000070 41 6b 5f be 61 46 e2 3d 45 ed d8 3e de 83 e4 bd
       -0.21818258 0.1104858 0.42368522 -0.11157964
000080 6b 88 1c be e6 d5 80 3d 1c 0d 81 be 69 9e d7 3d
       -0.15286414 0.06290798 -0.25205314 0.10528261
000090 0d 37 73 3e e9 27 1c be 2d 96 8e bc 6d ae 0b 3d
       0.23751469 -0.152496 -0.017405594 0.034101892
0000a0 0c aa 1c 3d 8a 80 a8 3d 4d b6 01 be cb 57 d4 bd
       0.038248107 0.08227642 -0.12667198 -0.10368308
0000b0 cf e8 02 be 37 b8 9e 3c 31 13 d9 3e 1b 27 1b be
       -0.12784122 0.01937495 0.42397454 -0.15151636
0000c0 2e 90 10 bd b7 0b fb bd 82 cc 60 be 8e 2d 51 be
       -0.03529375 -0.12258094 -0.21953014 -0.20427534
0000d0 76 f4 13 be 24 b9 1c be f2 f6 3a 3d cb f5 a7 be
       -0.14448723 -0.15305 0.04564566 -0.32804713
0000e0 08 11 0a bd e2 16 a4 bc 55 55 2c 3e 96 fa 71 be
       -0.03370765 -0.020030443 0.16829427 -0.23630747
0000f0 58 1e eb bd fe 48 0a be 8e 46 83 3e 92 02 81 be
       -0.11480397 -0.13504407 0.25639766 -0.25197273
000100 4a 0c 2e be cd fe b9 bd a5 e6 60 3e c7 2b 15 be
       -0.16996875 -0.090818025 0.21962984 -0.14567481
000110 3b cc 48 3d 2f be 80 be e2 5a 3e 3c bd 0b 37 3c
       0.049022894 -0.251451 0.011618348 0.011172232
000120 56 35 07 3e d8 a6 17 be 64 05 c2 bd af 51 e5 3c
       0.1320394 -0.1480974 -0.094736844 0.027993051
000130 3f 29 bf 3e 20 91 3a 3e 1a 9e c7 bd 40 c7 a4 bd
       0.37336156 0.18219423 -0.09746952 -0.080458164
000140 18 a2 cb be cf 0f af 3a ac b3 76 bc 63 25 71 be
       -0.39772105 0.0013356152 -0.015057486 -0.23549418
000150 ae 83 2b be 18 9e 70 3d df 1f 8e be 48 35 0d bd
       -0.1674945 0.05874452 -0.2775869 -0.03447464
000160 e4 76 af 3c a5 e1 37 be 87 34 82 be e8 47 42 3e
       0.021418996 -0.1795717 -0.254307 0.18972743
000170 a8 49 34 be 66 f8 06 3d 03 88 47 3d 16 23 8e 3d
       -0.17606223 0.032951735 0.048713695 0.06940286
000180 a2 c7 ec bd 65 b3 b6 bd 55 49 12 3e 2c 21 47 be
       -0.115615144 -0.089209355 0.14285786 -0.19446248
000190 1d 3f 08 3d 12 cc a1 3e 7d 82 80 3e 36 d4 54 be
       0.033263315 0.31601006 0.25099555 -0.20784077
0001a0 53 b5 4a 3e 2f b3 94 3e 76 ec 33 be f9 c1 92 be
       0.19795732 0.29042956 -0.17570671 -0.28663614
0001b0 3e 7b 50 3d 41 1b ee bd f7 a3 ed bc 3d 97 32 be
       0.050898783 -0.11626292 -0.029008849 -0.17440505
0001c0 15 17 2a 3e 0c a0 48 3e 94 c4 2f 3e 71 58 34 be
       0.16610368 0.19592303 0.17164832 -0.17611863
0001d0 04 ac 87 3e 92 c9 e2 bd 9e 98 ef 3c 27 9c a9 3e
       0.26498425 -0.11073603 0.029247578 0.33126947
0001e0 b1 e3 42 be c6 cf 08 3d 18 9d 39 3e 79 91 39 3e
       -0.1903217 0.033401273 0.18126333 0.181219
0001f0 ae 60 6b be bc 5c 04 3e a5 9d 17 3e 2c ed c0 bd
       -0.22986099 0.12926 0.1480623 -0.09420237
000200 be 29 0e 3e 95 93 85 3e 72 f2 a5 3d 07 bf 9f 3e
       0.13883111 0.2608916 0.081028834 0.3120043
000210 8c b9 29 be 64 a3 6a 3e 0f 10 2c be 54 d0 94 bd
       -0.16574687 0.22913891 -0.16803001 -0.07266298
000220 b2 dc 91 be 75 12 a0 be 02 da 8d be b1 f4 5d 3d
       -0.2848869 -0.31264082 -0.2770539 0.054188434
000230 c7 d0 a7 bd 45 f4 8a 3d a6 8c 39 be 0e e1 9e 3e
       -0.08194118 0.06784872 -0.1812006 0.31031078
000240 a6 83 1a bd bc 3e fc 3d 6f 79 28 3e e1 b0 2a be
       -0.037723206 0.12316653 0.16452573 -0.16669036
000250 35 d2 d5 3d a8 70 cc be fd 3e b5 bc a4 35 8e be
       0.104404844 -0.399297 -0.022124762 -0.277753
000260 84 43 1a be 66 a1 5e bd cc ab 0c bc ae 13 88 be
       -0.15064818 -0.05435314 -0.008585881 -0.26577514
000270 a6 14 ea 3b 13 04 32 3d d6 d5 2f 3e 15 59 8c be
       0.0071435748 0.043460917 0.17171416 -0.27411714
000280 6a a1 1c bd 33 73 9e bd b4 41 15 3e b5 6e c7 be
       -0.038239874 -0.07736816 0.14575845 -0.3895165
000290 a1 3f 68 3e 25 db 80 bd e3 32 9f 3e f8 d2 93 be
       0.22680523 -0.062917985 0.3109351 -0.28871894
0002a0 e3 78 ca bd 61 c5 95 3d 8d 5b 1b 3d 5a 21 ff bc
       -0.098863386 0.07313038 0.037929107 -0.031143833
0002b0 ca 43 83 3d f4 eb c9 bd 87 52 f2 bc 75 70 18 be
       0.06409414 -0.098594576 -0.029580368 -0.14886649
0002c0 73 3f 31 3e f4 3d 5b be 61 1a 33 3e 58 4e 60 3e
       0.1730936 -0.21410352 0.17490532 0.21904886
0002d0 d3 b2 55 be 1d a9 1b 3d 79 50 27 bc db 87 cf bd
       -0.20868997 0.038003076 -0.010212057 -0.10133334
0002e0 0a be 38 bb 94 c6 3c 3c 8e e4 3a be b9 2d 57 bd
       -0.0028189444 0.011521954 -0.18251249 -0.05253384
0002f0 2e 8e 11 3d 1e 4c f0 3c 36 f5 64 3e 70 7c 98 bd
       0.035535984 0.02933317 0.22359166 -0.074456096
000300 21 04 ed 3d 15 b5 7e bc 7f 6d 89 3c 21 d0 29 3e
       0.11573053 -0.015546103 0.016775845 0.16583301
000310 e3 a7 1d be 3e 04 21 3e ec 3b 0d 3e 3d 24 11 3e
       -0.15396075 0.15724275 0.1379239 0.1417398
000320 86 fb 7c 3d 3b e9 1b be e9 18 62 3d 32 07 1f be
       0.06176331 -0.15225689 0.055199537 -0.15530089
000330 d7 43 4e 3c 25 c7 92 3e 39 f4 f1 bd c3 cb 42 be
       0.0125894165 0.2866756 -0.1181416 -0.19023041
000340 a0 31 2a 3e 3f e2 31 be 0d 72 63 be b5 17 f6 bd
       0.16620493 -0.17371462 -0.22211476 -0.120162405
000350 cb 9c 2d 3e 99 80 03 3e 8c 89 1a 3e 66 65 47 3e
       0.16954343 0.12842025 0.15091532 0.19472274
000360 9c 19 00 be c5 ef 35 bd 31 dc 29 bd 56 e0 c9 bd
       -0.12509769 -0.044418115 -0.041469757 -0.09857242
000370 b0 2c a1 3e df 88 9a bd 7d 98 e8 3e 1a a2 14 be
       0.31479406 -0.07545637 0.4542884 -0.14514962
000380 81 03 62 bd d1 69 84 3d e5 44 0a 3e d2 5f 3f bd
       -0.055179123 0.064654954 0.13502844 -0.04672224
000390 30 99 b4 3d 19 99 29 3e 06 07 4f bc 29 a0 35 3c
       0.08818281 0.16562308 -0.012635952 0.011085548
0003a0 7a 07 82 3e 10 8d 38 3e be 5d 3d be ca 52 2f bd
       0.2539633 0.18022561 -0.18492791 -0.042803563
0003b0 13 15 e2 3e 88 c9 81 36 9a 6b 5f be f8 14 84 3e
       0.44156703 3.867961e-06 -0.2181839 0.25797248
0003c0 af 9a a9 be 21 22 91 3e 1c 08 25 3e 2a 7f f9 bb
       -0.33125827 0.2834635 0.16116375 -0.007614036
0003d0 b6 07 f4 bc 92 6a 7a 3e 7f 98 d7 bd 5b 41 2a be
       -0.029788833 0.24454716 -0.10527133 -0.16626494
0003e0 43 c1 2b bd 77 22 9a be 3d 25 9e 3e 9f e4 e3 bd
       -0.041932356 -0.3010442 0.30887786 -0.111275904
0003f0 89 94 23 3e 83 cf 85 bd c8 e3 08 be c4 1d 28 be
       0.1597463 -0.0653372 -0.13368142 -0.16417605

base.mlp.fc_h.0.bias f4 [64]
000000 00 00 00 00 00 00 00 00 00 00 00 00 00 00 00 00
       0.0 0.0 0.0 0.0
000010 00 00 00 00 00 00 00 00 00 00 00 00 00 00 00 00
       0.0 0.0 0.0 0.0
000020 00 00 00 00 00 00 00 00 00 00 00 00 00 00 00 00
       0.0 0.0 0.0 0.0
000030 00 00 00 00 00 00 00 00 00 00 00 00 00 00 00 00
       0.0 0.0 0.0 0.0
000040 00 00 00 00 00 00 00 00 00 00 00 00 00 00 00 00
       0.0 0.0 0.0 0.0
000050 00 00 00 00 00 00 00 00 00 00 00 00 00 00 00 00
       0.0 0.0 0.0 0.0
000060 00 00 00 00 00 00 00 00 00 00 00 00 00 00 00 00
       0.0 0.0 0.0 0.0
000070 00 00 00 00 00 00 00 00 00 00 00 00 00 00 00 00
       0.0 0.0 0.0 0.0
000080 00 00 00 00 00 00 00 00 00 00 00 00 00 00 00 00
       0.0 0.0 0.0 0.0
000090 00 00 00 00 00 00 00 00 00 00 00 00 00 00 00 00
       0.0 0.0 0.0 0.0
0000a0 00 00 00 00 00 00 00 00 00 00 00 00 00 00 00 00
       0.0 0.0 0.0 0.0
0000b0 00 00 00 00 00 00 00 00 00 00 00 00 00 00 00 00
       0.0 0.0 0.0 0.0
0000c0 00 00 00 00 00 00 00 00 00 00 00 00 00 00 00 00
       0.0 0.0 0.0 0.0
0000d0 00 00 00 00 00 00 00 00 00 00 00 00 00 00 00 00
       0.0 0.0 0.0 0.0
0000e0 00 00 00 00 00 00 00 00 00 00 00 00 00 00 00 00
       0.0 0.0 0.0 0.0
0000f0 00 00 00 00 00 00 00 00 00 00 00 00 00 00 00 00
       0.0 0.0 0.0 0.0

base.mlp.fc_h.2.weight f4 [64]
000000 00 00 80 3f 00 00 80 3f 00 00 80 3f 00 00 80 3f
       1.0 1.0 1.0 1.0
000010 00 00 80 3f 00 00 80 3f 00 00 80 3f 00 00 80 3f
       1.0 1.0 1.0 1.0
000020 00 00 80 3f 00 00 80 3f 00 00 80 3f 00 00 80 3f
       1.0 1.0 1.0 1.0
000030 00 00 80 3f 00 00 80 3f 00 00 80 3f 00 00 80 3f
       1.0 1.0 1.0 1.0
000040 00 00 80 3f 00 00 80 3f 00 00 80 3f 00 00 80 3f
       1.0 1.0 1.0 1.0
000050 00 00 80 3f 00 00 80 3f 00 00 80 3f 00 00 80 3f
       1.0 1.0 1.0 1.0
000060 00 00 80 3f 00 00 80 3f 00 00 80 3f 00 00 80 3f
       1.0 1.0 1.0 1.0
000070 00 00 80 3f 00 00 80 3f 00 00 80 3f 00 00 80 3f
       1.0 1.0 1.0 1.0
000080 00 00 80 3f 00 00 80 3f 00 00 80 3f 00 00 80 3f
       1.0 1.0 1.0 1.0
000090 00 00 80 3f 00 00 80 3f 00 00 80 3f 00 00 80 3f
       1.0 1.0 1.0 1.0
0000a0 00 00 80 3f 00 00 80 3f 00 00 80 3f 00 00 80 3f
       1.0 1.0 1.0 1.0
0000b0 00 00 80 3f 00 00 80 3f 00 00 80 3f 00 00 80 3f
       1.0 1.0 1.0 1.0
0000c0 00 00 80 3f 00 00 80 3f 00 00 80 3f 00 00 80 3f
       1.0 1.0 1.0 1.0
0000d0 00 00 80 3f 00 00 80 3f 00 00 80 3f 00 00 80 3f
       1.0 1.0 1.0 1.0
0000e0 00 00 80 3f 00 00 80 3f 00 00 80 3f 00 00 80 3f
       1.0 1.0 1.0 1.0
0000f0 00 00 80 3f 00 00 80 3f 00 00 80 3f 00 00 80 3f
       1.0 1.0 1.0 1.0

base.mlp.fc_h.2.bias f4 [64]
000000 00 00 00 00 00 00 00 00 00 00 00 00 00 00 00 00
       0.0 0.0 0.0 0.0
000010 00 00 00 00 00 00 00 00 00 00 00 00 00 00 00 00
       0.0 0.0 0.0 0.0
000020 00 00 00 00 00 00 00 00 00 00 00 00 00 00 00 00
       0.0 0.0 0.0 0.0
000030 00 00 00 00 00 00 00 00 00 00 00 00 00 00 00 00
       0.0 0.0 0.0 0.0
000040 00 00 00 00 00 00 00 00 00 00 00 00 00 00 00 00
       0.0 0.0 0.0 0.0
000050 00 00 00 00 00 00 00 00 00 00 00 00 00 00 00 00
       0.0 0.0 0.0 0.0
000060 00 00 00 00 00 00 00 00 00 00 00 00 00 00 00 00
       0.0 0.0 0.0 0.0
000070 00 00 00 00 00 00 00 00 00 00 00 00 00 00 00 00
       0.0 0.0 0.0 0.0
000080 00 00 00 00 00 00 00 00 00 00 00 00 00 00 00 00
       0.0 0.0 0.0 0.0
000090 00 00 00 00 00 00 00 00 00 00 00 00 00 00 00 00
       0.0 0.0 0.0 0.0
0000a0 00 00 00 00 00 00 00 00 00 00 00 00 00 00 00 00
       0.0 0.0 0.0 0.0
0000b0 00 00 00 00 00 00 00 00 00 00 00 00 00 00 00 00
       0.0 0.0 0.0 0.0
0000c0 00 00 00 00 00 00 00 00 00 00 00 00 00 00 00 00
       0.0 0.0 0.0 0.0
0000d0 00 00 00 00 00 00 00 00 00 00 00 00 00 00 00 00
       0.0 0.0 0.0 0.0
0000e0 00 00 00 00 00 00 00 00 00 00 00 00 00 00 00 00
       0.0 0.0 0.0 0.0
0000f0 00 00 00 00 00 00 00 00 00 00 00 00 00 00 00 00
       0.0 0.0 0.0 0.0

base.mlp.fc2.0.0.weight f4 [64, 64]
000000 85 fa 1e be b2 f1 01 be 08 5f db 3c 97 a8 4e 3e
       -0.15525253 -0.12689856 0.026778713 0.201815
000010 a4 85 99 bd a9 6e 66 be c7 9b 86 be b1 49 9c 3d
       -0.07496193 -0.22503151 -0.26290724 0.07631243
000020 cf 72 a6 3e 07 d1 14 be fa b2 89 3e 57 70 1b be
       0.32509467 -0.14532863 0.2689436 -0.15179573
000030 5a f0 27 3e 6f 4d 33 be 13 c3 8f be eb 93 f6 3d
       0.1640028 -0.17510007 -0.28078517 0.12039932
000040 17 7c 0d ba e2 b5 15 be 88 67 61 3d a0 23 db 3d
       -0.0005397214 -0.14620164 0.055030376 0.10700154
000050 e0 cb 6d 3e 18 d3 af 3d b0 2a 46 be 43 b2 9d bd
       0.23222303 0.08585185 -0.19352221 -0.07700016
000060 b5 db 37 3d 0f 1e a7 3e c4 65 76 3d 30 e9 1d bd
       0.044887263 0.3264012 0.060155645 -0.038552463
000070 29 99 68 be 54 76 da 3d 8f 6a dd 3e 90 4b 0c be
       -0.22714676 0.106671005 0.4324536 -0.137007
000080 c4 78 2d be b0 4a 94 3d d6 2a 89 be a7 79 05 3e
       -0.169406 0.07240808 -0.26790494 0.13034688
000090 bf b9 66 3e 87 c2 3d be f4 a4 71 bc 73 c1 4b 3d
       0.22531794 -0.18531238 -0.014748801 0.049745034
0000a0 a2 00 8a 3d a0 31 b0 3d 3e 02 18 be 94 ae fc bd
       0.06738402 0.08603215 -0.14844605 -0.12337986
0000b0 4f 92 ec bd 8b 52 ee 3c 47 70 cd 3e 78 be 3b be
       -0.11551344 0.029092094 0.40124723 -0.18334377
0000c0 2b 7f 1c bd db b2 d1 bd d2 fb 55 be 57 8a 47 be
       -0.038207214 -0.10239192 -0.20896843 -0.19486366
0000d0 ea 1b 39 be 2d 5f 1c be aa c0 2c 3d ec 95 96 be
       -0.18077055 -0.15270682 0.042175926 -0.29411256
0000e0 cd 4b 71 bc d8 da 1a bc 55 f4 31 3e f3 87 5d be
       -0.014727545 -0.0094515905 0.17378362 -0.21633892
0000f0 e1 3e d8 bd 21 47 34 be b0 45 95 3e 40 58 77 be
       -0.10558868 -0.17605259 0.2915473 -0.24154758
000100 75 cd 37 be 16 72 ab bd 18 be 39 3e 46 ab 2f be
       -0.1794947 -0.083713695 0.18138921 -0.1715518
000110 48 a8 d9 3c 01 32 86 be ef a9 39 3d 1d 09 bb 3c
       0.0265695 -0.26210025 0.045328077 0.022831494
000120 f0 de ef 3d 48 94 1c be 03 a9 c2 bd 85 7c 03 3d
       0.11712444 -0.1529094 -0.09504893 0.032101173
000130 1d 08 c2 3e 98 e1 54 3e fc 58 da bd 41 f6 59 bd
       0.37896815 0.20789182 -0.10661504 -0.05321336
000140 fa d2 d1 be 6f 46 b2 3c 94 ed 1a bd 60 66 7e be
       -0.40981275 0.021762101 -0.03782423 -0.2484374
000150 57 00 3c be 51 b1 da 3c 54 4f a3 be e2 cf 8f bb
       -0.18359505 0.02669588 -0.3189646 -0.0043887952
000160 6b 6a 8c 3b e3 3e 0c be b4 8e 7d be 66 c8 57 3e
       0.004285147 -0.13695864 -0.24761468 0.2107254
000170 98 62 2c be 90 2e 19 3d 67 33 86 3d 06 9c 54 3d
       -0.16834486 0.03739792 0.06552773 0.051906608
000180 d3 62 c4 bd c5 8a d6 bd e9 91 f1 3d c2 64 3e be
       -0.09589162 -0.10475687 0.11795408 -0.18593124
000190 1f e6 c9 3c e2 7d ac 3e b3 94 70 3e b5 6a 43 be
       0.024645863 0.3368979 0.23494224 -0.19083674
0001a0 9d bd 3b 3e 0c ac a3 3e d7 95 33 be be e6 a0 be
       0.1833405 0.319672 -0.17537628 -0.31426042
0001b0 9a b8 72 3d 28 a1 db bd cd fa d9 bc 01 20 25 be
       0.05925808 -0.107240975 -0.026608849 -0.1612549
0001c0 e3 24 25 3e 49 7e 46 3e 63 ab 35 3e 14 b0 3d be
       0.16127352 0.19384111 0.1774116 -0.185242
0001d0 59 f1 91 3e f7 a0 d9 bd 81 c5 ab 3b db a8 ad 3e
       0.28504446 -0.10626405 0.00524205 0.3391789
0001e0 69 d3 4a be 3c 48 77 3d 8d 4c 3e 3e a2 c7 36 3e
       -0.19807209 0.060371622 0.1858389 0.17849591
0001f0 a9 60 67 be 40 55 1a 3e 6c ea 01 3e fd 4d e5 bd
       -0.22595467 0.15071583 0.12687081 -0.11196516
000200 dd e3 29 3e 4e c2 8d 3e 9f d0 be 3d 90 7f 93 3e
       0.16590829 0.27687305 0.09317135 0.2880826
000210 41 84 2d be 5e 16 6d 3e b7 88 11 be 62 83 a9 bd
       -0.16944982 0.23153064 -0.14212309 -0.082770124
000220 01 59 9e be b3 60 97 be b1 31 83 be 1d ac 4a 3d
       -0.3092728 -0.29565963 -0.2562385 0.049480546
000230 bf 75 69 bd 74 e6 ae 3d 55 aa 24 be d3 f4 9c 3e
       -0.056997057 0.08540049 -0.16080602 0.30655536
000240 f8 0e 3c bd 6a e3 e3 3d b2 21 eb 3d a8 38 2a be
       -0.045912713 0.1112736 0.11481036 -0.16623175
000250 12 a1 d9 3d 93 6f cf be fc f9 42 bd 6b 8f 9e be
       0.10626425 -0.40514812 -0.047601685 -0.30968794
000260 ad 9b da bd b7 27 9f bc c2 bf d8 bc ca 79 87 be
       -0.10674224 -0.019428117 -0.026458625 -0.26460105
000270 43 db 37 3d 77 28 52 3d 34 c2 2c 3e 57 54 8e be
       0.04488684 0.05130812 0.16870958 -0.2779872
000280 01 08 33 bd ae 3f bf bd ba 27 23 3e 17 45 d0 be
       -0.043708805 -0.09338318 0.15933123 -0.4067771
000290 ea 9f 5a 3e 23 24 a4 bd be 00 a2 3e 28 fd 8d be
       0.21350065 -0.08014705 0.3164119 -0.27732205
0002a0 fc bf f6 bd 64 8a c2 3d 47 6f 2b 3d 2e 3f 45 bd
       -0.12048337 0.09499052 0.04185417 -0.048155956
0002b0 d1 80 b3 3d f9 34 ce bd 2d b5 1a bd 65 2f 0b be
       0.08764804 -0.100686975 -0.03777044 -0.13592298
0002c0 82 be 44 3e 95 31 59 be b3 14 4f 3e 5d d9 6c 3e
       0.19213298 -0.2121032 0.2022274 0.23129793
0002d0 00 52 38 be fa d5 5e 3d 82 5a e4 bc de ae da bd
       -0.1800003 0.054403283 -0.027875189 -0.106778845
0002e0 db df 16 bb 26 d6 75 3c cd fa 4b be 23 85 ba bd
       -0.0023021612 0.01500467 -0.19919892 -0.09107425
0002f0 4f 6e 34 3d 8d f1 8a 3c 0a c7 5c 3e 14 a4 ab bd
       0.04405051 0.016960884 0.21560302 -0.08380905
000300 0d d9 e3 3d d3 07 c1 bc bf 41 93 3a 4f b2 0b 3e
       0.111253835 -0.023563301 0.0011234804 0.13642238
000310 5a f9 10 be 22 eb 02 3e 9c 7a 0d 3e f1 29 05 3e
       -0.1415762 0.12785009 0.13816303 0.1300428
000320 50 bd 70 3d d7 03 0a be 1e 82 5a 3d fb 3c 05 be
       0.058774292 -0.13478027 0.053346746 -0.13011543
000330 bd 2b 24 bc b6 4e 98 3e 5b 86 ce bd 6f 23 41 be
       -0.010020194 0.29747552 -0.1008422 -0.18861173
000340 2d 72 e6 3d 1d de 2a be c1 2e 6e be 42 f6 03 be
       0.11252246 -0.16686292 -0.23260023 -0.12886909
000350 90 5f 2e 3e af 02 fe 3d 75 24 2e 3e 56 99 42 3e
       0.17028642 0.124028556 0.17006095 0.19003806
000360 bd 12 0d be 3e bf 50 bd 7f e0 6b bd 50 96 84 bd
       -0.1377668 -0.050963633 -0.057587143 -0.06473982
000370 9c ab ad 3e fa 5a 89 bd 9c 84 db 3e 1f 4b 2b be
       0.3391999 -0.067068055 0.4287461 -0.16727875
000380 be 46 4c bd 74 ed 70 3d b7 a5 19 3e 38 7f 0d bd
       -0.049872153 0.058820203 0.15004621 -0.034545153
000390 1b 5c df 3d 59 e5 4f 3e 65 cc e9 bc de a5 07 bb
       0.109062396 0.20302333 -0.028539846 -0.002069823
0003a0 2c 3b 54 3e e5 91 3f 3e f7 5b 27 be fa bd 82 bd
       0.20725697 0.18707998 -0.16343676 -0.063838914
0003b0 81 55 e1 3e c5 6f be 3c 71 44 79 be 49 38 71 3e
       0.44010547 0.023246655 -0.24342515 0.23556627
0003c0 aa ec a9 be 01 23 9e 3e e4 47 26 3e 28 95 1e 39
       -0.33188373 0.3088608 0.16238362 0.00015123619
0003d0 a6 bd 1e bc 63 91 78 3e 77 db cb bd 58 75 3b be
       -0.00968877 0.2427421 -0.09953969 -0.18306482
0003e0 d1 b1 b2 ba 8b 25 90 be 24 26 a5 3e db c1 d9 bd
       -0.0013633316 -0.28153643 0.3225566 -0.10632678
0003f0 80 fc 31 3e 0a 1f 27 bd 4a 8f 11 be d4 61 1c be
       0.17381477 -0.040801086 -0.14214817 -0.15271693

base.mlp.fc2.0.0.bias f4 [64]
000000 9c ac 11 3d e7 a3 c5 3c 29 d2 08 bd 3e 53 f5 bc
       0.035565004 0.024126006 -0.03340355 -0.02994692
000010 2a da 23 3c 9f 08 f8 3a 20 eb f0 3a e3 cd 80 bc
       0.010000745 0.0018923468 0.001838062 -0.015723174
000020 46 8d 19 bc 2b 5d aa 3c 4e c4 6f bc 98 c5 1c bc
       -0.009372061 0.02079638 -0.014634205 -0.009568594
000030 9c 8b 39 bc 02 87 c4 3b b3 86 e6 3c 0d b2 b4 3c
       -0.011324789 0.0059975395 0.028140401 0.022057557
000040 e9 83 29 bc 03 41 2c bb 64 32 42 3c 20 ea f9 bb
       -0.010346391 -0.0026283867 0.011852834 -0.007626787
000050 c8 0e 29 bd c6 d9 f6 bb ec 44 7e bc 9b b0 24 3c
       -0.041273862 -0.007533285 -0.015519362 0.010051872
000060 ae 2a 3a bd cb ff 38 3c c0 c0 ac bc 4c 6d bc bc
       -0.04545086 0.011291455 -0.021088004 -0.023001336
000070 b0 d2 c2 bc 6b a7 d7 3b 17 04 f6 bb 88 1f fb bc
       -0.023782104 0.006581237 -0.0075078118 -0.030654684
000080 8b d8 eb 3c 7e 4d 95 3c 02 18 8f 3b d1 88 10 bd
       0.02878978 0.018225428 0.0043668756 -0.03528673
000090 79 2f c7 3c 8d 44 96 bc fc 62 15 bd d6 73 f1 3c
       0.024314629 -0.018343234 -0.036471352 0.02947418
0000a0 35 1b bc bb 3c c3 ad 3b 72 06 b4 3b 0a 81 1c 3a
       -0.005740548 0.0053028148 0.0054939324 0.0005970156
0000b0 71 80 8b 3c 59 3d 0c bd 6e b7 1e bc 49 98 86 3a
       0.01702902 -0.034238193 -0.009687288 0.0010268773
0000c0 11 64 c7 3c b9 bf a9 39 30 4c 7c bd 4a a1 ed bc
       0.024339708 0.00032377036 -0.061596096 -0.029007573
0000d0 9d fe 24 3d 14 39 ba bc fa 00 c7 bb a1 ea c5 bc
       0.04028188 -0.022732295 -0.0060731145 -0.024159731
0000e0 76 55 22 bc 37 7e 97 3b 1d ac c2 bc e0 67 98 bc
       -0.009908071 0.0046232003 -0.02376371 -0.018604219
0000f0 5b e3 a0 3c ba 66 30 bd 52 4f f2 bb 2e ff 9d bb
       0.019639662 -0.043066718 -0.0073947096 -0.0048216796

base.mlp.fc2.0.2.weight f4 [64]
000000 ff 18 86 3f fc f0 84 3f 98 16 83 3f 5e 3e 7e 3f
       1.0476378 1.0386043 1.024127 0.99313915
000010 ed f3 81 3f 66 17 85 3f d5 09 87 3f 61 9d 7f 3f
       1.0152565 1.0397766 1.0549875 0.99849516
000020 34 a4 80 3f a2 00 83 3f b2 36 81 3f f7 1e 81 3f
       1.0050111 1.0234568 1.0094817 1.0087575
000030 ea 6b 82 3f 82 82 81 3f 7d 51 84 3f 52 85 82 3f
       1.0189183 1.0117953 1.0337368 1.0196936
000040 09 c1 85 3f 14 cb 84 3f cb c5 80 3f d5 5b 7d 3f
       1.0449535 1.0374475 1.0060362 0.9896825
000050 8c 8a 82 3f 05 bf 81 3f d9 18 7f 3f 35 3e 80 3f
       1.0198531 1.013642 0.9964729 1.0018984
000060 bb 74 81 3f 30 11 80 3f 65 fa 84 3f 74 ac 82 3f
       1.0113748 1.0005245 1.0388914 1.0208879
000070 a2 a7 80 3f ed 7d 82 3f 4e 2e 80 3f d4 54 83 3f
       1.0051157 1.019468 1.0014131 1.0260262
000080 b0 34 84 3f 5b c9 81 3f ba c5 81 3f b0 0f 85 3f
       1.0328579 1.0139574 1.0138466 1.0395412
000090 26 f3 84 3f a1 3a 82 3f 8d 0a 80 3f 08 b8 81 3f
       1.0386703 1.0174142 1.000322 1.0134287
0000a0 45 d0 83 3f 52 12 7f 3f bb 34 7e 3f 89 91 80 3f
       1.0297934 0.9963733 0.9929921 1.0044414
0000b0 f8 ce 83 3f a7 9c 81 3f d6 06 83 3f 95 76 81 3f
       1.0297537 1.0125932 1.0236461 1.0114313
0000c0 fe 71 85 3f c2 c9 81 3f 16 4f 81 3f d9 ba 84 3f
       1.0425413 1.0139697 1.010226 1.0369521
0000d0 6e f1 82 3f 24 ae 7f 3f 16 e6 80 3f f6 fb 7b 3f
       1.0229928 0.9987509 1.0070217 0.98431337
0000e0 1e ef 81 3f a8 02 84 3f f0 7e 82 3f 47 95 81 3f
       1.0151098 1.0313311 1.0194988 1.0123681
0000f0 a4 dd 80 3f 69 46 80 3f 0f ac 80 3f 18 51 86 3f
       1.0067639 1.0021487 1.0052508 1.0493498

base.mlp.fc2.0.2.bias f4 [64]
000000 c5 f5 4a bc 77 d8 9b 3c c5 5f a9 bb 79 25 5d bb
       -0.012387698 0.019024117 -0.0051688873 -0.003374426
000010 3c 38 d4 3c 0c a3 3c bc 5f 19 07 bd 3a e3 e7 3c
       0.02590572 -0.011513483 -0.03298318 0.028306592
000020 e1 76 04 3d e7 ce 50 3c 9e 11 b5 3c e6 d6 0a 3d
       0.032339934 0.012744642 0.022103127 0.03389635
000030 a0 02 59 bc e4 bf 06 3d 6a 6a 02 3c 7a 4f 64 3c
       -0.013245255 0.032897845 0.007959941 0.013934964
000040 36 70 b2 bc 47 64 df bc 99 61 f1 3c cb 89 f7 3c
       -0.021782022 -0.027269496 0.029465484 0.030217072
000050 bf 40 20 bd 2e 10 01 bd 93 41 76 bc f8 0a a8 ba
       -0.039124247 -0.03150957 -0.015030283 -0.0012820652
000060 94 02 72 bc 77 d0 68 3c b7 8a f4 bc f3 84 a2 bc
       -0.0147711225 0.014209858 -0.0298513 -0.019838786
000070 fb 93 33 bd 05 5d af bc 26 b0 86 3c 5f 8e 0b bd
       -0.043842297 -0.02140666 0.016441416 -0.034071323
000080 26 20 15 3d 5a e1 68 3c 72 10 cf 3c 4c f4 cd 3a
       0.036407612 0.014213884 0.025276396 0.0015713065
000090 a6 33 ea 3c 19 f6 d0 bc de f4 69 3c d0 5e 7a 3c
       0.028589081 -0.025507974 0.014279572 0.015281394
0000a0 6e 17 85 bc 99 8c 11 3d 7a 96 2e 3c 3e b1 ed 3c
       -0.016246524 0.035534475 0.010655994 0.02901518
0000b0 40 9c cc 3c 96 05 bc bc 8f a3 ce bc df c2 d1 3c
       0.02497685 -0.022951882 -0.025224475 0.025605617
0000c0 68 bb 01 bc ce 12 23 bc 1b e2 07 bd 9e 2c 0d bd
       -0.007918216 -0.009953214 -0.033174615 -0.03446638
0000d0 54 ff bd 3c 7f 10 e3 bc 4a 79 6b 3b af ac f4 ba
       0.023193039 -0.027717827 0.0035930448 -0.0018667186
0000e0 e9 60 c2 3b b8 5f ee 3b e8 c7 18 bd 9a a2 62 3c
       0.0059319627 0.007274594 -0.03730002 0.013832713
0000f0 a6 c6 f5 3c c9 39 5a bc 8b 1d fa 3c 6b b3 76 bc
       0.03000195 -0.013319441 0.030531665 -0.015057425

act.action_out.fc_mean.weight f4 [5, 64]
000000 80 c5 97 3c f5 0c bf 3b 84 03 24 3c a5 26 11 bc
       0.018526793 0.005830402 0.010010604 -0.008859311
000010 e4 6a 8c bb 45 30 13 3d 62 90 10 bd 81 bd 11 bc
       -0.0042852033 0.035934705 -0.035293944 -0.008895279
000020 4d 83 d3 3b ba 14 1c bd 00 49 09 3c 5d b5 0e bc
       0.0064548613 -0.038105704 0.008379221 -0.008710233
000030 8e 1e cc bb 59 81 ae bb 62 c3 a6 bc eb 0f 59 3c
       -0.0062292283 -0.005325478 -0.020356838 0.013248424
000040 cc 61 ef 3c 24 51 8a 3b a7 d6 17 3c 5d 97 8e 3c
       0.029221438 0.0042210985 0.009267486 0.01740616
000050 7b 8d e5 ba e9 6b b5 3c 53 79 b6 3c 14 1c 9f bc
       -0.0017513478 0.022146182 0.022274649 -0.019422568
000060 d1 48 5d ba 54 a4 a0 bc 81 e1 3d bb c9 ce f8 3c
       -0.00084413314 -0.019609608 -0.0028973522 0.03037204
000070 76 66 7e bc 72 65 39 bc 4c 5c eb bb a8 be 7b bc
       -0.015527358 -0.01131569 -0.0071826335 -0.01536528
000080 e5 c6 00 bd ba 8f e8 3b 57 f7 bc 3c 01 84 fc 3c
       -0.03143968 0.0070972117 0.02306716 0.030824663
000090 55 14 34 3d 1d fc c7 bc da d6 1e 3c 11 2f 75 bc
       0.043964703 -0.02441221 0.009694779 -0.014964835
0000a0 bc 8a 80 bc b2 cc 8f 3a 13 14 87 bb 21 b6 3a 3c
       -0.015691154 0.0010971038 -0.004122266 0.011395962
0000b0 b3 c2 65 3c be 3b 1c bb 48 bc 5d bc 15 55 77 bc
       0.014023471 -0.002383932 -0.013533659 -0.015095969
0000c0 91 fb 85 bc 83 ed de 3b a6 a5 5c bc 3f f7 f8 bc
       -0.016355308 0.006803216 -0.013467228 -0.030391334
0000d0 a6 14 f4 3c bb ce 24 bb fb 9e 92 3c 61 42 2d bc
       0.029795002 -0.0025147635 0.017898073 -0.010574908
0000e0 6b 78 00 bc 9f ba 19 bd d4 d9 2b bc bb 2f c7 3c
       -0.00784121 -0.03753149 -0.010488946 0.024314752
0000f0 8c 7d 42 bb 01 f5 6c 3c 72 f0 ec 3b ad cf 4a 3d
       -0.0029676883 0.01446271 0.0072308118 0.04951446
000100 ae 11 a3 bc f9 29 01 3b 6e 9c e3 bc c2 68 d7 3b
       -0.019905891 0.0019708856 -0.027784552 0.0065737674
000110 78 fd a7 3c 0e 25 53 3b 06 ba 21 bd e5 61 76 3c
       0.020506606 0.0032218131 -0.039484046 0.015037988
000120 28 10 d4 3c 48 b3 45 bc 03 69 e3 3c a3 0d 10 3d
       0.02588661 -0.01206667 0.027760034 0.035169255
000130 32 eb 2a 3b 3e 53 56 3c e8 70 1d 3b f5 4d 26 bc
       0.0026080129 0.01308137 0.0024023596 -0.010150422
000140 7b 23 bd bc 64 b7 8f bc 4a 78 a6 3c c6 5c a5 39
       -0.023088207 -0.017543502 0.02032103 0.00031540374
000150 72 12 b7 bc 52 74 4b bb 99 a0 a2 b8 1d c6 c7 3b
       -0.022347663 -0.0031044674 -7.7546756e-05 0.006096615
000160 b1 f4 aa 3c a9 1e c0 bc 4a c0 03 bd 3f 7c 8a 3c
       0.020868631 -0.02345212 -0.032165803 0.016904948
000170 2e 87 9f bc 0c b5 03 bc 4b a2 bd 3c 9c c3 71 bc
       -0.019473638 -0.00803877 0.023148676 -0.01475611
000180 ea b5 f6 3c a6 67 4f bc ae cc 98 3c 14 b1 a5 3c
       0.03011604 -0.012658989 0.018652286 0.020226039
000190 a9 1e b8 3c c4 95 10 bc 57 88 e1 3b aa b3 94 ba
       0.022475557 -0.008824769 0.006882708 -0.0011345048
0001a0 65 60 f1 bb ae 0f 44 3b 02 30 6d 3c a8 c5 6b 3c
       -0.0073662275 0.0029916572 0.014476778 0.014390387
0001b0 f7 34 42 3d b6 4f 0d bc ed e0 dd bc e7 80 d9 3c
       0.047413792 -0.008624962 -0.027084792 0.026550723
0001c0 97 49 c7 bc a3 3e 93 bc 70 61 65 bc cd 5a c5 bc
       -0.024327083 -0.017974203 -0.014000282 -0.024091149
0001d0 04 ec 3f 3c 89 e3 a3 bc cd 0b 92 3c 2f b1 3d 3c
       0.011713985 -0.020005958 0.017827893 0.011577888
0001e0 c6 76 ab bb 77 cb 2f bc 92 bb bf bc 68 f7 a9 3a
       -0.0052326648 -0.010729662 -0.02340487 0.001296741
0001f0 39 90 c9 bc fc b9 32 3b a9 f9 6c 3c 88 21 86 bc
       -0.024604904 0.00272715 0.0144638205 -0.01637341
000200 65 65 e0 bc 29 6c f7 bc ad ba 80 3a 50 56 52 b8
       -0.027392099 -0.030202942 0.0009821259 -5.0148286e-05
000210 6b 9f 4d 3c 42 b0 a6 3c e0 a7 9a 3c d1 24 cd bc
       0.012550215 0.020347718 0.018878877 -0.02504197
000220 3f d2 4c bc fc 7a dc 3b bb e6 d6 3b 29 53 ba 3b
       -0.012501298 0.006728528 0.006558267 0.005686183
000230 c9 53 26 3c a1 e6 11 bc 48 ca f5 bc b9 ce fb 3b
       0.010151812 -0.008905084 -0.030003682 0.0076845554
000240 cd 20 62 3c 12 09 5f 3d 80 2b 4c 3c de 44 97 3c
       0.013801766 0.05445201 0.012461543 0.018465456
000250 ce 96 aa 3c bb 43 9b 3b dd 4e a1 bb 40 f0 b0 3c
       0.020823862 0.0047382987 -0.0049227313 0.021598935
000260 be ec 78 3c e6 bb a7 bc 5d c4 0a bb bc 43 8a 3a
       0.0151931625 -0.02047534 -0.002117417 0.0010548751
000270 19 96 b2 bc eb b8 09 3b 22 b6 07 bc 55 c6 bb bb
       -0.021800088 0.002101476 -0.00828317 -0.00573043
000280 e5 9e d7 bb 15 7d b2 3a ec e4 bd bc 20 d5 ea bb
       -0.006580221 0.00136176 -0.023180448 -0.0071665198
000290 81 41 df bb d4 c9 4a bc 3b 91 e3 3c 70 cd 44 3c
       -0.0068132286 -0.012377221 0.027779212 0.012011871
0002a0 c6 69 21 3c 84 a0 92 bb 86 79 5a bc 22 1d aa 3c
       0.0098518785 -0.0044747014 -0.0133346375 0.020765845
0002b0 68 1b 78 3c 34 c3 e7 3c 51 fc 92 bc ec de 57 bc
       0.015143253 0.028291322 -0.01794258 -0.013175707
0002c0 05 a3 79 bc 27 60 ce bc 93 48 48 bc 71 a9 66 3c
       -0.015236621 -0.025192333 -0.012224334 0.014078484
0002d0 e7 db 14 bc 2b a3 e9 bb 39 49 0a bb 52 23 06 3b
       -0.009085632 -0.007130047 -0.0021100773 0.002046783
0002e0 b5 15 e7 3c c0 28 b0 3c 8b 42 43 3b 82 77 c0 bc
       0.028208593 0.021503806 0.0029794301 -0.023494486
0002f0 68 d5 69 bc f8 a9 36 bc c1 01 4d 3c da 01 e2 3c
       -0.014272071 -0.011148922 0.012512625 0.027588774
000300 2e 8e b8 ba f6 30 f7 3c 8b b7 50 bc a5 11 a3 bb
       -0.0014080459 0.030174714 -0.012739073 -0.0049764686
000310 b4 f7 10 bd 6b 08 5c 3d 40 41 5b bc 5f 67 be 3b
       -0.035392478 0.053718966 -0.013382256 0.0058106626
000320 27 11 98 bb d8 76 0e bc c5 ad 75 3b 15 90 e8 3a
       -0.0046407166 -0.008695327 0.0037487608 0.0017743135
000330 6b f3 cc bc f3 4d 9e bc ca 20 6e bc fa a4 0e bc
       -0.025018414 -0.019324278 -0.014534185 -0.008706326
000340 b8 26 bb 3b ae f7 3d bc 92 cb c7 3c 2d 16 99 3c
       0.0057114027 -0.011594696 0.024389062 0.018687332
000350 46 3e a5 3c 47 9b ff 3c 39 91 34 3c 45 78 99 3b
       0.020171296 0.031201972 0.011020952 0.0046835267
000360 58 0b c0 bb 89 4c d7 3a c6 79 da bc 77 4c b9 3c
       -0.0058607273 0.0016426007 -0.026669394 0.02261947
000370 ff 31 8a bb 80 39 2c 3c 54 96 59 3b de 1c 09 bd
       -0.004217386 0.010511756 0.0033201175 -0.033474796
000380 dc 01 3c ba 34 5c 67 3c 63 fb d0 39 e1 22 c6 3c
       -0.0007171908 0.014121104 0.0003986015 0.024186553
000390 52 ba 07 bd be 7a 8b 3c cb cf 1a 3b 95 8e b9 bc
       -0.033136673 0.017026301 0.002362239 -0.022650996
0003a0 64 6d 0f bd 02 52 a2 bb ad a0 14 3c 45 6b 92 bc
       -0.035016432 -0.0049536237 0.009071511 -0.017873416
0003b0 e6 ed 8e 3c 9c 7f b4 bc 89 bd af 3c 53 80 95 bc
       0.017447423 -0.022033505 0.021452682 -0.018249666
0003c0 5b b3 a4 bc 8d c1 8a bc 8e ab d6 bb 31 e0 a0 bc
       -0.020105055 -0.016937995 -0.0065512126 -0.019638153
0003d0 0e 12 c6 3c c5 79 a6 3c fb 9f 5c 3c 11 94 45 3c
       0.024178531 0.020321736 0.013465877 0.012059228
0003e0 3f 7e 61 3c a3 fa bd 3a 6b 69 5a bc ba 13 49 3b
       0.01376301 0.0014494251 -0.013330798 0.0030681924
0003f0 19 49 c1 bc 52 d0 48 3c 5b 72 50 3c f4 70 b8 bb
       -0.023594426 0.012256699 0.012722577 -0.0056286994

act.action_out.fc_mean.bias f4 [5]
000000 ef 50 b8 3c e1 10 f7 3c ce 0b f1 bb 51 b5 05 3c
       0.02249953 0.030159416 -0.0073561436 0.008160905
000010 43 ec 81 3b
       0.003964932

act.action_out.logstd._bias f4 [5, 1]
000000 64 3d cd bc 10 98 45 bc c8 8d ed bc ef 25 ac bc
       -0.025053687 -0.01206018 -0.02899827 -0.021014182
000010 dc bb df bc
       -0.027311258
