results/MyEnv/MyEnv/mappo/check/run7/models/critic_agent1.pt (torch, 48670 bytes, 15 tensors)

base.feature_norm.weight f4 [28]
000000 93 fa 7e 3f 2d d9 82 3f 97 43 81 3f 76 7e 7c 3f
       0.99601096 1.0222527 1.0098752 0.98630464
000010 9f 81 81 3f 74 a3 79 3f 66 07 78 3f 93 91 78 3f
       1.0117682 0.97515035 0.9688629 0.9709713
000020 89 e6 82 3f d1 fd 83 3f 66 6d 84 3f 13 36 7d 3f
       1.0226604 1.0311834 1.0345886 0.98910636
000030 4f e1 75 3f 61 b9 77 3f 91 24 7b 3f 04 d9 81 3f
       0.9604692 0.9676724 0.9810267 1.0144353
000040 df 7d 85 3f 7f 02 83 3f 6f 8a 83 3f dc 21 7d 3f
       1.0429038 1.0235137 1.0276622 0.9887979
000050 b4 4e 7a 3f ce 73 7a 3f 20 22 78 3f a9 4a 81 3f
       0.9777634 0.97832954 0.9692707 1.010091
000060 74 70 7f 3f 93 b2 7a 3f 31 1e 7a 3f e1 e5 83 3f
       0.99780965 0.9792873 0.9770232 1.0304528

base.feature_norm.bias f4 [28]
000000 13 b8 d8 3c b8 8d a7 3c 6e 70 c3 bc 8b 1d d9 3c
       0.02645496 0.020453319 -0.023857322 0.026503345
000010 2d 09 e2 3b 09 7b d9 3c 03 d2 a1 3c bf 9b c0 3c
       0.0068980665 0.026547926 0.019753462 0.023511766
000020 50 bc 06 3d b6 db 03 3c 60 4d 31 3d 06 98 3a bc
       0.032894433 0.008047989 0.04328668 -0.011388784
000030 df 09 f0 bc be ed 00 bd 41 c5 ba bc bb 20 91 bc
       -0.029301582 -0.03147673 -0.022799136 -0.017715802
000040 e0 e3 d8 bc f8 6e b2 bc 90 78 71 3c c2 c1 0b bd
       -0.026475847 -0.02178143 0.014738217 -0.03412033
000050 44 ed 03 3c dc 3d 03 bc bc ab c3 3c dc b9 15 bc
       0.008052174 -0.008010354 0.0238856 -0.009138551
000060 7e 71 28 bd 91 ec cd bc 0d 66 0d bd 06 f5 f8 3c
       -0.04112386 -0.025137218 -0.03452115 0.030390274

base.mlp.fc1.0.weight f4 [64, 28]
000000 9f ba 65 bd 0f ce 45 3d 9a 8d ba be d5 b1 89 3c
       -0.05608618 0.048292216 -0.36436158 0.01680843
000010 0f 6f 53 3d 6f 2b 5c be 98 d8 27 3d 19 57 3d 3e
       0.051619586 -0.21500944 0.040978044 0.18490256
000020 9e 07 b8 be 71 33 62 3e 79 a4 38 bd 04 5e c6 bd
       -0.3594331 0.22089936 -0.04507873 -0.09685901
000030 e2 fc 01 3e d4 a3 af bd 77 ca 7a 3e de 03 89 bd
       0.12694123 -0.085761696 0.24491297 -0.06690191
000040 77 95 eb bd cc 18 cc bd 9a 3b 7f 3e f2 42 b6 be
       -0.115031175 -0.09965667 0.2492508 -0.3559795
000050 bb c2 c8 bc 90 e7 29 be 09 37 af be 12 d3 0b 3e
       -0.024506917 -0.1659224 -0.34221676 0.13654736
000060 2d 9f 47 3d 36 02 8e bd 6b 92 aa 3d 9b ae 65 bd
       0.048735786 -0.069340155 0.08328708 -0.05607472
000070 a9 b8 13 be bf 05 d2 3a 0a e6 57 bd a3 df c1 3c
       -0.14425911 0.0016023441 -0.052709617 0.023666209
000080 87 51 c8 bc ed 94 9a 3e b2 b5 85 3d 03 9d de 3d
       -0.024452938 0.30191746 0.06528796 0.10869791
000090 39 bd a5 bd 35 d5 ee be 4b a3 26 3e 75 95 16 be
       -0.08092732 -0.4664704 0.16273229 -0.14705451
0000a0 f3 e5 7c bd 88 fc 57 be ae f4 c3 3d 8d 24 c1 bd
       -0.061742734 -0.21092427 0.09568153 -0.094308
0000b0 c4 4d a8 3e 35 a7 58 3c dc 25 94 3e 86 f5 17 3b
       0.3287183 0.013223459 0.28935134 0.0023187115
0000c0 a9 b5 1b be 0e 40 be 3d e1 39 bc bc 43 e9 91 bd
       -0.15206017 0.09289561 -0.022976818 -0.07124569
0000d0 7b b2 90 bc b6 87 0d bd 91 21 01 3e 5e 24 aa be
       -0.017663231 -0.034553252 0.12610461 -0.3323087
0000e0 55 29 64 3e d6 1f 39 be 2d a5 62 be d4 66 e2 bd
       0.22281392 -0.1807855 -0.22133322 -0.11054769
0000f0 0d d6 8c bd 01 1b 1c 3e 48 92 73 3e 90 0a 2a be
       -0.068767644 0.15244676 0.2378627 -0.16605592
000100 f1 31 60 be cf 76 84 3e d6 83 19 3e 55 34 6a be
       -0.21894051 0.25871894 0.14991698 -0.22871526
000110 8b 22 74 bd e9 d2 54 bd 70 d1 0b 3e 78 2f d7 3d
       -0.059603255 -0.051958952 0.13654113 0.10507101
000120 24 d9 f1 bd f6 10 e5 bd a4 0d 03 3e 88 79 58 bc
       -0.118089944 -0.11184876 0.12798172 -0.013212569
000130 d6 f9 11 3e 1c 1a d9 3d 53 00 81 3e 5c 74 40 3e
       0.14255461 0.10600683 0.2519556 0.18794388
000140 02 f2 0c 3e 57 ce b3 3d 07 c4 bb 3c d1 46 3b bd
       0.13764194 0.087795906 0.022920622 -0.045721833
000150 7e f3 c4 3d 55 25 ac 3e 92 45 80 be 4a c6 05 bd
       0.09616755 0.33622232 -0.25053078 -0.032659806
000160 e6 1d ea 3d 83 79 46 3e df 52 87 be de 59 06 3e
       0.11431484 0.1938229 -0.26430413 0.13120219
000170 20 6e 87 bd 74 2e 62 3e 3d 2f 33 be ac 86 28 3e
       -0.066128016 0.22088033 -0.17498489 0.16457623
000180 dc ff e3 bd b8 e9 21 be 33 f8 f9 3d 3f 93 44 3e
       -0.11132786 -0.15811813 0.12205543 0.19196795
000190 cb ca cd bd 34 65 91 bd a7 9f af bd 80 dd 85 bc
       -0.10048445 -0.07099381 -0.08575373 -0.016340971
0001a0 70 3f e0 bd fc ea 7d 3c a5 12 45 be 30 b0 89 bc
       -0.109496 0.015497919 -0.19245394 -0.016807646
0001b0 63 32 c9 bd d5 61 25 bd e2 fb 78 3e 66 da fa 3d
       -0.09824064 -0.040376503 0.24314836 0.122486874
0001c0 54 27 9f bd 48 1c a8 bd 4a 17 b0 be 0e 35 08 be
       -0.07771173 -0.08208519 -0.34392768 -0.13301489
0001d0 09 b6 20 3e ea 1a 55 3e b3 e9 2d 3c 25 00 42 3e
       0.15694441 0.20811048 0.0106148 0.18945368
0001e0 c4 85 a1 3e 9d 29 43 be 06 b4 99 3e 12 ab 4f 3d
       0.31547368 -0.19058843 0.3002016 0.050700255
0001f0 f9 55 dd 3d 81 d9 92 bd 51 7b e4 3b 79 2a 6b 3e
       0.108074136 -0.07170392 0.0069727083 0.22965421
000200 fc 72 90 bd a5 9a 1b 3e 68 43 8d 3e 1a b6 8e bd
       -0.070531815 0.15195711 0.2759049 -0.06968327
000210 d5 dd e3 3d eb 8d 56 bd 6b 31 25 3c d3 75 a8 3e
       0.111262955 -0.052381437 0.010082583 0.32902393
000220 1b 27 80 39 e3 10 c4 be 4c d1 41 be 44 b4 4b be
       0.00024443198 -0.38294134 -0.18927497 -0.19892985
000230 a7 f0 fa be 9f e6 2e bd 5f 00 b5 3b a4 13 4a bc
       -0.49011728 -0.042700406 0.005523726 -0.012333784
000240 1c d0 67 3e ad d7 09 3c 76 6e 01 3e 78 39 9b be
       0.22637981 0.0084132375 0.12639794 -0.30317283
000250 b4 23 ef 3d 48 fd 91 3d 19 66 39 be 1c 49 0c 3e
       0.11676732 0.07128388 -0.18105353 0.13699764
000260 d7 2e 70 3e b0 ae 10 be a6 0d 57 3e 85 68 40 be
       0.23455368 -0.14129138 0.210013 -0.18789871
000270 4c 79 7c 3e 4f df 82 bd 17 68 32 be 0c 63 67 be
       0.24655646 -0.06390249 -0.1742252 -0.22596377
000280 d8 b8 37 3e 59 00 81 be 55 3e 21 3e 57 87 03 3e
       0.17941606 -0.25195578 0.15746434 0.12844597
000290 c2 d9 6c 3e cb 0b 7c bd 38 d6 80 3d 72 a6 57 bd
       0.23129943 -0.061534684 0.06290859 -0.05264897
0002a0 7b ad ea 3c 86 84 85 be ae 13 84 bd 13 cd 5d 3e
       0.028647175 -0.2607767 -0.06449066 0.21660261
0002b0 82 40 9f 3e 65 65 96 be c4 d2 63 be 2d 16 99 bd
       0.31103903 -0.29374233 -0.2224837 -0.07474933
0002c0 d5 ea e6 3c 59 6a 95 3c 48 c6 83 3d 06 bd 7b be
       0.028188149 0.018239187 0.064343035 -0.24583825
0002d0 33 2c 9b bd 0f f2 02 3d fc 4c 96 bd d8 07 17 be
       -0.0757679 0.031969126 -0.07338902 -0.14749086
0002e0 1c 72 10 3e f1 19 16 3d 1c 63 86 3d b8 51 2d 3e
       0.1410603 0.036645833 0.06561872 0.16925704
0002f0 ac 62 05 3a 35 c5 8b bc 4e 08 a5 bd 83 c3 33 3e
       0.00050882506 -0.01706181 -0.080582246 0.1755505
000300 2b 04 e8 3d 1e 17 97 be 58 c0 b0 bd ad 01 80 3e
       0.1132892 -0.29509825 -0.08630437 0.2500128
000310 22 39 56 3c a0 c1 ff bd 7c 74 9b bd bc 61 5a bd
       0.013075145 -0.12488103 -0.07590577 -0.053315863
000320 3f 95 d2 3e 48 45 74 3e aa 0b 92 3b f4 dc cf bd
       0.4112949 0.23854554 0.004456957 -0.10149565
000330 76 b4 d7 bd c1 51 f6 bc 2b 6c c8 3d db f9 65 3e
       -0.10532467 -0.03006828 0.097862564 0.22458594
000340 4a c2 83 bd 17 77 08 bc 2e ce 94 3d 61 da 22 3e
       -0.06433542 -0.0083291745 0.07265888 0.15903617
000350 48 fc 55 be 16 db 54 be 43 a9 43 3e d1 b4 38 3e
       -0.20897019 -0.207867 0.19107537 0.18037726
000360 34 07 c9 3c 3d 3e 8e be 97 3e a0 be a3 90 ff bd
       0.024539568 -0.2778186 -0.31297752 -0.12478759
000370 3d 5a 33 3d 47 b5 18 3d 04 d2 a8 3d 83 1f 4b bd
       0.04378723 0.037282255 0.08243182 -0.0495906
000380 96 3b 76 3e 68 14 b1 3d 87 07 2f 3e 94 80 18 bd
       0.24046168 0.0864647 0.17092715 -0.037231997
000390 f0 80 a6 be 6e ba d5 3e e7 0a ff bc 99 d8 b0 bc
       -0.32520247 0.41743797 -0.031133128 -0.021587657
0003a0 6d c2 a6 3d 4c 2a 52 3d a5 84 ba 3e e8 50 bd 3e
       0.081425525 0.05130987 0.36429325 0.3697579
0003b0 98 c2 af 3b 75 c6 d8 3d 8a 56 4f 3e b0 84 3d bd
       0.0053637736 0.10584728 0.20247856 -0.04626912
0003c0 84 67 b3 3e d7 16 98 3e 48 d0 9d bd 5e 50 39 3e
       0.35039914 0.29704925 -0.07705742 0.18097064
0003d0 bf 1a 3a 3e e3 f7 07 3e 72 45 65 be c4 4c c7 bd
       0.18174265 0.13278155 -0.22389773 -0.09731439
0003e0 86 ce d8 bc 0c 20 59 be cc 53 15 be 4e 90 92 3d
       -0.026465666 -0.21203631 -0.14582747 0.0715643
0003f0 6d be ad 3a 04 28 91 3d 4c b2 50 3e 5a 1f 72 be
       0.0013255604 0.070877105 0.20380515 -0.23644772

base.mlp.fc1.0.bias f4 [64]
000000 3c 06 a6 3c 83 d8 02 3d 37 a8 14 3c 00 14 ba bc
       0.020266645 0.031944763 0.009073309 -0.022714615
000010 23 ba 91 3b 27 0c ee bc 31 ed 74 bc df 82 f9 bc
       0.004447238 -0.029058529 -0.014949129 -0.030457912
000020 49 d0 a9 3c c3 f4 d9 bc 75 8e ea bc 1f f7 04 bd
       0.0207292 -0.02660597 -0.028632382 -0.032462236
000030 bd e4 66 bc d0 62 e3 3c 15 dc f0 bc e2 78 e5 3c
       -0.014092621 0.027757078 -0.029401818 0.028011743
000040 5a df e0 bc a0 a2 d8 3c 11 a9 76 bc 67 ae 43 3c
       -0.027450252 0.026444733 -0.015054957 0.011943436
000050 33 3f 95 bc e0 f6 9a 3c 61 cb 33 3d e9 66 00 bd
       -0.018218612 0.018916547 0.04389513 -0.031348143
000060 0a 39 09 3d ec 6d 29 3c 4d 9e 05 3d c6 a6 80 bc
       0.033501662 0.010341149 0.03262167 -0.015704524
000070 6a 3c 1d 3c 50 1e 50 3d 18 80 19 3d ef 44 e2 3c
       0.009596923 0.05081016 0.037475675 0.02762076
000080 74 a8 e4 bc fa 03 5e bc 0e 71 25 3c e0 2f 96 bc
       -0.027912356 -0.013550753 0.010097755 -0.018333375
000090 8a 98 c7 3c 61 e1 bc bc ca 8b 00 3d 70 49 c4 3c
       0.024364728 -0.023056688 0.031383313 0.023960799
0000a0 1e e8 15 bd 76 65 f2 bc 00 19 eb 3c 7e cb b1 3c
       -0.036598317 -0.029589396 0.028698444 0.021703478
0000b0 84 bb 2e bb 97 d4 0a bd 06 dc 70 bc 5c fe e1 bc
       -0.002666206 -0.033894148 -0.014700895 -0.027587108
0000c0 56 03 fa 3c c7 f2 34 bd 60 91 92 3c 73 b0 0d 3d
       0.030519169 -0.044176843 0.017891586 0.034592103
0000d0 da 9a 32 bd 47 61 30 3d ed 6e 61 bc ed db db bc
       -0.04360471 0.04306152 -0.013759357 -0.026838267
0000e0 d4 97 e5 bc b8 84 43 3d 18 86 31 3d 70 03 f7 3c
       -0.028026499 0.047733992 0.043340772 0.030153006
0000f0 b5 c5 8c 3c 84 d1 03 3c a7 32 56 3c c9 d6 de bc
       0.017184118 0.008045558 0.0130736 -0.027202027

base.mlp.fc1.2.weight f4 [64]
000000 bb c2 76 3f 36 b9 7d 3f 9a df 78 3f cf 88 80 3f
       0.96390885 0.99110734 0.9721619 1.0041751
000010 a2 1c 7a 3f ca ff 83 3f 0b 0a 83 3f 9e 8a 7b 3f
       0.9769994 1.0312436 1.023744 0.9825839
000020 b5 30 77 3f d0 a8 83 3f 87 75 7c 3f 3f 11 7a 3f
       0.96558696 1.0285892 0.9861683 0.97682565
000030 25 a1 84 3f af 63 83 3f 23 61 7b 3f e3 ae 84 3f
       1.0361677 1.0264796 0.98195094 1.0365871
000040 1b d4 82 3f 92 18 82 3f 21 af 83 3f 01 eb 7b 3f
       1.022098 1.0163748 1.028782 0.9840546
000050 fd f0 7b 3f a6 3a 82 3f b4 b0 7c 3f 9b 8f 7e 3f
       0.98414594 1.0174148 0.9870713 0.99437875
000060 51 ec 7f 3f 3d 09 7b 3f 7f 2a 7b 3f e9 19 79 3f
       0.99969965 0.9806097 0.9811172 0.9730516
000070 52 e3 7a 3f f3 c8 7c 3f f8 59 81 3f 7b 89 77 3f
       0.98003113 0.98744124 1.0105581 0.96694154
000080 c4 1b 78 3f bc fb 7c 3f f5 6d 79 3f 04 5f 7c 3f
       0.96917367 0.98821616 0.97433406 0.9858248
000090 9e 0e 84 3f 27 3e 7c 3f c9 db 7a 3f 75 fa 78 3f
       1.0316961 0.98532337 0.97991616 0.9725717
0000a0 2f c2 83 3f 89 f7 7b 3f d7 ea 81 3f 0a c6 77 3f
       1.0293635 0.98424584 1.0149792 0.9678656
0000b0 11 34 7c 3f dc e2 82 3f 84 db 83 3f d5 21 80 3f
       0.9851695 1.0225482 1.0301366 1.0010325
0000c0 c0 a3 80 3f 62 58 84 3f 93 16 78 3f 4c 36 83 3f
       1.0049973 1.0339472 0.96909446 1.0250945
0000d0 d4 5b 84 3f df 77 84 3f 2a 74 83 3f 86 92 77 3f
       1.0340524 1.0349082 1.0269825 0.9670795
0000e0 dc a7 82 3f 48 a0 78 3f 15 2f 84 3f 12 b5 7f 3f
       1.0207477 0.9711957 1.0326868 0.99885666
0000f0 f8 7d 83 3f 35 8d 83 3f d8 29 7d 3f 4a bf 79 3f
       1.0272818 1.0277468 0.98891973 0.9755751

base.mlp.fc1.2.bias f4 [64]
000000 4a 81 ce 3c 36 94 f6 3c d7 0d d3 3b 30 5d 09 bd
       0.025208134 0.03009997 0.006440859 -0.033536136
000010 91 a4 c9 3c d9 52 08 bd 69 87 99 bc 8d c7 0b bd
       0.024614604 -0.033282135 -0.018741326 -0.034125853
000020 4a 1f 02 3d d3 05 c9 bc 56 67 f8 bc 7c 89 ea bc
       0.03176812 -0.02453891 -0.030322712 -0.02863001
000030 51 06 d3 bc da b8 1f 3d 46 fe ca bc 76 0a d9 3c
       -0.025759848 0.038994648 -0.02477945 0.026494246
000040 78 47 2f bd db 3a d1 3c 14 25 98 bc 7f c9 2a 3c
       -0.042792767 0.02554076 -0.018572368 0.010424017
000050 62 9b 6a bc 09 68 cd 3c 10 3d f7 3c b8 40 f1 bc
       -0.014319273 0.025074022 0.030180484 -0.029449806
000060 d0 48 ff 3c 89 09 c3 3b 77 80 48 3d 9d db 08 bc
       0.03116265 0.0059520644 0.04895064 -0.008353141
000070 f5 1f 8f 3c 40 96 27 3d 6d 4e 12 3d ec 2e 02 3d
       0.017471293 0.040914774 0.035719324 0.03178303
000080 3d 38 ea bc aa 73 8e bc 36 10 cc 3c 83 0c b5 bc
       -0.02859127 -0.017389137 0.024910074 -0.022100693
000090 7e ff 97 3c 9e 70 97 bc 46 21 d7 3c 19 97 f6 3c
       0.018554445 -0.018486317 0.026260983 0.030101346
0000a0 ab 13 15 bd 2a a6 01 bd 28 6d b5 3c 81 f6 ae 3c
       -0.03639571 -0.031652607 0.022146776 0.021357777
0000b0 9e 46 bf 3b 69 0b bd bc 15 99 c9 bc d4 f0 ef bc
       0.0058372756 -0.02307673 -0.024609128 -0.02928964
0000c0 32 87 db 3c 28 e1 3e bd 30 18 e3 3c 64 74 11 3d
       0.026797865 -0.046601444 0.027721494 0.03551139
0000d0 7c 6e 3e bd 57 eb 3a 3d 58 cf 80 bc 22 dc e0 bc
       -0.046492085 0.045634594 -0.01572387 -0.027448718
0000e0 30 f2 f5 bc 45 98 2c 3d 9e a3 bc bb 59 81 f1 3c
       -0.03002271 0.042137403 -0.0057568094 0.029480623
0000f0 a4 ec d9 bc a3 46 2a bd c5 09 28 3c 04 c3 d5 bc
       -0.026602097 -0.04157127 0.0102562355 -0.026093967

base.mlp.fc_h.0.weight f4 [64, 64]
000000 d3 e6 35 be 29 99 bc 3d 72 be 15 3d 39 07 bc 3e
       -0.17763834 0.092089005 0.036558576 0.3672426
000010 d8 76 04 3e 43 8f 16 3e 08 42 97 bd a9 da a7 bd
       0.1293596 0.14703088 -0.07385641 -0.08196003
000020 a1 07 b4 3e 25 63 71 be 43 72 80 3d 13 17 11 3e
       0.3516207 -0.23572977 0.06271794 0.14168958
000030 d2 ed 10 be 54 f2 bb bd 83 83 48 3e 71 e2 ae bc
       -0.14153221 -0.0917708 0.19581418 -0.02134821
000040 d4 8c 8c 3e 9b a7 87 bc 21 97 f8 3d 5a c4 ce bd
       0.27451193 -0.016559413 0.121382006 -0.10096045
000050 b7 e9 ec 3d 00 7b 4d 3d bc 5d cc 3e e4 26 ad 3d
       0.11568015 0.05016613 0.39915264 0.084546834
000060 cc 47 22 be 4e 93 04 3e 87 32 f6 bd 9f 18 0e be
       -0.15847701 0.12946817 -0.12021356 -0.1387658
000070 33 87 0a 3c 90 06 ec be de e1 d4 3d 9c 4c e2 bd
       0.008455086 -0.46098757 0.10394643 -0.11049768
000080 1e 0d 3a be 38 71 00 3e 18 60 74 be a5 f4 29 be
       -0.18169066 0.1254319 -0.23864782 -0.1659723
000090 14 70 37 3e 41 1a 06 3e ed fd 3f bd f7 fd 5b bd
       0.17913848 0.13095953 -0.046873022 -0.053708997
0000a0 2c e7 23 be 03 f6 9c 3d 0f 28 9f 3e f7 d0 bf 3e
       -0.16006154 0.076641105 0.3108525 0.37464115
0000b0 67 d1 b9 3d fe 0d eb 3d ea de 07 be 3e 24 be bd
       0.090731435 0.11477278 -0.13268629 -0.092842564
0000c0 0e 4d 40 be 73 9e bb 3d c0 e9 8b be 26 77 a8 bd
       -0.18779394 0.09161081 -0.27326775 -0.08225851
0000d0 44 f1 e0 bd ac 7b a8 3d f1 ff c1 bd 9e ed 13 3e
       -0.10983518 0.082267135 -0.09472645 0.14446113
0000e0 79 69 6f 3d d4 35 21 bb 22 a6 b3 be c0 0a 6c be
       0.058450196 -0.0024598734 -0.35087687 -0.23050976
0000f0 58 16 b4 3d ec 14 ff bd bc 02 1c be b0 00 92 3d
       0.08793324 -0.124551624 -0.15235418 0.071290374
000100 2f 94 d4 bc 73 ad 8d 3e a9 4a a5 3d 43 4d 98 3e
       -0.025949566 0.27671394 0.08070881 0.29746446
000110 b7 4a 4e be 01 01 0a 3c aa e7 7e 3e 4e 5e 96 3d
       -0.20145689 0.008423091 0.2489306 0.07342206
000120 a5 b2 30 be 62 27 0c be e2 14 20 3e 2c d8 b6 be
       -0.17255647 -0.13686898 0.15632966 -0.357118
000130 bd 0f e5 bd 4e a7 44 3e 5a 89 93 3d e3 f9 fd 3d
       -0.111846425 0.19204447 0.07203932 0.12401178
000140 69 09 3d 3e 07 26 ed bd 8e e2 83 bb f8 d1 a3 3d
       0.18460621 -0.11579519 -0.00402481 0.07999033
000150 ec 30 2f 3d f9 2c 39 3d 2d 82 b7 be ef 6c 6f be
       0.042771265 0.045208905 -0.35841504 -0.23381399
000160 61 d5 07 3d 83 ed 67 3d e0 58 df bd 27 b9 f8 bd
       0.03316248 0.056622993 -0.109056234 -0.1214469
000170 ba 0b 95 3d e5 34 d0 bd 4e f8 71 bd 1c 4b d1 bd
       0.07277627 -0.10166339 -0.059074692 -0.10219404
000180 96 e8 06 3e ad 45 18 3c 3d 3f ed 3c c3 5f 93 be
       0.13174662 0.009293956 0.028960818 -0.28783998
000190 f0 ed b8 be 09 cf 7d bd c1 6e a0 3e 4c 20 d4 3d
       -0.36119032 -0.061965022 0.313345 0.10357723
0001a0 ca 18 c3 bd 55 bd 91 3e 70 a9 0a 3e 07 90 aa 3c
       -0.095262125 0.2846476 0.13541198 0.02082063
0001b0 70 34 20 be 06 48 83 bd 98 df 7e bd 87 60 88 bd
       -0.15645003 -0.06410222 -0.062224954 -0.06659036
0001c0 92 41 9a bb a5 b8 a6 3e 4e 5c 5d 3e 31 e9 97 be
       -0.0047075236 0.32562748 0.21617243 -0.29670098
0001d0 63 c0 40 be a5 69 5e 3e 0c b2 c8 be e3 bc b5 be
       -0.1882339 0.21719988 -0.3919834 -0.35495672
0001e0 2a ae 06 bc 03 aa 12 be 61 13 9e 3d 57 80 63 bd
       -0.008220235 -0.14322667 0.0771854 -0.055542316
0001f0 9e 78 7a b8 a0 0d b1 3d 5d 2f 8e bc e4 b6 06 be
       -5.971698e-05 0.08645177 -0.017356569 -0.13155705
000200 e9 7b 69 3e d7 92 d9 bd bf a4 f6 bc d1 ae 62 bd
       0.22801174 -0.106237106 -0.030107854 -0.0553425
000210 e1 d4 1b be 8b 21 63 be b1 06 b7 bd 14 ac 29 3e
       -0.15217926 -0.22180764 -0.08936823 0.16569549
000220 c0 38 77 be e5 9a f0 be 67 37 32 3e fb 12 10 3d
       -0.24142742 -0.46993175 0.17403947 0.03517435
000230 76 14 57 3e 11 cb f6 3c bc ad d7 bd 86 a5 a5 3d
       0.21003899 0.030126126 -0.10531184 0.08088212
000240 89 55 09 be a9 3c 04 3e da a3 a9 be 2c 80 c7 bd
       -0.13411535 0.12913765 -0.3313282 -0.09741244
000250 5e 50 fa 3c 18 64 13 3e e9 5b 2f 3c 2f e7 b8 3d
       0.0305559 0.14393651 0.010703065 0.0902847
000260 28 b8 b1 3e 8c 37 3f 3e 79 ab b1 bd 3b cd f3 3c
       0.34710813 0.18673533 -0.08675284 0.029760947
000270 17 df dd 3c 8c f4 89 be 8c e3 18 bd b9 f3 1e 3e
       0.027083917 -0.26944387 -0.03732638 0.1552266
000280 74 f3 4a be 7c d7 0f 3e 73 b1 a3 be 44 a7 cc 3c
       -0.19819432 0.14047045 -0.3197132 0.024982102
000290 33 3b 8c be ef dc 76 3e 6d e8 6a 3e fc f5 25 3e
       -0.27388915 0.24107717 0.22940226 0.16207117
0002a0 e2 84 e1 bc 0e c3 1a be 12 3b 87 3e c6 b0 90 be
       -0.027529184 -0.1511347 0.26412255 -0.28259867
0002b0 6c 5d e0 bd b1 1b 21 3d 7f af f4 bd e4 43 d0 3d
       -0.10955319 0.03933305 -0.11947536 0.10169199
0002c0 71 ac b2 3d 57 55 bb be 7c f6 9e be 1e 74 c0 bd
       0.08724297 -0.36588547 -0.31047428 -0.093971476
0002d0 4e e9 ad bd 19 1e 43 3e 6c de 37 3e 7c 7b 1e bc
       -0.08491765 0.1905445 0.17955941 -0.009672996
0002e0 03 02 5f be 18 95 44 bd 16 28 2f bd 9e d0 8e bc
       -0.21778111 -0.04799375 -0.04276284 -0.01743346
0002f0 d6 bb 5b 3d e0 5e 3a bd 6d c9 18 3e 53 8f 0a 3e
       0.05364593 -0.045500636 0.14920588 0.13531236
000300 c4 7d 70 3e b8 d4 76 3e c2 b3 a0 3e 58 2b e1 3a
       0.23485476 0.24104583 0.31387144 0.0017179055
000310 50 f5 1b 3e 9d ef 03 3e 26 15 91 3e 32 30 11 3e
       0.15230298 0.12884374 0.28336447 0.14178541
000320 cd 53 55 3e 95 31 a6 3e 43 8e f1 bd e4 8e d0 3e
       0.20832749 0.32459703 -0.117947124 0.40734017
000330 d8 63 b6 bd 99 3b 05 3d a9 67 6d bc 5d a9 f0 bd
       -0.089057624 0.03252754 -0.014490047 -0.117510535
000340 38 ea 48 bc 03 71 64 3e 29 e2 87 be 87 a3 fd bc
       -0.012262873 0.22308736 -0.26539734 -0.030961765
000350 aa 79 91 3e 4e 4d 45 bd 4b 1c 40 3e d0 66 01 bf
       0.28413135 -0.048169427 0.18760793 -0.50547504
000360 b1 f4 4a 3e 0e 6f 22 3e c2 bc 99 3d 38 63 26 3e
       0.19819905 0.15862677 0.07506706 0.16248786
000370 72 37 97 3a 1b 4c 52 be b0 71 69 bd 9f 0d ab bd
       0.001153691 -0.20536844 -0.056993186 -0.083522074
000380 c5 1c 84 3e fc bb 21 be ce c9 ef 3d 7d 3f 3d 3d
       0.258032 -0.15794367 0.11708413 0.046203125
000390 42 65 82 3c d9 36 da 3a 47 7f dc bd 3f 03 d8 bc
       0.015917424 0.0016648426 -0.10766464 -0.026368735
0003a0 c7 06 8e 3d a9 c9 9c 3d df 77 4c 3e 28 00 98 be
       0.069348864 0.07655651 0.19967602 -0.2968762
0003b0 64 b3 0a 3e 26 5d a6 bd 2a cd 46 3e 83 e0 b7 bd
       0.13544995 -0.081232354 0.19414201 -0.08978369
0003c0 60 a3 b5 3c 79 83 fa bd d5 97 c2 bd d4 c5 28 3e
       0.02217263 -0.12232108 -0.09501616 0.16481715
0003d0 4f 7f d3 bd d3 04 8f 3e c6 89 03 be 4f b5 7f bd
       -0.103270166 0.27933368 -0.12845525 -0.06242877
0003e0 22 f8 2a be e1 62 f8 3d 5e ef 2e 3e 11 6d 55 be
       -0.16696218 0.12128235 0.17083499 -0.20842387
0003f0 74 4f a7 3d f4 a0 0a be b3 e3 15 3c 26 64 18 be
       0.08169451 -0.13537961 0.009148526 -0.14881954

base.mlp.fc_h.0.bias f4 [64]
000000 00 00 00 00 00 00 00 00 00 00 00 00 00 00 00 00
       0.0 0.0 0.0 0.0
000010 00 00 00 00 00 00 00 00 00 00 00 00 00 00 00 00
       0.0 0.0 0.0 0.0
000020 00 00 00 00 00 00 00 00 00 00 00 00 00 00 00 00
       0.0 0.0 0.0 0.0
000030 00 00 00 00 00 00 00 00 00 00 00 00 00 00 00 00
       0.0 0.0 0.0 0.0
000040 00 00 00 00 00 00 00 00 00 00 00 00 00 00 00 00
       0.0 0.0 0.0 0.0
000050 00 00 00 00 00 00 00 00 00 00 00 00 00 00 00 00
       0.0 0.0 0.0 0.0
000060 00 00 00 00 00 00 00 00 00 00 00 00 00 00 00 00
       0.0 0.0 0.0 0.0
000070 00 00 00 00 00 00 00 00 00 00 00 00 00 00 00 00
       0.0 0.0 0.0 0.0
000080 00 00 00 00 00 00 00 00 00 00 00 00 00 00 00 00
       0.0 0.0 0.0 0.0
000090 00 00 00 00 00 00 00 00 00 00 00 00 00 00 00 00
       0.0 0.0 0.0 0.0
0000a0 00 00 00 00 00 00 00 00 00 00 00 00 00 00 00 00
       0.0 0.0 0.0 0.0
0000b0 00 00 00 00 00 00 00 00 00 00 00 00 00 00 00 00
       0.0 0.0 0.0 0.0
0000c0 00 00 00 00 00 00 00 00 00 00 00 00 00 00 00 00
       0.0 0.0 0.0 0.0
0000d0 00 00 00 00 00 00 00 00 00 00 00 00 00 00 00 00
       0.0 0.0 0.0 0.0
0000e0 00 00 00 00 00 00 00 00 00 00 00 00 00 00 00 00
       0.0 0.0 0.0 0.0
0000f0 00 00 00 00 00 00 00 00 00 00 00 00 00 00 00 00
       0.0 0.0 0.0 0.0

base.mlp.fc_h.2.weight f4 [64]
000000 00 00 80 3f 00 00 80 3f 00 00 80 3f 00 00 80 3f
       1.0 1.0 1.0 1.0
000010 00 00 80 3f 00 00 80 3f 00 00 80 3f 00 00 80 3f
       1.0 1.0 1.0 1.0
000020 00 00 80 3f 00 00 80 3f 00 00 80 3f 00 00 80 3f
       1.0 1.0 1.0 1.0
000030 00 00 80 3f 00 00 80 3f 00 00 80 3f 00 00 80 3f
       1.0 1.0 1.0 1.0
000040 00 00 80 3f 00 00 80 3f 00 00 80 3f 00 00 80 3f
       1.0 1.0 1.0 1.0
000050 00 00 80 3f 00 00 80 3f 00 00 80 3f 00 00 80 3f
       1.0 1.0 1.0 1.0
000060 00 00 80 3f 00 00 80 3f 00 00 80 3f 00 00 80 3f
       1.0 1.0 1.0 1.0
000070 00 00 80 3f 00 00 80 3f 00 00 80 3f 00 00 80 3f
       1.0 1.0 1.0 1.0
000080 00 00 80 3f 00 00 80 3f 00 00 80 3f 00 00 80 3f
       1.0 1.0 1.0 1.0
000090 00 00 80 3f 00 00 80 3f 00 00 80 3f 00 00 80 3f
       1.0 1.0 1.0 1.0
0000a0 00 00 80 3f 00 00 80 3f 00 00 80 3f 00 00 80 3f
       1.0 1.0 1.0 1.0
0000b0 00 00 80 3f 00 00 80 3f 00 00 80 3f 00 00 80 3f
       1.0 1.0 1.0 1.0
0000c0 00 00 80 3f 00 00 80 3f 00 00 80 3f 00 00 80 3f
       1.0 1.0 1.0 1.0
0000d0 00 00 80 3f 00 00 80 3f 00 00 80 3f 00 00 80 3f
       1.0 1.0 1.0 1.0
0000e0 00 00 80 3f 00 00 80 3f 00 00 80 3f 00 00 80 3f
       1.0 1.0 1.0 1.0
0000f0 00 00 80 3f 00 00 80 3f 00 00 80 3f 00 00 80 3f
       1.0 1.0 1.0 1.0

base.mlp.fc_h.2.bias f4 [64]
000000 00 00 00 00 00 00 00 00 00 00 00 00 00 00 00 00
       0.0 0.0 0.0 0.0
000010 00 00 00 00 00 00 00 00 00 00 00 00 00 00 00 00
       0.0 0.0 0.0 0.0
000020 00 00 00 00 00 00 00 00 00 00 00 00 00 00 00 00
       0.0 0.0 0.0 0.0
000030 00 00 00 00 00 00 00 00 00 00 00 00 00 00 00 00
       0.0 0.0 0.0 0.0
000040 00 00 00 00 00 00 00 00 00 00 00 00 00 00 00 00
       0.0 0.0 0.0 0.0
000050 00 00 00 00 00 00 00 00 00 00 00 00 00 00 00 00
       0.0 0.0 0.0 0.0
000060 00 00 00 00 00 00 00 00 00 00 00 00 00 00 00 00
       0.0 0.0 0.0 0.0
000070 00 00 00 00 00 00 00 00 00 00 00 00 00 00 00 00
       0.0 0.0 0.0 0.0
000080 00 00 00 00 00 00 00 00 00 00 00 00 00 00 00 00
       0.0 0.0 0.0 0.0
000090 00 00 00 00 00 00 00 00 00 00 00 00 00 00 00 00
       0.0 0.0 0.0 0.0
0000a0 00 00 00 00 00 00 00 00 00 00 00 00 00 00 00 00
       0.0 0.0 0.0 0.0
0000b0 00 00 00 00 00 00 00 00 00 00 00 00 00 00 00 00
       0.0 0.0 0.0 0.0
0000c0 00 00 00 00 00 00 00 00 00 00 00 00 00 00 00 00
       0.0 0.0 0.0 0.0
0000d0 00 00 00 00 00 00 00 00 00 00 00 00 00 00 00 00
       0.0 0.0 0.0 0.0
0000e0 00 00 00 00 00 00 00 00 00 00 00 00 00 00 00 00
       0.0 0.0 0.0 0.0
0000f0 00 00 00 00 00 00 00 00 00 00 00 00 00 00 00 00
       0.0 0.0 0.0 0.0

base.mlp.fc2.0.0.weight f4 [64, 64]
000000 77 07 1c be 96 7c 9a 3d 5e 49 79 3d db 3e b4 3e
       -0.15237223 0.07543294 0.060860984 0.35204205
000010 6c 49 d5 3d 2b 01 0d 3e 2e 4a 3b bd 21 de 8b bd
       0.10414395 0.13769977 -0.04572504 -0.06829477
000020 53 d3 aa 3e 0f 68 5d be fb 77 39 3d ce da f5 3d
       0.33364353 -0.21621726 0.045280438 0.12004624
000030 e7 11 ed bd 93 0c ba bd 6e 1a 39 3e 3f b9 ec bc
       -0.1157568 -0.090844296 0.18076488 -0.028896926
000040 03 55 83 3e c0 aa 15 bd 9c 5a c8 3d 69 d4 98 bd
       0.25650796 -0.036539793 0.09782907 -0.07462389
000050 71 ac c1 3d be 97 7e 3d fa b3 c7 3e 74 43 89 3d
       0.09456719 0.06215643 0.390045 0.06702319
000060 3b ce 06 be 17 db 06 3e 38 6a fb bd c8 88 19 be
       -0.13164608 0.13169514 -0.12276119 -0.14993584
000070 c0 52 29 3d ae 64 db be a1 dc 95 3d 39 14 b9 bd
       0.041338682 -0.4285025 0.07317472 -0.0903706
000080 8c 8f 27 be 3e b9 c9 3d e8 6e 5c be 47 a0 20 be
       -0.16363353 0.09849785 -0.21526682 -0.15686141
000090 41 f1 24 3e 42 59 cd 3d e3 b4 98 bc 0c 25 8a bd
       0.16107656 0.1002679 -0.018640941 -0.067453474
0000a0 9b 2d 0b be 58 d1 89 3d 2d e9 93 3e 43 ba c4 3e
       -0.13591616 0.06729382 0.28888837 0.38423356
0000b0 28 3c 8c 3d a9 62 db 3d 7c 4a d8 bd af 7c 9b bd
       0.068474114 0.10712177 -0.10561082 -0.07592141
0000c0 af fb 19 be 19 ee b7 3d 22 fa 77 be 8e 0b ce bd
       -0.15037416 0.089809604 -0.24216512 -0.10060798
0000d0 d2 a6 a8 bd c0 0c b5 3d 7c 2d b9 bd d6 8e db 3d
       -0.082349434 0.088403225 -0.090418786 0.10720603
0000e0 0c 1c 68 3d d6 3a e3 bc e9 1d a5 be bd d5 4f be
       0.056667373 -0.027738016 -0.32249382 -0.20296378
0000f0 9d 2b a5 3d 25 91 ec bd 50 9f 00 be 38 e1 40 3d
       0.08064959 -0.115511216 -0.12560773 0.047089785
000100 9a 30 6a bd 89 c8 92 3e f0 89 5f 3d df 7f 95 3e
       -0.057175256 0.2866862 0.054574907 0.2919912
000110 44 71 6c be 89 aa ca 3c bc 1f 90 3e 0c cb 8c 3d
       -0.23090082 0.02473952 0.2814921 0.068746656
000120 79 27 4b be 40 d6 17 be cf 0c 2e 3e 53 92 b9 be
       -0.19839276 -0.14827824 0.16997074 -0.3624445
000130 2e 4b f3 bd 33 e3 5d 3e 74 a0 70 3d e8 da 1c 3e
       -0.11879574 0.21668701 0.05874677 0.15317881
000140 19 ee 4b 3e 40 2f 12 be 62 56 69 bc 2f d7 5c 3d
       0.19915046 -0.14275837 -0.014241787 0.053916153
000150 6f 6c 5f 3d eb 01 5c 3d 62 b9 c7 be 16 74 79 be
       0.05454677 0.053712767 -0.39008623 -0.2436069
000160 f4 f5 54 3d 48 99 8c 3d c0 69 b6 bd 3c 4f e4 bd
       0.05199237 0.068651736 -0.08906889 -0.11147925
000170 65 1b 32 3d 50 8b b7 bd 18 41 19 bd e2 bb b7 bd
       0.043483157 -0.089621186 -0.037415594 -0.08971383
000180 85 ae 23 3e 6f 0c 02 3d b3 d1 99 3b 55 a0 98 be
       0.15984543 0.03175014 0.0046941875 -0.29809824
000190 81 0c c7 be 0c 5c 1b bd 9a f5 a7 3e cc de f6 3d
       -0.38876727 -0.03792958 0.32804567 0.12054214
0001a0 5c 2b d0 bd 65 91 9d 3e 5f 63 1d 3e e9 cc 98 bb
       -0.1016452 0.3077499 0.15369938 -0.004663099
0001b0 55 8a 11 be 34 25 8b bd f8 09 a4 bd a7 eb 3f bd
       -0.14212926 -0.06794205 -0.08009714 -0.046855595
0001c0 7f 68 b3 bc 49 48 98 3e f0 a8 4f 3e 14 a1 ad be
       -0.021900414 0.2974265 0.20279288 -0.33911955
0001d0 40 54 5e be 0d 1e 7e 3e 5a 65 d1 be 8c 2f bc be
       -0.21711826 0.24816151 -0.40897638 -0.36755025
0001e0 bc 55 06 bc a7 26 22 be 8d ac ce 3d 83 a9 9c bd
       -0.008199152 -0.15835057 0.10091505 -0.07649519
0001f0 77 92 90 bc d6 fe 89 3d b1 90 49 bd ac bb 0a be
       -0.017647965 0.06738059 -0.049210254 -0.13548154
000200 5c 49 80 3e 58 cf a6 bd 0a bd 0a bc ae 2d 62 bd
       0.2505597 -0.081450164 -0.008467922 -0.055219345
000210 46 84 06 be 63 e1 6a be 33 2c a6 bd 36 cf 29 3e
       -0.13136396 -0.2293754 -0.08113899 0.16582951
000220 8a 1c 5d be 42 2f ed be 94 93 11 3e f1 c1 50 3c
       -0.21592918 -0.46325117 0.14216453 0.012741552
000230 11 e2 45 3e ca 9b 2a 3c 20 31 da bd 2f 7a 99 3d
       0.19324519 0.01041312 -0.10653901 0.07494008
000240 5e 5c f8 bd 5b eb 00 3e 82 dd a6 be f9 be 9b bd
       -0.12126993 0.12589781 -0.32590872 -0.076047845
000250 6d 51 22 3c 80 0f 27 3e 41 6d 78 3c d6 38 ce 3d
       0.009907109 0.16314507 0.015162767 0.10069434
000260 21 f4 af 3e cc f9 4b 3e 63 34 d8 bd 94 7d d6 3b
       0.34365943 0.19919509 -0.10556867 0.006545732
000270 31 c2 95 3d 61 d0 7e be 82 eb 52 bd 0c 74 1c 3e
       0.0731243 -0.24884178 -0.05149413 0.15278643
000280 59 53 53 be 85 4c 0b 3e 22 5f 9c be 68 39 14 3d
       -0.20637263 0.13603409 -0.3054133 0.03618756
000290 c0 a3 8a be 1c 7d 46 3e 0b 2b 60 3e 8d 67 23 3e
       -0.27078056 0.19383663 0.2189142 0.1595747
0002a0 34 96 13 bd f0 c5 34 be 4e 27 82 3e 01 08 83 be
       -0.036031917 -0.17653632 0.25420612 -0.25592044
0002b0 82 cc ff bd 05 13 1b 3d be 1c e8 bd 54 1f 96 3d
       -0.12490179 0.037859935 -0.11333607 0.07330194
0002c0 65 95 af 3d 77 b6 b2 be f7 21 91 be c4 26 b6 bd
       0.085734166 -0.34904835 -0.28346226 -0.08894113
0002d0 0a 08 99 bd cf df 38 3e 90 3a 37 3e 17 d6 97 bc
       -0.074722365 0.18054126 0.17893434 -0.018534703
0002e0 d7 e4 66 be 94 55 9e bd 92 4d 66 bd 55 1d 7a bc
       -0.22548233 -0.077311665 -0.05622632 -0.015265782
0002f0 a7 fd 52 3d eb 56 40 bd 5b c3 26 3e 04 da f4 3d
       0.051511433 -0.04695789 0.1628546 0.11955646
000300 6c e7 6b 3e 3e 8b 7b 3e 7a 19 91 3e bd be 53 bc
       0.23037499 0.24564835 0.2833975 -0.0129238935
000310 84 a4 28 3e e2 fa 16 3e 9c bf 9e 3e 31 01 29 3e
       0.16469008 0.14744142 0.3100556 0.1650436
000320 42 71 41 3e f2 0e af 3e 0c 58 da bd 86 f0 df 3e
       0.1889086 0.3419109 -0.10661325 0.43738192
000330 b5 41 e2 bd cb e5 21 3d f1 54 b9 b9 38 c6 17 be
       -0.11047689 0.03952579 -0.00035349236 -0.14821708
000340 2a ef 3c bd 22 15 58 3e e6 d4 98 be 01 e1 9d bd
       -0.046126522 0.21101812 -0.2984993 -0.07708932
000350 2b e0 92 3e b4 ac b8 bd af 37 4e 3e 90 0c 0b bf
       0.28686652 -0.090173155 0.20138429 -0.54316044
000360 00 df 5f 3e 5d 84 28 3e be f6 5f 3d 1e 8d 46 3e
       0.21862411 0.16456743 0.05467867 0.1938977
000370 ad 81 00 bd 50 4f 63 be 49 3d 5e bd fe 9f 5d bd
       -0.03137367 -0.22198224 -0.054257665 -0.05410766
000380 64 c3 8e 3e b9 52 20 be 7e 9a e0 3d f0 e4 2a 3d
       0.27883446 -0.15656556 0.10966967 0.041722238
000390 97 e1 04 b9 93 b6 f1 3b c7 1e 08 be e3 ce 7b 3c
       -0.0001267254 0.007376501 -0.1329299 0.01536915
0003a0 f4 6d 81 3d 4b 2c c8 3d 48 98 35 3e 83 1c a8 be
       0.063198 0.09774073 0.17733872 -0.32834253
0003b0 6c da 24 3e 79 63 56 bd 5b 14 3c 3e 01 81 d1 bd
       0.16098946 -0.05234096 0.1836714 -0.10229684
0003c0 54 8a fc 3b 43 39 22 be c9 65 fe bd 58 98 44 3e
       0.0077069197 -0.15842156 -0.12421758 0.1919874
0003d0 df 6b 09 be e7 7f a5 3e f6 cc 24 be 06 f3 65 bd
       -0.13420056 0.32324144 -0.16093811 -0.05613997
0003e0 8b da 4c be c4 49 01 3e 01 9b 53 3e 9b cd 64 be
       -0.20005243 0.12625796 0.20664598 -0.22344057
0003f0 c1 ea e1 3d f1 73 35 be 7d 49 7a bc d4 ad 2d be
       0.11031104 -0.1772001 -0.01527631 -0.16960841

base.mlp.fc2.0.0.bias f4 [64]
000000 b4 59 f2 bc 02 aa 8b 3c ec 03 34 bc 65 2a 28 3d
       -0.02958379 0.01704884 -0.010987263 0.041056056
000010 8e 0c 3d 3d 67 27 9e bc 7a 71 01 bd 1b d4 f6 3c
       0.04615455 -0.019305898 -0.03160236 0.030130437
000020 e8 ea f1 3c f5 12 de bc a8 15 de bc a7 b4 e4 bc
       0.029530957 -0.027108649 -0.027109936 -0.027918173
000030 05 62 9c bc 16 f8 ca bc 33 de 19 3d 42 76 e8 3c
       -0.019089708 -0.0247765 0.03756542 0.028376702
000040 10 17 09 3d 10 f6 05 bd f6 19 81 bc cc 0a 0b 3c
       0.03346926 -0.032705367 -0.01575945 0.008486461
000050 2c 34 15 3d 88 c1 13 3d 80 08 fa 3c 89 63 ec 3c
       0.036426708 0.036073238 0.030521631 0.028856056
000060 30 0f 06 3d fc 62 f1 3c 0b 8b 92 3c 4e b0 e7 bc
       0.032729328 0.029466145 0.017888566 -0.02828231
000070 86 e3 ef bc ea 66 ee bc 18 8e dc 3c 2b cb f0 bc
       -0.029283296 -0.029101808 0.026923224 -0.029393753
000080 90 93 fd bc b4 ce 92 bc b1 a1 d7 3c 74 26 ff 3c
       -0.030954152 -0.01792083 0.026322218 0.031146266
000090 0d 05 81 bc 6c 14 dc 3c 1c e9 03 3d ab 14 21 3d
       -0.015749479 0.026865207 0.032204732 0.03932635
0000a0 ec b2 e6 3c 2d bb fa 3c e8 59 bc bc cd 78 97 bc
       0.028161488 0.03060683 -0.02299209 -0.01849022
0000b0 8a 82 02 bd 1e fc 9b 3c d1 b4 a5 3c 63 3b 2d 3d
       -0.031862773 0.019041117 0.020227822 0.042292964
0000c0 3d 52 b6 bc 8f e7 98 bc b4 c4 07 bd 56 98 92 3c
       -0.022256011 -0.018665103 -0.033146575 0.017894905
0000d0 8d e8 93 bc 17 73 ff bc 86 18 fe 3c 6e a6 00 bd
       -0.018055225 -0.031182809 0.031017553 -0.03140872
0000e0 ad ba 8b 3c bb 92 0c bd 2a 16 be bc e5 6a 7f bc
       0.017056787 -0.03431962 -0.023203928 -0.0155894505
0000f0 1c d6 0c 3d aa a1 d4 bc cd 87 03 3d bd 91 0a 3d
       0.034383878 -0.025955994 0.03211193 0.033830393

base.mlp.fc2.0.2.weight f4 [64]
000000 0a 8e 7a 3f a0 fb 76 3f a6 88 7a 3f 18 91 7d 3f
       0.97872984 0.964777 0.9786476 0.9904952
000010 7b 9c 7b 3f 8b 85 7c 3f 2c 80 7e 3f ed f6 7c 3f
       0.98285645 0.9864127 0.99414325 0.9881428
000020 dd e7 7b 3f 21 0c 82 3f f4 43 81 3f 52 cb 7c 3f
       0.9840067 1.0159951 1.0098863 0.9874774
000030 ba b6 7f 3f 89 43 79 3f ec ee 79 3f e4 bb 7c 3f
       0.99888194 0.97368675 0.9763019 0.987242
000040 0f ff 82 3f 80 56 81 3f c7 5a 7a 3f 8c 39 7b 3f
       1.0234088 1.0104523 0.97794765 0.98134685
000050 9d 1a 84 3f 10 88 81 3f 30 56 7d 3f 50 b9 77 3f
       1.0320622 1.0119648 0.98959637 0.9676714
000060 8c a4 81 3f 01 bf 79 3f e4 9f 78 3f 79 8c 7a 3f
       1.0128341 0.97557074 0.97118974 0.97870594
000070 c8 c5 7b 3f 28 b3 78 3f 81 d6 78 3f 5b 67 83 3f
       0.98348665 0.9714837 0.97202307 1.0265917
000080 07 8e 80 3f a7 f3 7b 3f b8 0f 76 3f 5b 72 7b 3f
       1.0043343 0.9841866 0.96117735 0.9822137
000090 b8 4d 7c 3f 58 2c 7e 3f 61 08 7e 3f c1 e5 7d 3f
       0.9855609 0.99286413 0.99231535 0.991787
0000a0 c6 c3 78 3f 34 e5 77 3f 11 18 81 3f 34 2d 7c 3f
       0.97173727 0.9683411 1.008547 0.98506474
0000b0 be 0b 81 3f aa 08 79 3f 79 e2 79 3f b6 19 7e 3f
       1.0081708 0.97278845 0.97611195 0.9925798
0000c0 fb d2 81 3f 83 7d 82 3f f1 3d 7f 3f c4 6a 7b 3f
       1.0142511 1.0194553 0.9970389 0.98209786
0000d0 6d 5e 7e 3f 4c 95 7c 3f 8b b9 82 3f 2e 90 7b 3f
       0.9936283 0.9866531 1.0212873 0.98266876
0000e0 c2 50 76 3f d0 c0 80 3f cd f7 80 3f 8b 07 7e 3f
       0.96216977 1.0058842 1.0075623 0.9923026
0000f0 0b a6 80 3f c6 cd 7a 3f 13 fe 7c 3f f3 c3 82 3f
       1.0050672 0.97970235 0.98825186 1.0216049

base.mlp.fc2.0.2.bias f4 [64]
000000 6f 6b eb bc 0f 11 e4 3c 00 8d d5 bc ef cc 81 bc
       -0.028737752 0.027840165 -0.02606821 -0.01584479
000010 4d 32 b7 bc 33 be ea bc 9c 82 ee bc 08 78 e1 3c
       -0.022362852 -0.028655147 -0.029115014 0.027523056
000020 e3 c5 ec 3c 1c 3b fc bc fe 17 ff bc 9e 13 ee bc
       0.028902953 -0.030789904 -0.03113937 -0.029062089
000030 38 74 ef bc e8 81 e5 bc 5d 52 d0 bc de 18 68 3c
       -0.029230222 -0.028016046 -0.025429899 0.014166085
000040 83 c6 02 3d 3b 02 f3 bc 7a ce e0 bc 86 44 bd bc
       0.031927597 -0.02966415 -0.027442206 -0.023103964
000050 e1 47 19 3d 1e 77 1e 3c 10 13 ed 3c 7c 32 e5 3c
       0.037422065 0.009671954 0.028939754 0.027978174
000060 7d f7 00 3d ba 47 e4 3c 1b 1f e6 3c eb 2a ea bc
       0.031486023 0.027866233 0.028091004 -0.028584918
000070 53 47 ec bc c5 35 e6 bc d1 ea e9 3c 47 cc fb bc
       -0.028842604 -0.028101811 0.028554352 -0.030737055
000080 d0 88 f3 bc f4 f5 e6 bc 3d 7d e5 3c a7 a9 e8 3c
       -0.029728323 -0.028193451 0.02801382 0.028401209
000090 99 70 e5 bc 35 64 e1 3c 8a 15 ee 3c aa 29 95 bc
       -0.028007792 0.027513603 0.029063005 -0.018208344
0000a0 6d 42 e9 3c 24 ac e9 3c 70 60 fc bc 4b c4 ea bc
       0.028474057 0.028524466 -0.030807704 -0.028658053
0000b0 9e ba f5 bc a8 1a e5 3c 2b c7 e0 3c 0b 74 e6 bb
       -0.029996213 0.027966812 0.02743872 -0.0070328764
0000c0 f2 1f f9 bc 26 0f f7 bc 48 05 f3 bc 6d 62 ea 3c
       -0.03041074 -0.03015859 -0.029665604 0.028611386
0000d0 9a 79 eb bc ef 23 ee bc 26 15 03 3d 45 5c ed bc
       -0.028744508 -0.029069869 0.03200259 -0.028974662
0000e0 00 20 e7 3c 79 c0 f6 bc 7e fc f3 bc f1 a7 e1 bc
       0.028213501 -0.030121075 -0.029783484 -0.027545901
0000f0 3d f6 09 3d 88 75 e6 bc ce 04 ab bc 9b 06 04 3d
       0.033682097 -0.028132215 -0.020876314 0.032232862

v_out.weight f4 [1, 64]
000000 8c 7e 39 be f7 e3 0e 3e 5f 76 02 bd 49 75 6a 3c
       -0.1811468 0.13954149 -0.03185117 0.0143101895
000010 4f 5c 91 bb e9 20 49 bd 56 8d 36 be 64 b7 25 3d
       -0.004436053 -0.04910365 -0.17827353 0.040458098
000020 9c 29 0f 3e 7d 35 01 be 47 e3 ad bd ac f2 41 be
       0.13980716 -0.1261806 -0.08490615 -0.18940228
000030 14 95 94 bd 41 b9 fd bd fa ae 17 bc 03 c0 08 3c
       -0.07254997 -0.1238885 -0.009258026 0.00834656
000040 0d e0 bb 3d 29 fe 81 be c6 26 a5 bd 28 6f 2e bc
       0.09173594 -0.2538922 -0.08064036 -0.010646619
000050 b4 ed 23 3d ab ad 93 3c 8e d9 8d 3d 80 c7 e8 3d
       0.040021613 0.018027147 0.06926261 0.113661766
000060 05 6a 8d 3d 23 28 ce 3d 8c 9c 0c 3e 06 47 22 be
       0.06904987 0.10066249 0.13731593 -0.15847406
000070 ca 78 34 be 23 9b d7 bd 33 e8 2d 3e 69 7f 25 be
       -0.17624202 -0.10527637 0.16983108 -0.16161884
000080 32 b3 53 be f1 36 5f bd 5d f8 1c 3e a9 ab d6 3d
       -0.20673826 -0.054495756 0.15329118 0.1048196
000090 38 0b 74 bd 00 b9 22 3d af d9 62 3d ee 0f 75 3b
       -0.05958101 0.03972721 0.05538338 0.0037393528
0000a0 5b f3 1d 3e d1 dc 2c 3e 89 c8 91 bd dc fe b2 bd
       0.15424864 0.1688111 -0.07118327 -0.08740017
0000b0 c3 43 ff bd d8 6c f1 3d b1 53 8f 3d e2 de 85 3c
       -0.124640964 0.117883384 0.06998385 0.01634163
0000c0 7c 29 98 bd a6 fa ed bd 8e 8c 0c be 61 8b ba 3d
       -0.074297875 -0.11620073 -0.13725492 0.09108616
0000d0 c9 35 07 be 41 22 67 be 16 12 51 3d e1 26 5b be
       -0.13204111 -0.2257166 0.05104264 -0.2140155
0000e0 29 59 0b 3e d3 fb 16 be db 64 10 be 9e c4 6e bd
       0.1360823 -0.14744501 -0.14100973 -0.058292978
0000f0 47 e3 db 3c bd 7d da bd a6 47 1b 3b fa 88 9d 3d
       0.026841773 -0.10668514 0.002369383 0.07692142
