results/MyEnv/MyEnv/mappo/check/run66/models/actor_agent0.pt (torch, 65932 bytes, 17 tensors)

base.feature_norm.weight f4 [91]
0.988972 1.0041616 1.004007 1.0068655 0.98985785 0.998881 0.9932022 0.9974537
0.99706876 1.0002271 0.9980255 1.0093375 1.0034367 0.9926544 1.001096 1.0060161
1.0017781 0.9977758 0.9980523 0.99738276 0.9950608 0.9924665 0.99202895 1.0034811
0.9966201 0.99674743 0.9944126 1.0074307 1.0013505 1.0007547 1.007298 0.9978759
1.0017956 1.0074724 1.0079206 1.0064176 0.99623084 0.9999421 0.99713904 0.9935138
0.9949346 0.9999263 0.9977856 0.99559444 0.99203485 0.98946303 0.99904925 1.0013176
1.0000337 1.0041754 1.0018879 0.99599713 0.9993465 1.0019022 0.99426156 1.0108929
0.9902042 0.99590325 0.9919544 0.99293303 0.9985313 0.9930529 0.9929106 1.0016527
0.9976376 0.9995711 1.0014976 0.9913462 0.99240905 1.0072329 1.0059904 1.0034826
1.0010332 1.0029579 0.9937754 1.0040979 1.0002962 1.0012413 1.0031362 1.0057648
0.99147314 1.0054371 1.003856 0.9967444 0.9944407 1.0004833 0.9967145 1.0048463
1.0028363 1.002689 1.0065061
00000000: 452d 7d3f 5e88 803f 4d83 803f f8e0 803f
00000010: 5367 7d3f aab6 7f3f 8042 7e3f 2059 7f3f
00000020: e63f 7f3f 7107 803f 997e 7f3f f931 813f
00000030: 9d70 803f 991e 7e3f ea23 803f 23c5 803f
00000040: 443a 803f 3c6e 7f3f 5b80 7f3f 7a54 7f3f
00000050: 4ebc 7e3f 4912 7e3f 9cf5 7d3f 1272 803f
00000060: 7f22 7f3f d72a 7f3f d391 7e3f 7df3 803f
00000070: 412c 803f bb18 803f 24ef 803f cc74 7f3f
00000080: d73a 803f dbf4 803f 8b03 813f 4bd2 803f
00000090: fc08 7f3f 35fc 7f3f 8144 7f3f ec56 7e3f
000000a0: 09b4 7e3f 2cfb 7f3f e16e 7f3f 47df 7e3f
000000b0: fff5 7d3f 734d 7d3f b1c1 7f3f 2d2b 803f
000000c0: 1b01 803f d288 803f dd3d 803f abf9 7e3f
000000d0: 2cd5 7f3f 553e 803f ed87 7e3f f064 813f
000000e0: 067e 7d3f 84f3 7e3f b9f0 7d3f dc30 7e3f
000000f0: bf9f 7f3f b738 7e3f 642f 7e3f 2836 803f
00000100: 2e65 7f3f e4e3 7f3f 1331 803f ddc8 7d3f
00000110: 850e 7e3f 02ed 803f 4bc4 803f 1e72 803f
00000120: db21 803f ed60 803f 1168 7e3f 4886 803f
00000130: b509 803f ad28 803f c466 803f e7bc 803f
00000140: 2fd1 7d3f 2ab2 803f 5a7e 803f a42a 7f3f
00000150: aa93 7e3f d60f 803f ae28 7f3f ce9e 803f
00000160: f15c 803f 1d58 803f 31d5 803f

base.feature_norm.bias f4 [91]
0.011232775 -0.0038490233 -0.0043890825 -0.0065980093 0.0100148255 0.0045550712 0.0064021633 0.0025215056
0.0030014864 0.0007467783 0.0017732113 -0.008878462 -0.003094652 0.007129778 0.0004385466 -0.0059127607
-0.0017578639 0.0024020004 0.001662131 -0.0009447518 -0.0033780502 -0.0077428212 -0.008301062 0.0035287503
-0.003667824 -0.0032076396 -0.005782321 0.0075989473 0.0014852646 0.0007607626 0.0078023 -0.0021380736
0.0018796027 0.0075484915 0.008091886 0.0066422517 -0.0036646528 7.000401e-05 -0.0029745926 -0.006584413
-0.0052624173 -8.278429e-05 -0.0022603436 -0.00449097 -0.008219374 -0.010746488 -0.0009659301 0.0014002987
-8.546163e-05 0.004277956 0.0019076664 -0.0039762817 -0.000606242 0.0020167697 -0.0061846823 0.011214518
-0.010103627 -0.00415383 -0.008269599 -0.0071963663 -0.0013724072 -0.0069714547 -0.0073199742 0.0019989647
-0.0025511514 -0.0003609526 0.0015790581 -0.009033535 -0.007721999 0.0074026156 0.0062388713 0.003688135
0.0010411018 0.0029651853 -0.006561057 0.0043609263 0.00034639213 0.0012855405 0.003404551 0.005997613
-0.008878348 0.005687008 0.003904397 -0.0035891994 -0.0057399273 0.0005292536 -0.0034072797 0.004869231
0.0029642307 0.0028352425 -0.0045771133
00000000: ac09 383c e53f 7cbb 4bd2 8fbb 1d34 d8bb
00000010: 3915 243c b542 953b 3dc9 d13b d83f 253b
00000020: 96b4 443b 72c3 433a 196b e83a f876 11bc
00000030: a5cf 4abb eaa0 e93b baec e539 d5bf c1bb
00000040: 2068 e6ba e16a 1d3b dddb d93a 38a9 77ba
00000050: 4762 5dbb 7eb7 fdbb 2d01 08bc 9b42 673b
00000060: e05f 70bb 4337 52bb a079 bdbb 9700 f93b
00000070: 36ad c23a ea6d 473a 70aa ff3b ec1e 0cbb
00000080: 005d f63a 5659 f73b d493 043c 3fa7 d93b
00000090: ac2a 70bb 1ecf 9238 62f1 42bb 0fc2 d7bb
000000a0: 5b70 acbb 7a9c adb8 4622 14bb fd28 93bb
000000b0: 8eaa 06bc 0a12 30bc 7936 7dba 3a8a b73a
000000c0: dd39 b3b8 192e 8c3b aa0a fa3a 784b 82bb
000000d0: 36ec 1eba c82b 043b e0a8 cabb 19bd 373c
000000e0: af89 25bc da1c 88bb 367d 07bc 7fcf ebbb
000000f0: 58e2 b3ba cd70 e4bb 65dc efbb 1001 033b
00000100: 3831 27bb 3d3e bdb9 66f8 ce3a 6401 14bc
00000110: d308 fdbb a491 f23b 726f cc3b a3b4 713b
00000120: 9475 883a 8e53 423b 23fe d6bb 1ae6 8e3b
00000130: f79b b539 957f a83a e31e 5f3b a087 c43b
00000140: 7e76 11bc 155a ba3b e9e0 7f3b c638 6bbb
00000150: 0016 bcbb 9cbd 0a3a ab4c 5fbb 128e 9f3b
00000160: 8a43 423b 7acf 393b 9cfb 95bb

base.mlp.fc1.0.weight f4 [64, 91]
-0.22998458 -0.25799355 0.1228858 0.2136262 0.009378026 0.124265894 -0.006818257 0.057724033
0.045979258 -0.32766926 -0.14878897 0.013053583 -0.22885118 0.073099054 -0.14664543 0.08082949
0.116360165 0.081710264 0.19290416 0.053470284 0.11484021 0.2018042 0.025630051 -0.33182064
-0.032651685 0.0065335548 0.3753867 -0.057233807 0.33481053 -0.38233662 0.10958668 0.1710907
0.026517458 0.23370805 0.034032732 0.09860539 0.2090844 0.08659047 -0.20966892 -0.14330658
-0.11628811 -0.065543585 -0.12022603 0.08149597 0.13058963 0.19228837 -0.036631737 0.026814768
0.15401366 -0.25824627 0.32529315 0.21668315 0.15554827 -0.17068283 0.09926973 -0.10276506
0.18291864 0.100259945 0.07009543 -0.22189778 -0.21247603 -0.034541313 0.17608373 0.13424191
-0.11638621 -0.36972377 -0.418026 0.13007985 0.27540573 0.106070094 -0.03010739 -0.06381054
0.23162717 -0.16331136 -0.018667607 -0.24099492 -0.11579521 0.14144363 -0.11100587 0.12377403
0.15601023 -0.046804596 0.008211955 0.14858615 0.09427198 0.13774207 0.28048468 0.0799289
0.26101282 0.005544596 -0.18163297 0.26627824 -0.15046751 0.014257205 -0.22748809 0.081028186
0.089568056 0.015784075 -0.06932122 -0.49613732 0.19291176 0.022069782 -0.05780889 0.15948611
-0.19040547 -0.10364872 -0.009302362 -0.21221763 0.20113742 -0.0639143 0.024129588 0.11604426
0.09352275 -0.16621786 -0.11455476 -0.14741044 -0.41660604 -0.1713814 -0.07010898 0.2674078
-0.024752393 -0.05071918 0.011503943 -0.056719404 0.30983204 -0.11548093 -0.102366924 -0.2516946
-0.1798061 -0.16547716 -0.0029371965 0.12441038 -0.14640321 -0.19347839 -0.2116816 0.16913372
0.22162911 -0.1690104 0.19511497 -0.33519292 0.22623351 -0.16312152 -0.25505614 0.17076689
-0.034792624 -0.12213955 -0.005690532 0.10586899 0.16352633 0.24526565 -0.21671559 0.012208401
-0.063952275 0.31480357 -0.016835071 -0.11596513 -0.2634468 0.0021806185 0.4367054 -0.015437183
-0.02964579 -0.05702889 -0.31556064 0.11577255 0.12602672 -0.15210144 0.025270265 0.025607817
0.26615345 0.05107249 -0.021755207 -0.31629407 -0.042896707 -0.053856216 -0.08910766 -0.08288318
-0.025121553 -0.030010264 -0.2650358 -0.19291349 -0.027817765 0.04860084 -0.11050998 -0.1872566
0.21595286 -0.120815955 0.028498478 0.08615532 -0.08264054 -0.1503126 -0.057044312 -0.13560481
-0.16680965 -0.095091246 0.21048182 -0.15638097 0.03445237 -0.2897838 0.009450053 -0.0055200304
0.08670455 -0.15442167 -0.20547022 -0.051133826 0.3847254 0.20460606 0.059662346 -0.16506281
-0.21200852 0.13880724 -0.1339268 -0.14726862 -0.31541675 0.17553915 -0.24467997 -0.11428938
-0.19194423 -0.16088682 0.011115649 0.11306702 -0.36003113 0.08083821 -0.0046726605 0.10242499
0.03678266 -0.12193039 0.04519225 -0.01586012 0.04673472 0.23083021 0.27744505 -0.028337825
0.47818044 0.12528995 -0.39358807 -0.13388863 0.14836545 0.09553045 -0.12138799 0.015315464
0.122821905 0.05336728 0.20780091 -0.06942122 0.280505 0.10714842 -0.032642588 0.19651128
-0.19422115 -0.00795038 -0.0015579097 0.22843724 -0.12642929 0.07445106 -0.10228632 -0.07436598
00000000: 1481 6bbe bb17 84be 8dab fb3d d4c0 5a3e
00000010: 4ba6 193c 1e7f fe3d af6b dfbb 0970 6c3d
00000020: bf54 3c3d 44c4 a7be 235c 18be b2de 553c
00000030: f757 6abe f5b4 953d 382a 16be ef89 a53d
00000040: 3d4e ee3d b657 a73d ab88 453e a803 5b3d
00000050: 5831 eb3d c3a5 4e3e 1df6 d13c 65e4 a9be
00000060: c6bd 05bd 6e17 d63b af32 c03e ff6d 6abd
00000070: 496c ab3e a0c1 c3be fb6e e03d 6732 2f3e
00000080: 243b d93c 2a51 6f3e e865 0b3d 9ff1 c93d
00000090: 391a 563e 5856 b13d 73b3 56be f6be 12be
000000a0: 7628 eebd b73b 86bd 1139 f6bd 5ce7 a63d
000000b0: 4ab9 053e 3ee7 443e 290b 16bd a5aa db3c
000000c0: c2b5 1d3e db38 84be d38c a63e 30e2 5d3e
000000d0: 0c48 1f3e 7bc7 2ebe ee4d cb3d 7d76 d2bd
000000e0: 064f 3b3e 1655 cd3d 318e 8f3d 2c39 63be
000000f0: 5193 59be 317b 0dbd 4b4f 343e b676 093e
00000100: e55b eebd 6f4c bdbe 8107 d6be a733 053e
00000110: fb01 8d3e 473b d93d c6a3 f6bc 1aaf 82bd
00000120: ac2f 6d3e 183b 27be cfec 98bc 5fc7 76be
00000130: 0a26 edbd 99d6 103e 0c57 e3bd 3d7d fd3d
00000140: 25c1 1f3e 2db6 3fbd 708b 063c f826 183e
00000150: ab11 c13d 420c 0d3e b09b 8f3e c3b1 a33d
00000160: 79a3 853e 71af b53b fefd 39be 9f55 883e
00000170: 2814 1abe 0d97 693c a3f2 68be 1bf2 a53d
00000180: 756f b73d 9b4d 813c 49f8 8dbd b605 febe
00000190: a98a 453e b0cb b43c 04c9 6cbd 5450 233e
000001a0: a7f9 42be c845 d4bd ef68 18bc 944f 59be
000001b0: f8f6 4d3e 80e5 82bd 6aab c53c 9da8 ed3d
000001c0: db88 bf3d 0435 2abe b09b eabd c3f2 16be
000001d0: 634d d5be 9b7e 2fbe 4c95 8fbd ade9 883e
000001e0: 88c5 cabc eabe 4fbd 097b 3c3c 9b52 68bd
000001f0: 4ea2 9e3e 4481 ecbd c0a5 d1bd 1dde 80be
00000200: 171f 38be d872 29be fb7d 40bb dfca fe3d
00000210: b9ea 15be 331f 46be 10c3 58be 6431 2d3e
00000220: bef2 623e 1011 2dbe 38cc 473e 689e abbe
00000230: c2a9 673e 5409 27be b896 82be 84dd 2e3e
00000240: b682 0ebd 4d24 fabd a477 babb d7d1 d83d
00000250: 7273 273e eb26 7b3e b1ea 5dbe bf05 483c
00000260: 69f9 82bd ef2d a13e b4e9 89bc 207f edbd
00000270: 80e2 86be b5e8 0e3b da97 df3e 3dec 7cbc
00000280: badb f2bc 2097 69bd 2a91 a1be 291a ed3d
00000290: 260d 013e 7bc0 1bbe 9603 cf3c 7cc7 d13c
000002a0: 4445 883e 6331 513d fa37 b2bc 4cf1 a1be
000002b0: 75b4 2fbd 5698 5cbd 147e b6bd a8be a9bd
000002c0: b7cb cdbc 16d8 f5bc c6b2 87be 1d8b 45be
000002d0: 15e2 e3bc ad11 473d 0e53 e2bd 32c0 3fbe
000002e0: bf22 5d3e 5b6e f7bd a475 e93c 3372 b03d
000002f0: 723f a9bd 8ceb 19be 4ca7 69bd fddb 0abe
00000300: 26d0 2abe 33bf c2bd 8c88 573e 5522 20be
00000310: ee1d 0d3d 8b5e 94be 65d4 1a3c 5fe1 b4bb
00000320: 2892 b13d b720 1ebe c966 52be b471 51bd
00000330: bafa c43e 4084 513e 8160 743d 3a06 29be
00000340: c318 59be 7c23 0e3e 1b24 09be 96cd 16be
00000350: 4e7e a1be 89c0 333e 638d 7abe 8d10 eabd
00000360: 078d 44be 84bf 24be 691e 363c af8f e73d
00000370: 0056 b8be 818e a53d 1e1d 99bb 31c4 d13d
00000380: 6aa9 163d a4b6 f9bd 821b 393d 15ed 81bc
00000390: e86c 3f3d c15e 6c3e 470d 8e3e ba24 e8bc
000003a0: 11d4 f43e 024c 003e 6084 c9be 1a1a 09be
000003b0: 1ded 173e 78a5 c33d 449a f8bd b6ed 7a3c
000003c0: 0d8a fb3d a697 5a3d c3c9 543e b62c 8ebd
000003d0: 5a9e 8f3e a170 db3d 3cb4 05bd 413a 493e
000003e0: e9e1 46be 5042 02bc c632 ccba 74eb 693e
000003f0: ae76 01be cc79 983d 7d7b d1bd 314d 98bd

base.mlp.fc1.0.bias f4 [64]
-0.0028097287 0.00068144547 0.005296645 0.003513405 0.0073035746 0.0065631107 -0.004732159 0.0050393697
-0.0040430375 0.008757279 0.00652379 -0.0009581959 0.0013789706 0.00011481336 -0.005496845 -0.0055626826
0.00605117 0.004358526 -0.010628188 -0.0035121345 -0.0038150556 0.0018634895 -0.010445685 -0.0055348133
0.0070823357 -0.0026662538 0.0057664695 -0.009915548 -0.00075037964 -0.0013729241 -0.0065021357 0.0027801753
0.0074399346 0.0037138325 0.004975423 0.000250351 0.0036639674 0.0066100024 0.0025099004 -0.0054421797
0.005742666 0.00492414 0.0009902769 -0.0042671748 0.003214615 -0.009341372 -0.0037955882 0.0024236026
-0.0068885963 0.0026858577 0.0022604698 0.0019110916 0.0027890059 -2.348499e-05 -0.008936271 -0.0021750676
0.0012882955 -0.005214984 -0.004561978 5.0834697e-05 -0.0014015177 0.0053545986 0.0033115628 0.0042450945
00000000: 6d23 38bb 08a3 323a 7b8f ad3b 2841 663b
00000010: d352 ef3b 5d0f d73b 3a10 9bbb 4c21 a53b
00000020: 757b 84bb b17a 0f3c 84c5 d53b 702f 7bba
00000030: 93be b43a f4c7 f038 e11e b4bb 2a47 b6bb
00000040: e548 c63b f7d1 8e3b da21 2ebc d72b 66bb
00000050: 0306 7abb 5540 f43a 6124 2bbc 615d b5bb
00000060: f012 e83b 51bc 2ebb a7f4 bc3b d374 22bc
00000070: 20b5 44ba b0f3 b3ba de0f d5bb 9a33 363b
00000080: b2ca f33b c563 733b e008 a33b 8b41 8339
00000090: 2c1f 703b b898 d83b 247d 243b 5054 b2bb
000000a0: f92c bc3b ae5a a13b 2ecc 813a a8d3 8bbb
000000b0: 4aac 523b 8e0c 19bc 67bf 78bb 4ed5 1e3b
000000c0: bcb9 e1bb 3705 303b 6424 143b 987d fa3a
000000d0: c1c7 363b a201 c5b7 7069 12bc 948b 0ebb
000000e0: 06dc a83a 75e2 aabb a57c 95bb 5737 5538
000000f0: 21b3 b7ba a175 af3b ce06 593b 6f1a 8b3b

base.mlp.fc1.2.weight f4 [64]
1.0042164 0.9959377 1.0063184 1.004769 0.9896934 0.99514145 0.9913386 1.0026321
0.995045 0.9920881 0.9979074 1.0020266 0.9975914 1.0006893 0.99325055 0.98878807
1.0085512 1.005324 0.99144334 0.9965318 0.9947923 0.99196887 0.99569046 0.9929303
0.9909215 1.0107021 1.0062509 1.009738 1.0029515 0.9938584 1.0077643 1.007215
0.9929195 1.0029405 0.995073 0.99837774 1.008196 1.0083001 1.0067475 0.9982501
1.0055131 0.99999744 1.0021765 1.009216 0.9914615 1.0090812 0.9920556 1.0025438
1.0099036 0.9958672 0.9975908 0.9968393 1.0038582 1.0018454 1.0099217 0.9969635
0.99538946 1.0033047 0.9954661 0.9978396 1.000201 1.0065479 1.0035393 0.99349886
00000000: 2a8a 803f c6f5 7e3f 0bcf 803f 459c 803f
00000010: 8c5c 7d3f 97c1 7e3f 5ec8 7d3f 4056 803f
00000020: 45bb 7e3f 7cf9 7d3f dc76 7f3f 6842 803f
00000030: 2662 7f3f 9616 803f ab45 7e3f 3721 7d3f
00000040: 3518 813f 75ae 803f 3bcf 7d3f b51c 7f3f
00000050: b5aa 7e3f acf1 7d3f 92e5 7e3f ae30 7e3f
00000060: 08ad 7d3f b05e 813f d4cc 803f 183f 813f
00000070: b760 803f 816d 7e3f 6cfe 803f 6cec 803f
00000080: f92f 7e3f 5b60 803f 1bbd 7e3f af95 7f3f
00000090: 910c 813f fa0f 813f 1add 803f 528d 7f3f
000000a0: a7b4 803f d5ff 7f3f 5247 803f fd2d 813f
000000b0: 6cd0 7d3f 9329 813f 5bf7 7d3f 5b53 803f
000000c0: 8544 813f 27f1 7e3f 1c62 7f3f dc30 7f3f
000000d0: 6d7e 803f 783c 803f 1d45 813f 0039 7f3f
000000e0: d8d1 7e3f 4a6c 803f ded6 7e3f 6b72 7f3f
000000f0: 9606 803f 90d6 803f fa73 803f f155 7e3f

base.mlp.fc1.2.bias f4 [64]
-0.0019076521 -0.002871542 0.006347688 0.004666326 0.010201359 0.0049612983 -0.008619339 0.005743015
-0.003895106 0.009251428 0.0036350773 -0.0015902523 0.0016113581 0.00139933 -0.006012736 -0.0047404943
0.008650845 0.0053619156 -0.009241316 -0.00078343204 -0.0035826834 0.0077230483 -0.005226827 -0.005727314
0.009090924 -0.010667085 0.0062887063 -0.009812338 0.003059851 0.0056900973 -0.007816329 0.00694772
0.007131795 0.004385358 0.0049089976 0.001898482 0.007804991 0.008256941 0.0067297146 -0.0011298279
0.0058888975 0.005052717 0.0022198658 -0.008222853 0.008452931 -0.009190998 -0.002466389 0.0030327463
-0.009712241 0.004966281 0.0024394658 0.0016576387 0.004225172 0.0019375677 -0.0098677315 0.0017589472
0.004252284 -0.00341344 -0.004673255 0.0021822683 0.00027526927 0.0064342357 0.0038089957 0.0062662186
00000000: 2f0a faba 7b30 3cbb 4400 d03b fbe7 983b
00000010: 9a23 273c 6392 a23b 2138 0dbc e72f bc3b
00000020: 0945 7fbb 4d93 173c 7a3a 6e3b 0370 d0ba
00000030: 3534 d33a b969 b73a 7c06 c5bb 2656 9bbb
00000040: 46bc 0d3c 02b3 af3b e368 17bc 3c5f 4dba
00000050: 74cb 6abb a011 fd3b ce45 abbb 31ac bbbb
00000060: 19f2 143c ffc4 2ebc 7e11 ce3b eec3 20bc
00000070: c887 483b ff73 ba3b 0f10 00bc b3a9 e33b
00000080: d5b1 e93b 0db3 8f3b a8db a03b 7cd6 f83a
00000090: 03c1 ff3b 1f48 073c f084 dc3b bc16 94ba
000000a0: a7f7 c03b 4391 a53b 2b7b 113b 25b9 06bc
000000b0: 2a7e 0a3c d795 16bc 24a3 21bb 0ac1 463b
000000c0: 1720 1fbc 2fbc a23b 72df 1f3b 2045 d93a
000000d0: 5073 8a3b fcf5 fd3a 44ac 21bc 798c e63a
000000e0: be56 8b3b 05b4 5fbb 1b22 99bb 6304 0f3b
000000f0: 0452 9039 48d6 d23b 58a0 793b da54 cd3b

base.mlp.fc_h.0.weight f4 [64, 64]
-0.08190055 0.017626757 -0.1740252 -0.17672443 -0.20131657 0.08238156 0.35347572 -0.09104768
0.055245444 -0.1572533 0.17362542 -0.12605348 0.3252656 0.2478996 -0.045447163 0.0495139
0.050629687 -0.042404238 0.1131643 -0.36015028 -0.33208194 0.084199496 -0.027821437 -0.32845655
-0.056764077 0.32291466 -0.20953895 -0.16492166 -0.01652857 0.048913207 0.036611333 0.023800723
0.03164174 -0.17204675 -0.32869577 -0.073077284 -0.33560044 -0.2668639 0.54735124 0.14248668
-0.21388085 -0.31831983 0.012744338 -0.13136727 0.11729881 0.22903198 0.45296255 0.038114768
0.47163966 -0.11904113 0.08654194 -0.21362592 -0.16167662 0.24153927 -0.038981467 -0.37396947
0.008267224 -0.31011757 -0.08443273 0.0113853775 -0.0022080122 -0.053396236 -0.123074315 -0.06984622
-0.1453955 0.116592646 -0.45316237 0.052368566 -0.06357076 -0.0010851375 0.23925257 -0.12328115
-0.1619455 0.06675356 -0.019932063 0.0088982405 -0.102977 0.5685023 0.11367837 0.005203039
-0.005965625 0.036182668 0.10495157 -0.23725738 0.0006234553 -0.06992933 0.124007985 0.051972482
0.06318691 0.18040842 0.41477907 0.039366987 0.3054747 -0.02326716 -0.014618468 -0.046050537
-0.21201336 0.3187198 0.07990186 0.4244514 -0.07657103 -0.246429 0.07679343 -0.23196183
-0.047886338 -0.14559734 -0.1249436 0.29121402 0.07056243 0.009610662 -0.0045366087 -0.21977317
-0.14502981 -0.023662047 0.03310678 0.3437715 0.3639223 -0.49643308 0.35906285 -0.20218508
0.03348256 0.06417888 0.15117423 0.3366052 0.3905836 -0.19762 0.15282872 0.0047374535
0.12713346 0.10302626 0.10492603 0.026912037 -0.07439957 -0.08241293 -0.027154298 -0.14105783
-0.09525484 0.2087183 -0.112274684 0.14058457 -0.34848216 0.07183504 -0.048128463 -0.2997122
-0.011332862 -0.44989952 -0.13067307 0.09212853 -0.1815995 0.16256344 -0.26016226 -0.12080467
0.44700402 -0.16549172 -0.055174865 -0.029966675 0.013077371 -0.10549825 -0.38313162 -0.19441743
0.1863644 -0.14405063 -0.34719905 0.22744876 -0.13550599 0.16342162 -0.018825063 0.094863966
-0.15612054 -0.25937545 -0.31205082 0.34128335 -0.14281161 0.11796247 0.07269365 -0.12891743
0.028442657 -0.2979367 -0.23941958 0.08997196 0.07375239 0.110327676 0.173253 0.16219224
0.6406809 -0.14901048 -0.09729263 -0.17982058 -0.22478265 0.16087721 0.4190107 -0.0803639
0.26483947 0.15808678 0.033022262 0.040583212 0.28374058 0.3153799 0.00713792 -0.25759226
0.22261494 -0.09310496 -0.2533543 -0.05056466 -0.18540576 -0.036498684 -0.12439191 -0.13705857
-0.154449 0.023491543 0.5246388 0.18903968 0.13451748 0.5901055 0.09316437 -0.024197679
0.077057764 0.4257189 0.27944872 0.034690432 -0.13179128 0.081560545 -0.027662326 0.23529589
0.006238728 -0.14117636 -0.15023206 0.120448396 -0.09526849 -0.17724152 0.016847296 0.0246622
-0.012914094 -0.17502037 -0.28519556 0.10911683 -0.048077654 -0.26064855 -0.3104687 0.13013478
-0.04716503 0.1384135 0.15739043 0.14490288 -0.05360462 0.020221911 -0.19946726 -0.006376992
-0.5288392 -0.27144256 -0.3858265 0.16317903 -0.1575565 0.23607142 0.21734391 -0.08977249
00000000: 7abb a7bd fd65 903c a933 32be 40f7 34be
00000010: ee25 4ebe aab7 a83d c5fa b43e 3577 babd
00000020: 0c49 623d 0207 21be ddca 313e 2a14 01be
00000030: 3689 a63e 65d9 7d3e ce26 3abd 16cf 4a3d
00000040: 1361 4f3d 11b0 2dbd afc2 e73d 9e65 b8be
00000050: a506 aabe c970 ac3d c8e9 e3bc 752b a8be
00000060: 7381 68bd 1255 a53e 6191 56be 39e1 28be
00000070: ec66 87bc 3759 483d c4f5 153d bcf9 c23c
00000080: c59a 013d 062d 30be d04a a8be 8ba9 95bd
00000090: d2d3 abbe 63a2 88be 361f 0c3f 07e8 113e
000000a0: 9503 5bbe d1fa a2be a1cd 503c 2485 06be
000000b0: 5c3a f03d 5c87 6a3e b5ea e73e 3b1e 1c3d
000000c0: c17a f13e d6cb f3bd e73c b13d c1c0 5abe
000000d0: 8e8e 25be 1256 773e 08ab 1fbd ed78 bfbe
000000e0: 4073 073c bbc7 9ebe 11eb acbd bc89 3a3c
000000f0: 4cb4 10bb 03b6 5abd 630e fcbd 890b 8fbd
00000100: 8fe2 14be 20c8 ee3d e604 e8be 6c80 563d
00000110: 6331 82bd 2c3b 8eba a0fe 743e d47a fcbd
00000120: 0bd5 25be 17b6 883d 9148 a3bc edc9 113c
00000130: 9be5 d2bd 5e89 113f 35d0 e83d 417e aa3b
00000140: 4a7b c3bb 4734 143d d9f0 d63d 99f3 72be
00000150: 606f 233a 1c37 8fbd e6f7 fd3d 19e1 543d
00000160: 2368 813d fcbc 383e ec5d d43e 473f 213d
00000170: 2e67 9c3e c59a bebc 4c82 6fbc 7d9f 3cbd
00000180: 081a 59be 3e2f a33e 96a3 a33d b251 d93e
00000190: 46d1 9cbd e257 7cbe e045 9d3d 6787 6dbe
000001a0: 7724 44bd 7817 15be 6ee2 ffbd 011a 953e
000001b0: 0983 903d 0a76 1d3c d5a7 94bb 380c 61be
000001c0: b282 14be e9d6 c1bc fa9a 073d d102 b03e
000001d0: 0654 ba3e 7a2c febe 16d7 b73e 9b09 4fbe
000001e0: 0225 093d 3770 833d 6bcd 1a3e 8457 ac3e
000001f0: 93fa c73e e65c 4abe 227f 1c3e a43c 9b3b
00000200: 462f 023e 6fff d23d 75e3 d63d a276 dc3c
00000210: cd5e 98bd 1cc8 a8bd b172 debc 7771 10be
00000220: f814 c3bd 40ba 553e 45f0 e5bd 67f5 0f3e
00000230: 416c b2be 401e 933d 5a22 45bd e173 99be
00000240: 78ad 39bc 3b59 e6be 29cf 05be e2ad bc3d
00000250: 38f5 39be 0877 263e fd33 85be 7068 f7bd
00000260: b6dd e43e a976 29be 0aff 61bd ac7c f5bc
00000270: 7842 563c 770f d8bd d429 c4be 5d15 47be
00000280: 4fd6 3e3e 0282 13be 13c4 b1be 54e8 683e
00000290: 15c2 0abe ff57 273e 0537 9abc 0a48 c23d
000002a0: 10de 1fbe dccc 84be 20c5 9fbe b1bc ae3e
000002b0: 353d 12be 4f96 f13d 69e0 943d ee02 04be
000002c0: 9300 e93c 298b 98be 682a 75be 3843 b83d
000002d0: 7e0b 973d 7af3 e13d 3c69 313e b915 263e
000002e0: aa03 243f 3496 18be 5c41 c7bd e322 38be
000002f0: 6c2d 66be ffbc 243e 9288 d63e d495 a4bd
00000300: 0a99 873e 80e1 213e 5a42 073d 953a 263d
00000310: 7246 913e 7979 a13e 36e5 e93b 22e3 83be
00000320: 2cf5 633e d0ad bebd a8b7 81be e41c 4fbd
00000330: 02db 3dbe a57f 15bd 30c1 febd 1559 0cbe
00000340: e127 1ebe 5671 c03c ba4e 063f 9e93 413e
00000350: f3be 093e 2711 173f f6cc be3d 363a c6bc
00000360: 76d0 9d3d d4f7 d93e e713 8f3e 8e17 0e3d
00000370: 4bf4 06be 3709 a73d 1a9c e2bc 68f1 703e
00000380: 3e6e cc3b 8990 10be 6fd6 19be a6ad f63d
00000390: 201c c3bd cd7e 35be 5703 8a3c 6208 ca3c
000003a0: a395 53bc 8a38 33be 2705 92be a578 df3d
000003b0: 13ed 44bd ba73 85be c1f5 9ebe 0d42 053e
000003c0: 1e30 41bd 45bc 0d3e f52a 213e 6c61 143e
000003d0: 8590 5bbd 6ca8 a53c 2541 4cbe 16f6 d0bb
000003e0: 0162 07bf 85fa 8abe 0d8b c5be 6718 273e
000003f0: 7e56 21be b5bc 713e 678f 5e3e a4da b7bd

base.mlp.fc_h.0.bias f4 [64]
0.0 0.0 0.0 0.0 0.0 0.0 0.0 0.0
0.0 0.0 0.0 0.0 0.0 0.0 0.0 0.0
0.0 0.0 0.0 0.0 0.0 0.0 0.0 0.0
0.0 0.0 0.0 0.0 0.0 0.0 0.0 0.0
0.0 0.0 0.0 0.0 0.0 0.0 0.0 0.0
0.0 0.0 0.0 0.0 0.0 0.0 0.0 0.0
0.0 0.0 0.0 0.0 0.0 0.0 0.0 0.0
0.0 0.0 0.0 0.0 0.0 0.0 0.0 0.0
00000000: 0000 0000 0000 0000 0000 0000 0000 0000
00000010: 0000 0000 0000 0000 0000 0000 0000 0000
00000020: 0000 0000 0000 0000 0000 0000 0000 0000
00000030: 0000 0000 0000 0000 0000 0000 0000 0000
00000040: 0000 0000 0000 0000 0000 0000 0000 0000
00000050: 0000 0000 0000 0000 0000 0000 0000 0000
00000060: 0000 0000 0000 0000 0000 0000 0000 0000
00000070: 0000 0000 0000 0000 0000 0000 0000 0000
00000080: 0000 0000 0000 0000 0000 0000 0000 0000
00000090: 0000 0000 0000 0000 0000 0000 0000 0000
000000a0: 0000 0000 0000 0000 0000 0000 0000 0000
000000b0: 0000 0000 0000 0000 0000 0000 0000 0000
000000c0: 0000 0000 0000 0000 0000 0000 0000 0000
000000d0: 0000 0000 0000 0000 0000 0000 0000 0000
000000e0: 0000 0000 0000 0000 0000 0000 0000 0000
000000f0: 0000 0000 0000 0000 0000 0000 0000 0000

base.mlp.fc_h.2.weight f4 [64]
1.0 1.0 1.0 1.0 1.0 1.0 1.0 1.0
1.0 1.0 1.0 1.0 1.0 1.0 1.0 1.0
1.0 1.0 1.0 1.0 1.0 1.0 1.0 1.0
1.0 1.0 1.0 1.0 1.0 1.0 1.0 1.0
1.0 1.0 1.0 1.0 1.0 1.0 1.0 1.0
1.0 1.0 1.0 1.0 1.0 1.0 1.0 1.0
1.0 1.0 1.0 1.0 1.0 1.0 1.0 1.0
1.0 1.0 1.0 1.0 1.0 1.0 1.0 1.0
00000000: 0000 803f 0000 803f 0000 803f 0000 803f
00000010: 0000 803f 0000 803f 0000 803f 0000 803f
00000020: 0000 803f 0000 803f 0000 803f 0000 803f
00000030: 0000 803f 0000 803f 0000 803f 0000 803f
00000040: 0000 803f 0000 803f 0000 803f 0000 803f
00000050: 0000 803f 0000 803f 0000 803f 0000 803f
00000060: 0000 803f 0000 803f 0000 803f 0000 803f
00000070: 0000 803f 0000 803f 0000 803f 0000 803f
00000080: 0000 803f 0000 803f 0000 803f 0000 803f
00000090: 0000 803f 0000 803f 0000 803f 0000 803f
000000a0: 0000 803f 0000 803f 0000 803f 0000 803f
000000b0: 0000 803f 0000 803f 0000 803f 0000 803f
000000c0: 0000 803f 0000 803f 0000 803f 0000 803f
000000d0: 0000 803f 0000 803f 0000 803f 0000 803f
000000e0: 0000 803f 0000 803f 0000 803f 0000 803f
000000f0: 0000 803f 0000 803f 0000 803f 0000 803f

base.mlp.fc_h.2.bias f4 [64]
0.0 0.0 0.0 0.0 0.0 0.0 0.0 0.0
0.0 0.0 0.0 0.0 0.0 0.0 0.0 0.0
0.0 0.0 0.0 0.0 0.0 0.0 0.0 0.0
0.0 0.0 0.0 0.0 0.0 0.0 0.0 0.0
0.0 0.0 0.0 0.0 0.0 0.0 0.0 0.0
0.0 0.0 0.0 0.0 0.0 0.0 0.0 0.0
0.0 0.0 0.0 0.0 0.0 0.0 0.0 0.0
0.0 0.0 0.0 0.0 0.0 0.0 0.0 0.0
00000000: 0000 0000 0000 0000 0000 0000 0000 0000
00000010: 0000 0000 0000 0000 0000 0000 0000 0000
00000020: 0000 0000 0000 0000 0000 0000 0000 0000
00000030: 0000 0000 0000 0000 0000 0000 0000 0000
00000040: 0000 0000 0000 0000 0000 0000 0000 0000
00000050: 0000 0000 0000 0000 0000 0000 0000 0000
00000060: 0000 0000 0000 0000 0000 0000 0000 0000
00000070: 0000 0000 0000 0000 0000 0000 0000 0000
00000080: 0000 0000 0000 0000 0000 0000 0000 0000
00000090: 0000 0000 0000 0000 0000 0000 0000 0000
000000a0: 0000 0000 0000 0000 0000 0000 0000 0000
000000b0: 0000 0000 0000 0000 0000 0000 0000 0000
000000c0: 0000 0000 0000 0000 0000 0000 0000 0000
000000d0: 0000 0000 0000 0000 0000 0000 0000 0000
000000e0: 0000 0000 0000 0000 0000 0000 0000 0000
000000f0: 0000 0000 0000 0000 0000 0000 0000 0000

base.mlp.fc2.0.0.weight f4 [64, 64]
-0.09052808 0.00945765 -0.1820397 -0.18443047 -0.19293378 0.09057812 0.3454732 -0.09889529
0.04285125 -0.15308064 0.1840931 -0.11857909 0.32720444 0.23896159 -0.052665763 0.046121392
0.042742427 -0.046431687 0.10669451 -0.3706032 -0.31898764 0.094042405 -0.03458301 -0.3308448
-0.04840244 0.33128813 -0.21409498 -0.15646729 -0.023634251 0.057318952 0.04488626 0.016223805
0.039632957 -0.17830941 -0.3204789 -0.060407486 -0.34400144 -0.27498528 0.5394538 0.13627176
-0.22154036 -0.319984 0.00484899 -0.12292909 0.12583663 0.23650582 0.45519173 0.03052384
0.4799583 -0.11280463 0.09484475 -0.2086868 -0.16977128 0.23361073 -0.030663932 -0.36538756
0.01667139 -0.30172294 -0.09229794 0.019780887 -0.010187878 -0.06252234 -0.13097955 -0.061398316
-0.1502021 0.109051436 -0.46086392 0.044425867 -0.0559269 0.006612226 0.23156005 -0.13061884
-0.16885088 0.07502196 -0.012494857 0.016314574 -0.096422985 0.560878 0.10631277 0.0013261393
-0.013721387 0.031484045 0.09757937 -0.24328549 0.0026392096 -0.062378995 0.11583807 0.044864748
0.07081942 0.18807316 0.41573137 0.046994988 0.29782486 -0.015621853 -0.006946901 -0.053848594
-0.20466013 0.311174 0.08753523 0.43122408 -0.08422812 -0.2541408 0.0690659 -0.23891588
-0.055777725 -0.14805208 -0.1326614 0.29903123 0.07814237 0.017400088 -0.010777962 -0.22749834
-0.13732333 -0.016646562 0.04078034 0.35080528 0.35621282 -0.5041592 0.36674345 -0.19472632
0.041096285 0.071776435 0.1435097 0.34425443 0.38302892 -0.20520328 0.14517212 0.012100726
0.13449171 0.10618003 0.10818317 0.030265385 -0.07785489 -0.08576977 -0.023863394 -0.13850956
-0.090815924 0.20533937 -0.116213374 0.13739759 -0.351896 0.07564373 -0.044436976 -0.28952038
-0.008088931 -0.44618642 -0.11996697 0.096154526 -0.18054818 0.15957104 -0.256951 -0.11950422
0.44351673 -0.16888678 -0.055708583 -0.03333219 0.016333045 -0.10888145 -0.38647667 -0.1911595
0.18253309 -0.14072327 -0.35061717 0.22596899 -0.1320785 0.16668476 -0.015553894 0.099442005
-0.15299335 -0.26058647 -0.30875778 0.33785087 -0.14625527 0.11466544 0.077760845 -0.12535416
0.025088279 -0.30284056 -0.24285111 0.08435215 0.07724239 0.113606244 0.16989611 0.15799686
0.637232 -0.15216328 -0.09396186 -0.18325417 -0.22092845 0.16365092 0.42222425 -0.08390337
0.26744103 0.1620581 0.03707875 0.044010665 0.27987412 0.31151825 0.01126235 -0.252038
0.2255822 -0.101224735 -0.25661412 -0.055453 -0.19210926 -0.03415935 -0.11800516 -0.13503876
-0.1503747 0.028079085 0.5265746 0.19099233 0.13408436 0.586748 0.09710281 -0.018427199
0.07315347 0.4218697 0.27709472 0.030840237 -0.12730707 0.077708766 -0.031518754 0.23948658
0.0010086974 -0.13399287 -0.15441583 0.12004464 -0.09163736 -0.17325611 0.021006085 0.03160957
-0.008965171 -0.17157468 -0.28102344 0.10605034 -0.051951066 -0.265044 -0.3012839 0.13358577
-0.050931957 0.13368401 0.15352236 0.13831301 -0.04994319 0.024340993 -0.20329882 -0.009851591
-0.53271943 -0.27550372 -0.3814798 0.15931618 -0.15359919 0.2397219 0.22148533 -0.09483874
00000000: c966 b9bd 42f4 1a3c 9d68 3abe 57db 3cbe
00000010: 6f90 45be 0581 b93d dde1 b03e 9d89 cabd
00000020: cb84 2f3d 2cc1 1cbe e782 3c3e 98d9 f2bd
00000030: 5787 a73e 59b2 743e 0eb8 57bd c9e9 3c3d
00000040: af12 2f3d 272f 3ebd a782 da3d b4bf bdbe
00000050: 5952 a3be 4e99 c03d eaa6 0dbd 7d64 a9be
00000060: a341 46bd 999e a93e b73b 5bbe f638 20be
00000070: 9e9c c1bc 47c7 6a3d a8da 373d c9e7 843c
00000080: 2b56 223d be96 36be cf15 a4be d76d 77bd
00000090: f520 b0be dfca 8cbe a519 0a3f d38a 0b3e
000000a0: 7adb 62be f1d4 a3be 47e4 9e3b 3fc2 fbbd
000000b0: 51db 003e 952e 723e e40e e93e 220d fa3c
000000c0: 18bd f53e 1d06 e7bd f73d c23d feb1 55be
000000d0: 86d8 2dbe a737 6f3e ed32 fbbc 1414 bbbe
000000e0: 7092 883c 6e7b 9abe b406 bdbd 870b a23c
000000f0: 0feb 26bc b60b 80bd 811f 06be cd7c 7bbd
00000100: 94ce 19be 5c56 df3d 5bf6 ebbe e6f7 353d
00000110: 9b13 65bd 5fab d83b 141e 6d3e f2c0 05be
00000120: 3fe7 2cbe 1da5 993d 3bb7 4cbc 24a6 853c
00000130: 6a79 c5bd b395 0f3f 82ba d93d dad1 ad3a
00000140: abcf 60bc 6af5 003d b1d7 c73d d51f 79be
00000150: 97f6 2c3b 1e81 7fbd 833c ed3d 19c4 373d
00000160: c609 913d 4096 403e beda d43e d17d 403d
00000170: 807c 983e cdf2 7fbc d4a2 e3bb 5890 5cbd
00000180: 6d92 51be 3352 9f3e ac45 b33d 67c9 dc3e
00000190: cb7f acbd be1e 82be 6c72 8d3d 5da6 74be
000001a0: 2f77 64bd f79a 17be 64d8 07be 9f1a 993e
000001b0: 1b09 a03d a18a 8e3c 0d96 30bc 53f5 68be
000001c0: 7d9e 0cbe 5f5e 88bc 4909 273d c09c b33e
000001d0: 8761 b63e 9410 01bf ccc5 bb3e 5666 47be
000001e0: 9454 283d 86ff 923d 35f4 123e 1e42 b03e
000001f0: 5e1c c43e cf20 52be 00a8 143e 2042 463c
00000200: 32b8 093e ea74 d93d 238f dd3d 1def f73c
00000210: 6272 9fbd 10a8 afbd 2a7d c3bc 73d5 0dbe
00000220: b3fd b9bd 7c44 523e 4701 eebd f4b1 0c3e
00000230: b62b b4be 1aeb 9a3d 8c03 36bd 043c 94be
00000240: 7087 04bc 8c72 e4be 3eb1 f5bd aaec c43d
00000250: 9fe1 38be 9766 233e 158f 83be a1be f4bd
00000260: a014 e33e a8f0 2cbe af2e 64bd 5687 08bd
00000270: e1cc 853c 3dfd debd 45e0 c5be 51bf 43be
00000280: f4e9 3a3e c319 10be 1884 b3be 6a64 673e
00000290: 963f 07be 69af 2a3e c3d5 7ebc 40a8 cb3d
000002a0: 4aaa 1cbe 976b 85be 8015 9ebe cafa ac3e
000002b0: f1c3 15be b7d5 ea3d 1441 9f3d d75c 00be
000002c0: ef85 cd3c eb0d 9bbe f6ad 78be d2c0 ac3d
000002d0: 4231 9e3d 64aa e83d 3ff9 2d3e eec9 213e
000002e0: a321 233f b1d0 1bbe 136f c0bd fba6 3bbe
000002f0: 113b 62be 1b94 273e c72d d83e 88d5 abbd
00000300: 08ee 883e 8ff2 253e e3df 173d 8744 343d
00000310: a94b 8f3e 527f 9f3e b885 383c 200b 81be
00000320: 05ff 663e ea4e cfbd ed62 83be af22 63bd
00000330: 4ab8 44be adea 0bbd b0ac f1bd 9a47 0abe
00000340: d3fb 19be 1c06 e63c 98cd 063f 7e93 433e
00000350: 694d 093e 1e35 163f d7dd c63d a3f4 96bc
00000360: 7dd1 953d 4eff d73e 5cdf 8d3e aaa4 fc3c
00000370: c95c 02be c625 9f3d cf19 01bd f83b 753e
00000380: 4536 843a 6d35 09be 2f1f 1ebe f7d9 f53d
00000390: 5eac bbbd 0d6a 31be f414 ac3c 0979 013d
000003a0: a7e2 12bc 46b1 2fbe 4ee2 8fbe ec30 d93d
000003b0: a4ca 54bd d9b3 87be e241 9abe b5ca 083e
000003c0: 079e 50bd 76e4 083e f734 1d3e eda1 0d3e
000003d0: 3b91 4cbd c366 c73c 912d 50be 9168 21bc
000003e0: 4d60 08bf d30e 8dbe 5251 c3be c823 233e
000003f0: 1b49 1dbe a879 753e 0dcd 623e d03a c2bd

base.mlp.fc2.0.0.bias f4 [64]
-0.008076417 -0.007597891 0.0033675963 0.0040512504 0.00087290205 -0.0015011593 -0.003747446 -0.0025659874
-0.001455362 -0.007324636 0.0031936117 -0.004546866 0.009949394 0.0044566314 -0.0016554043 -0.0013253925
0.0015592993 0.0060168942 0.009873942 -0.0058709905 0.0052045556 0.0067519792 0.006448163 0.001872874
0.004277134 0.0102750845 0.0011887175 -8.315285e-06 0.0030255395 -0.0069052987 -0.0076951147 0.0039374405
0.0009990882 -0.007550684 0.007966865 -0.008887354 -0.0028884043 -0.0079168435 0.009099774 0.0021267259
-0.009661602 0.0013600064 0.009704906 -0.004880545 0.00445652 -0.0012436631 -0.0007589043 -0.008358887
0.0016167439 0.0009651549 0.0025665178 0.005472853 0.0013307956 0.008213197 0.005391704 0.008430984
-0.0055758283 0.007660288 -0.0047303755 -0.010952857 0.0077297254 0.006099968 -0.00045344187 -0.008219302
00000000: f352 04bc bbf7 f8bb e4b2 5c3b 5ac0 843b
00000010: 77d3 643a 8cc2 c4ba b697 75bb 202a 28bb
00000020: d8c1 beba 8003 f0bb ea4b 513b e0fd 94bb
00000030: c802 233c ef08 923b 27fa d8ba cbb8 adba
00000040: 6761 cc3a 5e29 c53b 50c6 213c 7061 c0bb
00000050: fa8a aa3b b53f dd3b 1d4b d33b 397b f53a
00000060: 3327 8c3b d458 283c bece 9b3a e181 0bb7
00000070: 2148 463b d845 e2bb 4d27 fcbb a505 813b
00000080: d6f3 823a ba6b f7bb 7487 023c 449c 11bc
00000090: 624b 3dbb a6b5 01bc 3817 153c 8a60 0b3b
000000a0: b24b 1ebc 3e42 b23a 5301 1f3c fbec 9fbb
000000b0: 0008 923b 6902 a3ba 35f1 46ba b7f3 08bc
000000c0: ece8 d33a 7302 7d3a 0633 283b 9e55 b33b
000000d0: 176e ae3a a590 063c e4ac b03b 1c22 0a3c
000000e0: 70b5 b6bb 2703 fb3b 4401 9bbb 9d73 33bc
000000f0: a349 fd3b 3ee2 c73b f0bb edb9 40aa 06bc

base.mlp.fc2.0.2.weight f4 [64]
1.0122732 1.0107777 0.99970716 1.0000424 1.0099579 1.0064536 1.0049096 1.0076027
1.0017116 1.0099005 1.01094 1.0107696 1.0080851 1.0090278 1.0106761 1.0103269
1.0044141 1.0038614 1.0101928 1.0071663 1.0081635 1.0105097 1.0106153 0.99596506
1.0019282 1.0104241 1.0089601 1.0108249 1.006302 1.0107249 1.0103332 1.0076388
1.0103719 1.0109285 1.0108213 0.99865127 1.008974 1.0106133 1.0101799 1.00347
1.0100445 1.0103804 1.0100802 1.0025887 1.0049591 1.0046829 1.0104107 1.0093111
1.0036435 1.006604 1.0096551 1.0082232 1.0085263 1.0051737 1.0071425 1.0105217
1.0074825 1.0112866 1.0056444 0.99694633 1.0102893 1.0051169 1.0054643 1.010223
00000000: 2b92 813f 2a61 813f cfec 7f3f 6401 803f
00000010: 4d46 813f 79d3 803f e1a0 803f 20f9 803f
00000020: 1638 803f 6b44 813f 7b66 813f e660 813f
00000030: ef08 813f d327 813f d65d 813f 6452 813f
00000040: a490 803f 887e 803f ff4d 813f d3ea 803f
00000050: 800b 813f 6258 813f d85b 813f 91f7 7e3f
00000060: 2f3f 803f 9455 813f 9b25 813f b662 813f
00000070: 81ce 803f 6f5f 813f 9952 813f 4ffa 803f
00000080: de53 813f 1b66 813f 9862 813f 9ca7 7f3f
00000090: 0f26 813f c75b 813f 934d 813f b471 803f
000000a0: 2349 813f 2554 813f 4f4a 813f d454 803f
000000b0: 80a2 803f 7399 803f 2355 813f 1b31 813f
000000c0: 6477 803f 66d8 803f 613c 813f 750d 813f
000000d0: 6417 813f 88a9 803f 0cea 803f c658 813f
000000e0: 30f5 803f d771 813f f5b8 803f e037 7f3f
000000f0: 2951 813f aca7 803f 0eb3 803f fd4e 813f

base.mlp.fc2.0.2.bias f4 [64]
-0.010010123 -0.0108089745 -7.567733e-05 -0.001116993 -0.009900005 0.0064778877 -0.0062508937 -0.008005565
0.0022477498 -0.010476482 0.008723747 -0.010712533 0.008378111 0.009493661 -0.010649895 -0.010241199
-0.00077215006 0.0051614954 0.010448749 0.0069295946 -0.007748847 0.010537204 0.010096716 0.000798174
0.00018205478 0.010582055 0.008280307 0.01072797 -0.004615124 -0.01065562 -0.010435882 -0.0075310236
-0.010323185 -0.010886435 0.010767185 -0.0013400388 0.008904342 -0.010832842 0.010373535 -0.0032663913
-0.010202319 0.010286328 0.010127843 0.0025804266 0.005730707 0.005422433 -0.010322078 -0.009642261
0.003966867 -0.0065152356 -0.007167009 -0.008124782 0.008434879 0.008342076 0.007700763 0.0103191845
0.007424683 0.010455912 -0.0069908565 -0.002801264 0.010689601 -0.0049880417 -0.0012701533 -0.010659742
00000000: 8001 24bc 2018 31bc f5b4 9eb8 1168 92ba
00000010: a133 22bc 7644 d43b 4cd4 ccbb c629 03bc
00000020: fc4e 133b 8da5 2bbc 0cee 0e3c 9f83 2fbc
00000030: 5844 093c 4d8b 1b3c e67c 2ebc b4ca 27bc
00000040: 1d6a 4aba c321 a93b 3b31 2b3c a711 e33b
00000050: 0aea fdbb 3da4 2c3c b26c 253c 8d3c 513a
00000060: f5e5 3e39 5b60 2d3c 20aa 073c 5ec4 2f3c
00000070: 773a 97bb e994 2ebc 43fb 2abc cec6 f6bb
00000080: 9322 29bc 055d 32bc d968 303c 3ea4 afba
00000090: 84e3 113c 3c7c 31bc c2f5 293c f410 56bb
000000a0: a127 27bc fd87 283c 41ef 253c 601c 293b
000000b0: a8c8 bb3b aaae b13b ef1d 29bc 93fa 1dbc
000000c0: 7efc 813b c27d d5bb 3bd9 eabb ce1d 05bc
000000d0: 7232 0a3c 34ad 083c af56 fc3b cc11 293c
000000e0: c14a f33b 464f 2b3c 8e13 e5bb 6995 37bb
000000f0: 7023 2f3c ba72 a3bb 467b a6ba 33a6 2ebc

act.action_out.fc_mean.weight f4 [2, 64]
-0.009124521 0.00013817124 -0.00089877425 0.0029650393 7.329595e-05 0.00104463 -0.0009856 -0.0025071928
-0.0038708297 0.0069070216 0.005624639 -0.0013164191 -0.0008583683 -0.00039670427 -6.790731e-05 -0.0023694877
0.010936956 0.013250128 0.0031690367 -0.0009791359 -0.003046878 0.002251981 -0.0071476824 0.002513121
-0.0043831645 0.0004715762 -0.0055531487 -0.0014304287 -0.006917158 -0.0017253525 -0.0010595975 -0.0006949402
-0.00017444223 0.0006393661 0.00051886763 0.0021968156 0.0011755893 -0.0020960332 0.0016899884 -0.0020871072
-0.0068743536 0.001440227 0.00052861276 -0.00021678755 -0.004642323 -0.00070131733 -0.0029262397 -0.0013640743
0.00035746142 -0.0012962273 -0.007445077 -0.0007795131 0.0012667687 0.010362379 0.0003794409 -0.00021562685
0.0035899195 0.005224118 0.003360875 0.0024579228 -0.006241569 -0.0013311785 0.012471773 -0.00296842
-0.012083761 -0.012351733 -0.008142323 -0.008232137 -0.010716361 0.0095612435 -0.010368168 -0.0103661725
0.008057921 -0.0113695385 0.010651229 -0.012031491 0.010385396 0.010754318 -0.011503467 -0.011125142
-0.00477052 -0.0020503283 0.011562203 0.010017002 -0.010256408 0.011954303 0.01038241 -0.0055171484
-0.0083566755 0.011544378 0.010255071 0.011559116 -0.008816208 -0.012188589 -0.01149708 -0.010017174
-0.010968921 -0.01295906 0.011957345 0.008188583 0.010519113 -0.0137676755 0.011293926 -0.008897882
-0.01167654 0.011048171 0.010753945 0.009086722 0.008834597 0.009423473 -0.01141657 -0.011173097
0.009301865 -0.010018701 -0.0093719335 -0.010347471 0.010174923 0.0061070127 0.010167913 0.011005074
0.010263112 0.011065474 -0.009392222 0.0067729815 0.012234236 -0.009732105 0.0004180485 -0.012633259
00000000: 047f 15bc 0fe2 1039 b89b 6bba 1b51 423b
00000010: 77b6 9938 f7eb 883a 402f 81ba b74f 24bb
00000020: bfad 7dbb 4c54 e23b e44e b83b b28b acba
00000030: 1f04 61ba bffc cfb9 7669 8eb8 6849 1bbb
00000040: eb30 333c 1117 593c 9daf 4f3b 5956 80ba
00000050: 21ae 47bb f995 133b 1b37 eabb 2db3 243b
00000060: a6a0 8fbb e33d f739 30f7 b5bb 397d bbba
00000070: 54a9 e2bb 3925 e2ba 31e2 8aba a62c 36ba
00000080: 7bea 36b9 229b 273a 9e04 083a 73f8 0f3b
00000090: 3b16 9a3a 9a5d 09bb 9a82 dd3a d9c7 08bb
000000a0: 4242 e1bb 00c6 bc3a 9a92 0a3a 7751 63b9
000000b0: a11e 98bb 9cd8 37ba 28c6 3fbb bdca b2ba
000000c0: a969 bb39 2ce6 a9ba d5f5 f3bb 3d58 4cba
000000d0: b409 a63a f8c6 293c b2ef c639 e419 62b9
000000e0: db44 6b3b 142f ab3b 2042 5c3b 1a15 213b
000000f0: 1386 ccbb f07a aeba 6856 4c3c d389 42bb
00000100: f8fa 45bc ec5e 4abc 6167 05bc 16e0 06bc
00000110: ad93 2fbc c3a6 1c3c 40df 29bc e1d6 29bc
00000120: 5f05 043c 4d47 3abc 7e82 2e3c bb1f 45bc
00000130: 8227 2a3c e132 303c 0a79 3cbc 3a46 36bc
00000140: 0652 9cbb cd5e 06bb 656f 3d3c 5a1e 243c
00000150: 7e0a 28bc fbdb 433c fc1a 2a3c 32c9 b4bb
00000160: 70ea 08bc a124 3d3c e304 283c 7262 3d3c
00000170: db71 10bc a6b2 47bc 405e 3cbc 131f 24bc
00000180: fdb6 33bc 3d52 54bc bde8 433c 6829 063c
00000190: 5c58 2c3c d191 61bc 290a 393c 6cc8 11bc
000001a0: f54e 3fbc 6303 353c 5131 303c 79e0 143c
000001b0: fcbe 103c e964 1a3c 910c 3bbc 5e0f 37bc
000001c0: d966 183c 7a25 24bc bd8c 19bc 7088 29bc
000001d0: b8b4 263c 561d c83b 5197 263c a04e 343c
000001e0: 9d26 283c f64b 353c d6e1 19bc e3ef dd3b
000001f0: 1b72 483c 6873 1fbc 852d db39 bbfb 4ebc

act.action_out.fc_mean.bias f4 [2]
0.0010027606 0.010586786
00000000: 106f 833a 3374 2d3c

act.action_out.logstd._bias f4 [2, 1]
0.00051477924 -0.0039978703
00000000: 40f2 063a 9100 83bb
