results/MyEnv/MyEnv/mappo/check/run66/models/actor_agent1.pt (torch, 65932 bytes, 17 tensors)

base.feature_norm.weight f4 [91]
0.9971476 1.0003343 0.9896434 0.9965233 1.0104264 0.9959341 1.0038708 0.99211437
1.0065734 1.0107653 0.9959588 0.99449366 0.9968973 1.0070148 0.9958654 0.9921606
0.99939036 1.0003289 0.9971625 0.99425375 0.9981456 1.0007817 1.001542 1.010117
1.0041028 0.992825 1.0032318 1.0065308 0.99966896 0.99718624 1.0132923 1.0012516
0.9906497 0.99975187 1.0011797 0.9937356 1.0063133 0.99752456 0.99245334 1.001869
0.9998887 1.00937 1.0005164 0.99974495 1.0070214 1.0102355 1.0006516 1.008662
1.0051512 1.0108358 1.0058893 0.9927378 0.99564356 1.0005443 1.0013916 1.0134768
1.0024123 0.99896044 0.99628246 0.9896057 0.9936315 0.99308324 1.0067241 1.009434
0.99282014 0.9936674 1.0057182 1.0002985 0.999084 1.0051111 1.0029337 0.99492127
1.0046586 1.001174 1.0026172 0.9898081 0.9957057 1.006318 1.0033597 0.9895108
0.9987329 1.0033338 1.0027969 0.9990176 0.9990214 0.9995239 0.9987978 1.005128
0.9997418 1.0021255 1.0039062
00000000: 1145 7f3f f40a 803f 4559 7d3f 271c 7f3f
00000010: a755 813f 8af5 7e3f d77e 803f 35fb 7d3f
00000020: 66d7 803f c260 813f 28f7 7e3f 2397 7e3f
00000030: a934 7f3f dce5 803f 09f1 7e3f 3dfe 7d3f
00000040: 0cd8 7f3f c70a 803f 0b46 7f3f 6a87 7e3f
00000050: 7886 7f3f 9d19 803f 8732 803f 844b 813f
00000060: 7186 803f c729 7e3f e669 803f 00d6 803f
00000070: 4eea 7f3f 9947 7f3f 90b3 813f 0329 803f
00000080: 389b 7d3f bdef 7f3f a826 803f 7565 7e3f
00000090: e0ce 803f c55d 7f3f 6c11 7e3f 3e3d 803f
000000a0: b5f8 7f3f 0933 813f ec10 803f 49ef 7f3f
000000b0: 14e6 803f 664f 813f 5a15 803f d61b 813f
000000c0: cba8 803f 1163 813f fbc0 803f 1124 7e3f
000000d0: 7fe2 7e3f d611 803f 9a2d 803f 9cb9 813f
000000e0: 0c4f 803f dfbb 7f3f 5e0c 7f3f cd56 7d3f
000000f0: a25e 7e3f b43a 7e3f 56dc 803f 2235 813f
00000100: 7629 7e3f fd60 7e3f 60bb 803f c809 803f
00000110: f8c3 7f3f 7ba7 803f 2260 803f 29b3 7e3f
00000120: a798 803f 7826 803f c355 803f 1064 7d3f
00000130: 92e6 7e3f 07cf 803f 176e 803f 9450 7d3f
00000140: f6ac 7f3f 3e6d 803f a65b 803f 9ebf 7f3f
00000150: debf 7f3f cce0 7f3f 36b1 7f3f 09a8 803f
00000160: 14ef 7f3f a645 803f 0080 803f

base.feature_norm.bias f4 [91]
0.003850212 -0.00024708657 0.010024036 0.0034236615 -0.010081164 0.0061711366 0.001141567 0.0076615196
-0.0062812897 -0.009812689 0.0038723554 0.005151031 0.0030659973 -0.007180166 -0.004152699 0.008152859
0.0006891686 -0.0003890344 0.0027875735 -0.0058926167 -0.001781728 0.00092982186 0.0018436871 0.010742028
0.0041128276 -0.0074838763 0.003159389 0.006697894 0.00014258716 -0.0030180952 0.014012478 0.0013851325
-0.009834308 -0.000335332 0.0013059459 -0.006800958 0.0063832616 -0.0027431601 -0.0076313945 0.0019153692
8.332744e-05 0.009502091 0.0005627486 -0.00052539475 0.007054374 0.010741777 0.0005352217 0.008874199
0.005190924 0.011678151 0.0059173326 -0.0075074374 -0.0044797836 0.0004465743 -0.007675629 0.0021431623
0.0023390863 -0.0009877562 -0.003726119 -0.011338686 -0.006483994 -0.006909581 0.0067547485 0.009560871
-0.0072344346 -0.006475951 0.005910605 0.00057669333 -0.0009870263 0.0052718613 0.0030667852 -0.005155186
0.005405971 0.0013419243 0.0030436288 -0.010380878 -0.004561772 0.0064864787 0.003103977 -0.01110712
-0.0001188841 0.0032720834 0.0027722877 -0.0011314641 -0.00080941 -0.00052834017 -0.0017990485 0.0051121167
-0.00028110557 0.002631177 0.0046018707
00000000: d753 7c3b 668b 81b9 db3b 243c 825f 603b
00000010: 772b 25bc 3f37 ca3b a2a0 953a 7c0d fb3b
00000020: 47d3 cdbb 67c5 20bc 58c7 7d3b fbc9 a83b
00000030: e6ee 483b 9947 ebbb 5d13 88bb 9293 053c
00000040: 52a9 343a 50f7 cbb9 b9af 363b da16 c1bb
00000050: df88 e9ba 4abf 733a e0a7 f13a 55ff 2f3c
00000060: e6c4 863b 4e3b f5bb c00d 4f3b 027a db3b
00000070: 7383 1539 3ccb 45bb 9894 653c 568d b53a
00000080: 1420 21bc 80cf afb9 462c ab3a 92da debb
00000090: ae2a d13b 97c6 33bb c710 fabb 200d fb3a
000000a0: 14c0 ae38 a9ae 1b3c 6b85 133a a5ba 09ba
000000b0: 6128 e73b 47fe 2f3c 1f4e 0c3a 1765 113c
000000c0: a018 aa3b b755 3f3c 2fe6 c13b f300 f6bb
000000d0: 26cb 92bb 3022 ea39 d883 fbbb 4c74 0c3b
000000e0: 5b4b 193b 9977 81ba e731 74bb e5c5 39bc
000000f0: af77 d4bb c469 e2bb f056 dd3b 33a5 1c3c
00000100: d60e edbb 3734 d4bb c0ad c13b 3c2d 173a
00000110: 1b5f 81ba 94bf ac3b 1efc 483b d6ec a8bb
00000120: 9224 b13b 82e3 af3a 9e77 473b 8f14 2abc
00000130: eb7a 95bb 878c d43b 186c 4b3b a3fa 35bc
00000140: 6a51 f9b8 7370 563b 45af 353b a34d 94ba
00000150: 962e 54ba 4f80 0aba 0dce ebba 8b83 a73b
00000160: 5a61 93b9 d36f 2c3b 4acb 963b

base.mlp.fc1.0.weight f4 [64, 91]
0.06315211 0.13670139 -0.036261413 -0.12001744 -0.18336341 0.14993706 -0.21303996 -0.17227112
0.06651503 0.0059264987 -0.07203925 -0.034380432 -0.079462156 0.029018655 -0.10638701 -0.01829248
-0.11829706 -0.1530717 0.06662276 0.07153657 0.025274295 -0.104167186 0.038885772 -0.009265269
-0.19119403 0.451578 0.10247295 -0.08918484 -0.056852847 -0.23792739 0.0698031 0.04218266
0.23286323 0.23634683 -0.041710347 0.08970428 -0.010371722 -0.12728171 0.10336837 0.32431954
-0.2096005 0.18131939 -0.04040361 -0.21816994 -0.076106384 0.039625555 -0.24073966 -0.11064871
-0.09769632 -0.13965377 0.37171614 0.29886723 -0.11329246 -0.05828521 -0.16563706 0.1546937
0.021128748 0.3097032 0.042504206 -0.21623756 0.11764958 0.24896993 0.1624322 -0.2311907
-0.08851146 0.19769923 0.1406046 -0.15011156 -0.21378785 0.30808553 0.15580542 -0.039699253
-0.1931133 0.10749929 0.07851765 -0.08833655 -0.08916444 -0.21770507 -0.09364364 -0.012199795
-0.46531793 0.42451102 0.10327707 0.07267085 0.24243087 0.24466091 0.3763537 -0.10937629
0.026110845 -0.24052085 -0.011154958 0.04748521 -0.16366982 -0.03237846 -0.06516039 0.121665105
-0.091802575 0.22410461 -0.058565456 -0.14162166 0.38600588 0.21210332 -0.28814724 -0.12587434
0.13909614 0.22070193 0.22038276 0.028497046 -0.120640114 0.27252206 -0.117122725 -0.064633176
0.19123177 0.1567405 -0.045498624 -0.11927766 0.008762958 0.112089634 -0.121169396 -0.115150385
-0.20660767 -0.2603722 -0.32988688 0.0016711428 -0.29770738 0.34955066 0.2627228 -0.1851757
-0.24688013 0.044374283 0.03327657 0.34108227 -0.0108197685 -0.2279778 -0.0641011 0.08673647
0.08006059 -0.061132655 -0.39037704 -0.100301184 -0.03738785 0.046805568 0.21151425 0.030368121
0.24917294 0.058166433 0.17413354 -0.15882261 0.50553954 -0.028364358 -0.21540509 0.06194445
-0.08770515 -0.31833264 -0.011519289 0.16063485 -0.11351054 -0.085174054 -0.17458792 0.08677301
-0.039574273 -0.03423467 -0.008382197 0.0826002 -0.34988907 -0.087655365 0.16182387 0.10000833
-0.11626177 0.20079586 0.066042215 0.097988404 -0.12022916 -0.0015412123 -0.021969061 0.062125277
-0.16238691 0.055503875 -0.15495344 -0.24604107 -0.06505321 0.18030353 0.03656143 -0.11748313
0.31745547 0.21263276 0.18044895 -0.13460054 -0.0192344 0.044000007 -0.06955822 0.114746
-0.025263134 0.27230045 -0.07199609 -0.13081357 -0.03898613 -0.29322237 0.23717315 0.005600553
0.022194784 0.26651537 0.026979154 0.021967504 -0.021284096 -0.1710763 0.25630593 -0.07682445
0.11151393 0.114458226 -0.02634321 -0.20428695 -0.111897334 0.34642208 0.08953425 -0.052783396
-0.04913121 0.10872066 0.08332259 0.08802628 0.0044529564 -0.20221025 0.13755916 0.12977216
0.08588665 -0.046033237 0.25760674 -0.29051378 0.060957663 0.16515629 0.16056061 0.022248713
0.11182713 0.11735173 0.06278108 -0.05164785 -0.051245302 -0.32184947 -0.11555481 0.53828734
0.20593508 -0.15671313 0.044998292 -0.0748895 0.22670038 -0.34431708 -0.18464789 -0.23816098
0.3237264 -0.05959761 -0.12407213 0.093886994 0.12785526 0.18039493 0.026600875 0.06792642
00000000: e555 813d 73fb 0b3e d986 14bd b4cb f5bd
00000010: 9ec3 3bbe 1a89 193e 2627 5abe d767 30be
00000020: 0839 883d 1333 c23b 5089 93bd 7fd2 0cbd
00000030: 0ebd a2bd 88b8 ed3c 6fe1 d9bd 1cda 95bc
00000040: bb45 f2bd d4be 1cbe 8371 883d c481 923d
00000050: 0a0c cf3c 9b55 d5bd b046 1f3d 5bcd 17bc
00000060: 5ec8 43be 3b35 e73e 57dd d13d 8ba6 b6bd
00000070: 88de 68bd 3da3 73be edf4 8e3d bac7 2c3d
00000080: b373 6e3e e704 723e 78d8 2abd e1b6 b73d
00000090: 28ee 29bc 2356 02be ccb2 d33d 360d a63e
000000a0: 83a1 56be caab 393e 417e 25bd f167 5fbe
000000b0: aadd 9bbd 684e 223d 7584 76be ca9b e2bd
000000c0: 0215 c8bd 6601 0fbe 9451 be3e 2005 993e
000000d0: e105 e8bd 79bc 6ebd c39c 29be 0668 1e3e
000000e0: 3216 ad3c 6b91 9e3e e418 2e3d 616d 5dbe
000000f0: 43f2 f03d f9f1 7e3e a054 263e 41bd 6cbe
00000100: 7f45 b5bd ab71 4a3e a7fa 0f3e d8b6 19be
00000110: 34eb 5abe 63bd 9d3e 758b 1f3e af9b 22bd
00000120: 7ebf 45be 9628 dc3d ddcd a03d cbe9 b4bd
00000130: d99b b6bd 14ee 5ebe 3dc8 bfbd a6e1 47bc
00000140: 273e eebe 8259 d93e ee82 d33d 74d4 943d
00000150: cc3f 783e 6488 7a3e 6fb1 c03e ad00 e0bd
00000160: 69e6 d53c 194b 76be 49c3 36bc da7f 423d
00000170: 1099 27be 479f 04bd d072 85bd 8e2b f93d
00000180: fd02 bcbd ae7b 653e 55e2 6fbd 4505 11be
00000190: 90a2 c53e 9d31 593e 0988 93be 34e5 00be
000001a0: 386f 0e3e b0ff 613e 05ac 613e a372 e93c
000001b0: 2a12 f7bd 0388 8b3e 0ade efbd 665e 84bd
000001c0: 43d2 433e 9580 203e c45c 3abd d947 f4bd
000001d0: 8392 0f3c 408f e53d a927 f8bd f7d3 ebbd
000001e0: f690 53be 814f 85be efe6 a8be 3f0a db3a
000001f0: 1a6d 98be 4ef8 b23e 9a83 863e b39e 3dbe
00000200: 25ce 7cbe cfc1 353d 034d 083d 56a2 ae3e
00000210: 6645 31bc 0373 69be 7047 83bd e4a2 b13d
00000220: cef6 a33d 3c66 7abd 80df c7be b56a cdbd
00000230: 0124 19bd 32b7 3f3d 3197 583e 91c6 f83c
00000240: 3127 7f3e ed3f 6e3d 1050 323e 65a2 22be
00000250: 0a6b 013f 5f5c e8bc 2793 5cbe 77b9 7d3d
00000260: c29e b3bd 7ffc a2be 66bb 3cbc 767d 243e
00000270: 3778 e8bd bc6f aebd 2dc7 32be 0cb6 b13d
00000280: a218 22bd a739 0cbd 7b55 09bc 4b2a a93d
00000290: a924 b3be a884 b3bd 28b5 253e 2bd1 cc3d
000002a0: a71a eebd 6e9d 4d3e 2441 873d 25ae c83d
000002b0: b53a f6bd 8102 caba 76f8 b3bc 1377 7e3d
000002c0: c148 26be 0858 633d 1dac 1ebe 31f2 7bbe
000002d0: 9e3a 85bd 7da1 383e 70c1 153d ff9a f0bd
000002e0: 8689 a23e 67bc 593e 9cc7 383e b9d4 09be
000002f0: 7691 9dbc 5a39 343d 8a74 8ebd f3ff ea3d
00000300: a2f4 cebc f76a 8b3e b072 93bd fef3 05be
00000310: ecaf 1fbd 3e21 96be 85dd 723e d884 b73b
00000320: d6d1 b53c b474 883e 6303 dd3c 32f5 b33c
00000330: fc5b aebc a02e 2fbe 883a 833e 2356 9dbd
00000340: 6a61 e43d 1369 ea3d b7cd d7bc 9930 51be
00000350: 6e2a e5bd 3c5e b13e bc5d b73d 6733 58bd
00000360: cf3d 49bd f0a8 de3d 09a5 aa3d 1f47 b43d
00000370: 1bea 913b 3410 4fbe 4fdc 0c3e fee2 043e
00000380: 57e5 af3d 598d 3cbd 08e5 833e 39be 94be
00000390: beae 793d bb1e 293e 006a 243e ef42 b63c
000003a0: 9f05 e53d 1b56 f03d 5e93 803d b28c 53bd
000003b0: 98e6 51bd 74c9 a4be 00a8 ecbd 33cd 093f
000003c0: a5e0 523e 6879 20be 2150 383d ab5f 99bd
000003d0: 2524 683e 544a b0be 5614 3dbe 79e0 73be
000003e0: 77bf a53e a01c 74bd 8719 febd d347 c03d
000003f0: 7dec 023e 73b9 383e 14ea d93c 021d 8b3d

base.mlp.fc1.0.bias f4 [64]
0.0047555147 -0.0058751316 0.0067133377 -0.00228493 -0.00024067504 -0.010284152 0.00075454573 -0.0032305303
-1.0917578e-05 0.0012842969 0.0045143683 -0.005427474 0.007804091 -0.006160017 -0.00030752635 0.0012118159
0.002280763 -0.005307288 0.0071361014 0.0032586385 0.008177133 -0.00392449 0.009465909 -0.0010076183
0.0021038842 -0.0050387033 -0.008094941 0.0019752423 0.00011877531 -0.002166174 -0.0031626287 0.00022154622
-0.0041695987 -0.00028283143 0.012192337 -0.0015720339 0.0008624378 -0.0078248745 0.0025498318 -7.89802e-05
0.0011352346 -0.0057734414 0.002543552 0.0026369595 -0.008104836 5.059212e-05 -0.0008848952 -0.008235948
0.0031289458 0.0007128754 -0.00117481 0.0034708919 0.0067380373 0.006558775 0.005436604 -0.00096043426
-0.0047187023 0.0030223476 -0.0037731838 -0.00792422 -0.0067505753 0.0016016819 -0.009694593 -0.0028580464
00000000: 26d4 9b3b 2d84 c0bb 8ffb db3b c4be 15bb
00000010: b75d 7cb9 dc7e 28bc b5cc 453a 4eb7 53bb
00000020: a42a 37b7 da55 a83a 44ed 933b f4d8 b1bb
00000030: 76b9 ff3b f8d9 c9bb 7d3b a1b9 cbd5 9e3a
00000040: da78 153b c2e8 adbb f5d5 e93b e28e 553b
00000050: 62f9 053c 0299 80bb e616 1b3c 0f12 84ba
00000060: 52e1 093b b51b a5bb a5a0 04bc 1173 013b
00000070: 0217 f938 5ef6 0dbb 1b44 4fbb dc4e 6839
00000080: 21a1 88bb fe48 94b9 5ec2 473c b40c ceba
00000090: 3915 623a e733 00bc 141b 273b 2ca2 a5b8
000000a0: 27cc 943a 232f bdbb b9b1 263b d7d0 2c3b
000000b0: 25ca 04bc e032 5438 50f8 67ba 12f0 06bc
000000c0: 000f 4d3b 42e0 3a3a 15fc 99ba e777 633b
000000d0: c1ca dc3b feea d63b 8a25 b23b a7c5 7bba
000000e0: 589f 9abb 9412 463b 8547 77bb 96d4 01bc
000000f0: ee33 ddbb 87ef d13a 12d6 1ebc 104e 3bbb

base.mlp.fc1.2.weight f4 [64]
1.0049644 1.001433 0.9914393 1.0033226 0.99700195 0.99382997 1.0004947 0.99611825
0.99576354 1.0072249 0.989649 1.0013423 1.0082886 1.0071204 1.002375 0.99902856
0.99368757 0.9890029 0.99494976 0.99745274 1.0086973 1.0062785 0.98791564 0.9965744
0.9955796 0.99623716 1.0034628 1.0007706 0.99587715 1.0022675 0.9991799 0.9995829
1.0031326 0.9943661 1.0063987 0.99969995 0.99990726 0.998988 0.9922874 1.0073384
0.997817 0.9950532 1.009078 0.999517 1.0004134 1.006195 1.0099221 1.0068991
0.99653536 0.9992792 0.9974906 1.0052575 0.9891801 1.0069718 1.0085906 0.9993017
0.9993655 0.99420136 0.9965777 0.99438256 1.0064235 0.999652 0.99894774 0.99706197
00000000: aca2 803f f52e 803f f7ce 7d3f e06c 803f
00000010: 853b 7f3f a46b 7e3f 3610 803f 9b01 7f3f
00000020: 5cea 7e3f bfec 803f a359 7d3f fc2b 803f
00000030: 9a0f 813f 52e9 803f d34d 803f 56c0 7f3f
00000040: 4f62 7e3f 4b2f 7d3f 07b5 7e3f 1059 7f3f
00000050: fe1c 813f bccd 803f 0ae8 7c3f 801f 7f3f
00000060: 4ede 7e3f 6609 7f3f 7871 803f 4019 803f
00000070: cef1 7e3f 4d4a 803f 41ca 7f3f aae4 7f3f
00000080: a666 803f c78e 7e3f acd1 803f 56ec 7f3f
00000090: ecf9 7f3f adbd 7f3f 8c06 7e3f 77f0 803f
000000a0: ef70 7f3f cebb 7e3f 7829 813f 59e0 7f3f
000000b0: 8c0d 803f ffca 803f 2145 813f 12e2 803f
000000c0: f11c 7f3f c3d0 7f3f 8b5b 7f3f 47ac 803f
000000d0: e83a 7d3f 74e4 803f 7f19 813f 3cd2 7f3f
000000e0: 6bd6 7f3f fb83 7e3f b71f 7f3f db8f 7e3f
000000f0: 7cd2 803f 32e9 7f3f 0abb 7f3f 743f 7f3f

base.mlp.fc1.2.bias f4 [64]
0.0049567763 -0.0041710697 0.008287058 -0.0033767396 -0.00038592028 -0.007869134 0.00024822698 -0.0037894642
0.004220865 0.0060427235 0.008245284 -0.0015880828 0.008340944 -0.007114071 0.0023780714 0.0018983311
0.006267949 -0.0047518034 0.0054243444 0.0024071594 0.008581454 -0.0062459293 0.011970756 -0.0007061643
0.0041777827 -0.0040333862 -0.005017608 0.00094614126 0.004127768 -0.0008173094 -0.001182728 -0.0003917112
0.00249627 0.0003921043 0.013090714 0.00022848426 0.0007149322 -0.0017910424 0.00036719802 -0.0010374894
-0.0010180906 -0.005420023 0.007974449 0.00085926475 -0.0011236361 0.006127581 0.002015979 -0.007933324
0.0036007683 -0.0005481005 -0.0025209873 0.0052082934 0.010850104 0.006954315 0.008492432 -0.0018897456
-0.0024756365 0.0057213726 -0.0033413272 -0.0059780963 -0.006516195 0.00056629017 -0.0031490598 -0.0027206822
00000000: 746c a23b 78ad 88bb 71c6 073c 4a4c 5dbb
00000010: 5855 cab9 8aed 00bc 7624 8239 a958 78bb
00000020: 2f4f 8a3b 0a02 c63b 3a17 073c 3727 d0ba
00000030: 74a8 083c 271d e9bb 6bd9 1b3b 6cd1 f83a
00000040: 5e63 cd3b 04b5 9bbb b3be b13b 6fc1 1d3b
00000050: 3a99 0c3c a7aa ccbb fd20 443c e21d 39ba
00000060: c8e5 883b 7f2a 84bb bf6a a4bb 7706 783a
00000070: 3a42 873b b540 56ba c405 9bba 965e cdb9
00000080: 7698 233b 5993 cd39 6f7a 563c 4795 6f39
00000090: 4a6a 3b3a 69c1 eaba 7c84 c039 5efc 87ba
000000a0: 7471 85ba 739a b1bb 43a7 023c 4840 613a
000000b0: f946 93ba e0c9 c83b 841e 043b c6fa 01bc
000000c0: defa 6b3b 67ae 0fba 2637 25bb 55aa aa3b
000000d0: a2c4 313c 06e1 e33b d723 0b3c 57b1 f7ba
000000e0: 4a3e 22bb 5a7a bb3b 2bfa 5abb e8e3 c3bb
000000f0: ce85 d5bb 1773 143a 7560 4ebb 794d 32bb

base.mlp.fc_h.0.weight f4 [64, 64]
0.0653698 -0.0009946296 0.1109811 -0.10657542 -0.06793037 -0.430319 0.06546122 0.0135309
-0.40569228 0.10214876 0.10283698 0.28833777 -0.21610992 0.3774704 0.13338411 0.4098967
0.023812952 -0.20986043 0.17426448 0.2046124 -0.16824523 0.20473877 0.10792373 -0.17749617
-0.04031487 0.03762425 -0.004585409 -0.24052516 -0.117000975 -0.4261859 -0.03722738 -0.13426307
-0.029370306 -0.44051483 -0.06675823 -0.22015089 0.0007228316 0.17088145 0.38715005 0.3001411
0.21167071 -0.1701056 -0.16318904 -0.05691998 -0.5158353 -0.24654251 -0.33688357 -0.116549656
-0.27069566 0.19434057 0.22715342 -0.16690941 0.090197355 -0.046969622 0.068909 -0.25513864
-0.034774516 0.034861512 0.107019044 -0.0074563012 -0.015005595 -0.01337488 -0.21524452 -0.0073045846
0.004039687 0.018215377 -0.093741216 -0.067006774 0.27218696 -0.3307622 0.3252597 0.008223422
0.13358782 -0.22390656 0.045338746 -0.09100443 0.01769555 0.21441744 0.767479 -0.1468203
0.042124562 0.20617773 0.08813831 -0.082853 -0.13090323 0.1470696 0.06316461 0.091366604
-0.015031566 -0.14513442 -0.22951522 0.4087166 0.306203 -0.0026207396 0.11203105 -0.10172655
0.3064786 -0.10648525 -0.03888169 0.12966722 0.12787509 -0.20715429 -0.19724935 -0.10718528
0.15178563 -0.020499634 0.2494308 -0.2959274 -0.3371089 -0.24109386 -0.16037844 0.085706435
0.060012195 -0.20431472 -0.16124482 0.113856405 0.027126914 0.037299436 0.13855436 0.05433088
-0.0180838 0.13284288 -0.005486766 -0.4797084 0.15059406 -0.30583844 0.39616144 0.17523351
-0.106998645 0.11449825 0.30641058 -0.07037807 0.12398618 0.547195 -0.36839578 -0.060506113
0.15304236 -0.006549574 -0.32336906 0.4669638 -0.21158086 0.24051884 0.05495595 -0.025315873
0.027069423 -0.13125831 0.056143675 -0.10440186 0.106610306 0.10408925 0.14391573 -0.072177075
-0.13074856 -0.050605386 -0.37444937 0.0761288 0.29833293 0.11904588 -0.32107213 0.13500796
-0.07328155 -0.055111818 0.3710528 0.025891291 0.22826219 0.23743649 0.06499791 0.14153616
0.30812484 0.24148436 0.27459845 0.17946286 0.050716765 -0.22238643 0.18111655 0.107749775
-0.37522522 -0.0009303338 -0.23965545 0.15642378 -0.2518257 0.0045095272 0.3342262 -0.12626393
-0.17315814 -0.21236543 -0.1625957 -0.18279752 0.11756499 -0.10939399 -0.25440937 -0.038977787
0.021825342 0.07640773 -0.22712824 0.3543653 0.059376873 0.16701673 -0.037406575 0.35481295
0.004395503 0.063727416 -0.008471375 -0.29062343 0.15006277 0.40940407 0.1990918 -0.15753198
0.005498256 -0.009135748 0.3806119 -0.010814566 -0.082354024 0.4683512 -0.20649704 -0.087037094
-0.064480364 -0.29700214 -0.09987182 -0.29083458 -0.056810305 -0.15119255 -0.37412438 0.41311327
0.11148157 0.25462046 -0.014577666 -0.347591 0.18344167 0.027798764 0.23916923 -0.09823386
-0.20150584 -0.4273692 0.15923926 -0.08845755 0.32892305 -0.100919314 0.16531324 -0.11552408
-0.007768034 0.109907694 -0.1902359 -0.107435696 -0.034560077 0.19835123 -0.07220763 -0.0007846812
0.057883218 0.15521318 0.27155215 0.104744256 -0.36743826 -0.25234297 0.018589757 -0.12425645
00000000: 9ae0 853d 3b5e 82ba 0f4a e33d 3744 dabd
00000010: 141f 8bbd c652 dcbe 8810 863d b5b0 5d3c
00000020: e6b6 cfbe 5e33 d13d 329c d23d 02a1 933e
00000030: eb4b 5dbe cd43 c13e d895 083e fbdd d13e
00000040: 6113 c33c a7e5 56be 6372 323e ea85 513e
00000050: 7a48 2cbe 0aa7 513e 1e07 dd3d 8ec1 35be
00000060: 3521 25bd e31b 1a3d 3341 96bb 3a4c 76be
00000070: 359e efbd 0a35 dabe bd7b 18bd 427c 09be
00000080: ff99 f0bc 298b e1be 8ab8 88bd 3c6f 61be
00000090: 687c 3d3a 8cfb 2e3e 8838 c63e 18ac 993e
000000a0: 35c0 583e 2a30 2ebe 071b 27be ed24 69bd
000000b0: c80d 04bf a475 7cbe 017c acbe 96b1 eebd
000000c0: 9f98 8abe 3701 473e e89a 683e 4dea 2abe
000000d0: 64b9 b83d 3863 40bd 2920 8d3d 88a1 82be
000000e0: b96f 0ebd f2ca 0e3d cd2c db3d fd53 f4bb
000000f0: 07da 75bc 5022 5bbc 0f69 5cbe 4c5b efbb
00000100: 5a5f 843b 6a38 953c 65fb bfbd d93a 89bd
00000110: 175c 8b3e aa59 a9be 7088 a63e 88bb 063c
00000120: 3fcb 083e c347 65be 1fb5 393d 8860 babd
00000130: 42f6 903c 3f90 5b3e 8179 443f 1058 16be
00000140: ce8a 2c3d 4120 533e dc81 b43d d5ae a9bd
00000150: 7f0b 06be 6a99 163e 725c 813d 6a1e bb3d
00000160: f546 76bc 1e9e 14be 0a06 6bbe 4d43 d13e
00000170: a4c6 9c3e b7c0 2bbb 8970 e53d 0256 d0bd
00000180: c3ea 9c3e f014 dabd 6842 1fbd 7cc7 043e
00000190: b0f1 023e 4120 54be bcfb 49be f583 dbbd
000001a0: b16d 1b3e d9ee a7bc ca6a 7f3e cc83 97be
000001b0: 8a99 acbe 4fe1 76be 3f3a 24be db86 af3d
000001c0: 59cf 753d e137 51be 5d1d 25be 8c2d e93d
000001d0: 4339 de3c 4bc7 183d 32e1 0d3e 0f8a 5e3d
000001e0: 7a24 94bc f707 083e 54ca b3bb 579c f5be
000001f0: 5435 1a3e db96 9cbe acd5 ca3e 6a70 333e
00000200: 1b22 dbbd 0f7e ea3d d9e1 9c3e 6122 90bd
00000210: 77ec fd3d f914 0c3f 5f9e bcbe 42d5 77bd
00000220: 23b7 1c3e cf9d d6bb a190 a5be e115 ef3e
00000230: a7a8 58be 924a 763e 7d19 613d 3c63 cfbc
00000240: b2c0 dd3c 9468 06be e9f6 653d a4d0 d5bd
00000250: 8156 da3d bf2c d53d a55e 133e 93d1 93bd
00000260: f3e2 05be 9847 4fbd d4b7 bfbe 6be9 9b3d
00000270: 18bf 983e 54ce f33d 9163 a4be 873f 0a3e
00000280: a314 96bd eebc 61bd a2fa bd3e f919 d43c
00000290: 90bd 693e 8d22 733e a01d 853d dbee 103e
000002a0: 8ac2 9d3e ad47 773e 2b98 8c3e 1dc5 373e
000002b0: 62bc 4f3d 45b9 63be 9e76 393e eaab dc3d
000002c0: 851d c0be a5e1 73ba 3d68 75be 8e2d 203e
000002d0: 4cef 80be a8c4 933b b21f ab3e 554b 01be
000002e0: 5e50 31be 5376 59be 7d7f 26be 462f 3bbe
000002f0: eac5 f03d f509 e0bd f241 82be 2ca7 1fbd
00000300: 0fcb b23c a87b 9c3d 4e94 68be 5e6f b53e
00000310: 2a35 733d 6f06 2b3e a337 19bd 0baa b53e
00000320: 2708 903b 8583 823d 86cb 0abc 98cc 94be
00000330: 0eaa 193e 699d d13e b9de 4b3e 1050 21be
00000340: b72a b43b 1bae 15bc 90df c23e 942f 31bc
00000350: 3aa9 a8bd bacb ef3e f673 53be 8140 b2bd
00000360: 480e 84bd aa10 98be 9989 ccbd 45e8 94be
00000370: ecb1 68bd 38d2 1abe 3b8d bfbe 9583 d33e
00000380: 7350 e43d 9d5d 823e 2ad7 6ebc 73f7 b1be
00000390: 22d8 3b3e 3cba e33c c7e8 743e d62e c9bd
000003a0: 8c57 4ebe 23d0 dabe 9e0f 233e 3b29 b5bd
000003b0: 9a68 a83e c9ae cebd e047 293e e497 ecbd
000003c0: fe8a febb 4917 e13d 33cd 42be 3f07 dcbd
000003d0: de8e 0dbd 961c 4b3e 98e1 93bd 10b3 4dba
000003e0: f416 6d3d 34f0 1e3e e208 8b3e 2884 d63d
000003f0: de20 bcbe 1933 81be 8c49 983c 2a7a febd

base.mlp.fc_h.0.bias f4 [64]
0.0 0.0 0.0 0.0 0.0 0.0 0.0 0.0
0.0 0.0 0.0 0.0 0.0 0.0 0.0 0.0
0.0 0.0 0.0 0.0 0.0 0.0 0.0 0.0
0.0 0.0 0.0 0.0 0.0 0.0 0.0 0.0
0.0 0.0 0.0 0.0 0.0 0.0 0.0 0.0
0.0 0.0 0.0 0.0 0.0 0.0 0.0 0.0
0.0 0.0 0.0 0.0 0.0 0.0 0.0 0.0
0.0 0.0 0.0 0.0 0.0 0.0 0.0 0.0
00000000: 0000 0000 0000 0000 0000 0000 0000 0000
00000010: 0000 0000 0000 0000 0000 0000 0000 0000
00000020: 0000 0000 0000 0000 0000 0000 0000 0000
00000030: 0000 0000 0000 0000 0000 0000 0000 0000
00000040: 0000 0000 0000 0000 0000 0000 0000 0000
00000050: 0000 0000 0000 0000 0000 0000 0000 0000
00000060: 0000 0000 0000 0000 0000 0000 0000 0000
00000070: 0000 0000 0000 0000 0000 0000 0000 0000
00000080: 0000 0000 0000 0000 0000 0000 0000 0000
00000090: 0000 0000 0000 0000 0000 0000 0000 0000
000000a0: 0000 0000 0000 0000 0000 0000 0000 0000
000000b0: 0000 0000 0000 0000 0000 0000 0000 0000
000000c0: 0000 0000 0000 0000 0000 0000 0000 0000
000000d0: 0000 0000 0000 0000 0000 0000 0000 0000
000000e0: 0000 0000 0000 0000 0000 0000 0000 0000
000000f0: 0000 0000 0000 0000 0000 0000 0000 0000

base.mlp.fc_h.2.weight f4 [64]
1.0 1.0 1.0 1.0 1.0 1.0 1.0 1.0
1.0 1.0 1.0 1.0 1.0 1.0 1.0 1.0
1.0 1.0 1.0 1.0 1.0 1.0 1.0 1.0
1.0 1.0 1.0 1.0 1.0 1.0 1.0 1.0
1.0 1.0 1.0 1.0 1.0 1.0 1.0 1.0
1.0 1.0 1.0 1.0 1.0 1.0 1.0 1.0
1.0 1.0 1.0 1.0 1.0 1.0 1.0 1.0
1.0 1.0 1.0 1.0 1.0 1.0 1.0 1.0
00000000: 0000 803f 0000 803f 0000 803f 0000 803f
00000010: 0000 803f 0000 803f 0000 803f 0000 803f
00000020: 0000 803f 0000 803f 0000 803f 0000 803f
00000030: 0000 803f 0000 803f 0000 803f 0000 803f
00000040: 0000 803f 0000 803f 0000 803f 0000 803f
00000050: 0000 803f 0000 803f 0000 803f 0000 803f
00000060: 0000 803f 0000 803f 0000 803f 0000 803f
00000070: 0000 803f 0000 803f 0000 803f 0000 803f
00000080: 0000 803f 0000 803f 0000 803f 0000 803f
00000090: 0000 803f 0000 803f 0000 803f 0000 803f
000000a0: 0000 803f 0000 803f 0000 803f 0000 803f
000000b0: 0000 803f 0000 803f 0000 803f 0000 803f
000000c0: 0000 803f 0000 803f 0000 803f 0000 803f
000000d0: 0000 803f 0000 803f 0000 803f 0000 803f
000000e0: 0000 803f 0000 803f 0000 803f 0000 803f
000000f0: 0000 803f 0000 803f 0000 803f 0000 803f

base.mlp.fc_h.2.bias f4 [64]
0.0 0.0 0.0 0.0 0.0 0.0 0.0 0.0
0.0 0.0 0.0 0.0 0.0 0.0 0.0 0.0
0.0 0.0 0.0 0.0 0.0 0.0 0.0 0.0
0.0 0.0 0.0 0.0 0.0 0.0 0.0 0.0
0.0 0.0 0.0 0.0 0.0 0.0 0.0 0.0
0.0 0.0 0.0 0.0 0.0 0.0 0.0 0.0
0.0 0.0 0.0 0.0 0.0 0.0 0.0 0.0
0.0 0.0 0.0 0.0 0.0 0.0 0.0 0.0
00000000: 0000 0000 0000 0000 0000 0000 0000 0000
00000010: 0000 0000 0000 0000 0000 0000 0000 0000
00000020: 0000 0000 0000 0000 0000 0000 0000 0000
00000030: 0000 0000 0000 0000 0000 0000 0000 0000
00000040: 0000 0000 0000 0000 0000 0000 0000 0000
00000050: 0000 0000 0000 0000 0000 0000 0000 0000
00000060: 0000 0000 0000 0000 0000 0000 0000 0000
00000070: 0000 0000 0000 0000 0000 0000 0000 0000
00000080: 0000 0000 0000 0000 0000 0000 0000 0000
00000090: 0000 0000 0000 0000 0000 0000 0000 0000
000000a0: 0000 0000 0000 0000 0000 0000 0000 0000
000000b0: 0000 0000 0000 0000 0000 0000 0000 0000
000000c0: 0000 0000 0000 0000 0000 0000 0000 0000
000000d0: 0000 0000 0000 0000 0000 0000 0000 0000
000000e0: 0000 0000 0000 0000 0000 0000 0000 0000
000000f0: 0000 0000 0000 0000 0000 0000 0000 0000

base.mlp.fc2.0.0.weight f4 [64, 64]
0.07185951 0.00396743 0.10442406 -0.113273874 -0.07203066 -0.4344225 0.05812978 0.02002123
-0.41233397 0.1080494 0.09623998 0.28185073 -0.20954908 0.370774 0.13993238 0.41722947
0.017125957 -0.20603678 0.16874658 0.19817653 -0.1614385 0.19802415 0.10127171 -0.17575517
-0.047015987 0.03359254 -0.009980983 -0.23380509 -0.12368816 -0.43076447 -0.031099746 -0.12773198
-0.03175483 -0.43343633 -0.06028294 -0.22683306 -0.005763676 0.17706782 0.39370754 0.30616298
0.21800978 -0.17394646 -0.15678683 -0.062425405 -0.5116141 -0.23996402 -0.33036974 -0.122909695
-0.2743701 0.20242189 0.23365277 -0.16032115 0.083537735 -0.040819332 0.0754848 -0.26158613
-0.035959963 0.028213965 0.11203536 -0.0010728672 -0.021381523 -0.020014182 -0.21016966 -0.00093339663
0.0046564285 0.019188214 -0.09423053 -0.06759771 0.27316493 -0.3275497 0.32698074 0.008910806
0.13292892 -0.22345167 0.045369655 -0.09185601 0.018346317 0.21384099 0.76814574 -0.14760385
0.041543037 0.21802199 0.087165624 -0.0834531 -0.1307753 0.14647016 0.06263448 0.0893899
-0.015286196 -0.1434446 -0.23086797 0.40898284 0.30564344 -0.0029834036 0.11275418 -0.101071395
0.30761135 -0.107295945 -0.042808473 0.12907995 0.12902789 -0.20637311 -0.1987678 -0.10857545
0.14712602 -0.026984826 0.24960673 -0.29700133 -0.3358926 -0.24044158 -0.16574563 0.08957014
0.05882394 -0.20808794 -0.16059172 0.11450562 0.0265264 0.03815449 0.13919555 0.05589219
-0.0163091 0.13223334 -0.0039773067 -0.47977373 0.14983158 -0.30607387 0.39698422 0.17552778
-0.108735904 0.12009616 0.30690974 -0.06880609 0.12809043 0.5454976 -0.367993 -0.06238151
0.15459388 -0.009685309 -0.32249674 0.46833244 -0.21333633 0.24199519 0.05315484 -0.024276031
0.028665893 -0.1274039 0.05886749 -0.102813795 0.105410494 0.105656765 0.14538571 -0.07598757
-0.12935865 -0.049114157 -0.37249526 0.07450869 0.29991275 0.12603317 -0.32301822 0.13315263
-0.080940396 -0.056274183 0.37865943 0.027446153 0.22995013 0.23508263 0.07011019 0.1534508
0.3065719 0.24004252 0.2722486 0.17949453 0.047226876 -0.22421421 0.18148312 0.105813116
-0.3728134 0.005322923 -0.24149804 0.15462007 -0.25027838 0.0022420187 0.33239913 -0.13072681
-0.17911267 -0.21075827 -0.16393264 -0.1837739 0.11935464 -0.107948825 -0.25846505 -0.037447285
0.027322708 0.077079944 -0.23197141 0.34859478 0.05623511 0.1739873 -0.042761523 0.36061504
-0.0014447521 0.06850983 -0.013764082 -0.29655787 0.15580194 0.40371937 0.20481569 -0.15345019
-0.00026681126 -0.006962819 0.37412834 -0.016296081 -0.07717776 0.4625617 -0.21221702 -0.091713704
-0.070338175 -0.29421034 -0.10612698 -0.2851737 -0.06253107 -0.15546353 -0.36814877 0.4188785
0.11144308 0.26111388 -0.020686626 -0.35331193 0.17758554 0.033791542 0.2319847 -0.1046434
-0.19878662 -0.41916135 0.1645638 -0.09324571 0.3357958 -0.09517064 0.16611072 -0.10675405
-0.013990773 0.10538385 -0.18451324 -0.10168573 -0.04030161 0.20425639 -0.06646491 0.006324575
0.06506861 0.14939292 0.27693605 0.110066235 -0.37341034 -0.2579955 0.024532784 -0.12152901
00000000: 142b 933d 3701 823b 48dc d53d 22fc e7bd
00000010: d084 93bd a06c debe 7e19 6e3d 9003 a43c
00000020: 701d d3be 0149 dd3d 7719 c53d bd4e 903e
00000030: 0994 56be 17d6 bd3e 6f4a 0f3e 1a9f d53e
00000040: bc4b 8c3c 4efb 52be e7cb 2c3e caee 4a3e
00000050: 2250 25be d8c6 4a3e 8b67 cf3d 2af9 33be
00000060: d693 40bd 5598 093d 4787 23bc 9a6a 6fbe
00000070: 3850 fdbd 298d dcbe e5c4 febc 2ccc 02be
00000080: 5a11 02bd 5eeb ddbe 3eeb 76bd ed46 68be
00000090: 38dd bcbb 4451 353e 0994 c93e 65c1 9c3e
000000a0: f53d 5f3e 051f 32be ba8c 20be c8b1 7fbd
000000b0: 24f9 02bf 21b9 75be 3926 a9be 14b8 fbbd
000000c0: 3d7a 8cbe af47 4f3e ac42 6f3e 3a2b 24be
000000d0: d515 ab3d 2c32 27bd c697 9a3d 9eee 85be
000000e0: c14a 13bd f920 e73c cb72 e53d 739f 8cba
000000f0: 4e28 afbc c8f4 a3bc b736 57be 30af 74ba
00000100: f494 983b 9a30 9d3c f0fb c0bd ab70 8abd
00000110: 46dc 8b3e 98b4 a7be 056a a73e a1fe 113c
00000120: 851e 083e 84d0 64be 88d5 393d 011f bcbd
00000130: 044b 963c 22f9 5a3e 33a5 443f 7725 17be
00000140: 0829 2a3d 2841 5f3e e483 b23d 75e9 aabd
00000150: f6e9 05be 46fc 153e 8246 803d 0d12 b73d
00000160: f472 7abc 24e3 12be a768 6cbe 3366 d13e
00000170: 4c7d 9c3e 3585 43bb aaeb e63d 85fe cebd
00000180: 3c7f 9d3e fabd dbbd f057 2fbd 892d 043e
00000190: e31f 043e 7953 53be c989 4bbe ce5c debd
000001a0: 34a8 163e 480f ddbc e898 7f3e 8f10 98be
000001b0: 1dfa abbe 5136 76be 39b9 29be 8d70 b73d
000001c0: 5ff1 703d 0115 55be 2872 24be ec81 ea3d
000001d0: e54d d93c e247 1c3d 4789 0e3e 36ef 643d
000001e0: a99a 85bc 2d68 073e 1154 82bb e7a4 f5be
000001f0: 736d 193e b7b5 9cbe 8441 cb3e 8ebd 333e
00000200: eeb0 debd faf4 f53d 4623 9d3e 35ea 8cbd
00000210: 232a 033e bba5 0b3f 9469 bcbe c183 7fbd
00000220: dc4d 1e3e 21af 1ebc 4b1e a5be 45c9 ef3e
00000230: d774 5abe 96cd 773e e4b8 593d 87de c6bc
00000240: bcd4 ea3c 2b76 02be 0a1f 713d 0a90 d2bd
00000250: 75e1 d73d 9362 d83d fedf 143e 5f9f 9bbd
00000260: 9876 04be ed2b 49bd b3b7 bebe 0398 983d
00000270: 2a8e 993e d70e 013e a562 a5be 2a59 083e
00000280: 14c4 a5bd c27f 66bd a6df c13e c1d6 e03c
00000290: 0c78 6b3e 80b9 703e ee95 8f3d 3522 1d3e
000002a0: fef6 9c3e b5cd 753e 2b64 8b3e 6acd 373e
000002b0: f870 413d 6998 65be b6d6 393e 8cb4 d83d
000002c0: 66e1 bebe ea6b ae3b 434b 77be b954 1e3e
000002d0: 7d24 80be d5ee 123b 3830 aa3e 40dd 05be
000002e0: 5069 37be 04d1 57be f5dd 27be 3a2f 3cbe
000002f0: 3570 f43d 4614 ddbd 8855 84be 5362 19bd
00000300: dfd3 df3c 17dc 9d3d ea89 6dbe 047b b23e
00000310: c956 663d ba29 323e b526 2fbd 89a2 b83e
00000320: d65d bdba e24e 8c3d bf82 61bc 6fd6 97be
00000330: 8b8a 1f3e 4eb4 ce3e 34bb 513e 0c22 1dbe
00000340: cde2 8bb9 5c28 e4bb c08d bf3e 5c7f 85bc
00000350: 600f 9ebd e3d4 ec3e 6b4f 59be 65d4 bbbd
00000360: 760d 90bd bda2 96be 1a59 d9bd 4a02 92be
00000370: 4a10 80bd d531 1fbe ff7d bcbe 3e77 d63e
00000380: 453c e43d b8b0 853e 0077 a9bc 4de5 b4be
00000390: fcd8 353e 0069 0a3d 668d 6d3e 474f d6bd
000003a0: b88e 4bbe 519c d6be 6a83 283e 9bf7 bebd
000003b0: 6ded ab3e d3e8 c2bd ee18 2a3e dea1 dabd
000003c0: 8e39 65bc 7dd3 d73d 0af1 3cbe 9c40 d0bd
000003d0: 4d13 25bd 9628 513e c11e 88bd 613e cf3b
000003e0: b142 853d 75fa 183e 90ca 8d3e 686a e13d
000003f0: a42f bfbe fc17 84be faf8 c83c 34e4 f8bd

base.mlp.fc2.0.0.bias f4 [64]
0.006308379 0.00056639645 -0.0016841928 0.005511845 0.0057883137 0.0026099829 -0.00041278164 -0.0012009769
0.009256272 0.007787025 0.00065976207 0.0014340408 0.0052388157 0.0010175152 0.005256091 0.006932878
0.009641212 0.0055922563 -0.006396069 0.0015394741 0.00083196576 -0.0016353641 0.004743506 -0.0035789965
0.006444365 0.0064622406 -0.0036327771 -0.0026662494 -0.0061850795 0.0029287543 -0.0065710545 0.0009883145
0.004471554 0.00054822164 0.0069211815 0.0012412964 0.003093504 0.002635803 0.0024646628 0.0027829485
0.002698708 -0.005935325 0.0032409308 -0.0019298164 0.001595929 -0.0042102626 -0.006777492 0.00016199973
0.0017917489 0.0054075224 -0.008738431 0.005297228 -0.004457569 -0.0010654355 0.0013477023 0.001251935
-0.0032800033 -0.006870886 0.00032636622 -0.0019149896 0.000508074 7.584974e-05 0.0017328039 -0.0049104313
00000000: 85b6 ce3b 397a 143a 22c0 dcba b59c b43b
00000010: e5ab bd3b 3f0c 2b3b 9d6a d8b9 196a 9dba
00000020: 9ea7 173c 4d2a ff3b e2f3 2c3a 6df6 bb3a
00000030: 5faa ab3b 255e 853a 493b ac3b 322d e33b
00000040: 2df6 1d3c 3f3f b73b 1e96 d1bb 2ec8 c93a
00000050: 4718 5a3a b759 d6ba 6a6f 9b3b 998d 6abb
00000060: 402b d33b 34c1 d33b e313 6ebb 3ebc 2ebb
00000070: 35ac cabb 58f0 3f3b 0052 d7bb 558a 813a
00000080: 1d86 923b 88b6 0f3a 14cb e23b ffb2 a23a
00000090: 63bc 4a3b 70bd 2c3b 2e86 213b 2162 363b
000000a0: cfdc 303b 1d7d c2bb cc65 543b e5f1 fcba
000000b0: 7e2e d13a 3ef6 89bb b915 debb 79de 2939
000000c0: 1ed9 ea3a 9631 b13b a32b 0fbc 5f94 ad3b
000000d0: cd10 92bb 15a6 8bba 63a5 b03a f817 a43a
000000e0: 53f5 56bb 2b25 e1bb 221c ab39 6300 fbba
000000f0: 4530 053a 8511 9f38 401f e33a afe7 a0bb

base.mlp.fc2.0.2.weight f4 [64]
1.0057474 1.0062155 1.0051334 1.0042843 1.0091596 1.0002278 1.0000237 1.0017004
1.0010641 1.0055361 0.9934369 1.0026238 1.0049552 1.0060958 0.99601674 0.9978028
1.0021327 1.0052388 1.0053685 1.0050575 1.0020689 1.0058393 1.0031017 0.998668
1.0047805 1.0055735 1.0059133 0.9979226 1.014346 1.0055577 1.005889 0.99935335
1.0038608 0.99257445 1.0051916 1.003682 0.9985336 1.0008004 1.0052065 0.9920025
0.99406964 1.0054371 1.0031079 1.0047832 1.002441 1.0061835 1.0070183 1.0055517
1.0002354 0.99903953 1.000672 1.004866 0.9999536 1.0072377 1.002444 0.99969685
1.0004275 1.0044965 0.9997765 1.005132 1.0041019 1.000628 1.0059487 1.0059483
00000000: 55bc 803f abcb 803f 36a8 803f 638c 803f
00000010: 242c 813f 7707 803f c700 803f b837 803f
00000020: de22 803f 68b5 803f e151 7e3f fa55 803f
00000030: 5fa2 803f bfc7 803f f4fa 7e3f 0170 7f3f
00000040: e245 803f aaab 803f eaaf 803f b9a5 803f
00000050: cb43 803f 58bf 803f a365 803f b5a8 7f3f
00000060: a69c 803f a2b6 803f c4c1 803f db77 7f3f
00000070: 17d6 813f 1db6 803f f9c0 803f 9fd5 7f3f
00000080: 837e 803f 5c19 7e3f 1eaa 803f a778 803f
00000090: e69f 7f3f 3a1a 803f 9baa 803f e0f3 7d3f
000000a0: 597b 7e3f 2ab2 803f d765 803f bc9c 803f
000000b0: fd4f 803f 9fca 803f fae5 803f ebb5 803f
000000c0: b707 803f 0ec1 7f3f 0516 803f 739f 803f
000000d0: f6fc 7f3f 2aed 803f 1650 803f 22ec 7f3f
000000e0: 020e 803f 5793 803f 5af1 7f3f 2aa8 803f
000000f0: 6986 803f 9414 803f edc2 803f eac2 803f

base.mlp.fc2.0.2.bias f4 [64]
-0.0054892027 -0.003378163 -0.0050349715 0.0044930293 0.006302729 -0.00052237406 0.00010392458 0.001764592
-0.0010602282 0.0057587675 -0.0007635303 0.0027808947 0.0050144065 -0.0058864625 -0.0017497443 0.0020789588
-0.0016279991 0.0053544934 -0.0061369534 0.0049409093 0.0020271244 -0.005736141 0.00336264 -0.0010129947
0.0048913043 0.005688129 -0.005918049 -0.0020102107 -0.008149421 0.0054625077 -0.006125959 -0.00064710504
0.0049135773 -0.0006807253 -0.004875991 0.00357626 -0.0010790895 -0.002660117 -0.0046170754 0.0035941207
0.001291582 -0.005969702 -0.0029768501 -0.0029157493 -0.0024700672 -0.0058028386 -0.0063540977 -0.005421944
0.001841801 0.0010247267 0.0005602511 0.0053678635 -0.0052945516 -0.001914807 0.0024680481 0.0028320865
0.00013263835 -0.0057896846 -0.0003316964 -0.0029036354 0.0038981051 0.0009290746 0.0056950725 -0.005816112
00000000: c5de b3bb 2c64 5dbb 67fc a4bb 433a 933b
00000010: 1f87 ce3b eeef 08ba 16f2 d938 e249 e73a
00000020: 5bf7 8aba 0bb4 bc3b a727 48ba ac3f 363b
00000030: e44f a43b 3ae3 c0bb ad57 e5ba 243f 083b
00000040: 9662 d5ba bf74 af3b 7f18 c9bb 5ae7 a13b
00000050: 81d9 043b 3df6 bbbb bd5f 5c3b 76c6 84ba
00000060: 3c47 a03b 7c63 ba3b 31ec c1bb bdbd 03bb
00000070: 2685 05bc d6fe b23b 45bc c8bb 7ca2 29ba
00000080: 1302 a13b b472 32ba c7c6 9fbb b05f 6a3b
00000090: 3c70 8dba 5c55 2ebb d64a 97bb 578b 6b3b
000000a0: 4d4a a93a 7d9d c3bb 4217 43bb 2816 3fbb
000000b0: dae0 21bb bd25 bebb 0936 d0bb 90aa b1bb
000000c0: 9668 f13a 1f50 863a d1dd 123a e7e4 af3b
000000d0: eb7d adbb 43fa faba fabe 213b 879a 393b
000000e0: d614 0b39 65b7 bdbb 8ae7 adb9 eb4a 3ebb
000000f0: 5a77 7f3b 248d 733a bb9d ba3b 1595 bebb

act.action_out.fc_mean.weight f4 [2, 64]
0.007797518 0.0021017294 0.0065032872 -0.0051457705 -0.0012254942 0.007160699 -0.0034862394 -0.004265619
0.0046848636 -0.0024312816 0.0010286918 -0.0032993797 -0.0043841237 0.0042136735 0.0011231863 0.0035663382
0.0053242855 -0.0028701345 0.0054119523 -0.0047792243 -0.0028618984 0.0033039632 -0.0040282845 -0.004662833
-0.0034803834 -0.0047290814 0.005217167 -0.001710662 -0.011543113 -0.0052220756 0.005014227 6.615729e-05
-0.005177165 -0.0017126354 0.0052522114 -0.0031233581 -0.0026694934 0.005389571 0.005924661 0.0003655092
0.0048160898 -0.00029967242 0.0026470332 -0.007616129 0.003313265 0.0062694326 0.00296748 0.0040926114
0.0022318123 0.003208737 -0.0045710625 -0.0049790065 -0.0036707027 -0.0055546756 -0.003731387 0.0062430017
-0.004258431 0.0023386609 -0.002636902 0.004226132 -0.002438191 -0.003482817 -0.0047010533 0.003861542
-0.008140031 -0.010828063 -0.0077767596 0.007421215 0.012863982 -0.0032105471 0.0070999167 0.007119712
-0.0064739203 0.009973252 0.00302079 0.0077032805 0.008158022 -0.009613402 -0.00071974343 -0.006090035
-0.0071630524 0.009223825 -0.010060326 0.00803701 0.008290277 -0.009723304 0.007862032 0.005896314
0.008527923 0.008838557 -0.009254313 0.006339188 -0.01371756 0.008493518 -0.009783729 0.008050563
0.0067867944 0.002901544 -0.007873165 0.008721026 0.0067191776 -0.004798718 -0.007827846 0.0034891483
-0.0009783796 -0.01067464 -0.009054241 -0.008013677 -0.008179237 -0.009230823 -0.011625881 -0.008892734
0.004847781 -0.007066545 0.00665701 0.00903467 -0.0023466242 -0.009667744 0.008053489 0.0040454012
0.0075724367 -0.008763775 0.0077222316 -0.0113740675 0.009455825 0.0073939837 0.009279133 -0.009727546
00000000: 5282 ff3b 2bbd 093b 8719 d53b da9d a8bb
00000010: c3a0 a0ba 4ca4 ea3b 6479 64bb 9bc6 8bbb
00000020: 7c83 993b 2356 1fbb 2bd5 863a 683a 58bb
00000030: b2a8 8fbb db12 8a3b e137 933a 3ab9 693b
00000040: 5877 ae3b de18 3cbb bf56 b13b 0a9b 9cbb
00000050: b08e 3bbb 4e87 583b b3ff 83bb aeca 98bb
00000060: 2517 64bb 69f6 9abb c5f4 aa3b 4b38 e0ba
00000070: 531f 3dbc f21d abbb 624e a43b edbd 8a38
00000080: 35a5 a9bb 827a e0ba be1a ac3b 41b1 4cbb
00000090: abf2 2ebb 009b b03b a923 c23b d0a1 bf39
000000a0: 4ad0 9d3b 5a1d 9db9 d979 2d3b b890 f9bb
000000b0: 5d23 593b d06f cd3b 0e7a 423b 501b 863b
000000c0: 9943 123b ac49 523b dac8 95bb ef26 a3bb
000000d0: 2c90 70bb ff03 b6bb 498a 74bb 1892 cc3b
000000e0: 4f8a 8bbb 3844 193b e0cf 2cbb 5d7b 8a3b
000000f0: 0fca 1fbb f93f 64bb 4b0b 9abb ed11 7d3b
00000100: c45d 05bc 3068 31bc 30d4 febb aa2d f33b
00000110: 73c3 523c 0b68 52bb 6ba6 e83b 794c e93b
00000120: 2e23 d4bb da66 233c 72f8 453b cd6b fc3b
00000130: 39a9 053c 8881 1dbc 2aad 3cba eb8e c7bb
00000140: 0ab8 eabb 871f 173c 11d4 24bc aaad 033c
00000150: f1d3 073c 7e4e 1fbc c1cf 003c de35 c13b
00000160: b4b8 0b3c 98cf 103c 679f 17bc f7b8 cf3b
00000170: 9ebf 60bc 6628 0b3c ef4b 20bc 82e6 033c
00000180: c263 de3b d527 3e3b 73fe 00bc a2e2 0e3c
00000190: 8c2c dc3b 903e 9dbb 5e40 00bc 32aa 643b
000001a0: f93c 80ba afe4 2ebc 3d58 14bc cc4b 03bc
000001b0: 3502 06bc e13c 17bc 7b7a 3ebc d4b2 11bc
000001c0: 22da 9e3b 7a8e e7bb 0c23 da3b 2706 143c
000001d0: d2c9 19bb 7565 1ebc c8f2 033c 498f 843b
000001e0: 3422 f83b f095 0fbc c60a fd3b 4c5a 3abc
000001f0: 9bec 1a3c 3b49 f23b 8107 183c 4960 1fbc

act.action_out.fc_mean.bias f4 [2]
-0.0039100545 0.008274161
00000000: ea1f 80bb 5990 073c

act.action_out.logstd._bias f4 [2, 1]
-0.0033018943 -0.0020745303
00000000: 9864 58bb d8f4 07bb
